models/BasicNet Ensemble-3model-1.pt (torch, 180551 bytes, 10 tensors)

conv1.weight f4 [6, 1, 5, 5]
000000 b7 2d d9 3d b2 0a 6e bc dc cd 8c 3e b0 54 a8 3d
       0.106044225 -0.014528917 0.27500808 0.08219278
000010 d4 d1 28 3e f3 6a 84 3e f0 43 5b 3e f3 f8 08 3e
       0.16486293 0.25862846 0.21412635 0.13376217
000020 0f f6 7e 3e 28 2f 7f 3e d5 e3 4f be 80 9e 0b 3c
       0.24898551 0.24920332 -0.20301755 0.008521676
000030 4a 32 2f bd 51 dd 87 3c d4 09 f4 3d ff 8d ba be
       -0.04277257 0.016585024 0.11915937 -0.3643646
000040 ed 96 ec be a7 63 35 be d4 18 a3 be da 39 a5 be
       -0.46208897 -0.17713796 -0.3185488 -0.322707
000050 ea e4 55 3d 41 45 8b bd 04 95 94 be 23 b1 ea bd
       0.052220263 -0.068003185 -0.2901994 -0.114595674
000060 6c 4f 72 bd e5 d9 f8 3d 71 7e c3 bd 36 de 9c bd
       -0.059157774 0.12150935 -0.09545601 -0.07659571
000070 6b e6 41 be b2 81 9b bc 8f 66 e7 be 0c b9 de be
       -0.18935554 -0.018982742 -0.45195433 -0.43500555
000080 31 ed d2 be ca 2f ad be 94 4e c1 be 2f 65 9a be
       -0.41196588 -0.33825523 -0.37755263 -0.30155322
000090 7d 2b 04 be 7e ea f1 bd 1d 3b a7 bd 52 b6 31 bd
       -0.12907214 -0.11812304 -0.08165572 -0.043386765
0000a0 f5 26 e2 bd ca c4 ad 3d 3a 1c 2b 3e 7e aa 52 3e
       -0.11042587 0.084848 0.16709986 0.2057285
0000b0 dc 2d f7 3d 9b 89 46 3e d3 53 3f 3e 1d cc 43 3e
       0.12069294 0.1938843 0.1868432 0.19120832
0000c0 4a 9d 18 3e 19 78 6c 3e ef 68 1b be dd f8 16 be
       0.14903751 0.23092689 -0.15176748 -0.14743371
0000d0 9a ae 90 bd eb 96 7f 3e 71 33 b8 3d a1 fb 88 bd
       -0.070645526 0.24959914 0.08994187 -0.066886194
0000e0 36 46 32 3e fd e2 26 3e a9 89 8a 3e 99 b5 51 be
       0.17409596 0.16297527 0.2705815 -0.2047943
0000f0 c9 15 28 bd bf fe 8f 3e b2 5a a7 3d df 86 05 3e
       -0.0410364 0.28124043 0.08171596 0.1303973
000100 9d 68 8a be 76 8b 90 3d f2 ff da 3b fa c2 b7 3d
       -0.2703294 0.0705785 0.006683343 0.08972736
000110 6d b8 c9 bd be c6 20 bd 18 61 58 3c 31 d7 53 3e
       -0.098496296 -0.039252035 0.013206743 0.20687558
000120 3d 54 0a bd ae 20 47 3d 2a 0c 6b be ba c3 42 bd
       -0.033771742 0.04861515 -0.22953859 -0.04754994
000130 8b 32 b7 be 7e aa 99 3d 34 ae 78 3d 01 4d b0 3c
       -0.3578075 0.07503222 0.060713008 0.021521093
000140 ec 81 cf bd fb 06 9f 3d d1 03 87 3a ab 1f 20 3e
       -0.101322025 0.07765003 0.001030082 0.1563708
000150 30 ac 1b 3e cc 13 8e 3e 1a 5b 78 3e 11 b6 71 3e
       0.15202403 0.2774948 0.24253502 0.23604609
000160 b6 af 34 be ac 53 02 be 38 7a 85 3e c3 e6 48 be
       -0.17645153 -0.12727231 0.26069808 -0.19619279
000170 d6 79 ab be 6b 2d e0 3d 2e 18 e8 bd 12 ee 0e be
       -0.3349139 0.10946163 -0.11332737 -0.13958004
000180 98 97 3c be c7 38 24 3e b0 13 76 3d d0 f7 04 3e
       -0.18417203 0.16037284 0.06007737 0.12985158
000190 7d 60 5d bd 91 90 eb bd 06 23 a8 be a4 54 36 3e
       -0.054047097 -0.11502183 -0.3283922 0.17805725
0001a0 7b 7b 1a 3e 3f fa 7b be 37 26 ea bd ed 1c 4b be
       0.15086167 -0.2460718 -0.1143307 -0.19835253
0001b0 9e 90 ca 3d a9 b8 3f 3e bb f0 72 bd ea 8e 64 be
       0.09890865 0.18722786 -0.05931161 -0.22320142
0001c0 f0 fb fc bd a6 58 38 3e 33 08 60 3e d2 28 81 be
       -0.12352741 0.18002567 0.21878128 -0.25226456
0001d0 6e 66 41 be d1 14 08 3e 79 b1 93 3d 2a 85 14 3e
       -0.1888673 0.13289191 0.072115846 0.14503923
0001e0 3a dd a6 be e0 17 99 3d 4e b9 86 bd 87 70 4d 3e
       -0.32590657 0.07475257 -0.06578313 0.20062457
0001f0 2f 1d eb 3c 27 34 d8 3d 21 27 55 be d1 a0 69 3c
       0.02870044 0.10556822 -0.20815708 0.014259533
000200 33 d7 f7 bd 4b 00 f9 be 82 92 35 3e bf e2 eb 3d
       -0.12101593 -0.48633036 0.1773167 0.11517858
000210 2e 52 5e bd 04 ed b7 be f3 01 14 bf 6a 49 3b be
       -0.05427759 -0.35923016 -0.57815474 -0.18289724
000220 86 4e f8 3d ac b5 2c 3e c2 d6 dd 3e 75 e3 cd 3c
       0.12124352 0.16866177 0.4332791 0.025132874
000230 f7 56 a0 3d 54 d7 b0 3c 6e 31 99 3e f9 49 a6 3e
       0.07829087 0.021587051 0.29920524 0.32478312
000240 c9 b0 48 3e 1e 8f b4 bd 92 00 9c 3b 19 7e 83 be
       0.19598688 -0.0881636 0.00476081 -0.25682142
000250 88 e7 e4 bd 18 5c 88 3e
       -0.111769736 0.26632762

conv1.bias f4 [6]
000000 ce 48 a3 bd 9b 82 c7 bb 16 95 39 be 35 a7 af 3c
       -0.07972871 -0.0060885674 -0.18123278 0.021442035
000010 12 00 b4 3d ed 8f 3c 3d
       0.08789076 0.046035696

conv2.weight f4 [16, 6, 5, 5]
000000 f5 91 0d be 60 24 af 3c 1d bc cd 3b 74 45 1a be
       -0.1382521 0.02137965 0.0062785284 -0.15065557
000010 c5 a0 9a bd 92 11 8d bc f5 e5 2e be f9 64 45 be
       -0.075501956 -0.017220292 -0.17079909 -0.192768
000020 e5 80 62 be 93 6c b3 bd 08 31 94 3a e8 6c 43 be
       -0.22119482 -0.08760943 0.0011306116 -0.19084513
000030 5b 32 71 be 7d 4f 0b be 6c d0 29 ba 76 1f 4b be
       -0.23554365 -0.13604541 -0.00064778957 -0.1983622
000040 ea 2a ce be a0 2e 21 be 43 a0 19 3d e3 ab 62 3d
       -0.40267116 -0.15740442 0.037506353 0.055339705
000050 7a 27 ef bd 19 94 54 be 19 79 62 3d 36 22 ce 3d
       -0.116774514 -0.2075962 0.05529127 0.10065119
000060 5d a8 19 3e 17 b8 e4 3c 15 4c 7f 3d ee e5 87 3d
       0.15005632 0.027919812 0.062328417 0.066356525
000070 98 77 14 bd cc 57 1f 3c 21 22 f6 3d 7a 6b 1e 3e
       -0.036246866 0.009725522 0.12018228 0.15470687
000080 e3 a8 b4 3d 98 45 64 bd 37 e0 05 bd 5d c3 c5 bd
       0.08821275 -0.055730432 -0.03268453 -0.09656403
000090 10 15 34 bd cd 24 dc bc 50 94 04 bd 31 43 f1 3d
       -0.0439654 -0.026873017 -0.032368004 0.11780394
0000a0 99 96 35 3d 4a ae 30 bd d9 cd 82 be 46 5e ab 3d
       0.044333074 -0.043134965 -0.25547674 0.083675906
0000b0 2c 8a 20 3e bf d0 ab bc 99 57 55 be 08 1d 12 3e
       0.15677708 -0.020973561 -0.20834197 0.14268887
0000c0 77 d7 45 3e 1a 59 41 bc 3c 26 27 3d a5 10 7d 3d
       0.19320475 -0.011801029 0.040807948 0.06178345
0000d0 b0 e3 d1 bd 71 58 89 bd 7c 75 38 3d 1b df b0 3c
       -0.10248506 -0.06706322 0.045033917 0.02159076
0000e0 cc 07 54 bc 65 1d 9e 3d 4c c1 4f 3d f1 44 2b 3d
       -0.012941312 0.0772045 0.05072145 0.041813795
0000f0 6a 9f 39 be 9e 54 c4 bc be b3 f7 3d 6c 42 dd 3d
       -0.18127218 -0.02396613 0.1209483 0.108036846
000100 15 3d c9 bd 47 2f d8 bc 12 68 df 3d bc 85 bf 3d
       -0.098261036 -0.026389731 0.10908522 0.0935168
000110 6d b9 8f bb 98 e9 8b be ae c7 9d 3e b2 e3 68 3e
       -0.004386118 -0.27326655 0.30816406 0.22743109
000120 19 d7 0b 3d 48 1c 02 be f8 fb 27 be 1f 8b 8f 3a
       0.03414068 -0.12706101 -0.16404712 0.0010951495
000130 4d 30 4e 3b 97 e0 44 be 67 2a e0 bd cb 42 87 3b
       0.0031461895 -0.19226299 -0.109455876 0.0041278354
000140 01 2e 4a bd 57 6e 41 be ce b4 a4 3c ae 5f c5 bc
       -0.04936028 -0.18889748 0.020105746 -0.024093475
000150 d8 b7 e7 3a 55 35 07 3e 4e 00 57 bc 59 e1 f4 bd
       0.0017678691 0.13203938 -0.013122631 -0.11957044
000160 06 56 b5 bb a9 16 91 bd 92 ea d2 3d 7a 95 55 bc
       -0.0055339364 -0.070844 0.10298647 -0.013036126
000170 11 71 1e 3d 7d d3 24 3d 57 a7 04 be 6f 60 3e 3e
       0.038682047 0.040240753 -0.1295446 0.18591474
000180 96 22 97 3e b4 e3 8a 3c 5c e6 28 be 45 4a 11 be
       0.29518574 0.01695428 -0.16494125 -0.14188488
000190 1a c7 07 bd 71 63 1b bd 6c 69 9e 3c d6 d9 07 3e
       -0.033148862 -0.03793663 0.019337378 0.13266692
0001a0 11 e5 5a 3d 33 e7 96 3d a6 d7 8c bd bb de 10 3e
       0.05344111 0.073683165 -0.06877069 0.14147465
0001b0 38 e0 20 3e ff eb bf bd 4b d5 9a bd 1e 50 61 3d
       0.15710533 -0.093711846 -0.07560214 0.055008046
0001c0 f6 d9 23 3c 5e 96 27 3d 31 31 a7 be f1 2c 03 3d
       0.010000696 0.040914886 -0.32654718 0.03202528
0001d0 fe 79 8b 3d 71 46 8a bd d4 bc b2 3c 8b cb 31 be
       0.068103775 -0.06751717 0.021818556 -0.17362802
0001e0 d8 97 0d 3d 03 fc 21 3c 58 85 6e b9 51 bb 16 be
       0.034568638 0.009886744 -0.00022747123 -0.14719893
0001f0 bf 82 64 bd 1d f4 8f bd e6 aa 5b bd c0 b4 55 3b
       -0.05578875 -0.07028983 -0.05362978 0.0032608956
000200 a6 d3 fc 3d cd de b3 3c 17 89 7a 3e 24 23 ff 3d
       0.12345056 0.021956826 0.24466358 0.124578744
000210 ed 96 3b bd a4 33 fd bd 6b c5 13 bd b5 51 bf 3d
       -0.04579823 -0.12363365 -0.036076944 0.09341756
000220 5c b4 b3 3d 25 99 d9 bd 4f 1f f1 bb 0a 79 a1 bc
       0.08774635 -0.10624913 -0.0073584686 -0.019711036
000230 38 3a 3e bd b5 5a af bd 9c 3a 53 be 68 d0 e8 bd
       -0.04644224 -0.08562223 -0.20627826 -0.11367875
000240 7b 03 1a 3e 04 52 80 bc 3b af 98 be d2 af 74 bd
       0.1504039 -0.015664108 -0.2982119 -0.059737988
000250 8a d8 b2 bb 09 c3 0d be f5 b8 00 be 8a 40 e5 bc
       -0.0054579424 -0.13843931 -0.12570556 -0.027984876
000260 b9 23 65 3d ce 24 16 3c 23 0f 7a bd c3 df 3e bd
       0.05594227 0.009164048 -0.06104959 -0.046600115
000270 d5 08 2d be bb fa 66 bc 1f 92 21 bd f1 eb 19 be
       -0.168979 -0.014097865 -0.039445993 -0.15031411
000280 0b 9d b9 bc 01 6e a6 3d f7 6f ad bd 8b c4 41 bd
       -0.022657892 0.0812645 -0.08468621 -0.04730658
000290 81 af f9 3d 2c 46 1c 3d 06 4f 2f 3e a6 2d 22 3e
       0.12191678 0.03815286 0.17119989 0.15837726
0002a0 2f e8 c2 3b ef 75 58 3d 0e 0d 70 bc aa 1b fb 3c
       0.0059480886 0.052846845 -0.01465155 0.03065284
0002b0 a1 d7 e1 3d 93 90 cd 3d e7 39 8d 3d b9 fd 3f 3e
       0.11027456 0.10037341 0.068958096 0.18749131
0002c0 b8 29 a7 bc 69 d2 8c bd 68 2c bc bd ed 63 d1 bd
       -0.020405635 -0.0687607 -0.09188157 -0.102241375
0002d0 bf 72 36 3e 46 d2 53 3e 43 81 96 3d 33 31 12 3e
       0.1781721 0.20685682 0.073488735 0.1427658
0002e0 5f ed 6c 3d 98 b2 20 3e 51 96 22 3e 6a c0 f4 3d
       0.057843562 0.15693128 0.15877654 0.119507626
0002f0 36 0f fe 3c ad 53 c0 3d 43 ab 14 bd 94 d3 d6 3d
       0.031013113 0.0939096 -0.03629614 0.10489574
000300 43 4a b8 3d 30 6d b2 3d 29 8f 5b 3c f5 af 88 be
       0.08998539 0.08712232 0.013400831 -0.26696745
000310 db ad 40 be 5f ab fc bd b6 25 76 be 3a d8 37 be
       -0.1881632 -0.12337374 -0.24037823 -0.17953578
000320 3e 42 d4 bd 62 8c 88 bb bb 3c 7d bc a9 7c 73 bd
       -0.10364197 -0.0041671256 -0.015456374 -0.059445057
000330 3c ab 52 be 61 ca dd 3b c9 15 07 bd a3 d1 43 be
       -0.20573133 0.00676851 -0.03297976 -0.19122939
000340 20 fd 43 be 31 54 43 be b6 66 ab 3d b0 f4 d1 3b
       -0.19139528 -0.19075085 0.083692 0.006407343
000350 03 ff f9 bd a9 43 bd bd be 9e 00 bd 6a b6 42 bc
       -0.12206843 -0.09241421 -0.03140139 -0.011884311
000360 1a 4f c7 3c 7a 84 29 3d 32 fb 6d bd 51 29 f3 bd
       0.02432971 0.041386105 -0.058100887 -0.11873115
000370 af 9f 08 3d 83 6f 01 be e6 60 9b bd e6 8d ce 3d
       0.03335541 -0.12640195 -0.07586841 0.10085659
000380 b4 8e ce bd 52 ab 56 be e0 26 99 bd d2 4b 85 3c
       -0.10085812 -0.20963791 -0.07478118 0.016271506
000390 71 ad bc bd 8a b2 3a be 93 6e 43 3d b6 d5 92 3d
       -0.09212769 -0.1823217 0.047712874 0.071696684
0003a0 c3 f2 9f bd 3d fe 65 be 4e 32 1d be 67 62 24 3d
       -0.07809975 -0.22460265 -0.15351221 0.040132906
0003b0 c1 f8 1b 3d b3 91 db 3c 7c 04 1c 3c 44 63 74 bd
       0.038079027 0.026802873 0.0095225535 -0.05966498
0003c0 7a 10 eb 3d fb 41 05 3e 1a aa b9 3d 47 84 83 bc
       0.11477752 0.13013451 0.090656474 -0.016054286
0003d0 a8 ab 49 bd 66 f6 d4 bd 1b 29 65 bd 9d d2 fb bc
       -0.04923597 -0.10398559 -0.055947404 -0.030740077
0003e0 47 4d 9e 3d 2b bf a1 3d 16 02 df 3c ce 16 99 bb
       0.07729583 0.078977905 0.027222674 -0.004671908
0003f0 7d e3 56 3d 21 9e bc 3d 3c 18 3d 3b 26 98 06 be
       0.052463043 0.09209848 0.0028853556 -0.13143978

conv2.bias f4 [16]
000000 b6 b1 7e bc ee 91 a1 3c a0 be e3 bd b0 3e a1 3d
       -0.015545299 0.019722905 -0.11120343 0.07873285
000010 06 ff b1 bc ce 58 56 3c 02 29 b1 bc e8 bd ea bd
       -0.02172805 0.013082696 -0.021626 -0.11462003
000020 6a c1 0b bd cf 95 47 bd 41 ea df 3d b8 54 7f 3d
       -0.03412 -0.048726853 0.10933352 0.062336653
000030 cd 2e a6 3d de e5 05 bd 88 ba ab bd 5a b2 0f 3d
       0.08114395 -0.03268992 -0.083851874 0.0350822

fc1.weight f4 [120, 256]
000000 68 95 06 3d 6b 25 9c bd 20 13 04 bd 62 b1 23 be
       0.03285733 -0.076243244 -0.0322448 -0.15985635
000010 fe ea 07 3b 9f 0e ac 3c f3 27 78 3d d6 be b1 bc
       0.0020739431 0.021003066 0.060584974 -0.021697443
000020 12 aa 66 3e b3 76 4c 3d a1 ae 0c 3e de 2f f3 3c
       0.22525814 0.049917888 0.1373849 0.02968591
000030 dd d7 3f 3e 35 5d bd bb d5 11 47 3c d4 ec 80 bc
       0.18734689 -0.0057789334 0.012150248 -0.015737928
000040 48 09 ed 3b 47 11 2c 3d 53 83 a3 3c 4e c9 01 bd
       0.0072337724 0.042008664 0.019960081 -0.03168612
000050 99 8a 2a 3d fc 7b 73 bc 3b 9b 63 bc 8c b0 4e 3d
       0.041636083 -0.014861103 -0.01389199 0.050461337
000060 52 7b 86 3d f5 b5 96 3d 46 b8 89 3d 42 40 0d bb
       0.0656649 0.07358924 0.067246005 -0.0021553193
000070 31 bd d4 bd 6b 1e 57 3d 3d a9 70 3d 23 85 91 3d
       -0.10387648 0.052519243 0.05875515 0.07105472
000080 e8 b1 c1 bc 0d 5b 2c 3d 87 24 bd 3d 71 76 0b be
       -0.023644403 0.04207902 0.09235483 -0.136194
000090 ac 79 36 3c 14 00 39 3d 4f a1 b0 bd d0 c6 6a bd
       0.011137407 0.04516609 -0.08624517 -0.05731851
0000a0 82 87 0f be 08 1d 9f bd d8 84 bd bb dd 96 f7 3d
       -0.14016536 -0.07769209 -0.0057836585 0.12089322
0000b0 9a 59 de bc 50 96 c8 3c ab c8 a4 3d 4a 99 26 3e
       -0.027142335 0.024485737 0.08046087 0.16269413
0000c0 7b 95 14 3e 8e 6e 3a 3e b6 3e c7 3c dd e5 cf bd
       0.14510147 0.18206236 0.024321895 -0.10151265
0000d0 9d bc 57 3d 01 67 90 3c f3 da a3 bd c9 2a 81 bd
       0.05267011 0.017627241 -0.080007456 -0.06306989
0000e0 7d 22 d6 bd 84 99 ba bd 07 6c ae 3d 1b 3a 96 3d
       -0.10455797 -0.09111312 0.08516698 0.073353015
0000f0 2d 9b fc bc 5b 50 8e 3d 64 11 8e bd cb dc 22 3d
       -0.030835712 0.0694892 -0.06936911 0.039761346
000100 b3 c5 e9 3d 00 dc 0a 3d 4b 79 a7 3b 71 f2 f2 bd
       0.11414661 0.033901215 0.005110895 -0.11862648
000110 ce 0b 8d 3c 74 a1 7f bc cf a3 9b 3d 87 8e 34 bd
       0.017217543 -0.015602458 0.075996034 -0.044081237
000120 9f 04 73 bd ca 88 4a be 21 6b 34 bc 44 83 3d 3d
       -0.05933058 -0.19778743 -0.01101187 0.046267763
000130 af 8d 8e 3d b0 34 83 bd 1a 78 bc 3d d8 b8 25 3e
       0.06960618 -0.06406534 0.09202595 0.16183794
000140 e0 e1 0e 3d 06 da 64 3d 49 85 8f bd c6 07 c9 bd
       0.03488338 0.055871986 -0.07007844 -0.09815936
000150 98 aa 91 bc 6d cd a6 bc a7 f6 83 bc e1 3a f8 3c
       -0.01778154 -0.020361627 -0.016108824 0.030301513
000160 4c 93 bf bd 17 92 34 3d 3e 0e be 3c 07 50 8d 3e
       -0.093542665 0.044084635 0.02320015 0.2760012
000170 8a 56 24 bc 08 51 10 bc 50 42 fe 3b db 4e 42 3e
       -0.010030398 -0.008808382 0.00775937 0.18975393
000180 70 bb cf 3c 90 cb 13 bd 12 2b ec 3c cc 99 2d bd
       0.025357932 -0.036082804 0.028829131 -0.042383
000190 32 71 a5 bc e9 fb 95 3b da 12 4f 3d 36 04 30 bd
       -0.020195577 0.004577149 0.050555088 -0.042972766
0001a0 46 df b4 3c c9 d5 27 3d 3e a1 56 3d 87 23 e9 3b
       0.022079121 0.040975366 0.052399866 0.007114831
0001b0 10 cc 88 3d 09 06 96 bc ce 82 d0 3b 88 58 69 3d
       0.06679547 -0.018313425 0.0063632494 0.056969196
0001c0 47 a2 b0 3d 82 33 58 3d 3c 2e 04 be a0 4a 86 be
       0.08624702 0.052783497 -0.12908262 -0.2622881
0001d0 8b 84 d5 bb fb 44 e1 bc f6 9f dc bd 5c 02 b1 bd
       -0.0065160445 -0.027498713 -0.10772698 -0.08643028
0001e0 6e 03 61 3d e6 58 97 3d 3a aa 45 3d 36 2c 21 3e
       0.05493491 0.07390003 0.048258044 0.15739521
0001f0 bb 3a 30 3d 01 1d 40 3c 7c ea d9 3b f9 bf 67 bb
       0.04302476 0.011725665 0.006650267 -0.0035362227
000200 12 31 27 3d 58 81 e3 3d 0e 9c af 3d d3 7b ab 3d
       0.04081828 0.11108655 0.08574687 0.08373227
000210 75 62 0a be 1b 71 04 bd 7c cc 95 3d c6 04 1c 3c
       -0.13514121 -0.03233443 0.07314393 0.009522622
000220 bd 63 d9 bc d2 d8 fe b9 5c 4f 75 bd 79 da a5 bc
       -0.026536817 -0.000486082 -0.059890136 -0.020245777
000230 88 a7 d8 bb 5f ce b3 bc 4b 29 c7 3c 24 37 4f bd
       -0.006611768 -0.021948991 0.024311682 -0.050589696
000240 58 29 f3 bd dc 69 95 bd d8 51 2f 3d fb f2 b2 bd
       -0.1187312 -0.07295582 0.04280266 -0.08737751
000250 1f 62 22 bd 00 90 42 3e 21 e3 2e 3e 42 53 76 bb
       -0.039644357 0.19000244 0.1707883 -0.0037586247
000260 7c 9a 6b 3d 40 66 62 be 50 5f 00 3c ca 1d 29 be
       0.057520375 -0.22109318 0.007835224 -0.1651527
000270 88 80 de bc be b6 aa bd 43 12 39 be e0 81 8f be
       -0.027160898 -0.083356366 -0.18073373 -0.28028774
000280 b8 90 0f 3d fa 95 f5 bd f4 5c 94 bd 3a 0b 1c bd
       0.035050124 -0.119914964 -0.07244292 -0.038096644
000290 ee 31 ee bc f7 57 9e 3d 58 d6 ea 3d 93 d6 00 3e
       -0.029076543 0.07731622 0.11466664 0.12581854
0002a0 b8 31 cf 3d d8 bb c0 3c b7 2e aa 3b 4c 1c aa 3c
       0.10116905 0.02352707 0.005193557 0.020765446
0002b0 e8 91 59 3e b9 41 50 bc ae 87 4c be 36 72 87 be
       0.21247065 -0.012710982 -0.19973633 -0.26454324
0002c0 eb 20 59 3d ee 00 d7 bc 43 d7 ab be bf b7 af bd
       0.05300991 -0.02624556 -0.3356267 -0.08579969
0002d0 86 80 93 bd de 8e 5c bd f0 8b de ba 7a 20 e2 bd
       -0.07202248 -0.053847186 -0.001697896 -0.11041351
0002e0 1c 70 09 bd ce 9d fb 3d 54 5c 27 3d 0e 87 bd 3c
       -0.03355418 0.12285958 0.040859535 0.023135688
0002f0 82 f3 67 3e f0 52 30 3e 22 a2 8b bc a7 f5 06 be
       0.22651485 0.17219138 -0.017045084 -0.13179646
000300 49 9b 60 3a 52 ab 1a be 05 be 5f be 91 e1 67 bd
       0.0008568061 -0.15104416 -0.2184983 -0.0566116
000310 70 d2 b4 3d 02 44 c9 3c 21 67 09 be 2f b2 87 3d
       0.088292 0.024568561 -0.13418247 0.06625783
000320 fc 0b fa 3d ec 97 ed 3b 40 10 98 3d 4f 65 b9 3b
       0.12209317 0.0072507765 0.074249744 0.005657829
000330 84 c6 ca 3d 58 ee 7f 3d 85 c5 22 bd c8 51 1b bc
       0.09901145 0.06248316 -0.03973915 -0.009479947
000340 f7 85 f7 3d 2f 4d 9a bc 86 4a 16 bc 1a ac 7a be
       0.12086099 -0.018835632 -0.009173041 -0.24479714
000350 b2 16 49 bd 23 21 cd bd ff ed 91 bd 5b 35 0c be
       -0.04909391 -0.10016086 -0.07125472 -0.13692228
000360 9d 77 b6 3c 3a de 33 3d 84 21 8d bd 6a 07 ae 3d
       0.022273833 0.043913104 -0.06891158 0.08497508
000370 68 e1 06 3e 71 19 dd 3d b7 a9 99 3c 79 aa 2a 3d
       0.13171923 0.10795868 0.018757684 0.04166648
000380 8e c1 87 bd dd a2 59 ba e8 38 e7 bd ce 7b f8 3c
       -0.066287145 -0.00083021616 -0.11290151 0.030332472
000390 a9 6b 8f bc 7a dd 07 3d da 8c 50 bd 51 91 fd 3d
       -0.017507391 0.0331702 -0.050915577 0.123812325
0003a0 93 2d 40 be 4d 49 3c be 0c 24 40 3d e1 b3 25 3d
       -0.18767385 -0.18387337 0.046909377 0.04045475
0003b0 8e 89 58 bd 96 8b 57 be 51 dc da bd e9 16 13 bd
       -0.052865557 -0.21049342 -0.10686553 -0.03591052
0003c0 a7 35 13 3b 16 10 ac bc ef 78 04 bd 73 32 dc 3b
       0.00224624 -0.021003764 -0.032341894 0.006719881
0003d0 a1 08 99 bd 3e cc 03 3d f4 f0 a4 bc dc 19 0b bd
       -0.07472349 0.032177202 -0.020134427 -0.03396021
0003e0 8a ff 9b 3d 1e 0b 3f 3e bd 23 ec 3d 8d 15 52 bb
       0.076170996 0.18656585 0.11530254 -0.0032056302
0003f0 49 26 93 3e 94 f7 48 3e db c2 08 3e 0b e7 0a be
       0.28740147 0.19625694 0.13355581 -0.13564698

fc1.bias f4 [120]
000000 30 67 84 3c a6 d8 e1 3c 0a dc c2 bd 45 bb c3 3d
       0.016162485 0.027569126 -0.09514625 0.09557203
000010 54 a5 04 bd 82 45 d2 bc ee fc d7 3b d7 5c f7 3c
       -0.03238423 -0.02566791 0.006591431 0.030195637
000020 44 d5 41 bd b7 a7 76 bd ca af 1f bd ec cc 6b 3d
       -0.047322527 -0.06021854 -0.038986005 0.057568476
000030 fe d9 bc bc 1d 31 3c 3d a0 6f 51 3d b5 c5 55 3c
       -0.023053166 0.045945276 0.051131845 0.013047625
000040 08 09 a4 3c aa 32 0d bd b0 37 44 bb 9f f7 5f 3c
       0.020023838 -0.034472145 -0.002994042 0.013669877
000050 8c 50 dc bb 3a aa 36 bd 2e 06 03 3d ff 28 30 bd
       -0.006723469 -0.044595934 0.031988315 -0.043007847
000060 29 3a 0a 3d e8 56 80 bd f7 9b 1c 3e 8f 01 0e 3d
       0.033746872 -0.06266576 0.15293871 0.034669455
000070 c8 96 43 3d 1d 30 65 bc 09 0d 71 3c 93 5d 9a 3a
       0.047751218 -0.013988522 0.0147125805 0.0011777155
000080 54 cd a5 bd 18 b8 c7 3b 5a 84 de 3c 42 b4 6c 3d
       -0.08095804 0.0060949437 0.02716272 0.057789095
000090 7a 9d 9c 3c 8f 40 bf 3d 80 2e 32 3c f7 2f 2f 3c
       0.01911806 0.093384854 0.010875344 0.010692588
0000a0 a5 a8 c7 3c 64 1b 9d bd a8 6e d6 bc bd a1 5e 3d
       0.024372408 -0.0767124 -0.026175812 0.054353464
0000b0 eb f0 0e bb 09 85 b6 bd 0a 24 33 3c c5 96 2f 3d
       -0.0021811079 -0.08912093 0.010933885 0.042868394
0000c0 8b fe 04 bc 20 3f d7 bc 36 94 3f 3b 17 7d 33 bd
       -0.008117328 -0.026275218 0.0029232628 -0.043820467
0000d0 99 18 f0 bc b0 3e 7f bd 33 e9 db 3b ef 5c a3 3c
       -0.029308604 -0.062315643 0.006711149 0.019941775
0000e0 6a d8 79 3d 81 5d 58 bc 60 ce ca 3c a3 6b 94 3c
       0.060997404 -0.013205887 0.02475661 0.018117731
0000f0 bb 8e 82 3d 75 e1 fe bd a9 72 d9 bc c9 06 d8 3c
       0.0637488 -0.12445346 -0.026543932 0.026370423
000100 d2 4a 7f bd 5c 13 20 3c 4d d2 3d 3d bf 2e 65 bc
       -0.062327214 0.009770241 0.046343137 -0.013988196
000110 70 89 17 bc 05 33 b9 3c dc 58 24 3c 64 25 05 3e
       -0.009249076 0.022607336 0.010030951 0.13002545
000120 0a 57 14 3d 23 b1 e8 bc b9 4f 26 3d b5 55 27 bd
       0.03621582 -0.028404778 0.040603373 -0.04085322
000130 89 f4 1d bd ca eb b8 3c 38 66 e4 3c 0c 74 62 3d
       -0.038563285 0.02257337 0.027880773 0.055286452
000140 9f b9 06 bd 72 4d 45 3d dc 2c 25 bc 12 e1 79 3d
       -0.032891866 0.04816956 -0.010081496 0.06100566
000150 6f 71 a1 bd 75 5a 9c 3d ca ee cc 3d 7c ea 8e 3d
       -0.07882964 0.07634441 0.10006483 0.06978318
000160 23 d0 f5 3b e4 08 fd 3a 32 c9 e2 bd 3c 56 95 3d
       0.0075016185 0.0019305018 -0.11073531 0.072918385
000170 92 c6 a3 3d 88 69 95 3d 83 a0 33 bd 06 1a 87 3c
       0.07996859 0.07295519 -0.043854248 0.016491901
000180 1a 91 19 3d 6f 88 37 3d 48 cb 00 bd fe d8 b6 bd
       0.037491895 0.044807848 -0.031443864 -0.08928107
000190 b4 22 9e 3b b1 1f 24 bd 64 8b 19 3d a9 86 73 bd
       0.0048259143 -0.040069286 0.03748645 -0.059454594
0001a0 8d 14 95 bd 3e ec 01 3c 32 34 ea bb b8 b7 5f bd
       -0.072793104 0.00792986 -0.0071473354 -0.054618567
0001b0 77 6e 69 bd ad 59 82 bd 81 60 4e bc c6 32 41 bd
       -0.056990113 -0.063647605 -0.0125962505 -0.047167562
0001c0 9a 46 af bd e6 df b9 3d 44 48 d6 bc 2b 7a 2c 3c
       -0.08558388 0.09075908 -0.026157506 0.010527174
0001d0 9f f6 0f 3c 69 cc 3a bd 3b 21 e0 3d 37 51 54 3d
       0.008786826 -0.045605097 0.10943838 0.051835265

fc2.weight f4 [84, 120]
000000 0e f1 5e bd 61 7c 61 bd ee d3 93 bc 4b 16 8c 3d
       -0.054429106 -0.055050258 -0.018045392 0.068401895
000010 88 95 38 3c 65 89 2b bd 65 3e ad 3c 3b 35 53 3d
       0.01126612 -0.041879077 0.021147916 0.051564436
000020 bd c2 3b bc c8 5a ee 3c 18 27 56 bb 0e 29 48 bd
       -0.011460003 0.029096022 -0.003267711 -0.048867278
000030 f1 d0 d2 bd 46 eb 82 bd 94 07 31 bd 34 59 cb bd
       -0.10293759 -0.06392531 -0.043220118 -0.099291235
000040 d2 53 17 3d 86 ca df bd 4f f2 5b 3d c1 c1 a7 bd
       0.03694517 -0.109273 0.05369788 -0.081912525
000050 05 5f ad bd b8 85 e4 3c 59 77 cb bd 13 e8 89 bc
       -0.08465389 0.027895793 -0.09934873 -0.016834294
000060 d5 49 96 bd 40 3a c1 3c d1 ad 31 bc aa 43 a5 bd
       -0.07338301 0.023587346 -0.010844664 -0.080695465
000070 94 26 06 bd 72 9c 1a 3c f8 4e af bd e9 fc 7c bb
       -0.032751635 0.0094367135 -0.08559984 -0.0038602895
000080 66 cf 52 3b c1 b3 b3 bd ab ba d8 bd 1a 39 9e 3b
       0.0032167076 -0.0877452 -0.10582479 0.0048285844
000090 8f e4 4e bd d8 d6 76 bd cb 2d 26 3c 7e f5 6a bd
       -0.05051094 -0.060263485 0.010142754 -0.057363026
0000a0 ef a3 a5 3d 87 bb b7 bd 90 b6 b9 3d f6 e7 81 bd
       0.080879085 -0.08971315 0.09068024 -0.06343071
0000b0 cb af 25 bd 85 65 13 3d c4 e4 8e 3d 2e dc 83 3d
       -0.040450852 0.03598549 0.06977227 0.0643848
0000c0 39 21 77 3d d7 1c bc bd 29 09 d8 bc d7 75 a2 bc
       0.060334418 -0.09185188 -0.026371555 -0.019831581
0000d0 33 5c da bc ad e8 1d bd 3d 52 d1 bd 51 89 b2 bd
       -0.026655292 -0.038551975 -0.10220764 -0.08717597
0000e0 2e bf 56 3c 46 05 d0 bd d4 7f 1b 3c 52 37 73 bd
       0.013107104 -0.10157256 0.009490926 -0.05937893
0000f0 d6 14 34 3d 6b 37 b6 bd 36 76 28 bc 27 1d 8f bd
       0.043965183 -0.08897289 -0.01028209 -0.06987982
000100 53 4d 9c bb 9b 6d bb bd 65 70 66 3c c3 ee a6 bd
       -0.00476996 -0.09151765 0.014064883 -0.08151009
000110 e4 0e 4b 3d 51 7f aa bd 00 46 15 3d 35 35 03 bd
       0.049574748 -0.08325065 0.03644371 -0.032033164
000120 3f ff 13 3d 5a 82 55 3d 43 53 fe bc 89 ce 83 3d
       0.036132094 0.052126266 -0.031045562 0.06435878
000130 04 64 29 bc af 6d 93 bd 13 d8 b3 bd ca aa a8 bd
       -0.010338787 -0.07198655 -0.08781447 -0.082357004
000140 11 53 36 bd a5 8b 9f 3c 3f ec 88 bc 19 c7 82 bd
       -0.044512812 0.019475767 -0.016714213 -0.06385631
000150 b5 17 d5 3a 39 f9 ad bd ba 77 3a bd b5 c7 0b 3d
       0.0016257676 -0.08494801 -0.045524336 0.034126002
000160 99 5d f7 3c 80 64 7f bd 15 bb ad bd e2 f4 a5 bd
       0.030195998 -0.062351704 -0.08482949 -0.08103348
000170 12 86 64 bd fa a6 8a bd 54 5d b2 3d 4f 59 81 bd
       -0.055791922 -0.067701295 0.08709207 -0.063158624
000180 dc d7 22 3d 8e 8a de bd 2f ba 1c bc 6e 63 75 3c
       0.03975664 -0.10866271 -0.009565874 0.014977319
000190 f7 bd 86 bd a1 ae 10 bd bb 35 36 bd 6e 53 e6 3c
       -0.06579202 -0.03532279 -0.044484835 0.028115954
0001a0 a7 a9 f6 bb 1d 7d 47 bd 4c 88 bb bd db 1d e0 bc
       -0.0075275484 -0.0487033 -0.09156856 -0.027357986
0001b0 f7 41 5e 3d ff a8 ad 3c 77 7a b8 bd 29 8a 5d 3c
       0.054262128 0.021198748 -0.09007733 0.0135217095
0001c0 73 75 4b bc 32 26 b1 3d 6e f5 d2 bd a5 ed 07 3d
       -0.012418139 0.08649863 -0.10300718 0.03318562
0001d0 82 8d 70 bd e4 2a 43 3c bd d5 93 bd 42 4f 66 bd
       -0.058728702 0.011912081 -0.07218502 -0.05622793
0001e0 51 81 06 3e b8 8a 05 3e cc 21 58 bd df ce 24 3b
       0.13135268 0.13041198 -0.052766606 0.002514772
0001f0 f5 57 ab bd 35 fd 51 3c 35 34 c3 3a ab 23 ad bd
       -0.08366386 0.012816717 0.0014892878 -0.08454069
000200 a7 ba 98 bd 55 96 06 bd 1a bb 92 3d 25 ab d2 bd
       -0.07457476 -0.03285821 0.07164593 -0.102865495
000210 5a 8d 70 3d bc 2f 44 bd 5f 47 bf 3d b8 2c 0f 3e
       0.058728553 -0.047897086 0.09339785 0.13981903
000220 7c 60 11 3c 4b f9 ca bc ec 81 b4 3d 11 b1 3c be
       0.008873101 -0.024777075 0.08813843 -0.1842692
000230 9b 1b d6 bc 08 1d 76 3d be a4 93 3d dd cf 30 3e
       -0.02613621 0.06008628 0.072091565 0.17266794
000240 8c e1 0d 3d 0e 3a 32 3d f8 03 d3 bd a1 27 27 3e
       0.034638926 0.043512397 -0.10303491 0.16323711
000250 d4 60 3d 3d 90 31 df bd ee 40 32 be 75 4a 81 3d
       0.04623492 -0.10898125 -0.17407581 0.0631303
000260 60 c6 ed 3c 94 e9 af 3c 53 88 3a 3d 54 4d 3b 3d
       0.029025257 0.021473683 0.045540165 0.045728043
000270 2f ea 6d 3d ae af de 3d c1 92 98 3d ae bd d5 3c
       0.058084663 0.10873352 0.07449866 0.026091423
000280 c2 84 63 bd bf a0 86 bb 56 ca 05 bd 3d bb 17 3e
       -0.05554653 -0.004108518 -0.032663666 0.1481752
000290 ab 80 84 3d 48 d9 ff 3d 59 d1 19 3e 24 7c 6c 3d
       0.06469854 0.12492615 0.15021266 0.057735577
0002a0 f3 84 c0 bd 0c 22 41 bd 6e 3b b0 3d c8 ea 96 bb
       -0.09400358 -0.04715161 0.08605085 -0.004605625
0002b0 94 86 b9 bd 39 ae 53 3c 73 d8 e2 bb 31 f2 8f bd
       -0.09058872 0.012919956 -0.0069227754 -0.07028616
0002c0 4b ac 9c bd e7 70 f3 bd b2 9f 74 3d 7a c9 59 bb
       -0.0765005 -0.11886769 0.05972261 -0.0033231662
0002d0 82 32 67 3d 91 bf bc 3c a2 8f 5f 3d 57 5e af 3d
       0.056444652 0.023040565 0.05458034 0.08562916
0002e0 30 45 7a 3d 3c 26 33 bd 68 ec 98 be 18 76 a1 ba
       0.06110114 -0.043737635 -0.29867864 -0.001231852
0002f0 a6 fc ce 3b 30 b5 09 3d 08 cd 3a 3d 7b 00 d7 3c
       0.006316739 0.03362006 0.04560569 0.026245346
000300 53 8a d6 3d f8 13 14 bd 60 48 fb 3c 2c 29 9a 3e
       0.10475602 -0.036151856 0.03067416 0.30109537
000310 9f 69 d5 bd 76 e1 54 3e 74 0d 1d bd 0c 61 de bd
       -0.10420536 0.20789132 -0.038342908 -0.10858354
000320 9a 67 4f 3d 8e 65 e2 bd 8c 11 3f 3b cc 02 37 3d
       0.05063591 -0.11054526 0.0029154746 0.0446804
000330 60 cf 0b 3e d2 f0 c7 3c 9a c5 93 bd 6b c4 dd bd
       0.13653326 0.024406824 -0.07215424 -0.108284794
000340 e1 b4 3c 3e cd ec cc 3d 62 de 24 bd f1 f5 ae 3b
       0.18428375 0.10006104 -0.040251143 0.005339377
000350 c4 9f 0f bc 59 fe 2a bd c1 04 bb bd 93 e4 16 bc
       -0.008766118 -0.04174647 -0.09131766 -0.00920977
000360 cc ac 08 3e bd 68 af bd 82 de 23 be f3 da 16 ba
       0.13347167 -0.08564899 -0.16002849 -0.0005754672
000370 d7 27 14 bd 13 f7 51 3d c7 d2 d9 3d e2 75 5e 3d
       -0.036170807 0.05126102 0.10635906 0.05431164
000380 15 b9 6d bd 95 c5 62 3d 4b 9f 2e bd 9f 31 00 be
       -0.058037836 0.05536421 -0.042632382 -0.12518929
000390 cf e4 1d be 23 e1 f7 3c 60 d0 56 be 87 a5 1b 3d
       -0.15419315 0.03025872 -0.20977926 0.037999656
0003a0 a7 13 e1 bc 34 82 78 3d 7b 40 2c bd e4 da 80 be
       -0.027475191 0.060671046 -0.04205368 -0.25167
0003b0 3a a6 b1 3d 81 cc 51 bd 76 95 7b 3d f3 3c 71 3e
       0.08674283 -0.05122042 0.061421834 0.23558407
0003c0 9c 2d 88 bd 8f da 53 3d 2d c8 e3 3d a9 29 2a 3e
       -0.06649324 0.051722106 0.11122165 0.16617455
0003d0 b3 8f 9d bd db 3a 4c 3c 0d a8 83 3d 64 63 52 3e
       -0.07693424 0.012465204 0.064285375 0.20545727
0003e0 53 b9 3d 3e c6 96 07 3e 70 ef 21 be 1b 8e 99 3d
       0.18527727 0.13241109 -0.15813994 0.074978076
0003f0 0d 41 d3 3d a3 d2 10 bd fa 4d 04 be ad db d8 3d
       0.10315142 -0.03535713 -0.1292037 0.10588775

fc2.bias f4 [84]
000000 db 54 a5 bd 39 b3 27 3c 1c 27 ad 3c 2f 1a 1b 3e
       -0.080728255 0.010235601 0.021136813 0.15146707
000010 b5 95 79 3d 8d 88 85 3c 12 8e 1b 3e ff 36 cf 3d
       0.060933787 0.016300464 0.15190914 0.101179115
000020 b1 9e d3 3d f6 0d 30 3d 5d 8d 48 3d f4 d3 b4 3c
       0.10333002 0.042982064 0.04896294 0.022073723
000030 7a 85 80 bd e5 ac f5 3c fe 0f 67 3c 5a 79 00 be
       -0.06275459 0.02998967 0.014102934 -0.12546292
000040 c0 c5 0f 3e 7d c4 e0 ba cd 7b 0a be db 3f 09 bc
       0.1404028 -0.0017148402 -0.13523789 -0.008377041
000050 3c 5d 0c 3e 7e 3d 99 bc 17 44 8d bd e4 4a 4c 3c
       0.13707441 -0.01870608 -0.06897753 0.012469027
000060 17 6e 04 be d6 78 e0 bd 2e a2 9e 3d da 4b 0d bd
       -0.12932621 -0.109605476 0.07745777 -0.034496166
000070 1a 72 70 bb a5 13 30 bd 92 69 ff 3d be 80 ab 3c
       -0.0036689104 -0.042987484 0.12471308 0.020935412
000080 91 a9 29 3c 80 05 29 3e dc 82 c4 3d 6d 82 48 bd
       0.010355369 0.16506004 0.09595272 -0.04895251
000090 14 90 d5 bb 6d f8 9b 3d 00 ae 49 bd fb 2d cc bb
       -0.0065174196 0.07615743 -0.049238205 -0.0062310672
0000a0 62 c7 84 3c e1 9e 60 bc 74 84 69 3c c4 b8 dc 3c
       0.016208354 -0.013709755 0.014252771 0.026943572
0000b0 bd cf 2c 3c 60 62 be 3d 4d ea d3 3b 30 be 97 bd
       0.010547576 0.09296107 0.00646714 -0.07409322
0000c0 c6 8d 48 3d d2 c1 57 3c c3 f2 44 3d 17 bd c5 3d
       0.04896333 0.013168769 0.048083078 0.09655207
0000d0 1f 1e e8 3c c8 03 68 3d 1c b3 61 3d 9c e1 29 bd
       0.028334675 0.05664423 0.055102453 -0.041474923
0000e0 6c bb b2 3d fd 00 b1 3c 38 6d 5c bd 20 0e 2a bc
       0.08727154 0.021606917 -0.053815097 -0.010379344
0000f0 4c 0b b5 bd 81 44 ba 3d da ab 64 3c 81 fa 41 3d
       -0.08840045 0.09095097 0.013956988 0.04735804
000100 06 7a 03 3d 29 89 b6 3b e5 a3 1f 3e d6 b9 26 3d
       0.032098792 0.00557055 0.15589865 0.04070457
000110 15 e0 b6 3d d0 00 cd 3c c7 da 30 bd e6 c5 c0 bd
       0.08929459 0.025024801 -0.043177392 -0.09412746
000120 de 33 e5 bd 2d 14 7b bd 6e 39 83 bd 59 1a b6 bd
       -0.111915335 -0.061298538 -0.06407438 -0.08891744
000130 f4 8a 17 3e 79 7b 01 be ae 54 f8 bb fb c5 d9 3c
       0.147991 -0.12644757 -0.007578454 0.026583662
000140 22 e7 0f 3d 96 88 8a 3d 9f dd dc bc c7 5e 35 3e
       0.035132535 0.06764333 -0.026961146 0.17711936

fc3.weight f4 [10, 84]
000000 51 f4 9a 3d 37 57 34 3e d7 58 80 be 71 da 6d be
       0.07566131 0.17611395 -0.2506778 -0.2322786
000010 0f 18 7a bd a9 bd 6b be e2 f9 34 3e 02 01 04 be
       -0.0610581 -0.23021568 0.17673448 -0.1289101
000020 f2 fd f3 3d 3a df 17 be fb 76 b7 3d f2 29 57 3d
       0.119136706 -0.14831248 0.089582406 0.052530237
000030 90 ad 6d be f8 ff be bd 59 81 c1 bd 44 07 c0 bd
       -0.2321074 -0.09326166 -0.09448499 -0.09376386
000040 53 f9 5e be 20 7b 89 bd 0e e7 52 3d f0 73 72 3d
       -0.21774797 -0.06712937 0.051489882 0.059192598
000050 50 d5 9b be b7 fd 74 3c 02 81 1c 3d 79 bc cf bd
       -0.30436182 0.014953068 0.03820897 -0.1014337
000060 ed b8 13 be c8 1d d0 3d 0f e9 09 be a2 28 c0 bc
       -0.14426012 0.1016193 -0.13467811 -0.023456875
000070 0d e1 3f bb 1b 8c c4 bd 3c e7 f9 3d cc 9f c3 be
       -0.0029278428 -0.095970355 0.122023076 -0.38207853
000080 fe 26 15 3d f7 32 75 be 5c a2 3b 3e 49 96 47 be
       0.03641414 -0.23945223 0.18323654 -0.19490923
000090 b8 0a c5 3d 00 91 21 be e2 9c e5 be ee 93 e4 3d
       0.09621185 -0.1577797 -0.44846255 0.11161028
0000a0 c3 6a 78 be c1 1f 44 bd 2a e7 3c 3d 75 9e 32 bd
       -0.24259476 -0.047881845 0.046118893 -0.043608148
0000b0 6f bc 20 3e 30 91 a3 3d 7a cd f8 3d 64 f3 0e be
       0.15696882 0.07986677 0.121485665 -0.13960034
0000c0 48 84 b7 3d 41 b1 39 be 87 15 f9 bb b3 45 05 be
       0.089607775 -0.18134023 -0.007601443 -0.1301487
0000d0 22 a8 c2 bd ac 39 ad bd fb fd d5 3d 87 ec 79 be
       -0.09504725 -0.08458266 0.104488336 -0.24406634
0000e0 4a 04 22 3e 3c a2 22 3e 62 67 d8 3d 23 e5 91 be
       0.15821949 0.158822 0.10566594 -0.2849513
0000f0 a5 5b 97 3d b3 9a b4 3d 69 11 4e be b1 5f 66 3b
       0.07390527 0.08818569 -0.20123829 0.0035152251
000100 a2 3c 22 be 12 f5 8d bd 4b 16 75 bd 08 9e 42 3e
       -0.15843442 -0.06931509 -0.059835713 0.19005597
000110 0d ac 44 bd 8a 1b 8e 3d 98 0b 1b be 07 61 8e 3c
       -0.048015643 0.069388464 -0.15141141 0.01738025
000120 c3 55 47 bd 06 71 10 3e af ba ba bd 55 dc 95 3d
       -0.048665773 0.14105615 -0.09117638 0.073174156
000130 df a8 ff bd 86 08 1d be cd 2b c0 3d 6d ef f9 3d
       -0.124833815 -0.15335283 0.09383354 0.1220387
000140 28 c4 ab 3d 3f 07 5b be 6d 26 8f 3d a9 49 23 3c
       0.08387023 -0.21389483 0.06989751 0.009966292
000150 d6 aa ff 3c 76 24 ad bd 72 e8 f0 bb f8 3e 3c 3d
       0.03120939 -0.0845422 -0.0073519284 0.04595849
000160 ec a1 5d 3d 48 a5 d9 bb 36 f9 e4 3d 17 f9 01 3e
       0.0541095 -0.0066420175 0.11180346 0.12692676
000170 3b f5 10 be ce 0a 18 be 6c 8c 25 3e c4 16 2b 3e
       -0.14156048 -0.14847872 0.16166848 0.16707903
000180 53 2f 50 be f8 e2 76 bd 5f 6a 97 bd f5 1d e0 bc
       -0.20330553 -0.060275048 -0.073933356 -0.027358035
000190 20 08 c4 bd c2 be 06 be 61 d8 7a 3d 03 07 a1 3d
       -0.09571862 -0.13158706 0.06124151 0.078626655
0001a0 c2 90 20 3e 83 b3 74 bd 69 8a 2c be 38 59 d6 3d
       0.1568022 -0.05974151 -0.16849674 0.10466236
0001b0 27 ad 50 bd 66 f5 d5 bd 51 4b a4 bd 21 2c 89 bd
       -0.05094638 -0.10447197 -0.08022178 -0.0669787
0001c0 13 61 9e ba 40 03 0b 3e 9b 1a 36 be 74 27 90 bc
       -0.0012083374 0.13575459 -0.17783587 -0.017596938
0001d0 46 5b 4f be 20 e5 11 3e bc 4c 5c 3d 5c b3 4f bd
       -0.20249662 0.1424756 0.053784117 -0.05070816
0001e0 d1 c7 8b be 92 5b fb bd 4b 66 be bd b0 f9 63 bd
       -0.27300885 -0.12273325 -0.092968546 -0.055658042
0001f0 47 ad 29 be 26 32 85 be 3d c0 5b be 73 94 0e 3e
       -0.16570006 -0.26014823 -0.21460052 0.13923816
000200 39 59 7d bc 98 00 89 be 1e 07 98 bd 68 fd bd 3d
       -0.015463167 -0.26758265 -0.074232325 0.09276849
000210 d3 0e 6d be 49 64 fa 3d 17 59 6a 3c fb 76 e0 3d
       -0.23150186 0.12226159 0.014303467 0.10960194
000220 5a b9 c3 3d 71 ff 59 3d a7 81 0d 3e a9 1b de bd
       0.095568374 0.053222124 0.1381899 -0.108451195
000230 f7 96 65 3c 00 7b 05 be 4d 71 fc 3d 71 00 54 be
       0.014013044 -0.13035202 0.12326298 -0.20703293
000240 25 b0 e9 bd 01 da fe 3d d2 19 71 bd f5 8a b9 3d
       -0.1141055 0.12443925 -0.058862515 0.09059707
000250 45 a7 cd 3c ee bf 0c be b6 66 62 3b fd 06 18 be
       0.025104174 -0.1374509 0.0034546084 -0.14846416
000260 7e 14 30 be 86 db a2 3d 55 e1 bc bd fe 60 3a bc
       -0.17195317 0.07952027 -0.09222666 -0.011375664
000270 c9 63 7d 3d fa d4 01 bd ba c4 70 bd 51 81 6d bc
       0.06186274 -0.03169725 -0.058781363 -0.014496163
000280 6a 09 1a be 3f 16 2f be 34 a9 7c 3d ba 90 9b bc
       -0.15042654 -0.1709833 0.061684802 -0.01898991
000290 82 41 29 3e 94 9f 90 bd 4f 67 73 3d 44 0d 06 3e
       0.16528895 -0.07061687 0.059424695 0.13090998
0002a0 98 8c 63 3c 1a 91 0d 3e 9c da 03 3e 67 80 44 bd
       0.013888501 0.13824883 0.12876362 -0.047974017
0002b0 9d f6 0b 3d 07 7c 19 be e0 44 7e 3d 2f 20 63 3d
       0.034170736 -0.14988719 0.062077403 0.055450615
0002c0 14 7a 44 3d 02 04 92 3d 68 7b 59 bd c7 a9 16 be
       0.047967985 0.07129671 -0.053096205 -0.14713202
0002d0 a7 e3 76 bc 8f 6c 26 3e b1 0b 76 bd 30 1c ba 3d
       -0.015068925 0.1625235 -0.060069744 0.090874076
0002e0 5f 9a cc bd 4b 9a 46 bd 48 80 0a be 91 2d ab 3d
       -0.099903814 -0.04848699 -0.13525498 0.083583005
0002f0 da 96 91 bd 99 e5 51 bd f2 8c 96 3c 90 61 45 3c
       -0.07108851 -0.051244352 0.018377755 0.0120471865
000300 6e 63 cf bd f9 fb 1f bc 8c 92 39 3e 0b bb 3f bc
       -0.101263866 -0.009764665 0.1812231 -0.011702309
000310 ce de 2a be f7 71 6b be 96 f8 e4 bc 58 0b 03 bd
       -0.16686556 -0.22992693 -0.027950566 -0.03199324
000320 4b 2d 1a be af c0 27 be c3 60 97 be 61 a9 c8 3d
       -0.1505634 -0.16382097 -0.2956601 0.097979315
000330 13 c6 28 3d cb 16 17 be 63 f2 98 bc 63 0c 24 be
       0.041204523 -0.14754789 -0.018670266 -0.1602035
000340 c9 d8 8f 3d 5d 0e 9d 3d 35 b1 2e 3e 6e 76 aa 3b
       0.0702377 0.07668755 0.17059787 0.005202106
000350 11 ec 39 be 76 20 96 be f3 6d 9b be e2 7f b4 bd
       -0.18156458 -0.2932164 -0.30357322 -0.08813454
000360 34 4e 52 be 96 34 6c bc f8 8d a7 bd 07 62 38 3e
       -0.20537645 -0.014416834 -0.08181375 0.18006144
000370 07 33 3f be be c5 54 be d3 5f 0e be d2 02 b7 bb
       -0.18671809 -0.20778558 -0.13903742 -0.005585053
000380 5a 37 9c 3d 9c 5f 0e 3e c1 93 05 3e 6e 3f 48 be
       0.07627745 0.1390366 0.13044645 -0.19555447
000390 e5 0f b7 3d d8 fd ef 3d 93 6b 6b be c7 bb 83 3d
       0.089385785 0.11718339 -0.22990255 0.064323
0003a0 c9 b0 d7 3d 3d 23 84 bd 6d 48 fd 3d 1b 4a b2 3c
       0.10531766 -0.06452034 0.1236733 0.021763852
0003b0 2f 71 96 3c c8 f9 09 3e c9 ee 06 3e 17 fb 06 3d
       0.018364517 0.1347419 0.13177027 0.0329543
0003c0 0d db 5c 3c 50 d2 0d 3e 21 e3 4b be 79 b8 b7 bd
       0.01347996 0.13849759 -0.19910862 -0.08970732
0003d0 07 ad 1e 3e 77 25 2e bd d5 9e 88 bb 3e 3e e2 bd
       0.15495692 -0.042516198 -0.004169325 -0.11047028
0003e0 4a e9 fc 3d 6d 16 14 be 0d 19 19 3d ee e0 31 be
       0.12349184 -0.1446168 0.037377406 -0.1737096
0003f0 a8 c6 fa ba 43 b8 09 bd 7e ce 4a 3c 0f 72 41 3e
       -0.001913269 -0.03362299 0.012378333 0.18891166

fc3.bias f4 [10]
000000 3b 44 e4 bd c8 38 37 bc da b0 ed 3b 57 c1 b6 bd
       -0.111458264 -0.011182971 0.0072537484 -0.089235954
000010 b7 9a bb bd 96 f1 22 3d 1f f6 55 bd bd 4c 24 bc
       -0.09160369 0.039781176 -0.052236672 -0.010028061
000020 4c f0 37 ba 90 b0 92 bd
       -0.0007016703 -0.07162583
