models/BasicNet Ensemble-15model-10.pt (torch, 180551 bytes, 10 tensors)

conv1.weight f4 [6, 1, 5, 5]
000000 40 e7 9c be 7f ce 13 bd 66 fc ea 3d f5 b6 1f be
       -0.3064518 -0.036085602 0.114739224 -0.15597136
000010 b1 56 0f be 52 17 f0 3d 1f 13 98 3e c5 23 af bd
       -0.13997914 0.11723198 0.29702088 -0.08551744
000020 6e 55 04 bf a4 33 fa be 64 4b 8b be ad 6f 7a 3e
       -0.51692855 -0.48867524 -0.27205956 0.24456663
000030 b0 36 85 bc 5d 3f cc 3e af 76 e4 3d cf 3c 24 bd
       -0.016261429 0.39892092 0.111554496 -0.040097054
000040 4a 37 f0 3c b0 d0 9a 3e 5f 5a d9 3e 8d 8d b4 3e
       0.029323239 0.3023734 0.4245176 0.35264245
000050 49 56 10 be 4e 11 24 3d 87 b9 fb bd f6 ad 73 be
       -0.14095415 0.040055566 -0.12291246 -0.2379683
000060 24 2e 09 bd df 87 1b 3e 08 6c 23 3e d4 85 42 3e
       -0.03349127 0.1518855 0.1595918 0.18996364
000070 11 70 26 3e c2 7a 46 3e e6 ac b4 3e 7c d1 24 3e
       0.16253687 0.19382766 0.3528816 0.16095537
000080 c2 92 a2 3d e0 b3 7c 3e fc 72 85 3e 42 bd 21 bd
       0.07938148 0.24677992 0.2606429 -0.03948713
000090 c0 78 62 3e 5b 20 b7 3d f4 9a e6 bd 1d fa 3b 3d
       0.22116375 0.08941718 -0.11260024 0.045892823
0000a0 c8 45 00 bf 18 98 84 be af 83 49 be f4 b0 20 be
       -0.5010648 -0.25897288 -0.1967914 -0.15692502
0000b0 12 cc 2d be 43 49 54 be 82 04 10 bf c4 9c be be
       -0.16972378 -0.20731072 -0.5625688 -0.37228978
0000c0 3f c1 ba be ad ba 14 bd 87 a1 42 be 66 19 59 bd
       -0.3647556 -0.03631084 -0.1900693 -0.053002737
0000d0 13 2b 90 3d 45 9c 08 3e f3 16 ca be ad 66 6c 3d
       0.07039466 0.13340862 -0.39470634 0.057715107
0000e0 79 27 93 3d 23 2c 96 bd 75 34 5d 3e 57 62 7a 3d
       0.07185263 -0.07332637 0.21602042 0.06112894
0000f0 c5 6c 4c 3e 18 24 2e bc 28 71 cc bd eb 38 62 3e
       0.19963367 -0.010628723 -0.0998252 0.22092025
000100 13 d8 94 3e 29 36 b9 3d 31 d3 42 be 9a 9b 4e bd
       0.29071102 0.09043533 -0.19025876 -0.050441362
000110 df 50 8c 3d 11 3d 66 be f7 b7 b6 bd 63 73 ef bc
       0.068513624 -0.22484232 -0.08921807 -0.029229825
000120 df 3f e7 3b ac d6 2f 3e c1 89 22 be e2 01 87 3d
       0.0070571746 0.17171735 -0.15872861 0.06592156
000130 33 37 32 3e a3 fb d4 bd 8e cc 80 be c2 f7 ad be
       0.1740387 -0.103995584 -0.25156063 -0.33978087
000140 5c e2 75 3e fc 82 3a 3e af 18 b6 bd 72 9e c7 bc
       0.2401213 0.18214029 -0.08891427 -0.024367545
000150 0f b6 20 be c1 34 e9 3c 66 79 5a 3e 35 67 be 3d
       -0.1569445 0.028467538 0.21335372 0.09297029
000160 5f bf 55 be 40 80 d7 bd 25 25 0a 3e 03 c6 63 3e
       -0.20873784 -0.105225086 0.13490732 0.22243504
000170 47 93 40 3e c6 1e b8 bd 57 02 14 be c9 09 bf 3d
       0.18806182 -0.089902446 -0.14454018 0.09328038
000180 ce 41 2d 3e 54 a4 42 3e ee 95 3a 3e f6 cb b6 3d
       0.16919634 0.19007999 0.18221256 0.08925621
000190 a8 e4 e6 bc 56 ed 77 bd cb 76 bc 3e 49 f5 a9 3e
       -0.028185204 -0.060529076 0.36809382 0.3319495
0001a0 28 10 7b 3d 80 c0 73 3c a8 ee 8a bd ea b0 e4 bd
       0.061294705 0.014877439 -0.06783801 -0.11166556
0001b0 b5 89 52 3e f2 71 f5 bd 69 05 d2 bd 5e 0d 0a be
       0.20560344 -0.11984624 -0.10254938 -0.13481662
0001c0 79 6d 20 be c4 04 39 3e 6c 10 87 3e e3 89 60 be
       -0.1566676 0.18068224 0.26379716 -0.219276
0001d0 0b d6 ed bd 26 5c 08 3d 28 5e 0e 3e 40 93 c4 3d
       -0.11613091 0.033291005 0.13903105 0.09598398
0001e0 6c 12 0a be 96 9e 63 be 12 ac 3e 3d eb 81 b0 bd
       -0.1348359 -0.22228464 0.046550818 -0.0861853
0001f0 9d d7 aa 3d 62 4f 87 be 4d 17 5c be 18 32 8b be
       0.08341906 -0.26427752 -0.21493264 -0.27186656
000200 06 72 3b 3e 2f 51 4b 3e b5 31 63 be e1 7a c4 bd
       0.18305215 0.19855188 -0.2218693 -0.0959375
000210 a9 90 54 3e 30 88 ce 3e 44 79 8e 3e 4a 40 82 be
       0.20758308 0.40338278 0.27826893 -0.25439674
000220 2c 04 17 3e dc 8c ef 3e 79 ea b4 3e a9 6a b4 be
       0.14747685 0.46787155 0.35335138 -0.35237625
000230 1a c1 01 3e e3 de 93 3e 99 59 25 3e db cb eb 3c
       0.12671319 0.28880987 0.1614746 0.02878373
000240 1f 8e 98 be 94 d5 29 3e 2f aa 29 3e 78 6b 1f bb
       -0.2979593 0.1658538 0.16568826 -0.002432553
000250 76 ea 54 be c5 f8 8f be
       -0.20792565 -0.28119484

conv1.bias f4 [6]
000000 c1 83 80 bd 8a e2 19 3e 2d d3 2d 3c 94 d6 46 bd
       -0.0627513 0.15027824 0.01060943 -0.04854448
000010 0b f4 ea bb e2 84 9b be
       -0.0071702055 -0.3037482

conv2.weight f4 [16, 6, 5, 5]
000000 6a 0d 50 3e 83 a3 69 3e 2d 02 0c 3e 69 38 1f 3e
       0.20317617 0.22816281 0.13672705 0.15548863
000010 7a 7c 29 bd 81 1f ae 3d 72 df 06 3e b5 58 31 3d
       -0.041378476 0.08502103 0.13171175 0.04329749
000020 35 37 72 3e 90 d2 17 3d 93 de b2 bd db 9b 00 be
       0.23653872 0.037066042 -0.08733859 -0.12559454
000030 ea ef ff bc e5 60 3b 3e db 9b bb 3d 05 d8 1e 3d
       -0.03124233 0.18298681 0.091605864 0.03878023
000040 a5 da 08 be 07 cd 04 be a8 f5 48 be cd 98 c0 3d
       -0.13364656 -0.12968837 -0.1962496 0.094041444
000050 e3 36 1b be 10 d8 3a 3c 09 81 ee 3d 3a 3b 3e be
       -0.15157656 0.011404052 0.11645705 -0.1857728
000060 03 0c 8a bd ab 10 81 bc 0e f9 91 bd 7f dc 23 be
       -0.06740572 -0.015755018 -0.071275815 -0.16002081
000070 ba 78 83 be 7e c3 a3 3c d6 fc ef 3b f9 ef c7 3d
       -0.25678045 0.019990679 0.0073238416 0.09762568
000080 31 f6 25 3d 6c d1 c8 bd 60 12 6e be 76 42 d9 bc
       0.04051799 -0.09805569 -0.23249197 -0.026520949
000090 65 98 0c bc f2 b4 21 3d ca 62 0a bc f1 bf d9 bd
       -0.008581256 0.039479204 -0.008446405 -0.10632313
0000a0 ca c9 32 be d5 e6 bb bd 2c d8 1a 3e 43 c9 05 3e
       -0.17459789 -0.09174887 0.15121526 0.13065057
0000b0 b0 99 82 3b 5e bf 32 3d e0 97 d4 3d b0 18 59 be
       0.003985606 0.043639533 0.1038053 -0.21200824
0000c0 13 cf 38 be af 6d df bd 62 2e 56 3c 6d 57 ee 3d
       -0.18047743 -0.10909592 0.013072582 0.11637769
0000d0 ee 70 8b 3d 8a b2 e8 3d 66 61 65 bd f0 6a 1b 3d
       0.06808649 0.113621786 -0.05600109 0.03794378
0000e0 06 67 87 3d 22 dc b5 3d 78 fa 93 bb ad 81 45 3d
       0.06611447 0.088798776 -0.004515942 0.04821937
0000f0 b8 cb fb bd 02 31 9c 3d 63 55 90 3d a8 fe bb ba
       -0.12294716 0.07626535 0.07047536 -0.0014342861
000100 16 1c 31 3d 88 6d 7b 39 21 c1 f6 bc 7d fb db bc
       0.043239675 0.00023978029 -0.030121388 -0.026853317
000110 3b db 2a 3d eb c8 90 3d b3 24 22 bd 4e 5a d1 bd
       0.04171298 0.07069572 -0.03958578 -0.102223024
000120 15 dd 24 be ea f7 24 bc bc 72 e2 3d c9 5f 54 bd
       -0.16099961 -0.010068873 0.1105704 -0.05184916
000130 c6 89 86 bd 96 75 48 3d 79 fd 90 3c b1 ca 15 3d
       -0.06569247 0.048940264 0.01769899 0.036570255
000140 18 a8 c0 bd c2 50 c0 bd 6b d9 65 3d 15 52 9a 3d
       -0.09407061 -0.09390403 0.05611555 0.07535187
000150 e6 80 3e 3d 25 66 da bb 3d 4f 33 be ca ac 68 bd
       0.046509646 -0.0066650086 -0.17510696 -0.05680541
000160 74 08 60 3d 6b 05 3c 3e f4 f6 0a be 82 97 e9 bd
       0.05469556 0.18361442 -0.13570768 -0.11405851
000170 c4 55 77 be d0 2d 46 be ba 63 a6 bb 89 43 2d bd
       -0.2415381 -0.19353414 -0.0050778063 -0.042300735
000180 36 f1 15 be 1b 3a f1 bd d9 7e 3b be e4 9f 80 bd
       -0.14642796 -0.11778661 -0.18310107 -0.06280497
000190 ab 42 9b bd 0f 1b a2 bd 98 f9 62 be 8c c5 7f be
       -0.07581075 -0.07915317 -0.22165525 -0.24977702
0001a0 c3 15 d7 bd 45 ca b4 3c 63 e0 ad 3d 74 bd 12 3e
       -0.105021976 0.022069106 0.08490064 0.14330083
0001b0 43 48 2f 3b 85 f4 df bd 5d 67 e4 bd 8d 6e 8d bd
       0.0026745952 -0.1093531 -0.111525275 -0.069058515
0001c0 38 15 1e 3e 15 af af 3d 28 a3 23 bd de c7 01 be
       0.15437782 0.08578316 -0.03995052 -0.126739
0001d0 50 e8 78 bd 83 d1 60 bd 9e 0f 23 3e 52 70 27 3e
       -0.060768425 -0.054887306 0.15923926 0.1635144
0001e0 04 98 f6 bd 65 e6 fc bc 2e df 3c be 4e 3a a2 3c
       -0.120407134 -0.03087158 -0.18444511 0.019803192
0001f0 6f b9 1d 3d d4 b8 a8 3d fd b1 19 bd fc 18 2c 3d
       0.03850692 0.08238378 -0.03752326 0.042016014
000200 e5 7a ff 3d 80 71 fb 3c 52 71 e1 3d 81 69 f1 3b
       0.12474612 0.03069377 0.11007942 0.0073673134
000210 f5 51 9d bd 29 8d 2c bd a9 d6 f5 bb 05 a1 c9 3d
       -0.07681648 -0.04212681 -0.007502396 0.09845165
000220 0e 6c 83 3d d8 a5 9a bd de 4a 82 bd e7 00 12 bd
       0.06417094 -0.075511634 -0.06361936 -0.03564539
000230 8f 94 71 bd 1e 0e 0e bc b3 98 ba 3d 7f ad 91 bd
       -0.058979567 -0.008670358 0.09111156 -0.0711317
000240 37 c1 a6 bd 92 4e 91 3c f3 71 c5 3d 59 b5 64 3d
       -0.081423216 0.01773766 0.09640875 0.05583701
000250 18 c4 f0 3d c3 8c 18 3d bf a8 7f 3d 6e 66 98 3d
       0.11756152 0.037243616 0.06241679 0.07441412
000260 18 72 9e 3c 87 0f da 3d fa a7 99 3b cb 72 12 3e
       0.019341514 0.10647493 0.004689214 0.14301603
000270 07 7d 9b bd 2d cf c7 bd 62 de ab bd d4 05 23 bd
       -0.075922064 -0.097563125 -0.083920255 -0.03980048
000280 c5 a7 ce 3c 7b 45 ab 3d 7f 66 f3 bd b4 cb 9d bc
       0.025226483 0.08362862 -0.11884784 -0.019262172
000290 4d fc 6b bd 2c 35 9f bd 98 4f 14 bc eb 14 bb 3d
       -0.05761366 -0.077738136 -0.00905218 0.09134849
0002a0 01 93 60 3d a6 95 a5 3c 69 bb 0a 3e 1d e4 96 3d
       0.054827694 0.02021296 0.13548054 0.07367728
0002b0 56 c2 62 3d 6e 36 06 be 5a 92 05 be 27 8d 27 3e
       0.055361114 -0.13106701 -0.1304411 0.16362439
0002c0 a3 9a 4a 3e a7 bb dd 3d d7 1a 2d 3d 7b db 7e bd
       0.19785552 0.108268075 0.042261925 -0.06222103
0002d0 df c1 5c 3d 28 ac 12 3e 06 a9 85 bc 0d f9 33 be
       0.053895827 0.14323485 -0.016315948 -0.17575474
0002e0 a5 67 0c bd 41 ed ac be ce e5 1f bd f2 4a 90 3c
       -0.03427853 -0.3377476 -0.03903752 0.017613862
0002f0 f5 33 01 3d e8 38 ea bd 9c 5b 76 3c a7 5b 1e 3e
       0.03154369 -0.11436635 0.01503649 0.1546465
000300 10 db 25 3e 4c 52 49 3d ae 89 68 be 09 66 a4 3b
       0.16196847 0.04915075 -0.2270877 0.0050170464
000310 09 cb 58 bd 27 63 72 3d 3c b0 69 3c 94 22 94 bd
       -0.052928004 0.05917659 0.014263209 -0.07233158
000320 63 a7 8d 3d 53 a9 2e 3e a0 00 1f 3e b9 7c 16 3d
       0.06916692 0.1705678 0.15527582 0.03674004
000330 2f 4b 1e be a7 e9 0a bd 58 32 e6 3c 59 2f 03 3e
       -0.15458368 -0.033914234 0.028100178 0.1281103
000340 89 8c 87 3c 47 1d 13 3b cf 89 b5 bc 0b 51 a9 bc
       0.016546505 0.002244787 -0.022160439 -0.020668527
000350 6c 3d 42 bc 2b 5e 7e 3c 28 5d d4 bd 8e 6f ab bd
       -0.011855464 0.015525381 -0.10369331 -0.08370887
000360 17 ac a9 3d d2 42 c2 bd 44 90 2a bd bc f8 c2 bb
       0.08284777 -0.09485401 -0.04164149 -0.0059500616
000370 ab e8 d4 3c 63 38 6c 3d 4c a7 8b bd 72 c2 ee bd
       0.025989851 0.057670962 -0.06819019 -0.11658181
000380 bb 6a a7 bc 28 bf 08 bd eb 27 16 bd cc f9 bf 3d
       -0.020436635 -0.033385426 -0.036659162 0.09373817
000390 24 34 f7 3c cc e9 45 3d d0 1c 27 be e8 43 51 be
       0.03017623 0.04831867 -0.16319585 -0.2043606
0003a0 1e ff 52 bd 81 87 f8 3d 07 35 dd 3d e6 cf 33 be
       -0.05151283 0.1213522 0.1080113 -0.17559776
0003b0 cb 8c 37 be f1 94 62 bd 57 fa 58 bc 7f cc 14 3d
       -0.17924802 -0.055317823 -0.013243279 0.036327835
0003c0 fa 9a 60 bd b4 ae 7b 3c 2e 20 9c 3d 8e 27 87 bc
       -0.054835297 0.015361477 0.07623325 -0.016498353
0003d0 b4 72 70 bd e6 32 88 bd 32 15 dc 3d 81 24 35 bd
       -0.05870314 -0.06650333 0.1074623 -0.044224266
0003e0 7e 95 56 be 31 9b 1f be 39 96 b7 3d b3 fb 8e 3d
       -0.20955464 -0.15586545 0.089641996 0.069816016
0003f0 c7 cb a5 3d f6 91 5d 3c e6 41 07 3d 4e 7e 16 3d
       0.08095508 0.013523569 0.03302183 0.036741547

conv2.bias f4 [16]
000000 20 df 71 be 1a 45 13 be 93 5f 18 be 01 43 d2 3b
       -0.23620272 -0.14381829 -0.14880209 0.006416679
000010 37 93 95 3d 01 94 f8 bd 5d 09 c7 bd 55 20 2b bd
       0.0730347 -0.121376045 -0.09718583 -0.04177888
000020 33 52 21 bd b7 16 5a bd 74 91 b4 bd 34 83 89 bd
       -0.039385032 -0.05324432 -0.088168055 -0.06714478
000030 5d c7 5a 3d e6 16 bf bd c4 5e 3b bd 9c f9 da bd
       0.053412784 -0.093305394 -0.045744672 -0.106921405

fc1.weight f4 [120, 256]
000000 a0 1f 1c 3d 9d 9c c1 3d 3a c8 aa 3d 6f ce 90 bd
       0.038116097 0.094537 0.083389714 -0.07070624
000010 60 89 69 bc d3 6f c2 bd 63 05 29 bb 26 f8 b2 3d
       -0.014253944 -0.09493985 -0.0025790564 0.08738737
000020 d5 ce 39 bc ee 14 ed bd 2e 7c 4f be dc ba 59 3d
       -0.0113408165 -0.11576258 -0.20262215 0.05315672
000030 1e 6b 77 bd 39 25 df bc ba b2 f0 bd 04 fa 42 bc
       -0.06040489 -0.027239429 -0.117528394 -0.011900429
000040 e5 d8 d0 3d f6 0a 2e be 5c 29 e4 b9 e5 e8 9b 3d
       0.10197619 -0.16996369 -0.00043518364 0.076127805
000050 6a e4 e2 3c 22 21 18 3e 3c 2b 12 3d 2c c2 89 3d
       0.027696807 0.14856389 0.035685763 0.067264885
000060 6d 1e 2e 3e e2 f7 9e 3d 4d bc d3 bd d5 07 1b bd
       0.17003794 0.07762124 -0.1033865 -0.037849266
000070 2d 98 06 be 2e 39 8b 3d 63 c1 3f bc da 66 41 be
       -0.13143988 0.067980155 -0.011703822 -0.18886891
000080 c7 ae 05 bd 88 32 4b 3e c1 f6 4e 3e b6 fb 56 3e
       -0.032637384 0.19843495 0.20211317 0.20994458
000090 8f 50 e8 bc b4 44 06 3e 52 f1 d9 3c ce fe 30 bb
       -0.028358726 0.13112146 0.026604328 -0.0027007344
0000a0 df c8 1f be 7b b2 38 3c b4 42 1e bd e2 2f 93 3d
       -0.1560397 0.011273022 -0.03863783 0.07186867
0000b0 f4 80 83 3d ed e7 77 3d 24 b1 56 3d ae e0 3d 3d
       0.0642108 0.060523916 0.05241503 0.04635685
0000c0 70 2c bc 3c 6a af df bd 56 ce 52 bd 94 eb 49 bc
       0.022970408 -0.109221295 -0.05146631 -0.012324233
0000d0 49 2a 8e bd 4a b1 72 3d b7 6c 9c 3c ea 26 f3 3d
       -0.06941659 0.059251107 0.019094808 0.11872657
0000e0 1b 8e 54 be 60 03 49 3e 9d 78 54 3e 3a 1a 5a bb
       -0.20757334 0.19630194 0.20749135 -0.0033279792
0000f0 c9 7c c3 bd c0 b7 ec 3c 67 25 05 3c 8c d0 74 bc
       -0.09545285 0.028896213 0.008126593 -0.0149423
000100 c1 9a 7c bd 67 3d e9 3c db cd 3b bd ee c9 8d bb
       -0.061671022 0.028471662 -0.045850616 -0.0043270504
000110 d5 a4 48 be 07 df a6 bd e2 81 5d be 09 fe 00 be
       -0.19594128 -0.08148008 -0.21631578 -0.12596907
000120 cd 0e 9a 3d 8f d0 7f 3b bf 17 d6 3c 5c e0 67 bd
       0.07522354 0.0039034223 0.02613437 -0.05661045
000130 e2 54 82 bd 8d c4 36 bd 18 8a cf bc 63 eb b8 bd
       -0.06363846 -0.04462104 -0.025334403 -0.090292715
000140 73 35 6b 3d ea c1 93 3d 4d d9 27 bd 2b 99 2a bc
       0.05742402 0.072147205 -0.04097872 -0.010412495
000150 81 d6 dc bc a2 bc 66 bc 10 db a5 bd 3f 56 e1 bd
       -0.026957752 -0.0140830595 -0.080984235 -0.11002778
000160 66 6f 39 3c 49 c0 a3 3d 76 7b 4f 3c 6f ed a1 3d
       0.011318063 0.0799566 0.012663713 0.07906615
000170 62 0c 02 be df ee 95 bd 4f 51 65 be 96 88 a7 bd
       -0.12700036 -0.07320952 -0.22394298 -0.081803486
000180 d0 00 ee ba 1b 4e d5 3d a1 c2 58 3d 5f 8a 19 3d
       -0.0018158201 0.10415288 0.052919988 0.037485477
000190 93 0f c8 bc 22 09 93 bd f0 24 c7 3c bd 2d 3b be
       -0.024421489 -0.07179476 0.024309605 -0.18279167
0001a0 4e b9 fe bd df b5 cc bd 6c 98 8c be 2a b2 c7 bd
       -0.12437688 -0.09995627 -0.2746004 -0.09750779
0001b0 fe c8 00 3e f9 1f cb bd db eb 46 bd 79 6b f5 bd
       0.12576672 -0.09918208 -0.048564773 -0.119833894
0001c0 ea 61 61 3e e4 10 4f 3e aa 5c 97 bd b9 19 52 bd
       0.22010008 0.20221287 -0.07390721 -0.051294062
0001d0 9e d0 27 3e e8 1e c2 3d 5b 43 ca 3c ca 09 dc 3d
       0.16388175 0.09478551 0.02469032 0.107440546
0001e0 c3 5a ae bd b7 38 84 be d0 4e c4 bc 17 2d 1c be
       -0.08513405 -0.2582452 -0.023963362 -0.15251575
0001f0 25 83 9a 3b 47 46 2d bd ad c1 96 3d 6d 45 0f 3e
       0.0047153407 -0.04230335 0.073611595 0.13991328
000200 7e 53 60 3c 4a 7f 3e 3d 0c 4e 54 3d 42 30 04 be
       0.013691781 0.04650811 0.051832244 -0.12909034
000210 df 80 be 3d d2 1b 00 3e d5 eb 9e 3d f4 0d 09 3a
       0.09301924 0.12510613 0.07759825 0.00052282144
000220 f3 aa 03 bd 80 d3 0d 3d e7 cd 94 3d ae 98 a5 bc
       -0.03214545 0.03462553 0.07265835 -0.020214405
000230 a8 17 9f bd d1 95 58 3d 39 16 a8 3d 77 3a 07 bc
       -0.07768184 0.05287725 0.08207364 -0.008253685
000240 00 19 45 bc 99 91 65 3c 92 83 e9 3d 86 f5 b0 3d
       -0.012029886 0.014011764 0.11402048 0.0864058
000250 36 db 1c bd bc 1d 8a bc 34 cc 24 bd 75 7b 19 be
       -0.038294993 -0.016859882 -0.040233806 -0.14988501
000260 d2 bc 47 3e 76 3e 96 bd 0d af 19 bd 2a 0e d3 bd
       0.19505623 -0.07336132 -0.037520457 -0.10305436
000270 61 06 3a 3d 54 6c 94 bd 32 e2 3e be 08 5e 86 bd
       0.04541624 -0.072472245 -0.18640974 -0.06560904
000280 09 a5 c2 3d 3d 35 99 bd fc da 12 3b fd 82 9b bd
       0.09504134 -0.074808575 0.0022408357 -0.075933434
000290 a7 ca a7 bc 12 4d fa bd 36 65 52 bd 71 b9 d2 bb
       -0.020482374 -0.12221731 -0.051366054 -0.0064307977
0002a0 27 10 92 bd 07 fb 90 3d e8 6d a4 3d 90 89 5a 3d
       -0.07131987 0.0707913 0.080287755 0.053353846
0002b0 d4 38 76 3c 48 d5 17 be 00 c1 c5 bd a4 3d f7 bd
       0.015028197 -0.14827454 -0.096559525 -0.12072304
0002c0 d1 92 92 3d b2 97 e2 bd 27 fc f4 3a 24 cd 20 3d
       0.07156909 -0.1106409 0.001869087 0.039258137
0002d0 0f 94 98 bd 9d 4f af bd cd 24 a9 3d 6d 67 18 bd
       -0.07450115 -0.08560107 0.08258972 -0.03720801
0002e0 5f 65 0a be 42 78 3f bd 2c 69 04 3e 61 03 38 be
       -0.13515233 -0.046745546 0.12930745 -0.17970039
0002f0 d0 da 58 be b4 2d 27 3d 80 67 0b 3e ac 3c 13 bd
       -0.2117722 0.04081507 0.13613701 -0.035946533
000300 d3 2d 42 3e e4 bd 4a 3e 14 20 35 3e 54 f6 1c 3c
       0.18962793 0.19799 0.17688018 0.009580214
000310 f9 80 ae 3d 91 ad 77 be 7a d7 b8 bb da 6b 99 3d
       0.08520693 -0.24187304 -0.005640921 0.07491274
000320 58 4a 1f 3e d2 f4 bb 3c 43 7a 1a be a2 ee 07 3d
       0.15555704 0.022943888 -0.15085702 0.033186562
000330 91 55 27 3d f7 32 f1 3d 29 a0 4b bc a0 97 c1 3b
       0.040853087 0.11777299 -0.012428322 0.0059079677
000340 ea 28 0c 3e 70 e9 f2 3c c5 32 ce bc 59 32 83 3d
       0.13687482 0.029652327 -0.025170693 0.064060874
000350 be 7d cc bd 6c 7f 82 bd 98 6f 05 3d 71 c9 22 3c
       -0.09984921 -0.0637196 0.032577127 0.009935723
000360 6d dc 53 bd ab 60 96 bd e7 d4 9d 3d 55 f9 d9 bc
       -0.051723886 -0.07342657 0.077066235 -0.026608149
000370 0c 6e d4 bd b0 7b 1e be 5f 0a 05 bc a0 0b 34 be
       -0.10372552 -0.1547687 -0.008120148 -0.1758256
000380 38 93 3c 3e 19 36 33 3d 29 41 87 3d 26 03 6a 3d
       0.18415534 0.043752763 0.06604225 0.05713191
000390 83 f1 8f 3d 0a 77 a3 bd d5 49 39 be 72 1b c3 3d
       0.070284866 -0.07981689 -0.18094571 0.09526719
0003a0 e2 d7 12 3d 49 1a 8c bd bf 69 9e bb 1d 93 c3 3d
       0.035850413 -0.06840951 -0.0048343833 0.09549544
0003b0 75 ae b8 bd 57 0e 67 be c6 df 83 3c 19 7e 51 bc
       -0.0901765 -0.22564064 0.016097914 -0.012786412
0003c0 8d 90 62 3d 24 07 c5 bd 92 da 88 3d 04 c2 15 3e
       0.055313636 -0.096205026 0.06682314 0.14624792
0003d0 8e 74 f7 bd fc bb 29 be 85 7d 2c bc ce bb 52 bd
       -0.12082778 -0.16575617 -0.010527973 -0.051448636
0003e0 01 b4 39 be d0 13 f5 bd a6 a3 3e bb 0e 5c 2a 3c
       -0.18135072 -0.119666696 -0.0029089241 0.010397924
0003f0 48 8e 88 be a4 f4 cd 3c a6 ec a1 3d 30 e4 1e bd
       -0.26671052 0.025141068 0.07906465 -0.038791835

fc1.bias f4 [120]
000000 77 3b e5 3c e2 93 4b 3d b3 5b fd bb 46 93 d6 bc
       0.027982457 0.04970158 -0.0077318787 -0.026193272
000010 dc fa ab 3d d2 b1 1f bd 3f 3a 36 bc be af cb bc
       0.08397457 -0.038987942 -0.011122285 -0.024864074
000020 17 f6 ae bc ea 8b 61 3d 95 af 39 3c d2 ca 03 3d
       -0.02135758 0.055065073 0.011333366 0.032175846
000030 ec 30 3a bd 5c 3f e3 3c 42 25 45 bd 3f 5c 05 3b
       -0.04545681 0.027740173 -0.048131235 0.0020349172
000040 ef 8e 7b 3d 82 a7 a4 3d 30 4d 8c 3d e0 6e 05 3d
       0.06141561 0.08039762 0.0685066 0.03257644
000050 a8 b1 39 3d 56 75 fe 3c f7 a4 12 bc 26 16 15 3d
       0.04533544 0.03106181 -0.0089504635 0.036398076
000060 0b 60 bf bd f9 33 dd bb c9 7c d1 bc b8 f4 06 bd
       -0.093444906 -0.0067505804 -0.025572198 -0.032948226
000070 b6 cc 0d bd c1 bf b4 3b b9 76 a5 bb bb 41 51 bc
       -0.034619056 0.005516023 -0.0050495532 -0.012772019
000080 4e 8a 82 3c 84 3f 99 3c 41 da 6a bc 74 d7 92 bd
       0.01593509 0.018707044 -0.014334262 -0.07170001
000090 9c 7f 8b 3d 55 cd b2 3d 43 60 f5 3a f3 9e d1 bd
       0.06811449 0.0873057 0.0018720705 -0.10235395
0000a0 22 4a 8a bd 17 0a d4 bc c9 8c 88 bd 62 d7 83 3c
       -0.06752421 -0.025883717 -0.06667478 0.016093913
0000b0 f9 9f d3 bc f9 fc 7a bc 19 e1 31 3c 2d 17 20 3d
       -0.025833117 -0.015319102 0.01085689 0.039084602
0000c0 c4 be 90 3c 9b 16 80 3c f8 5d be 3b 75 00 de 3c
       0.01766909 0.01563578 0.005809542 0.027099827
0000d0 d9 d1 6b 3d 1e 4a 92 3d a9 9d 8e bc 43 55 9b bc
       0.057573173 0.07143043 -0.017409163 -0.018961554
0000e0 11 fb 08 bc ee 6b 79 3b 8a 74 9c bd 53 17 69 3d
       -0.00836064 0.0038058716 -0.076394156 0.05690701
0000f0 99 7b ac 3c 7d 83 22 bc 20 81 10 bd 2e 7b 3f bd
       0.02105503 -0.009919045 -0.035279393 -0.046748333
000100 6c b9 66 bd 4a 1b 84 bd 14 03 be bd 1b af 5d bc
       -0.056329176 -0.064505175 -0.09277931 -0.013530518
000110 71 b0 94 bd 36 b9 5f 3a ee 3d 4b 3d 4b bd 06 bc
       -0.07260216 0.00085343735 0.049619608 -0.008223842
000120 c0 51 0f 3d 58 ef 21 bd 52 8e 3f bc 4b de d3 3c
       0.034990072 -0.039534897 -0.011691647 0.025862833
000130 78 3a 09 bd 7e 71 27 3d 70 7d e7 3c 4c e9 cc bd
       -0.033503026 0.04087972 0.028258055 -0.10005435
000140 a4 9c 78 3b 5a df 86 bd e1 82 d9 3c 95 cf 97 3c
       0.0037935162 -0.0658557 0.026551666 0.0185316
000150 b8 74 45 bc 29 0d 17 3c f2 99 93 bd 0a b7 43 bd
       -0.012051754 0.009219446 -0.07207097 -0.04778198
000160 ec e5 d0 bc 62 d2 d9 3b 52 34 47 3b d2 3b 8d 3c
       -0.02550026 0.006647394 0.0030396176 0.017240439
000170 7c 73 80 3d 54 47 89 bd 6c 41 99 3c 74 0c 67 bd
       0.06272027 -0.06703058 0.018707953 -0.05640836
000180 d4 29 ce 3c a8 f2 36 bd 29 65 98 3d 12 2d 4e bc
       0.02516643 -0.04466501 0.0744117 -0.012583988
000190 1a 47 82 3d 64 7f e5 3d 67 23 b7 3d c8 4e 33 bc
       0.06361218 0.112059385 0.08942299 -0.010944076
0001a0 34 ca 99 3d bc c7 ef bb 82 90 12 bd 7d e3 9b 3d
       0.0750927 -0.0073175114 -0.035782345 0.07611749
0001b0 c1 a5 3f 3d ca 8b f1 3c 9b 3d 91 bd d3 7f 91 3c
       0.046788935 0.029485602 -0.070918284 0.017761147
0001c0 7a 36 15 bd c6 1c 26 3d 4a 6b 82 bc d8 c5 7d 3c
       -0.036428906 0.040554784 -0.0159203 0.015489064
0001d0 db d2 4a bc 2b dd b1 3d 52 07 c2 bc 3d 12 55 bd
       -0.012379373 0.086847626 -0.023685131 -0.052019347

fc2.weight f4 [84, 120]
000000 24 6b 81 bb 9f 64 b0 3b ef 5b af bd ee c9 a6 b9
       -0.0039495397 0.0053830887 -0.08562457 -0.00031812437
000010 f2 82 31 be db 1d a1 bd 23 0c bd bb 0a 6e b5 bd
       -0.17335108 -0.078670226 -0.005769269 -0.08858879
000020 71 45 22 3e f1 30 98 3d 0a 65 a1 bd 06 64 9b bd
       0.15846802 0.0743121 -0.078806 -0.07587437
000030 dd 7b bf 3d 16 67 b0 3c b7 fd 24 bd 80 a2 30 3d
       0.09349797 0.02153353 -0.040281024 0.043123722
000040 5f 73 b3 3d 4f ee 11 be b2 c8 c7 bc af e5 88 bd
       0.0876224 -0.14251064 -0.024387691 -0.06684434
000050 4c cc 05 3e 15 e5 f7 bd 54 22 35 3c 34 75 1a 3d
       0.13066214 -0.12104241 0.011055548 0.03770943
000060 07 b1 b1 bd 48 f9 1b be 27 4f 4c bd 08 5e 27 be
       -0.086763434 -0.15231812 -0.049880173 -0.16344464
000070 ed 3d a4 3d 1b e4 88 bd 74 fe dd 3c 36 d2 63 3d
       0.08019624 -0.06684133 0.027098872 0.055620395
000080 db 3c 34 3e 8b 37 57 3d fb 24 2a 3e ac c1 96 3d
       0.1760134 0.052543204 0.1661567 0.07361159
000090 78 e8 f9 bd cf 3c 4c 3d 5e a5 49 3d f7 54 c5 bd
       -0.12202543 0.04986268 0.049229972 -0.096353464
0000a0 87 d7 05 be a1 db de 3d ef 19 04 be a6 86 f4 3d
       -0.13070498 0.10881735 -0.12900518 0.11939745
0000b0 87 2e 0b 3e 1d e8 9e bd b8 42 ed 3d 64 5d 2e be
       0.13591968 -0.07759116 0.11584991 -0.17027813
0000c0 0f 48 32 3d 92 9b ac 3b f6 3e f3 bb 0f 3d f4 bc
       0.04352575 0.005267569 -0.007423277 -0.029814271
0000d0 60 ed 32 be 96 44 bc bd dc d1 05 bd d9 0b b9 3c
       -0.17473364 -0.09192769 -0.03267084 0.022588657
0000e0 92 e5 68 bb 54 8d 29 bd 7e 69 09 3e ff 50 8a 3d
       -0.0035537225 -0.041394547 0.13419148 0.0675373
0000f0 cc 87 4d bd 4c 5d 7d be 62 2e 47 3d 54 c8 0c 3e
       -0.050178334 -0.24742621 0.04862822 0.13748294
000100 b3 ba 29 3d 8e a1 3f 3e 46 f4 8b 3d af 27 cf 3c
       0.041437816 0.18713972 0.06833701 0.025287477
000110 ee dc 98 bc c5 62 25 3c 06 f3 d6 bd 82 2b 85 3e
       -0.018660035 0.010094349 -0.10495572 0.26009756
000120 f3 1d ab 3d 32 b7 a5 bd c5 b0 04 3e 99 c1 a6 bd
       0.08355322 -0.08091582 0.12958057 -0.081423946
000130 66 2d 5a be 44 90 7b bc 80 18 3f be 1a 07 f0 bb
       -0.2130638 -0.01535422 -0.1866169 -0.0073250653
000140 fa 21 af bc 66 da 2f 3d cf bb be bd d5 03 2e be
       -0.021378506 0.04293289 -0.093131654 -0.1699365
000150 da 60 27 3e 2e 6b b7 bd 28 24 92 bd 8a c5 4c bc
       0.1634554 -0.0895599 -0.071358025 -0.012498269
000160 fd 6e c8 3d ee 79 37 bd f4 89 52 3e 8b 50 ef 3d
       0.09786794 -0.044794016 0.20560437 0.11685284
000170 e7 0c fd bd 8c 7b 4d bc fc 96 c8 bd d9 fc 4b 3c
       -0.123559766 -0.012541663 -0.09794423 0.01245042
000180 f4 15 bb bc d5 42 03 3e de b1 f4 bd 6e 3a 9b 3c
       -0.022837617 0.12818463 -0.11947988 0.01894876
000190 f8 b1 88 3e 53 8e 23 3b e0 62 14 3d a9 09 1d bd
       0.2669828 0.0024956658 0.036227107 -0.03833929
0001a0 67 fc 01 bd 43 55 dc 3d 4d e7 9f bd fa d8 00 bd
       -0.03173485 0.1075845 -0.07807789 -0.031456925
0001b0 42 ee cc bc a5 bc 35 bd 6b 05 17 bd 57 7b 7f be
       -0.025015954 -0.04436936 -0.0368704 -0.24949394
0001c0 f3 8a 48 be a3 1e 82 bd b9 ae 95 3c bb ab e8 bc
       -0.19584255 -0.063535 0.01827179 -0.0284022
0001d0 be 5e 1f be 40 30 6c bd e9 f7 97 3d 4d 77 46 3d
       -0.15563485 -0.057663202 0.07420332 0.048453618
0001e0 ea c2 d9 bc 6d dc cf 3c e9 66 1c bd 03 0e 2f bd
       -0.0265822 0.025373662 -0.03818408 -0.042737972
0001f0 8d f1 21 3e a7 72 07 be 5c 8e d5 bc 3e 8c c0 3d
       0.158148 -0.1322733 -0.026068859 0.09401749
000200 78 c0 d2 b9 a0 9f 49 3e da 96 27 3d c2 43 4b bd
       -0.00040197722 0.19689798 0.040915348 -0.049625166
000210 f7 f9 a2 3c 52 78 c2 bd a9 b1 52 3d b6 f8 e0 3d
       0.019894583 -0.094956055 0.05143896 0.10984938
000220 2a c6 8b bd bb a4 89 be 8c 4d af bd ce 88 5f bd
       -0.06824906 -0.26883492 -0.08559713 -0.054573826
000230 0f 98 ea 3c 59 93 37 3c 08 de 74 3d 3a ab 68 bd
       0.02863696 0.011204564 0.059782058 -0.05680392
000240 e0 98 c8 bd e9 80 21 be 5d 56 9e bd 9c 46 43 be
       -0.097947836 -0.15771832 -0.07731316 -0.19069904
000250 e4 b3 b7 3d b8 98 c5 bb 1b 96 02 be 37 7d 49 3e
       0.08969858 -0.0060301684 -0.12752573 0.19676672
000260 59 31 5b 3e 59 13 2e 3e 44 a2 f7 3c b6 17 be 3c
       0.21405543 0.16999568 0.030228741 0.023204666
000270 0d b7 e6 ba bd 1c 04 bd 82 26 31 3a 8e bb 49 bd
       -0.0017602161 -0.03225397 0.0006757752 -0.04925113
000280 21 f4 3c bc 53 5d 01 bd d0 80 4f 3d ea 24 db bd
       -0.011532814 -0.03158314 0.050659955 -0.107004
000290 5d cc cc 3c 4d 19 86 b9 5d 6e 9e 3c a3 f9 3b bd
       0.024999792 -0.00025577322 0.019339735 -0.04589237
0002a0 57 1e 8a bd 04 79 e6 bd 7d 02 8c 3d 0d f5 d5 3d
       -0.06744068 -0.11253551 0.06836412 0.1044713
0002b0 d7 45 90 3d 9d 53 e0 bd 96 0a 28 bc 13 43 0e be
       0.07044571 -0.10953448 -0.01025643 -0.13892774
0002c0 06 54 2d bd ec 73 8f 3d 08 2b 38 3d 89 5d b6 3d
       -0.04231646 0.07004532 0.044962913 0.08904559
0002d0 69 0c d4 3d 87 d6 40 be 9c c1 60 3d da 40 df bd
       0.103539295 -0.18831836 0.05487214 -0.10901041
0002e0 fc e8 65 3d 11 b7 92 3d cb 8d 0d bb dd a2 7f bd
       0.056130394 0.071638234 -0.0021599408 -0.062411178
0002f0 d8 d8 a3 bd 15 7c a9 3d b9 43 44 bd 5c 3f 05 be
       -0.08000344 0.0827562 -0.047916148 -0.13012451
000300 ec ac 7d bd 2d e2 89 bd 15 3e 38 3e 85 51 87 3c
       -0.06193249 -0.06732593 0.17992432 0.016518364
000310 05 19 d9 bd aa fe 14 3d 57 57 24 bd 94 d7 b0 3c
       -0.10600475 0.03637568 -0.040122356 0.02158717
000320 3c f4 63 bc a3 e2 67 3c 68 c3 5b 3d 5a b2 87 3d
       -0.0139132105 0.0141531555 0.05365315 0.06625815
000330 af 92 d8 3d f4 f6 1f 3d 38 1a d0 b8 b6 ff 1d 3d
       0.10574853 0.039053872 -9.9230965e-05 0.038573943
000340 75 55 1c 3d b3 61 4c 3e 8d 45 22 3e db 0d c5 bd
       0.038167436 0.19959144 0.15846844 -0.09621783
000350 e1 e8 f3 3d 1a 03 e3 bc da 13 04 bd 2b b1 6e 3d
       0.119096525 -0.02771144 -0.032245494 0.05827443
000360 7c fd e4 3c 11 a1 31 be ee 22 18 3d 78 d2 8a 3c
       0.027952902 -0.17346598 0.037142687 0.016946062
000370 e8 1d 88 be e5 4f 0f bb c4 51 1e 3e 3b c6 16 3d
       -0.26585317 -0.002186769 0.15460879 0.03681014
000380 3d e3 31 3d 1f da 1a 3d 4e ac 34 bd ec 0c a6 3d
       0.043429602 0.037805673 -0.044109635 0.081079334
000390 54 d7 a2 3d 32 79 71 bd 9b 76 ca 3c bd 69 9b bd
       0.07951227 -0.05895347 0.024714759 -0.07588527
0003a0 ea f5 93 bd 58 bc 0b be ac 92 1d bd f3 6b ca bd
       -0.07224639 -0.13646066 -0.038469955 -0.09883871
0003b0 02 00 70 3d d7 fa 96 3d 84 a6 ed 3c 03 59 a4 3b
       0.058593757 0.07372063 0.029010065 0.005015494
0003c0 ba 06 8c bd a0 29 af bd f7 8b 21 bc c0 40 94 bd
       -0.068372205 -0.08552861 -0.00986003 -0.072389126
0003d0 86 90 42 be b0 15 b4 bb 63 f1 bf bd 88 cb 96 3d
       -0.19000444 -0.0054957494 -0.09372213 0.07363039
0003e0 fd a7 f9 3c a2 12 3f bd 0a e0 fc bd ee 2b 62 bd
       0.03047561 -0.04664863 -0.123474196 -0.055217676
0003f0 6c e6 8a bb 9e d9 4a bd f1 b9 8b 3c db c5 93 3c
       -0.004238894 -0.049523942 0.017056437 0.01803868

fc2.bias f4 [84]
000000 8c c8 83 bd 37 e2 3f 3d 75 3f 94 3d 92 71 b1 bd
       -0.06434736 0.046846595 0.07238666 -0.0866424
000010 be b9 33 3d 07 25 10 3d 8b 87 01 bd 35 c8 7b 3d
       0.04387831 0.035191562 -0.031623404 0.06147023
000020 ae ec 8d 3d 46 71 bf bc 7b e0 88 bc 49 d0 cf 3d
       0.06929909 -0.023369443 -0.016708603 0.10147149
000030 c0 03 2c bd 6d 8a 52 3c 45 90 d2 3d 1e 48 07 be
       -0.041995764 0.012850386 0.102814235 -0.13211104
000040 54 97 ce 3c d7 cb 84 3d 71 83 0a 3d c3 4f f6 3b
       0.025218643 0.06484192 0.03381676 0.0075168326
000050 22 3e 64 3d 68 ef 84 bd 9c 98 f0 3c ee e3 18 3e
       0.055723317 -0.064909756 0.029369645 0.14930698
000060 72 b9 bc 3d 5a fc e8 3b 95 7d bd 3c 38 2b 03 3e
       0.092150584 0.007110161 0.023131171 0.12809455
000070 29 66 5c 3c ca 89 f5 bd b1 43 f8 3d 78 c4 9d bd
       0.013452091 -0.11989172 0.12122286 -0.07703489
000080 67 05 fc 3d f8 f9 2f bd 8d 24 7d 3d 9a 7a 0e bd
       0.12305718 -0.042963 0.061802436 -0.03478489
000090 c3 a3 fb bc 22 b6 94 bd 29 88 bd 3d d0 63 87 3d
       -0.030717736 -0.072613016 0.09254486 0.066108346
0000a0 4d 38 d6 bd f6 df 00 3e 69 30 1c 3c 1a 4e 78 bd
       -0.10459957 0.12585434 0.009533026 -0.06062136
0000b0 69 d6 22 bd a8 8f 0d 3d c0 28 eb bc da dc 25 3c
       -0.03975526 0.03456083 -0.028705955 0.010123456
0000c0 fa 3e f5 bd 3d 80 17 bd d5 2b 14 be 35 ae 1f 3d
       -0.119749025 -0.036987532 -0.14469846 0.038984496
0000d0 fd 2a 11 3c 45 63 c0 3c 7a 64 47 3d 28 22 8c 3d
       0.008860347 0.023484835 0.048679806 0.06842452
0000e0 07 88 d6 3c 0c 40 46 bd 28 4b 03 bd 89 0d 4d bc
       0.02618791 -0.048400924 -0.032054096 -0.012515434
0000f0 b7 95 7b bd 05 cc ae bc 0e f6 a0 3d 59 91 02 3e
       -0.061422076 -0.021337518 0.07859431 0.12750758
000100 6d 6f 76 3d 05 33 fe bc 94 b2 ab bd 5c 63 e7 bd
       0.060164858 -0.031030187 -0.083836704 -0.11298248
000110 c9 bc e2 bd 40 28 b9 bd 94 5e e8 3d eb e0 b7 bd
       -0.11071164 -0.0904088 0.11346164 -0.089784466
000120 21 15 f6 3d 69 df a2 3d a2 3e af 3d 65 65 08 3d
       0.12015749 0.07952768 0.08556868 0.033299822
000130 5c bf 84 3b 22 37 31 3c eb 4e 70 bb 9d a8 b0 3c
       0.004051132 0.010816367 -0.0036668133 0.021564776
000140 a8 56 89 3d 1d f6 9c bd 9e ee cb 3d 18 34 b6 3d
       0.067059815 -0.0766413 0.09957622 0.08896655

fc3.weight f4 [10, 84]
000000 e8 c0 a0 3d 31 86 21 be aa 69 d7 bd 37 30 b2 bd
       0.07849294 -0.15773846 -0.10518201 -0.087006025
000010 8e 34 9f ba c8 70 68 be 8d be 07 3e 71 fd 23 be
       -0.00121464 -0.22699273 0.13256283 -0.16014649
000020 b7 5c 45 3d 1d 9e 71 be 82 26 20 be 80 4e be bd
       0.048184123 -0.23595472 -0.1563969 -0.092923164
000030 cc ee ba 3d 09 86 94 bb ed 67 98 3d 4c 38 59 3d
       0.09127578 -0.00453258 0.07441697 0.053032205
000040 79 76 ea 3c 2a 6c 30 be 45 ff 24 bd d8 79 a0 bd
       0.028620945 -0.17228761 -0.040282506 -0.0783574
000050 08 f3 18 be db 0f 0e 3e 67 a7 db 3d ab 35 4a 3d
       -0.14936459 0.13873236 0.10725289 0.049367588
000060 36 9f 6e be 8b 64 f3 3d ea af b5 bc 86 40 24 be
       -0.23302922 0.118844114 -0.022178609 -0.16040239
000070 44 d3 35 3d 84 80 02 3d a9 d1 b3 bd 49 71 ba bd
       0.04439093 0.031860843 -0.08780224 -0.09103639
000080 46 49 32 3e 7e d0 e7 3d f5 a4 db bd af 48 c0 3d
       0.17410764 0.113190636 -0.107248224 0.09388863
000090 a9 25 75 3d ca 46 12 3d de 82 a4 bc ea 63 8b 3d
       0.05985037 0.03571204 -0.020081934 0.068061665
0000a0 20 3c 63 3c 4f a6 69 3d 49 fb 12 3e a2 d7 c6 3c
       0.013869315 0.05704337 0.1435367 0.024272744
0000b0 07 a0 2b 3c de 4f 15 3a 42 c8 78 3d b5 d1 08 bc
       0.010475165 0.00056958 0.060737856 -0.008350779
0000c0 07 e0 a2 3d 7c ce d2 3d f7 38 55 3d 9a b8 91 3d
       0.07952886 0.1029329 0.05205628 0.07115288
0000d0 72 bd d4 3d 28 8f 3e be cf 9f 77 3d 6a 09 52 be
       0.10387696 -0.18609297 0.06045514 -0.20511404
0000e0 9b d0 96 bd 16 57 73 bd 6d 5e 76 bb b0 b5 ba bd
       -0.07364007 -0.059409223 -0.0037592903 -0.091166854
0000f0 e9 13 84 3d 60 b0 a7 3d 39 73 1e be 1e 09 c8 bd
       0.0644911 0.08187938 -0.15473641 -0.09767364
000100 0b 6e d1 3d 48 34 a2 3d 16 f3 6a bd 6d 96 fb bd
       0.10226067 0.07920128 -0.05736073 -0.12284551
000110 59 37 ad 3c ff 75 06 3e cf 91 5e 3d c6 4f 97 bd
       0.021144556 0.1313095 0.054338273 -0.073882625
000120 bd 56 7c be bc 5c ff 3d c4 0d 4c be d0 73 2c bd
       -0.24642463 0.124688596 -0.19927126 -0.042102635
000130 d7 a5 cf bd 34 e2 41 be 9a ca 5d be be 12 40 bd
       -0.10139053 -0.18933946 -0.21659318 -0.046892874
000140 13 7b 6d 3c f0 a3 3f 3d 0c 17 d0 bd d5 b1 29 bc
       0.014494675 0.046787202 -0.10160646 -0.01035734
000150 0d 58 aa 3d 78 68 ec 3c 46 f4 f4 3d a9 92 c7 3d
       0.083175756 0.028858408 0.11960654 0.0974477
000160 f7 a7 64 bd 60 3a 14 bf d2 e8 91 3d 92 5d 1b 3e
       -0.055824246 -0.57901573 0.07124485 0.15172413
000170 49 f2 62 bd c9 ae 80 be 1a 48 80 be 75 89 f5 3d
       -0.055406842 -0.2513335 -0.2505501 0.119891085
000180 d9 7e fd bd dd 7b 08 3d 9e 96 2c 3e 7e 27 8f be
       -0.1237771 0.03332125 0.16854331 -0.27959818
000190 8f de 57 be 45 b8 70 3d 55 a9 fe bc b5 3f 8a be
       -0.21080993 0.058769483 -0.031086603 -0.2700173
0001a0 16 39 86 bd e4 d7 d8 bd 49 5b ad 3d 72 20 47 3e
       -0.06553857 -0.10588053 0.08464677 0.1944597
0001b0 ed a4 46 bd 14 3a 12 3d 05 48 fa 3d c9 09 35 bc
       -0.04849713 0.03569992 0.12220768 -0.011049696
0001c0 20 35 6f bd b9 fd 92 3d 05 8b 9c 3d fb 21 10 3e
       -0.058400273 0.071773 0.07643703 0.14075463
0001d0 fd ae bb 3c cd 43 4e be c9 aa de bd 89 a0 db bd
       0.02291059 -0.20143051 -0.108724184 -0.10723979
0001e0 67 7e 1d be d6 5a fc bd 3a 69 f3 3d 9c 62 a5 bc
       -0.1538025 -0.12322013 0.11885305 -0.020188622
0001f0 2f e8 1d be a1 be 46 be 6c 7d ca bd 5d 82 fc 3d
       -0.15420602 -0.19408657 -0.098872036 0.12329552
000200 ba 38 39 3c 91 4e 17 be 2d 75 14 be 08 3e b9 bd
       0.011305029 -0.14776064 -0.14497824 -0.09045035
000210 bb ec 7c be 3d 9b 3a bd 3a a1 a0 bd da 57 3c 3d
       -0.2469968 -0.045558203 -0.078432515 0.04598222
000220 48 d4 bc 3d 5e 0b ed 3d b3 3d cf bb ae db 22 3e
       0.09220177 0.11574434 -0.006324494 0.15904114
000230 91 23 a4 bd c4 36 f4 bd b9 09 ed bd 0d 87 15 3e
       -0.08014596 -0.11924508 -0.1157412 0.14602299
000240 b8 ea 59 3b f9 b7 2c be f5 57 3a be 8c d6 81 be
       0.0033251476 -0.16867055 -0.18197615 -0.25359
000250 51 e9 74 3d 12 73 97 be c0 10 0f be 32 6b 97 bd
       0.05979282 -0.2957998 -0.13971233 -0.07393493
000260 c4 d2 16 be 44 cf 53 3d a1 f3 0f be e8 57 ac bd
       -0.14728838 0.051711336 -0.14057781 -0.08415204
000270 06 42 7d 3d 7a 79 de 3d ab 73 85 3d 17 3e 86 3d
       0.061830543 0.108630136 0.065162025 0.065548114
000280 f7 eb ad bd f0 90 04 be 08 46 5c bb 48 a4 fa bc
       -0.08492272 -0.12945914 -0.0033611078 -0.030595914
000290 c8 6f b1 bd f3 d7 28 bd 84 b6 67 be 4a 35 db bd
       -0.08663899 -0.04122157 -0.22628218 -0.107035235
0002a0 ad d4 9b be fe a2 ae bd 43 8b b9 3d 97 52 d0 3d
       -0.30435696 -0.08527182 0.09059765 0.10172003
0002b0 3f b2 bf bd 62 b1 e9 bd 01 fc 03 3e 14 b0 55 be
       -0.093601696 -0.11410786 0.128891 -0.2086795
0002c0 bf f1 b1 bd 3f 4c 4d be 10 a0 15 be fd 94 6f 3d
       -0.086886875 -0.20048617 -0.1461184 0.058491696
0002d0 d5 71 46 bc 35 b5 9a 3d b5 e9 c0 bd a9 9a 8b 3d
       -0.012112101 0.07554094 -0.09419576 0.068166085
0002e0 28 f2 c2 bd 7f cc dd bd 96 37 7b bc 1a 0c b6 3d
       -0.09518844 -0.1083002 -0.015333077 0.08889027
0002f0 5b 21 aa bd 0f f3 86 3d 5d de 63 be 03 d8 4f be
       -0.08307143 0.065893285 -0.22252794 -0.20297246
000300 1f ad bb 3c aa 1c 3b 3e 0f 11 29 3e aa a2 e2 3d
       0.022909699 0.18272653 0.16510414 0.11066182
000310 d9 5e 4f bc ba fb 86 3d ae 56 6d be 44 f3 61 be
       -0.012656891 0.06590982 -0.23177597 -0.22065455
000320 44 60 b3 bd 4d c4 58 be d3 84 d6 bd 88 63 72 bd
       -0.087585956 -0.21168633 -0.10474553 -0.05917695
000330 e7 76 1b 3e d9 f4 f4 3c d5 ba fa 3d 52 d9 86 3d
       0.15182076 0.029901909 0.12242667 0.06584419
000340 0b 77 ba 3d 36 98 58 be 76 89 92 bd a2 29 fd bc
       0.09104737 -0.21151814 -0.07155125 -0.030903641
000350 ce d5 06 3e e8 0c c0 3d 15 3f 77 be f6 a0 2f bd
       0.13167498 0.09377462 -0.24145158 -0.042878114
000360 b2 14 24 bd 71 57 1e 3d 3c 5a ed 3c d2 fe 5c 3d
       -0.0400588 0.03865761 0.028973691 0.053953953
000370 e2 7b 5d 3c 9f 33 ee bd cf 06 93 3c 9a ff a9 bd
       0.0135183055 -0.1163094 0.017947583 -0.08300705
000380 77 ed 91 bb 07 dd 4c bc 36 60 50 bd ac 7e da bd
       -0.004453357 -0.012503869 -0.050873004 -0.10668692
000390 9e c0 24 be fd 15 09 3b de f1 33 be 76 69 7d be
       -0.16089103 0.0020917647 -0.17572734 -0.24747261
0003a0 50 9a 1a be c2 15 13 3e 88 2f cf bd dc 1c 80 3c
       -0.15097928 0.14363769 -0.10116488 0.015638761
0003b0 60 87 55 be 4a 29 da 3c 0a cc e1 bd 47 b9 6d bd
       -0.20852423 0.026631016 -0.110252455 -0.058038022
0003c0 62 07 bc 3c 52 98 09 be f5 43 20 3e 24 0c 4d 3d
       0.02295274 -0.13437012 0.15650924 0.050060406
0003d0 68 a5 e8 3d 75 c4 85 3d 5f 1e a3 3d 1d 6d a0 3d
       0.11359674 0.06531612 0.07964777 0.07833312
0003e0 38 8d af 3d 78 da 3d 3d 85 1c 8f bd bb 51 65 be
       0.08571857 0.046350926 -0.069878615 -0.22394459
0003f0 0e ad 06 be 68 7b 8e bd 1f 10 25 3e 22 c0 3d bc
       -0.13151953 -0.069571316 0.16119431 -0.011581453

fc3.bias f4 [10]
000000 3a c0 c2 3c b4 3f 27 3d 15 a9 1e be 81 50 ce bd
       0.023773301 0.040832236 -0.15494187 -0.10073949
000010 32 99 ea bd 5b f9 02 3e e6 b3 9a bd 06 26 75 3d
       -0.11455001 0.12790434 -0.07553844 0.059850715
000020 9b 36 13 bc 39 68 a0 3c
       -0.008985187 0.019580947
