models/BasicNet Ensemble-10model-9.pt (torch, 180551 bytes, 10 tensors)

conv1.weight f4 [6, 1, 5, 5]
0	0x3b5a9a60	0.0033356175
1	0xbd03280d	-0.032020617
2	0xbe396449	-0.18104662
3	0x3c5a7786	0.013334161
4	0x3e589eff	0.21154402
5	0x3ccc591b	0.024944833
6	0xbde6fb79	-0.11278433
7	0x3d03b951	0.032159153
8	0x3e8b8b96	0.27254933
9	0x3e8a2f57	0.26989242
10	0x3d62903c	0.055313334
11	0xbbb567fb	-0.005536077
12	0x3e96ae39	0.29429796
13	0x3e5970ea	0.2123448
14	0xbe172411	-0.14759852
15	0x3dc4da7d	0.09611986
16	0x3e1a3f98	0.15063322
17	0x3dac725a	0.08420248
18	0x3cc45c50	0.0239698
19	0xbe2a75fe	-0.16646573
20	0x3e62c99b	0.22147219
21	0xbcfdbd6c	-0.030974112
22	0xbca972ce	-0.020684626
23	0xbe92265c	-0.2854489
24	0xbccd2fd8	-0.025047228
25	0xbb63c785	-0.0034756374
26	0x3e2161f7	0.15760027
27	0x3ee718f3	0.45136222
28	0x3d7fc8d6	0.06244739
29	0x3da3fc04	0.080070525
30	0x3d85b674	0.06528941
31	0x3e895da0	0.26829243
32	0x3ead03ed	0.33792058
33	0x3e8ca9c1	0.27473262
34	0x3d8eadf0	0.0696677
35	0xbee2b206	-0.44276446
36	0xbe4bc738	-0.19900215
37	0xbd646808	-0.055763274
38	0xbc96d30e	-0.018411186
39	0x3df50e42	0.1196561
40	0xbeed807a	-0.46387082
41	0xbebdbe4a	-0.37059242
42	0xbe0b49a8	-0.13602316
43	0x3ddd07ef	0.10792529
44	0xbe46e598	-0.1942352
45	0xbd1750f5	-0.03694244
46	0xbe96ef12	-0.2947927
47	0xbd503802	-0.050834663
48	0x3c01403e	0.007888852
49	0x3db5589b	0.08854791
50	0x3d9db526	0.07700567
51	0x3e435c5c	0.19078201
52	0xbc346781	-0.011011005
53	0xbd520187	-0.051270988
54	0xbec74614	-0.38920653
55	0xbc058502	-0.008149387
56	0xbe548219	-0.20752753
57	0xbef1d5ae	-0.47233337
58	0xbf0dfeb1	-0.55466753
59	0xbd8bb198	-0.06820983
60	0xbdb14b28	-0.08656913
61	0xbf0b9854	-0.5452931
62	0xbe9cd4d4	-0.30631125
63	0xbcc8bf5b	-0.024505308
64	0x3e74923e	0.23883912
65	0xbebe6bfd	-0.37191764
66	0xbe609ce9	-0.21934856
67	0xbd15f570	-0.03661102
68	0x3e3d990f	0.18515418
69	0x3e30120d	0.17194386
70	0xbeaefa43	-0.3417531
71	0xbe0de712	-0.13857678
72	0x3d8f61be	0.07001065
73	0x3e8cdeb2	0.27513653
74	0x3e9bbd22	0.30417734
75	0xbdfbd12a	-0.12295754
76	0x3d9f8c77	0.077904634
77	0x3e670b33	0.22562866
78	0x3e0bc740	0.13650227
79	0x3ca24cfb	0.019812098
80	0xbeb42700	-0.35186005
81	0xbf1b5c84	-0.6068804
82	0xbf099e60	-0.53757286
83	0xbd9ce464	-0.076607496
84	0xbe24cdb1	-0.1609409
85	0x3e2c4d71	0.16826417
86	0xbea56323	-0.32302198
87	0xbe956ca1	-0.2918444
88	0xbe13fe61	-0.14452507
89	0xbd5fb65a	-0.054617263
90	0x3e234929	0.15945877
91	0x3ed37f14	0.4130789
92	0x3e8bf46e	0.27334923
93	0x3c9fb85a	0.019497085
94	0x3c954ef4	0.018226124
95	0x3eae7c91	0.34079412
96	0x3de5366e	0.11192022
97	0x3e927ed9	0.28612402
98	0x3c5d629e	0.013512282
99	0xbd709378	-0.058734387
100	0x3d10f746	0.03539207
101	0xbd3a591c	-0.045495138
102	0x3e01e8e1	0.12686493
103	0xbe2e9193	-0.1704772
104	0xbe5f9bf3	-0.21836834
105	0xbb752712	-0.003740732
106	0x3e8a9a4d	0.27070847
107	0x3e2dc38f	0.16969131
108	0xbe999b07	-0.3000109
109	0xbe759f92	-0.23986652
110	0x3da0dcf4	0.078546435
111	0x3ea527e9	0.32257012
112	0xbce3bcb8	-0.027799949
113	0xbe8468bc	-0.25861156
114	0xbe6ad4e1	-0.2293277
115	0x3cc6b0fb	0.024254313
116	0x3e964106	0.29346484
117	0x3e09a74d	0.13442726
118	0xbe7727a3	-0.24136214
119	0xbe9efab4	-0.31050646
120	0x3e3743a3	0.17896895
121	0x3e863d71	0.2621875
122	0xbc98d72e	-0.018657293
123	0xbdf94eb0	-0.121732116
124	0xbd354a85	-0.04426052
125	0xbda734ab	-0.081643425
126	0x3db09a1f	0.08623146
127	0xbd7e1517	-0.06203183
128	0x3d3a37a0	0.045463204
129	0xbe9ea59e	-0.3098573
130	0x3dd38e0b	0.10329827
131	0xbe0009f7	-0.12503801
132	0xbe4153ea	-0.18879667
133	0x3db802a1	0.089848764
134	0xbe39e2bf	-0.18152903
135	0xbcf41bc0	-0.029798388
136	0x3e4f4628	0.20241606
137	0xbce24dbd	-0.02762496
138	0x3e730e9d	0.23736043
139	0x3eae7c25	0.3407909
140	0xbd9b41ec	-0.07580933
141	0x3e79867d	0.2436771
142	0x3d6a5e4f	0.057218846
143	0x3e0ac84e	0.13552973
144	0x3e74b031	0.23895337
145	0x3dfbbbf1	0.12291706
146	0x3d556b5e	0.052104346
147	0xbdbd3eb4	-0.09240475
148	0xbea1caea	-0.31600124
149	0xbe962f42	-0.2933293

conv1.bias f4 [6]
0	0xbdbaf60d	-0.09128962
1	0xbdb96e4b	-0.0905424
2	0xbbe27979	-0.0069114533
3	0x3e525ae1	0.2054248
4	0xbe4f5afb	-0.2024955
5	0x3d808f97	0.062773876

conv2.weight f4 [16, 6, 5, 5]
0	0xbc765756	-0.015035471
1	0x3dc93e7d	0.09826372
2	0x3dcbda8d	0.09953795
3	0x3e353e84	0.17699629
4	0x3debd428	0.11515075
5	0x3da7e3e3	0.08197763
6	0x3dd87338	0.10568851
7	0x3de1623c	0.11005065
8	0x3c5a695b	0.013330783
9	0xbaf3b75c	-0.0018594074
10	0x3d94638d	0.0724555
11	0x3de66123	0.11248996
12	0x3d07590d	0.03304391
13	0xbe1abb16	-0.1511043
14	0xbdc7a02b	-0.097473465
15	0x3ccd726a	0.025078971
16	0xbdf93b7a	-0.121695474
17	0xbdc34691	-0.09534944
18	0xbd87db19	-0.066335864
19	0xbe0d36bd	-0.13790412
20	0xbd65dae0	-0.05611694
21	0xbe12ea1f	-0.14347123
22	0xbd791b1a	-0.06081686
23	0xbd44d41f	-0.048053857
24	0xbd61d7b9	-0.05513737
25	0xbd2b6b6b	-0.04185049
26	0xbdf3d4d6	-0.119058296
27	0xbe52c243	-0.20581917
28	0xbe29259e	-0.16518256
29	0xbd58e286	-0.052950405
30	0xbde4e08d	-0.11175642
31	0xbd57e8fe	-0.052712433
32	0xbe0cf815	-0.13766511
33	0xbc5c70f6	-0.013454666
34	0x3d11b7c2	0.035575636
35	0x3d8dc357	0.06922024
36	0xbc78aca5	-0.01517788
37	0xbd323cc1	-0.04351497
38	0x3d99fd35	0.075189985
39	0x3cdb6acd	0.026784325
40	0x3e2c029f	0.16797875
41	0x3e199110	0.14996743
42	0x3e1de202	0.15418246
43	0xbd2d9e08	-0.04238704
44	0xbd64e0a0	-0.05587828
45	0xbd24bcff	-0.040219303
46	0xbcade1a5	-0.02122576
47	0x3c9db7ab	0.019252619
48	0x3ced461a	0.028964091
49	0xbdfe64b3	-0.124215506
50	0x3e31c23e	0.17359254
51	0x3dcd0f3c	0.10012671
52	0x3dc98e76	0.098416254
53	0xbc42d645	-0.011891906
54	0xbdb5411e	-0.08850311
55	0x3dac5a78	0.08415693
56	0x3df66405	0.12030796
57	0xbd914b43	-0.07094433
58	0xbe78c3f4	-0.242935
59	0xbe61ee68	-0.22063601
60	0xbd3188cd	-0.043343354
61	0x3d0aa092	0.033844538
62	0xbe16f082	-0.14740184
63	0xbdb6e2f0	-0.08930004
64	0xbe21fa91	-0.1581824
65	0xbe0565cb	-0.13027112
66	0xbd91dba7	-0.071219735
67	0xbd27be18	-0.040952772
68	0x3d825bb3	0.063651465
69	0x3d43bbb1	0.04778642
70	0x3cdde2c1	0.027085664
71	0x3d984aff	0.07436179
72	0xbccb024c	-0.024781369
73	0xbd149b6a	-0.036281027
74	0xbda6540b	-0.08121499
75	0xbb00810c	-0.0019608168
76	0xbda85b41	-0.0822053
77	0x3d059c78	0.032619923
78	0x3d6f809d	0.058472265
79	0x3da67508	0.08127791
80	0xbde5dd93	-0.112239026
81	0xbe1a3346	-0.15058622
82	0xbd9dbe41	-0.07702304
83	0xbdaae598	-0.08344573
84	0x3d5f9ca8	0.05459276
85	0xbd868498	-0.06568259
86	0xbd344285	-0.04400875
87	0xbc4a8f70	-0.0123633
88	0x3e17e224	0.1483236
89	0x3db7ba6e	0.089711055
90	0x3e745b70	0.23863006
91	0x3e1a45e7	0.15065728
92	0x3e87216c	0.26392686
93	0x3e77d7c2	0.24203399
94	0x3eadd0c9	0.33948353
95	0x3e19c924	0.15018135
96	0x3d4b15e8	0.04958144
97	0xbd96688c	-0.073441595
98	0xbcc42b16	-0.023946326
99	0xbb4184a6	-0.0029528528
100	0x3d18d750	0.037314713
101	0xbd713860	-0.058891654
102	0xbddcfaf8	-0.10790056
103	0xbdbe6565	-0.09296683
104	0x3e12ef48	0.14349091
105	0xbe01b945	-0.12668331
106	0xbd172ad6	-0.036906086
107	0xbd8c7afa	-0.068593934
108	0xbe1ef02e	-0.15521309
109	0x3dbddde5	0.09270839
110	0xbe24e771	-0.16103913
111	0x3cd88ec6	0.026435267
112	0x3c993f0b	0.018706819
113	0xbe43c805	-0.1911927
114	0xbe1db7e5	-0.15402181
115	0xbe45eff0	-0.1932981
116	0xbe01e0dd	-0.12683435
117	0xbe61a3bb	-0.22035114
118	0xbe01639d	-0.12635656
119	0xbe065b06	-0.1312066
120	0xbe018baf	-0.12650941
121	0xbd9d20b9	-0.07672257
122	0xbe11292e	-0.14175865
123	0xbe24729f	-0.1605935
124	0x3c84c54e	0.016207363
125	0xbd12a9d5	-0.035806496
126	0xbd287513	-0.041127276
127	0x3d391c63	0.045193087
128	0x3d96b676	0.073590204
129	0x3cb7e05e	0.022445854
130	0xbd6aee09	-0.057355914
131	0x3ce3ba34	0.02779875
132	0x3e2e5f81	0.1702862
133	0xbcdc1b51	-0.026868494
134	0xbdc0c898	-0.0941326
135	0x3d228f40	0.039687395
136	0x3be0416f	0.006843738
137	0x3d4ac929	0.049508248
138	0x3cb2cb68	0.021825507
139	0xbdea6369	-0.11444742
140	0x3d5e9ccb	0.05434875
141	0x3d843c14	0.064567715
142	0x3c19ef1c	0.009395387
143	0x3d3abe9b	0.04559193
144	0x3c912327	0.017716957
145	0xbce6eb26	-0.0281883
146	0x3cfaf587	0.030634655
147	0xbdaa1921	-0.08305574
148	0x3cc6503e	0.024208184
149	0x3cb1baa3	0.02169544
150	0xbdcb5229	-0.0992778
151	0xbe11ae55	-0.14226659
152	0xbe6ed713	-0.23324232
153	0xbe340bcd	-0.17582627
154	0xbd8756aa	-0.06608327
155	0xbd29f6ea	-0.04149524
156	0xbdc9e609	-0.09858329
157	0xbe36f9bd	-0.17868705
158	0xbce4c2a4	-0.027924843
159	0x3defde6c	0.117123455
160	0x3ccff336	0.025384527
161	0xbe1a46a8	-0.15066016
162	0xbdfaff44	-0.12255719
163	0xbcbce2dd	-0.023057396
164	0x3e07afe6	0.13250694
165	0x3caa3806	0.020778667
166	0xbd2ec5d2	-0.042669125
167	0x3d6fa641	0.05850816
168	0x3d7550b8	0.059891433
169	0x3dac2493	0.084054135
170	0xbe14da4f	-0.14536403
171	0xbb58888a	-0.0033040368
172	0x3d6b5599	0.05745468
173	0x3e0ca76a	0.13735738
174	0xbd162801	-0.036659244
175	0xbba07858	-0.0048971586
176	0xbdc83ed4	-0.097776085
177	0xbd338b18	-0.043833822
178	0x3d639ad0	0.055567563
179	0xbba4d06a	-0.0050297277
180	0xbd4de146	-0.050263666
181	0xbd08ccdd	-0.033398498
182	0xbdedf960	-0.1161983
183	0x3d8eee11	0.06979001
184	0xbd582b58	-0.05277571
185	0x3cae4ed8	0.02127783
186	0xbe2bb9f7	-0.16770159
187	0xbdb9a5af	-0.09064805
188	0x3d3d660d	0.0462399
189	0xbde39d7a	-0.11114021
190	0xbdfbc869	-0.122940846
191	0xbd2fc119	-0.04290876
192	0x3daf7b16	0.08568399
193	0x3d97c9db	0.07411548
194	0xbe1e483e	-0.15457246
195	0xbd04dbe8	-0.03243628
196	0xbe195ae2	-0.14976075
197	0xb9f1afea	-0.00046098168
198	0x3ca78d5c	0.020453148
199	0xbeaa6102	-0.33277136
200	0xbbcbd01b	-0.0062198765
201	0xbda8b35f	-0.08237337
202	0x3d11477e	0.03546857
203	0x3e1bc5cd	0.15212174
204	0xbd161140	-0.036637545
205	0x3d64a04f	0.055816945
206	0x3d57acec	0.052655146
207	0x3d4421b1	0.047883693
208	0x3e071a32	0.13193586
209	0xbce9b571	-0.0285289
210	0xbbde0eeb	-0.0067766807
211	0xbd511024	-0.051040784
212	0xb8ba7808	-8.891529e-05
213	0x3a671590	0.0008815164
214	0x3b8deaa9	0.004330952
215	0xbd0e6e96	-0.03477343
216	0x3d92d79a	0.07170029
217	0x3cf81ce6	0.030287217
218	0x3e3d5cc3	0.18492417
219	0xbe2bf772	-0.16793612
220	0x3da7cacc	0.08192977
221	0x3e351d9d	0.17687078
222	0x3d45b753	0.048270535
223	0xbdd44e3c	-0.103664845
224	0xbe6eecc3	-0.23332505
225	0x3e7c268b	0.24624078
226	0x3e7cfd88	0.2470609
227	0xbd97f4ea	-0.074197605
228	0xbe4f46d1	-0.20241858
229	0xbe6fc3b9	-0.23414506
230	0x3dea09de	0.11427663
231	0x3e125f3a	0.14294139
232	0x3c81c332	0.015840147
233	0xbe020f0a	-0.1270105
234	0xbe4ffa8c	-0.2031042
235	0x3d78c5a0	0.060735345
236	0x3c1262ab	0.008934657
237	0xbd5d6a5a	-0.054056503
238	0xbda55b9b	-0.08074113
239	0xbe2e25cc	-0.17006606
240	0x3d8d8d5d	0.069117285
241	0xbc8d0603	-0.01721478
242	0xbd165794	-0.036704615
243	0xbe88203a	-0.26587087
244	0xbe9c6754	-0.30547583
245	0xbd193d67	-0.037412073
246	0x3dc1ea42	0.09468509
247	0x3cea8a0f	0.028630285
248	0xbe7ecba7	-0.24882375
249	0xbe73f0a2	-0.23822263
250	0xbd75cb6c	-0.06000845
251	0xbd2b1a0b	-0.041772883
252	0xbcaebd38	-0.02133046
253	0xbd2cb66f	-0.04216617
254	0x3e393e62	0.18090203
255	0x3d861880	0.06547642

conv2.bias f4 [16]
0	0xbb5294f4	-0.003213224
1	0x3d4480cd	0.047974396
2	0x3d812e32	0.06307639
3	0xbdad0c03	-0.08449557
4	0xbccf6ee5	-0.025321433
5	0xbd95a552	-0.07306923
6	0xbc1f5d19	-0.009726786
7	0x3ab4e041	0.0013799743
8	0x3d17875a	0.036994316
9	0xbcb8defc	-0.022567265
10	0xbc474e8e	-0.012164725
11	0x3c8c0531	0.01709232
12	0xbd74e266	-0.059786223
13	0x3d0ba608	0.034093887
14	0xbd5a6ebd	-0.053328265
15	0xbc57e71d	-0.01317766

fc1.weight f4 [120, 256]
0	0x3dbfae72	0.09359445
1	0xb95575e8	-0.00020357186
2	0xbd6ba378	-0.057528943
3	0xbcca5f44	-0.02470363
4	0xba9fbcf6	-0.0012187052
5	0xbd35b103	-0.044358265
6	0xbca3960b	-0.019969007
7	0x3ddeb9b6	0.10875265
8	0x3d727596	0.05919417
9	0x3d2b7ee2	0.04186905
10	0x3e3617ce	0.17782518
11	0xbd99ffdc	-0.075195044
12	0x3d2b4504	0.041813865
13	0xbca4d397	-0.020120425
14	0xbe0d3783	-0.13790707
15	0xbe31376d	-0.173063
16	0xbdb3c72d	-0.08778224
17	0xbc89318d	-0.01674726
18	0x3e63d7f8	0.22250354
19	0x3dbdc631	0.09266318
20	0xbce57081	-0.028007748
21	0x3d038940	0.032113314
22	0x3ccdf6b0	0.025142044
23	0x3cdcb86d	0.02694341
24	0x3c927951	0.017880114
25	0x3c5f5ca0	0.013632923
26	0xbde99c77	-0.114067964
27	0xbe456b19	-0.19279136
28	0x3d9739c9	0.073840685
29	0xbd012eaa	-0.031538643
30	0xbd8ba32d	-0.06818233
31	0x3dec477c	0.11537072
32	0x3d369d2c	0.044583485
33	0x3d87eb82	0.066367164
34	0x3cb2a7e5	0.021808574
35	0xbd2422c0	-0.040072203
36	0x3dac86fc	0.08424184
37	0x3cf4da1f	0.029889164
38	0xbd243b11	-0.040095393
39	0x3e08a5b6	0.13344464
40	0xbce6461d	-0.028109604
41	0x3dc447e9	0.09584028
42	0x3bdcc58e	0.0067374175
43	0x3d88eaca	0.066854075
44	0x3d2465bc	0.040136084
45	0x3db63ded	0.0889853
46	0xbe061be3	-0.13096575
47	0xbe33c81f	-0.17556809
48	0xbcde4d25	-0.027136395
49	0xbdb4c868	-0.08827287
50	0x3b9681ba	0.0045931013
51	0x3cea5d67	0.02860899
52	0x3e04b441	0.12959386
53	0xbd448e14	-0.04798706
54	0xbe1b79dc	-0.15183204
55	0xbde49560	-0.111613035
56	0xbbc44fc1	-0.0059909527
57	0xbe257455	-0.16157658
58	0x3d9f7f30	0.07787931
59	0xbcb71903	-0.022350794
60	0xbdf4da78	-0.11955732
61	0xbe1fdae1	-0.1561084
62	0x3c1c7a18	0.009550594
63	0x3b9e228f	0.004825897
64	0x3db00021	0.085937746
65	0xbd367d7b	-0.04455326
66	0xbe1edba2	-0.15513471
67	0x3c6490f1	0.013950572
68	0xbdb0dff9	-0.086364694
69	0xbe618dca	-0.22026744
70	0x3c84498c	0.016148351
71	0xbd8ed90a	-0.06974991
72	0xbc3d7723	-0.011564049
73	0x3da0425c	0.07825157
74	0xbdb1a342	-0.08673717
75	0x3c77ee3d	0.015132484
76	0x3cee82bb	0.029115072
77	0x3db76adf	0.08955931
78	0xbd968cf0	-0.073511004
79	0x3e1ad33c	0.15119642
80	0x3d9096b4	0.07059994
81	0xbc8c62ce	-0.017136957
82	0x3d200c63	0.039074313
83	0x3e000cfc	0.12504953
84	0xbe135eb3	-0.14391594
85	0x3d2c313f	0.042039152
86	0xbd1c91e8	-0.038225085
87	0x3e035b89	0.12827887
88	0xbd66be58	-0.05633387
89	0xbe33a5fe	-0.1754379
90	0xbd622f36	-0.055220805
91	0xbd9fe02f	-0.078064315
92	0xbd6fa84f	-0.05851012
93	0x3dc91fc7	0.09820514
94	0x3c87f708	0.016597286
95	0xbe4ebe8a	-0.20189872
96	0xbdb2b628	-0.0872615
97	0x3d8a61df	0.06756949
98	0xbc3916b3	-0.011296916
99	0x3df641ac	0.12024245
100	0xbe6c8de8	-0.23101008
101	0xbcf3571a	-0.02970462
102	0x3cebe9bc	0.028797977
103	0x3e1382e7	0.14405404
104	0x3d38f9cd	0.045160104
105	0x3d8c0cd6	0.06838386
106	0xbe70a073	-0.23498707
107	0xbc8112aa	-0.01575597
108	0x3d37e9df	0.04490077
109	0xbe005b0e	-0.12534735
110	0xbc804890	-0.0156596
111	0x3c8ddfb8	0.017318591
112	0x3df9b9b8	0.12193626
113	0x3deac2ac	0.11462912
114	0x3dc8dbf5	0.098075785
115	0x3ccd4cad	0.025060976
116	0xbd01ad2e	-0.031659298
117	0xbda3671a	-0.079786494
118	0xbc993595	-0.018702308
119	0x3b988c89	0.004655425
120	0xbd41db59	-0.047328327
121	0xbdbd4003	-0.09240725
122	0xbe220f76	-0.1582621
123	0x3d579afd	0.052638043
124	0x3d8f6f39	0.07003636
125	0x3c9e343a	0.019312013
126	0xbd0114ba	-0.031513907
127	0x3995ae92	0.0002854956
128	0x3ce67754	0.028133072
129	0xbd0e107e	-0.034683697
130	0xbd37182c	-0.044700786
131	0xbc91f7e9	-0.017818408
132	0xbcc3573c	-0.023845308
133	0x3df8e6cf	0.12153398
134	0x3d3f6b51	0.046733204
135	0xbc9b7d1a	-0.018980552
136	0x3cfe17f5	0.031017283
137	0xbd810cd6	-0.063012764
138	0xbcfc2083	-0.030777222
139	0x3d14fea8	0.03637567
140	0x3d8c25a8	0.0684312
141	0x3db9b8af	0.09068429
142	0xbd9eb426	-0.07749204
143	0xbe08cb4e	-0.13358805
144	0xbcc9b3e4	-0.024621911
145	0x3b0076b5	0.0019602005
146	0xbd83be58	-0.064327896
147	0xbcbdbbd5	-0.023160854
148	0x3cc943d7	0.024568481
149	0xbdbeb8fa	-0.09312625
150	0xbd997337	-0.074926786
151	0x3d1044fb	0.035222035
152	0x3d2a766b	0.04161684
153	0xbd89ca31	-0.06728018
154	0x3e0fef4e	0.14056131
155	0x3c203062	0.00977716
156	0xbe3cbc37	-0.18431173
157	0xbdb48dac	-0.08816084
158	0xbcc952c7	-0.024575604
159	0xbd6ebd36	-0.058285914
160	0xbd85f552	-0.06540932
161	0x3cb73927	0.02236612
162	0x3e44a301	0.19202806
163	0x3d255981	0.04036856
164	0xbd40244b	-0.04690961
165	0x3dcd3131	0.10019148
166	0xbbb94200	-0.0056536198
167	0xbddc0f09	-0.10745055
168	0xbcac44ef	-0.021028964
169	0xbe016032	-0.12634352
170	0xbe2fed1a	-0.17180291
171	0xbdedd6fa	-0.11613269
172	0xbd3beb0b	-0.04587845
173	0x3da4770c	0.08030519
174	0xbd88fdbf	-0.06689023
175	0xbd9aafbb	-0.07553049
176	0x3d396d13	0.045270037
177	0x3d959cfd	0.07305334
178	0x3d3c15b2	0.045919128
179	0xbd1a14af	-0.03761738
180	0xbc6ae371	-0.014336453
181	0x3e6dd3d8	0.23225343
182	0xbcd8dd4a	-0.026472706
183	0x3d6486c1	0.055792574
184	0xbe73c146	-0.23804197
185	0x3c487b6a	0.012236455
186	0x3d06b291	0.032885138
187	0x3c9604b2	0.018312786
188	0xbdde1fb1	-0.108458884
189	0xbd8dfe11	-0.06933225
190	0x3b6387ca	0.0034718388
191	0xbdda0d58	-0.10647076
192	0xbd9630a5	-0.07333497
193	0x3c13fedc	0.009032931
194	0x3e3d844f	0.18507503
195	0x3e0c97df	0.13729809
196	0x3d3b1f8e	0.04568439
197	0x3dba63b9	0.09101052
198	0xbd5a0493	-0.05322702
199	0xbcea2559	-0.028582262
200	0x3d1e5504	0.038655296
201	0xbdde652a	-0.10859139
202	0xbda7995a	-0.08183546
203	0x3d0fc0e6	0.03509607
204	0x3d6d15d6	0.057882152
205	0xbe224036	-0.15844807
206	0x3e2fb313	0.17158155
207	0x3e251c0a	0.16123977
208	0xbdf34a8d	-0.11879454
209	0xbd3106fd	-0.043219555
210	0x3de5ffa4	0.112304
211	0x3ca08990	0.019596845
212	0xbdaec22f	-0.08533131
213	0xbdd70214	-0.10498443
214	0x3d111de8	0.03542891
215	0x3dbdd104	0.09268382
216	0x3ccdcd8b	0.025122425
217	0x3cc155b2	0.023600433
218	0x3c44067e	0.0119644385
219	0x3bd64547	0.00653902
220	0xbbcab1ab	-0.0061857305
221	0x3b8feaa9	0.0043919873
222	0x3babd442	0.005243809
223	0xbd222e0c	-0.039594695
224	0xbd46b530	-0.048512638
225	0x3d166b44	0.03672339
226	0x3e00f8ab	0.1259486
227	0xbdb02c77	-0.08602231
228	0x3db79ef3	0.08965864
229	0xbc885a52	-0.01664463
230	0x3e0b5fee	0.13610813
231	0xbc5d2645	-0.013497894
232	0xbc8bcea5	-0.01706631
233	0x3dc4e3b3	0.09613743
234	0x3d40ad17	0.04704007
235	0xbd21612e	-0.03939932
236	0xbd031b75	-0.032008607
237	0xbdbb53d8	-0.09146851
238	0xbd9594e4	-0.07303789
239	0x3d942d90	0.07235253
240	0x3bed969a	0.007250619
241	0xbb85b98c	-0.004080957
242	0xbda525b5	-0.08063833
243	0x3caaeade	0.020863947
244	0xbaea085a	-0.0017855272
245	0x3ce3eab2	0.027821872
246	0x3d90df21	0.070738085
247	0x3dd3890c	0.10328874
248	0xbe1d7fba	-0.15380755
249	0xbdb18337	-0.08667605
250	0x3d397588	0.045278102
251	0xbd157be2	-0.036495097
252	0x3d1d01a8	0.038331658
253	0x3d695d98	0.056974024
254	0x3d585e44	0.052824274
255	0x3d2d661a	0.0423337

fc1.bias f4 [120]
0	0x3d7aa05d	0.06118809
1	0x3c78d5d0	0.015187696
2	0xbdc2af89	-0.09506137
3	0x3cb7de86	0.022444975
4	0xbd3bc7ad	-0.045844723
5	0x3cae2e88	0.021262422
6	0x3c5ce24c	0.013481688
7	0x3d548afd	0.051890362
8	0x3cc5ee7f	0.024161575
9	0x3c5d76b1	0.013517068
10	0x3dad0b97	0.08449476
11	0x3c6b0f6f	0.014346941
12	0xbd5717a0	-0.052512765
13	0x3d1f406a	0.03887979
14	0x3d10e6c6	0.035376333
15	0xbd9d66a8	-0.07685596
16	0xbc73be8d	-0.014876974
17	0x3c4c9e22	0.012488874
18	0x3cc6d6f5	0.024272421
19	0x3d657392	0.05601842
20	0x3c08d578	0.008351676
21	0xbbbe76d5	-0.0058125057
22	0xbc1df9ff	-0.009642123
23	0x3df82537	0.12116473
24	0x3d947339	0.072485395
25	0x3d203c2e	0.03911989
26	0x3d30d43c	0.043171152
27	0x3cb63e99	0.022246646
28	0x3d678aaa	0.056528725
29	0x3db82bcd	0.08992729
30	0xbd33cf3b	-0.043898802
31	0x3ccba28e	0.024857786
32	0x3d146d0a	0.0362368
33	0xbc3e5279	-0.011616343
34	0xbd4d38d0	-0.05010301
35	0x3c73eb79	0.014887684
36	0xbcb42642	-0.021990899
37	0xbb147f0e	-0.0022658738
38	0x3da41dd7	0.08013504
39	0x3cc1fe17	0.02368073
40	0x3dd2b2b0	0.10287988
41	0xbdc3cb36	-0.09560244
42	0x3d0c868a	0.034307994
43	0xbd10a7a5	-0.03531613
44	0xbbc47696	-0.005995582
45	0xbd0bbbc9	-0.034114633
46	0x3d245d58	0.040128082
47	0x3caa7e45	0.020812163
48	0x3d8516fd	0.06498525
49	0xbd3829f1	-0.044961873
50	0xbdbaaf4d	-0.09115467
51	0xbd87d270	-0.06631935
52	0xbb10ab90	-0.0022074915
53	0xbdd31d65	-0.10308341
54	0x3ca35806	0.019939434
55	0xbcc72ada	-0.024312425
56	0xbd9e98b8	-0.077439725
57	0xbdc25832	-0.09489478
58	0xbdac8382	-0.084235206
59	0xbcc3f661	-0.023921194
60	0xbda62b2b	-0.081137024
61	0x3d31994c	0.043359086
62	0x3dbec219	0.09314365
63	0x3cf59e52	0.02998272
64	0xbd5483f1	-0.05188364
65	0xbd8dbc0d	-0.069206335
66	0x3da5a14a	0.08087404
67	0x3d2a6e8d	0.041609336
68	0x3bacff1f	0.0052794362
69	0xbcffa922	-0.031208578
70	0x3cc415b8	0.023936138
71	0x3c0fc05e	0.008773891
72	0x3db9be8a	0.090695456
73	0x3b912d6a	0.0044304626
74	0x3d2ce93e	0.042214625
75	0xbb2300ed	-0.0024872378
76	0x3c818a8f	0.01581314
77	0xbd5cba03	-0.053888332
78	0x3c6551f2	0.013996588
79	0xbd8188e7	-0.0632494
80	0x3d4c5ef0	0.049895227
81	0xbd770bf7	-0.060314145
82	0xbdb6c6c2	-0.08924629
83	0x3e09d2ea	0.13459364
84	0xbdabecab	-0.0839475
85	0xbc114bf8	-0.00886821
86	0x3b6a6ae3	0.0035769276
87	0xbcf1735f	-0.029473959
88	0x3d836805	0.064163245
89	0x3c37e821	0.011224777
90	0x3d10b55a	0.0353292
91	0x3cc7db06	0.02439643
92	0x3d8cea94	0.0688068
93	0x3e1f6c0a	0.15568557
94	0xbc1ea9e3	-0.009684059
95	0xbc911815	-0.017711679
96	0x3bae29fa	0.0053150626
97	0xbdc0dff3	-0.09417715
98	0x3c47b0d1	0.012188152
99	0xbc83df49	-0.016097682
100	0xbd0c85ca	-0.03430728
101	0x3d40584d	0.04695921
102	0xbdc6cb4c	-0.097067446
103	0xbdbe0849	-0.09278924
104	0xbd2fe2ab	-0.042940777
105	0x3b9e3243	0.004827769
106	0x3cfa7fbc	0.030578487
107	0xbc1cacb3	-0.009562659
108	0xb9c7a315	-0.00038077743
109	0xbd8432d5	-0.06455008
110	0x3df64e7d	0.12026689
111	0x3d819787	0.0632773
112	0xbb27abbd	-0.0025584542
113	0xbcdf1fff	-0.027236937
114	0x3ce031a3	0.027367419
115	0xbcd5f04f	-0.026115565
116	0xbd2bb93f	-0.04192471
117	0x3d224350	0.039614975
118	0x3d70ee2c	0.05882089
119	0x3cc0bec5	0.023528466

fc2.weight f4 [84, 120]
0	0x3d447722	0.047965176
1	0xbd8f40bd	-0.0699477
2	0xb8cf7972	-9.89315e-05
3	0xbe02f57a	-0.12788954
4	0x3c6af45c	0.014340486
5	0x3da455aa	0.080241516
6	0x3d2c4593	0.04205854
7	0xbd246e7d	-0.040144432
8	0xbe34b3dc	-0.17646736
9	0xbd1053d7	-0.035236206
10	0x3d8710c4	0.06594995
11	0xbd0c368e	-0.034231715
12	0x3e76f66a	0.24117437
13	0xbe319f04	-0.17345816
14	0x3df61545	0.120157756
15	0x3e154a74	0.14579183
16	0xbdb95015	-0.090484776
17	0x3e1ef12a	0.15521684
18	0xbdefdad8	-0.11711663
19	0xbe920d31	-0.2852569
20	0xbdbe081c	-0.092788905
21	0x3db2299d	0.08699343
22	0x3c544311	0.012955443
23	0xbde0abb1	-0.109702475
24	0xbdc088d6	-0.094010994
25	0x3c1123e3	0.008858654
26	0x3cbfdd8e	0.023421075
27	0xbdd3f5f8	-0.10349649
28	0x3db3ac56	0.08773105
29	0xbdfb6316	-0.122747585
30	0xbcfcddb4	-0.030867435
31	0xbd301236	-0.042986117
32	0x3ac5ad63	0.001508158
33	0xbdab12e9	-0.08353216
34	0x3b2cc4e4	0.0026362473
35	0x3d92d88f	0.071702115
36	0x3e3d1daa	0.18468347
37	0x3b9b06d8	0.0047310404
38	0xbda4aa68	-0.08040315
39	0x3dc60a4d	0.096699335
40	0xbdce64fd	-0.10077856
41	0xbd0835a4	-0.03325428
42	0x3cee3a0a	0.02908041
43	0x3cb6b836	0.022304635
44	0x3ddf6c20	0.10909295
45	0x3d4998b9	0.049217913
46	0x3d1150ab	0.03547732
47	0x3d1fe459	0.03903613
48	0xbdbe1ba8	-0.09282619
49	0xbdef19db	-0.116748534
50	0x3cb1ab42	0.021688107
51	0xbd8478c2	-0.06468345
52	0x3d230d2b	0.03980748
53	0x3e3d12d5	0.18464215
54	0xbd5f2297	-0.054476347
55	0x3df350ab	0.118806206
56	0x3dbf1dac	0.09331831
57	0x3be00967	0.0068370583
58	0xbcc24695	-0.023715297
59	0xbd641b9f	-0.055690404
60	0xbb36c6d0	-0.0027889498
61	0x3e2a8f8d	0.16656323
62	0xbcf2d04c	-0.02964034
63	0xbe21ec71	-0.15812851
64	0x3b68cc6a	0.003552223
65	0x3dc80097	0.097657375
66	0xbd5b9aa9	-0.053614292
67	0xbc8745dc	-0.016512804
68	0x3d0dcf13	0.03462131
69	0x3d1877f2	0.037223764
70	0x3e3fb7be	0.18722436
71	0xbd5b62a5	-0.05356087
72	0xbe0661bc	-0.1312322
73	0xbd0aa16f	-0.03384536
74	0x3e28e61e	0.16494033
75	0x3dea9810	0.11454785
76	0x3e5abcab	0.21361034
77	0x3d02ceba	0.03193543
78	0xbd753231	-0.05986232
79	0x3df039be	0.117297634
80	0xbd2ce5e1	-0.042211417
81	0xbde28bc3	-0.11061814
82	0x3e5578e7	0.20846902
83	0xbe44ddf1	-0.19225289
84	0x3dc5629f	0.09637951
85	0x3c98da8c	0.018658899
86	0xbdac7b73	-0.084219836
87	0xbc25dcad	-0.010123414
88	0x3c45bfc4	0.012069646
89	0xbd20263d	-0.039098967
90	0x3db760b9	0.08953995
91	0xbe7777ef	-0.24166845
92	0xbc711a9a	-0.014715815
93	0xbe0910b9	-0.13385285
94	0x3cfbcf23	0.030738419
95	0xbd432ba6	-0.04764905
96	0xbddd1837	-0.10795634
97	0x3dde16de	0.10844205
98	0x3da568d1	0.08076633
99	0x3caa3009	0.020774858
100	0x3d9fab15	0.07796303
101	0x3dd232ea	0.10263617
102	0x3d9c25f4	0.076244265
103	0x3d27cd5a	0.040967323
104	0x3e203bb9	0.15647782
105	0x3db6dcc5	0.08928827
106	0xbe33dcbc	-0.17564672
107	0x3e1cf6c5	0.1532851
108	0x394ce2c7	0.00019539437
109	0x3d739a01	0.05947304
110	0xbde80709	-0.11329467
111	0x3dbaa47b	0.091134034
112	0x3d9f0cd0	0.07766116
113	0x3bc6c0e6	0.0060654758
114	0xbe0ce07c	-0.13757509
115	0xbc2e22ed	-0.010628444
116	0x3d6a91f7	0.05726811
117	0xbbadc519	-0.005303037
118	0x3d42420e	0.047426276
119	0x3cb665bf	0.022265313
120	0xbd7cf553	-0.061757397
121	0x3d3dabfa	0.046306588
122	0xbd7832de	-0.060595386
123	0xbdb68b07	-0.08913236
124	0x3daea221	0.085270174
125	0x3d3a99c3	0.045556795
126	0x3da7b0e8	0.08188039
127	0xbdc2a89a	-0.095048144
128	0xbcd0b3d4	-0.025476374
129	0x3d0a48d6	0.033760868
130	0x3dbb7dee	0.091548786
131	0x3e27ab1c	0.16373867
132	0x3e06f554	0.13179523
133	0x3e028c86	0.12748918
134	0x3e125dc3	0.1429358
135	0x3d160c71	0.03663296
136	0x3daf8043	0.08569386
137	0x3d8aeb86	0.06783204
138	0x3e25fe8f	0.16210388
139	0xbc82b7cd	-0.015956784
140	0x3db5e3d5	0.08881346
141	0xbd00a685	-0.031408805
142	0xbd44451b	-0.047917467
143	0x3b6c0e06	0.00360191
144	0x3d1e783d	0.038688887
145	0x3d973131	0.073824294
146	0xbe1e58b7	-0.1546353
147	0x3da98419	0.08277149
148	0x3c0fc69e	0.008775381
149	0x3be25803	0.0069074645
150	0x3d8dead4	0.069295555
151	0xbcf04163	-0.029328054
152	0x3e60caa7	0.21952306
153	0xbd3f4255	-0.04669412
154	0xbc9d38f7	-0.019192202
155	0xbd8f9517	-0.070108585
156	0x3cd7c208	0.026337638
157	0x3dd20616	0.10255067
158	0xbc913ff1	-0.017730685
159	0x3d2909fe	0.041269295
160	0x3ecbf84e	0.3983788
161	0xbcbcd91f	-0.02305275
162	0x3e0a3a36	0.13498768
163	0xbd884b60	-0.06655002
164	0xbdb05199	-0.086093135
165	0xbd168fa9	-0.0367581
166	0xbb61cd5b	-0.0034454677
167	0xbd5d5244	-0.054033533
168	0xbca470e1	-0.020073356
169	0xbcb98ae3	-0.022649234
170	0xbe397878	-0.18112361
171	0xbd1e3b45	-0.038630743
172	0xbca9eea2	-0.020743672
173	0xbc08a975	-0.008341183
174	0x3c88706f	0.016655175
175	0xbddbf16a	-0.107394055
176	0xbde6dd88	-0.112727225
177	0xbe57849b	-0.21046679
178	0xbd861e40	-0.065487385
179	0xbca648e1	-0.020298423
180	0x3c7764b0	0.015099689
181	0x3e039392	0.12849262
182	0x3d1068ba	0.035256125
183	0x3d73fa07	0.059564617
184	0xbe4701f0	-0.19434333
185	0x3df830b6	0.12118666
186	0xbbc95fd9	-0.006145459
187	0x3df2904d	0.118439294
188	0xbdb1f809	-0.08689887
189	0xbcd7484e	-0.026279595
190	0xbd02c240	-0.031923532
191	0xbc066686	-0.008203154
192	0x3e27108d	0.16314907
193	0x3de231d0	0.11044657
194	0xbe32047e	-0.17384526
195	0xbde77c04	-0.11302951
196	0x3c12d61a	0.008962179
197	0x3d8f67a9	0.070021935
198	0x3c0fdeb7	0.008781127
199	0xbd46aff5	-0.04850765
200	0x3bc21988	0.0059234537
201	0x3de59d74	0.112116724
202	0xbd30983a	-0.043113925
203	0x3d117437	0.03551122
204	0x3ccb78aa	0.02483781
205	0xbd31fe8d	-0.04345565
206	0xbc88e8e0	-0.016712606
207	0xbe8a4869	-0.2700837
208	0xbcbb5bb9	-0.022870885
209	0x3c4af97f	0.012388586
210	0x3e1747e9	0.14773525
211	0xbdfbc476	-0.12293331
212	0x3e443e0d	0.19164295
213	0x3e64016c	0.22266167
214	0xbd89bb1b	-0.06725141
215	0x3dd80b7c	0.105490655
216	0x3de0b624	0.109722406
217	0xbb3c1089	-0.002869638
218	0xbcf644d7	-0.030062122
219	0xbde196ad	-0.11015067
220	0x3bac9a2c	0.005267402
221	0x3d69a587	0.057042625
222	0xbe30d80f	-0.1726992
223	0xbdcbe866	-0.09956436
224	0xbe1bceb3	-0.15215568
225	0xbdfa783d	-0.12229965
226	0x3dc10907	0.0942555
227	0xbe2a2d72	-0.16618899
228	0x3d531f4b	0.051543515
229	0x3d02c965	0.031930346
230	0x3de87dd4	0.11352125
231	0xbcfd727c	-0.03093838
232	0xbc1f120d	-0.0097088935
233	0x3da53ae5	0.08067874
234	0xbd642266	-0.055696867
235	0xbccb4152	-0.02481142
236	0x3d3656c8	0.044516355
237	0xbdbdfbc4	-0.09276536
238	0xbc21e75a	-0.009881819
239	0x3d89af7a	0.067229226
240	0xbcfc3b54	-0.030790009
241	0x3d4bb9ae	0.049737625
242	0xbc3bbc93	-0.011458534
243	0x3e31bfe5	0.17358358
244	0x3d7b1f3c	0.061309084
245	0xbc99770e	-0.018733528
246	0x3bb625a9	0.0055586887
247	0x3d9a5c2a	0.0753711
248	0xbc117fdb	-0.008880581
249	0xbdc53218	-0.09628695
250	0x3d8a6119	0.06756801
251	0x3d011636	0.031515323
252	0xbe05c9aa	-0.1306521
253	0x3c2cb5ac	0.010541361
254	0x3cb8c081	0.02255273
255	0xbe03520c	-0.12824267

fc2.bias f4 [84]
0	0x3d2436d4	0.04009135
1	0xbd18f55f	-0.03734338
2	0xbbd277d4	-0.006422976
3	0x3cd32d37	0.025778396
4	0xbd9a4f44	-0.0753465
5	0x3d8d19e8	0.06889707
6	0xbd0e7b05	-0.03478529
7	0x3da3ec83	0.080040954
8	0x3da50cc3	0.08059075
9	0xbd1b3735	-0.037894446
10	0xbd14b381	-0.036304
11	0x3b9dc869	0.0048151505
12	0xbcd198bd	-0.025585527
13	0x3d49b02f	0.049240287
14	0x3c663878	0.014051549
15	0x3c88fd42	0.016722325
16	0x3d71d914	0.059044912
17	0x3a400066	0.0007324278
18	0xbdfcf46f	-0.123513095
19	0x3da2419a	0.07922669
20	0x3cd33982	0.025784258
21	0x3d067cbc	0.0328338
22	0x3d05d268	0.032671362
23	0xbd365785	-0.04451706
24	0xbd147b62	-0.03625048
25	0xbde4dc67	-0.11174851
26	0x3d75e9b1	0.06003732
27	0xbe1da02d	-0.15393133
28	0x3dfff2e9	0.12497503
29	0xbd9ec8d2	-0.07753147
30	0xbced0a03	-0.028935438
31	0xbdcbfc34	-0.09960213
32	0xbdb411a9	-0.08792431
33	0x3d32b1a3	0.04362644
34	0x3d5dcb41	0.054148916
35	0x3da865d0	0.08222544
36	0xbe020e24	-0.12700707
37	0x3e472857	0.19448982
38	0x3db025a3	0.08600929
39	0x3daaf33e	0.08347176
40	0x3c5fd9bd	0.013662753
41	0xbcb9a4a5	-0.022661516
42	0xbba25ccf	-0.0049549113
43	0x3c6df948	0.014524765
44	0xbd9b07e1	-0.07569862
45	0x3dbadd13	0.09124198
46	0x3d0a2765	0.033728976
47	0x3d4fa589	0.050694976
48	0x3e2525ff	0.16127776
49	0xbcc60c98	-0.024175927
50	0xbd1255ab	-0.03572623
51	0x3de82d1a	0.113367274
52	0xbddea4bb	-0.108712636
53	0x3d25571d	0.04036628
54	0xbd9754a1	-0.073891886
55	0xbde7b2c9	-0.113133974
56	0x38f9a97c	0.00011904814
57	0xbdd72903	-0.10505869
58	0x3e23b415	0.15986665
59	0xbde25fe4	-0.11053446
60	0xbd888f42	-0.06667949
61	0x3c5d35ce	0.013501598
62	0x3c0fef79	0.008785122
63	0x3d3b5291	0.04573304
64	0xbd1db7bf	-0.038505312
65	0xbdab30cc	-0.08358917
66	0xbda21e30	-0.07915914
67	0x3c84da40	0.016217351
68	0x3daae5be	0.08344601
69	0xbd745689	-0.05965284
70	0xbcdd3c0f	-0.027006177
71	0x3d11a786	0.035560153
72	0x3d8c5e8e	0.068539724
73	0x3d2c855d	0.042119373
74	0x3ceb9132	0.028755758
75	0xbdcdb330	-0.10043943
76	0x3c86434a	0.016389508
77	0x3d3bf464	0.045887366
78	0x3e36daf9	0.17856969
79	0xbbff632b	-0.007793804
80	0xbdb98848	-0.09059197
81	0x3b5a3f5d	0.0033301928
82	0xbdb245ed	-0.087047435
83	0x3d2e1659	0.04250178

fc3.weight f4 [10, 84]
0	0x3c2dd874	0.0106106885
1	0xbcc2608a	-0.023727674
2	0x3dff0716	0.124525234
3	0xbe86cd64	-0.26328576
4	0xbe5db2f2	-0.21650293
5	0x3e4dd849	0.20102037
6	0x3d1fcd36	0.039014064
7	0x3e27b3eb	0.16377227
8	0xbdfb5839	-0.122726865
9	0xbd35c609	-0.044378314
10	0xbe3e1f1e	-0.18566558
11	0xbe078586	-0.13234529
12	0xbd979d63	-0.07403066
13	0xbe800411	-0.25003102
14	0xbad1d109	-0.0016007732
15	0xbeb7ceb4	-0.3589989
16	0xbd86c2c8	-0.0658012
17	0xbe138b22	-0.14408544
18	0x3d4ea5eb	0.0504512
19	0xbe565bd1	-0.20933463
20	0xbdd4ceb8	-0.10390991
21	0x3ca8885d	0.020572836
22	0xbe15ef99	-0.1464218
23	0xbde4c0e9	-0.11169607
24	0x3e130c03	0.14360051
25	0x3d7a55db	0.061117034
26	0xbe4a415a	-0.19751492
27	0xbe0a097a	-0.13480178
28	0xbd9698a6	-0.07353334
29	0x3d828600	0.06373215
30	0xbdfa15c3	-0.12211182
31	0xbd387040	-0.045028925
32	0x3ce6dbbf	0.028180955
33	0xbdea0b05	-0.11427883
34	0x3e28e697	0.16494213
35	0x3d1de409	0.03854755
36	0xbdb374bb	-0.08762499
37	0xbd0f24bc	-0.034947142
38	0x3bace9fd	0.005276917
39	0x3e0d8f5e	0.13824221
40	0x3dda5531	0.1066078
41	0x3e0b25bc	0.13588613
42	0xbeaf2303	-0.342064
43	0x3da18146	0.07885985
44	0x3dd9eb87	0.106406264
45	0x3de53a8e	0.11192809
46	0x3db7ba10	0.089710355
47	0xbd0d568c	-0.034506366
48	0xbe0e0784	-0.13870054
49	0xbdbc9717	-0.092085056
50	0x3d8e4134	0.0694603
51	0xbd413f76	-0.04717966
52	0x3d9cb8f0	0.076524615
53	0xbd642010	-0.05569464
54	0xbd4d5240	-0.050127268
55	0xbe801ff5	-0.2502438
56	0xbe72f5f3	-0.23726635
57	0xb8cf4512	-9.8833945e-05
58	0xbc89d936	-0.016827207
59	0xbd135bb6	-0.035976134
60	0xbd3af2a0	-0.04564154
61	0xbe90ffa4	-0.28320038
62	0x3d1b88b1	0.037972156
63	0x3dc95437	0.09830516
64	0xbda8a2e0	-0.08234191
65	0xbdaf9be4	-0.08574656
66	0x3daba956	0.08381908
67	0xbd153652	-0.036428757
68	0xbe1375ee	-0.14400455
69	0xbde5fbe9	-0.11229689
70	0x3e6532b7	0.22382627
71	0xbe07562b	-0.13216464
72	0x3d734976	0.05939623
73	0x3d2cc4c2	0.04217983
74	0x3cefb588	0.029261366
75	0x3a19c989	0.0005866518
76	0x3df09006	0.1174622
77	0xbd92e070	-0.07171714
78	0xbeac3e3b	-0.33641228
79	0x3e1f5162	0.15558389
80	0xbe5a70fa	-0.2133216
81	0xbd28faf9	-0.04125497
82	0x3ddc28db	0.1074998
83	0xbd17a913	-0.037026476
84	0x3bf9cefd	0.007623552
85	0x3e19b262	0.15009454
86	0xbe348183	-0.1762753
87	0x3b379b9b	0.0028016332
88	0xbdc72d5a	-0.09725447
89	0xbddfd5bb	-0.10929438
90	0xbd080b19	-0.03321371
91	0xbdc131e3	-0.09433343
92	0xbe262840	-0.16226292
93	0xbce67301	-0.02813101
94	0x3cf71de1	0.030165615
95	0xbdddddfe	-0.10833357
96	0x3e30811f	0.17236756
97	0xbd7c4c9f	-0.06159651
98	0xbe41bde1	-0.1892009
99	0x3ddd4d43	0.10805752
100	0x3e08a968	0.13345873
101	0xbe78b918	-0.24289358
102	0xbd6f25e1	-0.058385734
103	0xbe29e249	-0.16590227
104	0xbe1e9b11	-0.1548884
105	0xbce97479	-0.028497921
106	0x3ddf80e4	0.10913256
107	0xbd36fe7f	-0.0446763
108	0x3d11d099	0.035599325
109	0xbda2d047	-0.07949882
110	0xbdf2f438	-0.11862987
111	0xbd157484	-0.03648807
112	0xbe69d9f2	-0.22837046
113	0xbd4e96bc	-0.05043672
114	0xbe3580bc	-0.1772489
115	0xbd098a68	-0.03357926
116	0xbd3c9106	-0.046036743
117	0x3df053a4	0.11734703
118	0x3d05f7a2	0.032706864
119	0x3defbd6c	0.11706051
120	0xbd76e1fa	-0.0602741
121	0x3e4f7b27	0.20261823
122	0xbe0f9ba9	-0.14024223
123	0x3d814643	0.063122295
124	0x3cfda176	0.03096078
125	0xbe2b8928	-0.1675154
126	0x3dfa9a0a	0.12236412
127	0x3e4919c9	0.19638743
128	0xbeb4d4ab	-0.35318503
129	0x3de2100b	0.11038216
130	0xbe4145b3	-0.18874244
131	0xbdebe613	-0.115184925
132	0x3e1a4e49	0.15068926
133	0xbe3808b7	-0.17972074
134	0xbe768f99	-0.24078216
135	0x3cf384e6	0.029726457
136	0x3cac2c6e	0.02101728
137	0x3dacaaa4	0.084309846
138	0x3d0d2a53	0.03446419
139	0xbd9a3765	-0.07530097
140	0x3d7deadc	0.061991557
141	0xbe0d4e6f	-0.13799451
142	0xbe1b54f2	-0.15169123
143	0x3bf25de3	0.007396446
144	0xbdd12a93	-0.102131985
145	0x3e0ec560	0.1394248
146	0x3e11dfaf	0.14245485
147	0xbd85ed48	-0.065393984
148	0xbe15a958	-0.14615381
149	0x3b0b90df	0.0021296067
150	0x3d8bea7d	0.068318345
151	0xbd78295d	-0.060586322
152	0x3d008c42	0.03138376
153	0x3d9c25b6	0.0762438
154	0xbd31931d	-0.04335319
155	0x3d6229a5	0.055215497
156	0xbcbf8e46	-0.023383271
157	0xbe8f9a40	-0.2804737
158	0xbd0b54bf	-0.034016367
159	0xbd228be9	-0.03968421
160	0xbd5f644c	-0.05453901
161	0x3e1083f0	0.1411283
162	0x3da8dca2	0.08245207
163	0xbdf94396	-0.12171094
164	0xbd8e89f2	-0.06959905
165	0xbe4092e6	-0.18806037
166	0xbde834c5	-0.1133819
167	0xbe7d529c	-0.24738544
168	0xbd61e2ec	-0.05514805
169	0x3df73970	0.12071502
170	0x3c1b0016	0.00946047
171	0x3dcec4c1	0.100961216
172	0x3ce14d2d	0.02750262
173	0xbcd322b3	-0.025773382
174	0x3dc02a1d	0.093830325
175	0xbe8104ef	-0.25199077
176	0x3daf0554	0.08545938
177	0x3d1c9a1e	0.038232915
178	0x3d20e4df	0.03928077
179	0xbe87e549	-0.26542118
180	0xbdeb4259	-0.11487264
181	0xbcb53af6	-0.022122841
182	0x3d97abac	0.07405791
183	0xbd93c2a9	-0.07214863
184	0x3cf3c2a5	0.0297559
185	0x3dd2d07a	0.1029367
186	0xbce41ab8	-0.027844772
187	0xbdf236e0	-0.11826873
188	0x3e1b1398	0.15144193
189	0x3d971daf	0.073787086
190	0x3e2940ba	0.16528597
191	0x3d3d5615	0.046224672
192	0x3df0c16f	0.117556445
193	0xbd83a4a7	-0.06427889
194	0xbe6d2004	-0.23156744
195	0x3c73b3ab	0.014874379
196	0x3df4e6d3	0.11958089
197	0xbe198bb5	-0.149947
198	0xbec2d8bf	-0.3805599
199	0xbd7fec9e	-0.062481515
200	0xbb8bcf60	-0.0042666644
201	0x3e34bc64	0.1764999
202	0xbde004d6	-0.109384224
203	0xbcbff786	-0.023433458
204	0x3d9ff816	0.078109905
205	0xbe645361	-0.22297432
206	0xbdae8e50	-0.08523238
207	0xbe9b1b5b	-0.30294308
208	0xbda47cbf	-0.08031606
209	0x3de51dae	0.111873016
210	0xbe0c7172	-0.13715151
211	0xbccaa342	-0.02473605
212	0x3d43c257	0.04779276
213	0x3be4cba1	0.0069822823
214	0x3dc66ef3	0.09689131
215	0xbd49393b	-0.049126845
216	0xbd1175a4	-0.03551258
217	0x3d1d390b	0.03838448
218	0xbdcb8029	-0.09936554
219	0x3e14c093	0.14526586
220	0xbb9f7273	-0.0048659383
221	0x3db7ec4f	0.08980619
222	0xbd0d9c49	-0.034572873
223	0xbdba5e5d	-0.091000296
224	0x3d05a181	0.032624725
225	0xbe465193	-0.19367056
226	0x3d78d509	0.06075004
227	0xbc934c3d	-0.01798069
228	0xbd9f1f15	-0.077696
229	0x3deba991	0.115069516
230	0x3e1afc8a	0.15135399
231	0x3db82927	0.08992224
232	0xbc931817	-0.017955823
233	0x3d4f0910	0.050545752
234	0x3c6cd76d	0.014455658
235	0xbd8966dc	-0.06709072
236	0xbe78a2d4	-0.24280864
237	0xbccf9e36	-0.025343996
238	0xbde6cde7	-0.112697415
239	0x3db6d010	0.089264035
240	0xbd1c3dee	-0.038145
241	0x3dccc9d1	0.09999431
242	0x3c192eca	0.009349534
243	0xbe0175f7	-0.12642656
244	0x3e0c40a3	0.13696532
245	0xbd845411	-0.06461347
246	0xbe8a166d	-0.26970235
247	0xbd485b81	-0.04891539
248	0xbde7c697	-0.11317175
249	0xbe3e2f61	-0.18572761
250	0x3d61659a	0.055028535
251	0x3d012341	0.03152776
252	0x3e0e0c49	0.13871874
253	0xbd77cbdc	-0.06049715
254	0x3bf88571	0.007584267
255	0x3dfea4e3	0.124337934

fc3.bias f4 [10]
0	0x3d249d80	0.040189266
1	0x3de781e6	0.11304073
2	0xbc1692e8	-0.009190299
3	0xbd3b3fff	-0.04571533
4	0x3cf4636e	0.029832568
5	0xbe018e88	-0.12652028
6	0x3c3f936a	0.011692861
7	0xbe2a419d	-0.16626592
8	0x3e2f6865	0.17129667
9	0x3d690bda	0.05689607
