models/BasicNet Ensemble-5model-2.pt (torch, 180551 bytes, 10 tensors)

conv1.weight f4 [6, 1, 5, 5]
0.045760076 -0.07492578 -0.08535673 -0.22206636 -0.2868262 -0.15637577 -0.43345246 -0.4760161
-0.25018555 0.009491141 -0.00021194894 -0.3163602 -0.2066109 0.13422358 0.11555405 0.16369377
0.4439808 0.3464746 0.09372763 0.15674809 0.28873268 0.19234058 0.3303796 0.17708352
0.02244187 -0.19875206 -0.259712 -0.2966598 0.13457167 0.3160248 -0.27323183 -0.11883649
0.17022042 0.2966687 0.06422927 -0.13409208 -0.035408176 0.31507787 0.19098316 -0.002449403
-0.062442716 -0.007825985 0.1409625 0.17301556 -0.08501321 -0.040486105 0.13036399 0.10029351
0.12701309 -0.022213757 0.075908355 0.12783891 0.11850661 0.26108098 0.112080015 -0.24208589
-0.1387734 -0.17923838 0.15000153 0.19021738 -0.18279499 -0.1367934 -0.3831852 0.18760046
0.0586996 -0.120543204 -0.1387194 -0.34579217 0.18187983 0.34003422 -0.24990249 -0.02464915
-0.075244986 -0.13897076 0.28169766 -0.17082982 -0.14910325 0.15316956 0.027834522 0.18600556
0.12008201 0.26386917 0.42182606 0.08266904 -0.14569703 0.024734015 0.07214414 0.15501873
-0.24360621 -0.20781381 0.17486951 0.022066616 -0.10868045 -0.3240213 -0.39509305 -0.19445017
-0.17815906 0.16444437 -0.008762581 0.008532586 -0.010371142 -0.18820217 0.0066570644 0.1422482
-0.16341671 -0.22255498 -0.02300665 0.21043304 0.007741122 0.15894523 0.07085501 0.2159425
0.27282465 0.20230865 0.13277464 0.111372836 0.2902915 -0.1247902 -0.34112966 -0.16910215
-0.08920244 -0.35893175 -0.40642446 -0.16774221 0.012435714 0.17626221 0.31903026 0.407615
0.083737165 -0.0052071856 -0.063365 0.1685721 0.23896936 0.3358615 0.113081746 -0.03985432
-0.19365555 -0.026606055 0.11272305 0.15626493 -0.40520975 -0.074889936 -0.24187212 0.043086927
0.10723184 -0.1418102 -0.023538968 -0.1230486 -0.035704862 -0.023924498
00000000: eb6e 3b3d b072 99bd 82cf aebd 5d65 63be
00000010: e2da 92be f820 20be 7bed ddbe 62b8 f3be
00000020: 5218 80be bb80 1b3c 9c3e 5eb9 f7f9 a1be
00000030: cf91 53be e871 093e 9aa7 ec3d 579f 273e
00000040: 7451 e33e 1e65 b13e 46f4 bf3d 9282 203e
00000050: c5d4 933e eef4 443e 8427 a93e 6255 353e
00000060: 03d8 b73c a985 4bbe f9f8 84be cbe3 97be
00000070: 28cd 093e 01ce a13e 0be5 8bbe 8c60 f3bd
00000080: 434e 2e3e f6e4 973e a38a 833d 6f4f 09be
00000090: 2a08 11bd e351 a13e 1791 433e 2a86 20bb
000000a0: efc3 7fbd 8f38 00bc 7958 103e fe2a 313e
000000b0: 681b aebd c2d4 25bd 237e 053e af66 cd3d
000000c0: b80f 023e a0f9 b5bc d775 9b3d 34e8 023e
000000d0: 98b3 f23d 68ac 853e 358a e53d 5de5 77be
000000e0: 9d1a 0ebe 448a 37be 009a 193e 58c8 423e
000000f0: 9c2e 3bbe 9213 0cbe da30 c4be 561a 403e
00000100: fe6e 703d 5bdf f6bd 750c 0ebe ac0b b1be
00000110: b53e 3a3e f718 ae3e 70e6 7fbe 04ed c9bc
00000120: 0b1a 9abd 5a4e 0ebe ad3a 903e 03ee 2ebe
00000130: 86ae 18be 7bd8 1c3e 3905 e43c 3e78 3e3e
00000140: 8fed f53d dc19 873e 96f9 d73e 634e a93d
00000150: 9a31 15be fd9e ca3c 4fc0 933d 3bbd 1e3e
00000160: e873 79be 25cd 54be fe10 333e 0cc5 b43c
00000170: db93 debd 1fe6 a5be a349 cabe f21d 47be
00000180: 546f 36be 1b64 283e ee90 0fbc 42cc 0b3c
00000190: b9eb 29bc 12b8 40be 8123 da3b 83a9 113e
000001a0: b656 27be 74e5 63be 7178 bcbc c27b 573e
000001b0: 3da9 fd3b 8ac2 223e 6e1c 913d 0820 5d3e
000001c0: acaf 8b3e 002a 4f3e 13f6 073e 7117 e43d
000001d0: 16a1 943e 0192 ffbd 8ca8 aebe 1d29 2dbe
000001e0: c5af b6bd e7c5 b7be de16 d0be 9dc4 2bbe
000001f0: 2abf 4b3c 157e 343e ef57 a33e eab2 d03e
00000200: 647e ab3d 0aa1 aabb 82c5 81bd 2a9e 2c3e
00000210: 62b4 743e 0af6 ab3e 6797 e73d 493e 23bd
00000220: a44d 46be f1f4 d9bc 58db e63d ea03 203e
00000230: a777 cfbe e55f 99bd 53ad 77be eb7b 303d
00000240: 5e9c db3d b136 11be cbd4 c0bc e800 fcbd
00000250: 433f 12bd 4ffd c3bc

conv1.bias f4 [6]
0.30825165 -0.07817996 -0.16546766 -0.14766139 -0.044908546 -0.13423206
00000000: 29d3 9d3e d11c a0bd 5b70 29be 8c34 17be
00000010: 06f2 37bd 2174 09be

conv2.weight f4 [16, 6, 5, 5]
0.051983677 -0.17095162 -0.122211635 0.08166907 0.13822217 0.05568168 0.06674866 0.10051359
0.14336537 0.03141087 -0.1477876 0.0065846555 -0.073501155 -0.022696372 -0.21207757 -0.03472365
0.020335522 -0.07967731 -0.26286712 0.06639128 0.007852798 -0.095511355 -0.073342755 -0.2056918
-0.053597085 0.13870658 0.02240998 -0.18289658 0.015944898 0.12819092 0.031588227 -0.17233673
-0.08710504 0.09625388 0.09248778 -0.02172074 -0.076536044 0.08641898 0.15216933 0.04761467
0.083254136 0.038125154 0.11445526 0.029926725 -0.12934414 -0.0849698 -0.00093329273 -0.058075678
-0.18791778 -0.39324245 -0.16459173 -0.26446453 -0.1528447 0.016381785 -0.024358934 -0.043626864
-0.0904971 -0.025116982 0.007247855 -0.08988081 -0.1003116 -0.03262853 0.057685375 -0.07853976
-0.14076729 -0.011768677 0.027138479 0.02531997 0.00656768 -0.1835236 0.07498412 -0.12906018
-0.12059692 0.009195985 -0.11382949 -0.19880202 -0.0021299315 -0.011279541 -0.13252142 0.046131287
-0.009186436 0.00782231 -0.16906592 0.044118006 -0.045331407 0.13855074 -0.008664984 -0.058222342
0.05109651 0.063781515 0.021593926 -0.077971876 -0.020956809 -0.10729771 0.022934794 -0.044340465
0.064355515 -0.026783092 -0.037322428 0.09538668 -0.0851198 0.02582749 -0.05773257 -0.21223146
-0.057788786 0.06314609 0.07050479 -0.14054658 -0.18446285 0.0007339799 0.07852067 0.03209252
-0.12258986 -0.03367256 0.08546981 -0.09236001 -0.053673778 -0.05569468 0.013771134 0.053067047
-0.12835316 0.15507482 0.10094178 -0.043101855 0.08117311 -0.08808238 -0.19790168 -0.24750817
-0.19970222 -0.12790613 -0.0802844 -0.23700444 -0.1354376 -0.16337259 -0.035441414 0.0036403204
-0.0019254735 -0.06995196 -0.09734668 0.063585944 -0.06537545 -0.08338772 -0.015799861 0.10716522
0.03127844 0.014263026 -0.015379387 -0.025995934 0.121566094 0.21309279 0.025426934 -0.017898066
-0.07807888 0.021606114 0.15554158 0.043858796 0.020620381 0.04365764 0.20966427 0.23595847
0.03702911 0.025538653 0.14224394 0.051273078 -0.122795224 -0.029163202 -0.007242609 -0.15096296
-0.0112269595 -0.00077203644 -0.13312696 -0.04447094 0.035753712 0.03213583 -0.13955578 -0.028682401
0.10712506 0.09009444 0.012866032 -0.03259086 -0.092236914 0.042395633 -0.15592386 -0.11469174
-0.04043729 -0.057819057 -0.011578895 -0.09919521 -0.021257602 -0.18601729 0.05104943 0.021463236
-0.18567494 -0.055992585 0.010091948 -0.15628412 -0.17307541 -0.1868471 0.007272409 0.034155987
-0.1118133 -0.057907853 -0.1495951 -0.23928261 -0.18960807 -0.05863654 -0.011064243 -0.048980013
-0.35037255 -0.41856351 0.07992642 0.007927734 -0.14897771 -0.08214983 0.12253012 0.002317536
0.0978501 0.0712849 0.08786745 0.122357786 0.10673351 0.05126602 -0.047183894 -0.27134988
-0.029846508 0.013745184 -0.023253666 0.19498989 0.0999718 -0.16002013 -0.02307234 0.0015932858
-0.037996355 -0.12161183 0.044106267 -0.02535803 0.03943926 0.12166978 0.14282836 0.060986698
-0.0362573 0.08802149 0.1017403 -0.047784135 0.030671412 -0.15407617 -0.09674902 -0.24685772
0.02675245 0.08124562 -0.016001193 -0.005762745 0.07718343 -0.04800225 -0.074318774 -0.02866511
00000000: d6ec 543d f10d 2fbe 184a fabd 1d42 a73d
00000010: 1d8a 0d3e 7912 643d 85b3 883d 12da cd3d
00000020: 5fce 123e afa8 003d a255 17be 18c4 d73b
00000030: c687 96bd beed b9bc dd2a 59be 633a 0ebd
00000040: ae96 a63c dc2d a3bd 8596 86be 27f8 873d
00000050: 06a9 003c 759b c3bd ba34 96bd dfa0 52be
00000060: 9e88 5bbd 1909 0e3e 2295 b73c 3e49 3bbe
00000070: e09e 823c 7b44 033e a862 013d 0a79 30be
00000080: 2164 b2bd c120 c53d 3c6a bd3d b1ef b1bc
00000090: eebe 9cbd 6ffc b03d 47d2 1b3e 9a07 433d
000000a0: 2581 aa3d 1f29 1c3d 8567 ea3d e428 f53c
000000b0: ca72 04be a604 aebd 37a8 74ba c3e0 6dbd
000000c0: 856d 40be 1357 c9be bc8a 28be e567 87be
000000d0: 5283 1cbe 1833 863c 638c c7bc 15b2 32bd
000000e0: 8b56 b9bd 21c2 cdbc 6a7f ed3b 6e13 b8bd
000000f0: 2b70 cdbd 7ea5 05bd 8047 6c3d 74d9 a0bd
00000100: 4d25 10be 69d1 40bc 8451 de3c d36b cf3c
00000110: b135 d73b 9ced 3bbe 4691 993d 5a28 04be
00000120: 85fb f6bd c2aa 163c 701f e9bd c292 4bbe
00000130: 5296 0bbb d3cd 38bc b2b3 07be 29f4 3c3d
00000140: b582 16bc 2529 003c 9e1f 2dbe 15b5 343d
00000150: 6dad 39bd 3fe0 0d3e 94f7 0dbc 8d7a 6ebd
00000160: 934a 513d e29f 823d bfe5 b03c b8af 9fbd
00000170: 9dad abbc e7be dbbd c0e1 bb3c 599e 35bd
00000180: d3cc 833d 3768 dbbc 67df 18bd 175a c33d
00000190: 4a53 aebd 2c94 d33c fd78 6cbd 3453 59be
000001a0: efb3 6cbd bd52 813d d164 903d 71eb 0fbe
000001b0: d4e3 3cbe 8f68 403a 72cf a03d 7273 033d
000001c0: 6410 fbbd 3dec 09bd cc0a af3d 3f27 bdbd
000001d0: 09d9 5bbd 1b20 64bd 53a0 613c d55c 593d
000001e0: 036f 03be efcb 1e3e 90ba ce3d 928b 30bd
000001f0: 163e a63d 8964 b4bd bda6 4abe c872 7dbe
00000200: bd7e 4cbe d3f9 02be 266c a4bd 4bb1 72be
00000210: 27b0 0abe 254b 27be 042b 11bd 7192 6e3b
00000220: 2b60 fcba f942 8fbd b25d c7bd 5939 823d
00000230: 90e3 85bd 2ec7 aabd b66e 81bc 7079 db3d
00000240: d21d 003d 78af 693c d3f9 7bbc 6df5 d4bc
00000250: a5f7 f83d ff34 5a3e 254c d03c f79e 92bc
00000260: d2e7 9fbd 4eff b03c 4b46 1f3e 48a5 333d
00000270: 13ec a83c 5bd2 323d 3bb2 563e 199f 713e
00000280: d6ab 173d 7036 d13c 65a8 113e b803 523d
00000290: 107c fbbd abe7 eebc 6853 edbb 0996 1abe
000002a0: 48f1 37bc 7d62 4aba 6f52 08be 2927 36bd
000002b0: 7c72 123d dca0 033d b6e7 0ebe 5bf7 eabc
000002c0: 6264 db3d 6f83 b83d 0dcc 523c fe7d 05bd
000002d0: b5e6 bcbd 0ba7 2d3d 81aa 1fbe 81e3 eabd
000002e0: 92a1 25bd add3 6cbd 68b5 3dbc dc26 cbbd
000002f0: 6c24 aebc 517b 3ebe 3519 513d abd3 af3c
00000300: 9221 3ebe 7b58 65bd b358 253c f208 20be
00000310: ae3a 31be d954 3fbe 634d ee3b 26e7 0b3d
00000320: 5ffe e4bd c930 6dbd 752f 19be 8006 75be
00000330: 9e28 42be de2c 70bd cc46 35bc 449f 48bd
00000340: 0864 b3be f54d d6be 76b0 a33d 54e3 013c
00000350: 9d8d 18be 2c3e a8bd 12f1 fa3d cde1 173b
00000360: a265 c83d d1fd 913d daf3 b33d b896 fa3d
00000370: 1997 da3d 51fc 513d e643 41bd 5fee 8abe
00000380: aa80 f4bc 7b33 613c 797e bebc 6eab 473e
00000390: 04be cc3d 51dc 23be 3402 bdbc cdd5 d03a
000003a0: 11a2 1bbd a00f f9bd c6a8 343d a5bb cfbc
000003b0: 108b 213d 012e f93d 9941 123e 30cd 793d
000003c0: 8982 14bd 9c44 b43d 385d d03d 4cb9 43bd
000003d0: 9d42 fb3c 25c6 1dbe 5a24 c6bd 45c8 7cbe
000003e0: f427 db3c 1b64 a63d ef14 83bc 69d5 bcbb
000003f0: 5912 9e3d 029e 44bd 7134 98bd 18d3 eabc

conv2.bias f4 [16]
-0.06369937 -0.10778623 -0.06553609 -0.15749687 -0.05525126 0.11802029 0.032373775 0.006016974
-0.12538339 -0.09349595 0.042208347 -0.0049694227 -0.0016593296 -0.18560116 0.025588553 -0.068118826
00000000: d174 82bd 07bf dcbd c937 86bd dc46 21be
00000010: 254f 62bd 9fb4 f13d 5d9a 043d 092a c53b
00000020: 8164 00be ce7a bfbd a9e2 2c3d 8ad6 a2bb
00000030: dd7d d9ba 3b0e 3ebe 169f d13c e281 8bbd

fc1.weight f4 [120, 256]
-0.05651524 -0.019677142 -0.0092432005 0.05174706 -0.022335771 -0.04886208 0.043621503 0.0058634384
-0.04498008 -0.065496825 -0.059923742 -0.04410031 0.027375171 -0.08446095 -0.04610803 -0.03765637
-0.04876063 -0.10416718 -0.0019493059 -0.07842658 -0.09161071 -0.05326309 -0.050179295 0.015671311
-0.036572322 -0.0438803 -0.0011723045 -0.05716975 -0.014579625 0.036980454 -0.0089962445 -0.036935378
0.08851587 -0.0017309587 -0.052487317 -0.053423062 -0.025130142 -0.04259369 -0.07290893 -0.06706061
0.061292812 -0.11118937 -0.019080928 -0.056657314 0.008663737 0.034631003 -0.06449211 -0.002698411
0.11302851 0.06533913 -0.06130487 -0.09988799 0.02297729 0.014535104 0.040137306 -0.030644642
-0.021888597 -0.060137056 -0.03881733 -0.071130544 -0.08298257 0.021793474 0.016238345 -0.027953783
-0.029508987 -0.008084312 0.026056275 -0.003184767 -0.036900718 -0.059645467 -0.01781806 -0.08800752
-0.024578879 0.027820725 -0.043931473 0.044907633 -0.0953929 0.030184692 0.022797538 0.013995324
-0.03782806 -0.020499127 0.031248944 0.051374465 -0.035741284 -0.049550984 -0.035615798 0.000107043474
0.0695871 -0.09236455 0.003536714 0.028721943 0.005953442 -0.033043355 0.046003748 -0.038758498
0.079252936 0.023304187 -0.014489776 -0.055735033 -0.061616585 0.007846022 0.024141956 0.055455633
-0.00026323274 0.043544546 -0.051426996 -0.0032683555 0.018274358 -0.051316902 -0.072145216 0.03227365
0.062132265 -0.02853435 0.006421181 -0.0051704845 -0.038010437 -0.039110918 0.0444122 0.028705
0.028795497 -0.0037301742 -0.0380395 -0.0069407495 -0.07132604 -0.055175226 0.015603636 -0.109899886
-0.041235916 -0.06599238 0.026262859 -0.046965875 0.011705665 -0.08698875 -0.093103506 -0.032955345
-0.03961003 -0.05046153 -0.023523433 0.047152054 -0.04058782 -0.028579675 -0.07382318 0.06118249
-0.022667501 0.015304766 -0.09173295 -0.026407259 0.055934463 -0.07492139 0.06789447 0.016277362
0.036859084 0.025801256 -0.05511854 0.008226032 0.043932334 0.050048638 0.025359709 0.006009241
-0.088981785 0.031607077 -0.060536478 -0.066534385 -0.034603998 -0.028433478 0.0032126084 -0.031572003
-0.07454815 -0.04232828 -0.078452766 -0.047473952 -0.007845774 0.03859116 -0.06850994 -0.0057113655
-0.07211602 -0.08449924 0.026309837 0.04384417 -0.04553333 -0.036763936 -0.068330854 -0.06859173
-0.02614718 -0.096403316 -0.04187206 -0.051912107 -0.019444635 -0.076680936 -0.068852805 -0.029877603
-0.0019075801 -0.0574066 -0.05801369 0.009646834 -0.04073567 -0.042445727 0.009434674 0.025171187
-0.0126867825 0.012977095 0.026159285 -0.06152158 -0.07593872 -0.05137314 -0.055798076 -0.03777744
-0.016392037 -0.020637205 -0.03865168 0.005399175 -0.009657277 0.02969939 -0.019900473 -0.035311658
0.03205003 -0.03508816 -0.01815128 0.004274319 -0.027900001 -0.066521265 -0.07803973 -0.00028256478
-0.045419548 -0.07332739 -0.044343065 0.0050037596 -0.08555975 0.029594082 0.015306304 -0.07216801
0.0043290714 -0.016713187 -0.06572349 -0.04609683 0.011778132 -0.047990207 -0.042168465 0.061091702
-0.021139022 -0.0801949 -0.030237302 -0.003352529 -0.06615516 -0.01573202 -0.07457064 -0.09790564
-0.07949592 -0.045330763 0.03854658 0.031314444 0.0016935122 -0.07225956 -0.007114008 -0.08722493
00000000: 867c 67bd f531 a1bc cb70 17bc baf4 533d
00000010: 82f9 b6bc 9b23 48bd 76ac 323d 1622 c03b
00000020: 083d 38bd 3323 86bd 9972 75bd 87a2 34bd
00000030: e541 e03c ddf9 acbd c6db 3cbd 913d 1abd
00000040: 3ab9 47bd 9a55 d5bd da7f ffba 1d9e a0bd
00000050: 659e bbbd 662a 5abd ce88 4dbd 1f61 803c
00000060: dccc 15bd d4bb 33bd 03a8 99ba d42a 6abd
00000070: 61df 6ebc d178 173d fc64 13bc 8d49 17bd
00000080: cf47 b53d 56e1 e2ba f1fc 56bd 24d2 5abd
00000090: badd cdbc b976 2ebd 4751 95bd 1357 89bd
000000a0: 2c0e 7b3d 41b7 e3bd 9b4f 9cbc 8011 68bd
000000b0: 59f2 0d3c 3dd9 0d3d 7014 84bd d3d7 30bb
000000c0: 7e7b e73d 86d0 853d d11a 7bbd 1392 ccbd
000000d0: df3a bc3c a524 6e3c 0467 243d 790a fbbc
000000e0: b74f b3bc 4652 76bd ecfe 1ebd e4ac 91bd
000000f0: c4f2 a9bd 3a88 b23c 4706 853c 55ff e4bc
00000100: d5bc f1bc 1074 04bc f873 d53c 86b7 50bb
00000110: 3525 17bd ce4e 74bd 2ef7 91bc 493d b4bd
00000120: a559 c9bc 4ae8 e33c 7df1 33bd 11f1 373d
00000130: 5a5d c3bd e345 f73c e7c1 ba3c a54c 653c
00000140: 99f1 1abd c9ed a7bc c9fd ff3c 086e 523d
00000150: 7465 12bd f9f5 4abd dfe1 11bd 877c e038
00000160: ae83 8e3d a029 bdbd 37c8 673b 484a eb3c
00000170: 1715 c33b 7858 07bd 6d6e 3c3d 3bc1 1ebd
00000180: 5d4f a23d 6ce8 be3c 8766 6dbc 6b4a 64bd
00000190: ac61 7cbd 9a8c 003c 5ac5 c53c 7225 633d
000001a0: 8002 8ab9 c45b 323d 1da5 52bd e831 56bb
000001b0: 1bb4 953c ac31 52bd dfc0 93bd 6031 043d
000001c0: 677e 7e3d dfc0 e9bc c568 d23b 2b6d a9bb
000001d0: d5b0 1bbd c532 20bd 91e9 353d c026 eb3c
000001e0: 89e4 eb3c f075 74bb 4fcf 1bbd 3a6f e3bb
000001f0: 6313 92bd 6bff 61bd 65a6 7f3c 3113 e1bd
00000200: fee6 28bd 0327 87bd 3525 d73c 4a5f 40bd
00000210: 1ec9 3f3c 2827 b2bd 0dad bebd 2ffc 06bd
00000220: 203e 22bd c0b0 4ebd 37b4 c0bc 8322 413d
00000230: 6a3f 26bd ec1f eabc 9b30 97bd 7e9a 7a3d
00000240: 32b1 b9bc d7c0 7a3c 7cde bbbd 0954 d8bc
00000250: 891b 653d 6370 99bd 420c 8b3d 1a58 853c
00000260: 8df9 163d 285d d33c fac3 61bd 7bc6 063c
00000270: 64f2 333d cdff 4c3d 2abf cf3c 2be9 c43b
00000280: 153c b6bd 6c76 013d 19f5 77bd 2e43 88bd
00000290: ecbc 0dbd 53ed e8bc a08a 523b a551 01bd
000002a0: b3ac 98bd 6b60 2dbd d8ab a0bd 0c74 42bd
000002b0: 908b 00bc c411 1e3d f04e 8cbd 6826 bbbb
000002c0: 90b1 93bd f00d adbd ba87 d73c f295 333d
000002d0: 2881 3abd c895 16bd 0cf1 8bbd d279 8cbd
000002e0: 9c32 d6bc 1a6f c5bd 0a82 2bbd caa1 54bd
000002f0: 5b4a 9fbc e50a 9dbd b302 8dbd e0c1 f4bc
00000300: c407 faba 2f23 6bbd c39f 6dbd c10d 1e3c
00000310: 72da 26bd 92db 2dbd e493 1a3c ce33 ce3c
00000320: 39dc 4fbc e29d 543c ff4b d63c 0dfe 7bbd
00000330: c285 9bbd a46c 52bd 868c 64bd 84bc 1abd
00000340: 9848 86bc 5b0f a9bc 3951 1ebd 90eb b03b
00000350: 8e39 1ebc 234c f33c 5106 a3bc f5a2 10bd
00000360: e446 033d 9ab8 0fbd feb1 94bc 960f 8c3b
00000370: 8b8e e4bc 4d3c 88bd 4bd3 9fbd 3425 94b9
00000380: d909 3abd ac2c 96bd 13a1 35bd 94f6 a33b
00000390: f339 afbd 4a6f f23c 4bc7 7a3c d2cc 93bd
000003a0: e2da 8d3b 18ea 88bc 0a9a 86bd 08d0 3cbd
000003b0: 11f9 403c 6191 44bd d7b8 2cbd 4b3b 7a3d
000003c0: be2b adbc 393d a4bd 38b4 f7bc 1ab6 5bbb
000003d0: 5b7c 87bd 70e0 80bc 7eb8 98bd c182 c8bd
000003e0: c2ce a2bd c0ac 39bd 05e3 1d3d 9343 003d
000003f0: d7f8 dd3a d2fc 93bd a01c e9bb fca2 b2bd

fc1.bias f4 [120]
-0.020869896 -0.00962187 -0.019329686 -0.00039123883 -0.019714687 -0.005706812 -0.045972906 -0.051642783
0.045629572 -0.030742433 0.0070995083 -0.025435729 -0.04796474 -0.018231789 0.042382456 0.066184014
-0.039891273 0.030329702 -0.031154148 0.06429303 -0.027243102 0.06140499 0.045344308 0.027800156
0.025501046 -0.012167433 -0.0087638 -0.018760549 0.06697345 -0.05503144 0.01147842 0.09967806
0.048973322 -0.03651641 0.121265806 0.06751346 0.04058795 0.027624883 -0.06575373 -0.08758046
-0.013522562 0.013844641 0.0004388531 -0.03923931 -0.009904914 -0.11085072 0.0013749761 0.057358198
0.072178036 0.021625025 0.073158674 -0.071744606 -0.10241892 0.0067427903 -0.024754748 0.08231079
-0.09595334 -0.03148085 0.009355937 -0.06723735 0.020453393 -0.038153715 -0.0005580763 0.03418443
0.0022177096 0.0009779619 -0.050737344 -0.01392724 -0.06955273 0.0004250076 -0.036964107 -0.0143020665
0.00839358 0.042334106 -0.047778912 0.029562846 0.033330336 -0.024819972 -0.109381236 -0.013334829
-0.06887472 0.06121386 0.010170759 -0.03189875 0.01453775 -0.08783663 0.033241063 0.048504207
-0.01945101 0.072905205 -0.0367792 0.031020137 0.031738766 0.031256612 -0.0157182 0.046045125
0.018759081 0.043058593 0.06304755 -0.070529066 0.021814886 0.024729071 0.021417223 -0.062053513
0.002098595 0.059527468 -0.038990628 0.06651742 0.0016839935 0.009718932 -0.089333154 0.016761629
0.012983585 0.010912496 -0.029775968 -0.042420104 -0.025781812 -0.030226998 0.067811534 0.01973293
00000000: 58f7 aabc 0ca5 1dbc 4a59 9ebc 301f cdb9
00000010: b280 a1bc 3500 bbbb 164e 3cbd 6287 53bd
00000020: 13e6 3a3d 8ed7 fbbc fea2 e83b 975e d0bc
00000030: ad76 44bd d55a 95bc 3a99 2d3d 7c8b 873d
00000040: 0865 23bd ff75 f83c fc36 ffbc 10ac 833d
00000050: ed2c dfbc cc83 7b3d f4ba 393d 27bd e33c
00000060: 92e7 d03c ea59 47bc 0b96 0fbc b9af 99bc
00000070: 6029 893d a668 61bd fc0f 3c3c 0324 cc3d
00000080: 4098 483d 3b92 15bd 355a f83d 7f44 8a3d
00000090: 8d3f 263d 944d e23c e4a9 86bd 625d b3bd
000000a0: bc8d 5dbc a2d4 623c de15 e639 66b9 20bd
000000b0: 3848 22bc b405 e3bd 8b38 b43a 6ef0 6a3d
000000c0: 14d2 933d f726 b13c 37d4 953d d6ee 92bd
000000d0: 03c1 d1bd a0f2 dc3b 78ca cabc 8f92 a83d
000000e0: 2f83 c4bd 10f2 00bd a549 193c bcb3 89bd
000000f0: e08d a73c 1247 1cbd de4b 12ba f904 0c3d
00000100: fe56 113b f52e 803a f6d1 4fbd 142f 64bc
00000110: a971 8ebd 8ed3 de39 ad67 17bd 3753 6abc
00000120: 3a85 093c 8766 2d3d d2b3 43bd c82d f23c
00000130: 6485 083d 4153 cbbc 4503 e0bd 547a 5abc
00000140: 300e 8dbd 62bb 7a3d 41a3 263c 44a8 02bd
00000150: be2f 6e3c b1e3 b3bd c827 083d 59ac 463d
00000160: b957 9fbc 534f 953d c9a5 16bd f11d fe3c
00000170: 8200 023d ef06 003d 74c3 80bc d099 3c3d
00000180: a5ac 993c 355e 303d 131f 813d 8b71 90bd
00000190: 22b5 b23c 9f94 ca3c 2c73 af3c d32b 7ebd
000001a0: 9588 093b 13d3 733d a3b4 1fbd 493a 883d
000001b0: 72b9 dc3a 283c 1f3c 4df4 b6bd af4f 893c
000001c0: 1ab9 543c 53ca 323c bbec f3bc b4c0 2dbd
000001d0: 6134 d3bc 9c9e f7bc c6e0 8a3d f4a6 a13c

fc2.weight f4 [84, 120]
-0.067070045 -0.06933934 -0.07745369 0.04836141 -0.11099617 -0.0061936867 -0.13080306 -0.09467299
-0.025465528 -0.076953135 0.040802855 0.13793729 -0.03956555 0.103623606 0.1964053 0.22368371
-0.102085836 0.0014404957 0.08183367 0.02495213 -0.1111839 -0.07051945 -0.052305754 0.13109787
0.083835475 -0.043844912 -0.07608319 -0.12225047 -0.07378863 0.0067761955 0.0067402846 0.067884274
-0.099756815 0.011047989 -0.14977446 0.002584335 -0.05957886 0.09141212 0.11288617 -0.059925176
-0.005881402 0.041369643 0.009699083 0.0021197456 -0.09498651 -0.07098264 -0.16623953 -0.22218382
-0.04278725 -0.08586045 0.07372481 -0.016938625 -0.038521707 -0.010092352 0.08278071 0.10224958
0.064333856 0.014626123 0.061044738 -0.07819604 0.03269678 0.027927589 0.030584462 -0.1474422
-0.03271531 0.08451432 0.039524663 0.15500617 0.03636511 -0.144739 -0.032969058 -0.0064548077
-0.15684104 -0.08930544 0.05823958 -0.019666687 0.11424447 -0.054323886 -0.16409422 0.013499098
0.017474668 0.049061302 0.105644315 -0.105640024 -0.052571665 -0.022087192 -0.010078471 -0.026101341
-0.07961833 0.035963513 -0.024046114 -0.004178995 -0.14642197 -0.043526687 -0.02307199 -0.27191973
0.09793258 -0.08198907 0.002028315 -0.041516222 -0.048701994 0.14563374 0.02226288 -0.013194797
-0.006767199 0.10402344 -0.074717924 0.02067053 0.093096025 0.09621027 0.04183137 0.050070126
-0.047245294 0.0952617 0.04978945 0.012924147 0.040232886 -0.016855124 0.13282342 0.033229925
0.09778209 -0.03525942 0.032520235 0.014573241 0.093291916 0.053681694 0.112982854 -0.110578075
0.021268038 -0.18222553 -0.019081248 0.115228236 -0.008843916 -0.02967421 0.13877963 0.119668774
-0.0647798 -0.0074858777 -0.09881008 0.1780316 -0.040700827 0.049877487 -0.0054543368 0.027631808
0.057481125 -0.055495374 -0.12745118 0.10009334 0.079941966 0.08284836 0.20094748 0.023113815
0.07604479 -0.013579714 0.06505449 -0.06378878 0.011802587 -0.028716758 0.07454971 0.028589264
-0.12575305 0.025377266 -0.07863542 -0.039259486 -0.12841575 -0.05084269 0.023221185 0.06040437
-0.047089707 0.042358287 0.0036049827 -0.076270215 -0.02365136 -0.03450804 0.17607222 -0.05823107
-0.24765073 0.21327218 -0.06821062 0.060834896 -0.0056754313 -0.02906665 0.084114105 -0.17781068
-0.12441922 -0.023146296 0.056925494 -0.004499811 0.026580736 -0.056851696 -0.09748714 -0.010419182
0.18511847 -0.16932571 -0.16263407 -0.03842092 -0.01251435 0.022927683 0.102783546 0.07944963
-0.047651988 0.031517092 -0.054149713 -0.008317117 0.0057381866 -0.035435144 -0.10634478 0.07236229
0.067469 0.06897968 0.017449245 -0.056652255 -0.14051306 -0.09376336 -0.2751373 -0.058081836
0.08384355 0.010979863 -0.0767012 0.029682005 0.04141774 0.09364971 -0.03546449 0.10411859
0.039052308 0.0968711 0.032967716 -0.13971856 -0.13268231 0.039209556 0.0448238 0.034519132
-0.0118737295 0.022922223 -0.0983784 -0.08542763 -0.08830468 0.07386452 -0.08945799 -0.0884991
-0.084301814 -0.023995694 0.088858314 -0.10511683 0.009326024 -0.09645411 0.07611281 -0.044102672
-0.0037045819 -0.011370762 -0.056316126 0.12597083 -0.07118597 -0.10213005 -0.032099638 -0.14128567
00000000: 055c 89bd c901 8ebd 0aa0 9ebd 9d16 463d
00000010: f651 e3bd 69f4 cabb 3df1 05be eae3 c1bd
00000020: 159d d0bc 9b99 9dbd e520 273d 6f3f 0d3e
00000030: 7c0f 22bd 9d38 d43d 791e 493e 580d 653e
00000040: 6112 d1bd 04cf bc3a 6998 a73d 6968 cc3c
00000050: 62b4 e3bd 806c 90bd 8f3e 56bd 853e 063e
00000060: efb1 ab3d b996 33bd 81d1 9bbd 745e fabd
00000070: 7e1e 97bd d90a de3b 9bdd dc3b e906 8b3d
00000080: 4d4d ccbd a002 353c 7a5e 19be f25d 293b
00000090: f608 74bd 4736 bb3d dd30 e73d 1a74 75bd
000000a0: c7b8 c0bb 3773 293d e7e8 1e3c 6eeb 0a3b
000000b0: 4a88 c2bd 595f 91bd b23a 2abe 2884 63be
000000c0: af41 2fbd 9bd7 afbd 08fd 963d dfc2 8abc
000000d0: f0c8 1dbd 645a 25bc ef88 a93d 3a68 d13d
000000e0: 78c1 833d 68a2 6f3c 0c0a 7a3d 3f25 a0bd
000000f0: 0fed 053d 66c8 e43c 448c fa3c 17fb 16be
00000100: 7d00 06bd d815 ad3d 9de4 213d f0b9 1e3e
00000110: 95f3 143d 7636 14be 900a 07bd da82 d3bb
00000120: f09a 20be c5e5 b6bd a08c 6e3d 081c a1bc
00000130: 01f9 e93d b982 5ebd 5108 28be 522b 5d3c
00000140: 0927 8f3c 81f4 483d 0c5c d83d cc59 d8bd
00000150: 6355 57bd 33f0 b4bc 2c20 25bc 7bd2 d5bc
00000160: ef0e a3bd 7a4e 133d 5bfc c4bc f3ef 88bb
00000170: a4ef 15be 0a49 32bd 7801 bdbc 1039 8bbe
00000180: e090 c83d e3e9 a7bd 7bed 043b ea0c 2abd
00000190: be7b 47bd 0321 153e a560 b63c fd2e 58bc
000001a0: 61bf ddbb 3e0a d53d b605 99bd 3e55 a93c
000001b0: 21a9 be3d e409 c53d 5f57 2b3d 5516 4d3d
000001c0: 4884 41bd 9118 c33d 06f0 4b3d cdbf 533c
000001d0: 3dcb 243d c213 8abc dd02 083e 1a1c 083d
000001e0: fa41 c83d 2e6c 10bd f033 053d 9ac4 6e3c
000001f0: d50f bf3d 56e1 5b3d 8e63 e73d c276 e2bd
00000200: 4f3a ae3c 5499 3abe 4750 9cbc c8fc eb3d
00000210: 12e6 10bc 5417 f3bc 3f1c 0e3e e714 f53d
00000220: 46ab 84bd 184c f5bb f05c cabd ea4d 363e
00000230: e9b5 26bd 564c 4c3d 4bba b2bb 1a5c e23c
00000240: 5471 6b3d 1e4f 63bd 9082 02be bdfd cc3d
00000250: 9db8 a33d 67ac a93d 2dc5 4d3e 2f59 bd3c
00000260: 5fbd 9b3d 737d 5ebc 4a3b 853d b1a3 82bd
00000270: a35f 413c 683f ebbc 85ad 983d 0834 ea3c
00000280: 68c5 00be fce3 cf3c 9b0b a1bd 8ece 20bd
00000290: 6b7f 03be 6d40 50bd 5b3a be3c 936a 773d
000002a0: 23e1 40bd e27f 2d3d 9341 6c3b 8f33 9cbd
000002b0: 7fc0 c1bc 4d58 0dbd 474c 343e b483 6ebd
000002c0: 2798 7dbe 0664 5a3e 02b2 8bbd 032e 793d
000002d0: f8f8 b9bb 2f1d eebc 0444 ac3d 0114 36be
000002e0: 81cf febd 4d9d bdbc b52a 693d 2773 93bb
000002f0: d8bf d93c 53dd 68bd 56a7 c7bd 37b5 2abc
00000300: b28f 3d3e b863 2dbe 8c89 26be 415f 1dbd
00000310: fd08 4dbc d6d2 bb3c 2e80 d23d 7db6 a23d
00000320: bb2e 43bd 1118 013d 17cc 5dbd 8444 08bc
00000330: 6607 bc3b 7124 11bd 4bcb d9bd ae32 943d
00000340: 302d 8a3d 3845 8d3d b8f1 8e3c 320c 68bd
00000350: a8e2 0fbe 0107 c0bd ccde 8cbe 38e7 6dbd
00000360: 2bb6 ab3d e2e4 333c 8515 9dbd ad27 f33c
00000370: a6a5 293d 6bcb bf3d 3743 11bd 213c d53d
00000380: 50f5 1f3d 5b64 c63d 2809 073d 6212 0fbe
00000390: dfdd 07be 339a 203d 2999 373d ef63 0d3d
000003a0: 088a 42bc 63c7 bb3c 9d7a c9bd aef4 aebd
000003b0: 16d9 b4bd 4846 973d c035 b7bd 043f b5bd
000003c0: 6ea6 acbd 9e92 c4bc 59fb b53d 7e47 d7bd
000003d0: 2ecc 183c bc89 c5bd 08e1 9b3d 01a5 34bd
000003e0: 92c8 72bb 6f4c 3abc bdab 66bd 7ffe 003e
000003f0: f3c9 91bd 8f29 d1bd e97a 03bd 31ad 10be

fc2.bias f4 [84]
0.075481564 0.06513243 -0.09092453 -0.06988352 -0.05541737 0.059489984 0.05571415 0.031838797
0.11059405 0.043272424 -0.03724376 -0.095256895 -0.005666878 0.06401665 -0.0008020015 0.04317557
-0.04266539 0.13542409 0.037920203 0.04603549 -0.0658566 0.06722002 -0.06482236 0.08124005
0.07381368 -0.022422975 -0.026993396 0.0034590266 -0.055100072 0.07122041 0.021289976 0.047030523
-0.10254765 0.09176604 0.041620255 -0.107404 -0.14028133 -0.035632428 -0.025815107 -0.098649465
0.0043949243 0.0399845 0.078252405 0.029665686 -0.0798189 -0.037155923 -0.008886035 -0.0009228569
0.06998913 -0.08802383 0.11647127 0.03952341 -0.044495266 -0.054235082 0.03563595 0.037896737
0.013760556 -0.093985945 -0.03413458 0.043491427 0.0959587 0.0020950234 0.0028281873 0.017493121
-0.045334484 -0.12440887 0.07071694 0.07367 -0.07955764 -0.030284654 0.036855504 0.0316125
0.078766674 -0.055117592 0.0641658 0.013298425 0.01349878 -0.050156582 0.021711865 -0.031414934
-0.06271719 0.14683829 0.018422827 0.07406221
00000000: 1496 9a3d 2764 853d a436 babd 171f 8fbd
00000010: 53fd 62bd c5ab 733d 8534 643d 6669 023d
00000020: 227f e23d 6d3e 313d ea8c 18bd 0c16 c3bd
00000030: 38b1 b9bb 291b 833d 693d 52ba ded8 303d
00000040: e7c1 2ebd 9dac 0a3e 3752 1b3d b68f 3c3d
00000050: d3df 86bd a6aa 893d 96c1 84bd 2f61 a63d
00000060: a02b 973d 63b0 b7bc 4121 ddbc d6b0 623b
00000070: 9db0 61bd 02dc 913d 5168 ae3c 14a3 403d
00000080: 8104 d2bd d5ef bb3d 007a 2a3d a1f6 dbbd
00000090: e9a5 0fbe 4ff3 11bd 347a d3bc bb08 cabd
000000a0: 4c03 903b c9c6 233d cc42 a03d 7405 f33c
000000b0: 1778 a3bd cf30 18bd bb96 11bc e1eb 71ba
000000c0: 7656 8f3d d645 b4bd 7d88 ee3d 4de3 213d
000000d0: ab40 36bd 9b25 5ebd 00f7 113d 9c39 1b3d
000000e0: f473 613c b47b c0bd b4d0 0bbd 1124 323d
000000f0: ff85 c43d a94c 093b 1c59 393b bc4d 8f3c
00000100: a7b0 39bd 14ca febd 0bd4 903d 4ce0 963d
00000110: 1eef a2bd 8617 f8bc ccf5 163d 1c7c 013d
00000120: 6c50 a13d fcc2 61bd 5c69 833d a3e1 593c
00000130: fd29 5d3c fd70 4dbd 15dd b13c f2ac 00bd
00000140: df71 80bd c75c 163e 78eb 963c eead 973d

fc3.weight f4 [10, 84]
0.026827177 -0.14488602 -0.19497372 0.16280429 0.0027699945 0.16902283 -0.0065369224 -0.06796208
-0.020742385 -0.06541951 -0.17098351 -0.116801456 0.07272566 -0.17435527 -0.2282941 0.050037667
0.10952835 -0.021425232 -0.14172089 -0.099674754 0.0002649975 -0.062255066 0.108742155 -0.047013827
0.021785691 -0.16825278 0.059330795 -0.11028956 0.0618513 0.11383305 -0.0315014 0.05023575
-0.012275745 0.019828863 0.17749785 0.06343274 0.12466834 -0.1555244 -0.17658584 0.022879649
-0.06348973 -0.01969987 -0.10705355 -0.064077534 0.047478255 -0.16402264 -0.095950305 -0.04972317
-0.0045094634 0.023802185 -0.08119125 -0.022018421 -0.16958584 0.24350727 0.01223556 0.077820495
-0.037780665 0.2539331 -0.14099964 -0.27509922 -0.1371661 0.073978834 -0.15529352 -0.2178914
-0.01666664 -0.05237323 -0.2659588 -0.051416006 0.1336302 0.023033371 -0.2514969 0.092468366
-0.04392088 0.07068592 0.16273974 -0.04921179 -0.006017405 -0.03360433 -0.009856228 -0.0066634314
0.0652969 0.020402238 -0.24828239 -0.14403471 -0.026150305 0.038793083 -0.030352987 -0.12527925
-0.19323574 0.07820927 0.06055315 0.045693178 0.04108936 -0.044408664 0.06788982 -0.08655008
0.010023026 0.21087849 0.16055195 -0.05735788 -0.22213885 -0.033737466 -0.052903 0.10811379
0.048137527 0.10171526 -0.023409389 -0.19905123 0.029835144 0.051144898 -0.023542397 0.09359326
-0.08749123 -0.23030536 -0.06240464 -0.24667126 -0.1449987 -0.11341759 0.0379661 0.09264846
0.114193104 -0.0017754232 -0.18024805 0.04872761 0.1622375 -0.06813734 -0.18161263 0.07482061
0.053664103 0.15078607 0.13987885 -0.0062607913 -0.08535791 0.06914794 -0.21117915 8.148696e-05
-0.14284502 0.12275103 -0.097602166 -0.22407202 -0.09210166 0.16843821 0.027449882 0.084551215
-0.15525186 -0.26127338 0.12166228 0.043743297 -0.10307711 -0.07880284 0.028246189 0.1720073
0.0026116606 -0.21147998 0.14554828 0.12445574 -0.015010705 0.049839824 -0.0065371776 0.17068438
0.20293593 -0.03329361 -0.18989657 0.096564725 -0.18958315 -0.13275468 -0.05284331 -0.09678568
-0.084542856 -0.10320322 -0.05311709 0.09849178 -0.14672598 -0.064316764 0.116632484 -0.11231016
-0.08144924 -0.070415914 -0.25901413 -0.0010357072 -0.08742286 -7.525107e-05 -0.25795957 -0.12251763
-0.067225404 0.07907828 0.0015985188 0.07847327 -0.06193455 -0.21131895 0.10065692 -0.06942727
-0.13992696 0.04071659 0.026716491 0.02264482 0.0032951399 -0.18128736 0.029323831 -0.019758001
0.21236089 0.04793246 0.106646374 0.095029704 0.13471158 0.105138935 0.045755096 0.12646541
-0.1018705 -0.021009276 -0.20638761 -0.18562476 0.02597828 -0.08162666 -0.09833049 0.078949675
0.14798795 0.04700338 0.1212778 -0.21465677 0.13215618 -0.26199168 -0.0045504533 0.11548439
-0.09720739 -0.27419978 0.11997688 -0.0042143776 -0.14877068 -0.14316085 0.15743223 0.0775951
-0.011195429 0.05254824 -0.22467445 0.06626671 -0.029679082 0.03541675 0.0728242 -0.18974201
0.09519986 0.052528817 0.15925567 -0.057250958 0.11721394 -0.027781224 -0.031033874 -0.124817416
0.075622655 0.040577378 0.05256886 0.0840055 0.031906348 0.03842901 -0.028369687 -0.053379726
00000000: abc4 db3c 005d 14be 31a7 47be 2bb6 263e
00000010: cc88 353b 5214 2d3e ae33 d6bb b42f 8bbd
00000020: efeb a9bc aafa 85bd 4d16 2fbe 9a35 efbd
00000030: 31f1 943d 308a 32be eec5 69be 4cf4 4c3d
00000040: 6650 e03d f883 afbc 481f 11be 4722 ccbd
00000050: 5def 8a39 2bff 7ebd 35b4 de3d 9291 40bd
00000060: e877 b23c 754a 2cbe d904 733d 7edf e1bd
00000070: ca57 7d3d 4d21 e93d 9d07 01bd 00c4 4d3d
00000080: 3520 49bc 2470 a23c ffc1 353e 06e9 813d
00000090: 1d52 ff3d ca41 1fbe ebd2 34be 1a6e bb3c
000000a0: e706 82bd 9f61 a1bc e43e dbbd 153b 83bd
000000b0: 8f78 423d 8df5 27be 9881 c4bd 86aa 4bbd
000000c0: 1fc4 93bb cdfc c23c 9947 a6bd fa5f b4bc
000000d0: e9a7 2dbe f859 793e a977 483c 5a60 9f3d
000000e0: e6bf 1abd 8503 823e 3662 10be ced9 8cbe
000000f0: 4575 0cbe 3782 973d 4405 1fbe ec1e 5fbe
00000100: 7a88 88bc 5085 56bd c02b 88be 9799 52bd
00000110: 5bd6 083e 7bb0 bc3c 34c4 80be 0e60 bd3d
00000120: 61e6 33bd c8c3 903d 3fa5 263e 4d92 49bd
00000130: a72d c5bb b2a4 09bd 047c 21bc ea58 dabb
00000140: 62ba 853d 9822 a73c bd3d 7ebe d67d 13be
00000150: 2a39 d6bc 7fe5 1e3d d4a6 f8bc 3449 00be
00000160: 97df 45be 2f2c a03d 9406 783d c528 3b3d
00000170: 514d 283d dce5 35bd d109 8b3d 2b41 b1bd
00000180: 9e37 243c 88f0 573e bb67 243e 19f0 6abd
00000190: 5e78 63be 4c30 0abd d1b0 58bd c36a dd3d
000001a0: db2b 453d 1750 d03d 0cc5 bfbc 16d4 4bbe
000001b0: d568 f43c 507d 513d fcdb c0bc d3ad bf3d
000001c0: 9a2e b3bd 2bd5 6bbe 029c 7fbd 6497 7cbe
000001d0: 8a7a 14be 7b47 e8bd 5782 1b3d 7abe bd3d
000001e0: 13de e93d 51b5 e8ba f292 38be 9a96 473d
000001f0: 9621 263e 978b 8bbd a9f8 39be 8c3b 993d
00000200: e4ce 5b3d aa67 1a3e 673c 0f3e 5327 cdbb
00000210: 21d0 aebd 6f9d 8d3d 593f 58be fbe3 aa38
00000220: f745 12be e464 fb3d a5e3 c7bd 2373 65be
00000230: cc9f bcbd 117b 2c3e 93de e03c 3029 ad3d
00000240: 58fa 1ebe a0c5 85be 132a f93d 2c2c 333d
00000250: 181a d3bd 6263 a1bd 8d64 e73c af22 303e
00000260: 6528 2b3b 358e 58be 9c0a 153e a7e2 fe3d
00000270: 76ef 75bc d824 4c3d d235 d6bb e3c7 2e3e
00000280: 70ce 4f3e e15e 08bd 3f74 42be bac3 c53d
00000290: 1622 42be d8f0 07be 3a72 58bd 9237 c6bd
000002a0: ce24 adbd 365c d3bd 4e91 59bd 0fb6 c93d
000002b0: 563f 16be 82b8 83bd 03dd ee3d df02 e6bd
000002c0: dcce a6bd 3836 90bd 809d 84be 91c0 87ba
000002d0: c20a b3bd 1cd0 9db8 4713 84be 86ea fabd
000002e0: 79ad 89bd cbf3 a13d 6485 d13a 98b6 a03d
000002f0: 15af 7dbd ff63 58be 3725 ce3d e22f 8ebd
00000300: 0349 0fbe 70c6 263d 8bdc da3c a181 b93c
00000310: 46f3 573b 65a3 39be 8838 f03c 88db a1bc
00000320: 2275 593e d454 443d 6a69 da3d ef9e c23d
00000330: d5f1 093e 1553 d73d b269 3b3d 2680 013e
00000340: 7ba1 d0bd a51b acbc 4657 53be 6b14 3ebe
00000350: 67d0 d43c e12b a7bd 7f61 c9bd 5eb0 a13d
00000360: 278a 173e 9e86 403d 7f60 f83d fcce 5bbe
00000370: f353 073e c623 86be f81b 95bb 1483 ec3d
00000380: ab14 c7bd ea63 8cbe 70b6 f53d c318 8abb
00000390: 5757 18be c298 12be ea35 213e 2eea 9e3d
000003a0: 086d 37bc d33c 573d 0f11 66be d7b6 873d
000003b0: 8c21 f3bc 2711 113d db24 953d bb4b 42be
000003c0: 25f8 c23d 7528 573d eb13 233e fb7f 6abd
000003d0: dd0d f03d 7395 e3bc c03a febc 46a0 ffbd
000003e0: 0de0 9a3d 7734 263d 7252 573d 130b ac3d
000003f0: 3bb0 023d bd67 1d3d 8c67 e8bc b3a4 5abd

fc3.bias f4 [10]
-0.08565716 -0.03671 -0.09280806 -0.005237798 -0.111328386 0.021182604 -0.17613144 -0.1037288
0.15102361 0.07806649
00000000: 056d afbd 3a5d 16bd 2712 bebd d6a1 abbb
00000010: 2300 e4bd 2487 ad3c cd5b 34be c46f d4bd
00000020: efa5 1a3e 53e1 9f3d
