models/BasicNet Ensemble-15model-5.pt (torch, 180551 bytes, 10 tensors)

conv1.weight f4 [6, 1, 5, 5]
00000000: f612 473b 63d2 693d 0939 cdbd 2b8e 913e
00000010: 1e75 b9bc 1bab 22be c1e2 6bbe 677f fdbd
00000020: 2329 633c f8f5 b63e 1195 a5be 49db b1be
00000030: 7f68 2bbc f579 d93d 3d05 d23e 34f6 e6be
00000040: 6ab1 3b3e 8db4 433e 62cb 853d 9398 9b3e
00000050: d6b1 6bbc aabd 6a3e 9c5f c0bd 62a6 61bc
00000060: f26f 2e3e ee24 3d3e e396 c53e ce63 a43e
00000070: d096 8c3e ac6d 153d 7976 7d3e 7027 5f3e
00000080: cb8e c13e 38e7 df3c 1252 e33d 019e 89be
00000090: 562d 8bbe 5eda 28be f8b5 1c3d daf5 183e
000000a0: 8cc2 09bf df15 cabe 3214 b6be d212 80be
000000b0: bf9c 85bd 6984 4dbd 900f 10be 05d9 85bd
000000c0: afb9 febc fce2 08be 20ea 06be cd40 c2bc
000000d0: 7b57 9abe 1aad 01be 8397 6abe 4ad0 c33d
000000e0: 6122 0b3c 596b 893e 3923 113e d85c 8f3a
000000f0: 7320 653d 9cf8 f53d c0a6 3a3e 58a3 af3e
00000100: 24d4 753e bd2a 943e db45 4b3e 205e f7bd
00000110: b235 14bc 5db2 c53d 6a45 8dbe 7ea3 68be
00000120: 5e85 5cbe f602 8fbe b888 89bd c5ea 173e
00000130: 5917 3ebe 3551 02bf aadc d7be e8dc 2f3c
00000140: 510d 943e 1147 a13e 882a 1e3e 12e4 753d
00000150: bf40 773e 66a4 233d de3e dd3d f4dc 1c3e
00000160: 429f 303e ad53 91bd 2f08 16be bc2f 5d3e
00000170: 0f78 11be 5462 0abe 0558 2c3d 557c b0bb
00000180: b7f4 da3d a168 193e 0bf5 c23d 1acc b5bd
00000190: 936b f73d bd97 b63c 74d7 053e d516 433e
000001a0: bb81 873c 5b10 c23d 51b6 46bd 3a31 513e
000001b0: 456f 433e 64b0 69be 1b07 1fbe 8d5c b33e
000001c0: 7584 f43d 77a1 56bc ef69 98be f798 6d3d
000001d0: 61f6 6d3e 44b5 e1bd c6b4 80bd 27f7 8ebe
000001e0: d411 b83d 6af8 053e 2d56 743c 44a8 6abd
000001f0: 568a e1be 543b 85be b5b1 943d be15 573e
00000200: 3c23 313e 3122 13be 54de 373d 54d4 563e
00000210: 3c84 743e 16fb 82be 30fe 42be 5883 283e
00000220: 1fe2 3b3e bfaa 1bbe 50c6 d9be be9a 78bc
00000230: 717c 0f3e 588c 5b3d e19d a2bc 1a88 44be
00000240: eef7 193e 90f3 22be 4e1b 013e 47d2 333d
00000250: a384 b03c 88a6 dabc
0.0030376292 0.057085406 -0.10020644 0.28428778 -0.022638854 -0.15885584 -0.23035719 -0.12377816
0.013864788 0.35734534 -0.3234029 -0.34737614 -0.0104619255 0.106189646 0.41019621 -0.45109713
0.18329397 0.19111843 0.06532933 0.30389842 -0.014385661 0.22923914 -0.09393236 -0.013772579
0.17034891 0.18471119 0.3859168 0.32107395 0.2745881 0.036481544 0.24752225 0.21792388
0.37804255 0.027331933 0.11099638 -0.2687836 -0.27183026 -0.1648955 0.038259476 0.14937535
-0.5381248 -0.3946981 -0.35562283 -0.2501436 -0.065240376 -0.050175104 -0.14068437 -0.06535534
-0.0310944 -0.13367838 -0.13175249 -0.02371254 -0.30144867 -0.1266369 -0.2290936 0.09561212
0.008492083 0.26839712 0.14173593 0.0010937704 0.05593915 0.12010309 0.18227673 0.3430431
0.24006706 0.28938857 0.19850866 -0.120785 -0.009046005 0.09653161 -0.2759202 -0.22718617
-0.2153525 -0.27931947 -0.0671553 0.14835651 -0.18563594 -0.5090516 -0.4216054 0.0107338205
0.2891641 0.31499532 0.15445912 0.060031958 0.24145792 0.039951704 0.108030066 0.15318662
0.17248252 -0.07096038 -0.1465156 0.2160024 -0.14205955 -0.13514072 0.04207613 -0.0053859153
0.10691207 0.14981319 0.095193945 -0.0887682 0.12081065 0.022289151 0.1307047 0.19051678
0.016541352 0.09475776 -0.048513714 0.20428935 0.19085415 -0.22821194 -0.15530054 0.35031548
0.11939327 -0.01310002 -0.2976832 0.058007207 0.23238517 -0.11020902 -0.0628448 -0.27922937
0.089877754 0.13083044 0.014913124 -0.057289377 -0.44050854 -0.26021826 0.072604574 0.21004388
0.17298597 -0.14368512 0.044889763 0.20979434 0.23878568 -0.25582188 -0.19042277 0.16456354
0.18347977 -0.15201853 -0.42534113 -0.015173612 0.14012314 0.05360064 -0.019850673 -0.19192544
0.15035984 -0.15913224 0.12608072 0.043901708 0.021547621 -0.026690736

conv1.bias f4 [6]
00000000: 6846 9d3d 96c5 5cbb e03a 2c3b 3e0d aebe
00000010: ed28 70be b0c2 babd
0.076794446 -0.0033687106 0.002628021 -0.33994478 -0.23453112 -0.09119165

conv2.weight f4 [16, 6, 5, 5]
00000000: 1bd3 073d 37da 543d 75c5 12be e60c a6bd
00000010: f190 e43d 11cc 993c 51ff 31bc 86d7 dbbd
00000020: 9d45 81be 402e 31be 0090 83bc cded 26bd
00000030: 2b59 43bd b413 383d d9a8 3abd 1b82 74bd
00000040: e683 92bc aba9 913d 67dd 0d3e 7b6d e83d
00000050: 83c0 1d3e 05e1 f73c 0f89 273c a353 f13c
00000060: 831c 9bbd be8a c8bd d545 d6bd 5524 2abe
00000070: 6cd0 533d 82b5 453e 659d efbd 6235 403d
00000080: 202b cb3c 01b4 463e 32c2 d73d 6cc0 253c
00000090: 3de7 1e3e 14e7 753e 2ae6 923e e5b4 19be
000000a0: 75b1 1ebe 80a9 753d cf70 ba3d 3467 d6bd
000000b0: 7747 19be d841 2abe e02b 37be 4ff8 5fbe
000000c0: e701 d1bd ce29 45bc f2d1 00be e11e de3c
000000d0: aa5e 3c3d a351 b93a 2ad6 0f3e 88f0 d33d
000000e0: b4bb 373e 2040 7e3e 18c5 223d a249 3bbd
000000f0: 80be 013d f08b 523e d436 333e fb1d 93bb
00000100: 8923 f5bd 7ffb 223e d686 62bc 95b3 f0bb
00000110: 2df4 82bd 6691 113e 74da acbd 86fd 77bd
00000120: b776 853d 04a3 6e3b bdb1 25be 47ff 8bbd
00000130: 54cc 30be e557 05be b5ab 81bc 52f1 1ebe
00000140: 6f12 16bb 522c 003e 4266 0d3e eb01 6c3d
00000150: ee20 c2bc 68e8 11bd 9856 ab3d 286d 9f3d
00000160: b59a b63d 8432 a53d a07f cc3b 1c7b 1c3e
00000170: 8596 6cbb b998 9b3c eaf0 b23d 6e8b ba3d
00000180: c1c5 3e3e 9d1f a73c 4ee8 48bd 95bf 06be
00000190: 26bb d63c f282 97bd b518 adbd 2da4 f3bd
000001a0: 6289 11be 548d 67be 3e01 36bd bff6 32be
000001b0: 3f6b 15be dc5f f0bd 572a 4fbe 3280 38be
000001c0: 42e3 40be 9971 383d 1938 df3c 60c3 4ebe
000001d0: d180 20be de19 f83d f77b ad3d eb19 223e
000001e0: b6a9 91bc 29ea 613e 68d1 4a3e 77a9 2b3e
000001f0: 623e 80bd 43bc 73bc 419f 8bba 6aba 7abd
00000200: 28bc 74bc 9952 90bd a237 6dbd e469 bb3b
00000210: 479c 21bd b7ca 183c ad4c d5bc 348a 2cbe
00000220: e4e5 adbd a02d a8bd 1f40 5cbc bfec fbbd
00000230: 1d8e 89bd 41cc 43be dfac 44be 8b1f 6b3c
00000240: 6505 153d 6028 6dbd 336f 433d cfb9 dfbc
00000250: 5d36 4b3e 584b 2b3e c6e0 ffbd 579f 64bd
00000260: d78b 343d 486e 8e3c f35d b03d a402 1dbd
00000270: ef08 dfbc 59da 3dbc 3231 e03d 97f3 d83d
00000280: 8496 8ebd 26cd bb3d caf8 97bd 41c3 b3bd
00000290: 3c18 77bc 1c79 a2bd 316a ccbd 3395 08be
000002a0: e041 64bd a3b0 413d 43ff 01be 1ba5 843c
000002b0: 7300 83bd fb47 9c3d 0919 e4bc 62cd 673d
000002c0: 9166 0abe efd3 17bd 9d43 c4bd e91f 923d
000002d0: e2fb 123d b0db ca3c a29b 7d3d 36a1 0f3e
000002e0: b86e c23c dd0c b23d 33b4 ed3c f63d cd3d
000002f0: 9680 083d c609 533e 0cae d13c 1210 423e
00000300: f130 a73e b366 7c3e bc37 8a3e ddac 9ebd
00000310: 8058 42bd df3f 9ebd 69e0 4dbe f9eb 97be
00000320: 0133 83bd f4d1 e93d a0b8 833d 91e3 b83d
00000330: f139 c63d b240 163d 29a8 9abd a319 8abc
00000340: e95a f9bc d7f1 443d f8b1 b33c 3366 0abd
00000350: edde 6e3e 9e28 203e e89e 763e fba5 a3bc
00000360: ae52 96bd 170b 343d 012b 02bd 5663 873c
00000370: 98e1 b7be 455e 4fbe ed45 5a3d ec83 ac3d
00000380: b943 903c c41d 8abd 3a15 e9bc 516d ec3c
00000390: 19ee 403d ff40 d5bc 1d14 18bd e958 033e
000003a0: 7bc6 82bd e457 8c3c 54c2 dabb f90b 08be
000003b0: e45d d6bc 7146 543d 017a a93d d609 29bd
000003c0: 58e7 02be 1e13 14be 649c f63d 9147 6ebd
000003d0: f22e cbbd 719e 91be b4d9 13be 1302 4b3c
000003e0: 9bf8 abbc d697 8dbd caa4 02be ed8d 81bd
000003f0: b6cc f9bd f7e6 eebd d22b fabc f0f0 073d
0.03316031 0.05196592 -0.14333136 -0.08107929 0.11160458 0.018774064 -0.010864095 -0.10734467
-0.25248423 -0.17302799 -0.016059875 -0.04075413 -0.04769246 0.044940665 -0.045571182 -0.05969439
-0.01788516 0.0711244 0.1385399 0.11349007 0.15405469 0.030258665 0.010225548 0.029458826
-0.075737976 -0.09792088 -0.10462538 -0.16615422 0.05171244 0.19307521 -0.116999425 0.04692591
0.024800837 0.19404604 0.10535087 0.010116678 0.15517898 0.2401393 0.28691226 -0.15010412
-0.15497382 0.0599761 0.09103548 -0.10468903 -0.14968668 -0.1662668 -0.1788783 -0.21872066
-0.10205441 -0.012033893 -0.12580088 0.027114334 0.045988716 0.001413871 0.14046541 0.10348612
0.17942697 0.24829149 0.039738744 -0.04572452 0.031675816 0.20561194 0.17501384 -0.004489658
-0.119696684 0.1591625 -0.013826093 -0.0073456266 -0.06394229 0.14215621 -0.08440104 -0.060544513
0.06516784 0.0036413083 -0.16181083 -0.068358 -0.17265445 -0.1302181 -0.015828947 -0.15521744
-0.002289917 0.12516907 0.1380854 0.057619017 -0.023697343 -0.03562203 0.08366126 0.07784492
0.08916227 0.08066276 0.0062408 0.15281337 -0.0036100459 0.018993722 0.08737357 0.09108625
0.18630125 0.020400817 -0.049049668 -0.1315902 0.026212286 -0.07398023 -0.08451978 -0.118965484
-0.14212564 -0.22612506 -0.04443478 -0.17476939 -0.14591692 -0.11737034 -0.20230995 -0.18017653
-0.18836692 0.04503021 0.02724843 -0.20191717 -0.1567414 0.12114309 0.0847091 0.158302
-0.01778112 0.22061981 0.19806445 0.16763864 -0.062618986 -0.014876428 -0.001065232 -0.061212935
-0.014937438 -0.07047004 -0.057914384 0.0057194103 -0.03945568 0.009325675 -0.026037538 -0.16849595
-0.08491114 -0.08211827 -0.013443022 -0.12301015 -0.06716559 -0.19120885 -0.1920657 0.014350782
0.036382098 -0.057899833 0.04771347 -0.02731028 0.19844957 0.1672796 -0.12494044 -0.05581602
0.044078674 0.01738657 0.086116694 -0.038332596 -0.02722594 -0.011587703 0.10946883 0.10593336
-0.06962302 0.09169988 -0.074204996 -0.08777476 -0.0150814615 -0.07933256 -0.09981192 -0.13338165
-0.055726886 0.047287595 -0.12695031 0.01619201 -0.0639657 0.07630917 -0.027843969 0.056592353
-0.13515688 -0.03706735 -0.09583209 0.07134993 0.035884745 0.024762958 0.061916 0.14026341
0.023734435 0.0869386 0.02901659 0.10021584 0.033325754 0.20609197 0.025595687 0.18951443
0.32654527 0.24648552 0.26995647 -0.07747815 -0.04744768 -0.07727026 -0.20105137 -0.2967222
-0.064062126 0.114169985 0.06431699 0.0902778 0.0967902 0.036682792 -0.07551605 -0.016857928
-0.030438857 0.0480822 0.021935448 -0.03378887 0.23327227 0.15640494 0.24084055 -0.019976607
-0.07339989 0.04395589 -0.031779293 0.01652686 -0.35914302 -0.20250805 0.053289343 0.084235996
0.017610418 -0.067439586 -0.028452504 0.02886072 0.047102068 -0.02603197 -0.037128557 0.12826885
-0.063855134 0.017131753 -0.0066759977 -0.13285817 -0.026167817 0.05182499 0.082752235 -0.041269146
-0.12783563 -0.14460418 0.12041548 -0.05817372 -0.099210635 -0.28441194 -0.14438516 0.012390631
-0.020992568 -0.06913726 -0.12758175 -0.06325898 -0.12197249 -0.11665147 -0.030538473 0.03318876

conv2.bias f4 [16]
00000000: 4251 8e3b c326 e1bb 9291 b43d 6473 14bd
00000010: 1c57 88bd 04b5 c5bd d585 2abd 1989 afbd
00000020: 921a 6e3d b67a 533d 9e4d f3bd 1948 bdbd
00000030: 8ca5 bfbd 8822 dfbd eb39 d23b 4ef9 3abc
0.004343183 -0.006871076 0.08816828 -0.036242858 -0.0665724 -0.096536666 -0.04163154 -0.08571071
0.05813081 0.0516307 -0.11880039 -0.09242267 -0.093577474 -0.10895258 0.0064155958 -0.011411978

fc1.weight f4 [120, 256]
00000000: bb0d 5cbb ba41 96bd dbd1 9dbd e931 5fbd
00000010: 7621 ac3c 8850 67bc 76d5 30ba ee31 ca3c
00000020: 1848 443d f7af bb3c 2521 5abd b12a 04bb
00000030: bf53 38bd 2076 203d beae 903c 543f 2dbc
00000040: a78d 8dbd d48f b23c c239 2cbd e64a b93b
00000050: 6a6f fdbc 5635 f63c 549e de3c 2c22 25bd
00000060: 7dac f53b 2ba3 09ba e591 d73c 7f37 4b3c
00000070: 62aa d63c 21a1 1ebb 6ba4 dabc 42f0 b33c
00000080: 345b 8abc f588 29bd f5bd 213d a068 113b
00000090: d016 c5bc 0e21 c13c 7a28 5c3c d067 7bbd
000000a0: 48e3 ecbb 8800 85bd 5fd7 bb3c 884c 363d
000000b0: 8943 233c 8ff4 f3bc ba59 0bbd ffc2 1e3c
000000c0: 6c3e 9cbb 8c6e a43c 8e5f 4cbc 9696 8abd
000000d0: a3db d2ba 3399 14bc 75b9 bfbc af63 a6bc
000000e0: 895c 143d af94 83bd 40cd 433c 6552 053c
000000f0: 9a73 acbd 64d9 3d3d b368 2ebd 5dca 1f3d
00000100: 9ea9 98bb 38b1 20bd 5027 1abc e203 a9bd
00000110: 2caf 80ba da5e ca3b 50d6 1abd 2fd1 15bd
00000120: de6b 97bb d059 8cbd a3d4 16bd b60a 21bd
00000130: 5ffb 29bd f94f 1839 342a 5b3c 17bc d3bb
00000140: 88e3 853b 4ded f6bc 5f51 62bd 5a31 fa3c
00000150: f2b8 ee3c ef4b 9ebc 9e71 56bd 3096 85bc
00000160: 2a66 a33b 3c45 253d 94d5 4fbc fd4c d83c
00000170: 19a0 30bd dd77 8bbd 74a7 eabc 01f5 b3bc
00000180: b9a7 2d3d 15ac eebc 4e85 66bc dbed 72bd
00000190: 69e4 f33a e110 2bbd 30fe dfbc b744 9cbd
000001a0: 9b1e 84bc fe5c 49bc eca8 bcbc e2dd 4abd
000001b0: c7ef f93c 7cba 8dbd 5459 05bd e0ff 2c3b
000001c0: 628f 6ebd 73a0 c03b 20e1 af3c 0bbd 083d
000001d0: 9ecd da3a 0fb4 18bc 7a30 76bd c812 0dbc
000001e0: 5c0f c0bb 02d6 9bbd de1a 88bd e00d 0abd
000001f0: 8b37 0fbd d4e6 afbb 5804 343c 9eec 8abd
00000200: 10c6 c9bc 5c54 89bc fe74 153d 6ed5 cbba
00000210: f83e 033d 5823 38bc be26 73bd c3e2 a3bd
00000220: 4305 27bd 0864 4cbc 5235 65bd ab85 103d
00000230: 2a1a 7f3b a0a4 4f3b 5a3d 7fbd d611 133d
00000240: 269c 5dbd a053 153c 2970 163c fa67 38bd
00000250: a8c4 ed3c dbc6 5b3c f5ed 80ba 7c97 eebc
00000260: 9ef1 0e3d 640a b83c 2470 10bc 1edf 7fbd
00000270: 2229 76bd cebf 893c 5205 a6bd 6050 7c3d
00000280: 4fe4 043d 1cf6 97bc 8e43 4bbc aed7 41bd
00000290: 7d2a 9abd 23dc 95bd 4502 60bd a93c db3c
000002a0: fbb2 543c 2a3d 8fbd ad08 2c3d 56d2 44bd
000002b0: a5ff 02bc fde4 1cbc 57f0 5d3c c955 d6bb
000002c0: c529 3abd 91c2 bf3c 2fb7 c63c a869 983c
000002d0: 69f3 363c e55a 41bd 7f2c 1abc 765f 30bd
000002e0: f7d0 4dbd ea36 41bd d4b6 8e3b 7b33 91bd
000002f0: 23e4 16bd 9cc0 a1bd 7cb0 a9bc ad6d 84bd
00000300: 5ac2 8cbd 89e6 113d cffb 40bc 78be 0fbd
00000310: 29c1 acbc fc1e 83bd d602 eb3b 71ad 0f3d
00000320: 404b fbbb 8522 8d3c 4497 08bd 64b2 353c
00000330: 2539 25bd e7b9 3fbd 359b 18bc 141b 343d
00000340: ca33 753c 9ac1 96bd 6850 66bd 49c0 3e3d
00000350: 94a1 b3ba 23c3 0e3d 4e62 173d adf2 21bd
00000360: 9394 18bd a8cc 0abd 22ce a53c 9529 84bd
00000370: 85c4 073d 1b71 763c 58bc e9bb ebc3 83bc
00000380: e857 8bbb cec3 65bd 01b2 d4bc f715 b1bc
00000390: 4be6 32bd fe06 40bd f72d e53c 986a 7bbc
000003a0: e0f1 253d 43a2 403d 4771 27bc fc53 0b3d
000003b0: b3ac d5ba b87c 0cbd caac b6bc ad84 303d
000003c0: d58f 70bd fec6 013c 8dbe 453d eb19 893c
000003d0: dc42 83bd c307 eebc facc 13bd eefb 90bb
000003e0: 63bb 84bd 038b b0bc 8186 83bd 7968 a93c
000003f0: 3ce2 79bd b3a0 6bbc 4e80 393d 5b90 3bbd
-0.003357752 -0.07336755 -0.077060424 -0.054490957 0.02101205 -0.014118321 -0.00067456753 0.024682011
0.047920316 0.022911055 -0.053254265 -0.0020167048 -0.04500174 0.039175153 0.017661449 -0.010574181
-0.06911784 0.021797098 -0.04204727 0.0056546805 -0.030936915 0.03005473 0.027175106 -0.040315792
0.007497369 -0.0005250449 0.026314685 0.012403368 0.026204292 -0.0024204927 -0.026689729 0.02196515
-0.016889192 -0.041390378 0.039487798 0.0022187606 -0.02405873 0.023575332 0.013437385 -0.0613783
-0.0072292425 -0.06494242 0.022929845 0.04450658 0.009964832 -0.0297797 -0.034021117 0.009690045
-0.0047681835 0.020072244 -0.012473954 -0.06767003 -0.0016087185 -0.009069729 -0.023403862 -0.020311205
0.03622106 -0.064248435 0.011950791 0.00813732 -0.08420487 0.046349898 -0.042580318 0.039011348
-0.004658892 -0.03923151 -0.009408787 -0.08252694 -0.000981783 0.006175858 -0.03780204 -0.036576446
-0.004621013 -0.06853068 -0.03682388 -0.039316855 -0.04149949 0.00014525642 0.013376761 -0.006461631
0.0040859617 -0.03014245 -0.055253383 0.03054111 0.029140923 -0.019323317 -0.052354448 -0.016306967
0.004986544 0.04034923 -0.012685198 0.026403898 -0.04312143 -0.068099715 -0.028644301 -0.021967413
0.04239628 -0.02913479 -0.014069868 -0.059308868 0.00186075 -0.041764144 -0.027342886 -0.07630294
-0.016127875 -0.0122902375 -0.023029767 -0.04952801 0.030509843 -0.06920335 -0.032555893 0.002639763
-0.05824221 0.005878502 0.021469653 0.03338341 0.0016693359 -0.009320273 -0.060104825 -0.008610435
-0.005861206 -0.07609178 -0.066457495 -0.03370464 -0.03496508 -0.005368093 0.010987364 -0.067834124
-0.024630576 -0.016763858 0.036488526 -0.0015551278 0.032042474 -0.011238895 -0.05936312 -0.08002236
-0.040776502 -0.012475021 -0.055959053 0.035283726 0.0038925507 0.0031683818 -0.06231437 0.03590568
-0.054103993 0.009114176 0.0091820145 -0.045021035 0.029024437 0.01341411 -0.0009836542 -0.029124968
0.034898393 0.022465892 -0.008815799 -0.06246864 -0.06009782 0.016815092 -0.081064835 0.06160009
0.032444295 -0.018549971 -0.012406243 -0.04732483 -0.07527635 -0.07317378 -0.054689664 0.026762323
0.012982125 -0.06994088 0.04200046 -0.048052154 -0.007995521 -0.009576079 0.013546071 -0.006540988
-0.04544999 0.023408206 0.02425727 0.018605068 0.011166432 -0.047205824 -0.009410023 -0.04305979
-0.050248113 -0.04717151 0.004355291 -0.07089897 -0.036838662 -0.078980654 -0.020714037 -0.064662315
-0.06873007 0.035620246 -0.011778786 -0.035093755 -0.0210882 -0.06402394 0.007171969 0.035077516
-0.0076688826 0.017228374 -0.033347383 0.011089895 -0.0403377 -0.04680815 -0.009314348 0.043971136
0.014965961 -0.07361145 -0.056229025 0.046570096 -0.001370477 0.034854066 0.036958985 -0.039538074
-0.037251066 -0.03388658 0.020239893 -0.06453244 0.0331464 0.015041615 -0.007133048 -0.016084632
-0.0042524226 -0.056094937 -0.025963785 -0.021616919 -0.043676656 -0.04688167 0.02797602 -0.015345238
0.040513873 0.047029745 -0.0102198785 0.03401564 -0.0016302079 -0.03429863 -0.02229919 0.04309528
-0.05873092 0.007920979 0.048277427 0.016735991 -0.06409237 -0.029056435 -0.036084153 -0.0044245636
-0.06481054 -0.021550661 -0.06422139 0.0206797 -0.06100677 -0.014381575 0.045288377 -0.045791965

fc1.bias f4 [120]
00000000: 8a41 f4bc f318 42bd 9278 28bd 8a24 5cbb
00000010: 3f80 e8bc a64c 16bd cb44 9ebd 0289 0c3d
00000020: b84e 6fbd 5b1c e03c eb5b 10bd 2969 e43c
00000030: 940e d6bc 93f1 a53b 4e2e 86bc 214e 30bd
00000040: 4947 67bd b361 eb3c 57ba 8b3d efb9 febc
00000050: 3157 823c 99b8 113c 63dd 65bd f864 85bd
00000060: 768a 0a3d b73d 503d 2bb3 4dbd 2d46 3ebc
00000070: 0dbb 7cbc 858e c03c 0da2 43bd 065d 653d
00000080: 58c4 acb8 f658 cdbc 5d93 7a3d 6a40 b13d
00000090: dcf2 d9b8 88d7 e9bc eece 44bd e040 40bd
000000a0: 13b2 8dbd bb9b cbbd 3271 883b 2da8 ee3c
000000b0: 5086 533d df8d ba3c eca5 0f3d 8120 13bd
000000c0: 392e d93d 72f5 02bd f28b a03c e0bd 4c3d
000000d0: 2f4a 5a3b bd27 b0bd 62ea eebc 1c8f 7cbc
000000e0: cde7 bdbd a8da 1ebd b5ed 603d 65b8 b6bc
000000f0: a5d0 41bd 454a acbc ffd3 86bd 70bd babd
00000100: e0f1 f8bc 3d0c b1bc d22f 223d 74ac 57bd
00000110: d5de ae3d 1a9c 53ba a049 d13c 59e1 993d
00000120: 0b74 76bd 23e0 7dbc 5554 aabd 41e9 743c
00000130: 874b c83c ef8a 67bd 2925 d8bc 72fb 933c
00000140: 86be cabb 8217 6bbd b150 7bbb 5f6f 99bd
00000150: e677 353d 52d0 cebd 9cb0 02bd 42b9 49bd
00000160: 662e 083c 02b1 0d3d 6137 fb3c 83aa 1abc
00000170: 77de deba 2b98 1fbc 77be 8fbc 2a59 31bd
00000180: 628b 833b bf4e 50bd a52f 0dbc ec83 f73b
00000190: 4b2e b7bb 0881 353d b216 123d 7990 8dbd
000001a0: c8af 823d 6257 4d3a 24d2 fbbc ea8e 4d3c
000001b0: 10a8 183d e62e ee3c 572a eabc 3a44 f03c
000001c0: fa7c 5a3d 4618 5ebd 6cac 76bd 0df2 e33c
000001d0: fee1 c3bc e4ec 92bd 3a91 67ba b5bc c93a
-0.029816408 -0.047387075 -0.04113061 -0.0033591115 -0.028381465 -0.03669419 -0.07727965 0.03431035
-0.05842468 0.027357271 -0.03524391 0.027882176 -0.026129998 0.0050641983 -0.016379502 -0.04304326
-0.056464467 0.02873311 0.06822651 -0.03109452 0.015910717 0.008894109 -0.056119334 -0.06513399
0.033823453 0.050840106 -0.050219696 -0.011613411 -0.015425456 0.023505459 -0.047761966 0.055996917
-8.238171e-05 -0.025066834 0.061175693 0.08654864 -0.000103926024 -0.028545156 -0.048048906 -0.04693687
-0.069187306 -0.099418126 0.0041638846 0.029132927 0.051641762 0.022772728 0.035070345 -0.03591967
0.106045194 -0.031972356 0.019597981 0.049985766 0.0033308377 -0.086013295 -0.029164497 -0.015414979
-0.09272728 -0.038782746 0.054914195 -0.022304723 -0.04731812 -0.021031508 -0.06583404 -0.091181636
-0.030388772 -0.021612281 0.039596386 -0.0526547 0.085385956 -0.0008072272 0.025547802 0.07513685
-0.06016926 -0.015495333 -0.08316866 0.01494819 0.024450077 -0.05652898 -0.026384907 0.018064234
-0.006187263 -0.057395466 -0.0038347656 -0.074919455 0.044303797 -0.10098328 -0.03190671 -0.04924894
0.0083118435 0.034592636 0.030666055 -0.009440067 -0.0017003556 -0.0097408695 -0.017546875 -0.043297924
0.0040144185 -0.050856348 -0.008617316 0.007553568 -0.0055902353 0.044312507 0.035666175 -0.069123216
0.06381184 0.00078331504 -0.030739851 0.01254628 0.037269652 0.029075097 -0.028584642 0.029329408
0.053341843 -0.054222368 -0.060223028 0.02782538 -0.023911472 -0.071740896 -0.0008833591 0.0015391322

fc2.weight f4 [84, 120]
00000000: 6706 2cbc d7c6 ab3d 22cd ac3d 4144 55bd
00000010: 1dea 373d a4c7 afbd f8da cebd 70ac 5bbe
00000020: f5ce 283d 43c7 00be b858 3ebe a9b1 acbd
00000030: 264b b23d b66a 733a d5e5 87bd fa92 55bc
00000040: 7b0f 00bd 2196 b53c 53db 803d bfdf 15bc
00000050: 8f51 023e c72e 1dbd 9163 aebb 96b8 113d
00000060: 2b9e 7fbe 5bc2 02bd ab82 593d 1767 393d
00000070: 1bdc f83c e1f7 aa3d cda7 0abe e954 75bd
00000080: acb3 e4bd 6717 07bd a142 88bd c5f8 4b3d
00000090: ad1a 5cbe 7d48 da3d 2373 713d e09c 123c
000000a0: db69 b8bc f166 7bbc 3b4a a33d ce31 a13c
000000b0: 38cd 4dbd 3928 283d 652d 833d 1969 5f3d
000000c0: c89d 21bd 7192 59bc 135f 9f3d 35da 643e
000000d0: 852d 573d b82c ebbc aeed c6bd 3e52 0f3d
000000e0: 7263 55bd 707d a9bc f4c4 c73d 7cd3 f3bd
000000f0: 8764 8dbd 77d2 8abc 0b55 a4bd 5329 3c3d
00000100: e224 9f3d 66f6 e73d 5c5b a4bd a302 04be
00000110: 5db5 6bbc b5ef 843d b87a 263e 6a6f 87bd
00000120: f8c1 693d 0f6a 92bd c012 983d f7ba 35bc
00000130: b81c 2abd 0cfc 983d 312c 923c 49a3 fd3c
00000140: b44c 123e c505 3e3e ef22 86bd 0f61 1a3d
00000150: bc0b 20b9 c4c4 9a3d 94ee 1bbe f980 29be
00000160: bac8 8b3d 5ee7 2e3e 3c46 20be cc58 9a3d
00000170: 28d4 8b3d 6b52 88bd ea58 51bd 6757 04be
00000180: ddde a23c 9b8d d93d b7d2 14be 1de8 a63d
00000190: 238c dd3d f80f 5f3d e379 3e3c 8e71 c13d
000001a0: 5b13 11bd 01f0 963c 9328 b4bd e4ee 713d
000001b0: 4a17 40be 0e6b 93bc 8289 86bb 364d 67bd
000001c0: 603f 213e 755c 1cbe 33a5 03bd 8840 b13d
000001d0: caaa af3c 42d7 383d f3f4 24be 2a56 e03c
000001e0: c1c7 63bd 0fa1 523d 394c c83d 9fcf de3d
000001f0: 4a87 383d fee5 263d 0119 fa3d 3f1f 2b3c
00000200: 88ef 6e3d fe9c f93d 3408 723e 04ac a63a
00000210: 88d2 993d 4471 13bd 7283 13bc 5d87 b4bd
00000220: 405f 85bc 32cd 88bd 433c 87bd 56fe a63d
00000230: f283 683d a808 57be 4a4a 6d3d a879 0bbd
00000240: 4567 51bd ec21 c0bd 2cfa f3bc 3c3d f6bd
00000250: 5a91 8fba e92f b93c 4499 12be bb10 82bc
00000260: b3c8 8dbc 2768 b7bc 2870 2a3e 2593 7cbd
00000270: 8447 ab3d 5c56 a63c 10b9 80bd dae4 5cbe
00000280: 855c 973d cdc2 113c 2c80 563d b870 83bd
00000290: 3040 a83d edc7 913d 7b5e 2fbd 4560 3f3d
000002a0: 487f b3bd 89b0 a1bc c305 2a3d e309 3d3d
000002b0: d680 8abd d6e8 31bb 3e29 16be 2754 da3b
000002c0: faca 823d ece6 20bb 483d 9b3d e7a1 f63d
000002d0: 10f6 bb3b 8ae7 9dbd 29c6 29bd ba76 ddbd
000002e0: c125 9fbc 7372 b63d 9279 4a3d 57d2 92bc
000002f0: 7ca5 93bd 8ebc 113d 8a56 18bd 9f44 263e
00000300: de8d cbbd fbce b0bc a58d 293d 2279 b2bc
00000310: 506a 3e3e a564 0dbd 4c80 be3d fae0 72bd
00000320: 88ff 49bc f4f3 7ebe d909 803d 8057 29bd
00000330: e4bf c23d d4b6 1fbd 9a67 5bbb 5396 8b3c
00000340: 1468 0cbc c524 8ebd 4c33 4e39 e19e 00be
00000350: e861 333d 16e3 71bd 639a d83d 1e0d 1d3b
00000360: b1f3 973c 64c0 b9bd c478 393e 725d 26bc
00000370: 0a09 a5bd 583a 90bd 2c8c b43d bb00 3c3d
00000380: 058c a53d 04dd 24bd 70c4 8a3d 3041 173d
00000390: bef7 10bc 562b a53d a742 143e 9755 063e
000003a0: 87a2 153d b11f 68be d7b2 e63d ddce a33c
000003b0: 973b 2ebe 3aed d3bd 3ff2 aa3c 6b51 533c
000003c0: 783b 973b 448c 54bd e504 26bc d7d9 d6bd
000003d0: 65e3 90bd fd96 48bc 7d78 7abd 0212 253e
000003e0: 341b 8ebd 24cc aebd 30bc 61be dc5b af3c
000003f0: 0c76 f6bd b93f ce3d 092d 1ebd 0f8b 393d
-0.010499573 0.08387535 0.084375635 -0.052067045 0.044901002 -0.08583 -0.10100359 -0.21452498
0.041212995 -0.12576012 -0.18588531 -0.084323235 0.0870574 0.00092856155 -0.06635634 -0.01303553
-0.031264763 0.022166314 0.06291833 -0.0091475835 0.12726425 -0.03837469 -0.005321928 0.035576425
-0.2496268 -0.031923633 0.05310313 0.04526433 0.030378392 0.083480604 -0.13540573 -0.05989543
-0.11167082 -0.032981303 -0.066533335 0.049797792 -0.21494551 0.10658357 0.058947694 0.008948535
-0.022511413 -0.015344367 0.07973143 0.019677069 -0.05024454 0.041053984 0.06405143 0.05454359
-0.039457113 -0.013279543 0.07781806 0.22348864 0.052533645 -0.028707847 -0.097133026 0.03499054
-0.05209679 -0.020689696 0.09754363 -0.11905572 -0.0690394 -0.01694606 -0.08024033 0.045937847
0.07770707 0.11326294 -0.08025238 -0.12891631 -0.014386502 0.06491033 0.16257751 -0.066130474
0.05706975 -0.07149135 0.07425451 -0.011091939 -0.041531295 0.07469949 0.017843338 0.03096165
0.14287072 0.18556888 -0.06549632 0.03769022 -0.0001526316 0.07557061 -0.15227729 -0.16553105
0.06825395 0.17080447 -0.15651792 0.07536468 0.06827575 -0.06656345 -0.051110186 -0.12923966
0.01988166 0.10622712 -0.14533506 0.08149741 0.108177446 0.05445859 0.01162574 0.09445487
-0.03541885 0.01842499 -0.087968014 0.059065714 -0.18758884 -0.017995384 -0.0041057477 -0.05647012
0.15746832 -0.15269645 -0.032139968 0.086548865 0.021443743 0.04512716 -0.16109066 0.027384836
-0.055610422 0.05142313 0.09780163 0.10879444 0.045050897 0.04074668 0.122118 0.010444461
0.058333904 0.12188147 0.23635942 0.001271606 0.07510859 -0.03599669 -0.009003507 -0.08814881
-0.01628077 -0.06679763 -0.06603291 0.081539795 0.056766458 -0.20999396 0.057932176 -0.034051567
-0.051123876 -0.0938147 -0.029782377 -0.12023398 -0.0010953352 0.022605853 -0.14316279 -0.015877118
-0.017307615 -0.02238853 0.16644347 -0.061663765 0.0836325 0.020304851 -0.06285298 -0.21571675
0.073906936 0.008896542 0.052368328 -0.06417984 0.08215368 0.07118211 -0.042814713 0.04672267
-0.08764511 -0.019737499 0.0415094 0.046152007 -0.06762855 -0.0027146838 -0.1466417 0.006662864
0.06386371 -0.0024551703 0.07580048 0.12042599 0.00573612 -0.07710178 -0.041448746 -0.10813661
-0.019427182 0.08908548 0.049432345 -0.017922563 -0.07209298 0.03558021 -0.037191905 0.16237114
-0.099391684 -0.021583071 0.04139485 -0.021786276 0.18595243 -0.03451981 0.093018144 -0.059296586
-0.01232899 -0.24897748 0.06251878 -0.041343212 0.095092565 -0.038992718 -0.00334785 0.017039454
-0.008569736 -0.06940607 0.000196648 -0.12560607 0.043794543 -0.059054457 0.10576322 0.0023964117
0.018548818 -0.09069899 0.18112475 -0.010154115 -0.08058365 -0.07042378 0.08815798 0.045899134
0.08083347 -0.04024984 0.06775749 0.036927402 -0.008848129 0.08064906 0.14478551 0.13118587
0.03653195 -0.2266834 0.1126458 0.019996101 -0.17014919 -0.10347982 0.020867465 0.0128978295
0.0046152435 -0.05189158 -0.010133003 -0.104907684 -0.07074622 -0.01224303 -0.061150063 0.1612015
-0.06938782 -0.085350305 -0.22044444 0.021406107 -0.120342344 0.10070748 -0.038617168 0.045298632

fc2.bias f4 [84]
00000000: e586 013d 6007 89bd b147 123d e2e8 89bc
00000010: 1c8a ba3d 7ae5 d9bb 7e7d 973c f9e9 033d
00000020: 4932 083e 0594 773d edb6 593d f058 09bd
00000030: d931 8dbd 12ac b03c 31fd 293e 0951 a7bd
00000040: 8a60 243d 515d 3e3c 46c8 8f3d bbd2 163e
00000050: 7f55 613d a2a1 b03d 1a8f a93d 536e 223e
00000060: 00c2 7c3c add7 393c 88b6 533d 6def 8239
00000070: 85ca 41bd 696c 8c3d fc24 f3bd 1dcf 0f3d
00000080: df01 f6bc 13b1 023e eebc d43d 9dfd 033d
00000090: f613 e4bd 2e04 bb3d a414 b8bd e518 f8bc
000000a0: 4908 14bd ce11 30bd 355a 2d3d f355 633d
000000b0: 883c 3c3c be8b 523d 620b 5dbd cbf7 6a3d
000000c0: f3b0 3cbd 02b0 d23d 3f2b 293c c30d 8dbd
000000d0: 2617 443b 3e24 093c 357c 4abd 8ed6 98bd
000000e0: 21e5 eb3c 9655 c13b daee bbbc 9ed1 b43b
000000f0: 1e56 873d ff8a 2ebd 897b ad3d 8d25 a93b
00000100: bc0d 283d 8af0 d1bc 8bfe cbbd d7f6 8abd
00000110: 2882 353d cdc5 043b 8d6b cfbb b70f 383d
00000120: d8fd 0c3d d87b cebc 3720 783c 83c0 8f3c
00000130: 29ec 54bd 2283 713d 3b64 2d3d 1249 543d
00000140: 928a d13d 048b 90bb 9862 8a3a 1d7c 12bd
0.031622786 -0.0669086 0.0357129 -0.01683468 0.091083735 -0.00664967 0.018492457 0.032205556
0.13300432 0.060443897 0.053152967 -0.033532083 -0.06894273 0.021566425 0.16600491 -0.08169753
0.04013113 0.011618928 0.07020621 0.14728825 0.055013176 0.08624579 0.082792476 0.15862398
0.015427113 0.011342925 0.051687747 0.00024973918 -0.04731228 0.06856615 -0.118722886 0.035109628
-0.03003019 0.12762861 0.10387598 0.032224286 -0.1113662 0.091316566 -0.08988312 -0.030285308
-0.036140714 -0.04298573 0.042322356 0.05550189 0.011489041 0.0514028 -0.053965934 0.05736522
-0.04606719 0.10287477 0.010325252 -0.068873905 0.0029921024 0.008370457 -0.04943486 -0.07462798
0.02879578 0.005900095 -0.022941042 0.0055181524 0.066082224 -0.042613026 0.08470828 0.005161947
0.041028723 -0.025627393 -0.099606596 -0.06785362 0.04431358 0.00202595 -0.0063299597 0.04493686
0.03442177 -0.025205538 0.015144399 0.017547851 -0.051983032 0.05896295 0.042331915 0.051827498
0.10231508 -0.004411103 0.0010557948 -0.035762895

fc3.weight f4 [10, 84]
00000000: 72e7 fb3b 6dce 283e 9e90 d8bd fc31 df3d
00000010: 022c d13b 3c89 0bbe ac68 7bbe 7e7d 87be
00000020: edb5 b1bd d61f e33d 1fe1 d2bd 5877 ea3d
00000030: 9af8 613b ab1b 0f3e 1963 81bc 4337 ca3b
00000040: 8c25 aabd a714 183e b116 59be e3ca 593d
00000050: e5f0 8dbc ebf3 c9bc 5647 bebd e41e 9fbd
00000060: 80de 073e 7c13 14be f426 49be 98dd f9bd
00000070: ccab 51bd f66c a93b f41e 0abe 4c32 ae3b
00000080: c50d 0a3e e447 36be f219 f83d 13ba ebbd
00000090: 23c8 7ebe 6b23 f13d 94a3 0ebd eb60 1ebe
000000a0: e5c8 6b3d e501 0e3d 2ea5 38be 5495 123e
000000b0: 6012 15be aa37 3f3a 4017 bc3d f65b 463e
000000c0: 5896 483d 51ad 25be 462f 00be 1f80 903d
000000d0: f4ac 20be 1bd0 26be 07cd 36be 025c a9bd
000000e0: ebf4 d13d 4cef 77bd f3c6 32bd 948e 0cbe
000000f0: 1ce2 323e 9e75 7ebe ed07 4c3d 14bd 0ebd
00000100: c316 283e d54e ce3d e889 fdbd 8a3c 36be
00000110: eb8b 85bd 620d 1e3d 81c9 dd3d 48cd 86be
00000120: 3a32 bc3d e5c4 1fbe 98ae f83c bf82 51bd
00000130: 9963 89bd 69af 98bd 2a22 53be e512 0ebe
00000140: 9b4b 063e f7e5 67be c332 a43d 4e5e 9fbd
00000150: 97a2 0bbd c357 643d 9970 afbc a78d 36be
00000160: 9cf8 a53d 5d3d f83a 3160 c4bd 4282 79bc
00000170: e3a0 83be c96c 21be 19e3 1cbe f48e 12be
00000180: f458 ef3d fa54 08be 1238 e1bd 3e6c 9fbd
00000190: f813 35be f09c 4ebd 8655 703d 358c 84bd
000001a0: 32d0 41bd aff9 9c3d 3073 113e 31da 9fbd
000001b0: 9b3d 48bb dbbf 6ebd 69b1 b03d 0035 6fbd
000001c0: d1e6 90bd 4e50 243e 018d 0dbd ebf0 c1bb
000001d0: fb13 3a3c 0575 953d e567 24be aa88 8a3d
000001e0: fd11 4bbe 2410 50bd 069c 31be 41de 74be
000001f0: 3a10 7cbc 61ea 853e 29c9 64bd 41dd a3bc
00000200: 3f3b cb3c 1e6b 383e c3ef 63bd bc46 a7bd
00000210: 81db 9abe 1da7 24be ebbe 1cbc 0be3 23bc
00000220: 1bb6 c43d dc74 393d 5220 e8bc d5c3 1ebd
00000230: 4da2 8f3d 59d2 043e d8de 6abd 6419 23be
00000240: 44b6 42bd e554 e83c 1eb0 32be ffd4 a13d
00000250: c926 cbbd 5344 a73d d72b 683e 6ce8 163e
00000260: 27e0 f2bc a6b4 1e3e c49f f2ba d148 40be
00000270: 7523 20be 283c 173e 575b 83be 25db 15be
00000280: 1904 963d 99ff fdbd e3c1 8a3d ed9b 39be
00000290: 87e5 2fbe c900 96bd 8fa9 f73c 4a62 42bd
000002a0: c7b0 f03d 7808 92be 1a51 ae3d 6ff0 47bd
000002b0: a147 43be 6b20 9abd bc4d a7bc 0f2c 893c
000002c0: c739 6dbd 07fd 1a3e 69e0 203d c7cb 24be
000002d0: b7a4 6ebc 10c0 84bd e2cc 2ebe 0d64 9a3c
000002e0: 31d4 003e 6725 ab3c b8ab 563d 72e6 cf3d
000002f0: 22df 87bd 354a 5cbe b643 c43c 6ad3 f7bd
00000300: 327a f03d a96d b03d 2518 d6bd 773c e13d
00000310: 956e 85bc d4fe 91be 2dde 09bc 832e 2e3e
00000320: 9533 833b 308c 02bc 3861 dbbd bf3d 04bd
00000330: e4cc 223b 189c 54be c772 e2bc 9f82 b2bd
00000340: a0ae 75bd 3ffd 1cbe 0156 cc3d 4603 0f3e
00000350: 817f 0ebe fe1d 3ebe 4065 84bd e044 463e
00000360: a26d 453d 9de8 0c3e 8ad0 853c 6ad9 0a3e
00000370: a99d 96bc bfa5 183e 9c68 bd3c 9c0c 15be
00000380: 7402 1bbd c1c6 d2bc 2318 a4bd 21b0 893d
00000390: 5bb5 acbd d946 48bd 57cc 5abd 614d 4f3d
000003a0: 9b4a efbd 5d4c 5a3c 3b54 1a3c 7f06 fcbd
000003b0: d828 cabd 5bfa 463d 972f 5c3e 5185 7dbe
000003c0: 43c8 00be 13f2 c73d 9b84 8b3b e5a7 80be
000003d0: 36c6 e23c f5e4 2d3e 7be5 943d f841 403e
000003e0: 7666 1ebe e5c8 56bd af1f 18be 5a8a 8b3d
000003f0: d1ad a8bd 22ed c5bd 311e 243e 7289 e5bd
0.0076875025 0.16484995 -0.105744585 0.10898206 0.00638342 -0.1362657 -0.24551648 -0.2646293
-0.08677278 0.110900566 -0.10296845 0.11448544 0.0034480453 0.13975398 -0.015794324 0.0061711385
-0.08307943 0.14851628 -0.21200062 0.053172003 -0.017326782 -0.024652442 -0.0929095 -0.07769564
0.13268471 -0.14460558 -0.19643766 -0.12200469 -0.05118923 0.00517046 -0.1348837 0.0053160544
0.13481815 -0.17800862 0.12114324 -0.115101 -0.24881034 0.117743336 -0.03482397 -0.15466659
0.057564635 0.034669776 -0.18031761 0.14314777 -0.14557791 0.00072943664 0.09184122 0.19371018
0.048971504 -0.16179396 -0.12518033 0.07055687 -0.15690976 -0.16290323 -0.17851649 -0.08269502
0.102517925 -0.060530946 -0.043646764 -0.13726264 0.17469066 -0.24849555 0.049812246 -0.034848288
0.16414933 0.1007363 -0.12379819 -0.17796531 -0.06520828 0.03858698 0.108294494 -0.26328492
0.091892675 -0.15602453 0.03035669 -0.05115008 -0.0670845 -0.07455332 -0.20618501 -0.13874395
0.13114779 -0.22646318 0.080174945 -0.07781659 -0.034090605 0.05574776 -0.021415995 -0.17827474
0.08104059 0.0018939186 -0.095886596 -0.01522881 -0.25708684 -0.15764154 -0.15321006 -0.14312345
0.11686888 -0.13313666 -0.10997023 -0.077843174 -0.17683399 -0.050442636 0.05867531 -0.06472055
-0.04731769 0.07664811 0.14204097 -0.078052886 -0.0030554298 -0.058288436 0.08627588 -0.058400154
-0.07075275 0.16046259 -0.0345583 -0.0059186122 0.011357303 0.0729771 -0.16055258 0.06764348
-0.1983108 -0.050796643 -0.17344674 -0.23912908 -0.015384728 0.2615538 -0.055855904 -0.020002963
0.024808524 0.18009612 -0.055648576 -0.081677884 -0.30245593 -0.16079374 -0.009567003 -0.010002862
0.09605046 0.04527746 -0.028335724 -0.03876098 0.07013378 0.12970866 -0.057341427 -0.15927655
-0.047537103 0.028360793 -0.17449996 0.07901954 -0.09919507 0.08167329 0.22672974 0.147371
-0.0296479 0.154986 -0.0018510749 -0.18777777 -0.15638526 0.14769042 -0.25655624 -0.14634378
0.07325 -0.12402267 0.06775262 -0.18125887 -0.17177401 -0.073243685 0.030232219 -0.047457017
0.117524676 -0.28522086 0.08511563 -0.04881328 -0.19070293 -0.075257145 -0.020422809 0.016744642
-0.05791643 0.15135585 0.039276514 -0.1609336 -0.014565638 -0.064819455 -0.17070344 0.018846536
0.12580945 0.020891858 0.052409858 0.10151376 -0.06634356 -0.21512683 0.023958068 -0.12100871
0.11742057 0.08614666 -0.10453824 0.10997861 -0.016288081 -0.2851473 -0.008414787 0.1700993
0.004003952 -0.007967994 -0.107119024 -0.03228545 0.0024841363 -0.2076267 -0.02764262 -0.0871632
-0.05998099 -0.1533098 0.099773414 0.13966092 -0.13915826 -0.18566129 -0.064646244 0.19362211
0.048200257 0.1376061 0.01633479 0.135595 -0.018385725 0.14906977 0.02312117 -0.14555591
-0.037844136 -0.025729539 -0.08012416 0.06723047 -0.08433028 -0.04889569 -0.05341753 0.050610904
-0.11684152 0.0133238705 0.009419496 -0.123059265 -0.098710716 0.0485786 0.21502529 -0.24757887
-0.12576394 0.09762969 0.004257751 -0.25128093 0.027682405 0.16981871 0.072703324 0.18775165
-0.15468773 -0.05243768 -0.14855836 0.06813498 -0.08236278 -0.0966437 0.16027142 -0.11207856

fc3.bias f4 [10]
00000000: 1668 203d 6cdf 2b3d e8d4 15bd bf74 d6bd
00000010: c6c1 48bd 6f4d 8b3d fba7 9c3c b8e2 94bd
00000020: 0643 213d bcef 8b3d
0.039161764 0.04196112 -0.036579996 -0.10471486 -0.04901292 0.06801879 0.019123068 -0.07269806
0.03937056 0.06832835
