models/BasicNet Ensemble-5model-0.pt (torch, 180551 bytes, 10 tensors)

conv1.weight f4 [6, 1, 5, 5]
00000000: b26d 3f3e ab07 b63d eb68 97bd ed3c 6cbd
00000010: 425d 84be 4140 cdbe 5fe4 bdbe 6065 083e
00000020: e6e6 263d 3602 8d3e df81 73be 706e 813e
00000030: ae60 0f3e 5b17 503e 05b3 6d3e 57f3 9e3e
00000040: 284e 4a3e 2d98 463e 235d 31be d2a0 07be
00000050: 36aa 03be bc86 c9bd 6a10 86be e9b4 b6be
00000060: 2161 c3bc 313e 623e b9ad fdbd 038f 143e
00000070: b162 93bd f2d3 853c 7f04 383e 5df4 393e
00000080: 0c41 8ebc 652c 843e 5e44 42be df0f 32bc
00000090: f256 cf3d e9d6 d13c f8db 8a3e 60da ccbd
000000a0: c56d 10be a3ed fb3d c490 0abe aa3b e83d
000000b0: 01e8 023e 7fa9 94bd b834 0b3e bb86 bc3d
000000c0: 437b 4fbc 904f bf3d 8650 14bd 8573 bc3d
000000d0: 4900 8f3e bcb9 06bd 4959 113e 9659 673e
000000e0: 21d4 2e3e 9ab0 323e 3caa 283e ab3d 323e
000000f0: 7ce2 3a3d 7470 903d f2fb 283e cad3 413e
00000100: 5149 3a3e 9595 84be dca1 613d 6085 19be
00000110: 7166 7ebe 5432 bbbe 411d 97bd e922 bdbe
00000120: 1c45 dabe a695 a3be 60f8 7bbe 5ff8 f2bd
00000130: f432 df3c 2292 ddbc 593a 7dbe 5c84 0ebe
00000140: f905 df3c b3e4 a03d a2d2 ce3d fce4 64be
00000150: 4354 81be 2ba3 e43d f2c1 603e 9bd4 b33e
00000160: 4449 d43e 5efe 41bd b876 9abe 78a5 d23d
00000170: bb6e ed3d 3f66 713e 0429 e2bd 704b a2be
00000180: d7de 49be 72c0 a6be 9a67 063e 9ef7 bc3d
00000190: c183 72be 4aed 393e 6408 853d 19fd 03ba
000001a0: 7057 fc3d 6cb8 edbd a5bd c23d 77b0 dd3d
000001b0: 1de1 bf3d 25c9 91bd 3325 41be f729 703e
000001c0: e7b7 bb3e ca27 0f3d 8da9 efbe 4e39 1b3d
000001d0: 6710 153e 1431 023e a181 a5bd 0b07 cebe
000001e0: cb8d bdbd f62b 793e 1369 c03d 3f93 18bc
000001f0: 59d5 86be c239 5fbd bf83 82bd 9436 bcbe
00000200: 191a 3ebd 318c 75be c1da 5dbc ad6b 0fbe
00000210: 3ff3 08be 73ab 9bbe 8849 6abe 728b b83d
00000220: 9cff 11be 8679 afbc bd1f b9bd 4561 7a3e
00000230: 95b8 4b3e ee45 223e 869f 083e 91c7 943e
00000240: f2e5 2d3e caf5 fb3d 832d 31bd 097e 853e
00000250: dce0 403e fc57 653d
0.18694189 0.08888181 -0.073930584 -0.05767529 -0.258524 -0.40088084 -0.37088296 0.13319921
0.040747546 0.2754075 -0.2378001 0.2527957 0.14001724 0.2032141 0.23212822 0.3104503
0.19756377 0.19393988 -0.17320685 -0.13244942 -0.12857899 -0.09840152 -0.26184398 -0.35684898
-0.023850026 0.22094037 -0.123866506 0.1450768 -0.07196558 0.016336415 0.17970465 0.18159623
-0.017365001 0.2581512 -0.18971393 -0.010868042 0.101240054 0.025615172 0.27120948 -0.10002589
-0.14104374 0.12301185 -0.13531786 0.11339505 0.12783815 -0.07258891 0.1359433 0.09205385
-0.012663665 0.09341347 -0.036209606 0.09201721 0.27929905 -0.032891974 0.14194216 0.22592768
0.17073108 0.1745018 0.1647119 0.17406337 0.04562615 0.07052699 0.1650236 0.18928447
0.1819203 -0.25895372 0.055086 -0.14992285 -0.24843766 -0.36561835 -0.073786266 -0.36940697
-0.4263085 -0.3195011 -0.24606466 -0.11863779 0.027245976 -0.02704722 -0.24729289 -0.13917679
0.027224528 0.07856121 0.10098769 -0.22352976 -0.252596 0.11163934 0.21948984 0.35123143
0.41462147 -0.047361724 -0.301687 0.10285467 0.11593386 0.2357416 -0.11042979 -0.3169818
-0.19713913 -0.325687 0.13125458 0.09226917 -0.23683073 0.18156925 0.06495741 -0.0005034968
0.12321365 -0.11607441 0.09508828 0.108246736 0.09369109 -0.071184434 -0.18861847 0.23453508
0.36663744 0.034950055 -0.46809044 0.037896447 0.14557038 0.12714034 -0.080813654 -0.40239748
-0.092555605 0.24333176 0.09395041 -0.00931245 -0.26334646 -0.05449844 -0.06372785 -0.3676039
-0.046411607 -0.2397926 -0.0135409245 -0.14005919 -0.13374041 -0.30404243 -0.22879612 0.09010972
-0.14257663 -0.021420252 -0.09039257 0.24451168 0.19894631 0.15846989 0.13342103 0.29058507
0.16982248 0.1230274 -0.043256294 0.2607272 0.18835777 0.05599211

conv1.bias f4 [6]
00000000: 00c8 f9bd 3ecc 4bbe d7f0 003e 0172 08be
00000010: 5f32 09be 2d51 ed3d
-0.1219635 -0.19902131 0.12591873 -0.13324739 -0.13398121 0.11587749

conv2.weight f4 [16, 6, 5, 5]
00000000: 1e56 b1bd e521 c53d 7840 d53d ee76 fb3d
00000010: f64f 38bd 66ec 393e e976 b63d e0ec 9abe
00000020: bde7 953b f9eb 043c 4609 72bc 745c 0c3e
00000030: e830 93bd 08a4 67bc 8f11 033e 1cf2 7dbe
00000040: a201 8ebd dc1c 863c c118 e0bd 76f3 d63d
00000050: 22a7 f33b cbf7 cebd 8ed4 313d d4ad d4bd
00000060: 0696 343d d517 a03d 98cd 6b3d 7c78 bb3d
00000070: 3d17 813c 445f 2fbd 1a6e 373d c0e1 253e
00000080: fa84 1c3d aa68 e13c a25d 57bd 5882 433d
00000090: f65b b03d baad 093e 58ce 1a3c 5977 3cbd
000000a0: b89f c3bd cd58 e8bc 17a0 0a3e 6a85 303e
000000b0: 8887 bebc 58d9 e2bc 33cb 57be 6ec9 bb3d
000000c0: c381 b03d 2ae0 2e3d 8afd 69bd 0055 60be
000000d0: 9072 8dbd 7671 263e db7c a53d eb3a a4bc
000000e0: c366 b6be b2c1 7cbe 0d6b 86bd bd75 863d
000000f0: 8d51 2c3e 4331 17be fb35 acbe 4ab1 05be
00000100: 5d40 533d 7056 80bd fdc5 b5bd c538 10be
00000110: eb70 6bbe 3f81 14be ddd2 6dbe 05bf 3abe
00000120: b781 36bd 65ab 15be 85a9 acbd aabf b5bb
00000130: e071 fab5 39fd 733d 655a 8abd 7edc 533d
00000140: 752b f7bd 758d 363d 2964 183e 4ec9 083e
00000150: 4590 6c3d 1eae 29be c8a3 123e cdb3 a33e
00000160: 3804 593e 20e9 e73d bd56 0cbe 6ff3 98bd
00000170: ebbe e63d 2f0b 7d3e 7e0a c2bd 7301 d83d
00000180: ed02 ccbd 59a0 a23d bb56 003e 4f35 3ebc
00000190: 7f6c d13c 6d9c 1c3e 8689 153e 06c3 6bbd
000001a0: e3d0 11bd b851 cabc 2712 1a3e e9d3 253e
000001b0: 51d1 b63d 5d31 94bd 054a a0bd 9a7c a7be
000001c0: deec f13d 86df 353e e82f e3bd 812f 1a3c
000001d0: 4c57 4cbe 6539 133d 378e 8b3e 0214 803a
000001e0: 10ee 913c a052 a8bd 69b8 4fbd 4255 1e3e
000001f0: d90e 553d 7627 323d 56ba 85bd a108 ce3c
00000200: f306 493d c84f 503c 6ccc b2bd 94a5 a0bd
00000210: d318 ee3c ebcf dcbb 77a2 02bd 3dbe bdbe
00000220: 5a96 55be 7846 ddbc c3de ff3d 4e07 2b3d
00000230: 0a60 86bd cfd5 21be a483 04be 9d49 0d3d
00000240: 00da 2abd 4bcb c93d c29d 103c 5534 01bc
00000250: 66cd 1abd 52f2 96ba c13a 3a3d 6304 353d
00000260: a937 5a3d 1fdd a23d 58e9 f83d 52f0 80bc
00000270: d47d 7dbc d8f9 10bc 78d6 b33c fda7 a7bc
00000280: 89b2 afbc 8166 0abe d4ed eabc 11ea e03c
00000290: 88d3 f1bd fe5d 13be 6862 91bd 7f22 f7bc
000002a0: e38b 103d cbf0 823d 5de4 303d 7940 cdbd
000002b0: a2c1 6dbd 6cb8 f23c 4c3f 103e d834 b9bd
000002c0: 59cb 9a3d 8e38 4bba e98f b63d 250d 0bbd
000002d0: 6c16 213d 5f93 44bd e0bc 95bd 42b1 c33d
000002e0: 76c4 27bd 86b3 b03c f06e 013e b43b c53c
000002f0: 2f71 143e 5111 ac3d f8af a5be 17f0 6dbe
00000300: 795b 81bd 1b34 c1bd e566 be3d 66e3 01be
00000310: 5303 a1bd a36c fbbd 6857 b7bd 0c1c 09be
00000320: 05db 88bd 767f abbc 07cd 09bd 0ccd 96bd
00000330: 83ad 07bc 5503 2a3d 4b21 a1bd 1a24 06be
00000340: 9838 5bbe 85e1 55bd 8e51 b93d a996 2abc
00000350: b47f 893d 40d8 bf3d e7ab 943d 71f1 13bc
00000360: 2719 87bd f479 d8bc 17a4 053e 1ca0 a13e
00000370: 4b74 dabc 2dad eabb e765 8c3d f3c8 cabc
00000380: f5cb 023e 4f5a b83d efb8 83bc 8bf1 2dbd
00000390: eb00 da3d 0163 63be 921c 1b3e a72d e83d
000003a0: 7fbb 5abc 7af8 de3d 0cbb e73c 0392 25bd
000003b0: 4180 e03c 55cb 033e 8e54 643e 8164 ac3d
000003c0: dcf1 0abd 3125 90be 144c a7be 69c9 57be
000003d0: 40d2 89bc 90e5 53bd 2b3c 38bd 842d 653d
000003e0: f7fb 9fbd 5c0a 60be c223 2e3e 81b7 c63d
000003f0: dafc 693c 7553 303d 2cec 96bc 5291 fcbd
-0.08659004 0.096256055 0.10412687 0.122785434 -0.04499813 0.18156585 0.08909399 -0.30258846
0.0045747445 0.008112901 -0.014772719 0.13707143 -0.071870625 -0.014138229 0.12799667 -0.24799389
-0.06933905 0.016371183 -0.109422214 0.10495655 0.0074356953 -0.101058565 0.0434156 -0.103847176
0.044088386 0.078170456 0.057569116 0.0915384 0.015758151 -0.04281546 0.044782735 0.16199398
0.038212754 0.027515728 -0.05257953 0.047731727 0.0861129 0.13445178 0.00944861 -0.046012256
-0.09551948 -0.028362656 0.13537632 0.17238393 -0.023257986 -0.027691528 -0.21073608 0.09169279
0.086185 0.04269425 -0.05712656 -0.21907425 -0.06906617 0.1625422 0.08080455 -0.020047626
-0.35625276 -0.24683264 -0.06563387 0.065654255 0.16827984 -0.14764886 -0.33634934 -0.13055912
0.051575053 -0.06266487 -0.08875654 -0.14084156 -0.22992294 -0.14502428 -0.23224969 -0.1823693
-0.0445573 -0.14616163 -0.08430771 -0.00554653 -1.8659593e-06 0.059567664 -0.06755523 0.05172395
-0.12068836 0.044568498 0.14881958 0.13358042 0.057754774 -0.16570327 0.1432029 0.31973115
0.21193016 0.11323762 -0.13704963 -0.07468306 0.112668835 0.24711297 -0.094746575 0.105471514
-0.099614955 0.0794074 0.12533085 -0.011609389 0.02556443 0.15294047 0.14603242 -0.057559036
-0.0355996 -0.02469717 0.15045987 0.16194119 0.08926643 -0.07235978 -0.07826618 -0.3271225
0.11812757 0.17761049 -0.11093122 0.00941074 -0.19955176 0.035943408 0.2725694 0.0009771588
0.017813712 -0.082188845 -0.050712977 0.15462211 0.052016113 0.043494664 -0.065296814 0.025150599
0.049078893 0.012714334 -0.08730397 -0.078440815 0.029064571 -0.006738653 -0.03189322 -0.37059203
-0.20858136 -0.027011141 0.1249366 0.041755013 -0.06561287 -0.15804218 -0.12940842 0.03449403
-0.041711807 0.09853228 0.008826675 -0.007886012 -0.03779354 -0.0011516309 0.04546619 0.044193637
0.053275738 0.07952332 0.12153882 -0.015739594 -0.015471894 -0.00884863 0.021952853 -0.020465845
-0.021447437 -0.13515665 -0.028677858 0.027455362 -0.118079245 -0.14391324 -0.07098848 -0.030167816
0.035289656 0.06393584 0.043186534 -0.10022063 -0.05804599 0.029628955 0.14086646 -0.09043282
0.07558317 -0.0007752263 0.089141674 -0.033948082 0.039328024 -0.047992107 -0.07311416 0.095552936
-0.040958844 0.021569978 0.12639976 0.02407632 0.14496301 0.0840174 -0.32360816 -0.23236118
-0.06316275 -0.094337665 0.09296969 -0.12684402 -0.07861962 -0.1227658 -0.08952218 -0.13389605
-0.066824 -0.020934802 -0.033642795 -0.07363328 -0.0082811145 0.041507084 -0.07867678 -0.13099709
-0.21408308 -0.052217025 0.090487584 -0.010411897 0.067138106 0.09367418 0.0725935 -0.009029732
-0.06596594 -0.02642534 0.13050877 0.31567466 -0.026666781 -0.0071617574 0.06855374 -0.024754023
0.12773116 0.090016 -0.016079394 -0.04246668 0.10644706 -0.22205736 0.15147617 0.113368325
-0.013350367 0.10887237 0.028287433 -0.04042245 0.027404906 0.12870534 0.2229788 0.08417607
-0.03392206 -0.28153375 -0.3267523 -0.21072926 -0.016823888 -0.0517326 -0.044979256 0.05595161
-0.0781173 -0.21878952 0.17005828 0.09702969 0.014281476 0.04304834 -0.018423162 -0.12332405

conv2.bias f4 [16]
00000000: 5ce9 373c 613c 893c 4afb b4bd 595c 22bd
00000010: 18a5 c5bd b81e 99bd eb10 a13d eb1d 9cbc
00000020: fef9 aabd 8108 a03c b639 ffbd 9798 87bb
00000030: ad51 3ebe 3cc2 9b3b 3051 41be 6e5a 18be
0.011225071 0.016752424 -0.08836992 -0.03963885 -0.0965063 -0.07476562 0.07864555 -0.019057235
-0.083484635 0.019535305 -0.12462179 -0.004138063 -0.18585844 0.004753379 -0.18878627 -0.14878246

fc1.weight f4 [120, 256]
00000000: 406c a5bd 213b a5bc 787d a03c b844 dbbd
00000010: 75ca ac3d 53c4 0ebc d08d 273d 7751 8e3c
00000020: 1844 2b3c 939e 27be 6daa e03c b8e9 c5bd
00000030: ad2b b5bd 3664 5ebb 3d6e 473d 5687 553e
00000040: d7a1 1dbe 1c56 a9bd eaf2 3fbd ea82 aabd
00000050: 2236 bd3d 46f5 c43d 666e 5fbc 9abf 13bd
00000060: 7d5c 403d 96d8 013d cf1f 613b d186 73bd
00000070: d6b7 8b3a 9ced df3d 70fe dd3d a843 813e
00000080: c824 75be acf6 65bd 5a40 c93d 5da6 e2bb
00000090: c6fa 21be 2fea 3c3d faad 06bd e5b9 a13d
000000a0: e6a6 1f3d f501 40bd b45f 67be 71dd 47bd
000000b0: 8d6e 5c3d 0d46 c2bd 4caa eabc aca4 2d3d
000000c0: 6c8f 173e d23c 063d 1685 3e3e 7ca7 17be
000000d0: aa1e 8abe dcfe 6abd 929b 703d 9924 9bbd
000000e0: aa75 6bbd 3648 5f3d bb65 073e 10c4 1b3c
000000f0: 3dc5 203d 4eaf 953d d86f e03d dc3b 53bd
00000100: 9d61 92bd 84f5 ab3d 2bbd e83b 9f53 88bd
00000110: 09f6 89bd ea6b e6bb 29e4 95bd 8ca6 093e
00000120: 2653 abbc e280 bbbd 1a6f 683b 87a7 ef3d
00000130: 3604 b4bd efa7 bfbd 6515 b5bd 9636 c93d
00000140: d5d7 433d 9319 333e 8435 803d 63b1 22bd
00000150: e3b2 12bd fb4f 943d 81b1 ccbd e426 c9bd
00000160: 1f25 bfbb e84f 243d 1d82 9bbd 7eb4 6fbe
00000170: 1dd9 f63c f580 e53d eef1 e1bd 90c8 aebd
00000180: 7a45 033e fb4b 3b3e 4caa 363e abf4 57be
00000190: e384 3fbe c853 11bc 5d3c 443d f4be 463e
000001a0: b06a bfbd e71e 5e3c da4b 383e c432 a6bc
000001b0: eb3b e83d 0a8e d73d ee3d e23d 2635 7cba
000001c0: 32e1 d73d b8cd 853d d2b1 1a3d 0b5c 80bd
000001d0: b279 a23d 9f1e 253d 96b2 923a 28fc 38bc
000001e0: ec7e 2c3e f331 e1bd 98ee cf3d 05f9 0ebe
000001f0: 46c9 0fbe 7faa 5cbc 14c1 9b3d 4981 c03d
00000200: 2992 223d 994f 013d 38fb b93d 1212 45bd
00000210: c04b eabc 333b abbd af89 a53d 30ee b0bd
00000220: 56da 5fbe f61f 6dbd 6418 a73d da86 a9bd
00000230: 030e 96bd 6099 023e a218 1dbd 3823 dfbd
00000240: 4e07 a1bd 5906 02be 830c b63c ece2 133e
00000250: bf01 b7bd 3234 f6bd 5f9c 57be aaec 34bd
00000260: 1919 d93c 36ef e83d 4447 353c 9309 05be
00000270: e4f1 2f3e 10b3 513d 49dc 49bd 70fd 4c3e
00000280: 272f 54bd 6faf c8bc e261 f13d 157b 863d
00000290: 4278 f83a 58ea dabc c6f4 a1ba 45b4 5d3d
000002a0: 11db 993d 82d6 56bd e6b2 35be fabb 08bd
000002b0: f00b 00be 7bdf ecbc defa debd 3278 0f3d
000002c0: dda5 17bd 7455 2e3e df8e 15bc 7c31 75bd
000002d0: 029d b8bd 55dc a73d 40d2 85bc b9c2 5bbe
000002e0: 8080 d53c 85cb c23c e7cb c7bd 5853 febd
000002f0: 5719 4d3e 3cee b73d db86 36bc ee0b 0bbe
00000300: aaea f33d 5ae8 c83d d2c5 e73c 8382 c5bd
00000310: 6458 d0bd ed65 0e3e dde3 8f3d 00cf 44be
00000320: 9a25 7bbd 7afe 243d e6e4 f83c 70d3 bcbd
00000330: 4ede 0cbd 5162 7dbc 6968 12be aa2d 0cbe
00000340: ab44 3f3c cf9c 0cbe e936 07be 9343 71be
00000350: 9fd5 70bc f768 063b 4bd7 6d3b 128a 5fbe
00000360: f5ca c23b 7fac 7a3c 5188 003d 0a26 423e
00000370: 0f15 1abe 403b f83c f609 1c3e b083 1b3e
00000380: 122f 01be 4822 083e a3b8 0a3d 38b0 0bbe
00000390: 6f29 06be e750 b23d 90d8 d13c 8ee2 4fbd
000003a0: c9be 7dbd d96a 2cbd d1df b0bd 8736 51be
000003b0: 389a 36bd bdd2 cbbd 20bd a3bd 6b59 a13c
000003c0: afd2 aabd 8404 be3d 94d5 0fbd 0755 33bc
000003d0: 2a5c 9e3b bdf5 683d 4fbf bebd 7a10 76be
000003e0: 53fb 90bd 8aec 093e ce70 4bbc 2817 17be
000003f0: 62f1 5f3d 824a 11bc a23e a53d 540d 2c3d
-0.08077288 -0.020169796 0.019591078 -0.107064664 0.08437053 -0.0087137995 0.040906727 0.01737283
0.0104532465 -0.16369085 0.027425015 -0.09663719 -0.08846221 -0.0033934242 0.048689116 0.20852408
-0.15393768 -0.08268377 -0.04686252 -0.08325751 0.09238841 0.09617095 -0.013637161 -0.036071397
0.046963204 0.031700693 0.0034351235 -0.059454743 0.0010659646 0.10933992 0.10839546 0.2524693
-0.23939812 -0.056143448 0.09826727 -0.0069168047 -0.15818319 0.046121772 -0.03288076 0.07896785
0.038977526 -0.046876866 -0.22595102 -0.048795167 0.053816367 -0.094860174 -0.028645657 0.04239337
0.14800805 0.032772847 0.18605456 -0.14809984 -0.2697652 -0.05737196 0.058742113 -0.0757534
-0.05748526 0.054512225 0.13222401 0.009507194 0.0392506 0.07308827 0.109588325 -0.05157076
-0.071475245 0.08396438 0.0071026287 -0.066565745 -0.067363806 -0.0070319073 -0.07318909 0.13442439
-0.020913672 -0.09155442 0.0035466612 0.11701875 -0.08789866 -0.09358203 -0.08841971 0.098248646
0.047813255 0.17490225 0.06260207 -0.03971995 -0.03581513 0.072418176 -0.09994794 -0.09821871
-0.0058332826 0.040115267 -0.075931765 -0.23408696 0.030132825 0.11206237 -0.110324726 -0.08534348
0.12819472 0.18290703 0.178384 -0.21089427 -0.18703036 -0.008870073 0.04790913 0.1940878
-0.09346521 0.013557172 0.17997685 -0.020287879 0.113395534 0.10525139 0.110469684 -0.0009620957
0.105409995 0.06533378 0.03776724 -0.06267556 0.07933368 0.040312406 0.0011192139 -0.0112905875
0.16845292 -0.10995855 0.1015293 -0.13962181 -0.14041623 -0.013468384 0.07605186 0.09399659
0.03969017 0.03157005 0.09081119 -0.048112936 -0.028600574 -0.08360901 0.08082902 -0.08639181
-0.21860632 -0.05789181 0.08158949 -0.08277674 -0.07326891 0.1275382 -0.03835357 -0.10895389
-0.078627214 -0.12697734 0.022222763 0.14442033 -0.0893588 -0.12021674 -0.21055745 -0.044171013
0.026501225 0.11373751 0.011064354 -0.12991934 0.17182118 0.051196158 -0.049282346 0.20018554
-0.05180278 -0.024497716 0.11786248 0.06566445 0.0018956738 -0.026723072 -0.0012356273 0.054126997
0.07512487 -0.052450664 -0.17744026 -0.033382393 -0.12504554 -0.028915158 -0.10887693 0.035026737
-0.037023414 0.17024785 -0.009128301 -0.059861645 -0.09014322 0.08196322 -0.016335607 -0.21461
0.02606225 0.023778686 -0.09755688 -0.1241824 0.20029198 0.089809865 -0.0111405505 -0.1357877
0.11909993 0.098099425 0.02829257 -0.09644034 -0.10173109 0.13906069 0.07025883 -0.19219589
-0.061315157 0.04028175 0.030382585 -0.09220016 -0.034391694 -0.015465335 -0.14297642 -0.13689294
0.011674087 -0.13731693 -0.1320454 -0.23560934 -0.014699369 0.0020509341 0.0036291655 -0.21830013
0.0059446045 0.015299915 0.03138 0.18959823 -0.15047096 0.03030169 0.15238175 0.15186954
-0.12615612 0.13294327 0.03386749 -0.13641441 -0.13101743 0.08706837 0.02561596 -0.05075317
-0.061949525 -0.042094085 -0.086364396 -0.20430957 -0.04458067 -0.099523045 -0.07995057 0.019695958
-0.08340966 0.09278205 -0.035115793 -0.010945565 0.004832764 0.05687498 -0.09313833 -0.24029723
-0.07079186 0.13469139 -0.012417031 -0.14754927 0.05467356 -0.008867862 0.08068587 0.0420049

fc1.bias f4 [120]
00000000: d420 a13c 1bc4 4fbc 8c60 b1bd e5f9 a7bc
00000010: f4ce 44bd 4eaf 993c 08fe 953d caf9 973d
00000020: d96f 333d db77 c03b 914c 42bd 5858 25bd
00000030: 1654 81bc 6c01 f0ba 36b4 21bc 4d70 9c3d
00000040: 2c73 533d faa7 bf3a ab44 acbd 0ea4 00bd
00000050: c6f2 2d3d 30c8 ecbd 46bd 2ebc 831c 56bd
00000060: 3d69 40bd 6d76 153d 49b6 313d 8f9a 523d
00000070: 76bb 073d a1fb ab3d 3f58 29bd c7d6 05bc
00000080: fa15 a8bd 8af5 3a3d 5725 babd 9a3e 30ba
00000090: c1b9 dc3d 358d cb3c 12f7 79bd b4b3 823d
000000a0: c04f 203d 9cfd 6fbd b668 eabc 8ff5 59bd
000000b0: ed99 f2bc ba35 9abd 0501 333d d78d 57bd
000000c0: ff91 253d 025c 563c 10ee 493c 1fec 87bd
000000d0: 1c2d 0c3e 34ad d13d d6d7 19bd d601 63bc
000000e0: b234 aa3c b15a 8dbc c04b 513d 48c8 fbbd
000000f0: 1f90 babd 598a 733c bc20 b1bd f3ac f4bd
00000100: e146 d9bc 6aeb 2e3d d339 21bd cdb6 ca3c
00000110: fb5d ffbc c28c 013d ed10 f0bc da4d b4bd
00000120: b9c2 e7ba b2ff 3dbc ca43 403d 28d3 dfbc
00000130: 1aff 05bd 1232 b93d facf 363d e9f7 dabb
00000140: c619 3abd 462b 17bd 1108 8d3d c597 823d
00000150: cd98 a23c b347 adbc d217 febd b59f 5f3d
00000160: d31e dcbc a24d 89bb af22 afbd 0437 363d
00000170: 735b 54bd d7cb 26bd 4e17 acbd 6b07 efbc
00000180: 04c2 503d 98a5 ae3d 5792 b13d 857b 92bd
00000190: 0f0f 493d d2ca 53ba bfb2 863c 9883 5cbd
000001a0: 3541 a43c 31e6 73bd bdff 92bd 88e2 c0b7
000001b0: 8d27 aebd 8cb5 27bd 196e a2bd 7e38 58bc
000001c0: 0c84 9e3c 6588 57bc d81b aa3d f44b 913d
000001d0: 4f5d 1abd baf4 d1bc 8a1a 803d a513 cebc
0.019668974 -0.0126810325 -0.08660993 -0.020504901 -0.04804893 0.01876035 0.07323843 0.0742069
0.043807838 0.005873663 -0.0474363 -0.040367454 -0.015787166 -0.0018310971 -0.009869626 0.07638607
0.05162351 0.0014622204 -0.08411535 -0.031406455 0.042467855 -0.1156162 -0.0106652435 -0.052273285
-0.046975363 0.036489893 0.04338673 0.05141693 0.03313776 0.08397604 -0.041343924 -0.008168883
-0.08207317 0.04564432 -0.09089153 -0.00067231955 0.10777617 0.024847606 -0.06102664 0.06381932
0.039138556 -0.05859147 -0.028614383 -0.0532127 -0.029614413 -0.07529779 0.043702144 -0.052625503
0.040422436 0.01308346 0.012324825 -0.066368334 0.13689083 0.10238114 -0.037559353 -0.013855418
0.02077708 -0.01725516 0.05109763 -0.1229406 -0.0910952 0.014864528 -0.08648822 -0.1194705
-0.026523056 0.042704977 -0.039361786 0.02474537 -0.031172743 0.031628378 -0.029304946 -0.088039115
-0.0017681933 -0.011596607 0.04693965 -0.027322367 -0.032713987 0.09042753 0.044631936 -0.006682385
-0.045434736 -0.036906503 0.06886304 0.06376604 0.019848252 -0.021152353 -0.12406887 0.054595668
-0.026870167 -0.0041901628 -0.08551537 0.04448606 -0.051845025 -0.04072174 -0.084028825 -0.029178342
0.050966278 0.08527678 0.0867049 -0.07152466 0.049086627 -0.0008079234 0.016442655 -0.053836435
0.020050624 -0.0595457 -0.071776845 -2.299367e-05 -0.085036375 -0.04094462 -0.07931156 -0.013197063
0.019350074 -0.013155078 0.08306092 0.07094565 -0.037686642 -0.02562939 0.06255062 -0.025155852

fc2.weight f4 [84, 120]
00000000: 1d35 a0bb d11c 0f3d 5bb2 093d 7b2c ea3b
00000010: 979d 5ebd 68fd cb3c c51f 65bc 84e8 f5bd
00000020: 79b9 a6bd 37d0 69bd 2326 913d 8d9b 17bd
00000030: bb24 e139 6fa2 cfbc 89ab debd 3dc7 663c
00000040: fdd9 ca3c b6d4 18bd 86d0 253d 546c 493d
00000050: 1046 4ebd 1549 96bd c6d0 22bd 8f7d e3bb
00000060: fd95 6abc d94d 913c 8eca ddbd dc03 7dbd
00000070: b3a2 f6bc 5cf8 c8bd d789 a53c 57eb b4bd
00000080: 79cc 8d3c 7b75 aabd 45a1 713d d311 bfbd
00000090: 8879 dbbc ff80 873b 0141 b6bb b8b2 823c
000000a0: 4050 823d f944 8ebd f27e aabd 2343 b03d
000000b0: b23f a03d e446 533d f5bf 9a3c fd17 a6bd
000000c0: acc3 bdbd c1ca 89bd 3374 c6bd 4579 343c
000000d0: 7ccf bebc 6861 21bd f14a e1bc 0822 f93c
000000e0: 8d76 f9bd 0e4a 9abd 5242 debd 8cf0 21bd
000000f0: 26bf afb9 389a 29bd 06e3 80bd a68c 72bd
00000100: a9a1 063d 97f4 9abd 016b 8d3d 3f96 eabc
00000110: 3cfb 16bd 8ae2 483c 651e 3ebc 42e1 a03b
00000120: f8df 503d b6ee ffbd d3a3 52bc 1823 b1bc
00000130: 8c73 babd 678d f1bb 5aed aabd 4324 0cbe
00000140: a059 c2bd 0a2d 96bd f16d 1bbc 470d 42bd
00000150: e984 b6bc e516 013d 833e 93bd 7aba 2e3d
00000160: ec36 e8bd a674 0bbd a54d 9fbd 7767 5cbd
00000170: 757e 743d ce25 2dbd 0f50 1c3d bf23 babd
00000180: 04ea 043d 620a 94bd df77 adbd ef19 8a3d
00000190: 41c9 1f3d 3465 8c3d bd7f d0bd 347f 8a3d
000001a0: da64 bcbb 419d a5bd 34c2 183d 24c8 25bd
000001b0: 8144 19bb bcfd b3bd f6dc c33b b325 9cbd
000001c0: 556a 47bd 9067 3dbd 6255 a03d 9b7f d4bd
000001d0: 3117 35bc 4866 afbd 8e5d 703d a19d 64bd
000001e0: a707 13be 8adf 093e de95 fbbc 9f28 1dbc
000001f0: bdd4 d73d fb4b 003b ef58 8fbc 1f4b 233e
00000200: a8c3 cb3d eb20 993d 315c 4e3b f6fb c83d
00000210: 6ba6 1e3c 4d18 a3bd 0f2b 2e3e 0b33 773d
00000220: e137 183d ab48 b6bb 840c 07be 931c 96bc
00000230: 1c68 1939 fdc9 c63d 0dd2 c03d 9c82 14bc
00000240: a40b 49bd e02b a83d 93ac e33d 8311 003e
00000250: fdd8 d73d 936f f0bd d6d2 163d 2d40 48bd
00000260: 9dcd 413c 946b 5d3c 6e5e b03d 569c 433e
00000270: 2752 e43d 7155 94bd 8c7a 833c fd96 a13d
00000280: a663 5ebe 3842 d2bc 97ed d33c d90e a13d
00000290: d2c9 2fbc 225a ee3d 6118 b43d 686e 76b9
000002a0: 5bcc 7e3e 9f67 ae3d e889 f5bd a933 a53d
000002b0: cccb 643d 4802 e93d 3102 fcbd ec00 0dbd
000002c0: 37a1 353e 5d41 3bbd 23a8 d03b 100a 8e3b
000002d0: 103d bdbc 38ef c33d b90c bebd 87e4 bf3d
000002e0: 4de4 3fbe 7cb9 413e f185 473e 4a77 73bd
000002f0: 3942 10be 1f41 dc39 627f e2bd af13 afbc
00000300: 9663 da3d c185 e7bc 1eda 17be d477 603c
00000310: 40a7 523c 5c15 1738 beb3 1b3e d264 67bd
00000320: bcd0 f1bb 89f0 64bd 0300 4c3d 591a 903e
00000330: 3c02 a5bb c8fd 3bbd 416c 36bd c0c5 11bc
00000340: 2974 36be ed4d 813b ccdc 063d 0fd6 5fbd
00000350: 5fee 2f3e fe1b 77bd a1c4 37be a0e6 71bd
00000360: 5cbc 38be ac12 233e d237 be3a 876c de3b
00000370: 4834 e1bd a948 94bb ed28 b0bd 7e65 0ebc
00000380: 9a12 043e 5de6 943c cf17 553d 9193 cc3c
00000390: 9da1 5f3d 623a 31bd d2bd f839 5547 3c3c
000003a0: 0270 763d 4cf7 d8bd c03d a13d d709 68be
000003b0: 9392 d7b8 a0fa 9f3c b363 683d 0cdc 0cbe
000003c0: 8981 ebbd 0ebf 303c 70af 45bd 1e06 353d
000003d0: 7efa 00be 2c1d b93d e8dd f43b a228 73bd
000003e0: a9da 01be 43ce a8bd d95b a3bc 2959 c8bc
000003f0: 5746 cbbc bfcd d73c 0011 84bd c35d 14be
-0.004889144 0.03493959 0.03361736 0.0071464158 -0.054349508 0.024901107 -0.013984625 -0.120072395
-0.08140845 -0.057083335 0.07087352 -0.03701358 0.0004294271 -0.025346009 -0.108725615 0.014085588
0.024762148 -0.037312232 0.040482067 0.049175575 -0.050359786 -0.07338158 -0.039749883 -0.006942458
-0.014317987 0.017737316 -0.1082965 -0.06177126 -0.030106878 -0.09812996 0.020207329 -0.0883395
0.017309414 -0.08323189 0.05899169 -0.093295716 -0.026791349 0.0041352506 -0.0055619483 0.01595436
0.06362963 -0.06946749 -0.08324994 0.08606555 0.07824649 0.05158128 0.01889036 -0.08110044
-0.09265837 -0.06728125 -0.09690132 0.011015241 -0.023292296 -0.039399534 -0.027501555 0.030411735
-0.12180815 -0.07533656 -0.10852493 -0.039536044 -0.00033521018 -0.04140684 -0.06293301 -0.059216164
0.032869015 -0.07566183 0.06905175 -0.028636096 -0.03686069 0.012261042 -0.011603926 0.0049096653
0.050994843 -0.124967024 -0.012856442 -0.02162318 -0.0910407 -0.007371593 -0.083460525 -0.13685708
-0.09489751 -0.07332809 -0.009486661 -0.047375944 -0.022280173 0.031515975 -0.071896575 0.042658307
-0.113386005 -0.03404679 -0.077784814 -0.05380961 0.05969091 -0.04227238 0.038162287 -0.09088849
0.032449737 -0.07228543 -0.08470129 0.06743228 0.03901029 0.068552405 -0.10180614 0.06762543
-0.005749327 -0.080866344 0.03729458 -0.040474072 -0.0023386779 -0.0878863 0.0059772683 -0.07624378
-0.04868539 -0.046241343 0.078287855 -0.10375901 -0.011052893 -0.085644305 0.05868297 -0.05581439
-0.14358388 0.1346418 -0.03071111 -0.009592204 0.105386235 0.0019576538 -0.017498462 0.15946625
0.09949428 0.07476982 0.0031488056 0.09813683 0.009683232 -0.079636194 0.17008613 0.060351413
0.037162665 -0.005562862 -0.13188368 -0.018324172 0.00014630001 0.09706495 0.09415064 -0.009064343
-0.049083367 0.082114935 0.111169 0.1250668 0.10539434 -0.11740031 0.036822163 -0.048889328
0.011828807 0.013514418 0.08611761 0.19102606 0.11148482 -0.07242859 0.016049646 0.07890127
-0.217177 -0.025666341 0.025870128 0.0786416 -0.01072927 0.11638285 0.087937124 -0.00023501518
0.24882643 0.08515858 -0.11989194 0.08066494 0.05585842 0.11377388 -0.123051055 -0.034424707
0.1773728 -0.045716632 0.0063676997 0.0043346956 -0.023100406 0.09567112 -0.092797704 0.0936976
-0.18739434 0.18918413 0.19484688 -0.059439935 -0.14087762 0.0004201019 -0.110594526 -0.02137169
0.10663526 -0.028262021 -0.14829299 0.013700444 0.012857258 3.6021098e-05 0.15205285 -0.056492634
-0.0073796194 -0.055893455 0.0498047 0.28145102 -0.0050356667 -0.04589632 -0.044536833 -0.008897245
-0.17817749 0.003946057 0.032925412 -0.0546475 0.17180775 -0.06032943 -0.17946102 -0.05905783
-0.18040603 0.15925092 0.0014512485 0.00678784 -0.109963 -0.0045252633 -0.08601556 -0.00869119
0.12897721 0.018176252 0.05202466 0.024972709 0.054597486 -0.04326857 0.00047443673 0.011491616
0.060165413 -0.10594043 0.07873106 -0.22660004 -0.000102793005 0.019528687 0.056735706 -0.13755816
-0.11499316 0.0107877385 -0.048263013 0.044195287 -0.12595555 0.09038767 0.0074727423 -0.059364922
-0.12681068 -0.08242466 -0.019941257 -0.024456577 -0.024813814 0.026343225 -0.06448555 -0.14488892

fc2.bias f4 [84]
00000000: e835 073d 90b1 853d 5f65 9abd 66b9 8b3d
00000010: 5b5f 95bd bcfa 82bd 4447 e1bd 295d 573b
00000020: 2ad4 8dbd f27c c13d ecb5 fa3c 379f 613d
00000030: 63f5 25bd 64ed 8f3d eefd d23d 6639 863d
00000040: b385 a0bd 554b 863d 160e bf3d 0ffd e8bc
00000050: 7491 d33d e1ef 2a3e e58c 95bd d691 783d
00000060: 211b e33c 57c1 c3bd da0f bfbd 9f45 1a3e
00000070: 7b47 cc3d 82cc b43d 0dd6 333c 3778 2739
00000080: 7bb0 9a3d b1cd b53a e74d 233c 388a afbd
00000090: c383 343d e6e8 533d 210e fb3d 83ce 51bc
000000a0: 4a1c 0c3d c494 f13d c5bf 4f3d 1d0b 3a3c
000000b0: dba3 adbd e3d9 1c3e 9545 0d3d 2d1b 3dbd
000000c0: 2a83 8dbc d84b 97bc ea99 e0bc 8980 50bb
000000d0: 1ef4 623d fe83 fcbd 4212 103e dc84 e33b
000000e0: 7f65 ccbc d800 7cbc 1cc5 a83d 28ae cbbc
000000f0: b6c9 da3d 999e 9b3d 6fe3 873c 821c c2bb
00000100: 580e bc3c a7a9 2cbd 1bc6 f5bd 9c19 aa3d
00000110: b1b9 063d 37cd 95bc ae02 2bbd 8868 a2bd
00000120: 5e6c d53d 6389 373b 5b99 99bd 6252 3ebd
00000130: 0376 b13c 60b1 383e f1b5 ff3d 4959 843d
00000140: 43d7 a9bc 9ff1 cbbc 14db ddbc 9d37 5fbc
0.033010393 0.06528008 -0.07538866 0.06822471 -0.07293578 -0.0639548 -0.10999921 0.0032861924
-0.06925233 0.094476596 0.030604325 0.05508348 -0.040517222 0.070277005 0.103023395 0.06553917
-0.07838001 0.06557337 0.093288586 -0.02844098 0.10330477 0.16693069 -0.07302264 0.060685955
0.027722897 -0.09558361 -0.09329195 0.15065621 0.09974571 0.08828069 0.010976327 0.00015971145
0.07553192 0.0013870505 0.009967304 -0.08571285 0.04407097 0.05173578 0.12258554 -0.012805584
0.034206666 0.11795953 0.050719995 0.011355189 -0.084785186 0.15317492 0.034490187 -0.046168495
-0.017274458 -0.018468782 -0.027417142 -0.0031814894 0.05540859 -0.12329863 0.14069465 0.0069433283
-0.02495074 -0.015381061 0.08240721 -0.024863318 0.106830046 0.075986095 0.016587941 -0.0059238086
0.022956058 -0.04215398 -0.12000676 0.08305666 0.032891933 -0.01828633 -0.041750602 -0.07930094
0.1042106 0.0028005473 -0.07499953 -0.046465285 0.021662718 0.18036413 0.124858744 0.06462342
-0.020732528 -0.024895487 -0.027082004 -0.013624099

fc3.weight f4 [10, 84]
00000000: 54a9 ad3c e83b 6dbd 052d d73c 58d4 17be
00000010: 391c dfbd 5040 993d 231b de3d 4309 13bf
00000020: 0929 96bc 8fd4 31be 45b9 463a 2d86 f7bd
00000030: 4fd7 2cbe 33c4 23be 2607 003d 7ed7 db3d
00000040: 4227 afbd a9b5 2bbe 7b32 163e 7216 19be
00000050: b6fe a2bd 6cd5 6abd 1581 aebd 3032 5c3e
00000060: 89d7 c7bd c3f0 dcbd b571 b9bd 628f acbc
00000070: 6f4e 6ebe cab5 683c 5e31 33be a88a 62bd
00000080: 66ed bd3d f212 eebd 320b 2bbe f58c 333e
00000090: 6e57 023e 36e7 3fbd bcc5 ad3d ee5b abbe
000000a0: 0fdc 2fbc 63eb 7ebe 06d4 053e 08e4 2fbd
000000b0: fae8 743d 467b e1bc 170f ed3d 5380 55be
000000c0: c241 23be 38bf c9be a38b 753d 7a9c 0cbc
000000d0: d0b9 afbd cc04 60be 21af 743e b7d6 21be
000000e0: a245 023e 0693 633b 3c3c 973d a6fc 513c
000000f0: 9d8e 8cbd ca7c 6d3a 3f77 a4bd 9419 29be
00000100: 4d8c 65be 4265 733d 47ed 543b ba8f f73d
00000110: 2d0e e43d a0ab bf3d 81a0 a0bd 0fce 03be
00000120: 06bb 45bc 6d8e 57be fe27 52be b59f b9bd
00000130: 4acc 39bd f411 483e a352 36be dbd4 ecbc
00000140: eb0b cb3d da24 403e ee63 09bd aa68 4ebc
00000150: 7e42 1e3d 64af 92bd 78d3 84bd 9a18 c53c
00000160: e419 1bbe d944 4dbe 65c6 54be f1ba 053d
00000170: 32cf 983d 47c2 abbc be6c ddbc 3ea2 11be
00000180: b33b b2bd c4c6 2abd fcd5 30bd 51a1 54be
00000190: ea3d 823c 8083 00bd dd51 10bd 16db 8a3d
000001a0: 5f6a b4bd 123d f13d b456 5dbe 1fd5 17bd
000001b0: 760a 40bc 0e10 c6bd 884d 043e 7ec4 383d
000001c0: 366e 613e 2b72 1a3e f1f7 113c e23e 13be
000001d0: 3a21 89be 51d6 2c3e 49cc f8bd 2288 a03d
000001e0: 16b6 8dbe 09eb 68be 076c e23d cd43 8f3c
000001f0: 7a26 2cbc 91ae 36bc d826 453e 3f45 243e
00000200: 88e3 18be 2ef3 c43d 817e 9cbe eb06 c03c
00000210: 3ac2 8f3a ca12 273e 414f 1a3e a8fa 22be
00000220: a1cd eb3d 4d19 253d a9f3 a53d bee2 da3d
00000230: 156f 51bd 273a 8b3d f1db 313e 0c3a 773d
00000240: 85a9 883d 1473 4fbe 3122 f3bd c54c 47bd
00000250: 8b67 783d 76a4 15be 3203 5ebe 48a3 e3bd
00000260: 2a62 07be 1ea5 88bc a1fa e23c 9806 4cbd
00000270: 4437 a53c 3bef ef3d 13d8 5ebc 568d 9c3d
00000280: c241 7bbe e144 6e3e 282d 223d d7c8 f2bd
00000290: 9f30 6bbe 3da0 2dbe e68d c3bd 4b48 75bd
000002a0: 5ab6 8cbd 5ee8 4abe 9cdb 57bd 61ca 153e
000002b0: 9546 dc3d 17e1 91be c0eb c43c fb57 813d
000002c0: e434 09be 7ffd 833d b3ad ea3d 849f b13d
000002d0: 860d 3b3e a5f4 6dbe 1459 efbd 60a2 ec3d
000002e0: 6254 153e d203 d53d 2c1c 8dbe 3b18 c8ba
000002f0: 5602 f13d 98b4 2abe 170c 10be 62ae b4be
00000300: f7e7 eebd fb0b 52bd ae46 e83d c599 7abe
00000310: b8f1 debd bd52 d53d 99ca 93bc d7d1 8fbd
00000320: 582e 6ebe 86a7 b7bd 0feb ecbd 40ae 98bd
00000330: c33d cbbc b1a0 5d3d 97c1 9d3d f9b3 ef3d
00000340: 4919 b2bd e234 43be f4ad 9d3c f4fb 033e
00000350: 7eab 8cbc 014a 26be ea34 dd3d b766 53be
00000360: 3b04 09be cbbb 10be d92a 2cbe 6e67 88bc
00000370: 9349 13bc f523 d5bc e866 ebbd c180 0bbe
00000380: 2e97 bcbd 50fb a7bc 2d19 063e e35d 85bc
00000390: 2fe7 773c 2d6f 09bd 0761 ad3c 9ba0 c1bd
000003a0: 92ca 91be ef30 0abe 80dd 1fbe 1fec 31be
000003b0: fae7 b0bd a917 1f3d f2a0 8dbc 3aba 033e
000003c0: de9a 203d a636 a3bd a794 5cbe ed10 8a3d
000003d0: 492e df3d 57b0 53be 7695 3cbe d852 f93d
000003e0: 5cbc 09bd 0b42 433d 4de1 793e 2765 5b3d
000003f0: 69a8 e6bd 6848 82be 6d59 cd3c 4280 bc3d
0.021198906 -0.05791846 0.026266584 -0.14827096 -0.10894055 0.0748297 0.1084502 -0.5743601
-0.018330114 -0.17366241 0.0007580708 -0.12086139 -0.16879009 -0.15992813 0.031256817 0.10734461
-0.0855241 -0.16768517 0.14667694 -0.14949968 -0.079587385 -0.05733244 -0.08520714 0.2150352
-0.09757907 -0.10788109 -0.09054891 -0.021064464 -0.23272108 0.014203498 -0.17499301 -0.055308014
0.09273796 -0.11624707 -0.1670349 0.1753424 0.12728664 -0.04685136 0.084849805 -0.33468574
-0.010733618 -0.2489448 0.13069162 -0.042942077 0.059792496 -0.027524602 0.11575144 -0.20849733
-0.15943053 -0.394037 0.05994762 -0.008582229 -0.08580363 -0.2187683 0.23894931 -0.15804563
0.12721875 0.0034725084 0.07384536 0.012816584 -0.06863139 0.00090594275 -0.08030557 -0.16513664
-0.22416802 0.05942274 0.003249006 0.120879605 0.11135516 0.09358907 -0.07843114 -0.12871574
-0.012068516 -0.21050425 -0.20523068 -0.09063665 -0.04536084 0.19538099 -0.17804961 -0.028910091
0.099143825 0.18764058 -0.033542566 -0.012598196 0.03863763 -0.07162359 -0.06485647 0.024059583
-0.15146595 -0.20045795 -0.20778807 0.032648984 0.07461394 -0.020966662 -0.027029391 -0.14222047
-0.08702793 -0.041693464 -0.04317282 -0.20764662 0.015898664 -0.03137541 -0.03523432 0.067800686
-0.08809351 0.11779226 -0.21615106 -0.037068482 -0.011721244 -0.09671031 0.12920201 0.045109265
0.22014698 0.15082614 0.0089092115 -0.14379457 -0.26783162 0.1687863 -0.12148339 0.07838465
-0.27677983 -0.22745909 0.11055761 0.017488385 -0.01050722 -0.011150018 0.19253099 0.1604204
-0.14930546 0.09616695 -0.30565265 0.023440799 0.0010967918 0.16315761 0.15069295 -0.1591593
0.1151383 0.04030733 0.08103115 0.10687779 -0.051131327 0.06798201 0.17369057 0.060358092
0.06672958 -0.20258743 -0.11871756 -0.048657198 0.06064562 -0.14613518 -0.21680906 -0.11115128
-0.1322104 -0.016680297 0.0277074 -0.049810976 0.020167954 0.117155515 -0.013601321 0.07644145
-0.24536803 0.23268463 0.039593846 -0.118547134 -0.22967766 -0.16955657 -0.09548549 -0.059883397
-0.06870718 -0.19815204 -0.05269967 0.14627983 0.1075565 -0.28492042 0.024038196 0.06315609
-0.13399082 0.06444835 0.11458912 0.08673003 0.18266878 -0.23237856 -0.11686912 0.11554408
0.1458297 0.10401119 -0.27560556 -0.001526601 0.11768024 -0.16670454 -0.14067112 -0.35289294
-0.116653375 -0.051280957 0.11341606 -0.24472721 -0.10885948 0.10416172 -0.018040942 -0.07022446
-0.23259866 -0.089674994 -0.11568271 -0.074551105 -0.024809724 0.054108325 0.0770294 0.11704249
-0.08696229 -0.19063142 0.019247986 0.12889081 -0.017171618 -0.16239168 0.10801108 -0.20644651
-0.1338052 -0.14134137 -0.1681322 -0.016650882 -0.008989709 -0.026018122 -0.11494237 -0.13623334
-0.09208523 -0.020505577 0.13095541 -0.01628012 0.015130802 -0.03355329 0.02116443 -0.09454461
-0.2847486 -0.13495229 -0.1561184 -0.1737523 -0.08637996 0.038840923 -0.017288659 0.12864009
0.039210193 -0.07969408 -0.21541081 0.067415096 0.108975 -0.20672737 -0.1841639 0.12174004
-0.0336269 0.047670405 0.24402352 0.053563263 -0.112625904 -0.25445867 0.025067056 0.09204151

fc3.bias f4 [10]
00000000: b9e6 99bd 63b5 323d 2253 a63b bd80 b63d
00000010: ed18 e9bb 9d2f e5bc 5ab8 96bd 5dfb 873d
00000020: 1bca 37bd 429d e4bd
-0.0751471 0.043630015 0.005075828 0.08911274 -0.007113567 -0.027976805 -0.07359381 0.066397406
-0.044870477 -0.11162807
