models/BasicNet Ensemble-15model-11.pt (torch, 180551 bytes, 10 tensors)

conv1.weight f4 [6, 1, 5, 5]
00000000: 9427 ec3c a766 f1be 8657 80be dde6 7fbb
00000010: 77bd b53e 51c9 35be 5922 05be 1d27 95be
00000020: e526 b6be 15e6 513e c0e6 5dbe 9dd7 67be
00000030: 39e1 fbbd 747d c7be 9e5d 7fbe d44e f7bd
00000040: 9671 a5be b718 40be cb92 15be dc46 dcbe
00000050: c229 17be 4b54 53be 537a 50be 5170 b0be
00000060: 09f8 8cbe b3f9 98bd 8a80 29be 11c7 1e3d
00000070: af4f 973d 19d2 a33e f1ea 83bd 369c 61be
00000080: c601 9abd ef7b 833d 72e2 b53e 46a8 20be
00000090: 21c5 06be b6f7 bebe 8852 b23e de5f dd3d
000000a0: 3033 32be 5230 3bbe 5f4b 2dbe b8f8 583d
000000b0: 9af5 6e3e 1b2e b1bd bee3 49be aafc 6abe
000000c0: a20b 7c3e 6f26 e93d 5814 093e 9d86 773e
000000d0: 0a1d 293e ce8a f23d 8d80 8abe 6f19 013e
000000e0: bff7 a83e 0035 d73d 54f0 8fbe 9bce c4bd
000000f0: bbd5 a33e 22de 8b3e 5de5 003e e6a2 9ebe
00000100: 8e5b 25be c9f6 313e ba7f 613e 16b5 013c
00000110: 3df6 b6bc 03fa 87be ed1f 2a3e 7f1a f23d
00000120: 721d 6a3d 2cc4 fdbd 74a9 1bbe 208d b73a
00000130: 48fe 373d 3d7c 7b3e 5b57 ad3e ad9e e33e
00000140: 8a0d 1dbe becc 9f3e 8b4b 403e 2f1b 1c3e
00000150: 60df 2fbd 381f 8d3e 6e0a 20bc 35be 81be
00000160: b0bc 38be 5ac5 d8bc 71ad b93d 1219 0cbd
00000170: a352 ecbe 6fce efbe 19e4 4bba 7e2c 59be
00000180: e3b7 acbd 0306 9b3d 6d70 273e ade0 8ebd
00000190: 846e eb3d cab1 6c3d 5697 76bd aeac 43be
000001a0: 5cc0 b2be e552 073e c549 41bd 2b7f 9abe
000001b0: 0118 1abf 85eb 2c3d dfbe 71bd 3b51 ebbe
000001c0: c26f 05bf 46c6 053d c63d 833e ad71 9cbe
000001d0: 20ab dabe cdfe edbd 7341 213e ad36 933e
000001e0: d41b babe bb41 acbe 97b5 f63d 23e5 863e
000001f0: 8ff9 273e fc63 49be da4f bb3d 7147 58be
00000200: acca 90be 067e 46be 78fd 34be 7542 4f3e
00000210: 0ea4 0d3e ed71 dc3d 26ec 3bbd 7c0e 7f3e
00000220: 6526 323e fd75 a33d f751 5c3e 804c 503e
00000230: c071 7f3d ab4f 75bd f72c c73d ab2f 753e
00000240: 5ff4 0c3e 33b1 ffbd ecca b2bc a7b5 0fbe
00000250: c3d0 30be 24a1 a13e
0.028827466 -0.4714863 -0.25066775 -0.0039047517 0.35496113 -0.17752577 -0.13001384 -0.29131404
-0.3557655 0.20497926 -0.21670055 -0.22640844 -0.12298817 -0.389629 -0.24938056 -0.12075582
-0.32313222 -0.18759428 -0.14606778 -0.4302281 -0.14762023 -0.20637624 -0.20359163 -0.3446069
-0.27532986 -0.07469501 -0.1655294 0.038764063 0.07388245 0.3199623 -0.06441296 -0.22032246
-0.075198695 0.06420123 0.35524327 -0.15689191 -0.13161136 -0.37298363 0.3482859 0.10809301
-0.17402339 -0.18280151 -0.16923283 0.05297157 0.23335877 -0.08651372 -0.19715783 -0.22947946
0.24613813 0.11384284 0.13386667 0.24172445 0.16514984 0.11842881 -0.270512 0.12607358
0.33001515 0.10508156 -0.28113043 -0.09609719 0.31999 0.2731791 0.12587495 -0.30983657
-0.16148207 0.17379297 0.2202138 0.007916709 -0.022334212 -0.2655793 0.16613741 0.1182146
0.057156987 -0.123909324 -0.1520136 0.001400385 0.044920236 0.24559112 0.3385571 0.44456998
-0.15337196 0.31210893 0.18778817 0.15244745 -0.042937636 0.2756288 -0.009768112 -0.2534043
-0.18040729 -0.026461292 0.090662844 -0.034203596 -0.46156797 -0.46837184 -0.00077778246 -0.21208379
-0.08433511 0.07569506 0.16351481 -0.06976447 0.114956886 0.05778674 -0.06020292 -0.19108841
-0.34912384 0.13215216 -0.047189493 -0.30175146 -0.6019288 0.042216796 -0.05901992 -0.4596041
-0.52123654 0.03265979 0.25633067 -0.30555478 -0.42708683 -0.11620865 0.15747623 0.28752652
-0.36349356 -0.33643898 0.12046354 0.26346692 0.16403793 -0.19667047 0.0914609 -0.21121003
-0.28279626 -0.19384012 -0.17674816 0.20240195 0.13832113 0.10763917 -0.045879506 0.24907869
0.17397459 0.07981489 0.21515642 0.20341682 0.06236434 -0.05989043 0.09725373 0.23943965
0.13765095 -0.1248497 -0.021825276 -0.14034139 -0.17267136 0.31568253

conv1.bias f4 [6]
00000000: bf25 73bd 7190 3cbe c20f a4be 3194 583d
00000010: f366 afbc 4096 d73d
-0.05936217 -0.18414475 -0.32043272 0.0528757 -0.021411395 0.10526705

conv2.weight f4 [16, 6, 5, 5]
00000000: 6f4e 7ebd a4d2 a33d 695c d23d 9465 34bc
00000010: 3a31 943d b550 a13d 2a07 553d 4401 0ebe
00000020: dccd 90be fe1c 96be bc36 d8bc cfef 71be
00000030: 9943 34be 68cd b3be 12f1 6ebe 7a14 703d
00000040: 38f5 d3bd 5177 843d 14fe 9d3c 2a53 12bd
00000050: ba61 bc3d d3bf 873e e4e5 f43d f89d 88bc
00000060: 5b37 583d 90a9 22bd 6ec3 15be 1658 95bd
00000070: b879 c03c 6a7c 3dbe f492 f23c 4ad4 d43a
00000080: c435 82bd cc1e 94bc e8e5 b9be a4ea 0c3d
00000090: 7503 fcbd 03ed 08bd 3005 c6bd 63ce babd
000000a0: 8532 6a3d e124 b53d feb8 f3bd faa0 c2bd
000000b0: da9c 7fbb c1e7 353e 2f77 233e 1a0d 8b3d
000000c0: 46e1 ebbd 596f 96bd b6f6 ab3d 063c 6cbe
000000d0: 151b e7bd ea64 84bd eeba f8bd 4e0c 1dbe
000000e0: aa5f 31be 06ba 8bbd 41a8 69be a0d2 b53b
000000f0: 50e1 eeba f0e2 cc3d 3cae bd3d a2e3 e2bd
00000100: 9414 223d b722 a43d d412 a83d 14b1 263e
00000110: f4b7 c7bc c4f2 5cbe 2f82 fc3d 4e2b c03d
00000120: 2aa2 65bd b1d4 01bd 226d c5bd 4fd0 d73c
00000130: 2216 aebd 41b1 753e 2999 3b3e c893 6dbe
00000140: 7da9 f8bd b0db c4bd e149 7c3d 62bd 50be
00000150: cfbe 1bbd 02c6 bbbb dba6 2dbd 91dd c93d
00000160: 3317 3e3e 302d 2d3e 636e ebbd f355 6f3d
00000170: 77c7 2d3e 9fe6 84bd 9a5a 803d 099d 073d
00000180: 3015 54bd 9673 cabd 5b10 9cbb fdfc 3b3e
00000190: d039 c53d cdee 023d eb27 2fbe b6fa 16be
000001a0: df4d 2fbd edcd d33d 6330 1e3e 51d3 663e
000001b0: a439 c23c 7f03 38be ef5c 393e 61f7 2d3e
000001c0: 630a 66bd e64e babe 32a3 b3bd 2742 2c3d
000001d0: 79ee e53c 1efe 93bc 6216 493c a075 f1bb
000001e0: bbf7 03be 1408 4abe 3782 833b 8fc5 b43d
000001f0: c257 a53d 06f3 fd3b e330 a4bc ad83 1fbe
00000200: 9f00 91bd f5b9 33bd 84fc 113d 4d12 35bd
00000210: 1a2c c53d 8fc1 4d3e 5caf 6a3e d0a0 223d
00000220: 7261 96bd 5f19 9fbc e399 2e3d e2f8 d83d
00000230: eb46 1d3d 7cad d03d bbcd 4c3b 1cf9 65bd
00000240: 872f 163d 87df a7bc 82b7 083d 24a1 6fbd
00000250: 08cf ddbd dfdf ccbd fc41 77bc 4fd7 a63d
00000260: 897d 613d ded4 cc3d 995c 283d f6fd 3bbd
00000270: 0dc9 af3c 571a 463e e97c d33d 4d4f b0bd
00000280: b343 67bd 2b20 e73c 4c2a e63d 0dfd 3bba
00000290: 7ac6 21be 5019 e03c 626b 803c f79e c8bd
000002a0: 02c1 9fbd 0626 c7bd 9f34 c13d fe08 97bd
000002b0: 1a45 a4bd bcea c1bc 1fd1 0abd 5570 cdbb
000002c0: 9ceb a0bc e4f3 c53d 9f6a 043d 9fe3 013c
000002d0: be40 553e f51c 643d 7c31 96bd 2aac 3c3e
000002e0: 9168 b33d d037 a73d b4bd 66be c371 7b3d
000002f0: 36bc bd3c 2e15 90bd 8029 5cbe 771f a1bc
00000300: a666 b2bc b98f 22bc 7b7a 3fbe 68d5 18be
00000310: 48a7 1f3e 125f fdbc f345 ea3d acdc d2bd
00000320: 4e50 ea3d bdf6 f73b 1bb7 943c 53b4 b23d
00000330: 49bf 4a3e c3aa 253d b5ae e43d ddef 1e3d
00000340: f9e3 2cbe 5277 143d f597 133e f78a cc3d
00000350: d674 45be 58dd f1bd facf 843c bf11 82bd
00000360: 8be5 28be 752b 39be 392d 74bd 0fd6 6b3d
00000370: 9ea2 67be a908 c9be b2b7 9cbd a730 143e
00000380: 89f2 113e 41ab 4bbd 06dd a8bd 991d e63c
00000390: 1d6a 8a3d 181f 19be 909e aabd 0a22 473c
000003a0: 2150 fc3c 06aa 09be 8561 70be d4f9 b43d
000003b0: 19ed 20be 9fac 87be 0a5e 81be d06b 12be
000003c0: dcd9 b8bd fd71 27be 02be 87be f9cb 17be
000003d0: 8bc8 c0bd 4962 c4bc 5fad 87be 9d1e 9bbe
000003e0: c629 06be 7cd8 9dbd fa38 06bd 412d 73bd
000003f0: c9c4 b43c 27de c8bd 6ee9 a7bd b36b adbc
-0.06208652 0.07999161 0.10271532 -0.011010546 0.07235952 0.07876722 0.052008785 -0.1386767
-0.28282058 -0.29318994 -0.026393287 -0.23626636 -0.17603911 -0.3511765 -0.23334149 0.058613278
-0.10349506 0.0646807 0.019286193 -0.035723843 0.09198327 0.26513538 0.11957911 -0.016676888
0.052787166 -0.03971249 -0.14625332 -0.07292192 0.02349554 -0.18504491 0.029611088 0.0016237583
-0.06357911 -0.018081091 -0.36308217 0.03440346 -0.12305347 -0.033429157 -0.09668958 -0.091213964
0.057177085 0.08844925 -0.11900519 -0.0950336 -0.0039003403 0.17764188 0.15963434 0.06789608
-0.11517577 -0.07345457 0.08396666 -0.23069772 -0.11284462 -0.0646456 -0.12145029 -0.15336725
-0.17321649 -0.068225905 -0.2281809 0.00554879 -0.0018225107 0.100042224 0.09261748 -0.11078574
0.039570406 0.08014434 0.08206716 0.16278487 -0.024379708 -0.21576983 0.12329518 0.0938326
-0.056062855 -0.03169698 -0.09639956 0.026344446 -0.08500315 0.23993398 0.18320145 -0.23200905
-0.12141702 -0.096122146 0.061593894 -0.20384744 -0.038023766 -0.0057303915 -0.042395454 0.098567136
0.18563537 0.16911769 -0.11495664 0.058431577 0.16970621 -0.064893 0.06267281 0.033108745
-0.05177802 -0.098853275 -0.004762692 0.18358226 0.096301675 0.03196602 -0.17105071 -0.14744076
-0.042798873 0.103420116 0.15448146 0.22541548 0.023709126 -0.17970084 0.18101858 0.16988899
-0.05616225 -0.3638832 -0.087713614 0.042055275 0.028067814 -0.018065508 0.012273403 -0.0073687583
-0.1288747 -0.19729644 0.0040133256 0.08826744 0.08073379 0.007749918 -0.020042842 -0.15577574
-0.070801966 -0.043878514 0.03564121 -0.044206906 0.09627552 0.20093368 0.22918457 0.039704144
-0.07342805 -0.019421278 0.042627227 0.10594346 0.03839771 0.101893395 0.0031250555 -0.056145772
0.03666642 -0.020492328 0.03337813 -0.058503285 -0.10830504 -0.100036375 -0.0150914155 0.081465356
0.05505136 0.10001539 0.041103933 -0.045896493 0.021458173 0.19345985 0.10326559 -0.086088754
-0.056461047 0.028213581 0.11238536 -0.00071711914 -0.15798369 0.02735582 0.015676204 -0.09795945
-0.07800485 -0.09724049 0.09433865 -0.07374762 -0.080209926 -0.0236715 -0.03389084 -0.0062694945
-0.019643597 0.09665659 0.032328244 0.007927804 0.20825478 0.055691678 -0.07333657 0.1842505
0.08760179 0.08164942 -0.22533303 0.06138779 0.023161035 -0.0703529 -0.21500206 -0.019668324
-0.021777462 -0.009921961 -0.18699066 -0.14925158 0.15591156 -0.030929122 0.11439123 -0.10295996
0.11441098 0.0075672553 0.018153718 0.087258 0.19799532 0.040446054 0.11166135 0.03880297
-0.1688384 0.036246605 0.14413436 0.09987443 -0.1928285 -0.11809796 0.016212452 -0.06351041
-0.16493814 -0.18082984 -0.05961344 0.05757719 -0.22620627 -0.3926442 -0.076522246 0.14471684
0.14252676 -0.049723867 -0.08245282 0.028090285 0.06758521 -0.14953268 -0.08331025 0.012154112
0.030799927 -0.13443765 -0.23474701 0.088367134 -0.15715446 -0.26498887 -0.2526706 -0.1429894
-0.090259284 -0.16352077 -0.26512152 -0.14823903 -0.094132505 -0.023972647 -0.2649946 -0.30296794
-0.13101873 -0.07707307 -0.03276918 -0.05936933 0.02206649 -0.09807997 -0.0819882 -0.021169519

conv2.bias f4 [16]
00000000: df60 a43d 4234 b9bc a093 eabd 6ab5 0b3e
00000010: dae7 c33c 74f8 f6bd c50c 60bc 2f47 3fbd
00000020: 1aa0 ffbb c85d 4cbb 6bd6 84bd b30a 2fbd
00000030: 1929 e2bc 180b d1bd ba5c d13d ee27 96bd
0.08026289 -0.022607926 -0.114539385 0.13643423 0.023914266 -0.120591074 -0.0136749195 -0.046698745
-0.007801068 -0.0031183828 -0.064862095 -0.042734813 -0.027607488 -0.10207194 0.10222764 -0.07331835

fc1.weight f4 [120, 256]
00000000: 03c0 263e 2076 203e 5927 963d 8f96 ae3d
00000010: d407 af3b 9cda 0fbd 52a3 16bd d7bb f93d
00000020: c099 1ebe 0577 5ebd 4dd7 d2bd 9b0f 46be
00000030: df99 b0bd b7c3 23be c08e 70be 3153 5fbd
00000040: 1121 c5bc 9c34 413d 694e b1bc 48e1 67be
00000050: 2368 853d 71a0 c5bd 7364 b0bd dcdf a0bd
00000060: 4ca9 8f3d 688b 15bd 6668 82bc 4fc0 153b
00000070: d1cc 71bb 8dbb 9cbd 4d0b f03c cc60 f73d
00000080: 343c 303d 3865 1bbe 5413 adbd a129 44bd
00000090: 75a5 adbe 5cf1 ae3d 9588 ab3d 4b4c 073d
000000a0: 44ad 8dbd 9b3e 08bc e577 b53d e3e9 3d3b
000000b0: 08a9 e9bd 1019 80bd d062 993d 1770 273d
000000c0: 51c8 2f3e 8ed8 0e3e f7e1 21bc a9b9 ddbd
000000d0: aa94 563e 2086 283c bcf8 aebb 1eb3 12be
000000e0: 2ba9 bf3d be5f ae3d 1e66 8fbd fd3c 15bd
000000f0: 5ebe acbd 4938 d63d 6322 213c 42be b7bb
00000100: 7f5b 5a3d 37cd 1bbd 170d cbbc bcae 3ebc
00000110: f4c9 04be 3d73 98bd d500 743d 58fa 31bc
00000120: d59a 8fbd eb46 233d 98d9 ebbc 2cb8 0abe
00000130: ec06 dcbd 7265 94bd e12d 27bd 4a96 f83c
00000140: cb41 ec3c e007 e2bc 4b31 7dbc 36f9 81bd
00000150: 18de 2dbd 6484 e83d af5c f43c 06d8 8e3c
00000160: 6af8 913c 509b b3bb 7de6 2bbe f4e8 6e3c
00000170: 833c 06bd 5598 f4bd a8d2 233d 5149 6cbc
00000180: 5057 62bc f7f5 71bb 96e2 efbd 61da 64bc
00000190: 4b1a 87bc 33af 3dbd 2589 aa3d 8ccc d03d
000001a0: 8b54 8b3d 07b1 fc3d bfad 063d fc57 833b
000001b0: c621 fa3d fbe0 4d3d f4c3 883c 6c6a 763d
000001c0: 267b f9bd a031 0ebe 467e e0bd bef4 703d
000001d0: 752b b63d f284 28b9 cc18 b53a 1774 da3d
000001e0: 440f 2cbd d4f7 89bd 71f3 7b3d d50d 383d
000001f0: aaf4 d33b 68c0 f5bb 7791 3abd c023 69bd
00000200: 8861 de3d 075b 9a3d 84fa 8d3d f344 84bc
00000210: d000 023d 4ec0 273d 551e 463d 21b2 afbd
00000220: b8b7 b83c 405b 193d 0716 a63c 1859 ebbd
00000230: 536f eabb 551e 82bd c6d9 963c a4ae e0bb
00000240: ca11 b5bc 3e8a e23d 6c03 003e 9219 143e
00000250: 3890 873c 104a 08bd e1dd c4bd 53c9 0c3e
00000260: 8ce5 b63d 3164 0bbe 825b 31bc a493 f3bc
00000270: 8acc 043d 4e35 43bd f630 0fbe 649d 14be
00000280: 7aae 223e 7d89 3bbd 3144 81bd 6480 7ebe
00000290: bc77 3c3e 11f8 f13d 6635 a13c 1531 f3bd
000002a0: eb18 db3d 8194 14bb d1ca f63c ca66 e5bd
000002b0: 417f 523d dfe0 7f3d 0d08 9d3d 74da 78bc
000002c0: 390d 4fbc fa60 163e 7ff2 093e aa0d 2d3e
000002d0: 120e d9bd 920e a4bd 139f a73c 2da1 3f3e
000002e0: 4914 06be 350c 66bd 0532 90bc 97f4 12be
000002f0: 3427 c9bc 5459 47bb ad00 50be 270e 89be
00000300: 5d1b a1bc a7ed cebd 3a2a 00bd 0ecc 51be
00000310: 2ef9 5ebd ca00 823d f09a 6ebd 67ec 16be
00000320: 37c5 0b3e 0680 293d 64b2 90bd d4c3 04be
00000330: 75b3 e0bd bde1 3c3d d0ef d7bc c345 103e
00000340: d198 1f3e 4719 88bd b7e6 033d ad6a 47bd
00000350: 47b8 863d eefb 0a3d ef4f 4b3c 4b3e ce3b
00000360: b388 43be 5cde cb3d 8057 28bd bea3 623d
00000370: 062e e8bd 5d03 b03d 6566 963c e65f 2cbd
00000380: 5f7f 9abd addf 3e3d cabd f73c 6940 833c
00000390: 264b 4d3c 59f2 233d d734 aebb ce18 d0bd
000003a0: 74ee 03bc e307 053e 1e93 19be b00c 79bd
000003b0: 586f 76bd cca5 043d d1ed 89bd 0c86 313d
000003c0: 9f02 163c ed7b 4dbe dff2 1bbe caaf 41bd
000003d0: 83d6 2f3d a3f8 043d d68d ed3c 1572 443c
000003e0: a111 f13b 0530 483e d13e ea3d 1cb1 903d
000003f0: 4fd3 563d b2e8 003d d75b 833d 62ef d63d
0.16284184 0.15670061 0.07331724 0.085248105 0.0053415094 -0.03512059 -0.03677685 0.12194031
-0.15488338 -0.054312725 -0.102949716 -0.1934189 -0.086230986 -0.15992628 -0.23491955 -0.054522697
-0.024063619 0.047169313 -0.021643834 -0.22644532 0.06514003 -0.096497424 -0.08612909 -0.07855198
0.07014713 -0.0365099 -0.015918922 0.002285022 -0.0036895762 -0.0765296 0.029302264 0.120790094
0.043026164 -0.1517533 -0.08450952 -0.047891263 -0.33915296 0.085421294 0.0837566 0.033031743
-0.069178134 -0.008315708 0.08860759 0.0028978519 -0.11409193 -0.0625478 0.0748955 0.04087838
0.17166258 0.13949797 -0.009880534 -0.108264275 0.20955148 0.010285884 -0.00533971 -0.1432614
0.09358438 0.08514355 -0.07001899 -0.036435116 -0.08434747 0.10459954 0.009834859 -0.0056073973
0.053309914 -0.038037505 -0.024786515 -0.01163834 -0.12967664 -0.07443855 0.059571106 -0.010862909
-0.07011954 0.039862555 -0.02879028 -0.13546818 -0.10743508 -0.07245912 -0.040815238 0.0303451
0.028839966 -0.027591646 -0.015453647 -0.06346361 -0.042448133 0.113533765 0.029829351 0.017436992
0.017818648 -0.005481161 -0.16787143 0.014581908 -0.032772552 -0.119431175 0.03999582 -0.014421777
-0.013814762 -0.0036920288 -0.1171314 -0.013968081 -0.01649203 -0.04630966 0.083269395 0.10195264
0.06803235 0.12338453 0.03288054 0.0040082913 0.12213473 0.050263386 0.016695 0.060160086
-0.12181692 -0.13886118 -0.10961585 0.058827154 0.088950075 -0.00016071255 0.0013816594 0.10666674
-0.042006746 -0.067367226 0.06151146 0.044935066 0.006468375 -0.0074997433 -0.045548882 -0.05691886
0.10858446 0.07536893 0.06932548 -0.016146159 0.031739056 0.04095488 0.04836877 -0.08578897
0.022548541 0.03744054 0.020274175 -0.11491603 -0.007154384 -0.063534416 0.01841439 -0.0068567563
-0.022103209 0.11061524 0.12501305 0.1446288 0.016548261 -0.033273757 -0.096126325 0.13748674
0.08930501 -0.13612439 -0.01082504 -0.029733486 0.032421626 -0.047658257 -0.13983521 -0.14513165
0.1588687 -0.045785416 -0.063118346 -0.24853665 0.1840505 0.11814893 0.019678783 -0.11874596
0.10698112 -0.0022671523 0.030126007 -0.11201246 0.05139089 0.062470313 0.07667551 -0.015188802
-0.01263743 0.14685431 0.13471411 0.16899744 -0.10598387 -0.080105916 0.020461595 0.18713827
-0.13093676 -0.056163985 -0.017601976 -0.14351116 -0.024554826 -0.0030418234 -0.20312758 -0.2676861
-0.019666368 -0.10103922 -0.03129027 -0.20487997 -0.054436855 0.06347807 -0.05825323 -0.14738618
0.1364945 0.04138186 -0.07065275 -0.12965328 -0.10971729 0.04611372 -0.026359469 0.14089112
0.15585639 -0.06645446 0.03220245 -0.04868572 0.06578117 0.033931665 0.012409194 0.006294047
-0.19095115 0.09954521 -0.04109907 0.055331938 -0.11336903 0.085943915 0.018359372 -0.042083643
-0.07543825 0.046600033 0.030241866 0.016021924 0.012530124 0.040026043 -0.0053163576 -0.10160981
-0.008052457 0.1299129 -0.14997527 -0.060803115 -0.06016478 0.03238468 -0.06734813 0.043340728
0.009155898 -0.20066805 -0.15229367 -0.047286786 0.042929184 0.03246368 0.028998297 0.01199009
0.007356838 0.19549568 0.114377625 0.07065031 0.052447613 0.031471916 0.064140014 0.104948774

fc1.bias f4 [120]
00000000: c65a bdbc d298 96bd 8c9d a4bd ea15 623c
00000010: 1d7c 823d 3a41 3abd f1b8 e8bc 6720 f2bc
00000020: 09fc cbbd 37f4 5a3d f709 b13c 9a1d 93ba
00000030: 7291 7cbc 5e86 e13d cabb 5c3c 55ea ff3c
00000040: 4a9d 96bd 4812 6dbd 0f19 5ebd 649b fbbb
00000050: 5594 a9bc 40c6 9cbd abeb 9abd a312 beb9
00000060: c1e8 d13c bcb3 e7bc 5622 ae3d 6499 a6bd
00000070: db00 b0bb cfca cabc 216a 39bd 2a27 f33b
00000080: 2d62 18bd ad53 a83b e5e3 bbbb 463a cebc
00000090: f5f7 babc f94d 2a3d 1148 d53d c9b9 79bd
000000a0: 7802 1abd 7b2f ff3c 8b16 c73c 97a2 abbd
000000b0: a556 9bbd 388c 97ba 49e8 333d 372b 4fbc
000000c0: 26a6 28bd 5aee 45bd 77de 283d 39f7 37bd
000000d0: fa2a 1c3d 7c6f bfbc c36e 8cbc 6b1c e03a
000000e0: 7acb 97bd 77be 84bc 228d 323b defd 82bc
000000f0: 11d3 a93d 3ee6 dabc bd9f 4cbc 5800 473d
00000100: 0042 80bb 3d3b d73c 965c 63bd 7a5b 85bc
00000110: 9406 23bd 07e4 af3c 5725 83bd 497e 803b
00000120: 3e82 b8bc 0ca1 9c3b 7ed8 99bc 7434 c6bd
00000130: 7ada cb3b 980c 053d 95fb b1ba a6be 0c3c
00000140: 13b6 0abc b9bc 293d 91cc 113d 6e24 0dbc
00000150: d422 b938 cadf 2b3d 0b05 813d 263a 2e3d
00000160: a56c 25bd 0d5e 7e3b b5e2 8bbb 756f 083d
00000170: b2c0 12bd a7f0 1cbd d9ed d53c 580a 133c
00000180: b799 903c 23d3 e8bc 2a2d 993c bbbc 813d
00000190: 5a06 573d 46d6 2ebd 402b 6ebd 1537 5f3d
000001a0: dfd6 5dbd 8168 3ebb 710b 723c 07f3 483d
000001b0: f8f4 443d a504 7bbc 124b f83c e22d a5bc
000001c0: 077e 513d 2eff 58bc ba8e 7abd b242 31bd
000001d0: 0dde 273d eeba f53b c516 92bd 76cd f1bc
-0.023114573 -0.07353367 -0.08037862 0.01379917 0.06371329 -0.04547236 -0.0284085 -0.029556466
-0.09960181 0.053455558 0.021611197 -0.0011224032 -0.015415536 0.11011957 0.013472507 0.031239668
-0.07354219 -0.057878762 -0.054223116 -0.007678436 -0.020700613 -0.07655001 -0.07564481 -0.0003625351
0.025623681 -0.028283946 0.08502643 -0.08134726 -0.0053711957 -0.02475491 -0.045267228 0.00742044
-0.037203003 0.005136928 -0.0057339543 -0.025174271 -0.022823313 0.041578267 0.10414136 -0.060968194
-0.03760001 0.03115057 0.024302742 -0.08380621 -0.075848855 -0.0011562174 0.043922696 -0.012644581
-0.041174076 -0.048323013 0.041227784 -0.044913504 0.038126923 -0.02336859 -0.017142659 0.0017098313
-0.07411857 -0.016204102 0.0027244766 -0.015990194 0.08292211 -0.026721116 -0.012489256 0.048584312
-0.003914118 0.026273364 -0.05550822 -0.016278971 -0.039801195 0.021471037 -0.064036064 0.0039213044
-0.022523042 0.0047799405 -0.01877999 -0.096779734 0.006221113 0.032482713 -0.0013579006 0.008590376
-0.008466261 0.041439746 0.03559548 -0.008614643 8.827975e-05 0.04196147 0.0629979 0.042535923
-0.040386815 0.0038813383 -0.004268969 0.03330942 -0.0358283 -0.03831544 0.026114391 0.008974634
0.017651422 -0.02842099 0.018698294 0.063348256 0.05249629 -0.042684816 -0.058146715 0.05449589
-0.054159995 -0.0029053988 0.014773236 0.049059894 0.048085183 -0.015320932 0.030309234 -0.02016348
0.05114558 -0.013244433 -0.06117127 -0.043276496 0.04098325 0.0074990904 -0.07133249 -0.029516917

fc2.weight f4 [84, 120]
00000000: 957b 80bd 57be 3fbe 610d 9c3d c43d 143d
00000010: 7dae 913c 8789 2a3d 57b8 1c3e 8598 cc3d
00000020: 0e45 593c c1bd 193d b94e 29be fbe9 753d
00000030: e9cb 4cbc 3b25 483d 0006 eebd d3fa ea3c
00000040: f60e 443d c6e4 85bc 0cd5 0a3e 267c e53d
00000050: a4dc b53d a674 663d 36c8 c63b bc67 103c
00000060: 815b 643d 1e9d 2abd 5703 3cbd 8549 293e
00000070: aab5 4c3d 5b98 dcbd 3d46 4bbd 2e7c cf3c
00000080: 8409 f13b 1fab 01be 67b8 e43d 14a6 10bd
00000090: 7ec4 13be 12aa 82bd 01f9 91bd e3b7 dcbc
000000a0: 4e15 46bd 0900 463d c7e5 e1bd a78b c1bd
000000b0: 176e 07bd 08e6 a8bd 0804 e7bc a640 90bd
000000c0: 4362 633d 4703 2ebd b65a ca3c d3ee b9bd
000000d0: 6a2b 41bd 1c54 1abe 1224 eb3c 63da f1bd
000000e0: c61d 13be 6101 d1bd b54b 983c c3e6 a13c
000000f0: 802e 22be a667 a9bc 8543 b93d 9510 333d
00000100: d09f 26be 5390 1abe b385 28bd c1f0 a7bd
00000110: dd9b 903d 684c 253d 228c 653b e12d 653d
00000120: fa70 d73d 5fe2 20be e75b 8dbc e728 ae3d
00000130: 712d 8d3d d92c ab3d 7b37 573d 3f17 303e
00000140: d47a 5f3d fc4f 3b3c 4846 26bd 4e14 d2bc
00000150: 2a1a 29bc 85ef 283d d47b 173d 3bbe 57bd
00000160: fc37 533d c0f2 233d e050 b63d 95cf 44bd
00000170: 4f5e ca3d 8d82 c63d 6c5b 613d 4a96 113e
00000180: 67d4 cc3d 84ef a2bb d23f 11be e8ab 2fbe
00000190: b008 b1bc 981e 87bd d1ab d93d 4094 32bd
000001a0: bf8c e0bd 9f85 823d dbc0 413e 9791 223d
000001b0: 7c7a 983b 6f4e 71be 82d2 a8bc 232e 4cbc
000001c0: 361e 70bd 32af 063e 141e 07bd afb3 a83b
000001d0: 67e3 f2bc 81e6 32bd 6881 3d3d e3c5 f03d
000001e0: 0d6c 0c3d 4f2c 94be da59 fd3d 90a3 f4bc
000001f0: cb76 383e d0a7 d23c 4380 0a3e f67f efbc
00000200: 2bce 17bb f885 9abd d89c 293d c172 bf3b
00000210: eb82 753a c53f 4d3d ff65 e0b9 175b 0d3d
00000220: 6fb1 49bd 9fc0 91bd 1ac4 a63b c07b db3d
00000230: d85a 51bd 5629 5a3c 5d29 9c3c 5f39 0abd
00000240: 7d9c fb3c b16e 3a3d b472 8f3e 6874 993d
00000250: a3b5 273b b1ec 72bd c0f9 40bc ad56 083e
00000260: 5828 293b c416 0a3e 7c82 c23d b4ab 20be
00000270: d8b6 e9bd 7ee6 b73c 1cef a5b9 cd64 ab3c
00000280: cbc4 323e 3bee 6dbd 5bdc e3bd 2c41 b43d
00000290: 2534 2a3d c463 333d 8f04 8b3d b2fd 6cbb
000002a0: e9c4 1c3c 64c0 49bc faa7 a3bd a803 36be
000002b0: 3a66 823d d5af 25bd d62a 563d e297 1abe
000002c0: 1d10 313c e9bc 39bd 2883 fbbb 4400 99bd
000002d0: 65c6 0a3e d460 863c e6df 16be cd4e 46bd
000002e0: 0335 50bd 4637 86bd 609f d4bc 65bb 5ebd
000002f0: 662d 583d 6b84 bdbd 4ba2 b03b 3bcc 4c3d
00000300: ad72 8abd 9562 1b3d 2849 82bd 5e18 aa3c
00000310: 3f34 bcbd e820 743d 474b 32bd 0793 103e
00000320: 25c5 f43c de64 7bbd 97c7 443d a26b a2bd
00000330: 7475 10ba 000c 9f3d 751c e6bc fb41 58be
00000340: 3aa5 8a3c 6d2d 26bd d961 323d cdd0 883c
00000350: 29d7 08be a728 79bd 9161 e2bd ebe4 6abd
00000360: 42a8 a7bc 04c3 da3c 699e f73d b63b b73b
00000370: df8a 32be 25ef 4a3d 8a92 49bd 360c e93c
00000380: b33e 92be 87dd 62bc 2095 ebbc 462d b23d
00000390: 88de ac3d e296 debc f425 1f3d 1209 c4bd
000003a0: 00f0 39be 5935 393e 4bff 5abd b8bb 55bd
000003b0: 5ba6 6dbd 8d76 983d f4d4 94bc 0f8f bb3d
000003c0: bcdd 69b9 bcca afbd 219a f2bc ac39 983d
000003d0: 1cd4 9a3d 5a5e 1bbc 79b1 523e 98e4 443d
000003e0: f1f6 89be c11f 693d 6980 b13c e4a9 74bd
000003f0: 2d8a 773d 2c41 a43d 11ba 5c3e 0a21 95bc
-0.062735714 -0.18724953 0.07619739 0.036191717 0.017783398 0.041635063 0.15304695 0.09990028
0.013261093 0.03753448 -0.16533937 0.060037594 -0.012499788 0.04886363 -0.11622238 0.028684055
0.04786583 -0.01634444 0.13557833 0.1120532 0.088799745 0.05626359 0.0060663475 0.008813795
0.055751327 -0.041653745 -0.045901623 0.16531952 0.049977936 -0.10771247 -0.04962753 0.025327768
0.0073558707 -0.12662934 0.111679845 -0.035314634 -0.14430425 -0.063800946 -0.07127572 -0.026943153
-0.04836016 0.048339877 -0.11030155 -0.09450465 -0.033063974 -0.08247 -0.028200164 -0.07043581
0.05551363 -0.042483594 0.024701457 -0.09078755 -0.047160544 -0.15071148 0.028703723 -0.11809232
-0.14366826 -0.10205341 0.018590787 0.019763356 -0.15838051 -0.020679306 0.090460815 0.043716986
-0.16271901 -0.15094118 -0.04114313 -0.08200217 0.070609786 0.04035607 0.0035026153 0.055951957
0.105195954 -0.15711354 -0.017255737 0.08503895 0.06893433 0.083581634 0.052543145 0.17196368
0.054560497 0.011432644 -0.04059437 -0.025644448 -0.010321179 0.04124405 0.036983326 -0.052671652
0.051567063 0.040026426 0.089021444 -0.04804953 0.09881269 0.09692869 0.055018827 0.14217487
0.1000145 -0.0049724 -0.14184502 -0.17155421 -0.021610588 -0.06597632 0.106284745 -0.043598413
-0.10964345 0.063731425 0.18921225 0.039689627 0.004653273 -0.23565076 -0.02060819 -0.012462172
-0.05862256 0.13152769 -0.03298767 0.005148373 -0.02964945 -0.043676857 0.04626599 0.11756494
0.034282733 -0.28940055 0.123706535 -0.029863149 0.18014066 0.025714785 0.1352549 -0.029235821
-0.0023163657 -0.07545084 0.041409343 0.005842537 0.00093655166 0.050109643 -0.00042800602 0.0345107
-0.04924148 -0.07116818 0.005089295 0.10716963 -0.051112026 0.013315519 0.019062692 -0.03374612
0.030714268 0.04551572 0.280172 0.07492906 0.0025590442 -0.059307758 -0.011778295 0.13314314
0.00258114 0.13485247 0.09497544 -0.156905 -0.11411828 0.022448774 -0.00031649403 0.020922089
0.17457883 -0.058088522 -0.11126014 0.08801493 0.041553635 0.043796316 0.06787979 -0.0036161956
0.009568431 -0.012313936 -0.07991023 -0.17774832 0.063671544 -0.04045089 0.052286945 -0.15097001
0.010807064 -0.045346174 -0.007675547 -0.07470754 0.13552244 0.016403593 -0.14733848 -0.048414994
-0.050831806 -0.06553511 -0.025954902 -0.054377932 0.05277767 -0.09253772 0.0053904406 0.049999457
-0.06760154 0.037935812 -0.0636161 0.020763572 -0.09189653 0.059601694 -0.04352882 0.14118586
0.029879162 -0.06137549 0.048041906 -0.079306856 -0.0005510666 0.07765961 -0.028089741 -0.2111892
0.01692449 -0.040570665 0.043550346 0.016701126 -0.13363327 -0.060829785 -0.110537656 -0.05734722
-0.020465974 0.026704319 0.12090761 0.005591835 -0.17435788 0.049544472 -0.049212016 0.028448205
-0.2856346 -0.013846762 -0.028757632 0.087000415 0.08440882 -0.027171556 0.038854554 -0.095720425
-0.18157959 0.18086757 -0.053466123 -0.052180976 -0.058019977 0.07444487 -0.01816795 0.09158146
-0.00022303214 -0.085835904 -0.02961451 0.07432875 0.07559988 -0.009482944 0.20575513 0.048069566
-0.26946214 0.05691505 0.021667676 -0.059732333 0.06043451 0.08020243 0.21555354 -0.01820423

fc2.bias f4 [84]
00000000: 573f 03be f31d 083e c0ed 8a3d 1c94 1d3d
00000010: f028 8a3d d68b 97bd ef2c 2abd 1ba0 623d
00000020: 662b a73d a27b d4bd ebdd 433c 1663 933d
00000030: eb86 163d 6501 c4bd 9dea 973d 051e 9b3d
00000040: 9a84 2c3c 30b3 cd3d bf85 9bbd ac4d f13d
00000050: ca2e 0dbd 2ecd 0bbe f8e5 113d 20d6 a8bd
00000060: cf7a 283e 5042 c5bc 0bbd 0dbb 3175 ee3d
00000070: 933f debc 72e7 e03c 2627 8f3d d96c 853d
00000080: 4441 02bd e37e 24bd 22fb aa3c 25dd 3fbd
00000090: 3cd6 bebc 0e6f 943d 2349 d03d 8d23 e93c
000000a0: 2a54 273d 4634 d33d e254 1ebd 1ce5 993d
000000b0: f6cc 46bc 08dd 10be 72ef d13d c6c6 00bd
000000c0: 54b5 acbc 98de a63d c4f7 07bd 8e31 943d
000000d0: bd93 d93d 5c18 c4bd b7f6 97bd 1bca 1fbe
000000e0: e2fc ae3d 9231 003e ce8d 65bd e197 623c
000000f0: 9f81 7f3d be89 aebd 8639 053e af34 423c
00000100: d78e e73c e836 34bc 1df8 a4bb 1c52 853d
00000110: fc8d 0cbd 527e 5e3c 110a 98bd e7a7 363d
00000120: 820f 4cbd 8c56 ea3d 3df5 44bd 6942 113e
00000130: 7f76 e6bc 381b f1bc 5fca f63d b324 313d
00000140: b9e7 bcbc 4805 c13d 0e4b edbd 1209 d83c
-0.12817131 0.13292675 0.067836285 0.038471326 0.067460895 -0.073997185 -0.04154676 0.05532847
0.081625745 -0.103751436 0.011954765 0.071966335 0.03674976 -0.095705785 0.07417796 0.07574085
0.010529662 0.10043943 -0.075938694 0.11782393 -0.03446845 -0.13652489 0.035619706 -0.08243966
0.16453098 -0.024079472 -0.002162757 0.11643446 -0.027129924 0.027454112 0.06989889 0.06514902
-0.031800523 -0.04016007 0.020871703 -0.04684176 -0.023295514 0.072477445 0.101702 0.028459335
0.04085175 0.10312705 -0.03865517 0.07514402 -0.012133827 -0.14146817 0.10250749 -0.031439565
-0.021082558 0.08147925 -0.033195272 0.07236014 0.10623882 -0.09574959 -0.07420104 -0.15604441
0.08544327 0.1251891 -0.05604344 0.013830156 0.062379476 -0.08522366 0.13010225 0.011853381
0.028266354 -0.010999419 -0.00503446 0.06509802 -0.034315094 0.013579922 -0.07423795 0.044593718
-0.049819477 0.11442289 -0.04808544 0.1418549 -0.028132675 -0.029431924 0.12050318 0.04324789
-0.023059713 0.094248354 -0.11586581 0.026371513

fc3.weight f4 [10, 84]
00000000: 4f79 eb3d 18d1 fc3d 1918 78bc 36f8 fe3c
00000010: e224 c53d 0eb2 e9bd 5f7c 60be 4185 b23c
00000020: 273b d73d 131b eabc db80 3abd b96d 3cbe
00000030: fdac bf3d c595 913c 71f5 90bd 7966 4a3d
00000040: d778 283e 1a81 8abc a263 853d 8a9f 173d
00000050: 6414 70bd b1ba 16be 622e 82be 5b15 11be
00000060: 3378 f53c e67d 46be 525b 9ebd 5b43 ddbc
00000070: d4be c9bd ac3d 7cbd 92f9 343e 6fc0 3a3d
00000080: 4468 263d e447 803c da49 6fbd 764a 923c
00000090: 4380 16bd f195 e73d 3f1f 5dbe 7b08 e3bd
000000a0: a64f 1f3e b43b 61bd 63c4 e3bb e58f e93d
000000b0: 7a87 fdbd bfac 863d 307f 573d 7971 123b
000000c0: ab88 19be 2a04 e3bd ef19 58be 4ba8 b7bd
000000d0: 7308 4abd ce5d 653d c688 123d ece0 01bd
000000e0: aa39 95be c023 b83c 6b0d 023e 5292 c7bd
000000f0: ad39 0a3e 269c 84bd 559a ae3d 9662 5abe
00000100: 5410 3abe dffd 8f3b 3f3c 92bc e422 32bd
00000110: 55c5 013e b181 9a3d eca2 55be f133 de3b
00000120: 2ffa 173e 82ce 70be ecd5 1d3e ba90 cfbd
00000130: 03a9 13be aa8a aebb 5786 a8be f108 ebbc
00000140: 0b6f fcbd ba05 85bb 9b47 183d f899 b7bd
00000150: daa4 14be dc08 aa3c 3e7f 89bd ab31 cabd
00000160: d1f9 60bd 5350 0cbc c476 223e 5cd8 b3bd
00000170: c2a1 ce3c 348f 5bbe 1fd6 96bd 1912 35be
00000180: b23e 70be 68db 69bd 1e79 08be cf59 a2bd
00000190: 3010 81be 25ca 37be 8147 d7bd e86d 30bd
000001a0: 1eb3 bfbd 27f2 2a3d 16de 8a3d e713 a4bd
000001b0: 924b 41be c7fa 16be e6d7 a53a 5622 0bbd
000001c0: a898 663c 28be 1ebe b71d 3abe 49dc ef3d
000001d0: 3dbf 803e 4006 793d 8965 86be f9e3 013d
000001e0: 7446 763e 2463 a9bd e42a af3d 9101 06bb
000001f0: 3633 07be a1e8 923a 7735 bcbc 4152 1fbe
00000200: 2cf8 b7bc 0c76 63bd 2c6c 0d3e de6b 2dbc
00000210: 9320 4abc 043e 833c 9b12 6bbd 206d acbe
00000220: fd44 8c3d 85ae 5cbd 084a dd3b dd1b 72bd
00000230: befe 913d c028 a03d da34 d63d e30d 80bc
00000240: 0c2c d33c 134b abbd 00b2 49be 253b 333e
00000250: 8881 343e ba12 febd ba4a 89bd a941 863d
00000260: 915b ec3d 7e9c 313d cc98 c0bd 9b99 5fbe
00000270: 6df6 0c3d 8467 9c3d 5472 6fbe 470e 5d3d
00000280: eb7b 183e 268b 52bd 948d 15be 731e 03be
00000290: db13 3abe eaea 1e3e 4815 a63d fce4 86bc
000002a0: e011 e03d 6628 993d ddcb 77bd 832d 0ebe
000002b0: c1a5 ed3d 28d0 11be 6fbb 063b 5c12 b83d
000002c0: 7886 a53d bdd6 743d 2226 c83c d3f3 783d
000002d0: 7a73 953d 222b 4e3d 09dd e7bd 2eb6 e8bd
000002e0: 2864 15be f04f 9b37 52ca 333e 63b9 dc3c
000002f0: de93 5c3d 731f cc3a e16d 09bd a0de d73b
00000300: b197 9abe 4a5c 253d 0bf9 c63d f5b4 adbd
00000310: 6e34 633d dc0f b4bc 8465 92be 6890 af3c
00000320: b123 4bbd 5cf4 36bc 9506 fa3d 4e62 733d
00000330: 2bd2 72be 046d f3bd f228 c93d b063 803b
00000340: 145d da3d ead9 46be 8f73 a63d 5bc5 d03d
00000350: 76f0 69be 7341 c73d 2622 fe3d db2b a6bd
00000360: 39ac a53d cfd6 e8bd 452c 51be d8e7 0a3e
00000370: 4c86 bcbd 67f3 953d c1ab 35bd 4ea1 ad3d
00000380: 39b0 b63c 4053 0e3e 85ec 56be 75d3 b0bd
00000390: 4bf9 4d3d edab 423c f299 35be 5fdc 013e
000003a0: daed 11bd 758e e03d 97a6 b23d 1b97 0dbd
000003b0: c439 4fbe 8fef aabd 9085 1636 d9e5 cc3d
000003c0: 56a6 dbbd 35f6 8dbd a333 eb3d 04f2 17bd
000003d0: 4472 3e3d 8ea9 87be 5892 0dbe 5796 d8bd
000003e0: c0df 11be a99b 01bd 6f86 3d3d 81f7 2c3e
000003f0: 7cb0 7d3c f0e4 a03c f7f8 e73d 9f5b 9e3d
0.11497747 0.12344569 -0.015142464 0.031124216 0.096261755 -0.11410914 -0.21922444 0.021792056
0.10509329 -0.028577363 -0.045533042 -0.18401231 0.09359167 0.017771611 -0.07078064 0.04941413
0.16452347 -0.016907264 0.06513144 0.037017383 -0.058613196 -0.14719655 -0.25426012 -0.14168303
0.029964542 -0.19383964 -0.07732262 -0.027009657 -0.09850851 -0.061582252 0.17673329 0.045593675
0.04062678 0.01565928 -0.05842004 0.017857771 -0.036743414 0.11307896 -0.2159395 -0.11085602
0.15557727 -0.054988578 -0.0069509014 0.11404399 -0.12379356 0.065759175 0.05261153 0.0022345467
-0.14993541 -0.110847786 -0.21103643 -0.08967646 -0.049324464 0.055997662 0.03577497 -0.031708643
-0.29145557 0.022477984 0.12700431 -0.09744705 0.13498564 -0.064750955 0.0852553 -0.2132667
-0.18170291 0.0043942775 -0.017850993 -0.043490306 0.12672932 0.07544268 -0.20862931 0.0067810942
0.14841531 -0.23516276 0.15413636 -0.10135026 -0.14419942 -0.0053265886 -0.32914993 -0.028690787
-0.12325867 -0.0040595206 0.037177663 -0.08964914 -0.14516011 0.020756178 -0.06713723 -0.09872755
-0.054925743 -0.008564073 0.15865618 -0.08781502 0.025223617 -0.21441346 -0.07365059 -0.17682685
-0.23461416 -0.057094008 -0.13327453 -0.07927286 -0.25207663 -0.17948206 -0.10511685 -0.043073565
-0.09360336 0.04173484 0.06780641 -0.080116086 -0.18876484 -0.14744101 0.0012652844 -0.033968292
0.014074482 -0.15502226 -0.18175398 0.11711938 0.25145903 0.060796976 -0.2624934 0.031711552
0.24050313 -0.08270863 0.085531026 -0.002044771 -0.13203129 0.0011208245 -0.022974713 -0.15558721
-0.022457205 -0.0555325 0.13810796 -0.0105848 -0.012336868 0.016020782 -0.05739079 -0.33677006
0.06849096 -0.053877372 0.00675321 -0.059108604 0.07128666 0.078202724 0.104592994 -0.015631622
0.02577784 -0.08363929 -0.19696808 0.1750303 0.17627537 -0.124059156 -0.06703706 0.065554924
0.115409024 0.043362133 -0.09404144 -0.2183594 0.034414697 0.076369315 -0.23383456 0.053968694
0.14891021 -0.051402234 -0.14604789 -0.12804584 -0.18171637 0.155193 0.08109528 -0.01646661
0.109409094 0.074784085 -0.060497154 -0.13884549 0.11603881 -0.14239562 0.0020558496 0.08987877
0.080822885 0.059775103 0.024432246 0.060779404 0.07297416 0.050334103 -0.11321456 -0.11362873
-0.14588988 1.8514664e-05 0.17557648 0.026943868 0.053851955 0.0015573337 -0.033552054 0.0065878183
-0.30193856 0.040371217 0.0971547 -0.084817804 0.055469923 -0.021980219 -0.28593075 0.021431163
-0.049594585 -0.011166658 0.12208287 0.059419923 -0.23712985 -0.118860275 0.09822263 0.0039181337
0.106622845 -0.19419065 0.0812751 0.101938926 -0.22845635 0.0972928 0.12408857 -0.081138335
0.080894895 -0.113690965 -0.20427044 0.13565004 -0.092053026 0.07321816 -0.04435325 0.08478032
0.022300826 0.13898945 -0.20988663 -0.08634082 0.050286572 0.011881811 -0.17734507 0.12681721
-0.035627224 0.109646715 0.08723181 -0.034567934 -0.2023688 -0.083464734 2.2429485e-06 0.100047775
-0.107250854 -0.06931726 0.11484458 -0.03709604 0.04649569 -0.26496547 -0.13825357 -0.1057555
-0.1424551 -0.03164259 0.046270784 0.1689129 0.015483972 0.019640416 0.11326783 0.07732319

fc3.bias f4 [10]
00000000: f899 1cbc 31fb 853d 732e 08be 5a0a ecbc
00000010: 8755 17bd f093 353d 0637 b4bd 46d5 01be
00000020: 4ebf 243e ffb4 09be
-0.009558193 0.065420516 -0.13298969 -0.02881353 -0.0369468 0.044330537 -0.087995574 -0.12679014
0.16088602 -0.13447951
