models/BasicNet Ensemble-15model-9.pt (torch, 180551 bytes, 10 tensors)

conv1.weight f4 [6, 1, 5, 5]
000000 28 cc 9f 3d ae 25 ee 3d 6c cc 10 be 92 17 15 bf
       0.078026116 0.116282806 -0.14140481 -0.5823909
000010 1f fe f6 be 96 e3 48 bc 9b 47 2c 3e fd ee bc 3e
       -0.48240754 -0.012261292 0.1682419 0.36901084
000020 22 d0 83 3d 19 fa 9a 3d fa 9f 4c be 06 0d 4d be
       0.064361826 0.075672336 -0.19982901 -0.200245
000030 8d be 92 3e ae 17 cd 3d d0 82 99 bd f3 ec e9 3c
       0.28661004 0.10014282 -0.07495654 0.028555369
000040 5f 85 b3 bb fa b6 a5 bd 5e 99 86 3e 45 2e 3e 3e
       -0.0054785456 -0.08091541 0.26288885 0.18572338
000050 ff e8 31 be b5 21 10 3e 11 47 e3 3c e3 48 07 bb
       -0.17374037 0.14075358 0.027743848 -0.002064281
000060 48 44 10 be 13 9f 1e be 5f 62 e4 3c b7 31 8f 3d
       -0.14088547 -0.1549037 0.027878938 0.06991904
000070 4e 63 73 3e 01 8c 41 3e de 4c 4b bc 60 69 3f bd
       0.2376835 0.18901064 -0.012408463 -0.046731353
000080 0a 7e ea bd 59 8a 74 3d 2b c8 83 3e 98 a4 9a be
       -0.11449821 0.05970225 0.25738654 -0.302037
000090 b5 6f 04 be 75 b5 7d bd b1 f3 23 3e f2 cd 8d 3e
       -0.12933238 -0.06194063 0.1601093 0.27696186
0000a0 3e c5 86 be 60 f4 12 be ef 20 bd 3d 73 e1 86 3e
       -0.2632236 -0.14351034 0.09234797 0.2634388
0000b0 59 9a 40 3e 35 95 45 be 82 07 b0 bd 8b f7 22 3d
       0.18808879 -0.19295199 -0.08595182 0.039786857
0000c0 c3 bd 70 3e 20 59 94 3d 74 6c 05 3e 1a ff 35 3d
       0.23509888 0.07243562 0.13029653 0.044432737
0000d0 a6 02 c6 3d 7b 6a f9 3d 27 29 12 3e cf 54 44 3c
       0.09668474 0.12178513 0.14273511 0.011983111
0000e0 53 9b ac 3e ad ee 1d 3e f5 11 45 3e 3d 7b 83 3e
       0.33712253 0.15423079 0.19245131 0.2567996
0000f0 0d a1 4f 3e 06 b8 44 3e 00 b0 90 3e e8 a8 ae bd
       0.2027628 0.19210824 0.28259277 -0.0852831
000100 3f 97 50 be fe 75 16 bf cc 92 b3 be 3c 67 f0 3b
       -0.20370196 -0.5877379 -0.35072935 0.0073365252
000110 96 9b 12 bd c9 d4 9a be 63 29 7c be eb 5f d2 be
       -0.03579291 -0.30240467 -0.24625163 -0.41088805
000120 77 af 53 be 3f 9f 96 bd d9 09 92 bd 2c cb 81 bc
       -0.20672403 -0.073545925 -0.071307845 -0.01584395
000130 64 d3 98 bd 69 43 d7 bd 14 0b 07 3d f0 8d cf bd
       -0.074621946 -0.10510904 0.03296955 -0.10134494
000140 01 a3 a3 3e 92 43 1f 3e 24 49 62 bc d1 d5 0d be
       0.319603 0.1555312 -0.013811383 -0.13851096
000150 5b c5 90 be 85 f5 76 3e 6c e4 94 3e c0 c1 5e be
       -0.2827557 0.24117096 0.29080522 -0.21753597
000160 4d 4c fe bd 35 b6 d5 bd 8b 12 f9 bc a3 8a 86 3e
       -0.12416897 -0.10435144 -0.03040435 0.26277646
000170 bb a5 50 3e c0 b2 80 be 63 63 9c bd 74 50 71 be
       0.20375721 -0.25136375 -0.07636144 -0.23565847
000180 ff ab aa 3e a7 f9 76 3c b9 68 62 3e cf a5 87 be
       0.33334348 0.01507417 0.22110261 -0.2649369
000190 c1 1c e9 bc 90 a3 bd bb 00 b7 5a 3d 92 b5 a6 be
       -0.028456094 -0.0057873204 0.05339718 -0.32560402
0001a0 9e ff 9c be a2 9e b9 bd 0c b6 6a be fb 54 c7 be
       -0.3066377 -0.0906346 -0.22921008 -0.38932022
0001b0 aa 7e cb be 0c c1 05 be 95 5f 98 be 86 fc 54 be
       -0.39745075 -0.13061923 -0.29760423 -0.20799455
0001c0 d9 b2 c0 be f8 4a 88 be 52 19 e2 3e 2c 18 35 be
       -0.3763645 -0.26619697 0.44159943 -0.17685002
0001d0 28 c9 ae be df 48 0f be a3 b5 ca 3d 3d b8 c3 3e
       -0.34137845 -0.13992642 0.09897926 0.382265
0001e0 4a 8b 39 be 0b ec b6 bd c0 67 bb bb 5a 84 8c 3e
       -0.18119541 -0.089317404 -0.005719155 0.27444726
0001f0 d0 fc b2 3e 56 f1 cf 3d 16 07 23 3e f9 00 05 3e
       0.34958506 0.10153453 0.15920672 0.12988652
000200 22 23 c5 3d 80 4a 77 be 66 7f 07 be d6 95 ff bd
       0.09625842 -0.24149513 -0.13232192 -0.12479751
000210 6a da bd be c2 ca 91 bd 3f ed 32 be bf 8b 79 bd
       -0.370807 -0.07118751 -0.17473315 -0.060924288
000220 fd 3c 1e be d6 bc 08 be 05 2a e2 bd d9 fa 5f 3e
       -0.15452953 -0.13353285 -0.11043171 0.21873035
000230 bc 8d 8b bd 1d 51 1c 3e b3 11 a4 3e 7d f8 a5 3d
       -0.06814143 0.15265317 0.32044753 0.08104036
000240 f6 dc 0c 3e 49 5c 86 3e 73 31 91 3e ae ec c1 3d
       0.13756165 0.26242283 0.2835804 0.09468971
000250 a5 3f 47 3e f3 33 1a 3e
       0.19457872 0.1505888

conv1.bias f4 [6]
000000 c9 49 2c bd df 06 5c be ce ec 2f 3e 3f 01 10 bc
       -0.042062555 -0.21486996 0.17180178 -0.00878936
000010 9f 9f 52 be a3 4f 1f be
       -0.20568703 -0.15557723

conv2.weight f4 [16, 6, 5, 5]
000000 d9 da 00 be 86 e1 d8 bd d6 5e 23 3d 59 01 03 3c
       -0.12583484 -0.1058989 0.039885364 0.007995927
000010 a7 77 23 bc e3 fa 01 bd 76 75 a3 bd 5b d8 97 bd
       -0.009977258 -0.031733405 -0.07981388 -0.074143134
000020 67 40 57 bd f8 34 1e 3c 40 71 fe bd 11 03 df bd
       -0.052551653 0.009656183 -0.124239445 -0.10889257
000030 ca c7 5f be d1 a4 5e be 11 bd 16 be 5e 84 f0 3c
       -0.21853557 -0.2174256 -0.1472056 0.029359993
000040 f4 ee 09 3e bd e5 75 3d 90 0c 0d 3c b8 e0 b7 be
       0.1347006 0.06003355 0.008608952 -0.35913634
000050 ca cd dc 3c 8c fc 7f bd 83 57 32 3d 33 94 8b 3e
       0.026953597 -0.062496707 0.04354049 0.27261505
000060 6a 08 34 3e 32 cd 3c bd 2d 81 8c 3d d0 36 3c 3e
       0.17581335 -0.046094127 0.06860576 0.18380284
000070 43 16 3f 3d e5 e1 55 3d 01 a2 33 be a9 37 47 be
       0.04665209 0.052217383 -0.17542268 -0.19454826
000080 9b ef ce bd 58 31 c7 bc ca 7c 4c 3d 4d 0c 6b be
       -0.10104295 -0.024315521 0.049923696 -0.22953911
000090 dd de 46 be 98 3c a5 be a3 c7 38 be 97 fd 24 be
       -0.19420953 -0.32272792 -0.18044905 -0.16112362
0000a0 1f da 21 be 2b f7 d1 bd ea 9b 40 be 54 70 3a be
       -0.15805863 -0.10252222 -0.18809476 -0.18206912
0000b0 21 eb 45 be 91 7c 34 3d c7 0e 11 3e 26 e5 49 3e
       -0.19327976 0.04406411 0.14165793 0.1971632
0000c0 fb 92 77 3d f1 af 5d 3d fe 84 51 bc 96 f1 c3 3d
       0.060442906 0.05412287 -0.012788055 0.09567563
0000d0 ad ff 28 3c d4 fe cb 3d be 0c 94 bd 0c 2b d4 bc
       0.010314864 0.09960714 -0.07228993 -0.025899433
0000e0 d6 5b c6 3d 09 cc 36 3e 4c 87 21 3e 38 d3 1b 3e
       0.09685485 0.1785127 0.15774268 0.15217292
0000f0 82 15 81 3c db 97 fc 3b a9 74 3a 3d 4f 8d ec 3d
       0.015757326 0.0077085323 0.045521412 0.1155039
000100 b0 f6 83 3e 56 e6 06 3d c4 b8 6e be b8 eb 89 be
       0.25774145 0.03293451 -0.2331267 -0.26937652
000110 68 3b cb be d8 29 b1 be 66 d5 39 bd e4 a6 25 bc
       -0.3969376 -0.34602237 -0.04536953 -0.010110591
000120 4a 23 93 3d b4 b5 70 bd 78 48 58 bd 74 6e e5 bd
       0.07184465 -0.058767036 -0.052803487 -0.11202708
000130 f5 5a 08 bd dc 2b bb 3d 87 d6 db 3c c9 8d c1 3c
       -0.03328987 0.09139225 0.026835693 0.023627179
000140 bd 8b 55 bd 65 0d a0 bc 65 0f a7 bd dc 89 4b bd
       -0.052135218 -0.019537637 -0.08157233 -0.04969202
000150 d3 bc 89 bc ea c2 19 be f4 b3 8c bc b7 5d 91 bc
       -0.016813671 -0.1501576 -0.017175652 -0.017744882
000160 1f 31 85 be dc f0 ba be 35 9e 05 bd 95 3a ac bd
       -0.2601404 -0.36511886 -0.03262158 -0.08409611
000170 07 ee 98 3d c8 31 01 3e 44 69 9d bd 2b f0 ca bc
       0.07467275 0.12616646 -0.076860934 -0.024772724
000180 80 f9 15 3e fa d1 a5 3d cf 74 2f 3e cf 20 79 3e
       0.14645958 0.080966905 0.17134403 0.24328922
000190 9f 75 3e bd fd 56 fd 3d 93 fc 0c 3e e1 52 7f 3e
       -0.04649889 0.12370107 0.13768224 0.2493396
0001a0 08 2c ea 3d 10 b6 c2 bd e3 bc 68 be d3 dc 2d be
       0.114341795 -0.09507382 -0.22728305 -0.16978769
0001b0 8c e7 b7 3d 91 3e 20 3e 46 5a 66 bd 28 9c cc bd
       0.08979711 0.15648867 -0.056238435 -0.09990722
0001c0 cb 23 9e be f0 6b 96 be c8 c5 03 be 68 c9 6f 3e
       -0.30886683 -0.29379225 -0.12868416 0.23416674
0001d0 90 d3 4a 3e ad 3c 03 3e 78 be ae 3c 43 93 2f bd
       0.19807267 0.12816115 0.021331057 -0.04286505
0001e0 b9 35 2c 3e 38 73 40 3e a0 ca a5 3c f5 d6 4d 3e
       0.16817369 0.18793952 0.02023822 0.20101531
0001f0 fb 56 9d bd 63 57 3d be 1e d3 fd bd 52 c2 d3 bb
       -0.07682606 -0.18490367 -0.12393783 -0.006462374
000200 c6 ef bb 3d 03 de a7 3d fc eb 15 bb bd c4 2e be
       0.091765925 0.08196642 -0.0022876253 -0.17067237
000210 02 a4 c1 be 8e 19 57 be e5 52 24 3c f0 29 20 3e
       -0.3782044 -0.21005842 0.010029529 0.15640998
000220 fe 00 e4 3d 2a c9 8e 3d 20 3d 33 be 6e 94 81 be
       0.11133002 0.06971963 -0.17503786 -0.25308555
000230 15 eb 18 3e 47 d4 2f 3e 62 8a 25 3e 77 ae 96 3d
       0.14933427 0.17170821 0.1616607 0.07357495
000240 78 04 b5 bc 5b 8e 00 3e 9f 22 a6 3d 75 ff 2d 3e
       -0.022096857 0.12554304 0.08112072 0.1699198
000250 20 9f 15 3d bd 14 8d 3b b7 d6 ca 3d 93 fd 60 bd
       0.036528707 0.0043054507 0.09904235 -0.054929327
000260 b1 db ff bd 70 cb a9 bc 8d bb 88 3d 6d 0f 1f 3e
       -0.12493075 -0.02072689 0.066763975 0.15533228
000270 9e b4 9b 3e dd c5 33 be 8d 78 7f be 85 d2 5b bd
       0.30411237 -0.17555948 -0.2494833 -0.053667564
000280 49 20 eb 3d 00 d8 55 3e 53 10 e9 3c 57 21 5e be
       0.11480767 0.20883179 0.028450167 -0.21692406
000290 81 75 ba bd c2 f4 91 be 48 a0 c2 3b a0 13 17 3d
       -0.09104443 -0.28507048 0.005939517 0.03688395
0002a0 c7 e5 13 be b0 df 0b 3d c8 6e ba bd f4 2d 22 bb
       -0.14443122 0.034148872 -0.09103161 -0.0024746628
0002b0 71 f2 35 bc 40 c2 2d bd 5f 3c e2 3a a2 be 7a bd
       -0.011105166 -0.04242158 0.0017260424 -0.061216958
0002c0 d4 d7 43 be 3a c4 da 3c e8 7f 90 bd 65 a0 d4 bc
       -0.191253 0.026704896 -0.07055646 -0.025955388
0002d0 3c c7 d3 3d 2d ea ab 3c fe 33 26 be 19 ed bb 3d
       0.10340735 0.020985687 -0.16230771 0.09176082
0002e0 ac d6 48 3d ab e2 85 3e e0 6e b4 3d 63 1d 86 bd
       0.049032852 0.26149496 0.0881021 -0.06548574
0002f0 fa 42 29 3e e0 f3 0d 3e 34 54 fb 3c 9e 4d b3 3d
       0.16529456 0.13862562 0.0306798 0.08755039
000300 96 0a 8e bd 99 c3 32 3e 5d 30 f7 3d 59 ae 8c bd
       -0.06935613 0.17457427 0.120697714 -0.06869192
000310 78 fa 39 bc 4b a4 44 3c f3 56 d9 3d 70 34 0c 3e
       -0.01135122 0.012002061 0.10612287 0.13691878
000320 6b 6b a9 3d 00 48 f4 bc 0d f2 9e 3d fe 9f 25 bd
       0.082724415 -0.029819489 0.07761011 -0.040435784
000330 ff ad ce 3c a7 48 8e 3d 9b 1d 34 be cf 2e 98 be
       0.025229452 0.06947451 -0.17589419 -0.29723212
000340 2d d9 5d be 72 d7 b5 bd de ec 00 be ad 9c 9f be
       -0.21664877 -0.088789836 -0.12590358 -0.31174222
000350 52 25 7f be 5f aa d1 be 2d 32 a5 3d 3a 5e c2 bc
       -0.2491658 -0.40950295 0.08066211 -0.023726571
000360 37 ca 0e bd 50 3c 11 be e2 43 9c be 77 c5 0d be
       -0.034860816 -0.14183164 -0.3052054 -0.13844858
000370 38 40 a4 3d 8d cb dc 3c cf c1 d3 bd 07 9e 64 be
       0.08020061 0.02695253 -0.103397004 -0.22325908
000380 df dc fa bd 28 0c 34 3e 25 fb 62 3e 24 8b 8b bd
       -0.12249159 0.17582762 0.22166117 -0.06813648
000390 20 d7 5b be af f2 72 bd c8 76 ca 3d a5 38 30 3e
       -0.21468782 -0.059313472 0.09885937 0.17209108
0003a0 39 42 48 3d 3a b2 bb bd e7 43 e9 bd 84 68 19 3c
       0.04889128 -0.091648534 -0.113899045 0.009363297
0003b0 cc a3 ed 3d 46 71 7f 3d f3 4f 3f 3d b4 88 3b 3c
       0.116035074 0.062363885 0.046707105 0.011446167
0003c0 b1 3e a8 3c 79 8b ea 3d 81 e3 0e 3e 4c 47 0e 3d
       0.020537706 0.114523835 0.13953973 0.034735963
0003d0 7d 3a 49 3d d6 a8 b7 3d e9 01 79 bd 9c 72 29 be
       0.049128044 0.0896775 -0.060792837 -0.16547626
0003e0 46 38 ac 3d a8 4e bb 3d ed d5 54 3d f1 1f 21 bc
       0.08409171 0.09145862 0.051961828 -0.009834276
0003f0 06 46 85 bd 5a 68 c2 bc 5c 45 57 3e f9 cf 3c 3e
       -0.065074965 -0.0237314 0.21022552 0.1843871

conv2.bias f4 [16]
000000 ca 56 80 3d 83 24 ba bd 7a ae e4 bd a2 12 d6 3d
       0.06266554 -0.09088995 -0.11166091 0.10452773
000010 39 a3 81 bc ca 36 c4 bc 4f 8c 76 bc 04 f4 ac 3d
       -0.015824901 -0.023951907 -0.015048101 0.0844498
000020 76 51 a1 3d a5 46 05 bd 68 15 ec 3b 5b 01 d4 bd
       0.078768656 -0.032538075 0.0072047003 -0.10351821
000030 88 42 46 bd c0 e3 eb bd e6 f1 f5 bc ac 74 9b 3c
       -0.048403293 -0.11518049 -0.030022573 0.018976532

fc1.weight f4 [120, 256]
000000 77 be ae bb ab 02 d6 bc ed 1c a3 3c 1a 36 81 bd
       -0.005332764 -0.026124319 0.019911254 -0.06309147
000010 ff 80 bf bd f8 bf 3f bd fb 7d 34 3d 35 96 a3 bd
       -0.09350776 -0.046813935 0.044065457 -0.07987634
000020 cd db de bd dd 0c 61 3e 6d 45 2a bd ae b1 26 bd
       -0.108817674 0.21977563 -0.041570116 -0.040696792
000030 a9 db b8 bd 0f 9b 66 be 5f f6 a5 3d 1a c5 ee 3d
       -0.09026272 -0.22520088 0.08103632 0.11658688
000040 70 71 06 3d 34 66 97 3c 10 ea 37 bd f9 30 dd bd
       0.032823026 0.018481351 -0.044900954 -0.108003564
000050 08 48 84 bc 24 2d db 3d a1 35 16 bd ac 10 54 bd
       -0.016147628 0.10701969 -0.03667224 -0.051773712
000060 9e 2d 6b be ff 45 45 3e f4 ab da 3c 63 bf f0 3b
       -0.2296662 0.19264983 0.026693322 0.007347034
000070 7d 5d 91 bd 11 da ca 3d 4b 5f 9a 3d c9 77 54 bb
       -0.070979096 0.09904874 0.07537707 -0.003242003
000080 b4 73 84 3d 14 8f 1c bd a8 fc 2c bd 9b 4c 89 bd
       0.06467381 -0.038222387 -0.04223314 -0.067040645
000090 23 21 3d 3e 4e 99 56 3e eb fd 20 3c 9e 1b 04 bc
       0.18469672 0.20956919 0.009826164 -0.008063225
0000a0 b7 63 27 3e 40 d9 bb 3c b3 9f 4b bd e3 a3 4a 3b
       0.16346632 0.022930741 -0.049712848 0.0030920438
0000b0 b3 c9 be bd e0 46 02 bc ee 0f 18 3c dc a0 91 3d
       -0.09315815 -0.007951468 0.009281142 0.071107596
0000c0 b0 b7 0a be 2d 87 27 be fb 61 98 3c 0d e4 a2 bd
       -0.13546634 -0.16360159 0.018601408 -0.079536535
0000d0 d3 01 ed 3d 3b 5f a0 3d 5b f6 14 3e 5c 4d 77 3d
       0.115726136 0.07830664 0.14547102 0.06037651
0000e0 af d6 2d bc ab d9 bb bd 3c 1a 24 bc 87 6f 59 3b
       -0.010610267 -0.09172376 -0.01001602 0.0033178048
0000f0 eb 7a 45 bd 9e 31 65 bc 3a ae 8e 3d dd c9 7d 3d
       -0.048212927 -0.01398888 0.06966825 0.06196009
000100 ea 40 96 3d 14 f8 16 3e 05 30 0c 3e 61 11 77 3d
       0.073366 0.14743072 0.13690193 0.06031931
000110 ac 40 91 bc c2 b6 0c be 65 57 11 be c6 45 1b be
       -0.017731033 -0.13741592 -0.14193495 -0.15163335
000120 4c 23 bc bd fd 30 3a bd 8a f5 03 3d bf 9b 84 bd
       -0.0918642 -0.045456875 0.032216586 -0.06475019
000130 5e 1f a0 bc 3d 9f 75 ba f6 1c 5e 3d e9 72 64 bc
       -0.019546207 -0.00093697367 0.054226838 -0.013943412
000140 3f 6d e2 3b 31 d4 99 bd 27 e6 56 bd dc e3 58 bd
       0.006909996 -0.075111754 -0.052465584 -0.05295168
000150 3e 88 2f bc af ba 28 be 17 84 1e be 85 a1 7a bc
       -0.010713635 -0.16477464 -0.15480076 -0.015297298
000160 40 a3 f1 bc 2f 15 3b bd f5 fc 4f bc 6d 02 66 3d
       -0.029496789 -0.0456745 -0.012694587 0.056154657
000170 93 9c 30 bc 70 bb 29 be 1d 5f f8 bd 30 98 eb bd
       -0.010779518 -0.16575408 -0.121275164 -0.11503637
000180 65 1b 0c 3c c9 81 09 3e 5e 7c 41 bd 95 4d 4b 3e
       0.008551453 0.13428415 -0.047237746 0.19853814
000190 40 b0 e2 3d 37 9b 3f 3e 14 17 f6 bd c3 b7 c5 bb
       0.11068773 0.18711554 -0.120161206 -0.006033869
0001a0 bd 37 65 bc 91 26 13 be a1 ec ba 3c a6 dc 88 3d
       -0.01399034 -0.1437018 0.022817912 0.0668271
0001b0 9c 10 56 3a 33 8a a0 bd f3 e5 ba bc 64 e0 83 3d
       0.0008165927 -0.078388594 -0.022814726 0.064392835
0001c0 9a 88 21 3e 65 01 40 3d 2d f9 e2 ba 79 1b 0a 3e
       0.15774766 0.04687633 -0.0017316692 0.13487042
0001d0 01 dd 42 be c6 18 4a bd bd 6d 44 3d c5 2a f2 bc
       -0.19029619 -0.049340032 0.047956217 -0.02956141
0001e0 2c d0 0a be c7 9e 02 be 84 b7 04 be 0e 03 93 bd
       -0.13555974 -0.12755881 -0.1296063 -0.07178317
0001f0 ae 19 97 3c 71 3f fa 3c 98 89 05 bd 4b 5f 26 be
       0.018444862 0.03054783 -0.032601923 -0.16247289
000200 a1 f7 35 3d f2 29 ae 3d f1 4c b6 3d b7 cc 1a bd
       0.04442561 0.08504094 0.08901394 -0.037792888
000210 cb 8a 56 bd 29 d1 49 be 6a cc db bd ae 67 1a be
       -0.052378457 -0.19708695 -0.10732348 -0.15078613
000220 2a 5d a3 3a 91 63 81 bb cd 94 88 3d 9b 60 ac bd
       0.0012463678 -0.003948637 0.066690065 -0.084168635
000230 2e 81 2e be 4d da 35 be a7 88 11 bd db 0c 0c be
       -0.17041466 -0.17759056 -0.035530712 -0.13676779
000240 ac c8 c6 3d ef c1 24 3c 29 fd cb bd bb a3 32 3d
       0.09706244 0.010056003 -0.09960396 0.043613177
000250 55 a7 52 3d df 2a 13 be 77 df 85 3c fd 84 d4 bd
       0.05142911 -0.14371823 0.016341908 -0.10376928
000260 80 00 d5 bc 7c f6 1c 3d 0b a7 d3 3d ac 4f 39 bc
       -0.026001215 0.038321003 0.10334595 -0.011310499
000270 52 f0 25 3d 21 0f 67 bd 40 9c d1 3d a0 a3 8e 3c
       0.04051239 -0.056410912 0.102348804 0.017412007
000280 65 32 8a 3c 9f 31 c8 bd 49 27 b3 bd ca af 8d bc
       0.016869733 -0.097750895 -0.087477274 -0.017295737
000290 91 0e c4 3d 63 ee 41 3d 3f b1 1f bc 43 42 59 3d
       0.09573091 0.047346484 -0.009746849 0.053041708
0002a0 a4 45 f8 3c 35 3a 00 be 91 c4 c1 bd 08 67 82 bd
       0.030306645 -0.12522204 -0.0946132 -0.06367308
0002b0 94 01 9d 3b 9e 5c 3e bc 18 f5 0d bb 94 e3 31 3c
       0.004791448 -0.011618761 -0.002166098 0.0108574815
0002c0 15 cb 31 3e 7b 7f 8e bd 60 c0 45 bd 5b 99 8c bd
       0.17362626 -0.06957909 -0.048279166 -0.06865188
0002d0 f5 e4 55 3b f8 95 8c bc 39 9d 05 be 02 28 49 bc
       0.003263769 -0.017161354 -0.13048257 -0.012277605
0002e0 92 e2 e2 3d 62 93 6e bc 2e 5c 6f bd 97 49 8d bd
       0.11078371 -0.014561506 -0.05843752 -0.06898802
0002f0 82 3a 1c 3d 93 e7 5d bd 12 45 ea 3b 27 61 94 3d
       0.038141735 -0.054175925 0.007149347 0.07245093
000300 9e 4b 33 3d 76 c9 53 bd 17 0b 42 3d 8a e2 00 3e
       0.043773286 -0.0517058 0.047373857 0.12586418
000310 c6 df 33 3c 55 71 1b bd 05 cc c8 bd 37 ce 1e bd
       0.010978645 -0.03794988 -0.09804539 -0.03877088
000320 e0 36 30 3d 24 3d 4a be 48 b3 87 bc 31 82 4e 3d
       0.043021083 -0.19749886 -0.01656498 0.05041713
000330 60 b4 fd bc 27 50 b6 bd de 37 da bc 0e b9 94 bd
       -0.030969799 -0.089020066 -0.026637968 -0.07261859
000340 bd f5 f1 bc 72 8a 3a bd 74 43 0d be 1e 62 ba 3d
       -0.029536122 -0.045542188 -0.13795263 0.091007456
000350 13 9d 84 3e b9 6d 32 3d 7e 3d 38 bd 13 22 65 3d
       0.25901088 0.04356167 -0.04498052 0.0559407
000360 53 6c a8 3c 12 2f 26 bd ec 89 4d bd 84 d3 b8 3d
       0.020559466 -0.040572233 -0.05018036 0.090247184
000370 05 2f ad ba ca 60 99 3b d8 3d 2f bd 0b f6 d1 bd
       -0.0013212865 0.0046807276 -0.04278359 -0.10252007
000380 12 67 82 3e dd 43 25 3e d5 11 51 bd 82 75 14 3c
       0.2546926 0.16139169 -0.051042397 0.009061219
000390 51 10 6f 3d f6 be e9 bc 24 ba ce 3c f6 9b a2 bd
       0.05836517 -0.02853344 0.025235243 -0.079399034
0003a0 f2 2c 4d bd bd a7 74 3d 1d 6e f7 bd 5e fe 2d bd
       -0.05009169 0.05973028 -0.12081549 -0.04247891
0003b0 02 7a 8a bd 3d b1 b1 3b a4 20 de 3d 19 42 d1 bd
       -0.067615524 0.00542274 0.108460695 -0.10217685
0003c0 e8 77 61 3e 98 22 ba 3d 73 bd 73 3d a9 8c 35 3c
       0.22018397 0.090886295 0.059506845 0.011080899
0003d0 b1 6a 87 bc 38 92 ac bd 7a 5d cc bc 7d 45 15 be
       -0.016530367 -0.084263265 -0.024946917 -0.14577289
0003e0 6e 66 3e 3c 8e b0 05 3d a8 0b 8d 3c 77 e1 05 3d
       0.011621101 0.03263908 0.017217472 0.032685723
0003f0 b6 d2 f7 bd 0b e3 e0 bd 9c a4 dc bc ed 92 78 bd
       -0.12100737 -0.10980805 -0.02693396 -0.060686994

fc1.bias f4 [120]
000000 da 87 e4 bc d0 93 4f bd 85 98 ac bd af 71 60 3c
       -0.02789681 -0.050678074 -0.08427528 0.013698979
000010 08 51 94 bc ca 5d 5e 3d fc 69 db bc dc 0e 1c 3d
       -0.018105045 0.054288663 -0.026783936 0.03810011
000020 2a 37 4b 3d e3 43 24 bd bc a8 b9 bc 2f f3 2d 3d
       0.049613155 -0.040103804 -0.022663467 0.042468246
000030 67 c0 cc 3c e5 4b 1e 3d b3 89 a2 bd db 83 c1 bc
       0.024994088 0.038646597 -0.0793642 -0.023622444
000040 f0 4a 32 3d 67 32 a8 bc e0 0b 09 bd 12 69 d8 bd
       0.043528497 -0.020531846 -0.03345859 -0.105669156
000050 d0 5d fd 3b 42 7e ba 3d 41 ff 63 bc d0 4f 0e 3d
       0.0077321306 0.09106113 -0.013915838 0.034744084
000060 7c 99 cd 3c b7 a6 59 3d b2 6c 15 bd e9 38 f1 3d
       0.025097601 0.053137507 -0.036480613 0.11778433
000070 df 35 33 bd 27 09 2b 3d a3 91 6b bd a4 35 a4 3d
       -0.043752547 0.041756775 -0.057511937 0.08018044
000080 4f 04 a4 3c fc 87 16 3d 9f c8 98 bc fb c1 86 3b
       0.020021586 0.03675078 -0.018650351 0.0041124797
000090 c4 b2 08 3d 18 9d ec 3c 19 e9 fe bc 10 55 84 3d
       0.03337361 0.028883502 -0.031117009 0.06461537
0000a0 83 c5 40 bd 9f 5d 4a 3b 1a 6e d1 bd c0 6d b5 3a
       -0.04706336 0.0030878556 -0.10226078 0.0013841912
0000b0 28 83 5d bb 8b da 01 3d ec 7c 82 3c d2 c0 a4 bd
       -0.00338001 0.03170256 0.015928708 -0.0804459
0000c0 61 53 9d bb 65 de e9 3c 02 d2 e2 bb 12 19 83 bd
       -0.0048011993 0.028548429 -0.0069220075 -0.06401266
0000d0 f6 5d 18 bc ca 4d db bd 48 97 2f 3c 6e ca 6f 3b
       -0.009299746 -0.107081965 0.010717221 0.0036589163
0000e0 78 5c 02 bb 38 48 cb bc 3c 02 9b b9 96 6a a1 3d
       -0.0019891541 -0.02481471 -0.0002956557 0.07881658
0000f0 66 02 79 bd 4d e2 24 bc c9 39 5d bd e4 24 a1 3d
       -0.060793303 -0.01006372 -0.054010186 0.078683645
000100 d2 29 94 3d 82 fb a5 bc 0e 03 88 3c 8e b2 15 3d
       0.07234539 -0.02026153 0.01660302 0.036547236
000110 64 b7 3b bd 72 69 db bb bd 2a 81 3d 6d c9 f6 bc
       -0.04582919 -0.0066959197 0.0630698 -0.030125344
000120 8d 8c fb bc 5a fa 1f 3d 77 e2 1f 3d 4d 4d 40 3d
       -0.030706668 0.039057113 0.039034333 0.04694872
000130 e4 d8 a2 bd f3 a7 68 3c 98 b6 08 3d 2a 24 d0 3c
       -0.07951525 0.014200198 0.03337726 0.02540787
000140 31 6d 0c 3d 12 5e 05 bd c4 e1 42 3c 87 02 17 bd
       0.03428382 -0.032560416 0.011894647 -0.036867645
000150 c8 63 85 3c 6c 00 4e 3d 3d 2d 22 3d f5 b0 f4 3c
       0.016282931 0.05029337 0.039593924 0.029869536
000160 17 45 ad 3b 7a c9 1b 3d 50 6c 9b 3c 62 d0 a8 ba
       0.005287777 0.03803394 0.018972546 -0.0012879486
000170 55 6b 2c 3a a2 4f 52 3d d6 29 4d bd 2a 30 9d bd
       0.0006577273 0.051345475 -0.050088726 -0.07675202
000180 8a f6 45 3d 5c 99 5a bd 7c 48 3d bc 68 56 58 3c
       0.04833082 -0.05336891 -0.011552926 0.013204195
000190 36 ab 22 3c 37 9d bf 3c 07 e0 f6 3c b4 f8 ab bb
       0.009928515 0.023390396 0.030136121 -0.0052481536
0001a0 40 46 9b 3a 39 1f aa bd 0e c2 e0 3c 4a 32 dd 3c
       0.0011846498 -0.083067365 0.027436282 0.027001519
0001b0 fc 47 2b bd de b9 8d bc ea 29 62 3c 0d c0 19 bd
       -0.041816697 -0.017300542 0.013803938 -0.03753667
0001c0 e7 8c a9 3c 0f 58 8d 3c a8 80 56 3c c2 fc 83 bc
       0.02069707 0.017253904 0.0130921975 -0.016111735
0001d0 04 ed 5f bd 74 42 84 3d e2 32 75 bd b6 93 31 3d
       -0.054669395 0.064579874 -0.05986298 0.04335376

fc2.weight f4 [84, 120]
000000 a7 df 6b bc 00 36 ce 3d d1 8a 8e 3d b8 58 57 3b
       -0.014396585 0.100688934 0.06960071 0.0032859277
000010 bc 6d b2 bd 3d 9d 2f be 93 e2 1b 3e 77 1b d3 3d
       -0.087123364 -0.17149825 0.1522315 0.10307973
000020 75 0f a8 3c 9e 8c 0b 3e 36 25 3e 3d 66 7a 39 be
       0.020515183 0.1362786 0.046422206 -0.18113098
000030 06 ef aa 3c a7 60 c0 bc 05 d3 d3 bb ff 9c 3d bd
       0.020865928 -0.023483587 -0.0064643645 -0.0462923
000040 9f 2a ac 3d a1 d2 f0 bd f7 0a 88 3d 52 86 77 3d
       0.08406567 -0.11758924 0.066427164 0.060430832
000050 bb 4c 54 3d fc b9 2a bc bd b5 0f 3e 96 d8 9f 3d
       0.05183099 -0.010420319 0.14034171 0.07804982
000060 05 c7 15 be 45 19 b6 bd 6a aa 35 bd 1e 0f 0c 3e
       -0.14626701 -0.088915385 -0.044351973 0.13677642
000070 f3 74 0f 3c d7 7b c6 3d 12 c1 75 be 20 3a 91 3d
       0.00875591 0.09691589 -0.23999432 0.070911646
000080 6d fa b0 bc f3 b1 1c 3e 72 cd 93 bc c9 16 67 3d
       -0.021603787 0.15302257 -0.0180423 0.056418214
000090 32 eb 76 be ea 79 14 3e 87 de 8c 3d 85 14 7c be
       -0.24113157 0.14499632 0.06878381 -0.24617203
0000a0 81 51 37 3e aa 65 eb bc 1d 67 84 bd 70 89 93 3d
       0.17902185 -0.028735 -0.0646498 0.072039485
0000b0 48 73 af 3d 8c b7 7d 3c 79 d2 92 3b 54 9f a8 bb
       0.0856691 0.0154856555 0.0044806567 -0.0051459465
0000c0 85 d4 36 3e 6a 60 dd 3d 45 64 12 3e 7f ae 87 bd
       0.17854507 0.10809405 0.14296062 -0.06625079
0000d0 4e de bb bd 24 7d 4b bd 99 aa 96 3c e5 e3 16 bc
       -0.09173261 -0.04967989 0.018391894 -0.009209608
0000e0 8d ab 36 be 00 d3 81 bd 22 f3 7d be 16 dc 90 3c
       -0.17838879 -0.06339073 -0.24799779 0.01768307
0000f0 56 5c 84 bc 61 d0 5f bd 48 d6 b4 3c 24 c6 97 bd
       -0.01615731 -0.054642085 0.022074834 -0.07410839
000100 c4 e3 86 bd 1c 63 82 3d 8a 7e 8c 3d 2c 46 aa bc
       -0.065864116 0.0636656 0.06860073 -0.020785414
000110 02 a5 1f be 4d b8 ae bd b3 c4 02 3e 0f 04 d8 3c
       -0.15590289 -0.08531246 0.12770347 0.026369123
000120 73 42 31 be 5a 82 e3 bd 7c a2 0b 3c 45 e2 55 be
       -0.17310505 -0.11108847 0.008522626 -0.20887096
000130 d5 9e 0f be 1e 0b 9c 3d cb 96 1e bd 8b 90 ad bc
       -0.14025433 0.07619308 -0.038718026 -0.021187088
000140 ba a2 bb 3d e8 a6 07 be 50 d8 36 3d 69 34 37 3a
       0.09161897 -0.13247263 0.044639885 0.0006988706
000150 c0 ec 3d 3d d2 31 88 3d bf 31 41 bc b2 93 99 3d
       0.04636836 0.066501275 -0.011791646 0.07498874
000160 cb e1 83 3d bf b3 59 3e c8 22 77 ba b0 a6 c8 bc
       0.06439551 0.21259974 -0.0009427485 -0.024493545
000170 2d 0e 8a bc 8e 16 55 bd 93 38 54 3d 15 9e a3 3c
       -0.016852463 -0.052023463 0.051811766 0.01997284
000180 53 25 8f bd 01 58 22 bc 1c b8 a6 3d 29 5e 4f 3d
       -0.06989541 -0.009908677 0.08140585 0.050626907
000190 6f 4a e0 ba 78 3b 38 be 90 95 06 be 91 9c 78 3c
       -0.0017112027 -0.17991436 -0.13142991 0.015174047
0001a0 17 43 be 3d dd 47 65 bb 94 e8 14 3d 28 03 e1 bd
       0.0929014 -0.003498546 0.036354616 -0.1098693
0001b0 5d 78 af bd ba a1 0c 3e c9 6b 40 bd e1 c1 54 3d
       -0.08567879 0.13733569 -0.046977792 0.05194271
0001c0 a4 be 2a 3c 3e 94 42 3d 63 e8 8d bd 8d 71 0d bd
       0.010421429 0.047504656 -0.0692909 -0.03453212
0001d0 19 1e 10 bd e0 47 24 be e0 33 f0 bc 54 fa b6 bd
       -0.035184953 -0.16043043 -0.02932161 -0.08934465
0001e0 c7 ef 59 3e fd f1 f7 3d f6 61 9c bd 91 80 e2 bd
       0.21282874 0.121067025 -0.07635872 -0.11059678
0001f0 73 0a 88 bc d4 eb 83 3c 95 c2 18 bd 4a a4 29 3d
       -0.016606545 0.016103663 -0.037294943 0.041416444
000200 b4 a0 7f bc ff 9e 21 3d 9e 33 87 3d c0 25 08 3d
       -0.015602279 0.03945827 0.06601642 0.033239126
000210 23 46 bf 3d 7a 14 ac bc ce 1f d0 3c 68 d5 08 3e
       0.093395494 -0.021005858 0.02540579 0.13362658
000220 50 e0 e2 3c c1 1c e6 bd 9d ca f8 bd 51 7f f6 3c
       0.027694851 -0.11235953 -0.121480204 0.030090006
000230 78 92 14 3c 18 27 73 bd 32 de 16 3e d5 88 70 3c
       0.009068124 -0.059363455 0.14733198 0.014681061
000240 a4 cb c6 3b 6e eb 0f 3e db bc c4 3d a8 95 c4 3c
       0.0060667563 0.14054653 0.09606334 0.023997143
000250 76 4e 4d bd a8 4a dc 3c 76 1a 03 bc 48 ea 0d bd
       -0.050123654 0.026891068 -0.008001914 -0.034647256
000260 ec 8f d3 bd 62 03 f0 3d 79 92 82 bb 4d e9 b1 3d
       -0.10330185 0.11719395 -0.003984746 0.08687077
000270 2e 8d db 3c b3 4d 30 be ac dc 88 3d c7 d0 92 3d
       0.026800718 -0.1721714 0.06682715 0.07168727
000280 c3 79 64 be 89 14 3c 3e 6d 00 12 3d 81 4f d0 3d
       -0.22312073 0.18367209 0.035644937 0.10171414
000290 da da 4b bd b4 b3 ba bd 55 fb be bb c4 13 c1 3c
       -0.04976926 -0.09116307 -0.005828301 0.023568995
0002a0 f1 9b cf 3d fa 85 5b 3c 8a a2 96 bd e5 0d 75 bd
       0.10137165 0.013398642 -0.073552206 -0.059827704
0002b0 96 e4 ca 3a 46 56 c4 3d f7 1c 90 3d c3 91 a3 3d
       0.0015479501 0.09586768 0.070367746 0.07986786
0002c0 26 26 a6 bd 02 9b 30 3d b4 d0 89 3d 5a 8b e5 3d
       -0.08112745 0.043116577 0.0672926 0.1120822
0002d0 45 48 c3 bd c4 d9 94 bd 56 ec 85 bd 45 b8 df bd
       -0.09535269 -0.07268098 -0.06539218 -0.109238185
0002e0 b4 ee 45 be 90 c1 36 bd 31 17 b3 bd d4 41 18 be
       -0.1932934 -0.04461819 -0.08744658 -0.14868861
0002f0 b7 b7 01 3e 2a c1 b4 bd d4 51 a8 ba 68 73 1e be
       0.12667738 -0.088259056 -0.001284177 -0.15473711
000300 21 6a 5d 3d 5b 90 84 bd 10 9c b7 bd 7e b3 07 3e
       0.05405629 -0.06472846 -0.089653134 0.13252065
000310 fb 67 41 3d 93 01 0c 3d d4 88 38 be 95 cd 9f bc
       0.047218304 0.03418119 -0.18020946 -0.019507209
000320 fc 65 2e bc 09 a8 29 be 55 0d ff 3c 50 d7 02 be
       -0.010644432 -0.16568007 0.031134287 -0.12777448
000330 f5 e2 09 3d 88 3e ca bd 02 cb 3b 3e 3d 48 9e bd
       0.03366371 -0.09875208 0.1833916 -0.07728622
000340 5f 55 c3 3c 56 e6 1f 3d 5e 6c c5 3d c7 87 30 3e
       0.023844419 0.039038025 0.0963981 0.17239295
000350 f0 7b 17 3c 2a ad 2b be 51 33 96 bd fa 79 12 3c
       0.009245858 -0.16765276 -0.073340066 0.008940214
000360 6a 79 2f 3e b7 d1 ed 3d 7f 95 07 be 1a 2d de 3b
       0.1713616 0.116122656 -0.13240622 0.006780279
000370 12 fe 89 bc d0 f6 84 3d 71 38 07 3d 43 e1 90 bc
       -0.016844783 0.06492388 0.03301281 -0.017685538
000380 45 2d ed 3c 47 96 ab 3d 6c 40 07 3e 4b f0 a8 3d
       0.02895225 0.083782725 0.13208169 0.08248957
000390 79 23 ff bd 8b 4f 09 bd bd 65 b0 3d 86 4a 51 bd
       -0.12457938 -0.033523124 0.08613155 -0.05109646
0003a0 f6 28 9f 3d 45 b2 9a bd 16 1d 0a 3e fc f9 e5 bb
       0.077714846 -0.075535335 0.13487658 -0.007018326
0003b0 2d ee 9d bd 85 3e 2d 3e cf d8 2f bd 9e 3e cc 3d
       -0.07711444 0.1691838 -0.042931374 0.09972881
0003c0 50 8b ca 3c 85 8f 2c ba 35 c6 ba 3d 03 dd 9f bd
       0.024724633 -0.00065826654 0.09119836 -0.078058265
0003d0 69 34 b6 3c 68 e5 2a bd 7d 87 26 bc 78 e7 c4 3d
       0.022241788 -0.041722685 -0.010164139 0.09614462
0003e0 e7 a1 0c be 03 3f 08 3e a2 36 a6 bd 00 fb 26 3d
       -0.13733636 0.13305287 -0.08115889 0.040766716
0003f0 10 2b 97 3d 86 e5 7c bd 40 65 cf bd a3 6a 41 bd
       0.073812604 -0.061742328 -0.10126734 -0.047220837

fc2.bias f4 [84]
000000 6e 74 c9 3d 98 ea 35 3e bc 6b 87 3d b5 ba 05 bb
       0.0983666 0.17765272 0.066123456 -0.0020405476
000010 8e 9e c0 3d 40 a1 1e bd 9a 4e 0e 3e 31 d2 e0 3d
       0.09405242 -0.038728 0.13897172 0.10977591
000020 40 21 15 3c 0f 8c a9 3d 10 be ba bc 46 30 92 bd
       0.009102166 0.08278667 -0.022795707 -0.07138114
000030 bb 28 e3 3d 8d 0c d4 bd b7 0f ad bd 82 2e 1b bc
       0.11091753 -0.10353956 -0.08450263 -0.009471538
000040 91 94 81 3d fd b0 13 bd e3 56 50 bd 52 63 92 bc
       0.06327165 -0.03605746 -0.05086411 -0.017869625
000050 85 3a 7d 3d 3a ce f0 3d d4 c0 1e 3d f1 c8 9d 3c
       0.061823387 0.117580846 0.038758114 0.019260855
000060 b3 76 bf bd fa 60 cd bd 8f 6f 6a 3d b4 8c 9a bd
       -0.09348812 -0.100282624 0.057235297 -0.07546368
000070 4a 3e 56 bd ab f4 c4 bc 9e 87 ed bc d8 23 2e 3d
       -0.052305497 -0.024042448 -0.028995331 0.042514652
000080 92 bf 11 3d d7 33 b8 bd a4 2b 29 bc 1b be 73 3d
       0.035583086 -0.08994263 -0.010325346 0.05950747
000090 5d c6 14 be ad fa b3 3c 03 dc 83 3b 5d 91 8c 3b
       -0.14528795 0.021970117 0.00402403 0.0042897896
0000a0 58 e6 ae 3d 23 19 c3 3c d1 12 e7 3d 9e 3a dd 3c
       0.08540028 0.023815697 0.11282886 0.02700549
0000b0 26 e0 3a 3b b0 2a 49 3d 78 d5 54 bc 0c 64 bd bd
       0.002851495 0.049112976 -0.012990348 -0.09247598
0000c0 51 b4 35 3d a0 4d d8 3d 6f 80 16 3e 67 85 8c 3c
       0.044361416 0.10561681 0.14697431 0.017153455
0000d0 e7 62 97 bc e6 53 d5 bd fa 7c c7 bc 6c 54 9b 3c
       -0.018479778 -0.10416393 -0.024351586 0.018961154
0000e0 09 18 8b 3d ea 39 94 bc 84 67 ff bb c7 de 05 3d
       0.06791694 -0.018094022 -0.0077943224 0.03268316
0000f0 5f 1b 47 3d 4a 28 d9 3d 16 9c d2 3c 15 48 c6 bd
       0.048610087 0.10603388 0.025709193 -0.09681717
000100 22 41 f8 3d 6a 18 7c 3b ad b1 a2 bd 35 8e eb 3c
       0.12121798 0.00384667 -0.07944045 0.028754333
000110 17 84 57 bd c5 cf 12 3c e5 f8 97 3d 22 b1 c2 3d
       -0.052616205 0.008960669 0.0742052 0.09506442
000120 07 80 03 bc ca 24 40 3d b2 0e 50 3c 70 13 47 be
       -0.00802613 0.046910085 0.012698816 -0.19441009
000130 46 d5 6f 3d 9f e6 f1 3d 9b 6d 8f 3d cc e7 dc 3c
       0.058553003 0.118115656 0.070033275 0.026965998
000140 0b 1f a8 bd 7c b5 d8 bd 82 64 92 3d ac 25 a6 3d
       -0.08209046 -0.105814904 0.071480766 0.08112654

fc3.weight f4 [10, 84]
000000 8c 2c 30 be a4 ce ad be ff bc 12 be 93 35 6b 3c
       -0.17204493 -0.33946717 -0.14329909 0.014356035
000010 d9 f0 00 3e d6 31 be bd fb a5 14 be e1 44 a4 3c
       0.12591876 -0.09286849 -0.14516442 0.020052375
000020 25 5a bc bd d6 c6 10 3e 0f b3 d8 3c ca 7d 1b bd
       -0.09196881 0.1413835 0.02645257 -0.03796176
000030 4b a8 44 be 51 87 55 bd c3 3f 20 3d 10 4f 74 3d
       -0.19204824 -0.052131 0.039123308 0.059645712
000040 91 1e 3e 3e 73 41 36 bd 2e 7e 18 3e 69 db e1 bd
       0.18566348 -0.04449601 0.14891884 -0.11028177
000050 f1 e1 ff bd e7 06 46 be d4 2b 7a bc 2c 24 61 bd
       -0.12494267 -0.1933857 -0.0152692385 -0.054966137
000060 13 a6 ba 3d 5b c4 8d 3d 0d 08 95 3d 70 92 06 3e
       0.091137074 0.069222175 0.07276926 0.13141799
000070 2b 3f 01 be 56 0c cb 3b 25 19 a6 3c b8 3c 10 be
       -0.12621753 0.006196539 0.020275662 -0.14085662
000080 c8 05 2c be cf 94 bd be 42 ec 0b 3e b7 52 0d 3d
       -0.1679908 -0.37027594 0.13664344 0.03450271
000090 c3 22 cf 3c 3c 2b 71 bd ea b9 74 be 12 01 78 be
       0.02528513 -0.058879122 -0.23899046 -0.24219158
0000a0 18 0e d9 ba 87 15 de bd 84 66 2d 3d d7 48 9b be
       -0.0016559986 -0.1084395 0.042334095 -0.3032901
0000b0 70 94 99 bb bf bd 0c 3d 74 95 cd 3d a8 df 06 be
       -0.0046868846 0.034360643 0.100382715 -0.13171256
0000c0 10 b8 06 3d 73 82 a7 bb 42 9f 9c 3d 86 5b 5d 3d
       0.03289038 -0.0051119863 0.076475635 0.05404236
0000d0 46 ec 0f be 0a c8 ae bd 64 20 c3 3d 9e 3e 13 be
       -0.14054975 -0.08534248 0.095276624 -0.14379355
0000e0 bb 7f ed 3b 7b 4c 8d bd f4 6b 69 be 00 49 a0 3c
       0.0072478927 -0.06899353 -0.22795087 0.01956606
0000f0 49 4c 47 be fd d6 aa bc 55 92 47 3e 3b 31 4d be
       -0.19462694 -0.020854468 0.19489415 -0.20038311
000100 b4 b2 26 be 65 9c 85 bd c6 c0 f0 bc 4b e8 b2 3d
       -0.16279107 -0.065239705 -0.029388797 0.087357126
000110 6c 19 c8 bd 83 6b 04 3e 9b 25 59 be 3c cf fe 3d
       -0.09770474 0.12931637 -0.21205752 0.124418706
000120 f9 4e d8 bd c0 93 f2 3c ed 6c 20 bd ab a0 e6 3d
       -0.10561938 0.029611468 -0.03916638 0.11261114
000130 cc 91 8e be 77 a6 15 be cd 48 27 ba 59 4f 89 3d
       -0.2784561 -0.14614283 -0.00063813926 0.067045875
000140 86 ce 34 bc 02 be 85 3d a3 4f 76 be 16 21 5d be
       -0.011035567 0.06530382 -0.24053816 -0.21594653
000150 64 47 e7 bc cc c8 81 bd 25 24 06 be 02 30 bc bd
       -0.028232284 -0.06337127 -0.13099726 -0.09188844
000160 d7 97 cf bd 6d 10 8e be 9a d8 0b 3e 8f 7d 82 3d
       -0.10136383 -0.27746907 0.13656846 0.06371605
000170 76 5d 09 bd 89 28 3b 3e 31 ff 22 3e 2e 71 ae 3d
       -0.033536397 0.18277182 0.1591766 0.08517681
000180 80 8d 0e be 4c 3c 1d be d5 e0 d7 bd 37 e7 4a 3d
       -0.13921165 -0.15355033 -0.1054093 0.04953691
000190 3b 8b 57 be f5 46 48 3d eb 9a 47 bd 5c 91 19 be
       -0.21049206 0.048895795 -0.048731726 -0.14996856
0001a0 8b 91 42 3d fc 37 44 be c3 e5 14 3e 1d 25 80 3d
       0.04750208 -0.19161981 0.14540772 0.06257079
0001b0 29 9b 3a be 6b 49 0e be 69 6a 04 3d bb 4e 5b be
       -0.18223251 -0.13895194 0.032328043 -0.21416752
0001c0 7d 45 44 3c dd 4e 69 3d 5b 52 31 3e 3b c3 55 3d
       0.011979458 0.056959976 0.17316572 0.05218814
0001d0 e7 9a 40 3e 66 2e 0e 3b 9d dd 9b 3d c0 39 49 3d
       0.1880909 0.0021695136 0.07610629 0.04912734
0001e0 8c 88 82 bd 1c 2c 9d 3d 23 25 fc 3d d6 e6 ad 3d
       -0.063737005 0.07674429 0.12311771 0.08491294
0001f0 a4 63 59 3e 6c 7a e8 3d 49 d3 da bd 50 30 f6 3d
       0.21229416 0.11351475 -0.10684831 0.12020934
000200 de 7c 03 be 6b 2e 67 be d8 d7 af bc 24 9e ff 3b
       -0.12840602 -0.22576301 -0.021465227 0.0078008343
000210 09 08 a0 3d 4b 67 62 bd 87 63 05 3e 2a d4 7d bd
       0.078140326 -0.05527429 0.13026248 -0.061969914
000220 e5 82 cb bc c9 36 ac bd ae 51 1f 3e b1 6c d8 3d
       -0.024842689 -0.08408887 0.15558502 0.10567606
000230 5e 74 f0 3d 0e 13 3e be 71 ae 1b be ba 13 44 bd
       0.11740945 -0.18561956 -0.15203263 -0.047870375
000240 b8 6e 0a be ba f6 e1 bd 20 c6 2f be 9f 7d 34 3e
       -0.13518798 -0.110333875 -0.17165422 0.17626046
000250 cd 5e ed 3c 80 f7 84 bd 0d 81 da 3d 3e 7d 6b 3d
       0.028975869 -0.064925194 0.10669146 0.057492487
000260 ef 97 0b be 1f 73 15 bd 74 a6 f4 3d 8c e7 0b be
       -0.13632177 -0.03648674 0.11945811 -0.13662547
000270 95 2b 83 3d 6c aa 8d 3d f7 91 a1 3d b2 80 cd be
       0.06404797 0.06917271 0.07889169 -0.4013725
000280 75 4a 98 bc 65 1f ff 3d d7 ca 52 bd 4e 4d d5 bd
       -0.018590191 0.1245716 -0.051462974 -0.10415135
000290 d6 58 17 bd 06 bc aa 3c 92 76 47 be 91 a9 84 3d
       -0.036949955 0.02084161 -0.19478825 0.06477655
0002a0 28 20 94 bd 59 3f cb 3c ab 5f c5 3d 63 2d f5 bc
       -0.07232696 0.02481048 0.09637388 -0.029928869
0002b0 40 26 c3 3d 0f c4 25 be e3 da f5 bd 62 d6 75 be
       0.0952878 -0.16188072 -0.1200464 -0.24007562
0002c0 02 d9 a1 bd 81 b2 b8 be be 56 4d be a6 ec 20 3e
       -0.07902719 -0.36073688 -0.20052621 0.15715274
0002d0 d1 0c ff 3d ff 01 d2 3d a0 00 98 bd 7f a3 1f 3d
       0.124536164 0.10254287 -0.07421994 0.03897428
0002e0 97 9f c6 3d f5 64 41 3b 8e c6 31 be 6f e7 27 bd
       0.09698408 0.0029509638 -0.17360899 -0.040992197
0002f0 dd 8c 0b 3e 77 c3 37 3d 0c d4 a2 bd 0a 18 37 bb
       0.13627954 0.044864144 -0.07950601 -0.0027937912
000300 63 1a a9 bd a1 1a 0a 3e 58 71 fc 3b fb 95 b4 bd
       -0.08256986 0.1348672 0.0077039413 -0.08817669
000310 2e 3a d6 ba 7b 7b 69 bd d2 fe c4 bc 48 0c 08 be
       -0.0016344243 -0.057002526 -0.024047289 -0.13285935
000320 5f b8 2c be 08 52 15 be d6 81 2c bd b0 e0 ab 3d
       -0.16867207 -0.14582074 -0.04211601 0.08392465
000330 f9 a8 d5 bb df 58 ff 3d 16 2b a8 3d 44 bf 1f 3e
       -0.0065203873 0.12468123 0.08211343 0.15600306
000340 f6 c2 1d be 54 bb 0c be eb 36 ef 3d 03 c2 79 be
       -0.15406403 -0.13743335 0.11680397 -0.24390416
000350 55 43 a9 bd 59 2c fa 3c 05 d6 28 be 00 27 a9 3d
       -0.08264796 0.030538725 -0.16487892 0.08259392
000360 0a 21 04 be 27 42 87 be 06 7f 3b 3e fd 61 16 bd
       -0.12903228 -0.26417658 0.18310174 -0.036714543
000370 45 45 17 be 3c 2d 4d bc 35 c6 1d 3e 5e 9c db bd
       -0.14772518 -0.012522992 0.15407641 -0.10723184
000380 a9 68 3b bd a4 10 bd 3d 8a 53 2e be 21 ba 81 be
       -0.04575411 0.092316896 -0.17024055 -0.25337318
000390 0d 1e 10 3e 51 6a a9 3d 56 68 5a 3d 51 68 16 be
       0.14073963 0.08272231 0.05332216 -0.14688231
0003a0 81 0e 6f 3d 24 c1 8d b9 81 34 9a bd e7 d4 fd bd
       0.05836344 -0.00027037517 -0.075295456 -0.123941235
0003b0 86 7d 32 be c1 f3 bc 3d cb 1f 00 3e 2b ce bf bd
       -0.17430696 0.0922618 0.12512128 -0.09365495
0003c0 ee fd 90 bd 1e 9e 3a 3b d2 23 47 be ec bf 91 be
       -0.07079683 0.0028475593 -0.19447258 -0.28466737
0003d0 98 f9 93 bd 70 1a b6 3b 2c f6 af 3c a0 c4 5b be
       -0.072253406 0.005557351 0.021479689 -0.21461725
0003e0 ff ba 16 3e 33 7c 91 bd 5b 68 d2 bd 35 91 83 3d
       0.14719771 -0.07103767 -0.102738105 0.064241804
0003f0 3a a8 3a 3e cf 69 cb 3b 6f 8f 4c bd 62 50 0b 3d
       0.18228236 0.0062076817 -0.049941476 0.034012206

fc3.bias f4 [10]
000000 f2 cb bb 3d 08 79 88 bd 02 47 55 bd a7 6c de bb
       0.09169759 -0.0666371 -0.05206967 -0.0067878547
000010 b8 e9 b6 3d 50 52 85 3d fd df 93 bd f6 47 fa 3b
       0.08931297 0.065098405 -0.07220457 0.007637973
000020 e1 6f be 3d 56 9b a1 3d
       0.09298683 0.07890956
