models/BasicNet Ensemble-5model-3.pt (torch, 180551 bytes, 10 tensors)

conv1.weight f4 [6, 1, 5, 5]
-0.10170573 -0.074208505 -0.22580181 0.11102018 0.14214057 0.19942978 0.2644973 0.109450236
0.0531742 -0.32731172 -0.20061156 0.26676285 -0.086480424 -0.1901761 -0.17151129 0.022023136
0.16625942 -0.1165516 -0.0031117636 0.00084878504 0.08207358 0.14497687 0.085293196 0.2293587
0.21982123 0.29990947 0.04154883 -0.21133476 -0.41281173 -0.045378022 -0.0476705 -0.63857603
-0.5126613 -0.15222768 0.051384594 -0.53757393 -0.43072253 -0.056214433 0.18600297 0.3303415
-0.52265376 -0.08495872 0.31979406 0.17621689 0.13372253 -0.19778474 0.33395684 0.06905078
0.2082328 -0.14447288 0.21489838 -0.052450515 0.22262047 0.045467578 0.28812796 -0.3083336
-0.19905384 0.028027967 0.18747336 0.094990626 -0.25342104 -0.49172425 -0.46400517 -0.24752125
0.12253973 -0.014598183 -0.26481363 -0.560116 -0.5595615 -0.30944812 0.4834696 0.3753229
0.427647 0.14817053 -0.11498688 -0.008151653 0.22309689 0.029665276 0.07071824 -0.18905921
-0.2223367 0.119912885 0.25733912 -0.08914967 -0.40179765 -0.2603536 0.24132481 0.25134072
0.01855544 -0.26786828 -0.07643619 0.0077678007 0.28171563 0.16459908 0.004307931 -0.21924
-0.1184494 0.06689435 0.15229599 0.19094846 -0.17677973 -0.18253048 -0.25335974 0.030937348
0.10224162 -0.0065177176 -0.017959297 0.13070725 0.14863734 0.07221622 0.31728226 0.21078812
0.28079334 0.29863313 0.15841317 0.10571405 0.20854902 0.15159771 -0.09159858 -0.018874684
-0.14016312 -0.23903142 -0.33229253 -0.3154961 -0.43155405 0.3303999 0.07422271 -0.14998958
-0.15410627 0.006874117 0.18552934 0.18645707 -0.32457328 -0.12551962 -0.103786655 0.14615165
0.32751393 -0.025098171 -0.40505794 -0.09848627 0.05637594 -0.027676526 0.18478058 -0.22755189
0.036483947 -0.1614149 0.17036642 -0.0030633619 -0.113038 -0.011249609
00000000: 184b d0bd a1fa 97bd 9738 67be 8c5e e33d
00000010: 4c8d 113e 5237 4c3e 316c 873e 7227 e03d
00000020: 31cd 593d 6795 a7be 1e6d 4dbe 2495 883e
00000030: a61c b1bd 86bd 42be a8a0 2fbe dd69 b43c
00000040: e93f 2a3e 9bb2 eebd bbee 4bbb 0081 5e3a
00000050: 3116 a83d d174 143e 33ae ae3d 02dd 6a3e
00000060: d118 613e bc8d 993e 1b2f 2a3d 2468 58be
00000070: 0f5c d3be 4ede 39bd 2442 43bd b879 23bf
00000080: c53d 03bf 93e1 1bbe a778 523d 729e 09bf
00000090: aa87 dcbe 1b41 66bd 9077 3e3e 8522 a93e
000000a0: a3cc 05bf d6fe adbd 0cbc a33e 3372 343e
000000b0: 8fee 083e 1588 4abe 64fc aa3e 7f6a 8d3d
000000c0: fb3a 553e b3f0 13be 520e 5c3e 5ad6 56bd
000000d0: 9ff6 633e 363c 3a3d 8285 933e e7dd 9dbe
000000e0: c5d4 4bbe e89a e53c 04f9 3f3e 728a c23d
000000f0: 67c0 81be 48c3 fbbe 1692 edbe 3676 7dbe
00000100: 1cf6 fa3d 382d 6fbc a795 87be c363 0fbf
00000110: 6c3f 0fbf fc6f 9ebe 5489 f73e 532a c03e
00000120: 8cf4 da3e 04ba 173e 3e7e ebbd 838e 05bc
00000130: 8373 643e 9804 f33c bad4 903d bd98 41be
00000140: 3bac 63be e394 f53d f4c1 833e 1a94 b6bd
00000150: 6cb8 cdbe 114d 85be da1d 773e bbaf 803e
00000160: 9401 983c 0826 89be 948a 9cbd 0989 fe3b
00000170: 083d 903e a98c 283e 8b29 8d3b 7380 60be
00000180: 9995 f2bd e8ff 883d 7bf3 1b3e fe87 433e
00000190: bf05 35be 45e9 3abe 5eb8 81be 5270 fd3c
000001a0: 0e64 d13d 9492 d5bb 601f 93bc 1fd8 053e
000001b0: 6334 183e 19e6 933d d272 a23e d7d8 573e
000001c0: 25c4 8f3e 71e6 983e 1037 223e 9c80 d83d
000001d0: e08d 553e 6e3c 1b3e 0998 bbbd 159f 9abc
000001e0: ec86 0fbe a7c4 74be 3f22 aabe b488 a1be
000001f0: a7f4 dcbe 2d2a a93e 1402 983d de96 19be
00000200: 09ce 1dbe 4640 e13b 67fb 3d3e 9aee 3e3e
00000210: 782e a6be 3788 00be 198e d4bd c7a8 153e
00000220: e8af a73e ae9a cdbc c163 cfbe 2bb3 c9bd
00000230: 75ea 663d e2b9 e2bc 1f37 3d3e 5d03 69be
00000240: 3170 153d f349 25be 8974 2e3e afc2 48bb
00000250: 7880 e7bd 4850 38bc

conv1.bias f4 [6]
-0.22396967 -0.048393425 -0.013165197 -0.02908421 0.08304731 0.03509333
00000000: 4e58 65be 2f38 46bd d7b2 57bc 0242 eebc
00000010: b514 aa3d 06be 0f3d

conv2.weight f4 [16, 6, 5, 5]
0.034112427 0.0011356396 0.039566513 -0.075119406 -0.0009394691 0.05408439 0.1356646 0.02599742
-0.018883461 0.045734078 0.12857442 0.15398353 0.05493969 0.12239705 0.08892671 0.03630191
-0.064229906 -0.08617725 0.12609056 0.0720393 -0.10209578 -0.12802562 -0.09096116 -0.11684238
-0.2016993 0.08555853 0.044047285 0.038176734 0.050437063 0.035546187 0.11568682 0.067595474
0.10434321 0.13004097 0.09147882 0.0041380436 -0.12293904 0.022346456 0.05595565 -0.025855696
-0.12824602 -0.3627852 -0.22989419 -0.07261835 -0.05025183 0.061712112 -0.17299625 -0.15078735
-0.11248219 -0.29406747 -0.009482238 -0.04334321 -0.031757694 -0.16558164 -0.13304208 0.033634048
-0.09560626 0.018380316 0.098027214 -0.01670443 0.06658166 -0.03568609 0.06169295 -0.0644964
-0.010328958 0.07877774 0.12143214 0.124632455 -0.073395126 -0.17380923 0.20904407 0.23626548
0.07625126 0.1152359 0.17048182 -0.08397531 -0.037818223 -0.11393612 0.03229637 0.108607225
-0.11563024 0.018130487 -0.04401187 -0.0486682 -0.16460156 0.116102435 0.2281575 -0.06537171
0.11839526 -0.06119169 -0.039930202 0.084110625 -0.011914235 0.15652344 0.019878108 -0.18629558
-0.2726709 -0.12357306 -0.13138077 -0.28794795 0.0105873775 -0.07712394 -0.041375242 -0.03604782
-0.10750781 0.053496268 -0.018657746 -0.04505718 -0.09209044 -0.07133827 0.042837705 -0.012111214
0.0011045934 0.042360112 0.11316598 0.17057309 0.13409862 0.15363744 0.15486272 0.12869005
-0.173593 -0.19502416 -0.032592773 -0.021067873 -0.022374999 -0.018288692 -0.019147554 0.009163737
0.0042881235 0.01768143 -0.06449476 -0.00019991994 -0.018734211 -0.073563606 -0.11387917 0.029870981
0.042346805 -0.008898214 -0.06352894 0.068833016 -0.17366871 -0.08620132 -0.12264244 -0.02872424
0.06646125 0.043406203 -0.16369973 -0.16132809 -0.10454727 -0.08345895 0.12174501 0.043660272
-0.086276606 -0.24603367 -0.08807972 -0.07555188 0.12822501 -0.039567504 -0.10850303 0.021921555
0.087007895 0.15425378 -0.17906465 -0.16024806 -0.08381939 0.11862031 0.030203197 -0.02721683
-0.00022350802 -0.042957466 -0.029031208 -0.015951762 -0.058655396 -0.05837291 -0.092189126 0.01575233
-0.01591541 -0.18153495 0.06463746 0.103384085 0.050223798 -0.06829706 -0.014659253 0.08765757
0.05987296 0.083263725 -0.14178735 -0.101376526 0.03221409 -0.036455233 -0.13671772 0.1329461
0.0059558516 -0.007958956 -0.11146966 -0.06567284 0.13219814 -0.034963388 0.12517199 0.047518935
0.010596542 0.06501939 0.08581676 -0.101631716 0.07867221 -0.13255985 0.017887926 0.008149183
-0.10243878 -0.35728446 -0.17022207 -0.26938564 -0.0022735342 0.06927897 -0.22380058 -0.15758607
0.00014641849 0.018515714 0.06101696 -0.07388228 0.0937145 0.057339177 0.09037517 0.16654742
0.17282899 0.14827342 0.00067397754 -0.26997635 -0.009283914 -0.0040756427 0.053819876 0.0042166673
-0.14834833 -0.032957803 0.16116719 0.18594581 0.071263276 -0.052300192 -0.10008332 0.25392777
0.20720965 -0.11446893 -0.017910482 0.060829427 0.27593455 0.023094844 -0.13841486 -0.041843753
-0.14874797 -0.020908704 -0.045897312 -0.107088774 -0.15977213 -0.14280616 -0.0784343 -0.07621069
00000000: 79b9 0b3d bed9 943a 7f10 223d 34d8 99bd
00000010: b446 76ba 9887 5d3d a9eb 0a3e 8bf8 d43c
00000020: 7db1 9abc a853 3b3d 03a9 033e dcad 1d3e
00000030: 7108 613d 4eab fa3d 351f b63d 50b1 143d
00000040: f88a 83bd b37d b0bd e21d 013e 5789 933d
00000050: 9817 d1bd 2619 03be d849 babd 0f4b efbd
00000060: 438a 4ebe 5039 af3d ed6a 343d 355f 1c3d
00000070: 1897 4e3d e198 113d 36ed ec3d 7f6f 8a3d
00000080: e5b1 d53d 7629 053e 3f59 bb3d 6d98 873b
00000090: 77c7 fbbd ea0f b73c c031 653d 53cf d3bc
000000a0: ed52 03be fbbe b9be 6269 6bbe eeb8 94bd
000000b0: ddd4 4dbd d7c5 7c3d ee25 31be 0068 1abe
000000c0: 105d e6bd 0390 96be 645b 1bbc a688 31bd
000000d0: 5b14 02bd 3c8e 29be 2f3c 08be dbc3 093d
000000e0: 37cd c3bd 5192 963c 7ec2 c83d bbd7 88bc
000000f0: f75b 883d 942b 12bd bfb1 7c3d b016 84bd
00000100: ca3a 29bc 3956 a13d 6ab1 f83d 4d3f ff3d
00000110: 2f50 96bd 0cfb 31be a60f 563e 94ef 713e
00000120: 9f29 9c3d cd00 ec3d c992 2e3e 3ffb abbd
00000130: 48e7 1abd 5757 e9bd 3349 043d 776d de3d
00000140: 8ccf ecbd 6386 943c ca45 34bd 4e58 47bd
00000150: 508d 28be 1dc7 ed3d 1fa2 693e 9ae1 85bd
00000160: 3779 f23d 23a4 7abd da8d 23bd 3142 ac3d
00000170: ec33 43bc ae47 203e 6ad7 a23c 45c4 3ebe
00000180: 859b 8bbe df13 fdbd ae88 06be ea6d 93be
00000190: ae76 2d3c 28f3 9dbd 1679 29bd e1a6 13bd
000001a0: 0e2d dcbd e71e 5b3d 21d8 98bc e18d 38bd
000001b0: ea99 bcbd cd19 92bd 9776 2f3d 1d6e 46bc
000001c0: 01c8 903a cc81 2d3d 91c3 e73d b6aa 2e3e
000001d0: 2651 093e 2253 1d3e 5594 1e3e 53c7 033e
000001e0: 5dc2 31be 6ab4 47be 0080 05bd 8896 acbc
000001f0: c64b b7bc 2bd2 95bc 55db 9cbc 8023 163c
00000200: 6383 8c3b a5d8 903c d415 84bd 9aa1 51b9
00000210: 7d78 99bc 84a8 96bd 7b39 e9bd fdb3 f43c
00000220: d873 2d3d d1c9 11bc 761b 82bd 53f8 8c3d
00000230: 36d6 31be 518a b0bd f62b fbbd 194f ebbc
00000240: d61c 883d b4ca 313d e7a0 27be 3133 25be
00000250: e11c d6bd 87ec aabd 7355 f93d 1dd5 323d
00000260: cab1 b0bd 40f0 7bbe 2463 b4bd f2ba 9abd
00000270: 6b4d 033e 8911 22bd d636 debd d594 b33c
00000280: 3231 b23d b4f4 1d3e b95c 37be 1118 24be
00000290: 80a9 abbd 35ef f23d b26c f73c d4f5 debc
000002a0: 7a5d 6ab9 2bf4 2fbd dbd2 edbc 45ad 82bc
000002b0: a440 70bd 6f18 6fbd a7cd bcbd 080b 813c
000002c0: 0961 82bc 4ce4 39be a560 843d 09bb d33d
000002d0: 78b7 4d3d 54df 8bbd 5d2d 70bc d085 b33d
000002e0: 593d 753d 2c86 aa3d b430 11be 7f9e cfbd
000002f0: ecf2 033d 1552 15bd bbff 0bbe 0623 083e
00000300: 4e29 c33b 4866 02bc 354a e4bd 7b7f 86bd
00000310: f35e 073e c535 0fbd 162d 003e 37a3 423d
00000320: 1e9d 2d3c e328 853d b3c0 af3d 4a24 d0bd
00000330: e51e a13d c5bd 07be b389 923c 2784 053c
00000340: 6ccb d1bd fded b6be b24e 2ebe eaec 89be
00000350: 93ff 14bb 22e2 8d3d fb2b 65be 3e5e 21be
00000360: ea87 1939 44ae 973c ebec 793d 984f 97bd
00000370: 63ed bf3d 7cdc 6a3d 9e16 b93d 688b 2a3e
00000380: 15fa 303e fdd4 173e dead 303a 573a 8abe
00000390: 8f1b 18bc f88c 85bb 3b72 5c3d f82b 8a3b
000003a0: a0e8 17be c3fe 06bd 0309 253e 9468 3e3e
000003b0: 7bf2 913d ba38 56bd 7cf8 ccbd d202 823e
000003c0: c42e 543e b06e eabd 01b9 92bc 4728 793d
000003d0: 4b47 8d3e 6631 bd3c a0bc 0dbe 5b64 2bbd
000003e0: 6351 18be bb48 abbc d2fe 3bbd 5c51 dbbd
000003f0: 4e9b 23be c73b 12be 2aa2 a0bd 5a14 9cbd

conv2.bias f4 [16]
0.078386776 0.07147207 0.031267013 0.0653689 -0.08874607 -0.050661575 0.00045978144 -0.098186426
0.007896541 0.09985104 0.04633822 0.0031100516 0.008851061 0.07797294 -0.0006937173 -0.08586729
00000000: 3f89 a03d f35f 923d d711 003d 21e0 853d
00000010: 80c0 b5bd 8382 4fbd d20e f139 f715 c9bd
00000020: 7e60 013c b47e cc3d 25cd 3d3d 02d2 4b3b
00000030: 0a04 113c 47b0 9f3d 94da 35ba 31db afbd

fc1.weight f4 [120, 256]
0.099057905 -0.02458434 -0.045201626 -0.08431486 0.03371745 0.07534442 -0.12612922 -0.09722101
0.01693283 0.07122418 -0.071221255 -0.11329389 -0.07784489 -0.0041963975 0.027223827 0.2032245
-0.01217126 -0.16734838 -0.021228436 -0.029920433 0.018623194 -0.199317 -0.069580205 0.008148178
-0.005840278 -0.13821758 -0.10299384 0.054063477 0.08920331 -0.16173746 -0.087492816 0.023268392
0.072683156 -0.10157101 -0.023586584 -0.02701505 -0.049138904 -0.11159822 -0.010274466 -0.04880179
-0.4126538 -0.14600916 0.035189573 -0.06692077 -0.102356024 0.0027485164 -0.015649537 0.02232327
-0.12268958 -0.056045152 -0.016052961 -0.020631721 -0.08966863 -0.027942473 -0.07701218 -0.04395186
-0.0224636 -0.12087455 0.048153173 -0.027427992 0.12550135 0.11190595 0.20197359 0.20431949
0.090638064 0.05354776 -0.03451631 -0.09701337 -0.13032033 0.036838934 0.06660946 -0.0263028
-0.09106853 0.07230599 -0.044213943 -0.01650723 -0.09157028 -0.06303158 0.048717838 0.21478431
0.09981834 -0.027699983 -0.016753621 -0.099302486 -0.091292016 -0.035675716 0.07622623 -0.041774467
-0.0013152648 -0.0061508752 -0.05246496 -0.026304886 -0.11910984 0.049576726 0.12487551 0.11415438
-0.123302594 0.068680756 0.06309699 -0.11412416 -0.12260467 0.046301898 -0.017994124 -0.080020845
-0.09230758 0.059447285 0.01499477 0.1575776 -0.13142325 0.03636864 0.18013631 0.10807623
0.05059042 -0.054213874 -0.014938125 -0.109728776 -0.1800594 0.08430124 -0.06770483 0.0022779643
-0.13282016 -0.020748084 -0.09095743 0.048996173 -0.10765472 -0.04375666 0.16127373 0.11843007
0.13896403 -0.02456809 -0.14662458 -0.26961723 0.09022228 0.074752256 -0.0033190644 -0.034278914
-0.025958052 0.14806253 -0.03157946 0.05530276 -0.01782725 0.0027776659 -0.022485703 -0.008291292
0.04096689 -0.00547324 -0.122575864 0.0045374483 0.09331332 -0.03395966 -0.07101727 -0.067853555
0.020427952 0.017172702 -0.03891907 -0.08411093 0.00021843225 0.09764001 0.0074814903 -0.09118245
0.07813044 -0.004780763 -0.09568656 -0.072945945 0.0162606 0.025288431 -0.1304964 0.04585593
-0.13939908 -0.0015480601 -0.068318576 0.046410333 -0.04053901 0.044112608 0.059595507 -0.04023721
-0.02172173 0.020977704 -0.0192033 -0.075097024 -0.08807509 0.039561335 -0.0679237 -0.059569538
-0.07883983 0.07550367 -0.054375466 -0.06485616 -0.22153443 -0.07852266 0.057941407 0.14619082
0.045802068 -0.1237696 -0.18823655 0.037446477 0.063093476 0.0065963655 -0.16365507 0.09098388
0.15094209 0.11945631 -0.0890213 0.08034657 0.15631561 -0.09015499 0.1393817 0.0007352316
0.115044855 0.049319457 -0.005563626 -0.1447049 0.07205836 0.15289763 0.1543434 -0.045962166
0.040093586 0.04793642 -0.042329576 0.04782111 -0.013859635 -0.13095687 0.009329227 -0.025960224
0.14736962 0.017141284 0.00646051 0.09445569 -0.065796986 -3.2747444e-05 0.16209356 -0.06087432
-0.103845045 -0.05874592 -0.13773526 -0.22930917 -0.14685349 -0.113085344 -0.057160914 0.0091329
0.14130992 0.027284188 0.027116043 -0.090840325 0.105173744 0.087068155 0.07064648 -0.013534074
0.060980257 0.04595484 -0.16358341 -0.26276574 -0.024574865 -0.09937579 -0.03231926 -0.035703797
00000000: dfde ca3d 1965 c9bc 5725 39bd 45ad acbd
00000010: 4f1b 0a3d 2d4e 9a3d 0528 01be cf1b c7bd
00000020: b8b6 8a3c fcdd 913d 73dc 91bd a106 e8bd
00000030: 246d 9fbd ef81 89bb 8104 df3c 151a 503e
00000040: f769 47bc 605d 2bbe 42e7 adbc b21b f5bc
00000050: ab8f 983c c119 4cbe 1180 8ebd f07f 053c
00000060: ce5f bfbb e988 0dbe 6fee d2bd aa71 5d3d
00000070: 3ab0 b63d 819e 25be 6f2f b3bd 5b9d be3c
00000080: e8da 943d 7604 d0bd a738 c1bc ab4e ddbc
00000090: e045 49bd 9c8d e4bd 3c56 28bc 63e4 47bd
000000a0: 5c47 d3be 6d83 15be f122 103d c20d 89bd
000000b0: 09a0 d1bd 7420 343b 7533 80bc 4adf b63c
000000c0: ad44 fbbd 9a8f 65bd 8081 83bc db03 a9bc
000000d0: 30a4 b7bd 9de7 e4bc 90b8 9dbd de06 34bd
000000e0: 9505 b8bc 138d f7bd 433c 453d abb0 e0bc
000000f0: 6d83 003e f22e e53d 2ad2 4e3e 2139 513e
00000100: 73a0 b93d e554 5b3d f960 0dbd f2ae c6bd
00000110: b172 05be 6ce4 163d 8a6a 883d f878 d7bc
00000120: 2382 babd 2a15 943d ae19 35bd 2c3a 87bc
00000130: 3389 bbbd b316 81bd 5b8c 473d 6bf0 5b3e
00000140: 8f6d cc3d 13eb e2bc e43e 89bc 1a5f cbbd
00000150: 4ff7 babd b320 12bd 7f1c 9c3d b41b 2bbd
00000160: f764 acba 488d c9bb 7fe5 56bd 587d d7bc
00000170: dcef f3bd f710 4b3d bbbe ff3d c6c9 e93d
00000180: 1286 fcbd 7fa8 8c3d ff38 813d edb9 e9bd
00000190: 2818 fbbd 0fa7 3d3d 6a68 93bc f8e1 a3bd
000001a0: c20b bdbd ff7e 733d a0ac 753c 065c 213e
000001b0: d193 06be 48f7 143d a775 383e 1257 dd3d
000001c0: e637 4f3d 5e0f 5ebd 0abf 74bc 7bb9 e0bd
000001d0: 7e61 38be 21a6 ac3d d4a8 8abd e649 153b
000001e0: 0202 08be e3f7 a9bc e447 babd 36b0 483d
000001f0: 147a dcbd 2f3a 33bd f124 253e 778b f23d
00000200: 964c 0e3e 0543 c9bc c124 16be 450b 8abe
00000210: 75c6 b83d b617 993d a984 59bb 0c68 0cbd
00000220: fba5 d4bc b49d 173e 7759 01bd 2685 623d
00000230: 740a 92bc 8009 363b f033 b8bc 33d8 07bc
00000240: e6cc 273d dd58 b3bb 0e09 fbbd e0ae 943b
00000250: 0e1b bf3d 4919 0bbd 8171 91bd cef6 8abd
00000260: 8558 a73c c4ad 8c3c 9a69 1fbd 5a42 acbd
00000270: f60a 6539 7cf7 c73d 4a27 f53b ddbd babd
00000280: da02 a03d f2a7 9cbb 51f7 c3bd af64 95bd
00000290: f334 853c af29 cf3c d9a0 05be 6dd3 3b3d
000002a0: a2be 0ebe 47e8 caba 9cea 8bbd c318 3e3d
000002b0: 3c0c 26bd 6caf 343d 6b1a 743d c6cf 24bd
000002c0: c5f1 b1bc 6fd9 ab3c 3d50 9dbc 78cc 99bd
000002d0: b660 b4bd 110b 223d 951b 8bbd 30ff 73bd
000002e0: c776 a1bd aba1 9a3d cfb8 5ebd 4ed3 84bd
000002f0: ecd9 62be 7dd0 a0bd f853 6d3d 0cb3 153e
00000300: f39a 3b3d eb7a fdbd 15c1 40be 7a61 193d
00000310: 2737 813d 5326 d83b 3295 27be c255 ba3d
00000320: 9090 1a3e 83a5 f43d cd50 b6bd be8c a43d
00000330: 3311 203e 2ea3 b8bd 14ba 0e3e 8fbc 403a
00000340: a39c eb3d 3303 4a3d 144f b6bb 852d 14be
00000350: 5593 933d 3291 1c3e 320c 1e3e d342 3cbd
00000360: 2c39 243d fb58 443d c761 2dbd 11e0 433d
00000370: 8613 63bc 8f19 06be 9dd9 183c 89aa d4bc
00000380: 10e8 163e e16b 8c3c b0b2 d33b fc71 c13d
00000390: 92c0 86bd 4d5a 09b8 dbfb 253e 5a57 79bd
000003a0: b6ac d4bd 909f 70bd 790a 0dbe 06d0 6abe
000003b0: c360 16be 4a99 e7bd 9021 6abd 29a2 153c
000003c0: 8cb3 103e 1783 df3c 7722 de3c 7e0a babd
000003d0: 5565 d73d ca50 b23d 1aaf 903d 05be 5dbc
000003e0: 6fc6 793d 243b 3c3d 6982 27be 3b89 86be
000003f0: 3a51 c9bc 8985 cbbd 3361 04bd 253e 12bd

fc1.bias f4 [120]
0.073234186 0.0059650475 0.0060005337 0.014965204 -0.023275604 0.034143265 -0.03379497 0.020773178
0.013468394 0.009941581 -0.039849237 0.010808672 0.035390835 -0.0024574713 0.020711213 0.02889516
0.011918363 -0.064139076 0.019590713 -0.0043540327 -0.013957271 -0.0068852445 0.02947092 0.03368453
0.0051945453 -0.05203571 -0.048226852 0.030048154 0.030356377 0.037118305 0.015915345 -0.048736267
-0.030536195 -0.007916549 -0.040969748 0.015075209 0.0014235255 -0.021626754 0.022944344 0.060645107
-0.028831916 -0.025449704 -0.061734274 0.018088784 -0.04856674 -0.03159392 -0.016109534 0.024894916
-0.10114711 -0.0058170194 -0.030938515 0.025345115 0.043939885 -0.043267008 0.06377131 -0.016833892
-0.09878903 0.015656877 -0.0083894 0.034831725 0.0581078 0.0011269161 -0.045088444 0.063094914
-0.001151837 0.04055285 0.0639193 -0.039459314 -0.030174969 0.0052927854 0.06398399 -0.047129024
6.3026324e-05 -0.033529557 -0.0944298 -0.026739884 -0.060957257 -0.045543715 -0.02875353 -0.0127696255
-0.108162686 -0.066228196 -0.015249107 0.08044324 -0.05213687 -0.07076541 0.0044192127 -0.0083748475
0.07826249 -0.012474163 0.06090336 -0.09408854 0.03566105 -0.036996536 0.08554787 -0.0426659
0.050906066 0.04313252 0.052948724 0.03517972 0.020873267 0.051570624 -0.06763209 -0.062401615
-0.022076286 -0.013070578 0.025318518 0.0658732 -0.06544826 -0.04460176 0.071147755 -0.007420052
-0.028596055 0.052517727 0.06323126 0.010928969 -0.040899128 0.032673728 -0.0538429 -0.020218618
00000000: cefb 953d 7276 c33b 20a0 c43b 9d30 753c
00000010: 7bac bebc cfd9 0b3d 986c 0abd 832c aa3c
00000020: 8aaa 5c3c 03e2 223c f438 23bd db16 313c
00000030: fbf5 103d 870d 21bb 90aa a93c 8bb5 ec3c
00000040: 3d45 433c 595b 83bd b47c a03c 46ac 8ebb
00000050: 0aad 64bc 9e9d e1bb 006d f13c caf8 093d
00000060: 0137 aa3b 6623 55bd 8589 45bd 8c27 f63c
00000070: f0ad f83c 5d09 183d e660 823c ae9f 47bd
00000080: 0b27 fabc 6ab4 01bc e5cf 27bd 02fe 763c
00000090: 9795 ba3a 972a b1bc c7f5 bb3c 0167 783d
000000a0: e930 ecbc e67b d0bc 14dd 7cbd ee2e 943c
000000b0: ebed 46bd a068 01bd 24f8 83bc 6cf0 cb3c
000000c0: 3726 cfbd b29c bebb c572 fdbc 8fa0 cf3c
000000d0: 4ffa 333d bf38 31bd 889a 823d 3be7 89bc
000000e0: e751 cabd da42 803c b273 09bc b6ab 0e3d
000000f0: 7202 6e3d 08b5 933a a9ae 38bd e837 813d
00000100: 3cf9 96ba bf1a 263d 1fe8 823d 17a0 21bd
00000110: 7f31 f7bc 1a6f ad3b 0a0a 833d 5d0a 41bd
00000120: 002d 8438 4a56 09bd 6964 c1bd 9a0d dbbc
00000130: 51ae 79bd 0c8c 3abd 868c ebbc b137 51bc
00000140: 6684 ddbd a6a2 87bd 64d7 79bc 6dbf a43d
00000150: 788d 55bd 75ed 90bd 0bcf 903b a836 09bc
00000160: 1648 a03d 6f60 4cbc cd75 793d 7eb1 c0bd
00000170: 5211 123d ae89 17bd b933 af3d 70c2 2ebd
00000180: e182 503d baab 303d c3e0 583d 9c18 103d
00000190: 6afe aa3c b83b 533d b182 8abd d698 7fbd
000001a0: 54d9 b4bc fa25 56bc c868 cf3c 87e8 863d
000001b0: bd09 86bd 56b0 36bd eab5 913d e823 f3bb
000001c0: 4642 eabc d41c 573d 647f 813d 6b0f 333c
000001d0: d885 27bd e3d4 053d 5f8a 5cbd 84a1 a5bc

fc2.weight f4 [84, 120]
-0.1724265 0.261381 0.15136223 0.010971162 -0.10880126 0.012401009 -0.03039984 -0.053308483
-0.13996126 0.034296237 0.03941242 -0.10488667 -0.0724286 -0.015090118 0.057356276 -0.0040855994
0.018193875 -0.01195334 -0.048286524 -0.040480826 -0.077784635 -0.05999191 -0.03580909 -0.02228546
-0.060844515 -0.088570334 -0.07990566 0.13202351 0.009881006 -0.24059683 -0.058911286 -0.30772868
0.048950985 0.09993218 -0.12782794 0.078056864 -0.012894492 -0.14002044 -0.02466188 0.24352293
0.17509739 0.101284884 0.15692313 0.019750848 -0.16424416 0.19436426 0.037991688 -0.031405363
0.13481353 -0.23501018 0.12497354 0.07439466 0.039180726 -0.07284871 0.14054333 0.019935787
-0.064131245 -0.06784531 0.041024346 -0.053880304 0.050650965 0.027491476 -0.10247427 0.09923505
-0.2981916 0.0075392574 -0.0786379 -0.17777711 -0.14266528 0.043162283 0.06767587 0.051702723
0.15422899 0.006831998 0.09919545 0.13943768 0.016665732 0.05981698 -0.18885183 -0.04608214
-0.017867867 0.14825988 0.0851467 0.13915691 0.052919686 0.27209613 0.025702257 0.20609498
-0.12905236 -0.016422708 -0.00791364 0.047588825 -0.13410638 0.10800063 -0.03137711 -0.05704961
-0.006554836 0.088216856 0.012106098 0.017959971 0.026389146 0.027955888 0.034947544 0.00028984717
0.03743715 0.16702387 -0.021802703 -0.073774956 0.19049051 0.0353378 -0.06381707 -0.023203863
-0.10521658 0.024995478 0.040125746 -0.012315578 0.117053665 0.22486182 -0.03559818 -0.006825062
-0.0010416359 0.025572687 0.05758217 -0.07999093 -0.011625503 0.25672287 -0.13075797 -0.034598164
-0.058933713 0.09711656 0.07897967 -0.03104557 0.029375685 -0.16167463 0.018309645 0.06952857
-0.036842726 -0.038256347 -0.11090979 -0.0059762145 0.03251835 -0.07145229 0.02944826 0.029964108
0.058999352 -0.040817928 0.05925406 0.014980274 0.011055818 -0.036256395 -0.001322628 0.018560665
-0.14419065 0.023706606 -0.03135756 -0.033092014 0.108063474 -0.27018878 -0.07035581 -0.14283346
-0.013949811 0.034185674 0.059632633 -0.019041052 0.07967186 -0.17894195 0.037141297 -0.03200674
0.051253393 0.052999042 0.09418278 -0.10803784 -0.012482716 -0.09526084 0.03297466 0.012071947
0.02330049 -0.066491514 -0.068389 -0.061695892 -0.048412263 -0.07211441 -0.022257462 0.044927005
-0.12878728 -0.08016429 0.081200056 0.038123727 0.16961822 -0.22065665 0.01318168 0.06603312
0.13702507 -0.079319835 -0.08627382 0.026338352 0.0656727 0.0376521 0.040399563 -0.080116786
0.036458127 -0.011022492 0.011803982 0.03549227 0.13683823 0.1647429 0.09960317 -0.060260814
-0.04426921 -0.01116846 -0.1649067 0.09165835 -0.046545822 0.048049573 0.0117118135 -0.0039395723
-0.08987488 -0.09360621 0.055430677 -0.05720553 -0.040866043 0.036094747 -0.04057962 -0.06769159
0.073873 0.022924218 -0.075836465 0.008657477 0.102875754 -0.04854419 -0.0047491128 0.055879794
-0.011036395 -0.08731145 -0.07936538 -0.12917052 -0.09248147 0.060739186 -0.1496224 -0.04198315
-0.035898928 -0.12550913 -0.06728223 -0.023389649 0.01056861 -0.04356652 -0.036007583 0.065399796
0.072556585 0.2005713 0.021383384 0.12123344 -0.032630343 0.14444444 -0.007513374 0.04398373
00000000: 9390 30be bbd3 853e b3fe 1a3e 63c0 333c
00000010: 32d3 debd 9a2d 4b3c 1609 f9bc ff59 5abd
00000020: 0152 0fbe 367a 0c3d eb6e 213d d3ce d6bd
00000030: 7255 94bd 8b3c 77bc 6aee 6a3d 7ee0 85bb
00000040: 520b 953c f1d7 43bc 17c8 45bd 39cf 25bd
00000050: 8d4d 9fbd 14ba 75bd 8dac 12bd ff8f b6bc
00000060: 1938 79bd 5d64 b5bd 94a5 a3bd 2c31 073e
00000070: f1e3 213c 045f 76be f64c 71bd 9d8e 9dbe
00000080: d480 483d 3ea9 cc3d 54e5 02be 47dc 9f3d
00000090: 6b43 53bc 8561 0fbe b607 cabc 135e 793e
000000a0: bb4c 333e 736e cf3d 75b0 203e 88cc a13c
000000b0: 9f2f 28be 6d07 473e 2c9d 1b3d e9a2 00bd
000000c0: 8f0c 0a3e 82a6 70be 21f2 ff3d 3a5c 983d
000000d0: f87b 203d b431 95bd 97ea 0f3e 6050 a33c
000000e0: 3e57 83bd 7bf2 8abd 2509 283d 98b1 5cbd
000000f0: 6377 4f3d ce35 e13c 08de d1bd bf3b cb3d
00000100: 92ac 98be e00b f73b e80c a1bd 340b 36be
00000110: d916 12be efca 303d a699 8a3d 3cc6 533d
00000120: 34ee 1d3e f4de df3b fc26 cb3d c0c8 0e3e
00000130: 9386 883c a602 753d 6062 41be a0c0 3cbd
00000140: a25f 92bc 70d1 173e 6561 ae3d 267f 0e3e
00000150: 50c2 583d 2f50 8b3e 8a8d d23c 900a 533e
00000160: 4d26 04be ea88 86bc 36a8 01bc 80ec 423d
00000170: 2f53 09be 6f2f dd3d 4985 00bd daac 69bd
00000180: f3c9 d6bb 0aab b43d a858 463c ca20 933c
00000190: 0d2e d83c bf03 e53c 2825 0f3d a1f6 9739
000001a0: b257 193d 4e08 2b3e 959b b2bc 5317 97bd
000001b0: f20f 433e 5ebe 103d 86b2 82bd 0716 bebc
000001c0: ca7b d7bd 51c3 cc3c e55a 243d 47c7 49bc
000001d0: d5b9 ef3d 2d42 663e 66cf 11bd c5a4 dfbb
000001e0: 8087 88ba d07d d13c 48db 6b3d 49d2 a3bd
000001f0: e578 3ebc 2e71 833e 6be5 05be ceb6 0dbd
00000200: 7a64 71bd 0ce5 c63d 18c0 a13d 4753 febc
00000210: 47a5 f03c 098e 25be 1cfe 953c ff64 8e3d
00000220: 66e8 16bd b0b2 1cbd ac24 e3bd 1fd4 c3bb
00000230: f631 053d 9455 92bd 7a3d f13c 4a77 f53c
00000240: 4ea9 713d b330 27bd 63b4 723d d36f 753c
00000250: 7623 353c 9681 14bd 085c adba 890c 983c
00000260: b7a6 13be 5b34 c23c c970 00bd 7e8b 07bd
00000270: 6250 dd3d 2f56 8abe b516 90bd ef42 12be
00000280: c08d 64bc 4706 0c3d 5941 743d fbfb 9bbc
00000290: 002b a33d 8f3c 37be 7921 183d 8019 03bd
000002a0: 14ef 513d 8615 593d e7e2 c03d f142 ddbd
000002b0: 4e84 4cbc 1e18 c3bd 7010 073d 6ac9 453c
000002c0: abe0 be3c b42c 88bd 880f 8cbd d5b4 7cbd
000002d0: f04b 46bd b8b0 93bd 4855 b6bc 6105 383d
000002e0: d0e0 03be 2d2d a4bd 374c a63d a027 1c3d
000002f0: 66b0 2d3e d1f3 61be f9f7 573c 5f3c 873d
00000300: 4d50 0c3e 7072 a2bd 54b0 b0bd 87c3 d73c
00000310: 697f 863d 1739 1a3d 037a 253d 4514 a4bd
00000320: 1e55 153d af97 34bc 7d65 413c 5860 113d
00000330: 521f 0c3e 5db2 283e bffc cb3d 0bd4 76bd
00000340: a253 35bd ebfb 36bc 4ddd 28be 5fb7 bb3d
00000350: d5a6 3ebd a1cf 443d e8e2 3f3c 8717 81bb
00000360: 5210 b8bd 9db4 bfbd 470b 633d 5950 6abd
00000370: 2763 27bd 16d8 133d d136 26bd e3a1 8abd
00000380: ba4a 973d 92cb bb3c 2650 9bbd 17d8 0d3c
00000390: 86b0 d23d 46d6 46bd 729e 9bbb 36e2 643d
000003a0: ffd1 34bc 58d0 b2bd 518a a2bd 4745 04be
000003b0: ed66 bdbd a7c9 783d 9d36 19be 86f6 2bbd
000003c0: c10a 13bd 7785 00be 44cb 89bd a69b bfbc
000003d0: f727 2d3c cf72 32bd b07c 13bd 54f0 853d
000003e0: 8c98 943d 9062 4d3e 352c af3c 3d49 f83d
000003f0: 65a7 05bd 3ee9 133e c032 f6bb 4928 343d

fc2.bias f4 [84]
0.091742516 0.004998398 0.12603775 0.027326148 0.013093997 0.064359434 -0.06348551 -0.01206233
-0.006678026 0.10042291 0.12221775 -0.04958484 0.0852012 -0.029362608 0.09801777 -0.08595753
-0.038695764 0.008298797 -0.082583256 0.02279451 -0.029962715 -0.023235472 0.07644619 0.03953091
-0.028291585 0.05201709 0.060053494 -0.034085974 -0.051805783 -0.12087272 -0.0037070897 -0.068414666
0.09489013 -0.09182364 0.043224517 0.1348772 0.034125205 0.061785717 0.065995224 0.085613474
0.012166784 0.120262444 0.0078338 0.04817932 -0.13859373 0.0036167575 -0.07705897 -0.13380831
0.051251963 0.08076992 -0.07345164 -0.019630205 -0.09512421 -0.02752862 -0.017258076 0.08608943
-0.07539635 -0.07422226 -0.008305718 0.073450774 -0.03410103 0.118957736 -0.12242709 -0.038834527
-0.11169226 0.14535925 0.008424889 0.01568049 0.03085942 -0.07036799 0.052104525 0.14097767
0.059895433 0.010046987 -0.0040433863 -0.089528136 0.056493513 0.0007181852 0.05445612 0.040098406
0.05730744 0.095613986 0.097866654 0.100888684
00000000: 80e3 bb3d 9ac9 a33b 0a10 013e 16db df3c
00000010: 3488 563c e1ce 833d b104 82bd 14a1 45bc
00000020: 58d3 dabb 87aa cd3d 4d4d fa3d 7919 4bbd
00000030: f77d ae3d da89 f0bc 8abd c83d 800a b0bd
00000040: 737f 1ebd adf7 073c 6921 a9bd 8dbb ba3c
00000050: 5e74 f5bc 5158 bebc d28f 9c3d 2aeb 213d
00000060: c1c3 e7bc df0f 553d a7fa 753d bc9d 0bbd
00000070: 4d32 54bd 1e8c f7bd a5f2 72bb fd1c 8cbd
00000080: c255 c23d 080e bcbd 310c 313d 401d 0a3e
00000090: dfc6 0b3d 0513 7d3d 8128 873d 1e56 af3d
000000a0: 3157 473c 284c f63d 5759 003c ae57 453d
000000b0: 84eb 0dbe 1f07 6d3b 18d1 9dbd 0c05 09be
000000c0: 94ed 513d b36a a53d d06d 96bd 86cf a0bc
000000d0: 7bd0 c2bd b383 e1bc cf60 8dbc a84f b03d
000000e0: 6769 9abd d701 98bd b514 08bc 5c6d 963d
000000f0: 86ad 0bbd 1da0 f33d 0ebb fabd f410 1fbd
00000100: e9be e4bd 0ed9 143e 8c08 0a3c 5f74 803c
00000110: e5cc fc3c 181d 90bd 8e6b 553d 735c 103e
00000120: ea54 753d 1e9c 243c 627e 84bb 875a b7bd
00000130: be65 673d 9844 3c3a 610d 5f3d 3a3e 243d
00000140: 35bb 6a3d 44d1 c33d 506e c83d ba9e ce3d

fc3.weight f4 [10, 84]
-0.35548118 -0.0030566654 0.06593276 -0.042291913 0.014514157 -0.12446353 0.06908885 0.05575053
-0.119426385 0.14494038 -0.002760052 0.030063855 -0.062203355 0.092389576 -0.18385155 -0.35591558
0.11632258 0.014718713 0.10080293 0.02321466 0.05516963 -0.037765164 -0.12838769 -0.10898064
0.13476914 0.021872707 -0.101454556 -0.12123842 -0.08879213 -0.018794198 -0.0856655 -0.099254794
-0.12744682 -0.005426704 -0.19058068 0.027009731 0.17966658 -0.3109548 -0.05025544 -0.31870934
0.18196943 -0.08073159 -0.29040143 -0.06472061 -0.06045728 0.0982471 0.0023408765 0.06760131
0.097381875 -0.15657514 -5.8149853e-05 0.16640311 -0.070214935 0.1581279 -0.035695296 -0.17320473
-0.009065375 0.035074186 0.10220386 -0.107031584 0.0897195 0.1352447 -0.005320863 -0.052555054
-0.044904318 -0.0741812 -0.19947296 -0.01806833 -0.14677547 0.089902274 -0.17653929 -0.12353347
-0.012106756 -0.19007634 -0.0020359475 0.054556333 0.1118659 -0.0329182 -0.054024465 0.0067249928
0.09409521 0.042710263 0.004259676 -0.053165462 -0.051894072 -0.20254901 -0.08716494 0.08433386
-0.11612198 -0.0982701 0.26712158 0.17674126 0.06902888 0.0566308 -0.027674986 0.103406385
0.050737407 -0.12167341 -0.03516919 -0.2500998 -0.058784638 -0.020187499 0.086759746 -0.024022093
-0.08740412 -0.14609817 0.12443067 0.0057036667 0.1810885 0.13125427 -0.13146807 -0.20728348
-0.12590699 -0.12749276 -0.07899743 0.0052262885 0.054470103 0.07168028 0.12448741 0.0025046074
-0.15041812 0.051526148 -0.1555872 -0.0018601685 -0.08393998 -0.04609361 0.08176042 -0.032341335
-0.07662986 -0.06006744 -0.027937137 -0.060132615 -0.17370442 -0.011866598 0.043472033 -0.010923532
-0.03886331 -0.27521098 0.12746935 -0.1672875 -0.06006327 -0.035811387 -0.21974127 0.13524681
0.2217679 -0.13099888 -0.13773417 0.07836618 -0.08970487 -0.10298719 -0.092628956 -0.1006783
0.06723983 -0.3560366 -0.0006888461 0.116608635 0.0026196868 0.071050495 0.09120243 0.004968634
-0.16226557 -0.21731432 -0.07698384 0.028235145 0.008988265 0.025699684 -0.16849166 -0.019730136
-0.22118083 0.04244668 -0.19530402 -0.03857442 0.04825998 0.17661662 -0.2677951 -0.020366948
0.03545231 -0.061297502 -0.25465408 -0.14858916 -0.109565616 0.09818406 -0.2402139 -0.15323582
0.06593309 0.019937212 0.024938745 0.15840678 0.090690754 0.07437071 0.04936149 0.047427174
0.14388691 0.07282016 -0.1917164 -0.018792557 0.13543062 -0.10445312 -0.09270467 0.047023155
0.06088718 -0.035369486 -0.13538553 0.0635082 0.07593924 0.16211516 -0.08877481 0.06599575
-0.39130634 -0.13221475 -0.30329105 0.08647984 -0.24189633 0.12038715 0.046427324 0.07417356
0.08369283 0.18257083 -0.016486647 -0.19705692 0.0037902233 -0.049452893 0.04385854 -0.13071923
0.01640413 -0.0051015145 -0.03862722 -0.16657206 -0.060715046 0.028026097 -0.07567863 0.21745028
0.06590641 0.085528865 0.07648851 0.05063392 0.0058330577 -0.099790715 -0.26556662 -0.105546966
0.048156053 -0.06648434 0.17945556 -0.07810149 -0.15445863 -0.09490592 0.023827583 -0.28092927
-0.11532176 0.057333507 -0.09363051 0.042953297 -0.09851472 -0.060062107 -0.030483374 0.076493345
00000000: a101 b6be 5652 48bb c107 873d 493a 2dbd
00000010: c9cc 6d3c bce6 febd 747e 8d3d ab5a 643d
00000020: d295 f4bd 406b 143e fde1 34bb 7948 f63c
00000030: f2c8 7ebd bf36 bd3d 9543 3cbe 913a b6be
00000040: 883a ee3d c226 713c c471 ce3d ac2c be3c
00000050: 8df9 613d a5af 1abd 1078 03be 3e31 dfbd
00000060: ec00 0a3e 642e b33c 68c7 cfbd d94b f8bd
00000070: a6d8 b5bd 4af6 99bc 6571 afbd 1946 cbbd
00000080: 6b81 02be 7ed2 b1bb 9527 43be 8343 dd3c
00000090: 84fa 373e 7835 9fbe a6d8 4dbd df2d a3be
000000a0: 3256 3a3e 9b56 a5bd 7faf 94be 3d8c 84bd
000000b0: 0ea2 77bd c735 c93d 6469 193b 8e72 8a3d
000000c0: 2670 c73d 3c55 20be eee5 73b8 9465 2a3e
000000d0: d9cc 8fbd 48ec 213e 3b35 12bd 955c 31be
000000e0: f086 14bc f3a9 0f3d 4250 d13d 6033 dbbd
000000f0: dbbe b73d 967d 0a3e a25a aebb f843 57bd
00000100: 97ed 37bd 50ec 97bd a442 4cbe 0904 94bc
00000110: 4f4c 16be af1e b83d b7c6 34be 1eff fcbd
00000120: 6a5b 46bc 5fa3 42be 886d 05bb 7676 5f3d
00000130: f319 e53d 3cd5 06bd c248 5dbd 545d dc3b
00000140: fdb4 c03d f5f0 2e3d c194 8b3b 07c4 59bd
00000150: e18e 54bd 0269 4fbe 8883 b2bd 3bb7 ac3d
00000160: 5cd1 edbd d641 c9bd 29c4 883e a9fb 343e
00000170: 035f 8d3d b3f5 673d a7b6 e2bc bac6 d33d
00000180: 07d2 4f3d e92f f9bd 920d 10bd 150d 80be
00000190: 29c8 70bd 4160 a5bc 18af b13d fbc9 c4bc
000001a0: ee00 b3bd c29a 15be 82d5 fe3d d3e5 ba3b
000001b0: 446f 393e 8567 063e 919f 06be 1f42 54be
000001c0: c3ed 00be 768d 02be 68c9 a1bd 4941 ab3b
000001d0: 0b1c 5f3d 1ccd 923d 41f3 fe3d 5724 243b
000001e0: 3507 1abe 150d 533d 4052 1fbe e6d0 f3ba
000001f0: b9e8 abbd a7cc 3cbd 0272 a73d 5978 04bd
00000200: 1ef0 9cbd 4709 76bd 6cdc e4bc 9e4d 76bd
00000210: 92df 31be 1f6c 42bc bb0f 323d 9df8 32bc
00000220: 222f 1fbd 74e8 8cbe 5387 023e 6a4d 2bbe
00000230: e704 76bd f6ae 12bd db03 61be 247e 0a3e
00000240: 2017 633e 9224 06be 300a 0dbe 737e a03d
00000250: 30b7 b7bd f3ea d2bd 40b4 bdbd 6d30 cebd
00000260: 09b5 893d 6e4a b6be ae93 34ba 82d0 ee3d
00000270: 0daf 2b3b ec82 913d 57c8 ba3d eccf a23b
00000280: f228 26be a587 5ebe b4a9 9dbd 644d e73c
00000290: 8443 133c 2588 d23c 1489 2cbe 18a1 a1bc
000002a0: 3a7d 62be 92dc 2d3d c7fd 47be 3600 1ebd
000002b0: 42ac 453d fdda 343e 701c 89be 96d8 a6bc
000002c0: 7136 113d 1713 7bbd 0562 82be c227 18be
000002d0: f063 e0bd b914 c93d a2fa 75be dae9 1cbe
000002e0: ee07 873d 5d53 a33c 574c cc3c 6335 223e
000002f0: 13bc b93d ac4f 983d 462f 4a3d ff42 423d
00000300: 1757 133e bc22 953d 4e51 44be d9f2 99bc
00000310: 53ae 0a3e 84eb d5bd f2db bdbd 5a9b 403d
00000320: d664 793d 98df 10bd 81a2 0abe 9610 823d
00000330: 0886 9b3d 8401 263e 91cf b5bd c828 873d
00000340: 4e59 c8be 4e63 07be f748 9bbe 581c b13d
00000350: acb3 77be 8a8d f63d 942a 3e3d 4fe8 973d
00000360: 2567 ab3d d9f3 3a3e 010f 87bc 4ac9 49be
00000370: 6565 783b 1e8f 4abd 03a5 333d 43db 05be
00000380: f461 863c 9b2a a7bb 9337 1ebd de91 2abe
00000390: 57b0 78bd fc96 e53c 66fd 9abd 49ab 5e3e
000003a0: f1f9 863d c229 af3d 02a6 9c3d 8365 4f3d
000003b0: 3c23 bf3b 135f ccbd 59f8 87be 0229 d8bd
000003c0: 483f 453d f128 88bd 33c3 373e adf3 9fbd
000003d0: 672a 1ebe 095e c2bd 1032 c33c f6d5 8fbe
000003e0: d12d ecbd 8ad6 6a3d 5ac1 bfbd ccef 2f3d
000003f0: 16c2 c9bd af03 76bd 45b8 f9bc 8ba8 9c3d

fc3.bias f4 [10]
0.070844255 -0.12307324 -0.08301232 -0.08592585 0.09533442 0.10761649 -0.014384611 -0.012298727
0.09639174 -0.012745793
00000000: cb16 913d d30d fcbd 5d02 aabd e4f9 afbd
00000010: b13e c33d 0966 dc3d 6ead 6bbc 9a80 49bc
00000020: 0869 c53d bbd3 50bc
