models/Cutout-10-2 BasicNet.pt (torch, 180615 bytes, 10 tensors)

conv1.weight f4 [6, 1, 5, 5]
00000000: 1d94 d5b9 7d73 9cbe 3f60 0fbd 16c1 513e
00000010: 42f5 603e 6b3d b73d 67a5 053c 4ec1 d03e
00000020: 1be5 213e ef97 be3e bb0c ef3d eb51 e23d
00000030: 7d5d d13c 652d d93d 3521 e43d 46c9 8bbe
00000040: 3335 8f3c d218 3abe 70ce 94be 0552 dcbe
00000050: a71d 37bd 0167 07be a13f b7be c286 25bf
00000060: d16d 94bd a4c8 5bbc 7db8 81bc d86b 363e
00000070: c774 e63d 796d 8f3c 462f e83c 1b3c 99be
00000080: 7557 99be 3f1c b5be e4ed 053e a8b5 eebe
00000090: 45a6 06be a0a5 513e 9940 8c3e b446 933d
000000a0: cf3c b5bb 440a 643e 3a2f c03e fe11 6dbe
000000b0: a3dd 0c3e 2675 1f3d 33f7 7c3d eda7 28bd
000000c0: 2e7b b2be c8c3 1a3e b582 a1bd 26fd f9be
000000d0: b365 0abf 8bf7 e2bd 43cf ae3d 43c0 cebe
000000e0: c79a 2abf 9005 0dbf d25f 30bd fbd1 0a3e
000000f0: 1314 0bbf d825 28bf 2f4b 85be 14b2 9bbc
00000100: c268 483e afd0 0fbe abba 65be 730b a0bd
00000110: 4b71 be3d 6e7b 773d d643 caba c5f1 a9bc
00000120: 7a5e 20bd b156 433d f901 393d 0f2d ac3d
00000130: c65b f4bc 917f 033e 5a7a c6bd 04c7 e73d
00000140: 7e89 673b 8013 4b3e 6c13 f63d e704 1fbe
00000150: 34b3 773d 5568 cf3d 4180 303e 2cb2 bbbd
00000160: cad1 5ebe a937 0e3e fdce 6abd a36a 873e
00000170: c0f9 e43d f028 abbe e9cb 913e 1a63 c23d
00000180: 8bbf 173e bfeb 89bd 4ebd 80be 394f b83d
00000190: 0b4a 433d 6b13 08be 253f 09be d517 16be
000001a0: ed6e 963d 8626 89bd bb72 2d3e e931 aebe
000001b0: 4759 e9be 746d 84be 61a2 873d 9a96 0f3e
000001c0: 0889 a83e b705 63be 5a75 92be 7f24 83bd
000001d0: a303 8a3e f2d0 0d3f 7d68 953e 9fb4 aa3d
000001e0: de49 08be f8ec f6be 3a8a fd3d d30d 4c3e
000001f0: 8fe1 3f3e 178f 8938 4504 09bd a091 41be
00000200: b05f 61be c9a6 213e 7724 f13d 26dc 093c
00000210: 4ae9 2f3c 0e3b b33e 3e1f 203e ce82 55bd
00000220: d123 8b3e 1d66 873d 5cde 733e d4d4 63be
00000230: 9d01 92bb 273d 4a3e d70d 693e ee6b 2b3d
00000240: 5de8 6fbe 6a3a b7bd 9304 043e 9114 023e
00000250: f67b 423e f488 4abe
-0.0004073688 -0.3055686 -0.035003897 0.20483813 0.21968558 0.089472614 0.008157111 0.4077248
0.15810053 0.3722529 0.1167235 0.11050781 0.025557274 0.106043614 0.11139146 -0.27301997
0.017481422 -0.1817353 -0.2906375 -0.43031326 -0.044706013 -0.13222887 -0.35790733 -0.6465875
-0.07247508 -0.013414536 -0.015835041 0.17814577 0.11252742 0.017508255 0.028342854 -0.2992867
-0.29949537 -0.35373113 0.1307903 -0.46622968 -0.13149364 0.20473337 0.27393034 0.0719122
-0.0055309306 0.22269541 0.3753603 -0.23151395 0.13756423 0.03893008 0.061759185 -0.04117577
-0.34859604 0.15113747 -0.078862585 -0.4882595 -0.5406143 -0.11082371 0.08535626 -0.4038106
-0.6664242 -0.5508661 -0.04306013 0.13556664 -0.54327506 -0.65682745 -0.26033923 -0.019005813
0.19571212 -0.1404445 -0.2243449 -0.07814684 0.09298953 0.060420446 -0.0015431594 -0.020745168
-0.0391526 0.047690097 0.045167897 0.08407032 -0.029828917 0.12841631 -0.096913055 0.11317256
0.0035329754 0.19831657 0.12015423 -0.15529214 0.060473636 0.10127322 0.17236425 -0.09164843
-0.21759716 0.1388842 -0.057326306 0.26448545 0.111804485 -0.3342967 0.28475884 0.094915584
0.14819162 -0.06734418 -0.25144428 0.089994855 0.047678035 -0.13288657 -0.13402994 -0.14657529
0.07345376 -0.06696801 0.16938297 -0.34022453 -0.45575926 -0.25864756 0.06622768 0.14022294
0.32917047 -0.22170149 -0.28605157 -0.064034455 0.269559 0.5539695 0.2918128 0.08335232
-0.13309428 -0.48227668 0.1237988 0.19927149 0.18738388 6.5593216e-05 -0.033451337 -0.18903208
-0.22009158 0.1578628 0.11774533 0.008414304 0.010736773 0.35005993 0.15636918 -0.0521267
0.27175763 0.066112734 0.23815292 -0.22249156 -0.0044557587 0.1974989 0.22759186 0.041850977
-0.23428483 -0.089466885 0.1289237 0.12703158 0.189926 -0.19778806

conv1.bias f4 [6]
00000000: 2912 a9bd 78e1 023e 29ad 9abb 20a4 543e
00000010: 7037 e63d 7c1f 433e
-0.08255417 0.12781322 -0.0047203493 0.20765734 0.112410426 0.19054979

conv2.weight f4 [16, 6, 5, 5]
00000000: d548 fb3c fa85 60bd 645b 24bd cc31 1abe
00000010: 593d 283e 6322 36bd 84ea 9e3b f457 80bd
00000020: 076d 2cbe 0eaa 0fbe e71a 16be 116f d8bd
00000030: 9278 7cbe 6fd9 68bd e285 99bd a223 4d3c
00000040: 4e60 8dbd eeb5 e5bc 9d0d 5fbc a509 e1bd
00000050: a76a b33d 23c0 f33d 8933 663e 6e4c 003e
00000060: 3b7f e8bd 100e 0dbe 17c5 78bd edb2 7ebc
00000070: 0bb6 61bd 0c80 e3bd a7ae 8cbd 071a 363e
00000080: 8932 133e 9f69 033d f856 30be 1eb9 a63c
00000090: c052 523d e140 133c de89 f43d f911 69bd
000000a0: 0924 36bd 5628 073c 468b cf3d 5260 7a3e
000000b0: 93fe 683d 1f5b 9cbd a165 afbd 7526 12bd
000000c0: aef9 66bd f0e8 78be 4507 c1bd 6e1f aa3c
000000d0: 83f9 dc3d 66fc e73d ae54 d4bc 685a 503d
000000e0: 80af 773d a71d 8bbc 8462 943d ec43 c2bd
000000f0: 298b 8c3d 4c44 d53c f5da ef3c 4b86 dcbc
00000100: 9698 f8bd 16a7 cc3d fe2e 93bd e7e8 b83d
00000110: 2952 523c afff 28bd a8fa bbbc 18f2 9cbe
00000120: 5781 1abe 7239 acbe a3ed 0cbe f819 963d
00000130: aad5 dcbc b188 6d3d 310c eb3c 812b 343d
00000140: 6a8e 6f3d c4aa a13c 0072 033e c104 d83d
00000150: 04c6 443d 726b 9e3d c240 b13d 32e5 41bd
00000160: bc52 c63d 9240 7e3d 7f5a 1f3d 8d4f 4d3c
00000170: 0755 56bd 6b09 853c 4a98 823c a50b 84be
00000180: f3ae 41be 330d f3bd 6470 44be 6e11 c3bd
00000190: 6199 1dbc bbcf 58bd 54f8 2b3d 60ac 223e
000001a0: 5569 aabc 829a db3d 2526 b7bb 3e41 643c
000001b0: 6766 623e 1649 953e f332 4e3d 4f9b fabd
000001c0: 5fad 01be f90d d9bd b015 bb3d 0f28 6c3e
000001d0: 3015 943e 8188 003e 5a7c 0ebd af20 41bd
000001e0: 3476 803b 33bc edbb d88e e0bd c1a1 35be
000001f0: 3dda 14be 7587 97bd 7676 173c bcb6 803d
00000200: 69d0 45bc bbb3 6a3c bad9 85bc 695f 083e
00000210: 0973 9dbd 9519 b4bb 87f8 403d da28 b23d
00000220: 0b27 223d a39d bfbd ed96 b5bd 7b77 20bd
00000230: e149 62bd b191 31be b822 d13b f53f 11bb
00000240: 72f8 efbd 0c67 6ebe d10e 88bd 9d13 833d
00000250: ac4f 64bd b361 76be 1666 33bd 8bde 503d
00000260: 02d4 673d 65a2 7e3d bc1d 933d 584d 24be
00000270: 8512 1ebe 8a2f 673d ea2c 96bd d409 5fbd
00000280: 1ca8 7f3c bf55 56be d26c 43be d434 c1bd
00000290: fa40 bb3d f479 613e 4d60 5b3e 7fc6 fc3d
000002a0: 6f4e a63d 870f 9b3d c11b 903d fcf3 743d
000002b0: 2bab 933d 34db c63d 91de 333d 44b1 70bd
000002c0: 67fd d03c 8964 393d 20d7 d33c f7c8 d83d
000002d0: dc56 0c3d d63e a63d 30b0 c83d 4268 7cbd
000002e0: 7783 aebd cb14 08bd d37d d13d f3ae 89bb
000002f0: f508 12bd ee27 73bc 535f bbbc a1ee 933d
00000300: 285b 253d 9e68 f9bb fad9 6c3c 0da7 99be
00000310: 379a b53c 61bb f53b e8c7 ffbd c098 d4bc
00000320: f8e9 ddbd 7b55 87bd e7fa a83d 3d7a 933d
00000330: 7df3 773d a379 2e3d 3561 b23c 61e9 bd3b
00000340: f523 0dbe e5a0 bcbc bb86 0b3e 019e 423d
00000350: c28b aebc dfd5 5ebd cc5a 8cbc 3c70 3d3d
00000360: f946 8b3d 4930 42be 6ad9 d5bd dd84 bebd
00000370: ae31 783c f904 3bbc 0079 8ebc f8fa 86bd
00000380: eab8 12be 3e38 b93b dd45 133d c7a6 533d
00000390: 17c5 00bd f573 7ebd f9dd 7b3d 0ea4 873d
000003a0: 917d eb3d d346 a1bd ec1f 89bd d8d8 6fbd
000003b0: 520b ebbb 24b9 0b3e 4a48 303d 2477 5ebd
000003c0: 70cf a7bd cca0 2bbe e2d6 1b3d 3dff bbbc
000003d0: 8946 48bd ff03 b5be d071 8dbe f7b2 2dbe
000003e0: 92f2 e8bd 6097 a0bd 2865 19bb 5701 e33d
000003f0: c28d 66bc 2811 9c3d 9206 edbd 264c 253d
0.030674377 -0.05481527 -0.04012622 -0.15058059 0.16429652 -0.044466387 0.004849734 -0.06266776
-0.16838466 -0.14029714 -0.146587 -0.10568059 -0.24655369 -0.056847986 -0.07496239 0.012520703
-0.06903134 -0.028040852 -0.0136140855 -0.10988168 0.08760577 0.119018815 0.22480597 0.12529156
-0.11352392 -0.13774896 -0.060734835 -0.015545589 -0.05510525 -0.111084074 -0.0686925 0.17783366
0.14374746 0.03208315 -0.17220676 0.020351943 0.051348448 0.008987636 0.119403586 -0.056901906
-0.04446796 0.008249363 0.10133986 0.24450806 0.056883406 -0.076345675 -0.08564306 -0.035681207
-0.056390457 -0.24307609 -0.09425215 0.02076694 0.10789778 0.11327438 -0.025919285 0.050867468
0.060470104 -0.016981913 0.07245353 -0.09485611 0.0686248 0.026033543 0.029279212 -0.026919505
-0.121384785 0.099928066 -0.071866974 0.090287976 0.012836971 -0.041259464 -0.02294667 -0.30653453
-0.15088402 -0.33637577 -0.13762526 0.07329172 -0.026957352 0.057991687 0.028692337 0.0439868
0.058485426 0.019734748 0.12836456 0.10547782 0.048040405 0.07735337 0.0865493 -0.04733772
0.09683749 0.062073298 0.038904663 0.012531173 -0.052327182 0.016239842 0.015941758 -0.25790134
-0.18914394 -0.11867752 -0.19183499 -0.09524809 -0.009619088 -0.052932482 0.04198487 0.15886068
-0.02080218 0.107228294 -0.005589264 0.013931571 0.22109376 0.29157323 0.050341558 -0.12236654
-0.12663792 -0.10598368 0.09134996 0.23062156 0.28922415 0.12552072 -0.03478656 -0.04715031
0.003920341 -0.007255101 -0.10964745 -0.17737485 -0.14536376 -0.07398883 0.009244552 0.06284854
-0.012073615 0.014325078 -0.016339172 0.13317646 -0.07687957 -0.0054962137 0.047112014 0.08699198
0.039588016 -0.09356239 -0.088666774 -0.039176445 -0.055246238 -0.17340733 0.0063823126 -0.0022163366
-0.11717309 -0.23281497 -0.06643451 0.06400225 -0.055740044 -0.24060707 -0.04379853 0.050993484
0.05659867 0.06216659 0.07183406 -0.1604513 -0.15436752 0.05644182 -0.073327854 -0.054452732
0.015604045 -0.20931147 -0.1908448 -0.09433904 0.09143253 0.22019178 0.21423455 0.123425476
0.08120429 0.07571321 0.07036544 0.059802994 0.07210382 0.097097784 0.043913428 -0.058762804
0.025511457 0.045261893 0.025859416 0.10585206 0.034262523 0.08117454 0.0979923 -0.061622865
-0.08521169 -0.033222955 0.10229077 -0.004201764 -0.035653073 -0.014841063 -0.022872603 0.07223249
0.040370136 -0.0076113483 0.014456267 -0.30010262 0.022168262 0.007499144 -0.12489301 -0.025951743
-0.108356416 -0.06608101 0.08250981 0.072010495 0.060534943 0.04259647 0.021774868 0.005795643
-0.13783248 -0.02302594 0.13625614 0.047513966 -0.021306876 -0.054403182 -0.01713314 0.046249613
0.06800646 -0.18963732 -0.10441859 -0.093026854 0.015148563 -0.01141476 -0.017391682 -0.06590837
-0.14328352 0.0056524565 0.0359553 0.051672723 -0.03143796 -0.062122304 0.061490986 0.06623088
0.11498559 -0.07874837 -0.06695542 -0.058556408 -0.0071729803 0.13644844 0.04303769 -0.05431284
-0.081938624 -0.16760558 0.038046725 -0.022948856 -0.048895393 -0.3535461 -0.27625895 -0.16962801
-0.113743916 -0.078413725 -0.002340624 0.1108424 -0.014071884 0.0762046 -0.11573519 0.040355824

conv2.bias f4 [16]
00000000: fdf8 df3d aae1 863d 8458 91be 877a 0b3e
00000010: 4c7d 6bbc e010 86bd 4a33 68bd 1e23 abbd
00000020: 0532 303c 2a48 b3bd fd08 7dbd 3fa7 a83e
00000030: fae5 40be 1da9 a73d 5fdd 013e c0f2 643d
0.109361626 0.06586011 -0.28387845 0.13620959 -0.014373135 -0.065461874 -0.056689538 -0.083563074
0.010754113 -0.087539986 -0.06177615 0.329401 -0.18837729 0.08186553 0.12682103 0.055895567

fc1.weight f4 [120, 256]
00000000: 52fd 413e ef57 b2bc 9667 ea3b 09d8 143d
00000010: aaaa cc3d 7464 103d 8fd6 93bd a990 d93c
00000020: 34e6 4abe eece 70bc c293 29bd 598b 0b3d
00000030: ff1a 8abe 44bf 42be 3df3 f8bd 21da 72be
00000040: b73c 323e 67f9 693d e4e9 04bd d9f8 2e3d
00000050: 3fe5 1a3e c9e3 04bd b7e6 1d3d c607 dc3c
00000060: 56f3 a43c b1e8 42bd 54db 4a3d 499a c73d
00000070: fd18 efbe 5786 acbe 548a abbd 309e 4ebd
00000080: 4a06 033c 1b0c 18bd 156f d2bc 4260 26bd
00000090: a26b 893d 7f37 da3d 1b16 aa3d 2c6c b23d
000000a0: d587 023e 2a16 bf3c 1af8 b13d fb52 7b3c
000000b0: 3b36 743d e89b c03b 57d5 be3b bc69 f73c
000000c0: 6161 a6bd 01e0 39bc f51a bd3c 0755 963d
000000d0: 37f8 aabc 58fc 693c e8fe b53d 2414 233d
000000e0: 9b48 e3bc 51c9 8abc c391 9c3d 1492 293e
000000f0: 142e a4be 51ef f8bd d7d7 91bd e5bf 6dbb
00000100: 5c8a 233e aa3e 013e a6a1 15bc 8f70 333c
00000110: b7e3 a93d 5368 563d ebd9 c23d 01da b33c
00000120: a7c8 603d 5814 06be e298 b7bd 8304 b53c
00000130: 2aa2 1ebe fca1 94be 783e b3bd 643d 113e
00000140: 0dee eb3c 5cfd 31bc 40d9 01bd 1525 80bd
00000150: 28bc 033d feb0 02bd a6c3 cb3d 80e4 073d
00000160: be5d 993d d684 25bc 4f75 173d 840d a7bd
00000170: 9dd8 babd 9fdd c4bc b039 81bd 07cd 52bc
00000180: 6082 4f3e 49e4 0e3e f859 303d 5ca8 013e
00000190: f028 5b3e b0e9 ac3d ed40 523e e5a0 103e
000001a0: abb5 b43c d10a adbd e6f8 8e3d b913 993d
000001b0: fc37 06be 8873 7bbe be4d 9fbd 08fb 88be
000001c0: 3152 16be 02b7 83bc 2333 6dbe 847d ddbd
000001d0: 1521 f33c d93b c3bd b922 863d 09e7 d23d
000001e0: 2e66 173d 3673 a7bb 2ef4 193d 63d7 603d
000001f0: 4e86 8fbd 943f 91bb 3644 3a3c 1a72 25be
00000200: faca 15be 3a5e 2abe 28e1 54be aa26 e8bc
00000210: 8229 0cbe 0174 52bd 2eee 863d 703a cdbd
00000220: 0a29 2ebe 4937 0cbd 90b7 723c 0a64 20bd
00000230: bbc4 3e3c 5f1b cb3d db48 4b3c 7570 b8bc
00000240: c4d4 1abb de65 ab3d ec72 9d3d 811a 9cbd
00000250: db41 89bd c53b 13be 884b 373e 0b2c 843c
00000260: 4f69 ddbd 7369 55bd fdfb 273c 831e d7bd
00000270: 4323 353e 9611 423e 2ad9 113e 865b 22be
00000280: ceb0 51ba fae3 3b3d 4a53 6d3e d16c 1b3e
00000290: 6bb0 873c 4818 00bc a949 aa3c 8b4a ba3d
000002a0: 755e 1c3e 1c92 b43d ee29 023d 0cc4 98bc
000002b0: 121c b03c 5162 b5bc 670c 953d 9b1a bb3d
000002c0: eb3e d8bd 7147 56bd 2391 d63c 6600 2d3d
000002d0: eab7 5fbd 3c68 34bc 6931 8cbc 9b09 2b3d
000002e0: fbee 0c3d 812f 4d3d 71d8 97bd 332e 03be
000002f0: 470e 483e 05e2 983d 7a4c 413c 72d7 29be
00000300: c8fc 44bd 3491 85bd 9904 cbbc 5efa 1c3c
00000310: e294 35bb 3d59 ddbb 6eb8 b9bd 990e febb
00000320: 7779 8e3d 96e7 ea3c c718 26bd f501 10be
00000330: 7f11 623e 9b8c 44bd 679f 25bd 95bd 7dbe
00000340: e666 7ebd fad6 fcbd dc6d da3c 2bea 5b3d
00000350: 19e2 16bc b798 21be b582 81bc b253 e83d
00000360: c225 dd3d 4c5d e0bd eab9 9bbc aec4 023c
00000370: e1b7 283e 3f91 473e 0295 6b3c b609 5b3d
00000380: d97d f1bd 009e 13bd 6fa2 98bd 6284 213e
00000390: c2d8 96bd bb49 673d 3701 14bd fe47 48bc
000003a0: 7c2c 693d 3aed 8c3d a556 e73c 9cc2 263c
000003b0: c009 e33d 0b57 373e bea1 ae3d 25aa 673d
000003c0: 3121 a43c 8426 14be 6e5c 37bc cb50 fa3b
000003d0: fa83 fabd ffc5 a9bd 6584 06be 1383 d4bd
000003e0: c602 eb3d ea3d 893c 4014 ddbb 2a1a 54be
000003f0: 07f3 5a3e 453d 253e 6799 68bd e100 a1bd
0.1894429 -0.021770446 0.0071534617 0.03633884 0.09993489 0.03525205 -0.07218658 0.026558237
-0.19814378 -0.014697773 -0.04140068 0.03406844 -0.2697372 -0.19018275 -0.12155769 -0.23716022
0.17405973 0.057122614 -0.032449618 0.04271779 0.15126513 -0.032443795 0.038550105 0.026859175
0.020135563 -0.047585193 0.049525574 0.097462244 -0.46698752 -0.33696243 -0.08375993 -0.050443828
0.007997105 -0.03712092 -0.025687734 -0.040619142 0.067099825 0.10655116 0.083049975 0.087120384
0.12747128 0.023325998 0.086899 0.015339608 0.05962203 0.0058779605 0.005823772 0.030201785
-0.08124042 -0.011344911 0.023084143 0.073404364 -0.020870311 0.014281355 0.0888651 0.03981413
-0.027744582 -0.016941698 0.07644989 0.1655963 -0.32066405 -0.12155021 -0.07121246 -0.0036277708
0.15970749 0.1262156 -0.009132778 0.010952129 0.08295386 0.052345585 0.09514221 0.021954538
0.054878857 -0.13093698 -0.08964707 0.022096878 -0.15491548 -0.29029834 -0.08752149 0.14183575
0.028800035 -0.010863628 -0.031701326 -0.06257073 0.03216186 -0.031907074 0.09949426 0.0331769
0.07488583 -0.010102471 0.03697711 -0.08156875 -0.09123347 -0.024031458 -0.06309831 -0.012866265
0.20264578 0.13954271 0.04305455 0.1266188 0.21402335 0.0844301 0.2053258 0.14123876
0.022059282 -0.08449329 0.06981067 0.07474465 -0.13107294 -0.2455579 -0.077785 -0.26754022
-0.14679791 -0.016078476 -0.23164038 -0.10814956 0.02967886 -0.095328994 0.065495916 0.10297973
0.03696268 -0.0051101698 0.037586384 0.05489291 -0.070080385 -0.004432628 0.011368802 -0.16156808
-0.1462821 -0.16637507 -0.20789015 -0.028338749 -0.13687709 -0.05138016 0.06588398 -0.10020912
-0.17007843 -0.03423241 0.0148142725 -0.039157905 0.011643584 0.0991733 0.012407507 -0.022514561
-0.0023625353 0.08369039 0.07687935 -0.07622243 -0.06702014 -0.14378269 0.17899907 0.016134283
-0.10811102 -0.052102517 0.01025295 -0.105038665 0.17689233 0.18952021 0.14242998 -0.15855226
-0.0007999063 0.045871712 0.23176304 0.15178229 0.016563615 -0.007818289 0.020787077 0.09096249
0.15270407 0.08816931 0.03177827 -0.01864817 0.02149776 -0.022141607 0.07277756 0.09135934
-0.10558876 -0.052314226 0.026192253 0.042236708 -0.054618753 -0.01101118 -0.017113404 0.041757207
0.034407597 0.05009413 -0.0741433 -0.12810592 0.19536696 0.07464985 0.011798019 -0.16586092
-0.048092633 -0.06521836 -0.024782466 0.009581177 -0.002770715 -0.006755023 -0.0906838 -0.007753205
0.06956761 0.028674882 -0.040550973 -0.14063247 0.22076987 -0.047985654 -0.04043522 -0.24779351
-0.06210985 -0.12345691 0.026663713 0.053690117 -0.009209179 -0.15780912 -0.015809396 0.113440886
0.10798217 -0.10955295 -0.01900955 0.007981462 0.16476394 0.19489 0.014378788 0.053476058
-0.11791582 -0.036039352 -0.07452857 0.15773156 -0.07365562 0.0564668 -0.03613397 -0.0122241955
0.05692719 0.06881185 0.028239558 0.010178234 0.11085844 0.17904298 0.085269436 0.056558747
0.020035358 -0.14467818 -0.011191471 0.007639026 -0.12232204 -0.08289718 -0.13136442 -0.10376563
0.11475138 0.016753156 -0.0067467988 -0.20713106 0.2138177 0.16136654 -0.05678692 -0.07861496

fc1.bias f4 [120]
00000000: 540e 083e 8e08 93bd fa5e 813c 9fb4 943d
00000010: 2380 41bd 8949 003d 39e3 603c 154c 3e3e
00000020: 8fe6 183d 0523 243e 25a5 563c f55e fcbc
00000030: 5f0d ebbd ce27 353d 6963 113e dbc7 8abd
00000040: c8c2 8dbd afab eb3d 6f66 4c3d b2e1 14bd
00000050: f98a 49bd b26e df3d db67 2e3e dc9f fb3b
00000060: 810f d33d 3f6f 8abc 7aa2 9bbd f3a3 78bd
00000070: 5e0b 5abd 8be5 6fbc a19d 423d 8d7c 69bd
00000080: 230f 9a3c be5a 97bd ee84 fa3c d632 a5bd
00000090: 889a 52bd eadb 87bc 451f 873d a089 8dbd
000000a0: 983b 0cbd d3ac 5abd 6f34 31bd 4f9b db3d
000000b0: ba5a aabc cae6 e83d 2ab7 203c 74d5 aa3d
000000c0: 2b48 533d 82fc 37bd 2560 443e 68ae d6bc
000000d0: 921e 3fbd 1f7a 043e 28d2 f6bb 3057 e03d
000000e0: c7d1 05bd a3cf 833d de5c 823c 4731 2a3d
000000f0: f38e 18bd 32f8 743c 770e 5d3d d60e a1bd
00000100: d226 5fbd 6ac1 6a3d 25ce f63d 7118 fa3d
00000110: 0be4 a23d cab8 353d 87dc 573e 03af a9bd
00000120: cdb4 0cbd d4b3 c3bc 922e ac3d 4994 4d3c
00000130: 7621 6dbd 2b37 803d 5a40 5bbd b2d6 d63d
00000140: a23f 73bd b227 833c b23c 3e3c ff26 993d
00000150: 6564 cebd b0cd 0c3e 8c9d b53d ff7a e43d
00000160: f7ce 173d 2b11 c33d 326f b3bd 903d 413d
00000170: 2d72 0d3d 779c 81bd 8145 063e d1e7 173d
00000180: 0195 203c 170b d9bc 6df8 ac3d 2899 45bd
00000190: fa7b fcbc 3eeb a33d c20e 5c3c ea49 91bc
000001a0: 906b 873c cf0c 423d 5233 95bd cdd7 db3c
000001b0: 669a fdbd ece3 bebc 2dfe 8ebd d9fa 33bd
000001c0: 0094 f53d 1d85 a8bd f3b0 6fbd b44d 073e
000001d0: fb1a 3ebd 41e9 89bc c046 083e 4c32 d93d
0.13286716 -0.07179366 0.015792359 0.07261013 -0.04724134 0.03132013 0.013726049 0.1858371
0.037329253 0.16028984 0.013100897 -0.030806998 -0.1147716 0.044227414 0.14198078 -0.06776401
-0.06921917 0.115073554 0.049902376 -0.036348052 -0.0492048 0.10909785 0.17031805 0.007678969
0.103056915 -0.01689875 -0.07599349 -0.06070323 -0.053233497 -0.01464213 0.047513608 -0.057003547
0.018806046 -0.073903546 0.030580964 -0.08066337 -0.051416904 -0.016584355 0.06597761 -0.069110155
-0.03423652 -0.053387474 -0.043262895 0.10722982 -0.020795215 0.113721445 0.009809295 0.08341494
0.051582497 -0.044918545 0.19177301 -0.02620621 -0.046660013 0.1293721 -0.007532377 0.1095413
-0.032670762 0.06436088 0.015913423 0.0415509 -0.037245702 0.0149517525 0.053968873 -0.07864158
-0.05448038 0.05731336 0.12051038 0.12211693 0.07953652 0.04436568 0.21080218 -0.08285334
-0.034352113 -0.02388946 0.0840732 0.012547561 -0.05789324 0.062605225 -0.053528167 0.10490169
-0.059386857 0.01601014 0.011611151 0.07478141 -0.100777425 0.13750339 0.0886794 0.11156272
0.03706261 0.09524759 -0.08761443 0.04717785 0.034532715 -0.063286714 0.13112451 0.03708631
0.00980115 -0.026494546 0.08445821 -0.048241764 -0.030820835 0.08003853 0.013431253 -0.01773544
0.016530782 0.047375496 -0.07285179 0.0268363 -0.12382965 -0.023302041 -0.06982074 -0.0439404
0.119911194 -0.08228514 -0.05851836 0.13213235 -0.04641245 -0.016834857 0.13308239 0.106052965

fc2.weight f4 [84, 120]
00000000: 19be 313e 55fe 863d fd64 273e 7078 af3d
00000010: d88a 2f3d eeea d5b9 fc78 de3c 546a ad3c
00000020: 76b6 2cbd 9dd8 1abe 33d8 1dbd 45a7 b5bb
00000030: 6982 723c d934 813d 67cb 27bd 58ca 7dbc
00000040: dd12 44bd 77c8 b13d 7ff6 023e 6b86 823d
00000050: f4c2 293e bb98 993d 0daf 493b fc2a 993d
00000060: 7f93 1b3e 27f7 99bd c956 4d3e e70a 863d
00000070: 4867 0b3d 4eb5 e83c 5f7b 193d 14ba aebd
00000080: 292e 813d 3328 6b3b d682 a83c b7f5 653d
00000090: 37bb 30be 2e00 e3bd f714 a4bd e8ff 7b3d
000000a0: 3fc3 01bb afa4 e93d 6238 c7bb 21ea ccbb
000000b0: cc8c 5dbe 8c92 8c3c a6d3 823d 0600 09bd
000000c0: 33ae 383e c4b8 b33c b27f 68bd 2156 48bd
000000d0: bbca 15bd b98e 54bd 5108 b33d 521a adbd
000000e0: 850d 8c3d 3b0c 9a3d 38d0 7a3d af87 2c3e
000000f0: 8e83 a0bd 0402 4e3c f938 7abd 6e4e a2bd
00000100: 0826 2e3d 5dc0 67be 91fd 8dbd 88a4 453d
00000110: 729a d3bd 9ba4 8dbd c3d9 2ebe 0de3 25bd
00000120: bb5b 90bd ceee e8bc dd0f 373d e4ae 20bc
00000130: a566 7cba 9aa8 803d 3b4c 213e 8833 903d
00000140: c625 b03c 6bb8 573d b25a 6a3b d8e2 4b3d
00000150: b4f5 663d 31e2 b3bc ede6 4dbe d220 febd
00000160: 76db 1b3e b5f7 693d 460f efbc a084 f23d
00000170: a0c4 bf3d 4e39 793d f2ca 7d3a 9f7c 03be
00000180: edc5 7bbd 42fc 06be f886 f23d 77a9 2abd
00000190: 6a46 f93d eba7 edbd e75d fd3d be9e c1bd
000001a0: c61e 1ebe 92e6 193e 38c7 8b3d f320 65bd
000001b0: 42a7 4fbc 3d47 c6bc 0cb1 c63d 86cf 683d
000001c0: 7d72 edbc 9777 8ebd 0dc0 adbd b452 65bd
000001d0: 0c8a 863d 22f9 99bd 19f2 6dbd 3cfe 883c
000001e0: e2ea 293e 0655 b1bd 0c59 0abe ab96 e73c
000001f0: f768 65bc 7b7f 01bc f791 ab3d 0ce1 cb3d
00000200: 547f 433d 3a63 b93d 786c f63d f87c 0d3e
00000210: 7945 103d eab8 013e a0d5 54bd 0226 18bb
00000220: 1064 263d 8278 51be 2635 b03d f069 adbd
00000230: ee50 3f3e 6f0b 65bd 969b 0fbd df92 89bc
00000240: ccbd 94bc 8378 90bd 065b bbbc 5895 d33d
00000250: 37ad 1f3e f595 4bbd 9f7f 763d 0272 10bd
00000260: 97d2 2bbd 1f37 97bd ebab 4b3e ea73 b1bd
00000270: 6644 163d d2a4 b7b9 f5cd 26bd 7a27 033d
00000280: 7ab9 143e a503 a13d 05ea cd3d 424f 1c3e
00000290: 788d 1e3d 3361 053e 6e3e 963d 2782 b53d
000002a0: bf6c 103e 9e7f 473e 9f60 463e 5c50 2c3d
000002b0: fd2f 3cbe f6ea 303e dfdd 0f3e adfa 463c
000002c0: 8cd9 f73d f003 adbd a729 9d3d 17a1 d83d
000002d0: 806d cb3d a6d1 9dbd 8301 9abc 6d85 8cbc
000002e0: 611d 29be a407 ddbd 6ff8 003e 8520 b43d
000002f0: efb8 253e 91d8 40bd e25c aa3d b039 c2bd
00000300: fc42 b3bd 66b1 c8bc e5be b6bd 7f00 e73d
00000310: 8fc7 463d 1ab1 1bbe c0ac 2cbe 38ed ad3d
00000320: ba78 f5bd 4eff 3cbd 0ed7 d7bc 0685 d5bd
00000330: 67d9 923c cdf9 0d3e bffa 2fbd 87fa c63c
00000340: 4ecf 9a3d e15f 8ebc facd 69bd c9e4 603e
00000350: 0047 81bc eb90 1cbe e678 a13d 1572 0fbe
00000360: d1cc b1bd e8dc 6abc 6c41 5bbe 07df 8d3b
00000370: c481 0bbe 81f6 9b3d a9c3 6cbd c5eb 4bbe
00000380: 0b03 573e 01f7 00bd b4db 98bd 3100 7eba
00000390: f6ce aabc b839 93bd 8b06 113c 6861 b5bd
000003a0: 914e 053e e1c2 fbbc 4a6f 88bd 22e4 51be
000003b0: 2498 e2bd f339 603e 867b 1c3e 9c4c 70bd
000003c0: 815b 07bd 7aa8 a6bd 27b8 72bd 37dc d63d
000003d0: f06a 203d abd1 b53d b8fe 01bd dcb4 a5bd
000003e0: 9806 b83d ba5e 8abd ee77 ddbd a1dd 903b
000003f0: 029d 293c e5b0 35bc 8b5b 333d 3419 a9bd
0.17357673 0.06591479 0.16347118 0.085678935 0.04285702 -0.00040801562 0.0271573 0.021168865
-0.042166196 -0.15121694 -0.03853626 -0.0055436217 0.0148016 0.06308908 -0.040965464 -0.015490137
-0.047869552 0.08680814 0.12789343 0.063732944 0.16578275 0.07499834 0.0030774504 0.07478902
0.15192984 -0.07517844 0.20052637 0.06545048 0.034034044 0.028406765 0.03747117 -0.08531585
0.063076325 0.0035882115 0.0205702 0.056142535 -0.17258917 -0.11084019 -0.08011811 0.061523348
-0.0019800214 0.11408364 -0.0060797194 -0.0062534963 -0.21635741 0.017159723 0.06388025 -0.033447288
0.18035202 0.021938689 -0.056762405 -0.048910264 -0.036570292 -0.051893923 0.087418206 -0.08452286
0.06838516 0.07521864 0.06123373 0.16848634 -0.07837592 0.012573723 -0.06108949 -0.079251155
0.04251674 -0.22631975 -0.069331296 0.048252612 -0.103321925 -0.069161616 -0.17075257 -0.040499736
-0.07048746 -0.028434183 0.044692863 -0.009807322 -0.00096283323 0.06282158 0.15751736 0.07041079
0.021502387 0.05266611 0.0035759625 0.049776882 0.056386665 -0.021958442 -0.20107622 -0.12408604
0.15220436 0.057120997 -0.029182088 0.118417025 0.09363675 0.060845666 0.0009681425 -0.12840508
-0.061468054 -0.13182166 0.118421495 -0.04166552 0.121716335 -0.116042934 0.12371426 -0.09454106
-0.15441427 0.15029362 0.06825107 -0.055939626 -0.012674155 -0.024203891 0.09701738 0.056838535
-0.028985256 -0.06956404 -0.084838964 -0.055987075 0.06569299 -0.075182214 -0.05809221 0.01672279
0.16593507 -0.08658795 -0.13510531 0.028270086 -0.014002076 -0.007903929 0.0837745 0.09955034
0.04772885 0.09052129 0.120324075 0.13817203 0.035222504 0.12668195 -0.05196154 -0.0023216014
0.04062277 -0.20456126 0.08603887 -0.084674716 0.18683216 -0.055919107 -0.035060488 -0.016793666
-0.018156908 -0.07054236 -0.022870552 0.103312194 0.1559342 -0.049703557 0.060180303 -0.035264976
-0.04194888 -0.073835604 0.198898 -0.08664687 0.036686324 -0.0003502728 -0.04072376 0.03202007
0.14523879 0.07862023 0.10054401 0.1526461 0.038709134 0.1302536 0.07336126 0.08862715
0.14103983 0.19482276 0.19372796 0.042068824 -0.18377681 0.1727713 0.14049481 0.012144727
0.12102041 -0.08448017 0.0767396 0.105776004 0.09932995 -0.07706003 -0.018799549 -0.017153466
-0.16515113 -0.10792473 0.1259477 0.08795265 0.16183828 -0.047081534 0.08318497 -0.09483659
-0.08753011 -0.024498653 -0.08923129 0.112793915 0.048530158 -0.15204278 -0.16862774 0.084925115
-0.119859174 -0.046141915 -0.026347663 -0.10425763 0.017925931 0.13864823 -0.04296374 0.024289383
0.075590715 -0.017379703 -0.0570812 0.21962275 -0.015780926 -0.15289657 0.07884388 -0.14008363
-0.08681644 -0.014334895 -0.21411675 0.0043295654 -0.1362372 0.07615376 -0.057803784 -0.19914158
0.20997255 -0.03148556 -0.0746378 -0.00096893596 -0.02085064 -0.07188743 0.008851658 -0.088564694
0.13018252 -0.030732574 -0.06661852 -0.20497182 -0.11064175 0.21897106 0.15281495 -0.05866681
-0.03304625 -0.08137603 -0.059257653 0.104912214 0.039164484 0.088778816 -0.03173706 -0.08091137
0.08985633 -0.06756349 -0.108138904 0.0044209515 0.010352375 -0.011089538 0.043788474 -0.0825676

fc2.bias f4 [84]
00000000: ae6d aebb b228 833d 5959 9f3c 1d73 343d
00000010: 84a9 01be 4a99 81bd 6622 f93d 6fc6 0c3d
00000020: db48 a1bd 1873 193e c705 9fbd 048c 333d
00000030: 40ac 19bd ef37 2c3c 04ff f1bc 055a a73c
00000040: f1f3 24bd 44b2 563d 0172 393d d300 9e3d
00000050: a277 633d 13b1 363d 4e28 06bd 0ab2 0dbd
00000060: e2c0 373b 7c38 d0bd b8e8 4c3d 4116 c93d
00000070: 58f8 833d b359 e83c 6f84 893d dbb4 66bc
00000080: c88c a73c 2042 0b3e 6220 cdbd cfaf 90bd
00000090: e6c4 453c 3ed7 c43d 8208 9a3d 551a 21bd
000000a0: 864e ff3d e3d4 593d e9fc 833d 3dac d43d
000000b0: 9a26 013e b84e fc3c 96f1 c23c da74 753c
000000c0: 9d76 47bc 90ec 8a3d 1a8f 0cbe 5102 433d
000000d0: 0776 393d f751 8c3d 5ff5 ef3d 2b03 82bd
000000e0: ce7c aa3d 9c00 453d 4f18 0d3e bae9 64bd
000000f0: 1087 22bd 5e8f 8d3d a7e9 dc3d ed85 c33d
00000100: 3fbd 683d fb5c e5bd 7a14 dcbc 7286 043e
00000110: 49f3 68bd bf14 313e 53a8 853c 05a4 6e3d
00000120: b484 babd 7084 14bc b6dc 0e3e 0836 19be
00000130: a0cb f1b9 2df9 db3d ff2b 0c3e 8969 5f3e
00000140: bd10 0cbe 5112 103d 03c9 48bd 103d 8d3d
-0.0053231334 0.064042464 0.019451784 0.044055093 -0.12662321 -0.06328066 0.12164764 0.03436893
-0.07875224 0.14985311 -0.07764774 0.0438347 -0.037517786 0.0105113825 -0.029540546 0.020428667
-0.040271703 0.0524161 0.04527474 0.07715001 0.055534013 0.044602465 -0.03275328 -0.03459362
0.002803855 -0.101670235 0.050026625 0.09818698 0.06443852 0.028363084 0.06714713 -0.014081205
0.020452872 0.13599443 -0.10015942 -0.07064783 0.01207087 0.09611367 0.07521154 -0.039331753
0.12466149 0.05318154 0.06444723 0.10384414 0.12612382 0.030799255 0.023796838 0.014981473
-0.012174276 0.06783402 -0.13726464 0.04760963 0.045278575 0.06851571 0.11716723 -0.063482605
0.08324586 0.048096284 0.13778804 -0.05588696 -0.039679587 0.06912111 0.10786753 0.09547029
0.056821104 -0.11199375 -0.026865233 0.12941912 -0.05687264 0.1729307 0.016315615 0.05826189
-0.09107342 -0.009064779 0.13951382 -0.14962018 -0.00046118814 0.10740886 0.13688658 0.21817602
-0.1367826 0.035173718 -0.049019825 0.068964124

fc3.weight f4 [10, 84]
00000000: 1985 a23d 921b 83be ea0f d4ba a849 0abd
00000010: dbba 683d b4b3 0c3d 4d1c 01be d26c 533e
00000020: cd46 f8bb 2d05 a53d c4aa 4cbd c819 55bd
00000030: b9f8 c03d 396c 06be 35ba c33b 5c06 4ebe
00000040: cc09 babd 6dfd 0e3e 5512 493d 46f6 8f3d
00000050: c325 9dbd 8cde 8fbc 516f 6dbe 2b98 0e3d
00000060: 87e6 b7bd 3b0b c8bd 8a0f 5bbe 2dd7 89bc
00000070: 5362 f2bd bb7b 94bd ee44 98be 25f0 cf3d
00000080: bf93 4ebe dc23 3dbe dd12 e8bd 1db0 2e3d
00000090: b8e5 81bd 032f c4bd 03e1 0f3d d728 283d
000000a0: f288 16bd a31b 973c 16b0 9e3b dc64 7d3d
000000b0: 79c0 5f3d 7e97 3ebe a4c1 5f3c 4e8e 6dbd
000000c0: 0e19 b9bc b5a9 8dbd 8287 243d 73c4 64be
000000d0: 946c 393e 9c94 cd3d 3dbc b03d 9bc0 4e3d
000000e0: 055e 4dbe bbe4 6d3c dcf8 42be ae63 673c
000000f0: 06f8 ff3a db7f 693d 4adf 2bbe d0ee 35be
00000100: 08cb 113d 7627 693d 8a9c 943d 3a20 0b3e
00000110: 84e9 26bd f136 7cbe f379 ebbd 6bdb 443e
00000120: 14f4 76bc 6b82 ffbd 2ba7 44be 578b 22be
00000130: ba86 033e a496 ff3d f676 10b7 912a 69bd
00000140: 9295 a73d 6c06 06be 86aa ecbd f091 91bc
00000150: bbfe 35be 6580 e53d 78e0 b93c 98a1 3dbe
00000160: 3afd aabc 79fb c7bd 7cb6 90be 9978 373d
00000170: 5eb2 f6bd 6b03 193e db55 c8bd 9de5 88be
00000180: afc7 9ebd 2af6 64bc f3be 80bd 8d5c 12bd
00000190: 1c1f 07bd 8a0d e4bd 50ac 88ba 256f 843c
000001a0: 6b55 b03d 07be 543c f1cb dbbc 69da cdbd
000001b0: e773 443e 2e53 07be 9e7f cbbd b42c ddbd
000001c0: 9ca0 5ebe 1c91 6dbe fab1 48bd 983e 9fbe
000001d0: fce7 98bc f280 973d eeb6 19bd 6882 17bd
000001e0: 781c 26bd c502 5f3e 286d df3d e7ee 25be
000001f0: 2e02 d93d 9e6a d53d a552 5fbd aff0 9abe
00000200: d36c 2ebe c838 033e 8bb3 2c3e 40a5 95bd
00000210: 4220 c6bd 70fa 78be adc9 913d 486b 46be
00000220: e106 f8bc f6ab 443d 8536 94be 205d 56bd
00000230: 5129 2b3e f48d c6bb 6dc6 1d3e a5e0 0dbe
00000240: c865 edbd 298b 463d 0493 633d d062 21be
00000250: 665c b33d f811 45be 4f18 a63c e787 ff3d
00000260: e962 2fbe 1009 d33d c3d5 153e a389 29bc
00000270: 57cf 4cbe 6571 58bd 14d9 283d b319 09bd
00000280: 79d6 46be 5097 713d f9bc 1a3e 8368 f93d
00000290: 77ef 5fbd 6761 f63c 4177 96be fbf1 403d
000002a0: 838d e13c d84c 00bc b830 88bd 899a e13d
000002b0: 8edf 9ebd a24d 6fbd af62 95bc c1fb 0cbe
000002c0: 5857 063e 4f7e 133d 14ac a3bd f398 26be
000002d0: d91c 06be 838c edbd 3709 2cbc c065 c03d
000002e0: ad67 9abd f06b 1a3e 9f48 58be eec9 babc
000002f0: c5d1 99bd 28ff 4f3d 7cf6 023d d84c 363e
00000300: f696 8c3d e39d 92bd 67a0 d8bd 859e 453d
00000310: 2c37 213d d421 16be 9db7 f6bd 50c0 fabd
00000320: 84dd 04be a7cb 40bb dcae 183e 0d7a 60bd
00000330: f216 2fbd fb9d a6be 1f56 cebd d635 5d3d
00000340: e5dd 89be e113 ccbd c626 ebbd bdb8 4abd
00000350: 4d88 39bd 8fc7 43bd e8b0 3c3e e06c 31be
00000360: 329b 2d3e c60a 2fbe 14ac 5fbd 1d3a 903d
00000370: 906e 42bd 7e1c 9d3d 6155 b53d 8815 b1bc
00000380: 2dca 3abd cb24 c6bd f0cf a83d 5ceb 8cbd
00000390: 59d1 633d 074b 093e 9459 2c3e c97a f6bd
000003a0: 02aa ee3c f811 aa3d 3156 d4bd 2505 23be
000003b0: 4a5c a7bd 8a82 d9bd 29e0 a23d 0560 00be
000003c0: fa87 963d 27e4 13be 64d8 37be 67f3 5bbe
000003d0: 9448 4cbd 4ecb 15be 635c 0d3e cba1 acbc
000003e0: 0c3b e03c 4806 65bd e072 60be ac53 113e
000003f0: 882f 34bd 1355 a6bd a97b b0bd 69ea d5bc
0.079355426 -0.25606972 -0.0016179059 -0.03376165 0.056818824 0.034351066 -0.12608452 0.2064698
-0.0075767995 0.08057628 -0.049967542 -0.05202654 0.0942244 -0.13127221 0.0059731253 -0.20119613
-0.090839 0.13963862 0.04908975 0.07029395 -0.07673218 -0.017562173 -0.23186995 0.034813087
-0.089795165 -0.09767767 -0.21392646 -0.016826237 -0.1183516 -0.07250162 -0.2974009 0.10153226
-0.20173548 -0.1847071 -0.11331723 0.042648423 -0.063426435 -0.09579279 0.035126697 0.041054573
-0.036751695 0.018445795 0.0048427684 0.061863765 0.054626916 -0.18612477 0.013657007 -0.05799704
-0.022594955 -0.06917135 0.040168293 -0.22340564 0.18107826 0.100381106 0.086296536 0.05047665
-0.20055397 0.014519866 -0.19040245 0.014122887 0.0019528873 0.057006698 -0.16784397 -0.17766881
0.035594016 0.0569224 0.0725642 0.13586512 -0.04075004 -0.24630333 -0.11497869 0.19224326
-0.015072841 -0.12476047 -0.19204395 -0.15873466 0.12844363 0.12479904 -8.610767e-06 -0.05692536
0.08182825 -0.13088387 -0.11555962 -0.017769784 -0.17772953 0.1120613 0.022690043 -0.18518674
-0.020872701 -0.097647615 -0.28264225 0.044792745 -0.120457396 0.1494271 -0.09782001 -0.2673768
-0.077529304 -0.013974706 -0.06286421 -0.035732795 -0.032988653 -0.11135395 -0.001042733 0.01616628
0.08610042 0.012984759 -0.026830645 -0.10051424 0.19184838 -0.13215324 -0.099364504 -0.10799542
-0.21740955 -0.23199886 -0.048997857 -0.31102443 -0.018665306 0.07397641 -0.03752797 -0.0369896
-0.040554494 0.217784 0.10909492 -0.16204415 0.10596119 0.10420726 -0.054522175 -0.30261752
-0.170337 0.12814629 0.16865365 -0.073069096 -0.096741214 -0.24314284 0.07118545 -0.19376862
-0.030276718 0.048015557 -0.28947845 -0.052334905 0.1671498 -0.0060594026 0.15407725 -0.13855226
-0.11591679 0.048472557 0.055560127 -0.1576035 0.08757858 -0.19245136 0.020275263 0.12477093
-0.17127575 0.10304463 0.14632325 -0.010347757 -0.20000969 -0.052842516 0.041222647 -0.033471774
-0.19417752 0.058982193 0.1511115 0.12178137 -0.05467173 0.030075742 -0.2938786 0.04710577
0.027533298 -0.007830821 -0.06649917 0.11015803 -0.077574834 -0.058423646 -0.018235533 -0.13767911
0.13119256 0.03600913 -0.07991806 -0.16269283 -0.13096942 -0.11599066 -0.010500244 0.09394407
-0.07539306 0.15080237 -0.21121453 -0.022801366 -0.075107135 0.050780445 0.031973347 0.17802751
0.06864731 -0.07159021 -0.10577469 0.04824688 0.039359257 -0.14661342 -0.1204674 -0.12243712
-0.12975127 -0.0029418261 0.14910454 -0.054803897 -0.04274649 -0.32542405 -0.1007502 0.05400642
-0.26927105 -0.09964729 -0.11482005 -0.049492586 -0.045296002 -0.047797736 0.1842686 -0.17326689
0.16953734 -0.17093953 -0.054607466 0.07042334 -0.047468722 0.0767145 0.08854175 -0.021616712
-0.045602966 -0.096749865 0.08242786 -0.06880829 0.05561957 0.13407527 0.16831046 -0.12035138
0.0291338 0.083042085 -0.10368002 -0.15919931 -0.081718996 -0.106206015 0.079529114 -0.12536629
0.07350154 -0.14442502 -0.1795364 -0.2147957 -0.049873903 -0.14628336 0.13804774 -0.021073243
0.027371906 -0.055914193 -0.21918821 0.14192075 -0.04399064 -0.08121695 -0.08617336 -0.026112752

fc3.bias f4 [10]
00000000: 21df dcbd 40ab 323e 3847 cb3c c340 cfbd
00000010: e754 d6bd 989b 823d 585c a0bc eed6 bbbd
00000020: cdde 8f3c 068f b5bc
-0.10784746 0.17448139 0.024814233 -0.10119774 -0.104654126 0.063773334 -0.019575283 -0.09171854
0.017562294 -0.022162925
