models/Cutout-10-3 BasicNet.pt (torch, 180615 bytes, 10 tensors)

conv1.weight f4 [6, 1, 5, 5]
000000 e7 f5 8b 3d de 35 ad 3c 61 29 26 3e 19 99 5d 3d
       0.068340115 0.02114385 0.16226722 0.054101083
000010 b0 4d 0d 3c d3 0d 05 bd 6a e8 ce 3d 97 c0 01 bd
       0.008624479 -0.032483887 0.10102923 -0.03167781
000020 95 5e 61 be c9 c5 f2 3d 71 22 78 bd 56 ab 1b 3e
       -0.22008736 0.11854131 -0.06057972 0.15202078
000030 d0 93 68 3e a2 8b dd 3d 59 5f dc 3c 9e c0 4e 3e
       0.22712636 0.108176485 0.026900934 0.20190665
000040 ac cc 8f 3e 0e 99 e1 bd c6 13 f8 bd ce 68 3c 3d
       0.2808584 -0.11015521 -0.121131465 0.045998387
000050 2f 80 37 3c 70 7f 81 3e e6 0f 48 3d b5 58 a5 3d
       0.011199995 0.2529254 0.048843287 0.0807356
000060 c8 45 2d be e1 b3 2b bc 93 ae 4c 3d 5a 11 10 be
       -0.1692115 -0.010479898 0.049971174 -0.14069119
000070 cf b3 90 be 3a 82 4a bd 68 7d 23 3d e0 02 b0 3d
       -0.28262183 -0.0494406 0.03991452 0.08594298
000080 db b2 55 3c 90 7a 6b 3e 32 7d 81 bd 03 e0 18 be
       0.013043131 0.22995973 -0.06322707 -0.14929204
000090 94 7f 15 3e 12 17 d7 3e 26 76 ae 3e a2 d8 fd 3d
       0.14599448 0.4200979 0.34074515 0.12394835
0000a0 20 a1 30 3e 0b 73 47 3e 03 ad 58 be 45 0c 5f bc
       0.17248964 0.19477479 -0.21159749 -0.013613765
0000b0 3e 9a 19 3e 25 2b cb bd 4e b5 b8 be 00 58 82 be
       0.15000245 -0.099203385 -0.36075824 -0.25457764
0000c0 7a 34 a1 be c4 33 40 be 82 d1 d9 bd 7f e7 01 bf
       -0.3148535 -0.18769747 -0.106356636 -0.5074386
0000d0 6a 58 43 bf 48 00 5c bf 62 6b 28 bf c7 36 22 3d
       -0.76306784 -0.8593793 -0.65788853 0.03960302
0000e0 7e 3f 09 be ca ba 00 bf a7 0c e2 be 7b 52 a7 3d
       -0.13403127 -0.5028502 -0.44150278 0.08170029
0000f0 5d 60 33 3e c0 2f 3f 3e 1c 43 0c be e2 cf 9e 3b
       0.17517228 0.18670559 -0.13697475 0.004846559
000100 38 a7 98 3e 4a 23 b1 bd 04 ae 54 3e d0 c8 53 3e
       0.29815078 -0.08649309 0.20769507 0.20682073
000110 d6 54 00 3c 1a dc 10 3e 15 42 ae bd de 03 94 3d
       0.007832726 0.14146462 -0.08508698 0.072273
000120 a6 1a 4f 3d 74 ed 9e 3d 05 e2 2f 3d 0c 7a 91 3d
       0.050562523 0.07760134 0.04294016 0.07103357
000130 32 80 fa 3d b9 e8 49 bd d4 78 da be 99 d4 3d bf
       0.122314826 -0.049294207 -0.4267031 -0.74152523
000140 f1 20 6b bd 69 47 42 3e 10 12 58 3d 2a 21 17 bf
       -0.057404462 0.18972553 0.0527516 -0.5903498
000150 f0 8b 38 bf d4 c7 29 3e 8a ae f6 3c 71 c6 1b be
       -0.7208853 0.16580135 0.030112524 -0.15212418
000160 5a 79 01 be 2a 2c a6 be 42 55 04 3e fa 77 1e 3e
       -0.12643948 -0.3245557 0.12923148 0.15475455
000170 2f 88 94 3c ab 9b 26 be 5e ba 95 bd 8a b5 db bd
       0.018131344 -0.1627032 -0.07310937 -0.10727985
000180 5f 3f fb 3d a6 a1 09 3e 32 67 25 bc db 08 cf 3c
       0.122679465 0.1344057 -0.010095404 0.025272777
000190 2f 49 b6 bd 18 cd 0e be 4f 28 f7 3d 98 fc a1 3e
       -0.089006774 -0.13945425 0.12068235 0.31638026
0001a0 21 1c fb bd 29 5d 26 3e e6 92 ae be 37 2f 00 bf
       -0.122612245 0.16246475 -0.3409645 -0.50072044
0001b0 8b ff 36 3e 9e f1 d9 bd a1 40 92 3e da e1 99 3e
       0.1787092 -0.10641788 0.28564933 0.30055124
0001c0 fa a4 8c be 5a e8 c5 3d a2 5f db 3d f5 b4 e6 bd
       -0.27469617 0.09663458 0.107116 -0.112649836
0001d0 11 2f cb 3e 83 2c 50 bd b8 de 3b be e8 89 9a 3e
       0.39684346 -0.0508237 -0.18346679 0.3018334
0001e0 b4 b5 6e be ae c7 b4 3d fe 21 87 bb a3 b9 aa bd
       -0.23311502 0.088271484 -0.004123925 -0.08336189
0001f0 38 7f 77 bd 78 a5 84 3d 90 02 46 be 99 de a1 be
       -0.06042406 0.06476873 -0.19336915 -0.3161514
000200 de 23 bc 3c e2 29 94 3c 08 02 4f bd 73 9e 08 be
       0.022966322 0.018086378 -0.050539047 -0.13341694
000210 07 5c c2 3e 51 32 a2 3e 7c f4 2c be 65 51 73 bc
       0.37960836 0.31679013 -0.16890138 -0.014850949
000220 8f ba 3d 3c 12 26 a5 3e c3 59 82 be 97 5b 7b be
       0.011580124 0.32255608 -0.25459108 -0.24546658
000230 be 7e b5 3d 35 cb ed 3d 6f f2 62 3d d9 4c 6d be
       0.08862065 0.11611024 0.055406984 -0.23173846
000240 42 07 e6 3d b2 5d e5 bd fb 07 4a bd 1b 7e f2 3d
       0.11231853 -0.111995116 -0.049324017 0.11840459
000250 c4 e5 82 bd e0 48 f3 3c
       -0.063914806 0.029697835

conv1.bias f4 [6]
000000 ca 96 e1 3d c9 89 3a 3d 5d 49 25 be 44 a2 d8 bd
       0.11015089 0.04554156 -0.16141267 -0.10577825
000010 be 70 6f 3d 46 e8 44 3e
       0.05845713 0.1922923

conv2.weight f4 [16, 6, 5, 5]
000000 0f b9 00 bd 23 14 f0 3c 8d 35 e6 bc 03 24 cc bd
       -0.031426486 0.029306477 -0.028101707 -0.09967806
000010 24 3e 93 3c b0 f1 d2 3c f8 22 a9 bc 02 5f b2 3d
       0.017973967 0.025750011 -0.020646557 0.087095276
000020 90 48 1a 3d 4c 5e 0b be ae e3 13 bc 61 ac 82 bd
       0.037666857 -0.1361019 -0.009026451 -0.06380535
000030 82 97 b9 3c 3c d2 ce 3c 78 a0 33 bd 32 b3 5b bc
       0.022655252 0.025246732 -0.043854207 -0.013409423
000040 ce 9d 1b be 14 2b fa bb 1a db a3 3c 91 30 e4 bc
       -0.15196916 -0.00763453 0.020001937 -0.02785519
000050 bd 71 82 bd 54 84 31 3d f0 0f b0 bd f7 f3 f4 bd
       -0.0636935 0.04333909 -0.0859679 -0.11960595
000060 56 90 be bd be c3 ea bc ca 3c f8 bd fb b6 4e 3d
       -0.09304874 -0.02865779 -0.121209696 0.050467473
000070 a2 ec 6f 3e da f2 66 3e f7 c9 3f bd 9c 84 06 bd
       0.23430112 0.22553578 -0.046823468 -0.03284131
000080 22 60 db 3d 02 94 5d 3e b2 d3 09 3e 74 f3 0e bc
       0.10711695 0.21638492 0.13459662 -0.008725036
000090 02 61 ae 3c 70 2d a2 be a7 ff 79 bd 9d b6 03 bd
       0.021286491 -0.3167529 -0.061034825 -0.032156575
0000a0 7d 2e 07 be e9 ab f9 3d c2 87 d7 3d 97 85 30 3d
       -0.13201328 0.121909924 0.105239406 0.04309615
0000b0 49 e4 74 3c 67 1a 00 bd b3 1d 4c bd bd 19 c4 3d
       0.014947006 -0.03127518 -0.04983301 0.09575222
0000c0 53 41 25 3d ab 2f 8f 3c 4b c3 99 bd 65 70 c9 bd
       0.0403455 0.017478785 -0.07507952 -0.09835891
0000d0 97 fb 9e 3d b3 7f 4a 3e 62 4f 27 3e bd c6 19 be
       0.07762831 0.19775276 0.16338876 -0.15017219
0000e0 77 e5 f8 3c e7 19 77 3c c5 13 21 3d 80 b3 5b bd
       0.030382855 0.015081859 0.039325494 -0.05363798
0000f0 43 57 91 bd 46 1b c2 bd 57 04 32 be 62 76 c3 bd
       -0.07096722 -0.09477858 -0.17384468 -0.09544064
000100 cf fc ee ba e6 7b 4c be f0 3d 68 be 7d fe 88 3d
       -0.0018233302 -0.19969139 -0.22679877 0.06689165
000110 cf 1e 14 3e 31 b4 68 bd 7c e6 34 bd 32 d4 4c 3c
       0.14464878 -0.05681247 -0.04416512 0.012501763
000120 d3 c2 63 3c e0 71 ee 3b 2f f8 28 3d 3e 8d 8a bc
       0.01390143 0.0072767586 0.04125231 -0.016913053
000130 e6 72 c6 3d a1 80 7f 3d bb 68 73 bd 14 23 73 3b
       0.09689884 0.06237853 -0.05942605 0.0037099766
000140 db 47 f3 bd ff 11 1f be cc 4f 96 be ca 93 c9 bd
       -0.1187894 -0.15534209 -0.29357755 -0.09842642
000150 c9 c7 39 bb b0 0a 75 bd ea ab 6a 3d 53 f1 99 3d
       -0.002834784 -0.059824646 0.057292856 0.07516732
000160 16 a3 0d bd 80 7a e5 bc cc b4 f1 3d 8e 2e 3a 3d
       -0.03457936 -0.028012514 0.118020624 0.045454554
000170 3b e2 d8 3d 6c 0d e1 3d 7d 66 a0 3d 9b 93 13 3e
       0.10590025 0.10988888 0.07832048 0.14411776
000180 3d 14 10 3d da a6 f4 3c b7 00 93 3b 3d 06 3a bc
       0.03517555 0.029864717 0.004486169 -0.011354026
000190 90 f6 f2 3b 52 54 d9 3c ef 2a 46 3c d4 50 cb 3d
       0.0074146464 0.026529465 0.012095197 0.09927526
0001a0 8d 21 e7 3d dd 18 14 bd ac 4d df bb 4f 0f 25 3d
       0.11285696 -0.036156524 -0.006814679 0.040297803
0001b0 f3 61 b3 3d bd d6 84 3d 75 bb 91 3d aa 1a 89 3c
       0.08758917 0.064862706 0.07115833 0.016736347
0001c0 d3 ee ec bd 5c b9 a8 bd 3a 97 b3 bd e0 84 2b 3d
       -0.115689896 -0.082384795 -0.087690786 0.041874766
0001d0 b4 35 7c 3d c6 8e dc 3d e5 d5 62 3d ef 50 6a 3c
       0.061574653 0.10769419 0.055379767 0.014301523
0001e0 d4 dd ca bd 0d 78 2a 3e 57 37 a9 3d ef e8 38 3e
       -0.099055916 0.16647358 0.08262508 0.18057607
0001f0 7d ef 8b bd cd 7b a5 3b 11 a1 37 bd 1f 0b ab 3c
       -0.06832788 0.0050501586 -0.04483134 0.020879326
000200 fb 25 31 bc 98 ce 4a 3d 6f c7 eb 3b 2d 05 70 3d
       -0.010812278 0.04951343 0.007195405 0.058598686
000210 5b e2 88 3d 4e 07 b9 3d 8d 7c 93 3d 8e 76 36 bc
       0.06683799 0.090345964 0.072014906 -0.011136664
000220 59 a2 06 3d 60 4b b4 3d 34 f0 b8 bd 89 0f fd bd
       0.03286967 0.08803439 -0.0903019 -0.12356479
000230 2a 28 3e 3c e2 74 8e bd f1 fe 78 bd 43 ed 9d 3d
       0.011606256 -0.069558874 -0.060790006 0.0771127
000240 95 54 03 3e 6a 4c 22 be 51 99 07 bd bd 09 c8 bd
       0.12825234 -0.15849462 -0.0331052 -0.097674824
000250 1f 5f cb bd d6 6d 97 3c 71 e2 85 3d d7 6a ae be
       -0.09930252 0.018484991 0.06537331 -0.34065887
000260 ce e4 95 be bc 73 c7 bd fc 59 41 bd 00 89 07 be
       -0.29276127 -0.097388715 -0.047204956 -0.13235855
000270 a5 e4 5b be 15 fe 0b 3e 93 dd 9e 3d 2f f9 0b be
       -0.2147394 0.13671143 0.07757106 -0.13669275
000280 9c 26 69 be 49 5b c5 3c 09 87 1e 3e a1 d3 11 3c
       -0.22768635 0.02409138 0.154812 0.008900554
000290 e6 82 f2 bd a7 3d 8f 3b e9 1f 0e 3c 6a ce 5c 39
       -0.11841373 0.004371363 0.0086746 0.0002105773
0002a0 fc 28 2f bd 70 5d 2d bd f8 4a f7 3d 8e 88 d7 bc
       -0.042763695 -0.042325437 0.12074846 -0.026310232
0002b0 73 e5 63 3d ac 37 68 3c 27 68 58 bd cb 32 de 3d
       0.05563874 0.014173429 -0.052833702 0.10849532
0002c0 12 94 1d be 59 2d f3 bd 1b d9 3c 3d d7 f0 07 3e
       -0.15388516 -0.11873884 0.046105485 0.13275467
0002d0 07 d0 73 bd 22 b8 b3 bd 4c 69 1a 3e 8e 25 4a 3e
       -0.059524562 -0.08775355 0.1507923 0.19740888
0002e0 ab e4 e8 bc ff f1 99 bd a6 89 a8 bd 2f 93 66 3d
       -0.02842935 -0.0751686 -0.08229379 0.05629271
0002f0 05 d1 b8 bc e5 75 44 3e fa c7 01 be e4 bb 06 bc
       -0.022560606 0.19185598 -0.12673941 -0.008223508
000300 d4 79 05 3d 13 22 ad 3d 3a 93 e4 3d 9a f6 e3 bd
       0.032586887 0.08453765 0.11160894 -0.1113102
000310 fe 8b e7 bc 4c 00 0e 3e f5 1d 88 bc e1 69 8f 3d
       -0.028264996 0.13867301 -0.016615847 0.07002617
000320 46 3a 2a bd 7a 38 8b 3d e8 b8 eb 3d 64 87 e8 3d
       -0.04155948 0.067978814 0.115098774 0.11353949
000330 a7 f6 df b9 f9 c4 30 3e 83 d4 3a 3e 0a 8b 47 3e
       -0.00042717645 0.17262639 0.1824513 0.19486633
000340 aa 62 4e 3b 4c 7e a0 bd fc e4 cd bc c4 ee 1b 3d
       0.0031491914 -0.07836589 -0.025133602 0.0380695
000350 e5 73 08 be 10 27 90 be 79 1b 4f 3d 9e 4a dd bd
       -0.1332546 -0.28154802 0.05056331 -0.10805248
000360 66 af 7c be cd 15 b0 bd f1 7b c1 bc 80 9d 8c 3b
       -0.24676284 -0.08597908 -0.02361867 0.0042912364
000370 ae f4 c5 bd ce 6c 85 be 98 2a c4 bd 4b 2b 77 3b
       -0.096658096 -0.26059574 -0.095784366 0.0037715014
000380 9e 9d 00 3e c4 75 f6 3d 5e 7d 01 3d 9f c1 3c be
       0.12560126 0.12034181 0.0316137 -0.18433236
000390 7c 11 99 be e6 8e 38 be 45 08 c4 3d 0c cf 88 be
       -0.29896152 -0.18023261 0.0957189 -0.26720464
0003a0 93 28 a8 be fb ab 86 bd 1e 19 56 3c 22 9b 6f 3d
       -0.32843456 -0.065757714 0.013067512 0.058497556
0003b0 d9 3e a9 be bd 08 56 3d d8 b1 3f 3d 72 3b 8f bc
       -0.3305576 0.052254427 0.046800464 -0.0174844
0003c0 d9 90 11 3e db 2f eb bc 90 73 51 3a 4a 21 c5 bd
       0.14215411 -0.028709343 0.00079899374 -0.0962549
0003d0 27 ac 5d bd d7 1f c0 bd 58 fe 8c bd 42 27 80 be
       -0.054119255 -0.09381073 -0.0688445 -0.2502995
0003e0 e4 bc bf bd 86 7d 3d 3d 69 c6 80 be 83 76 c2 be
       -0.093622 0.046262287 -0.25151375 -0.37981042
0003f0 83 b2 4b be fa 27 c8 bd e0 a3 35 bd 0d aa 28 be
       -0.19892316 -0.0977325 -0.044345737 -0.16471119

conv2.bias f4 [16]
000000 ac cd d2 be 0f ec 84 3d ed f7 db 3d 93 39 36 be
       -0.4117254 0.06490337 0.107406475 -0.177954
000010 c5 45 ec bd f8 00 65 be 74 ad 41 be e4 71 6d 3e
       -0.11536745 -0.22363651 -0.18913823 0.23187977
000020 3b fc 1c 3e 3c 13 f3 bc 9a 7c 99 3e b1 78 e0 bd
       0.15330593 -0.029672258 0.29977876 -0.1096052
000030 f0 f4 4e be b7 d8 7e 3e 4e ea 41 3e 83 b5 81 be
       -0.20210624 0.24887358 0.18937036 -0.25333795

fc1.weight f4 [120, 256]
000000 63 aa b9 bc 8a 6e 63 bd ef f6 a5 bc c0 da 81 bd
       -0.022664255 -0.05552534 -0.020259349 -0.063405514
000010 0b c4 d7 ba d6 cf 9e 3c 22 06 87 3c 66 8e 83 bd
       -0.0016461624 0.019386213 0.016482417 -0.06423645
000020 27 03 14 3e c8 3c 6f bb a4 4b b5 bd 72 b1 1f 3e
       0.14454328 -0.0036504734 -0.08852318 0.15595034
000030 c4 d9 a2 bc 91 26 dd 3c 86 c7 a4 bd 6a 5a 62 3e
       -0.01987923 0.026995929 -0.080458686 0.22104803
000040 ff e9 b4 bc 85 1f 06 bd a7 28 70 bd 17 5f 6e be
       -0.022084234 -0.032744903 -0.05863252 -0.23278461
000050 0a c8 18 bc a9 10 b8 bc 4a d3 94 bd 40 ba 1b 3e
       -0.009325037 -0.022468882 -0.07266863 0.15207767
000060 3a c4 22 3e de 22 42 3c db a8 ed bd a1 7e 0b 3e
       0.15895167 0.011849133 -0.11604472 0.13622524
000070 7a 8b a8 3c 6b 15 22 3d 70 78 cd bc 97 2c 13 bd
       0.02057432 0.039571207 -0.025081843 -0.035931196
000080 d9 05 87 bd 18 d8 b5 3d 36 46 d8 bd ca b2 a7 bd
       -0.06592912 0.08879107 -0.10560267 -0.08188398
000090 75 b2 a9 3d 40 f1 fb 3c 63 30 19 bc 02 c6 81 3d
       0.08285991 0.030754685 -0.009349915 0.06336595
0000a0 48 f6 c4 3d f2 c9 c3 3c 71 19 ba 3d 9d ea 09 be
       0.09617287 0.023900006 0.09086884 -0.13468404
0000b0 3c 72 e6 bd 25 d8 cd bc a1 d7 1c be 2d cc f4 be
       -0.11252257 -0.02512748 -0.15316631 -0.47812024
0000c0 a5 4a 42 bc 0e 3d 85 bb d2 2e 88 3d 50 b1 01 3e
       -0.011858617 -0.004066116 0.06649555 0.12665296
0000d0 b5 e3 ae 3d 91 61 95 3c c9 dd d4 3b c8 e1 2f 3e
       0.085395254 0.018235 0.0064961654 0.17175972
0000e0 2e b8 ce 3d 70 98 3d bd 23 ac b5 3d b5 9d 19 bd
       0.10093723 -0.046287954 0.08870723 -0.037503917
0000f0 3d d3 32 be 2d bf 95 bc 06 f9 9d bd a9 71 ac bd
       -0.17463394 -0.018279636 -0.07713513 -0.084201165
000100 45 0c b1 bb 76 23 c0 3d d9 b9 8e bd 73 d4 f9 bd
       -0.005403074 0.09381764 -0.069690414 -0.121987246
000110 77 36 a2 bd af dc c9 3b 85 a0 25 bc fe 85 b6 bd
       -0.079205446 0.0061603407 -0.010109072 -0.08912276
000120 da 68 26 3c 22 cc a0 3c f8 cb 72 3d 40 66 04 3d
       0.0101568345 0.019628588 0.05927655 0.032324076
000130 3f 61 bc bd ab 3e d6 bd da 95 f6 bd 79 cf a0 be
       -0.09198236 -0.10461172 -0.12040301 -0.3140829
000140 49 34 25 bd 4f d2 12 be c6 b1 8c 3c ca 66 ea 3a
       -0.040333066 -0.14338039 0.017174613 0.0017883417
000150 c1 e3 94 3d d1 30 a6 3c 14 33 99 3c e5 e2 32 3d
       0.07270003 0.02028695 0.018701114 0.043673415
000160 b2 01 8b 3d 63 90 46 3c 4b ae 46 bc aa fc fd 3c
       0.06787433 0.012119385 -0.012126516 0.031004269
000170 12 93 e3 3c ea 2a f1 bc f8 61 76 3d 84 62 46 3e
       0.02778009 -0.029439408 0.060152024 0.19373518
000180 06 87 78 bd 34 73 2b 39 a0 4b a3 bd 13 04 94 bd
       -0.060675643 0.00016350747 -0.07973409 -0.072273396
000190 a5 c3 66 bd 5b f7 dc bc af f6 e1 3d 34 6e b0 3d
       -0.056338925 -0.026973417 0.11033379 0.086147696
0001a0 57 79 7b 3d c7 c9 81 3d 26 9f 07 bd 2f 6b 02 3e
       0.061395016 0.06337314 -0.03311076 0.127362
0001b0 4c 25 fb bc 5c 69 99 3d 96 bf 85 3d eb 68 09 3e
       -0.030657433 0.07490799 0.06530683 0.1341893
0001c0 71 14 d1 bd 93 95 c0 3c f4 5a b0 bd 41 d7 e8 bd
       -0.10208977 0.023508823 -0.08611098 -0.113691814
0001d0 4b 8e 94 3d 8b b5 12 3e a8 33 a6 bd a0 34 8a bd
       0.07253703 0.14327066 -0.081153214 -0.06748319
0001e0 93 fd 94 3d 9b c7 a6 bd cb 39 1e 3d c7 f9 83 bc
       0.07274928 -0.081435405 0.038629334 -0.016110314
0001f0 46 78 7f 3c 51 af 31 3e 51 01 4c 3e 85 9c 16 be
       0.01559264 0.17352034 0.19922377 -0.14708145
000200 d0 ef b5 3d e3 ef 2e be 5a 8e 6b bc c1 9f b8 bd
       0.08883631 -0.17083697 -0.014377201 -0.09014846
000210 2c b0 00 bd 9b 76 dd bc f5 ad a4 3d 03 c7 d0 3c
       -0.03141801 -0.027034095 0.08040992 0.025485521
000220 65 23 cc bd bd 9b 97 bd e0 13 e3 3c 5b 9a 14 3e
       -0.099676885 -0.074027516 0.027719438 0.14512007
000230 1b 77 d8 3c 5e ef 85 bd 30 9c 81 bc 5f 74 f5 bd
       0.026423981 -0.06539796 -0.015821546 -0.11985087
000240 2d 37 28 3e 45 9d 4d 3e 4f 5b 77 bd b9 35 73 be
       0.16427298 0.20079525 -0.060389813 -0.23750962
000250 f9 58 c3 3d 65 75 3e 3d db 1f c9 bc ae c3 0c bc
       0.095384546 0.046498675 -0.024551323 -0.008591576
000260 59 b9 59 3d a1 c4 b3 3c 57 c9 b3 3d 04 f6 66 bd
       0.053155277 0.021944346 0.08778637 -0.056386963
000270 de a5 96 3c 90 18 a7 3d f5 5c 91 bd 69 4e b4 bd
       0.018389639 0.08158982 -0.07097808 -0.08804018
000280 80 ee d7 3d 90 2a fa bc 58 90 90 3e ca 32 88 3d
       0.10543537 -0.030537874 0.28235126 0.06650312
000290 3b bd cf bd 1c dd 5d be c3 b9 04 bd 48 5e 83 3d
       -0.10143515 -0.21666378 -0.03240372 0.06414467
0002a0 5d b6 8a 3d ad 93 a1 bd b5 b8 af bd 6c 48 3f 3d
       0.06773064 -0.07889495 -0.08580152 0.046699926
0002b0 ee df f0 3d 23 b6 2f bc 99 ff 05 be 24 dc 53 be
       0.11761461 -0.010724577 -0.13085784 -0.20689446
0002c0 45 48 6f 3c 93 d1 82 3d dd 43 92 3d de 66 3e 3a
       0.014604633 0.06387629 0.0714185 0.0007263253
0002d0 12 c0 40 be f2 71 c6 bc 3b ba a4 3d b4 ec f4 3d
       -0.18823269 -0.024224255 0.08043333 0.1195921
0002e0 5d f6 1a be 77 b4 3a bd 2a 7e d1 3b dc 9e 3f bc
       -0.15133043 -0.04558226 0.0063932138 -0.01169559
0002f0 75 49 d7 3d c5 95 18 bd fe aa 77 bd f7 c1 29 3e
       0.10512058 -0.037252206 -0.060465805 0.16577898
000300 f0 59 79 3d 5d 63 e0 b9 b2 33 0e bd e3 d7 cc bd
       0.060876787 -0.0004279864 -0.03471727 -0.100021146
000310 0a aa 04 3d 48 2a 1e 3d 2d 10 8e bd 68 3c 87 bb
       0.032388724 0.03861454 -0.06936679 -0.004127074
000320 b7 b0 c4 3d ae 2b a7 3c e1 59 f5 bd 42 a2 2f 3c
       0.09604018 0.02040657 -0.11980034 0.010719838
000330 25 4b ec 3c 41 93 ab bd bd 63 11 bd a7 dd 12 3a
       0.028844425 -0.08377696 -0.03549551 0.0005602487
000340 17 8e 40 3c 8b 72 3e 3d 8e af 31 3c b6 f8 52 3d
       0.011752627 0.046495955 0.010845078 0.05150672
000350 41 c1 f9 bc 65 68 28 3c 01 93 b5 3c ca ba c8 bd
       -0.030487658 0.010278796 0.022164823 -0.09801252
000360 a2 6d 39 bd 51 c3 30 bd a6 92 11 3d b9 34 52 3d
       -0.04527057 -0.04315502 0.035540245 0.05131981
000370 74 57 eb bc a2 f3 63 3d 66 18 e3 3c 26 86 22 3d
       -0.028728224 0.05565227 0.027721595 0.039678715
000380 69 f0 99 3d 9e e6 b9 3d 1e 1a 1c be cf 3b bd bc
       0.07516558 0.0907719 -0.15244338 -0.023099808
000390 06 83 04 3e 90 79 b2 3d bf 74 5d 3d 19 b6 eb 3d
       0.12940606 0.087145925 0.054066416 0.11509342
0003a0 da ee 2c 3e e3 f5 05 be c3 fe 46 bd 21 fb db 3d
       0.1688799 -0.1308208 -0.048582803 0.107412584
0003b0 20 87 7e bd c9 11 4c 3c 04 d1 86 be 80 d2 39 bd
       -0.062140584 0.012455412 -0.2633134 -0.045366764
0003c0 0f b0 1f 3d f2 8a 9d bd 19 98 bf bd 93 8e 19 be
       0.038986262 -0.07692517 -0.09355182 -0.14995794
0003d0 16 ba 02 3e 28 1c 0f 3b fa 46 c0 bc 40 3f 0c 3d
       0.12766299 0.002183685 -0.023471344 0.034240007
0003e0 07 5b ae bd 8a 12 41 3c e0 5a 06 3b 87 05 ea bc
       -0.08513456 0.011784205 0.0020500943 -0.028567089
0003f0 10 b0 e0 3c 3c 53 e6 3d 31 96 66 be 56 e8 a6 bd
       0.027427703 0.112463444 -0.22518231 -0.08149783

fc1.bias f4 [120]
000000 6a 28 ed bd 31 16 1c 3e 3a 66 27 be 99 96 eb 3d
       -0.11579974 0.1524284 -0.1634759 0.115033336
000010 c1 ee be 3c 30 3e 68 3e 02 c5 9f 3c ce 8e 93 3d
       0.023307206 0.22679973 0.01950312 0.07204972
000020 97 52 08 3d 97 86 89 3d 80 02 79 3d 54 47 4d be
       0.03328189 0.06715124 0.0607934 -0.20046741
000030 95 ac 91 3a a3 57 97 bd 74 07 c9 3d 1e cf f9 bd
       0.0011114056 -0.07389762 0.09815875 -0.121977076
000040 66 8f 75 3c 44 56 3c 3e 53 35 5c 3e 08 c0 bb 3b
       0.014987802 0.18392283 0.21504717 0.005729679
000050 03 bb e6 3c 35 9b 0b 3e 59 ba 5f bd 11 a1 98 bd
       0.028165346 0.13633426 -0.054621074 -0.07452596
000060 2c 64 79 3e ff 6f fe bd 9b 17 9f bd e8 41 39 3d
       0.24354619 -0.12423705 -0.07768174 0.04522887
000070 0b 6d 4d 3e 1e bf dc 3d 03 b1 a6 bb e5 7e 37 3c
       0.20061128 0.1077864 -0.0050870194 0.011199688
000080 9d c4 dc 3d 59 e9 90 3e 44 e7 35 3e 4a 33 03 be
       0.107796885 0.2830303 0.17764002 -0.12812534
000090 68 6e 85 3e 7f 7c b9 bb f6 14 23 3d 63 e3 2e 3d
       0.26060796 -0.005660593 0.03981491 0.04269732
0000a0 da 09 aa bc 48 c7 78 3e 7c 04 d8 bc ff 0f 1a be
       -0.02075665 0.2429477 -0.026369326 -0.15045165
0000b0 8d 0a b5 3e a4 61 38 bc 9d 75 f7 bc cc 0b 72 3d
       0.35359612 -0.011253748 -0.03020745 0.05909328
0000c0 cc 25 d3 bd 2f 3b cb bd 09 52 a5 3d 57 8c e5 3d
       -0.103099436 -0.09923398 0.080722876 0.11208408
0000d0 64 1d 1b bc 01 57 89 3d 2e 9e 7d bc 17 b2 20 be
       -0.0094674565 0.06706048 -0.0154796075 -0.15692936
0000e0 eb bd e1 3c 7c 0e 2b bc cc 37 d6 3b 4a 3b 0d bd
       0.02755638 -0.010440465 0.006537413 -0.03448037
0000f0 29 83 e7 bc 86 45 0e 3e 16 b0 9e 3c b4 b6 8f 3d
       -0.028260784 0.13893709 0.019371074 0.0701727
000100 42 15 5d bd f0 35 df bd 41 97 93 3c f1 37 bd bd
       -0.05397535 -0.1089896 0.01801646 -0.092391856
000110 ac 94 d7 3c 03 16 1d be 93 84 99 3c d4 4e 21 3c
       0.02631601 -0.15340428 0.018739974 0.009845454
000120 b1 97 87 bd 82 fd 9d bd 2e 20 a7 3e 08 3d 03 bd
       -0.0662073 -0.077143684 0.3264174 -0.032040626
000130 0e e9 b6 bd cd 6e df bd 4e 48 9c 3d f7 7c a4 bc
       -0.089311704 -0.109098054 0.076309785 -0.02007912
000140 3e 0a 87 bd d8 04 87 3d af 09 8c bd 6f cf ab bc
       -0.065937504 0.06592721 -0.068377845 -0.020972935
000150 58 81 b8 bb 31 a3 15 3d 15 ff 0d 3d 2a 88 3b 3d
       -0.0056306534 0.036532585 0.034667093 0.045784153
000160 16 9f 9d 3c 0b 27 19 bc cf c7 6b 3d c0 47 2d 3d
       0.019240897 -0.0093476875 0.0575636 0.042304754
000170 df cc 66 3d 4a ce 95 bd 84 a4 3f bd ac f4 00 3d
       0.056347724 -0.07314737 -0.046787754 0.031483337
000180 9d 01 fe bc 45 f6 5d bd b6 6c 98 3d 81 0b 6e bd
       -0.031006629 -0.05418994 0.0744261 -0.05811644
000190 d7 4b 2e bc b1 ff ac 3e 48 bc bb bc f5 f0 a7 bd
       -0.010638199 0.33788827 -0.022916928 -0.08200256
0001a0 ef 3b 23 bd 15 40 23 3d 67 c9 b1 3c 69 69 dc 3b
       -0.03985208 0.039856035 0.021702481 0.006726433
0001b0 5a 28 80 bd 8e ee a1 3d d5 b5 24 3e 94 f0 83 3d
       -0.062576964 0.07906829 0.16084988 0.06442371
0001c0 dd 40 8f 3c 90 bc b0 bd 15 00 13 3e d2 e4 c1 bb
       0.017486984 -0.086297154 0.143555 -0.00591717
0001d0 ba d3 7f bd 89 6c a0 3e 34 b8 27 3d fe a7 34 be
       -0.062457778 0.31332806 0.040947154 -0.17642209

fc2.weight f4 [84, 120]
000000 48 01 1d 3e 25 72 24 3e c0 5f 18 3e 31 60 c8 bd
       0.1533252 0.16059168 0.14880276 -0.09783972
000010 58 5f f7 3c d3 24 74 3d ac 54 94 3d da fa 96 bb
       0.03019683 0.05960543 0.072427124 -0.0046075406
000020 0d d2 5e 3d 47 2c 32 3e 81 d7 99 3c f8 f7 2e 3e
       0.05439954 0.17399703 0.018779518 0.1708678
000030 c3 47 6a bc f8 b1 c0 3b 42 35 28 3d b2 f7 96 bd
       -0.014299336 0.0058805905 0.041066416 -0.07371463
000040 38 18 84 3d c9 3a f0 bd a4 53 06 be 32 e3 41 3e
       0.06449932 -0.117299624 -0.13117844 0.18934324
000050 39 c5 58 3d c1 71 3b 3e 68 56 c8 bd 5a f0 49 3d
       0.05292246 0.18305112 -0.09782106 0.049301483
000060 bb a6 9f bc f3 1b 73 bd 55 13 09 bd 89 74 bc bc
       -0.019488683 -0.059352826 -0.033465702 -0.023004787
000070 30 ce c5 3b 83 95 be 3c bc 7d 9c bc 3e b2 af bd
       0.0060365424 0.023264652 -0.019102924 -0.08578919
000080 9e fc 1e ba 15 40 73 3d a2 74 80 bc 07 ab a7 3d
       -0.00060648646 0.059387285 -0.015680615 0.08186918
000090 8b 58 4a be d0 39 4a bc 14 61 a4 3d cd cf 3c be
       -0.19760339 -0.012342885 0.08026329 -0.18438645
0000a0 fb 91 1e 3e a6 33 87 bd fb be 3b be 4a 6c 12 be
       0.15485375 -0.06601648 -0.18334572 -0.14299121
0000b0 70 23 47 3d b9 e9 0f bb 12 fa bb 3c 9c fd 21 3e
       0.04861778 -0.0021959378 0.022946391 0.158194
0000c0 ef 2d 2d 3e 83 54 9d 3d d9 a9 0c be 27 59 1a bd
       0.16912054 0.07682135 -0.13736667 -0.03768268
0000d0 cc 0e 5d bb 71 21 cf 3d 0a 20 0f bd 1a 61 2f 3e
       -0.0033730743 0.101138 -0.034942664 0.17126885
0000e0 36 c1 92 bd 16 6f c1 3b 20 0d 2a 3c 11 c0 f5 3d
       -0.07165758 0.005903135 0.010379106 0.119995244
0000f0 7d 9f 14 3d e0 b0 a3 3d 09 59 7d 3d 3d ef 0c 3e
       0.036284912 0.079927206 0.06185249 0.13763137
000100 9d 47 8a 3d 8e 61 58 bd ba f5 cc 3c 01 9b 26 3c
       0.067519404 -0.05282741 0.025019515 0.010168792
000110 f1 d9 d1 3d bf e1 0b 3e c1 43 4d bd 3e 02 03 bb
       0.10246647 0.13660334 -0.050113443 -0.001999035
000120 01 25 76 bd 7e e2 fa 3c 48 75 91 bc 3a 1c 7e bd
       -0.060093883 0.030625578 -0.01775612 -0.062038638
000130 90 c6 83 3d cc 89 85 3c 30 66 9b 3d 6a d6 10 3e
       0.06434357 0.016301058 0.0758785 0.14144292
000140 8b d0 f4 3d 2a 7c 76 be 83 d3 60 3d b1 05 54 3e
       0.11953839 -0.24070802 0.054889213 0.20705296
000150 ec 8f 75 bd db ce 1f be dc b1 8d 3b 2e 75 f0 bc
       -0.059951708 -0.15606253 0.004324181 -0.02935275
000160 9f 9b 49 bc fa 55 4a 3d 9b b1 df bd 93 15 83 bd
       -0.012305169 0.0493984 -0.109225474 -0.06400599
000170 5d 41 ea 3d 6c 1f 78 be 26 24 63 bd b4 75 be b9
       0.11438248 -0.24230736 -0.055454396 -0.0003632732
000180 d3 51 dd 3d 8c a5 88 bd 3b cc 42 3d 23 ca 4a 3d
       0.10806622 -0.066722006 0.04755805 0.04950918
000190 58 1a f3 3d ae 4b 04 be a4 75 0f 3e b5 22 81 bc
       0.11870259 -0.12919495 0.1400972 -0.01576362
0001a0 b8 9b b0 bd 3f 74 23 3e 22 da 21 bd d6 93 1a bd
       -0.08623451 0.15962313 -0.03951467 -0.037738644
0001b0 37 64 49 3c e9 5a 3b be 48 68 70 bd cb 40 7b 3c
       0.0122919595 -0.18296398 -0.0586932 0.015335272
0001c0 ee 2e 33 be be 95 3b 3e c4 2f e3 bd a5 57 ad bd
       -0.17498371 0.18318841 -0.11093095 -0.084639825
0001d0 c2 f5 19 3c 68 b1 c8 3d 0e a1 c2 3d b7 bc f0 3c
       0.009396972 0.097994626 0.09503375 0.029386861
0001e0 84 33 16 bd a1 f9 b0 3d 4c f9 48 3d e0 3c 8b 3d
       -0.036670223 0.08641363 0.049065873 0.0679872
0001f0 38 05 95 3d bd f6 de 39 24 1c 0a 3e 30 36 85 be
       0.07276386 0.00042526974 0.13487297 -0.26017904
000200 57 d0 a3 3d b7 aa 9f 3d 60 5a 86 3d 1c b9 e6 bd
       0.07998722 0.07796233 0.065602064 -0.112657756
000210 f1 99 9b 3c 3d fd 2d bd 3b dd df 3d d2 54 fa bb
       0.018994303 -0.042477835 0.10930868 -0.007639506
000220 14 d1 29 bd 67 6c 1b 3e 53 87 ad bb 34 d5 66 3a
       -0.041459158 0.15178071 -0.005295673 0.00088055735
000230 c7 d2 11 be 20 67 20 be 56 cf cc bd d1 03 ac bd
       -0.14240561 -0.15664339 -0.10000484 -0.083991654
000240 5d 0e 50 3d a8 52 b0 3d 96 70 d1 3d 89 57 54 bc
       0.050794948 0.086095154 0.10226552 -0.012960323
000250 ec 54 eb bc 67 44 9f 3d 08 f4 1f be be 8c 7a bd
       -0.028727017 0.077767186 -0.15620434 -0.06116938
000260 bd 9e fe 3c 96 97 3f 3e 82 f3 26 3e 62 5d dd bd
       0.031081552 0.18710169 0.16303828 -0.10808827
000270 2e 63 52 3e a7 e0 b7 bc a4 a0 d9 bd 4c a5 48 3c
       0.20545647 -0.02244599 -0.10626343 0.012246441
000280 9b ac e3 bc 09 f3 78 3e 9d be 1c 3c f4 75 d9 bd
       -0.027792266 0.2431146 0.00956693 -0.10618201
000290 c6 64 40 3c 16 39 01 be 4f dc 46 be b9 13 95 3d
       0.011742776 -0.12619433 -0.19419979 0.072791524
0002a0 49 02 27 3d fc df 75 bc 57 13 e4 bc 53 43 c8 bd
       0.040773664 -0.015007015 -0.027841253 -0.09778466
0002b0 da e5 40 be 9f e1 8a bd 84 21 12 bd 99 d1 05 3d
       -0.18837681 -0.06781315 -0.035676494 0.03267059
0002c0 a4 1a 88 bd 50 8b 0f bd e3 6c 8c bd 28 12 b5 bd
       -0.06645706 -0.035044968 -0.06856706 -0.08841354
0002d0 54 1c 5f 3d 95 a4 b7 bd d2 a7 04 bd 57 e8 5a be
       0.054470375 -0.089669384 -0.03238661 -0.21377693
0002e0 92 e5 0e bd 7e 70 de 3d 0a 39 0b 3e af 6c 86 bd
       -0.034886904 0.108613 0.13595977 -0.065636985
0002f0 db 6e 0b bb 3c 58 6c bc 84 52 79 bd a5 50 80 bc
       -0.0021275792 -0.014425334 -0.06086971 -0.015663454
000300 cd 67 3c bd ae 15 53 3d b2 c2 a2 3d be c8 be bd
       -0.04599743 0.051534347 0.079472914 -0.09315632
000310 09 6d 5d 3c 74 68 aa bd 10 6a 02 3d b2 08 d1 3d
       0.013514766 -0.08320704 0.03183943 0.102067366
000320 c9 ce 1c be 9b 70 f1 3d 76 92 91 bd 8b 05 4b 3d
       -0.15313257 0.11789056 -0.07108013 0.049565833
000330 84 c6 c9 bd f7 c9 72 bd 87 2d c8 3d 6e ad 80 bd
       -0.09852317 -0.05927464 0.09774309 -0.06283079
000340 2c 6c 04 be 97 6e 2a bd f6 8d a4 3d f0 c2 5a 3d
       -0.1293189 -0.041609373 0.080348894 0.053408563
000350 25 05 8a bc 93 13 62 3e e0 ff ae 3c 00 70 23 3e
       -0.016848156 0.2207778 0.021362245 0.15960693
000360 b1 71 24 3d e7 e9 72 bd 7c fe 37 ba 5e 1d 15 3d
       0.040147487 -0.059305098 -0.0007018817 0.03640496
000370 ce da d3 3c 16 77 15 3e 5b db 19 be c5 be a1 bd
       0.02586117 0.14596209 -0.15025084 -0.078977145
000380 08 94 8d bd a2 12 06 be d3 87 a2 3c 56 3d f7 3b
       -0.06913 -0.13093045 0.019840157 0.0075451536
000390 35 1e 00 be 19 e3 2c 3c e9 d0 b9 bd a4 bd 32 be
       -0.12511523 0.010552191 -0.090730496 -0.17455155
0003a0 70 85 32 3e 71 8d 7c bd 33 60 9d 3d 7a c1 b0 bd
       0.17433715 -0.061658327 0.07684364 -0.08630653
0003b0 0a a0 22 3d c6 d9 f3 3d a2 10 08 3e 59 6a 0f 3d
       0.039703406 0.11906771 0.13287595 0.03501353
0003c0 b1 5b 2a 3c 36 e4 09 3d 1a ca 37 be 7b ed 1c 3e
       0.0103978375 0.033664905 -0.1794819 0.15324967
0003d0 88 39 17 3e ea f6 e2 3d 1c 61 39 bd b9 9f 41 3d
       0.1476804 0.11082251 -0.045258626 0.047271464
0003e0 39 e0 a0 be f1 0b fd 3c 09 a9 50 3d e3 c5 78 be
       -0.31421068 0.030889483 0.050942454 -0.24294238
0003f0 f4 9e 28 3d b7 94 96 3d 6d 18 3b 3d f4 d5 ec 3d
       0.041167215 0.07352584 0.04567759 0.11564246

fc2.bias f4 [84]
000000 dc 4a 00 bc 86 bd 6d 3e 5a 54 87 3e 93 75 0b 3e
       -0.007830348 0.23216829 0.26431543 0.1361907
000010 2c d6 ff bd e7 f7 2a 3e 3b b5 a4 3d d5 5c 91 bd
       -0.12492022 0.1669613 0.080423795 -0.070977844
000020 43 0c 92 bd e6 cf ea bd 33 85 db 3d 87 1f d9 3d
       -0.07131245 -0.11465435 0.10718765 0.106017165
000030 ca 24 39 3d de a7 da 3d dd d8 cc 3d 19 f1 07 be
       0.0452011 0.106765494 0.10002301 -0.13275565
000040 da be 6a 3e 82 15 80 3e b8 6d 0e be 7d c8 bc 3c
       0.22924367 0.2501641 -0.13909042 0.023044819
000050 b4 f8 e5 bd 0f 4d 12 be 21 f9 25 3e dd f4 91 3d
       -0.11229077 -0.14287208 0.16208316 0.07126782
000060 14 09 15 3e 33 67 28 bd 19 5c 8a 3d ab 75 a7 3d
       0.14554244 -0.041114043 0.067558475 0.0817674
000070 ca bc 8f bd 5e dd eb 3c 47 94 2d bd 67 e8 c9 bd
       -0.070184305 0.02879208 -0.042377736 -0.0985878
000080 b6 05 8e bd c6 47 ab bd 7f 58 da bd 25 17 76 3d
       -0.06934683 -0.08363299 -0.106614105 0.060080666
000090 e0 22 a2 bc 31 7f 1a 3d ec 68 83 3e 20 c7 b2 bd
       -0.01979202 0.037718955 0.25665987 -0.08729386
0000a0 e7 2e 0b 3d e2 2e 58 3e 9d 91 c4 3d 6d d8 b9 b7
       0.033980276 0.21111634 0.09598086 -2.21545e-05
0000b0 5b 27 93 bd 73 db 1a 3e c6 22 1c be 17 5b f6 3c
       -0.07185241 0.15122776 -0.1524764 0.030072732
0000c0 9f 9c f7 3d 25 e3 d4 bd f2 2d 76 3d 6e bc d6 bd
       0.1209042 -0.10394887 0.06010241 -0.10485159
0000d0 56 e0 8e bd 7c f8 aa bd f4 45 2f 3e bd 8d 64 3e
       -0.069763824 -0.08348176 0.17116529 0.22319694
0000e0 da e3 02 3e 16 c7 95 3d de c0 37 bc 7f 95 b7 bd
       0.12782231 0.07313363 -0.011215417 -0.08964061
0000f0 fa 23 9c bd ab 9b c5 bd 36 36 0e 3d f9 b6 8b bd
       -0.076240495 -0.09648832 0.03471967 -0.06822009
000100 a8 9a 2d 3e d7 40 ac 3a c1 39 5b 3d a8 8f b8 bb
       0.16953528 0.0013141882 0.053521875 -0.0056323595
000110 9e a1 9f 3d 86 cd ea bd 18 9a a8 3c 56 d5 05 3e
       0.07794498 -0.11464982 0.02058129 0.13069662
000120 32 ac bd bc db 60 b5 3d e3 c8 6f 3e 6a 1b e4 3d
       -0.023153398 0.08856364 0.23416476 0.11138041
000130 b7 1b fd 3d 39 fc df 3d ed e6 73 3d 2d ec 07 3e
       0.12358802 0.109367795 0.0595464 0.13273688
000140 52 c1 cc 3d 7c 5b ed 3d 94 3d db 3c e4 88 92 bd
       0.099978104 0.11589715 0.026762761 -0.07155016

fc3.weight f4 [10, 84]
000000 48 47 53 bd 0c 64 89 bc 3d 99 1e 3d 1d 79 24 be
       -0.05158165 -0.016771339 0.03872036 -0.16061826
000010 a8 1b 95 3c 98 a0 59 3d 1d 9f aa bd f3 3f 83 be
       0.018201664 0.05313167 -0.0833113 -0.25634727
000020 26 11 5f 3c 6b 4a a9 bd 0d d5 1f 3e c6 07 e5 3b
       0.013614928 -0.08266147 0.15608616 0.006989452
000030 63 93 a4 3c 95 d0 ad bd 55 24 b6 3c 59 58 f2 bb
       0.02008981 -0.084870495 0.022234121 -0.007395786
000040 ec d2 74 be 28 27 7e be e3 81 17 bd 22 95 86 bd
       -0.23908585 -0.24819624 -0.036989104 -0.065714136
000050 c3 25 88 3d 31 59 01 3c 63 1f 36 be a3 48 16 3e
       0.066478275 0.0078948 -0.1778541 0.14676146
000060 bd 3a 47 be 0f 0b 39 be 39 2e 15 be 5e 00 5b bd
       -0.19456 -0.18070625 -0.14568414 -0.053467147
000070 65 4d b4 3d 91 70 24 3b ae ae 0f 3e 2d 25 34 3d
       0.08803824 0.002509151 0.14031479 0.043980766
000080 be c6 65 bd 09 e0 b7 bc fe 77 6d 3e e4 4a 10 be
       -0.05609774 -0.022445695 0.23190305 -0.14091069
000090 c0 37 1d be 51 82 5c 3d f8 1d 0b be 83 de 95 bd
       -0.15353298 0.053835217 -0.13585651 -0.07317831
0000a0 36 6a 63 bd 60 13 53 3d 41 a8 29 be 46 12 4c 3d
       -0.055521213 0.05153215 -0.1656809 0.049822114
0000b0 fe ad 64 3c 51 56 de 3d 0a a4 ce bb 49 76 8d be
       0.013957499 0.10856307 -0.006306176 -0.27629307
0000c0 37 5d e4 3d eb ba 7c 3d bf cc 9b bd 21 7b ca 3c
       0.11150592 0.061701696 -0.076074116 0.024716916
0000d0 13 b6 8b 3e d5 56 aa bc 3a f4 87 3d 0f e6 bb 3d
       0.2728735 -0.020793358 0.066383794 0.091747396
0000e0 be 02 c3 bd 57 8c 01 be c1 68 20 bc 97 48 78 3d
       -0.095220074 -0.12651192 -0.0097906 0.060616102
0000f0 b4 6a 1d 3e 5a 29 72 3d a3 62 ec 3c 0c 40 a6 bd
       0.15372735 0.059121467 0.028855627 -0.08117685
000100 2a 74 67 3d b2 80 84 3d 61 93 91 bd 3c b5 3a be
       0.056507267 0.06469859 -0.071081884 -0.18233198
000110 9e 0a 81 ba f6 55 36 3d f4 f7 87 bd f6 a5 fe 3d
       -0.0009845083 0.044515572 -0.0663909 0.12433998
000120 93 49 29 bc ea 89 ff bd c9 46 69 bd 03 4f 15 3e
       -0.010332483 -0.12477477 -0.05695227 0.14580922
000130 55 5c 7c be ff d8 d5 3c f9 24 0f be c1 4c 33 3e
       -0.24644597 0.026104448 -0.13978948 0.17509748
000140 29 1b 24 3e 5c d4 39 be 60 1d 64 3e a5 1d 22 3d
       0.16025986 -0.18147415 0.2227683 0.039579052
000150 84 16 85 bd 6f d2 0f 3e c9 41 5a 3e 23 c8 39 3e
       -0.06498435 0.14045118 0.21314158 0.18142752
000160 40 b9 92 bd 7a ad 67 bd 45 20 3c be b9 48 85 bd
       -0.0716424 -0.056561925 -0.18371685 -0.06508011
000170 5e 4e 61 3e c5 02 43 bc f8 72 67 3d e2 d2 3f be
       0.22002551 -0.011902516 0.056506127 -0.18732789
000180 c3 d8 27 be e2 0c 58 be 80 50 d2 bc ea 25 85 ba
       -0.16391282 -0.21098664 -0.025673151 -0.0010158394
000190 4a 9d 1c 3e 00 2e eb 3d 14 56 18 be ee 27 5b be
       0.15294376 0.11483383 -0.14876586 -0.2140195
0001a0 44 48 87 bd f9 3d 16 be 60 34 0c 3e ec 7b 6d 3c
       -0.066055804 -0.14672078 0.13691854 0.014494877
0001b0 db a6 1b 3e 81 65 ec bd af e2 32 3d e9 45 36 be
       0.15200369 -0.11542798 0.043673214 -0.17800106
0001c0 c8 be 4b be 2b 9b 8e be de a9 3c bd e5 ff 33 be
       -0.19896996 -0.2785276 -0.046060435 -0.17578085
0001d0 5c 4e 10 be 33 e6 f2 bb 82 2a 83 be f2 28 2a be
       -0.14092392 -0.007412696 -0.25618368 -0.16617182
0001e0 da ee 1a be bf 3d 61 3d c6 2d 8d 3e 2d 79 9e bc
       -0.15130177 0.054990526 0.27573985 -0.01934489
0001f0 a1 c3 c6 3d 08 eb 63 3e 50 4a ff 3d be 93 09 be
       0.09705282 0.22257626 0.12465346 -0.13435265
000200 90 83 84 be 5d 6e 06 3e 87 71 29 bd 1a 6d 48 3d
       -0.25881624 0.13128038 -0.041368034 0.048932172
000210 7b de ac 3d 6a 3b 8a be 76 dd 52 bc 1b a0 0d bc
       0.08440872 -0.26998454 -0.012870183 -0.008644129
000220 c8 42 89 3e ba 63 33 bd 99 93 10 3e db f0 3b 3d
       0.26808763 -0.04379628 0.14118804 0.045883995
000230 53 c7 45 3e 8e 40 c5 bb 68 36 7e 3d 5f 6c 60 3c
       0.19314317 -0.0060196584 0.062063605 0.013697713
000240 ef 25 bd bd 74 ee f8 3c 2d f9 4b bd c3 31 68 be
       -0.09235751 0.03038714 -0.04979818 -0.22675233
000250 f0 6c 9d be 58 b3 8d 3d 62 ea 8b be fb b9 4c be
       -0.30747175 0.06918973 -0.27327257 -0.19992821
000260 10 1d f7 bd f5 60 0f be 79 54 a2 3d f7 47 50 3d
       -0.1206609 -0.1400183 0.07926268 0.05084988
000270 4f 48 a1 be 64 55 10 3e 2f e9 22 3e 7a 07 6c be
       -0.3150048 0.14095074 0.15909265 -0.23049727
000280 f9 b8 fa 3d 3d 48 b3 3d ac 88 e2 bd b3 01 b3 bd
       0.12242312 0.08754013 -0.11061224 -0.087405585
000290 15 6e 1b be 29 5d 71 3c c1 3b d2 bd b3 b9 77 be
       -0.15178712 0.014731684 -0.102653034 -0.24191932
0002a0 77 06 11 3e fb b8 06 3e 62 0c 53 be ea e0 fb 3d
       0.14162622 0.13156502 -0.20610192 0.12298758
0002b0 8b b8 b0 bd fd b7 e6 3c c2 8d e4 3d 0f c6 17 3d
       -0.08628949 0.028163904 0.11159851 0.037054118
0002c0 45 e2 ab bd 0f a5 04 3d a6 67 24 3d 81 53 12 be
       -0.08392767 0.032383975 0.04013791 -0.14289667
0002d0 45 06 02 3d bd c4 44 3d e6 83 c7 3c 33 96 53 bd
       0.03174426 0.048039187 0.024354886 -0.051656913
0002e0 c2 ae 79 be 45 95 e8 bd e7 65 54 3c 3d 09 5a be
       -0.24383071 -0.11356596 0.012963749 -0.21292587
0002f0 a8 be fd bc d1 e9 a0 3c 6b 89 40 bd 6b 22 0f bc
       -0.030974701 0.019642742 -0.047006052 -0.008736233
000300 bc f6 26 be 53 91 ff 3d f8 a0 c1 bc e6 b1 dc bd
       -0.16305059 0.1247889 -0.023636326 -0.10776119
000310 48 68 24 be 7a 36 48 bd 0d f4 00 bc 48 97 19 be
       -0.16055405 -0.048880078 -0.007870686 -0.14999115
000320 42 87 70 bd 50 4e 63 bd c6 75 dc bd 46 60 14 3e
       -0.058722742 -0.055494606 -0.10764651 0.1448985
000330 7b 57 52 be 6d cf 0a 3e 29 5c 8c be 2e 69 35 bd
       -0.20541184 0.13555689 -0.27414063 -0.04428976
000340 fc 63 27 3c 73 b1 01 3d 82 12 90 3c 6e 87 d9 3d
       0.010216709 0.03166337 0.01758695 0.10621534
000350 b6 ac 05 be a7 16 59 be 53 de 16 3e 77 27 9f 3c
       -0.13054165 -0.21200047 0.14733247 0.019427998
000360 eb b5 ab 3d ec d5 e7 3d 58 bd 45 be 63 a0 27 3d
       0.083843075 0.11320099 -0.1931051 0.04092444
000370 4d e9 14 3d 83 01 5d 3e 5f 22 80 be c4 25 41 be
       0.036355305 0.21582608 -0.25026223 -0.18862063
000380 b9 9b e7 3d 64 0e 15 3e 44 da 8f 3d a2 41 20 3e
       0.113089986 0.14556271 0.07024053 0.15650037
000390 0c e4 6e 3d 99 f3 61 bd 45 61 45 3d 86 31 d4 3d
       0.05832295 -0.055163953 0.048188467 0.10361008
0003a0 23 a1 4e be 34 3f e1 3d 6b 2f b2 bd 70 ec e0 bd
       -0.20178656 0.10998383 -0.087004505 -0.10982597
0003b0 0b 8c 02 3d 2c 75 2d 3e 25 6f 9d 3d 05 ac 24 3e
       0.031871837 0.16939229 0.07687215 0.16081245
0003c0 e4 fa 9e ba e4 bf b8 3b 54 8a 1f be b1 6b 08 be
       -0.0012129215 0.0056381095 -0.15580112 -0.13322331
0003d0 fd b0 38 be 42 dc e2 bd 23 87 44 bd e3 20 ea bd
       -0.18036266 -0.11077167 -0.04798044 -0.11432054
0003e0 d7 93 1b be d9 0b 4f be d5 96 11 bd 53 ce 30 be
       -0.15193115 -0.20219363 -0.035544235 -0.17266206
0003f0 42 6c fa bd 93 78 60 3d b7 7a 0a 3e ed f0 30 be
       -0.1222768 0.05480249 0.13523374 -0.17279406

fc3.bias f4 [10]
000000 51 e1 37 bd 26 12 03 3e 68 0b ac 3b de e2 c3 3d
       -0.044892613 0.12799892 0.005250383 0.09564756
000010 7a 0a 9e bd 68 51 13 3d 37 29 c7 bd 2f ac 37 3d
       -0.07716842 0.035966307 -0.09724658 0.04484194
000020 6f 1d 87 bd b8 4c 8f 3d
       -0.06597411 0.06997055
