models/Cutout-10-2-L_inf-PGD-0.3-40 BasicNet.pt (torch, 180615 bytes, 10 tensors)

conv1.weight f4 [6, 1, 5, 5]
0	0x3a0c6a36	0.0005356403
1	0xb7b9c1ee	-2.2144024e-05
2	0xb981e4cd	-0.00024775267
3	0x37b55233	2.1615158e-05
4	0x397d5787	0.00024160567
5	0x39a7f238	0.0003203319
6	0xb8e6d333	-0.000110065936
7	0xb98b2a19	-0.0002654351
8	0xb9a94767	-0.0003228739
9	0x3a1cf4e3	0.00059874187
10	0x37a4a883	1.9628793e-05
11	0x38c96890	9.603903e-05
12	0x3998c5d0	0.0002913908
13	0x3a046eca	0.0005051909
14	0x3ad0ee91	0.0015940239
15	0x399cd353	0.00029912087
16	0x3a6569a0	0.0008751396
17	0x3a605da9	0.00085588783
18	0x3f839e44	1.0282674
19	0x3a707be2	0.00091737334
20	0x3a1e24db	0.00060327136
21	0x3ab102fb	0.0013504917
22	0x3a143cd4	0.0005654816
23	0x3b4eeb88	0.0031573493
24	0x3a233a0e	0.00062266074
25	0x38f46981	0.00011654478
26	0xb7f1174d	-2.8740289e-05
27	0x38c96de6	9.604897e-05
28	0x379e02f5	1.8836445e-05
29	0xb8bace65	-8.907615e-05
30	0x396630ca	0.00021952685
31	0x38f7aac6	0.00011809687
32	0x38c3261a	9.3054216e-05
33	0x38bec3e1	9.096391e-05
34	0xb83901e3	-4.4109194e-05
35	0x3986bc12	0.00025698595
36	0x393c6f7f	0.00017970613
37	0x39948a71	0.00028331907
38	0x38c45995	9.362694e-05
39	0x38258c72	3.9469865e-05
40	0x398cdbd5	0.00026866668
41	0x39206989	0.00015298104
42	0x39615533	0.00021489411
43	0x3999fd05	0.00029370948
44	0x394397db	0.0001865322
45	0x398d21b8	0.00026918738
46	0x390e69fe	0.0001358166
47	0x3924f7b8	0.00015732541
48	0x399fbbae	0.00030466676
49	0x3983a8eb	0.0002511212
50	0xb951ecb3	-0.0002001997
51	0x395f1407	0.00021274398
52	0xb8f03a83	-0.000114549905
53	0xb930283e	-0.0001679966
54	0xb86b89ad	-5.6156587e-05
55	0x39fd5207	0.00048317036
56	0x397a9c56	0.00023900098
57	0xb69dda47	-4.7043754e-06
58	0xb898f6de	-7.2939074e-05
59	0xb9297078	-0.00016158994
60	0x39bc2f65	0.00035893466
61	0xb946c121	-0.00018954698
62	0xb96650f5	-0.00021964668
63	0x38d408c6	0.00010110582
64	0xb9bd452c	-0.00036100426
65	0xb9acd9ae	-0.0003296858
66	0xb9ff473b	-0.0004869046
67	0xb9bc0f9c	-0.00035869784
68	0x3a065cb3	0.00051255076
69	0x3f4820b1	0.78174883
70	0xb918215b	-0.00014508275
71	0xba331879	-0.0006831955
72	0xb9194acb	-0.0001461908
73	0xba07593d	-0.0005163139
74	0xba3bb6b1	-0.0007160707
75	0x38fa0ae3	0.00011922957
76	0xb808e3d2	-3.26371e-05
77	0x3910f232	0.00013823135
78	0x390a12a0	0.00013167644
79	0xba5ea877	-0.0008493731
80	0xb82276d3	-3.8734473e-05
81	0xb9f55b5f	-0.00046798118
82	0xb9189541	-0.00014551451
83	0xb8cb3358	-9.689358e-05
84	0xba7e1b65	-0.0009693413
85	0xb8003797	-3.056935e-05
86	0xb9c8ddfe	-0.0003831237
87	0xba7c1d6a	-0.000961742
88	0xbaaa057a	-0.0012971603
89	0xba8033a4	-0.0009781015
90	0x388364dc	6.265353e-05
91	0x3a32a7a3	0.0006815141
92	0xba875679	-0.0010325453
93	0xbac3ebc0	-0.0014947578
94	0xb76eb1b5	-1.4227281e-05
95	0x399d77a2	0.00030034507
96	0x3a571a5e	0.0008205528
97	0x3f34658b	0.7046744
98	0xb9a3b8eb	-0.00031227557
99	0x358ac49f	1.0339025e-06
100	0x38ca6da2	9.652531e-05
101	0x38afe8f5	8.388042e-05
102	0xb9346aaa	-0.00017205873
103	0xb9ae7f28	-0.00033282605
104	0xba7274fe	-0.00092490006
105	0xb92e0039	-0.00016594016
106	0xba5e34ac	-0.00084764767
107	0x3a584596	0.0008250115
108	0x3a7b3771	0.00095831516
109	0xba377049	-0.0006997628
110	0x39ac1279	0.0003282016
111	0xba391f95	-0.0007061896
112	0x3efe4074	0.4965855
113	0xb9742563	-0.00023283581
114	0xbaa2bcdc	-0.0012415904
115	0x3a41893d	0.0007382816
116	0x3a8ca4f4	0.0010730312
117	0x3b2b1d4d	0.0026109994
118	0xba626b9d	-0.00086372514
119	0xb9d6d713	-0.00040977504
120	0x3ab88eab	0.0014080604
121	0x3ab48672	0.0013772978
122	0x3a4fb3b4	0.0007923201
123	0xb7a11458	-1.9202169e-05
124	0x3a47ea02	0.00076261174
125	0xb9bdd1b9	-0.00036205145
126	0x3895c0e8	7.140805e-05
127	0xba61262d	-0.00085887575
128	0xba545c89	-0.0008100947
129	0xb7e0de05	-2.6806267e-05
130	0x38298c69	4.0423507e-05
131	0x3907aeeb	0.00012939765
132	0xb9f8c907	-0.00047452023
133	0x398e216b	0.0002710925
134	0xb9787b87	-0.0002369714
135	0xba51f298	-0.00080088666
136	0x3f4f0d7f	0.8087997
137	0xb9ddb083	-0.00042283916
138	0x3970db67	0.00022969917
139	0xb9db1a15	-0.00041790368
140	0xba1631e1	-0.00057294784
141	0x3a080a80	0.0005189553
142	0x398a278c	0.00026350876
143	0xb8529358	-5.0205126e-05
144	0xb9b25c6d	-0.00034019668
145	0x36206515	2.3900695e-06
146	0x398a9343	0.0002643113
147	0x38c22cd3	9.25899e-05
148	0x393ca5db	0.00017990863
149	0x3969ea98	0.00022308005

conv1.bias f4 [6]
0	0xbe9e8f91	-0.30968907
1	0x3eee9975	0.46601453
2	0xbe6a5ed7	-0.22887741
3	0xbe5ad72d	-0.21371146
4	0xbe1bd377	-0.15217386
5	0xbe70d7fb	-0.2351989

conv2.weight f4 [16, 6, 5, 5]
0	0xba845794	-0.0010096901
1	0xbdf0adf4	-0.11751929
2	0xbd7ecac0	-0.062205076
3	0xbb210330	-0.002456855
4	0x3cdd1b88	0.026990667
5	0xbc764e01	-0.015033246
6	0x3ccc067b	0.024905434
7	0x3d0897b9	0.03334782
8	0xbd7fa897	-0.06241664
9	0xbc4a2bd1	-0.012339548
10	0xbde0e13f	-0.10980462
11	0xbd074372	-0.033023305
12	0xbc686d48	-0.014186211
13	0x3d495edc	0.04916273
14	0xbda4f55b	-0.0805461
15	0x3d9e1d14	0.0772039
16	0xbd2e4a32	-0.042551227
17	0xbc4bff1d	-0.01245096
18	0x3d2d583d	0.04232048
19	0x3d17bc9c	0.037045106
20	0xbd92746d	-0.07151113
21	0xbcbfcf97	-0.023414416
22	0xbd8c7a03	-0.068592094
23	0xbdb4e0f9	-0.08831973
24	0x3c80bf93	0.01571635
25	0xbd2b8a75	-0.04188009
26	0xbddb940b	-0.10721596
27	0xbd058643	-0.032598745
28	0xbceb967d	-0.028758282
29	0xbd87b741	-0.0662675
30	0xbd9208a5	-0.07130555
31	0xbd8020c1	-0.06256247
32	0xbd9e7b2e	-0.077383384
33	0xbca2c7d2	-0.019870672
34	0x3a23f091	0.0006253804
35	0x3b9b5a04	0.0047409553
36	0xbca97c72	-0.020689223
37	0xbd470f06	-0.04859831
38	0xbd9a7c15	-0.07543198
39	0x3d555c3a	0.052089907
40	0xbcf91a32	-0.030407999
41	0xbd916517	-0.070993595
42	0xbcb31661	-0.021861257
43	0x3d612219	0.05496416
44	0xbc55a397	-0.013039491
45	0xbdba12c5	-0.09085611
46	0xbd9ca6bb	-0.07648989
47	0xbcc495e3	-0.023997253
48	0xbd83d7ea	-0.06437667
49	0xbda4c30e	-0.08045016
50	0xbd2116d5	-0.039328415
51	0xbbfb26de	-0.0076645454
52	0xbd789b16	-0.060694776
53	0xbd85329b	-0.06503793
54	0xbcd71ece	-0.026259806
55	0x3c5b9697	0.013402603
56	0xbca4234c	-0.020036362
57	0xbd329e78	-0.04360816
58	0xbd39f42c	-0.045398876
59	0xbdbf64b9	-0.09345383
60	0x3cc27937	0.02373944
61	0xbd4d1450	-0.0500682
62	0x3d66722b	0.056261223
63	0x3bed625a	0.0072443904
64	0xbd339906	-0.043847106
65	0xbd110d46	-0.03541305
66	0xbd25fb67	-0.04052296
67	0xbda2815c	-0.079348296
68	0xbca8d3a6	-0.020608734
69	0xbd219f66	-0.039458655
70	0x3d344089	0.044006858
71	0x3ca034f7	0.019556506
72	0xbd004817	-0.03131875
73	0xbd820b2e	-0.063497886
74	0xbdc7792a	-0.09739907
75	0xbdad3e8f	-0.08459198
76	0xbcd23d21	-0.025663914
77	0xbdf04f64	-0.117338926
78	0xbd57b470	-0.052662313
79	0x3d804e7d	0.062649705
80	0x3c31b412	0.010846155
81	0xbdaf7464	-0.085671216
82	0x3c44c493	0.012009758
83	0x3d0a160e	0.03371244
84	0xbd41d5ca	-0.047323026
85	0xbdb22fef	-0.08700549
86	0xbd097888	-0.033562213
87	0x3c3b72b6	0.011440923
88	0xbce55338	-0.027993783
89	0x3d43c360	0.047793746
90	0xbd74ed16	-0.059796415
91	0x3ca593d0	0.020212084
92	0xbdc1375e	-0.094343886
93	0x3ca1619d	0.019699866
94	0xbc7b14e4	-0.015324805
95	0xbd0c3979	-0.034234498
96	0xbc68b7d7	-0.014203987
97	0xbd16fc5c	-0.036861762
98	0xbda0949e	-0.078408465
99	0x3d27264c	0.040808007
100	0xbc278ef7	-0.010226957
101	0xbbb78614	-0.0056007
102	0x3d55dcff	0.05221271
103	0xbc8064c4	-0.015673049
104	0x3d59aefe	0.0531454
105	0xbcd9f73d	-0.02660715
106	0x3d00f6f7	0.031485524
107	0xbcf9c380	-0.03048873
108	0xbdb2e43d	-0.08734939
109	0x3d5a4387	0.053287055
110	0x3d586020	0.052826047
111	0xbd93b5e9	-0.07212431
112	0xbd09e893	-0.033669066
113	0xbbabaf13	-0.0052393763
114	0x3d3bbf57	0.045836773
115	0xbd8386ec	-0.06422219
116	0xbd8d12e3	-0.06888368
117	0x3d821e83	0.06353476
118	0x3c317308	0.010830648
119	0xbd674aa3	-0.056467663
120	0xbd6f5c70	-0.058437765
121	0xbd11ba88	-0.03557828
122	0x3956c695	0.00020482608
123	0xbcf3d80d	-0.029766107
124	0xbdd8480d	-0.105606176
125	0xbd9eb2aa	-0.07748921
126	0xbd50f071	-0.051010553
127	0xbd3aeec5	-0.045637865
128	0x3d87818d	0.06616507
129	0xbd13a5bc	-0.03604673
130	0xbd6598bb	-0.05605386
131	0x3d49ff4a	0.04931573
132	0x3c804e7c	0.015662424
133	0xbd225203	-0.039628994
134	0xbdc4e95a	-0.09614821
135	0x3d1587a2	0.036506303
136	0xbd28b68a	-0.041189708
137	0xbda54b86	-0.080710456
138	0xbaa10b0d	-0.0012286619
139	0xbdba8206	-0.09106831
140	0x3c2c735b	0.01052555
141	0xbd45a03b	-0.04824851
142	0x3b4185db	0.0029529247
143	0xbd96b3a9	-0.07358486
144	0x3cc5d613	0.02414993
145	0xbd8968f7	-0.067094736
146	0xbd89c94e	-0.06727849
147	0x3c9dfddb	0.019286087
148	0xbb4c4bc1	-0.0031173083
149	0xbd3f074f	-0.04663783
150	0x3d5e8d3f	0.05433392
151	0x3cd4f21c	0.025994353
152	0x3c72ab38	0.01481133
153	0xbf2ff560	-0.6873379
154	0x3d89366a	0.06699832
155	0x3dd247d8	0.10267609
156	0x3dbbfdc8	0.09179264
157	0xbe397e60	-0.18114614
158	0xbda20d0d	-0.079126455
159	0x3de1bf90	0.11022866
160	0x3dd7ca5b	0.10536643
161	0x3d48429f	0.04889166
162	0xbf4b1a0f	-0.7933664
163	0x3dcd1aa3	0.10014846
164	0x3db811ab	0.08987745
165	0x3d8fc9c4	0.070209056
166	0xbe3dd522	-0.18538335
167	0xbc25095f	-0.010073035
168	0x3d3f4610	0.046697676
169	0x3d532757	0.05155119
170	0x3c615cb9	0.013755017
171	0x3c85bf37	0.01632653
172	0x3d0b57be	0.034019224
173	0x3cb0aa2b	0.021565517
174	0x3c26e1da	0.010185683
175	0x3d5dd847	0.054161336
176	0x3d6b6470	0.05746883
177	0x3d650f0b	0.05592255
178	0x3d07d10a	0.03315834
179	0x3c8113f5	0.015756587
180	0x39c674dd	0.00037852573
181	0x3df5ad4f	0.119959466
182	0x3db4f2c6	0.08835368
183	0x3ce1fec6	0.027587306
184	0x3c0754f7	0.008260003
185	0x3d334982	0.043771274
186	0x3e0e3b09	0.13889708
187	0xba75c26d	-0.000937498
188	0xbbda45aa	-0.0066611366
189	0x3c204ece	0.0097844135
190	0x3e073d0c	0.13206881
191	0x3d8e9a76	0.06963055
192	0x3c5d265e	0.013497917
193	0xbbccc37f	-0.006248891
194	0x3c327927	0.010893143
195	0x3d8f1da3	0.06988075
196	0x3cc06d58	0.02348964
197	0x3b8b534a	0.004251872
198	0x3c2633be	0.010144172
199	0x3c87fe4a	0.016600747
200	0x3d4d56f7	0.050131764
201	0xba9b25d9	-0.0011836841
202	0xbdccd7ea	-0.1000212
203	0xbe7a3550	-0.244344
204	0x3d87691a	0.066118434
205	0x3d8d8def	0.06911837
206	0x3ccde19e	0.025131997
207	0xbf714bec	-0.9425647
208	0x3dbb1aae	0.09135948
209	0x3dc7ef3a	0.09762426
210	0x3d6f65f3	0.058446836
211	0xbec50dd5	-0.38487116
212	0xbd10972d	-0.035300422
213	0x3d919213	0.071079396
214	0x3db5a630	0.088695884
215	0xbd01921b	-0.031633478
216	0xbe73fafd	-0.23826213
217	0x3d8c6bb8	0.06856483
218	0x3cfc0b34	0.03076706
219	0x3c9540be	0.018219348
220	0x3a98282a	0.001160865
221	0x3cfb6b6c	0.030690871
222	0x3c9fcc0a	0.019506473
223	0xbb820968	-0.0039684065
224	0x3ca10899	0.01965742
225	0x3d5b5548	0.053548127
226	0x3d1a528d	0.037676383
227	0x3d4deb13	0.050273012
228	0xbf4c3a8e	-0.7977685
229	0x3cae8486	0.021303426
230	0x3dbf5ce4	0.09343889
231	0x3da34f75	0.079741396
232	0xbd8b4fc9	-0.06802327
233	0xbebd2f88	-0.36950326
234	0x3dee0147	0.116213374
235	0x3d810846	0.06300406
236	0x3d8ed224	0.06973675
237	0xbf0aa55b	-0.5415856
238	0x3dca7081	0.0988474
239	0x3d89e69a	0.06733437
240	0x3ce3b01d	0.027793938
241	0xbc6ca3ca	-0.014443347
242	0x3c9097f1	0.017650576
243	0x3d866b67	0.06563454
244	0x3d07a9d4	0.033120945
245	0x3c8452f8	0.016152844
246	0x3d12c457	0.035831776
247	0x3da39f0b	0.079893194
248	0x3d9c9a7c	0.07646653
249	0x3ca97b1c	0.020688586
250	0x3d5cd575	0.053914506
251	0x3ddeaebe	0.10873173
252	0x3d0f9af8	0.0350599
253	0xbd9d4ef3	-0.07681074
254	0xbed2c195	-0.41163316
255	0x3d826eb3	0.063687705

conv2.bias f4 [16]
0	0xbd934f74	-0.07192889
1	0x3dcbaaa1	0.09944654
2	0x3e5781c2	0.21045592
3	0xbdcb75be	-0.09934567
4	0xbdc91fd9	-0.098205276
5	0x3e2f06f1	0.17092492
6	0x3e9c92ff	0.305809
7	0x3dbd5510	0.0924474
8	0xbce0ca90	-0.02744034
9	0x3e19d114	0.15021163
10	0x3e064b1c	0.1311459
11	0x3b4e68bf	0.003149554
12	0x3ea03455	0.31289926
13	0xbda549a3	-0.08070686
14	0x3e5b01d7	0.2138742
15	0xbd417b83	-0.04723693

fc1.weight f4 [120, 256]
0	0x3d1cb939	0.03826258
1	0x3d1456b0	0.036215484
2	0xbca812c5	-0.020516763
3	0x3cd0b9bc	0.02547919
4	0x3d0b988e	0.034081034
5	0x3d076b86	0.033061527
6	0xbb71c0e3	-0.003688865
7	0x3d5d2213	0.053987574
8	0x3a8cb049	0.0010733689
9	0x3c543875	0.0129529135
10	0x3cde9799	0.027171897
11	0x3d3d04cb	0.04614715
12	0x3ceb4ee5	0.028724143
13	0x3cc70951	0.024296435
14	0xbd0a084f	-0.03369933
15	0x3cd6f184	0.02623821
16	0x3d59f7df	0.053214904
17	0x3e32d510	0.1746409
18	0xbc2ad835	-0.010427524
19	0xbcf4f0ca	-0.029899973
20	0xbc72b47d	-0.01481354
21	0x3c85d165	0.016335199
22	0xbcf901b3	-0.030396318
23	0xbd08cda6	-0.033399247
24	0xbe69fada	-0.22849599
25	0xbd52a500	-0.051426888
26	0xbd6fa4be	-0.05850672
27	0x3d81726d	0.06320653
28	0xbdc5ee1d	-0.09664557
29	0xbc0bf918	-0.008543275
30	0x3de0b007	0.109710746
31	0x3e0db0c8	0.13836968
32	0x3d56c322	0.052432187
33	0x3d33eb64	0.043925658
34	0x3dbe70a1	0.09298826
35	0xbe085f0c	-0.13317508
36	0x3e0d7267	0.13813172
37	0xbe213206	-0.15741739
38	0x3cc71c82	0.024305586
39	0x3ddff71d	0.10935805
40	0xbe40f83d	-0.18844695
41	0x3b977840	0.004622489
42	0x3d775900	0.06038761
43	0x3d9f9588	0.07792193
44	0x3dd75492	0.105141774
45	0x3d6d045e	0.057865493
46	0xbd890274	-0.06689921
47	0x3e7fe3ef	0.24989294
48	0x3d415436	0.04719945
49	0x3d8030ab	0.06259283
50	0x3d2f8570	0.042851865
51	0xbd2bc5f2	-0.041936822
52	0xbbdaf996	-0.006682585
53	0xbd12d199	-0.03584442
54	0xbb7234ed	-0.0036957816
55	0x3d233f05	0.039855022
56	0xbd00a58f	-0.03140789
57	0xbd85d505	-0.06534771
58	0xbd46cbcb	-0.048534196
59	0xbb65a99d	-0.0035043724
60	0xbd0d1dce	-0.034452252
61	0xbd437e70	-0.047728002
62	0x3d278a9d	0.040903676
63	0x3c29b246	0.010357445
64	0xbd91e2aa	-0.07123311
65	0xbb7c7656	-0.0038522682
66	0x3d6c3912	0.057671614
67	0x3dbae9a9	0.091265984
68	0xbd2dd4be	-0.042439215
69	0x3d57d08f	0.05268913
70	0xbc25e0a2	-0.010124357
71	0x3d1e7652	0.038687058
72	0xbd89c6b1	-0.067273505
73	0xbce293ee	-0.027658429
74	0xbbcfa284	-0.006336512
75	0xbd3f4578	-0.04669711
76	0xbc0d800f	-0.008636489
77	0xbc633af0	-0.013869032
78	0x3d306895	0.043068487
79	0xbc9985e6	-0.018740606
80	0x3d340bc5	0.043956537
81	0x3c52f63d	0.012876091
82	0xbd436d1a	-0.04771147
83	0xbe98e8ef	-0.29865214
84	0x3d0b9e44	0.03408648
85	0xbd8f4528	-0.069956124
86	0x3db3c5be	0.08777951
87	0x3dc25715	0.09489266
88	0xbaf939e5	-0.0019014446
89	0xbdc462a2	-0.09589125
90	0x3d5ab122	0.053391583
91	0x3d891599	0.066935726
92	0x3e49dcbe	0.19713113
93	0x3db29c2c	0.08721194
94	0x3d39295b	0.045205455
95	0x3d8424ac	0.06452307
96	0xbd3b9f16	-0.045806013
97	0xbdce9e99	-0.10088844
98	0xbda92cd9	-0.08260507
99	0x3cf99dd1	0.03047076
100	0x3e1bf9ba	0.15231982
101	0x3cc12443	0.023576861
102	0x3dac6d6a	0.084193066
103	0x3da58361	0.08081699
104	0xbe2b3058	-0.1671766
105	0x3ddb247b	0.107003175
106	0x3db3bb13	0.08775916
107	0x3e1c5f0d	0.15270634
108	0xbdb69f40	-0.08917093
109	0xbc44211d	-0.011970785
110	0x3d26d267	0.040728
111	0x3e83cf07	0.25743887
112	0x3d243256	0.040087067
113	0x3b71911b	0.0036860171
114	0xbc66c4a9	-0.014084973
115	0x3e3c2787	0.18374453
116	0xbd42d02a	-0.047561802
117	0xbc0db124	-0.008648191
118	0x3d580b20	0.052744985
119	0x3d85d65e	0.06535028
120	0x3dea6438	0.114448965
121	0x3d6dbc55	0.058040936
122	0xbdb25ddc	-0.087093085
123	0xbce5f0f8	-0.028069004
124	0x3d96b22c	0.07358202
125	0xba6d10a6	-0.00090433133
126	0xbca59c13	-0.020216024
127	0x3cd78ab7	0.026311262
128	0xbcdf4036	-0.027252298
129	0xbda6bbaf	-0.081412666
130	0x3b85dee7	0.00408541
131	0x3d999918	0.074999034
132	0x3e14b041	0.1452036
133	0x3dd5fda3	0.10448768
134	0xbd2e5dcb	-0.042569917
135	0xbe072968	-0.13199389
136	0xbcb4c77f	-0.022067783
137	0xbe186a5a	-0.1488432
138	0x3a0fdd23	0.0005487969
139	0xbda64d3e	-0.081202015
140	0xbdae7135	-0.08517686
141	0x3d5277bc	0.05138372
142	0x3db87db1	0.09008349
143	0xbd925445	-0.071449794
144	0xbdc35d77	-0.095393114
145	0x3d29cf2c	0.04145734
146	0x3dbbb08d	0.09164534
147	0x3deefc19	0.116691776
148	0xbc9244da	-0.017855097
149	0x3b5e9d01	0.0033968093
150	0xbdbb777f	-0.091536514
151	0x3d70f2a4	0.05882515
152	0xbca8fb2c	-0.02062758
153	0xbe15d8c3	-0.1463347
154	0x3dab1eef	0.083555095
155	0x3d99bb8e	0.07506476
156	0xbe866664	-0.26249993
157	0xbdfabefa	-0.12243457
158	0x3a923075	0.0011153357
159	0xbe9c5ab8	-0.30537963
160	0xbdeb206e	-0.11480795
161	0xbd854443	-0.065071605
162	0xbe05e4b6	-0.13075528
163	0x3c8cf71e	0.017207678
164	0xbe338f4b	-0.1753513
165	0xbd1e67f6	-0.038673364
166	0xbd8baa11	-0.06819547
167	0xbdc520bb	-0.096253835
168	0x3d484d56	0.04890188
169	0xbd2345d6	-0.039861523
170	0x3d628017	0.055297937
171	0x3dae853d	0.08521507
172	0x3cad1e58	0.021132633
173	0xbc33fcfd	-0.01098561
174	0x3da793df	0.08182501
175	0x3ca942f8	0.020661816
176	0x3b65c3cb	0.0035059329
177	0x3d3f408c	0.046692416
178	0xbd032d9c	-0.03202592
179	0x3e2ed140	0.1707201
180	0xbe232f5e	-0.15936038
181	0x3c29642d	0.010338825
182	0x3de99dff	0.114070885
183	0x3eb24118	0.34815288
184	0x3d36dcb4	0.044644073
185	0x3daed89a	0.08537407
186	0xbd9dd40a	-0.07706459
187	0xbe34e56b	-0.17665641
188	0xbd141d97	-0.03616103
189	0xbd273711	-0.040824
190	0x3d82e082	0.06390478
191	0xbd80e0c0	-0.06292868
192	0x3d0689de	0.032846324
193	0x3e20f5f5	0.15718825
194	0x3cd2b585	0.02572132
195	0xbdf8b45e	-0.12143777
196	0x3cfdfb27	0.031003548
197	0x3d1b9c5c	0.037990913
198	0xbda9b46d	-0.082863666
199	0x3da7fae8	0.082021534
200	0xbe462d14	-0.19353133
201	0x3bc17f94	0.005905101
202	0xbdb08fe5	-0.08621196
203	0x3dd6c4e4	0.10486773
204	0xbd573e1b	-0.052549463
205	0x3c8b1d99	0.016981887
206	0x3dfe62b6	0.12421171
207	0x3e19d12d	0.150212
208	0xbcc2e2c1	-0.023789765
209	0x3d30bf4a	0.043151177
210	0xbd27cc58	-0.04096636
211	0xbd822793	-0.063552044
212	0xbc4aef70	-0.012386188
213	0xbd0c8939	-0.034310553
214	0x3c8f61c6	0.017502677
215	0x3ddfc1d8	0.10925645
216	0x3eeb1dc4	0.45921147
217	0x3d89e60e	0.067333326
218	0x3def3902	0.11680795
219	0xbd6810ab	-0.05665652
220	0x3e213d3a	0.15746012
221	0xbd55cce3	-0.05219735
222	0xbd68fc52	-0.056881256
223	0xbdac9f6a	-0.08428843
224	0x3d8a9c7c	0.06768128
225	0x3e86a42f	0.26297137
226	0xbbc77895	-0.0060873725
227	0xbec65aa7	-0.38741037
228	0x3e253194	0.16132194
229	0x3cdab762	0.026698772
230	0xbd4ab13f	-0.04948544
231	0xbc95046f	-0.01819059
232	0x3d7e37b4	0.06206484
233	0xbe7e976f	-0.24862455
234	0xbd459d92	-0.048245974
235	0x3dd92e18	0.10604495
236	0xbe12034c	-0.1425907
237	0xbdc83535	-0.097757734
238	0x3cfd657d	0.030932182
239	0x3e0e2627	0.13881741
240	0x3cac1410	0.02100566
241	0xbacba849	-0.0015537824
242	0xbd1d1718	-0.038352102
243	0xbe420244	-0.18946177
244	0x3dc61367	0.096716695
245	0x3da17a2b	0.0788463
246	0x3e0d4889	0.13797201
247	0x3ddb82ab	0.10718282
248	0xbd3eeed0	-0.046614468
249	0x3da44e20	0.08022714
250	0xbdd57710	-0.104231
251	0xbc44c2c3	-0.012009325
252	0x3d425807	0.04744723
253	0x3c9ea5fa	0.019366253
254	0xbda616c2	-0.081098095
255	0xbda77d90	-0.08178246

fc1.bias f4 [120]
0	0x3e413bd8	0.18870485
1	0x3de7edf7	0.11324685
2	0x3d14f3d4	0.036365345
3	0x3d81236d	0.06305585
4	0x3ce22e99	0.02761011
5	0x3bbcc499	0.005760741
6	0x3c98d9dd	0.018658573
7	0x3cbb645c	0.022875004
8	0xbaf093b2	-0.0018354564
9	0x3c39a11b	0.011329914
10	0x3dca5d9f	0.09881138
11	0x3ddb1353	0.10697045
12	0x3da5be50	0.0809294
13	0xbdd0e174	-0.10199252
14	0xbd5deee9	-0.05418292
15	0xbd6b084a	-0.057380952
16	0x3e2534fe	0.16133496
17	0x3d30d2a1	0.04316962
18	0x3c66c0e3	0.014084074
19	0x3c45df6c	0.012077194
20	0x3aea4a04	0.0017874842
21	0xbc6044b3	-0.013688254
22	0x3e59824d	0.21241112
23	0xbd93f836	-0.07225077
24	0x3d20e814	0.039283827
25	0xbcd43502	-0.025904182
26	0xbd19ac79	-0.037518
27	0xbcb3f9d7	-0.021969719
28	0xbd2be0d0	-0.041962445
29	0x3dde52e0	0.10855651
30	0xbe16eb2f	-0.14738153
31	0xbc5038d4	-0.012708861
32	0xbac5b1c5	-0.0015082887
33	0x38c2b509	9.284361e-05
34	0x3db44689	0.08802516
35	0x3d0bba03	0.03411294
36	0xbd98ced2	-0.07461323
37	0xba451fd9	-0.0007519699
38	0xbd33c32f	-0.043887313
39	0x3e3e388a	0.18576255
40	0x3d3378f0	0.043816507
41	0x3dd77e1e	0.10522102
42	0x3d0d9d44	0.03457381
43	0xbcf347bf	-0.029697297
44	0xbca49931	-0.020092579
45	0x3d7123cf	0.05887204
46	0xbddec358	-0.108771026
47	0xbd839e4c	-0.06426677
48	0x3df02d68	0.117274106
49	0xbd5c6a5b	-0.053812366
50	0xbda75cee	-0.08172022
51	0xbd3d5d83	-0.046231758
52	0xbcca1f7b	-0.024673214
53	0xbd3595cc	-0.04433231
54	0x3d87e7a7	0.06635981
55	0xbd60a7cc	-0.054847524
56	0xbd716ae6	-0.058939837
57	0x3d938953	0.07203927
58	0x3daa0e64	0.08303526
59	0x3c147f5c	0.009063568
60	0xbcb2ccec	-0.02182623
61	0x3c845b9e	0.016156968
62	0xbd5d3fa6	-0.054015778
63	0xbcb1228c	-0.021622919
64	0xbd6efb30	-0.05834502
65	0xbdcfa8b7	-0.10139602
66	0xbc8c2244	-0.017106183
67	0x3e518907	0.20462428
68	0xbbbc8325	-0.0057529383
69	0x3c4ec957	0.012621245
70	0xbd00d4e5	-0.031453032
71	0x3ddb1fa1	0.10699392
72	0xbc4dc50d	-0.012559188
73	0xbd950588	-0.072764456
74	0xbd2885eb	-0.04114334
75	0xbd906e8f	-0.070523374
76	0x3df2f199	0.11862487
77	0xbd607363	-0.05479754
78	0xbd9e2ef2	-0.07723798
79	0x3d6219c0	0.05520034
80	0x3cbb427e	0.022858854
81	0x3c5b88f3	0.01339935
82	0x3db7973d	0.08964393
83	0xbd33fb70	-0.04394096
84	0x3e1c4525	0.15260752
85	0xbc3d4528	-0.011552133
86	0x3d014c7b	0.031567078
87	0xbdba2b95	-0.09090344
88	0x3b249f76	0.002511946
89	0x3e17b25b	0.14814131
90	0x3c8fae4d	0.017539168
91	0xbd4c1cc6	-0.049832128
92	0x3e09f5d6	0.13472685
93	0x3cd9baa7	0.02657826
94	0xbc59d7cc	-0.013296079
95	0xbb9fbd27	-0.0048748436
96	0x3d2d315c	0.0422834
97	0xbd8247b7	-0.06361335
98	0xbcf664a6	-0.03007729
99	0xbd819723	-0.06327655
100	0x3e78d5e4	0.24300343
101	0xbdc96762	-0.09834172
102	0x3c90fc00	0.017698288
103	0x3ac8fc7a	0.0015334033
104	0x3de11e94	0.109921604
105	0x3d67670f	0.05649477
106	0x3de7ce59	0.113186546
107	0x3c9acd99	0.018896865
108	0x3e03642d	0.12831183
109	0x3d277c55	0.040890057
110	0xbd54dae5	-0.051966567
111	0x3cdf647f	0.0272696
112	0x3cc4f04b	0.024040362
113	0x3d1dc39d	0.03851663
114	0xb8e184b2	-0.000107535525
115	0xbcee2b4e	-0.029073384
116	0xbd494998	-0.04914245
117	0x3d23dc7f	0.040005203
118	0xbc632932	-0.013864802
119	0xbc8bfed6	-0.017089289

fc2.weight f4 [84, 120]
0	0xbd4b18d9	-0.049584243
1	0xbca9b7f9	-0.020717608
2	0x3d8f6e20	0.070034266
3	0x3cde793c	0.027157418
4	0x3ba5d1ae	0.005060396
5	0x3d0388e1	0.03211296
6	0x3cb3030f	0.021852044
7	0xbd23c5e7	-0.039983656
8	0x3d040581	0.03223181
9	0x3da96837	0.082718305
10	0x3d97fa72	0.074208155
11	0xbd5b3a95	-0.053522665
12	0xbc8b800d	-0.017028833
13	0x3c898c05	0.0167904
14	0x3ce21701	0.02759886
15	0xbd810ae9	-0.06300909
16	0xbde574c0	-0.11203909
17	0xbdf640c5	-0.120240726
18	0x3d3677c2	0.044547804
19	0x3d37edb2	0.04490442
20	0xbd34b4bd	-0.044117678
21	0xbc38d120	-0.011280328
22	0xbd473d1b	-0.04864226
23	0x3d802118	0.06256312
24	0xbd676a1e	-0.056497686
25	0x3d1d3ba7	0.038386967
26	0x3ba387fc	0.004990576
27	0x3d9b0db2	0.075709715
28	0x3db672fd	0.08908651
29	0xbdc63cd3	-0.0967957
30	0x3d9f78de	0.077867255
31	0x3d4d4e02	0.050123222
32	0xbdaf65dd	-0.08564351
33	0x3ba1e2b3	0.0049403547
34	0x3d022332	0.031771846
35	0x3d0ad996	0.033898912
36	0xbd7a888a	-0.06116537
37	0xbdbf8f0f	-0.09353458
38	0x3dab5c55	0.0836722
39	0xba5b7ec0	-0.0008373074
40	0x3d822ea8	0.06356555
41	0xbe018f44	-0.12652308
42	0xbdbd520a	-0.09244163
43	0x3daa022d	0.08301196
44	0x3cbe66fe	0.02324247
45	0xbdb50c4b	-0.08840235
46	0xbdbcbaf2	-0.092153445
47	0xbda69fdc	-0.081359595
48	0xbb50f922	-0.0031886776
49	0x3d2ce556	0.0422109
50	0xbd12de49	-0.03585652
51	0x3d5d4744	0.054023042
52	0xbd54e152	-0.051972695
53	0xbdb371e7	-0.087619595
54	0x3cc29697	0.023753447
55	0xbda254b3	-0.07926311
56	0x3c734e09	0.014850148
57	0xbdb1b5d5	-0.0867726
58	0x3ca9f6d5	0.020747581
59	0xbda29fab	-0.079406105
60	0x3c8e69c8	0.017384425
61	0xbda034c1	-0.07822562
62	0x3d98919d	0.074496485
63	0xbda04fda	-0.078277305
64	0x3ce6e626	0.028185915
65	0x3c912877	0.01771949
66	0xbdcafeb3	-0.09911861
67	0xbceda24c	-0.029008053
68	0x3b33ccff	0.002743542
69	0xbc99b1fa	-0.018761624
70	0x3d5a4fc8	0.05329874
71	0xbd924ec9	-0.07143933
72	0xbdca0452	-0.09864105
73	0x3d5f7a9a	0.05456028
74	0xbd951d4b	-0.07280978
75	0xbc95436e	-0.01822063
76	0xbd3391d3	-0.04384024
77	0xbcb9b6fb	-0.02267026
78	0xbd9b1743	-0.07572796
79	0xbca5b606	-0.020228397
80	0xbc85dc4d	-0.0163404
81	0xbd8918b0	-0.06694162
82	0x3c11ea8b	0.008906017
83	0xbd57d9a1	-0.05269778
84	0x3ca162f2	0.019700501
85	0xbd61f223	-0.05516256
86	0xbd0b6f86	-0.034041904
87	0xbdb2c8d7	-0.087297134
88	0x3d137023	0.035995614
89	0xbdc51d0b	-0.0962468
90	0xbdb226b5	-0.08698789
91	0xbd602c0b	-0.054729503
92	0x3c7d9532	0.0154774655
93	0xbd6bc66c	-0.057562277
94	0x3dca42cb	0.09876021
95	0x3d843766	0.06455879
96	0x3d9920dd	0.07476971
97	0x3d3b915d	0.045792926
98	0x3bfad28e	0.0076544946
99	0xbd387d1b	-0.045041185
100	0xbdae744e	-0.08518277
101	0xbdb9727d	-0.0905504
102	0x3d0a555e	0.03377282
103	0x3d327795	0.043571074
104	0xbd990f44	-0.07473615
105	0x3c9024d5	0.017595688
106	0xbdaf3506	-0.08555035
107	0x3d9b9bd6	0.07598083
108	0x3cf86dee	0.030325856
109	0xbde75053	-0.112946175
110	0xbd6ae3d0	-0.057346165
111	0xbb090cb1	-0.0020912106
112	0x3b0c52c1	0.002141163
113	0xbc06cd35	-0.008227636
114	0xbd6d8e46	-0.05799701
115	0x3c10187c	0.0087949
116	0xbdc02769	-0.09382517
117	0xbd85fe0a	-0.06542595
118	0xbdb47db4	-0.088130385
119	0x3da8bbe0	0.08238959
120	0x3d805833	0.06266823
121	0xbd266c11	-0.040630404
122	0x3ca7ecfc	0.020498745
123	0x3cf31bb7	0.029676301
124	0x3d978151	0.07397712
125	0x3c8bf3d2	0.017084036
126	0x3a8ba11b	0.0010652872
127	0xbca1d88a	-0.019756574
128	0xbcebdd3b	-0.028792014
129	0x3cb5e13b	0.022202125
130	0x3db7713f	0.08957147
131	0xbca49d42	-0.020094518
132	0xbd5dda55	-0.054163296
133	0xbbe7551c	-0.0070597064
134	0xbc1fa3f5	-0.00974368
135	0x3d8f15b9	0.06986565
136	0xbd9b6814	-0.07588211
137	0x3dcf2243	0.10113957
138	0xbe6f30f0	-0.23358512
139	0xbcfcf0f2	-0.03087661
140	0x3d44cc2f	0.048046287
141	0x3d86b784	0.065779716
142	0xbbf68e79	-0.0075243083
143	0xbc92b122	-0.01790673
144	0x3d8c38d3	0.06846776
145	0xbd83cf1c	-0.06435987
146	0xbd93565f	-0.07194208
147	0x3c1b7915	0.009489317
148	0x3d290cad	0.041271854
149	0x3de410bc	0.11136004
150	0x3d047a4f	0.032343205
151	0x3d45c7f9	0.048286412
152	0x3d1495f8	0.036275834
153	0x3c633fe5	0.013870214
154	0xbd872443	-0.06598713
155	0x3c929675	0.01789401
156	0x3b571259	0.0032817333
157	0xbdb6ac90	-0.089196324
158	0xbe26fd65	-0.163076
159	0xbeccae58	-0.39976764
160	0x3baf08e8	0.005341638
161	0x3c83fd94	0.016112126
162	0x3c8fdce3	0.017561382
163	0x3c5278a7	0.012846149
164	0xbd26ecea	-0.040753283
165	0xbe26e66b	-0.16298835
166	0xbd9008a0	-0.07032895
167	0x3c5de572	0.013543474
168	0x3d5afcd7	0.053463783
169	0x3c69cccb	0.014270018
170	0x3d1fd22e	0.039018802
171	0x3db1c478	0.086800516
172	0xbbf767e6	-0.0075502275
173	0xbc348406	-0.011017805
174	0x3dff5a78	0.124684274
175	0xbe0e2781	-0.13882257
176	0xbd2c47c3	-0.042060625
177	0xbdc572b0	-0.096410155
178	0x3d725cdb	0.059170585
179	0xbda80c4d	-0.08205471
180	0x3d54e8d4	0.051979855
181	0xbce83d24	-0.028349467
182	0xbd9d96f0	-0.07694805
183	0x3d3e2016	0.04641732
184	0xbdb65b9e	-0.08904193
185	0xbcfbccc5	-0.03073729
186	0xbc9760e0	-0.01847881
187	0x3ccc5553	0.02494303
188	0xbd27ba84	-0.04094936
189	0x3d8fea14	0.07027069
190	0x3c57f59c	0.013181116
191	0x3db89f45	0.09014753
192	0x3e19e2ec	0.1502797
193	0x3d155dc1	0.036466364
194	0xbdb141b9	-0.08655114
195	0xbc9cc27d	-0.019135708
196	0xbcbe8f11	-0.023261579
197	0x3a4c93c5	0.0007804002
198	0xbdabf248	-0.08395821
199	0xbe36d776	-0.1785563
200	0xbd023578	-0.031789273
201	0x3cf24bd5	0.029577175
202	0x3dac7021	0.084198244
203	0xbdac09b2	-0.08400287
204	0x3e0350db	0.12823813
205	0x3d3ba529	0.045811806
206	0x3d64c351	0.05585033
207	0xbdde4f9f	-0.1085503
208	0x3db7d10d	0.0897542
209	0xbcbdf7fe	-0.023189541
210	0xbe641407	-0.22273265
211	0x3d9baeb6	0.07601683
212	0xbc53d154	-0.012928326
213	0xbdb1a925	-0.0867484
214	0xbe4f43fd	-0.20240779
215	0xbe8a2964	-0.26984704
216	0xbd928b1a	-0.07155438
217	0xb9b6c045	-0.00034856997
218	0xbdb71084	-0.08938697
219	0x3db3c1b1	0.08777178
220	0x3d89445f	0.06702494
221	0x3e2d8144	0.16943842
222	0xbdced6f3	-0.10099592
223	0x3d8afc3f	0.067863934
224	0xbd90fdf1	-0.070796855
225	0x3cf5b681	0.029994251
226	0xbd9abd01	-0.07555581
227	0xbd7b8d79	-0.061414216
228	0xbe17ec36	-0.14836201
229	0xbdfda8f6	-0.12385742
230	0x3d7c6c9d	0.06162702
231	0xbda14981	-0.07875348
232	0x3d2bb016	0.041915976
233	0x3c0b437d	0.008499977
234	0x3c9585c6	0.018252265
235	0x3ca4d535	0.020121196
236	0x3daf4052	0.0855719
237	0xbd735c10	-0.05941397
238	0xbcab159b	-0.020884326
239	0xbcfccfde	-0.030860838
240	0x3c022c9d	0.007945207
241	0x3dca897c	0.09889504
242	0x3c4efc5f	0.012633412
243	0x3e299eb2	0.16564444
244	0xbd35ecdc	-0.04441534
245	0xbd07864d	-0.033087064
246	0x3d91194d	0.07084904
247	0xbda018a8	-0.07817203
248	0xbdb35d5f	-0.087580435
249	0x3d896a9e	0.06709789
250	0x3c114c3e	0.008868275
251	0xbe03421a	-0.12818184
252	0x3e0b354c	0.1359455
253	0xbd8f1377	-0.069861345
254	0xbd8b7de3	-0.0681112
255	0xbcf19826	-0.029491495

fc2.bias f4 [84]
0	0xbd25452d	-0.040349174
1	0xbc96f0d4	-0.018425383
2	0xbe02049f	-0.12697075
3	0xbda65c24	-0.08123043
4	0xbc0072bd	-0.007839856
5	0xbc62cb5f	-0.013842433
6	0xbbc2aaa9	-0.0059407544
7	0xbdc1d7a0	-0.09464955
8	0xba24b606	-0.0006283227
9	0xbdb9aba6	-0.090659425
10	0x3d8facb9	0.07015366
11	0x3d555db8	0.05209133
12	0xbc6ca6f3	-0.014444101
13	0xbd6649f4	-0.05622287
14	0x3c25daee	0.010122998
15	0x3c43b8e6	0.011945939
16	0x3e31562b	0.17318027
17	0xbd3aef0c	-0.04563813
18	0xbe02dbe7	-0.12779199
19	0xbd9bd4eb	-0.0760897
20	0x3d2d0317	0.042239275
21	0xbd046a26	-0.032327794
22	0xbda62d68	-0.08114129
23	0x3dda1c59	0.10649938
24	0x3c6eb743	0.01457006
25	0xbc91ea97	-0.017812056
26	0x3cb75a79	0.022382008
27	0xbd49c554	-0.049260452
28	0x3c23cc82	0.009997489
29	0x3d2e286a	0.04251901
30	0x3da4d28f	0.08047973
31	0xbdb8ac11	-0.09017194
32	0x3def7aa4	0.11693314
33	0x3caae264	0.020859905
34	0xbd272275	-0.040804345
35	0xbd8d00e6	-0.06884937
36	0xbc0d0ad5	-0.00860854
37	0x3e1458da	0.14487019
38	0x3c73ba1f	0.014875918
39	0x3d3e79dc	0.046502933
40	0xbcc68d0e	-0.024237182
41	0xbc1811ca	-0.009281585
42	0x3dfd3fcb	0.12365683
43	0x3e5f2a45	0.21793468
44	0x3cc8fa99	0.024533557
45	0xbcbe7973	-0.02325127
46	0xbdc046cc	-0.093885034
47	0xbce8e24a	-0.028428216
48	0x3e1fca43	0.156045
49	0x3d9f9b6c	0.07793316
50	0x3d52325e	0.051317565
51	0xbdcf51c7	-0.1012302
52	0xbe1248f7	-0.14285646
53	0x3e66fb23	0.22556739
54	0x3e3c11fd	0.18366237
55	0xbd238a96	-0.039927088
56	0xbd01faed	-0.031733442
57	0xbd8fbcd5	-0.07018439
58	0xbd5a8701	-0.053351406
59	0xbc18b0fb	-0.009319539
60	0x3e468756	0.19387564
61	0xbd9ea741	-0.07746745
62	0xbd91cbce	-0.07118951
63	0xbc881769	-0.016612725
64	0x3d69928c	0.057024524
65	0xbd31dc4d	-0.043422986
66	0x3d854ad1	0.06508411
67	0xbdf1420b	-0.11780175
68	0xbcf7069c	-0.030154519
69	0x3cf053da	0.029336859
70	0x3cd262a9	0.02568181
71	0x3d0b569a	0.034018137
72	0x3cb9275a	0.022601772
73	0x3c86d50a	0.016459007
74	0xbd82c13e	-0.06384514
75	0xbd9df621	-0.07712961
76	0x3d2ee323	0.042697083
77	0xbd260645	-0.040533323
78	0xbdb12d84	-0.086512595
79	0xbd8aa949	-0.0677057
80	0xbe0d2084	-0.13781935
81	0xbd669c48	-0.056301385
82	0xbddc4ee3	-0.10757234
83	0x3c466604	0.012109283

fc3.weight f4 [10, 84]
0	0x3c445d94	0.011985201
1	0xbdc058f4	-0.093919665
2	0xbc2d53a6	-0.010579025
3	0xbdca5d7e	-0.098811135
4	0x3e2c30a9	0.16815437
5	0x3ce4887d	0.027897114
6	0x3da649dd	0.08119557
7	0xbde50f30	-0.111845374
8	0x3d230477	0.03979918
9	0xbd363055	-0.044479687
10	0x3d20b09b	0.039230924
11	0xbe433947	-0.19064818
12	0xbe17235e	-0.14759585
13	0xbd99b4ec	-0.07505211
14	0xbe3a1aa3	-0.18174224
15	0xbe3f65c2	-0.18691161
16	0xbdf3427e	-0.11877917
17	0x3e22810c	0.1586954
18	0xbcbaa583	-0.022784
19	0xbd392d80	-0.045209408
20	0xbe091ca1	-0.13389827
21	0x3e03f548	0.12886536
22	0xbcb31190	-0.02185896
23	0xbe0b32b6	-0.13593563
24	0xbe464cd9	-0.19365253
25	0xbd720ef8	-0.059096307
26	0x3da6f2df	0.08151793
27	0xbe4158e4	-0.18881565
28	0x3d46d413	0.048542093
29	0xbe111204	-0.14167029
30	0x3a80569c	0.0009791437
31	0x3d61a40b	0.055088084
32	0x3db352fc	0.087560624
33	0x3ca6a7b4	0.020343639
34	0x3dd50252	0.10400833
35	0xbd67fad5	-0.056635696
36	0xbe50ec75	-0.20402701
37	0x3d88237a	0.066473916
38	0xbd25b67a	-0.040457226
39	0x3d937f3b	0.07202002
40	0xbe0cb14a	-0.13739505
41	0xbd26a50e	-0.040684752
42	0x3dec309e	0.115327105
43	0xbdbe3ee0	-0.09289336
44	0x3cfbe94e	0.030750897
45	0x3e120b93	0.14262228
46	0xbd8811e3	-0.066440366
47	0xbd9ce4b8	-0.07660812
48	0xbe4e75af	-0.2016208
49	0xbe0b5231	-0.13605572
50	0x3e58752e	0.2113845
51	0xbd95cdd1	-0.07314647
52	0xbdfebbc4	-0.12438157
53	0x3ccac20e	0.024750736
54	0xbe14e668	-0.14541018
55	0x3e1360c5	0.14392383
56	0xbaa1f5eb	-0.0012356614
57	0xbd08d1ab	-0.03340308
58	0x3dc740bb	0.09729143
59	0x3d5b30f4	0.053513482
60	0xbb4afb4d	-0.003097254
61	0xbdfacb6d	-0.12245832
62	0x3d97c9ce	0.07411538
63	0xbd2c9ec4	-0.0421436
64	0x3d2aefaa	0.041732468
65	0x3d56f0d6	0.052475773
66	0x3d1e7126	0.038682126
67	0xbe11341d	-0.14180036
68	0xbd254f5f	-0.040358897
69	0xbdde62da	-0.10858698
70	0x3ddfdf2c	0.109312385
71	0x3e27405b	0.16333143
72	0xbe2cf8ea	-0.16891828
73	0x3d7bb48e	0.061451487
74	0xbdbdd669	-0.09269411
75	0xbdd6435d	-0.10462067
76	0xbd36b537	-0.044606414
77	0xbb2876bf	-0.0025705544
78	0xbd047d2b	-0.032345932
79	0xbdba9597	-0.09110563
80	0xbe0ee382	-0.13953975
81	0x3dc5e4c1	0.09662772
82	0xbdabf1a7	-0.08395701
83	0x3cc9676b	0.024585446
84	0x3c1b97ba	0.009496624
85	0xbde71365	-0.11282996
86	0x3c90fb67	0.017698003
87	0x3e71ac1f	0.23600815
88	0xbcfdfba2	-0.031003777
89	0xbe6683c5	-0.22511204
90	0xbc2d7b53	-0.010588485
91	0x3d888b8f	0.06667244
92	0x3de9e042	0.11419727
93	0x3dba1265	0.0908554
94	0xbe6ed6c1	-0.2332411
95	0xbcd039c5	-0.025418172
96	0xbea34c51	-0.31894162
97	0x3da617a0	0.08109975
98	0xbd943011	-0.072357304
99	0x3dc8d24b	0.09805735
100	0x3e1a290c	0.1505472
101	0xbe1c4801	-0.15261842
102	0xbc394a38	-0.011309199
103	0xbdb0ad46	-0.08626799
104	0x3d8facde	0.07015394
105	0xbe30c38e	-0.17262098
106	0x3d9d696f	0.076861255
107	0xbdc36f8e	-0.09542762
108	0x3e860f03	0.26183328
109	0x3d6e332d	0.058154274
110	0xbcbc4e60	-0.02298659
111	0xbdc814cf	-0.09769594
112	0xbd70ead1	-0.05881769
113	0x3ddbaf1e	0.1072676
114	0xbcba3bb1	-0.022733541
115	0xbd840b45	-0.06447462
116	0x3e251b46	0.16123685
117	0x3d34be4f	0.044126805
118	0xbdb739b4	-0.08946553
119	0xbe2b4ec2	-0.16729262
120	0x3d7ef171	0.062241975
121	0xbd1c0fa8	-0.03810087
122	0xbe31ea41	-0.17374517
123	0x3ca1c67d	0.019747967
124	0xbe2f3c5a	-0.17112866
125	0x3ce384ba	0.02777325
126	0xbe0c49e8	-0.13700068
127	0xbdddf3c2	-0.10837509
128	0x3eb56621	0.3542948
129	0x3dc9621f	0.09833168
130	0xbdbedf73	-0.09319963
131	0xbd64f06c	-0.055893347
132	0x3e881723	0.26580152
133	0x3da16fea	0.07882674
134	0xbd31018a	-0.04321436
135	0xbceebbdf	-0.029142318
136	0x3e12fa08	0.14353192
137	0x3d1d60c9	0.03842238
138	0x3dbdba18	0.0926401
139	0x3d097e5d	0.033567775
140	0xbe34dce3	-0.17662387
141	0x3d904a08	0.0704537
142	0x3dabb67f	0.08384418
143	0xbdeafbd5	-0.114738144
144	0xbd6b8522	-0.057500012
145	0xbcaf0c3c	-0.021368138
146	0x3be87fae	0.0070952987
147	0xbd8bbf1e	-0.06823562
148	0xbd8887a8	-0.066664994
149	0xbd4eee1a	-0.05052004
150	0x3d09ebd7	0.03367218
151	0xbd068768	-0.032843977
152	0xbeae74ba	-0.3407343
153	0xbd9e2ff4	-0.0772399
154	0xbe077fe9	-0.13232388
155	0x3ce90fcd	0.028449917
156	0x3da401fc	0.08008191
157	0xbdc95ed8	-0.09832543
158	0x3d857b61	0.06517673
159	0xbdb23a64	-0.087025434
160	0xbcf17e7d	-0.02947926
161	0x3d13db96	0.036098085
162	0x3d2486e9	0.040167723
163	0xbe27b699	-0.16378249
164	0xbf1fc354	-0.6240742
165	0xbd0fdba7	-0.035121586
166	0xbc64dbda	-0.013968432
167	0xbc53b8f5	-0.012922515
168	0x3ca5d442	0.020242814
169	0xbde9f8d3	-0.114244126
170	0x3dce3de4	0.100703984
171	0xbe0df5a3	-0.13863234
172	0x3cb53462	0.022119705
173	0x3d9a8365	0.07544593
174	0x3c50e4e5	0.012749885
175	0xbd1c6467	-0.03818169
176	0xbe2dee64	-0.1698547
177	0xbd1250ee	-0.03572171
178	0x3d4c1983	0.049829017
179	0x3d15a786	0.036536716
180	0xbd79234b	-0.060824674
181	0xbd3104e2	-0.043217547
182	0x3ca72cd0	0.02040711
183	0x3dd9e6af	0.106397025
184	0xbe3fd101	-0.18732072
185	0xbbd23644	-0.0064151604
186	0xbd895e96	-0.06707494
187	0x3ce3c43b	0.02780353
188	0xbd4d236d	-0.050082613
189	0xbd83e438	-0.06440014
190	0xbb5c879c	-0.0033650165
191	0xbe2cf9c3	-0.16892152
192	0xbc17e42e	-0.009270711
193	0x3e1c0a32	0.15238264
194	0x3d181175	0.037126023
195	0xbd9f5927	-0.07780676
196	0xbd289e42	-0.04116655
197	0xbd34ba54	-0.04412301
198	0xbded4013	-0.11584487
199	0x3df45608	0.11930472
200	0x3d2d4e8a	0.04231123
201	0xbb8121b9	-0.0039407876
202	0x3d023419	0.031787965
203	0x3cf845d2	0.03030673
204	0x3c774075	0.015091051
205	0xbe17b703	-0.14815907
206	0xbd95f9b2	-0.07323016
207	0x3d6e80d6	0.058228336
208	0xbd7470de	-0.05967795
209	0xbe0edef7	-0.13952242
210	0xbe1533b7	-0.14570509
211	0x3dc10b63	0.09426
212	0xbdb51c85	-0.0884333
213	0xbdf20b69	-0.118185826
214	0xbdea9d15	-0.11455742
215	0xbd3c9f64	-0.046050444
216	0x3d43abc5	0.047771234
217	0x3cb6de92	0.022322927
218	0xbe292ae6	-0.1652027
219	0x3c752657	0.014962754
220	0xbe82a0c4	-0.2551328
221	0x3e116c05	0.14201362
222	0x3e5aa953	0.21353655
223	0x3d20ddb0	0.039273918
224	0x3da53263	0.08066251
225	0x3d6209ec	0.055185243
226	0xbe45a087	-0.19299518
227	0xbcc80005	-0.024414072
228	0x3d485d2a	0.048916973
229	0x3c113d59	0.008864724
230	0x3d2782b9	0.04089615
231	0xbd3fb4dc	-0.04680334
232	0xbd5e6543	-0.05429579
233	0x3dc14e27	0.094387345
234	0xbd95518e	-0.07290946
235	0x3cbd2509	0.023088949
236	0xbc0f1b4f	-0.008734538
237	0x3d0363b3	0.032077502
238	0xbdbf234a	-0.09332903
239	0xbe317593	-0.17330007
240	0xbe4e127c	-0.20124239
241	0xbddad928	-0.106859505
242	0xbc0efdf5	-0.00872754
243	0xbd0e2713	-0.034705233
244	0x3c7e129b	0.015507366
245	0x3caa81b8	0.020813808
246	0xbdd16dc4	-0.10226014
247	0xbd6f2029	-0.05838028
248	0xbd2724d6	-0.040806614
249	0xbd488547	-0.04895523
250	0xbdb83ac0	-0.08995581
251	0x3d8c3143	0.068453334
252	0xbccfdaf2	-0.025372956
253	0xbd8ed33f	-0.06973886
254	0xbd52abb5	-0.051433284
255	0xbe3d5347	-0.18488799

fc3.bias f4 [10]
0	0x3cc8beb2	0.024504993
1	0xbcc876a8	-0.024470642
2	0x3cd311a0	0.02576524
3	0xbc22d09d	-0.009937433
4	0x3d713625	0.058889527
5	0x3d585fba	0.052825667
6	0xbe07da7a	-0.13266936
7	0xbe406e17	-0.18791996
8	0x3d9856a8	0.07438403
9	0xbce8d26b	-0.028420648
