models/Cutout-7-4 BasicNet.pt (torch, 180615 bytes, 10 tensors)

conv1.weight f4 [6, 1, 5, 5]
0	0x3d2ed114	0.04267986
1	0x3e2b228a	0.16712394
2	0x3e456b40	0.19279194
3	0x3e0bb0e6	0.136417
4	0x3d844a41	0.06459475
5	0x3c33aedf	0.0109669855
6	0xba3639c7	-0.00069513585
7	0xbe1d7b36	-0.15379032
8	0xbdd3ed1f	-0.10347962
9	0x3d97a4d4	0.07404485
10	0xbdedd576	-0.1161298
11	0xbdd2944a	-0.1028219
12	0x3d7a97db	0.061179977
13	0x3e223ad2	0.1584275
14	0x3e1209d0	0.14261556
15	0xbe625950	-0.22104383
16	0x3dd7614b	0.10516604
17	0x3e4f13c9	0.20222391
18	0x3de68c25	0.11257199
19	0xbd973d17	-0.07384699
20	0x3e01b305	0.12665947
21	0x3c6af2ca	0.014340112
22	0x3e5151ab	0.2044131
23	0xbe435053	-0.1907361
24	0xbea0b775	-0.31389967
25	0x3da29c98	0.07940024
26	0xbe8286e9	-0.25493553
27	0xbd7544f0	-0.059880197
28	0x3e5ddfa9	0.21667351
29	0xbb98bc04	-0.004661085
30	0xbe5facde	-0.21843287
31	0x3c9d84ab	0.0192283
32	0x3d72f9d1	0.059320275
33	0x3e3a0afc	0.18168253
34	0xbd993b2f	-0.074819915
35	0xbe2579ef	-0.16159795
36	0xbe0c9ae5	-0.13730963
37	0xbcda9fba	-0.026687492
38	0x3eb62d2c	0.35581338
39	0xbd94eb23	-0.07271411
40	0xbe85afb6	-0.2611062
41	0x3d1028fb	0.035195332
42	0x3d9084ad	0.07056556
43	0x3ea8f8cc	0.33002317
44	0xbe7a4556	-0.24440512
45	0xbd824402	-0.06360628
46	0x3dcf37a5	0.10118035
47	0x3e1cabf7	0.15299974
48	0x3d3dc323	0.046328675
49	0xbe45d6d8	-0.19320238
50	0x3c50ce2f	0.0127444705
51	0xbe990cdc	-0.29892623
52	0xbf32e4d2	-0.698804
53	0xbf36d0a9	-0.7141214
54	0xbe9f02d6	-0.3105685
55	0xbe04cdec	-0.12969178
56	0xbeaff70b	-0.34368166
57	0xbf372f5b	-0.71556634
58	0xbee81dcd	-0.45335236
59	0xbe142876	-0.1446856
60	0xbd503b92	-0.05083806
61	0xbce8d4d7	-0.028421802
62	0xbe28ef8d	-0.16497631
63	0x3c4447d0	0.011980012
64	0x3eae904b	0.34094462
65	0x3e52dadd	0.20591302
66	0x3e3c0a07	0.183632
67	0x38ae1c03	8.302184e-05
68	0x3e9faa25	0.31184497
69	0x3dc02192	0.09381403
70	0xbdf9ac75	-0.12191097
71	0x3db18af4	0.08669081
72	0x3e34428a	0.17603508
73	0x3dddc2b7	0.108281545
74	0x3d3ca9eb	0.046060484
75	0xbd94bd41	-0.0726266
76	0x3d28fd9b	0.041257482
77	0x3dd05f54	0.101744324
78	0xbe9bd2eb	-0.30434355
79	0xbe6ebc11	-0.23313929
80	0xbdc2970e	-0.09501468
81	0x3d89d6bb	0.0673041
82	0x3e88d1a6	0.2672245
83	0x3b3e9121	0.0029078203
84	0xbeac278c	-0.33623922
85	0xbc0905cd	-0.008363199
86	0x3d99c049	0.075073786
87	0x3e904d8b	0.2818416
88	0x3e23a879	0.15982236
89	0xbe166357	-0.14686333
90	0xbe349b8a	-0.17637458
91	0xbdec0ef9	-0.11526293
92	0x3d0233a7	0.03178754
93	0x3ea5aeee	0.32360023
94	0x3eb27945	0.34858146
95	0xbce1a195	-0.027542869
96	0x3de5ba45	0.11217169
97	0x3dbbb9de	0.09166311
98	0xbbe5521f	-0.006998315
99	0x3db06722	0.08613421
100	0xbebaa68b	-0.36455187
101	0xbe79c3d5	-0.2439111
102	0xbda9c9f4	-0.082904726
103	0xbcd37162	-0.025810901
104	0xbbda52da	-0.0066627087
105	0xbf0d0621	-0.55087477
106	0xbf301a6a	-0.68790305
107	0xbeb5777c	-0.35442722
108	0xbd9c4f2d	-0.07632289
109	0x3c48bc10	0.012251869
110	0xbf1daed7	-0.6159491
111	0xbf33df04	-0.7026217
112	0xbeb6de3c	-0.35716426
113	0x3c98ffb9	0.018676626
114	0x3da371c6	0.07980685
115	0xbefcb159	-0.49354056
116	0xbf1eb576	-0.6199564
117	0xbcf254b4	-0.029581405
118	0x3dc8b54d	0.098002054
119	0x3d6a46d9	0.05719647
120	0xbe731b25	-0.23740824
121	0xbe2bdf01	-0.16784288
122	0x3e029212	0.12751034
123	0xbcab5dc3	-0.020918733
124	0xbd864662	-0.06556393
125	0x3e8e5269	0.2779725
126	0x3caddd00	0.021223545
127	0xb88bd46a	-6.667602e-05
128	0xbe8f6545	-0.2800695
129	0x3de3491e	0.1109793
130	0x3da499f4	0.08037177
131	0x3ecb59ca	0.3971694
132	0x3d580e61	0.052748088
133	0xbbd4dce6	-0.0064960597
134	0xbddf34aa	-0.10898717
135	0xbecb3b89	-0.3969386
136	0x3e7b3b34	0.24534303
137	0x3ecb37c4	0.39690983
138	0x3cf9475e	0.030429538
139	0xbdf6bcab	-0.12047704
140	0xbf0558ce	-0.5208863
141	0xbf02fc7a	-0.511665
142	0x3e6306ea	0.22170606
143	0x3e85a8d9	0.26105383
144	0xbe0f5974	-0.13998967
145	0x3b31f489	0.002715381
146	0xbe1144b5	-0.14186366
147	0xbe45fe20	-0.19335222
148	0x3d8ff888	0.070298254
149	0xbd9424a2	-0.0723355

conv1.bias f4 [6]
0	0xbd5a89fd	-0.053354252
1	0xbd655deb	-0.05599777
2	0xbe11b4e5	-0.14229162
3	0xbdb76c04	-0.08956149
4	0x3de2f750	0.11082327
5	0xbde47d22	-0.1115668

conv2.weight f4 [16, 6, 5, 5]
0	0xbe29292e	-0.16519615
1	0xbd93ba42	-0.0721326
2	0xbd170229	-0.036867294
3	0xbcdb592a	-0.026775915
4	0x3c0f4500	0.008744478
5	0xbe2ecda0	-0.17070627
6	0xbe1feaff	-0.15616988
7	0xbdce1746	-0.10063033
8	0x3dccd357	0.100012474
9	0x3c9483c8	0.018129244
10	0xbd380bfa	-0.044933297
11	0x3ca1b7d5	0.019740978
12	0xbe580380	-0.21095085
13	0xbdbfb3fd	-0.09360502
14	0xbdadf4ef	-0.08493983
15	0x3e07510c	0.1321451
16	0x3db349f3	0.08754339
17	0x3c87f050	0.016594082
18	0xbd43f946	-0.047845148
19	0x3c727cbb	0.014800246
20	0xbd694c76	-0.056957684
21	0x3bc6febc	0.006072847
22	0x3d90d64d	0.07072125
23	0x3c01f107	0.007931001
24	0x3ddd1653	0.10795274
25	0xbe1fcd2d	-0.15605612
26	0x3c558ede	0.0130345505
27	0xbd42fc6f	-0.04760402
28	0xbd2fa67d	-0.042883385
29	0xbd6ca282	-0.057772167
30	0xbd3ab9cf	-0.045587357
31	0xbe126cda	-0.14299336
32	0xbda1d5c7	-0.07902103
33	0x3dc6dd70	0.097102046
34	0x3d13ebf2	0.036113687
35	0xbd7d803f	-0.061889883
36	0x3d0b0c07	0.033947017
37	0xbdc6a037	-0.09698527
38	0x3d96e776	0.073683664
39	0xbc63369a	-0.0138679985
40	0x3e17a036	0.1480721
41	0x3e2716bb	0.16317265
42	0xbd27a607	-0.04092982
43	0xbdc3bc5b	-0.0955741
44	0x3ca014e0	0.019541204
45	0x3d0edcf2	0.03487868
46	0x3b09f283	0.002104909
47	0x3c0ffa33	0.0087876795
48	0xbdc99372	-0.09842576
49	0x3d796f4a	0.06089715
50	0x3bc56aad	0.0060246796
51	0x3ad7eb97	0.001647341
52	0x3caad0fc	0.020851605
53	0xbda277a6	-0.079329774
54	0x3d1105ed	0.035406042
55	0xbe33aaef	-0.17545675
56	0x3c757776	0.014982095
57	0xbbe56eed	-0.007001749
58	0xbe350520	-0.17677736
59	0xbdd79a02	-0.105274215
60	0xbe158365	-0.14600904
61	0xbd64c8b1	-0.055855457
62	0x3cb96599	0.022631453
63	0x3d458628	0.048223644
64	0x3caa2090	0.02076748
65	0xbe97c376	-0.29641312
66	0xbe44cdff	-0.19219206
67	0xbe1a62f9	-0.15076818
68	0x3d0e6a8c	0.03476958
69	0xbc621b0f	-0.013800397
70	0xbdeaa2fc	-0.11456868
71	0xbe232983	-0.15933804
72	0xbe36a33a	-0.17835703
73	0xbde642f8	-0.11243242
74	0xbd32a498	-0.043614
75	0xbdeaae16	-0.114589855
76	0xbdab3af0	-0.08360851
77	0xbcc00295	-0.023438731
78	0xbdc8a6e5	-0.097974576
79	0xbd5b3371	-0.053515855
80	0x3e41d774	0.18929845
81	0x3d34050b	0.04395012
82	0xbe582bfa	-0.21110526
83	0xbc71cb6a	-0.01475797
84	0xbd87cc4d	-0.06630764
85	0x3dac556f	0.08414733
86	0x3ea55a8d	0.32295647
87	0x3d56d7aa	0.052451767
88	0xbd1e9402	-0.03871537
89	0xbd257d95	-0.040402967
90	0xbdb517bc	-0.088424176
91	0x3e25a260	0.16175222
92	0x3d7e06c9	0.06201819
93	0x3e0d08a6	0.1377283
94	0xbd27f926	-0.04100909
95	0xbe58dcc0	-0.2117796
96	0xbd110511	-0.035405222
97	0x3ddd318d	0.10800467
98	0x3d26c062	0.040710814
99	0xbc4af9f2	-0.012388693
100	0xbd4a5692	-0.049398966
101	0xbdd192a2	-0.10233046
102	0x3de312c1	0.110875614
103	0x3e283590	0.16426682
104	0x3cccd8be	0.025005694
105	0xbc838bc3	-0.016057855
106	0xbd188eed	-0.03724568
107	0xbd710438	-0.058841914
108	0x3e0e5ff8	0.13903797
109	0x3e4d4f94	0.20049888
110	0x3de568e0	0.11201644
111	0xbdc1d5b2	-0.09464587
112	0xbe4176ce	-0.18892977
113	0x3e080f7b	0.13287155
114	0x3e39a5ac	0.18129605
115	0x3e0a9e5c	0.13536972
116	0x3d6510c7	0.055924203
117	0xbe759e4d	-0.23986168
118	0xbd4a968a	-0.04945997
119	0xbda37f0a	-0.07983215
120	0x3dd3adbb	0.10335871
121	0x3c0132d8	0.007885657
122	0xbe6c147a	-0.23054686
123	0xbe864f1c	-0.2623223
124	0xbddef8da	-0.108873084
125	0xbe022023	-0.12707572
126	0xbd33ba10	-0.043878615
127	0x3ea20464	0.31643975
128	0x3d4c01af	0.049806293
129	0x3c2454d8	0.010029994
130	0x3da1f4aa	0.07907994
131	0x3e2230ef	0.15838979
132	0xbb8bea04	-0.00426984
133	0x3ec69937	0.3878877
134	0x3dd4b4a6	0.103860185
135	0x3dc09f1e	0.09405349
136	0x3ed764e8	0.42069173
137	0x3d7f2230	0.062288463
138	0xbc873b5e	-0.0165078
139	0xbc84a01f	-0.016189633
140	0xbda3b964	-0.07994345
141	0x3de84465	0.1134117
142	0x3dc4025c	0.095707625
143	0x3cf04d58	0.029333755
144	0xbdfd7403	-0.12375643
145	0xbe166d06	-0.14690027
146	0xbdb8d0ee	-0.09024225
147	0x3e263483	0.16230969
148	0x3d470364	0.048587218
149	0xbd92a2a6	-0.07159929
150	0xbe01df03	-0.12682728
151	0x3be77bab	0.007064303
152	0x3e80842f	0.25100848
153	0x3e5e778a	0.21725288
154	0xbdd2e98e	-0.10298453
155	0x3d4b5aa3	0.049646985
156	0x3e9619ee	0.29316658
157	0x3e70970f	0.23495124
158	0xbc90e06e	-0.017685141
159	0xbc1f6f75	-0.009731163
160	0x3de97517	0.11399286
161	0xb90f3988	-0.00013658975
162	0xbdb09074	-0.08621302
163	0xbe21564e	-0.15755579
164	0xbe4aede6	-0.19817314
165	0xbccf13a3	-0.025277918
166	0xbd1dbdea	-0.038511194
167	0xbd398070	-0.045288503
168	0xbdbbeff5	-0.091766275
169	0xbdde75df	-0.10862326
170	0xbe245722	-0.16048864
171	0xbd4cba0d	-0.04998212
172	0xbde628d3	-0.11238255
173	0xbe026721	-0.12734653
174	0xbc2dd6c1	-0.010610283
175	0xbd838c93	-0.06423297
176	0x3c2561cf	0.01009412
177	0x3e699b03	0.22813039
178	0x3ec8c67e	0.39213938
179	0xbdb8e482	-0.090279594
180	0xbd087521	-0.033314828
181	0x3e5abe7a	0.21361724
182	0x3ea19d08	0.31565118
183	0x3dd8abd2	0.10579647
184	0x3e4818c1	0.19540693
185	0x3e0706fb	0.13186257
186	0x3da49988	0.08037096
187	0xbdb2353f	-0.08701562
188	0x3e217d68	0.15770495
189	0x3e0632d3	0.13105325
190	0xbe3eed1f	-0.18645142
191	0xbe67d028	-0.22637999
192	0xbd1e7e9a	-0.038694955
193	0xbce5cca4	-0.028051682
194	0xbe07a00d	-0.13244648
195	0xbe3b165b	-0.18270247
196	0xbdab2147	-0.083559565
197	0xbd311342	-0.043231256
198	0xbd2efc1a	-0.04272089
199	0xbe31ed95	-0.17375787
200	0xba2a6cf9	-0.00065012235
201	0x3d948b03	0.07253077
202	0xbdb62746	-0.088942096
203	0xbe877065	-0.26452938
204	0xbddba5de	-0.10724996
205	0x3d1b7d00	0.037961006
206	0xbdcb9b50	-0.09941733
207	0xbe1e50aa	-0.15460458
208	0xbe96f24f	-0.29481742
209	0xbe1f4b4a	-0.15556064
210	0xbdb0c047	-0.08630424
211	0xbe953d0b	-0.29148135
212	0xbe547f7b	-0.20751755
213	0x3d6d7ed2	0.057982273
214	0x39a982e6	0.0003233172
215	0xbeaf4cfb	-0.3423842
216	0xbd2c6cad	-0.04209583
217	0x3e611040	0.21978855
218	0x3e0f833d	0.14014907
219	0x3c56aff1	0.013103471
220	0x3d480035	0.048828322
221	0x3e1f6a0e	0.155678
222	0x3d90f8bb	0.070786916
223	0x3d006893	0.03134973
224	0xbc1a5916	-0.009420654
225	0xbde36ccd	-0.111047365
226	0xbcedc54e	-0.029024746
227	0x3def5811	0.11686719
228	0x3dfd4eb9	0.12368531
229	0x3bf458bd	0.0074568675
230	0x3c0f8f03	0.008762124
231	0x3cd99418	0.026559874
232	0xbd0b9fa8	-0.034087807
233	0x3c7ff0e1	0.015621395
234	0xbb116283	-0.0022183962
235	0xbcff7629	-0.031184273
236	0xbdc29fbb	-0.095031224
237	0xbd230fc8	-0.039809972
238	0xbd5293b6	-0.0514104
239	0xbde91b17	-0.1138212
240	0xbd296f8f	-0.041366156
241	0xbc2c6545	-0.010522191
242	0xbdd6914f	-0.10476934
243	0xbd3473c9	-0.044055734
244	0x3d98cf67	0.07461434
245	0xbb739791	-0.0037169198
246	0xbdaedf7a	-0.085387185
247	0xbced57a5	-0.028972456
248	0xbd545b7f	-0.05184507
249	0x3d7205be	0.059087507
250	0xbd223758	-0.03960356
251	0x3d94d2d9	0.072667785
252	0xbcb9420c	-0.022614501
253	0xbd2e802d	-0.042602707
254	0x3df41488	0.119179785
255	0x3d077072	0.03306622

conv2.bias f4 [16]
0	0xbd3325fc	-0.043737397
1	0xbdf9ba24	-0.12193707
2	0xbd980a7f	-0.07423877
3	0xbdbeee32	-0.09322776
4	0xbdba5e9e	-0.09100078
5	0x3b197a48	0.0023418833
6	0xbdcd54bf	-0.1002593
7	0x3dd57204	0.104221374
8	0x3d6434e5	0.055714507
9	0xbcb5905b	-0.02216356
10	0x3da9d347	0.08292251
11	0x3d61aa06	0.055093788
12	0xbdc68d19	-0.09694881
13	0xbd9bac9e	-0.076012835
14	0xbd0c246c	-0.034214422
15	0xbc1b5f57	-0.00948318

fc1.weight f4 [120, 256]
0	0xbdf0fd29	-0.117670365
1	0xbe04dbc0	-0.12974453
2	0x3ca651a7	0.020302607
3	0xbd92861d	-0.07154486
4	0xbd7b8fc0	-0.061416388
5	0x3cd2f6b0	0.025752395
6	0x3e3ee330	0.18641353
7	0x3dd52c89	0.10408885
8	0x3a7c1316	0.0009615881
9	0xbc32a764	-0.010904167
10	0xbd91828a	-0.071049765
11	0x3de99ac3	0.114064716
12	0x3cf893ad	0.030343855
13	0x3d6cd33b	0.057818633
14	0xbdf4f60c	-0.11960992
15	0xbdc47c15	-0.09593979
16	0x3c374ef4	0.0111882575
17	0xbce280d0	-0.027649313
18	0xbca6756f	-0.020319669
19	0x3d8c3b71	0.06847275
20	0x3cd9d1ef	0.026589362
21	0xbe1082ed	-0.14112444
22	0x3d9d5fc9	0.07684285
23	0xbd2da41c	-0.042392835
24	0xbd9a8df4	-0.07546607
25	0x3e0e4590	0.13893723
26	0x3ddb2a2f	0.10701405
27	0xbc57b43d	-0.013165531
28	0x3c4c877b	0.012483473
29	0x3cd814c8	0.026377097
30	0xbc8437ac	-0.016139828
31	0xbb5006d9	-0.0031742363
32	0xbd980eb7	-0.07424682
33	0xbd9149aa	-0.070941284
34	0xbdc29190	-0.0950042
35	0xbb32f69f	-0.0027307642
36	0xbdf26a86	-0.11836724
37	0xbbd00595	-0.0063483217
38	0x3d4ddbc0	0.050258398
39	0x3c69cbfa	0.014269823
40	0x3d520e23	0.051283013
41	0x3c6ca0c7	0.014442629
42	0xbcfc3649	-0.030787604
43	0xbe1159df	-0.1419444
44	0xbdf727c9	-0.12068135
45	0x3df04ea2	0.11733748
46	0x3d94187c	0.072312325
47	0xbe0492f0	-0.12946677
48	0xbe116a6f	-0.14200757
49	0x3dc5c8ad	0.096574165
50	0x3e4bb74d	0.19894142
51	0x3da6a5a1	0.0813706
52	0x3d657ccc	0.05602722
53	0xbb44c0d3	-0.0030022159
54	0x3e014209	0.12622847
55	0x3e03e4b3	0.1288021
56	0xbd4fa4df	-0.050694343
57	0x3cb850a9	0.0224994
58	0x3e03a0f7	0.12854372
59	0x3db03d2b	0.08605417
60	0xbddf3de4	-0.109004766
61	0xbdd51f7c	-0.10406396
62	0xbc06e521	-0.0082333395
63	0x3dad88cc	0.084733576
64	0x3e145437	0.1448525
65	0x3e0b50e9	0.13605084
66	0xbde7042d	-0.11280093
67	0xbde8e8b2	-0.11372508
68	0xbd3c609b	-0.045990568
69	0xbdbccb54	-0.09218469
70	0x3d88a61c	0.06672308
71	0xbc8a9ea3	-0.016921347
72	0xbca0ac62	-0.019613449
73	0xbaab57d7	-0.0013072443
74	0x3becfa31	0.0072319736
75	0x3daa8562	0.08326222
76	0x3dbbad5e	0.091639265
77	0x3bc94d10	0.00614322
78	0x3d5c7c96	0.053829752
79	0xbd835c29	-0.064140625
80	0x3e2421be	0.16028497
81	0x3d8aca5c	0.06776878
82	0x3e11d27c	0.1424045
83	0x3df280c1	0.11840964
84	0xbc8a9090	-0.016914636
85	0x3db205ab	0.08692487
86	0x3c96f059	0.018425154
87	0xbcdf79ce	-0.02727976
88	0x3d611939	0.054955695
89	0xbd003e30	-0.031309307
90	0xbd25ea16	-0.040506445
91	0x3d61d06a	0.0551304
92	0x3e14aba0	0.14518595
93	0x3e4d31aa	0.20038477
94	0x3e272400	0.16322327
95	0xbcb04558	-0.02151744
96	0xbd861fab	-0.06549009
97	0x3b5dc586	0.0033839657
98	0x3d6336e6	0.055472277
99	0x3ddc3558	0.10752362
100	0x3d828b6a	0.06374247
101	0x3da598b5	0.08085767
102	0xbcfb55a0	-0.030680478
103	0x3b6b0f4d	0.0035867274
104	0xbd9ee307	-0.07758146
105	0xbcab4fed	-0.020912135
106	0x3cf1719d	0.02947312
107	0xbcf22b2d	-0.029561603
108	0xbd16d8b0	-0.036827743
109	0xbc6beaca	-0.01439924
110	0xbe04fb21	-0.12986423
111	0xbd03686d	-0.03208201
112	0x3dcd7b17	0.10033243
113	0xbdbd7e04	-0.09252551
114	0xbea315e7	-0.31852648
115	0xbd86e8bf	-0.065873615
116	0xbcdb673d	-0.026782626
117	0xbd31c91a	-0.043404676
118	0x3dc0aeea	0.09408362
119	0x3c81aa77	0.015828354
120	0x3db42600	0.087963104
121	0x3aba03e6	0.0014191836
122	0x3dc38fac	0.095488876
123	0x3bf3a99a	0.0074359896
124	0xbc5e088e	-0.013551844
125	0xbe01f95a	-0.12692776
126	0x3d581f34	0.052764133
127	0xbdef4d9f	-0.11684727
128	0xbe35c618	-0.17751348
129	0xbdf5b0d3	-0.11996617
130	0x3d8853e9	0.066566296
131	0x3d84d161	0.06485248
132	0xbe56bf47	-0.20971404
133	0xbd9442dd	-0.07239316
134	0x3b8ed53c	0.0043589156
135	0x3d85bfd7	0.06530731
136	0x3cfb9e78	0.030715212
137	0xbce44543	-0.027865058
138	0xbd45b37b	-0.04826687
139	0x3d6a13b9	0.057147715
140	0xbe439e83	-0.19103436
141	0xbdad7299	-0.084691234
142	0x3e29ae9d	0.16570516
143	0xbc8b47f1	-0.017002078
144	0xbb94ab5c	-0.004537029
145	0xbe3b16ff	-0.18270491
146	0xbda7ffba	-0.08203073
147	0x3a7a4479	0.00095469464
148	0x3df1b037	0.118011884
149	0x3e17ad15	0.1481212
150	0x3cbffcb7	0.023435934
151	0x3bfb779d	0.007674171
152	0x3db380ab	0.08764776
153	0x3d986427	0.074409775
154	0xba370864	-0.00069821463
155	0x3d6b8895	0.0575033
156	0x3def52d0	0.11685717
157	0xbc05c848	-0.008165427
158	0x3d711660	0.05885923
159	0xbd8438fe	-0.06456183
160	0xbddd16a4	-0.10795334
161	0xbeb16c91	-0.34653142
162	0xbe91c02e	-0.28466934
163	0xbda3ae98	-0.079922855
164	0xbc4c88a6	-0.012483751
165	0x3bd3c0ee	0.006462208
166	0x3da932c2	0.082616344
167	0xbd85c258	-0.06531209
168	0x3df1f0da	0.11813517
169	0x3d688204	0.056764618
170	0x3d5cb9f8	0.05388829
171	0x3d2c2354	0.04202588
172	0x3d76d17d	0.060258377
173	0xbd076b80	-0.033061504
174	0xbc7d316d	-0.015453679
175	0x3d8d192c	0.06889567
176	0x3d811ff7	0.06304925
177	0x3d268a2c	0.040659115
178	0xbdfa69ab	-0.12227186
179	0xbda82aba	-0.082112744
180	0x3e125848	0.14291489
181	0x3dc4d60e	0.0961114
182	0xbd93210f	-0.0718404
183	0xbd98f229	-0.074680634
184	0x3d7896da	0.06069074
185	0xbce87668	-0.028376773
186	0xbd47d922	-0.04879106
187	0x3ddf032a	0.10889275
188	0x3db9cce0	0.0907228
189	0x3bf59062	0.0074940184
190	0x3ca93595	0.020655433
191	0xbc92c309	-0.017915266
192	0x3e011a8b	0.12607782
193	0xbca2be45	-0.019866118
194	0xbe8de1e5	-0.27711406
195	0xbda3cd81	-0.07998181
196	0x3daf9d9c	0.085749835
197	0xbb77c613	-0.003780727
198	0xbcf874d1	-0.03032914
199	0xbd4766c4	-0.04868199
200	0xbd89cdb4	-0.06728688
201	0x3e07f2b3	0.13276176
202	0xbd81002d	-0.06298862
203	0x3d165f76	0.036712132
204	0x3dd5db62	0.104422346
205	0x3a3bdc74	0.0007166334
206	0x3e47c5e7	0.19509088
207	0x3df0f820	0.11766076
208	0x3d569be5	0.052394766
209	0x3d1c5dbb	0.038175326
210	0xb9924541	-0.00027898888
211	0x3cca194f	0.024670271
212	0x3baa7cd2	0.005202868
213	0xbdb7262e	-0.08942829
214	0xbdd69f41	-0.10479594
215	0xbdb7e9d9	-0.0898015
216	0x3d48398e	0.048883013
217	0xbdf04bd8	-0.11733216
218	0xbd8ab51b	-0.067728244
219	0xbd93bf9a	-0.072142795
220	0x3c1c545c	0.009541597
221	0xbcdf1932	-0.027233694
222	0xbe3a6b0b	-0.18204896
223	0xbe85a2e7	-0.26100847
224	0x3c83b6e4	0.01607842
225	0xbd4823cd	-0.048862267
226	0xbd476dd2	-0.048688717
227	0xbd448c2c	-0.04798524
228	0x3d11ae9f	0.035566922
229	0x3c903471	0.017603131
230	0xbcd2e2fb	-0.025742998
231	0xbdb80413	-0.08985152
232	0xbd489f17	-0.048979845
233	0x3cb633ff	0.02224159
234	0x37845000	1.577288e-05
235	0xbd15028f	-0.036379393
236	0x3c5ab515	0.013348837
237	0x3c3ffde4	0.011718247
238	0xbd4fb402	-0.05070878
239	0xbd3fe466	-0.046848677
240	0x3e04eead	0.12981673
241	0x3c58364f	0.013196542
242	0x3cb0a4ae	0.0215629
243	0xbe18a991	-0.14908434
244	0x3cb4ea5a	0.022084404
245	0x3d1d9efc	0.038481697
246	0xbb977598	-0.0046221726
247	0xbd8d3f8e	-0.06896888
248	0x3dbfa8a9	0.09358341
249	0x3d2456f1	0.040121976
250	0x3daa46ed	0.08314309
251	0x3c5e7cb1	0.013579533
252	0xbdf2fc41	-0.1186452
253	0x3c5f63ba	0.0136346165
254	0x3dde6ec5	0.10860971
255	0x3dc55a67	0.096363835

fc1.bias f4 [120]
0	0x3b283e4c	0.0025671897
1	0x3cb1bc2e	0.021696176
2	0xbdaf75d0	-0.08567393
3	0x3c30df7a	0.010795468
4	0xbdb4a000	-0.0881958
5	0x3dd49eda	0.10381861
6	0x3d735572	0.05940766
7	0xbd1c4fd5	-0.03816207
8	0xbc83999b	-0.016064456
9	0xbcf0a0c4	-0.029373534
10	0xbd3cbcb9	-0.046078417
11	0x3d749ecf	0.059721764
12	0x3c934fe4	0.01798243
13	0xbd00ea23	-0.03147329
14	0x3d04a49e	0.032383554
15	0x3cfdd426	0.03098495
16	0x39e15947	0.0004298186
17	0xbd1eb6a8	-0.038748413
18	0xbd6cc9a5	-0.05780949
19	0x3ba05189	0.0048925322
20	0x3ca796e6	0.020457696
21	0xbc6a3551	-0.014294938
22	0x3cbe3632	0.023219202
23	0xbb0563e2	-0.0020353724
24	0x3d0241da	0.031801082
25	0x3ce5a12e	0.028030958
26	0x3cbd8dcd	0.023138905
27	0xbcad6aee	-0.021169152
28	0x3c305b3d	0.01076394
29	0xbccde11e	-0.025131758
30	0xbd471c49	-0.04861096
31	0xbc6021ee	-0.0136799645
32	0xbb600951	-0.003418524
33	0x3db0bd9b	0.086299144
34	0x3beb341c	0.007177843
35	0xbceacaf5	-0.02866123
36	0x3af27ece	0.0018500926
37	0x3d8e4ea3	0.069485925
38	0xbce5bde1	-0.028044643
39	0xbcc79e3e	-0.024367448
40	0x3d6ee9d8	0.05832848
41	0xbc652f53	-0.013988334
42	0xbbfd9694	-0.0077388976
43	0x3ba87809	0.0051412624
44	0x3d2859c9	0.04110125
45	0xbdb780ba	-0.089600995
46	0xbd2b63a6	-0.04184308
47	0xbcf14437	-0.029451473
48	0xbd5d8d29	-0.0540897
49	0x39eb4477	0.00044873703
50	0x3d097a60	0.03356397
51	0x3d5380ee	0.05163663
52	0x3bb9b8b8	0.005667772
53	0xbd2d08cc	-0.042244717
54	0x3b345680	0.0027517378
55	0x3c08159a	0.008305931
56	0xbc9d016b	-0.019165715
57	0xbdc2af88	-0.09506136
58	0x3d04f160	0.032456756
59	0x3cdc002e	0.026855554
60	0xbc857a56	-0.016293686
61	0xbd73d4b7	-0.059529033
62	0xbbf4a208	-0.0074656047
63	0x3d149236	0.03627225
64	0xbd1fd600	-0.039022446
65	0x3d1b017f	0.037843224
66	0x3d14ea95	0.036356527
67	0xbcf39b5c	-0.029737167
68	0x3cf15eec	0.029464208
69	0x3d3bfd6d	0.045895983
70	0xbd35e437	-0.044407096
71	0x3e07e6a3	0.13271575
72	0x3c6d6b71	0.014490948
73	0xbd4b9f8d	-0.049712706
74	0x3d7c50d1	0.06160051
75	0xbd54eb3c	-0.05198215
76	0xbd6bff29	-0.057616387
77	0xbd24ef60	-0.04026735
78	0xbc93d4c6	-0.018045794
79	0xbcf87938	-0.03033124
80	0xbd7e687e	-0.06211137
81	0x3d6bfc10	0.057613432
82	0x3d0a26ed	0.03372853
83	0xbc8a27a3	-0.016864603
84	0x3d79bf8c	0.06097369
85	0xbd1802ea	-0.037112154
86	0xbcaebbda	-0.021329809
87	0x3c94cbd9	0.018163608
88	0x3c21fb2d	0.009886545
89	0xbc6cd6e9	-0.014455535
90	0x3d401ae1	0.046900634
91	0xbc875de4	-0.016524263
92	0xbd62a334	-0.055331424
93	0x3cb6ed73	0.022330021
94	0xbd894d5e	-0.0670421
95	0xbcb4f41d	-0.022089059
96	0x3d9b42f1	0.075811274
97	0xbcc56eed	-0.024100745
98	0xbcde62a0	-0.027146637
99	0x3d46fb96	0.048579775
100	0x3cc2087b	0.023685684
101	0xbd15f4ac	-0.03661029
102	0x3d36d687	0.044638183
103	0x3de2c713	0.11073127
104	0xbd95a661	-0.07307125
105	0xbcaea121	-0.021317067
106	0xbd40fb26	-0.047114514
107	0x3a893440	0.0010467842
108	0xbcbce209	-0.023057
109	0xbd886ce5	-0.06661395
110	0x3cf9a394	0.030473508
111	0xbcba2c88	-0.022726312
112	0x3be974ee	0.007124535
113	0x3d179459	0.03700671
114	0xbc9bd7cf	-0.019023804
115	0xbd31e4ce	-0.043431096
116	0xbd81bb9a	-0.0633461
117	0xbc48831e	-0.012238292
118	0x3c0c192a	0.008550921
119	0x3da63f20	0.08117509

fc2.weight f4 [84, 120]
0	0x3cfd18a6	0.030895542
1	0xbd045d86	-0.032315753
2	0x3daa676f	0.0832051
3	0x3d6cf6a5	0.057852406
4	0x3d9c8ac1	0.07643653
5	0xbd96306b	-0.07333454
6	0xbd1f1e06	-0.038846992
7	0xbd85ecf0	-0.06539333
8	0xbe425082	-0.18976024
9	0xbc352039	-0.011055046
10	0x3d78a02f	0.060699638
11	0x3e2fcf54	0.17168933
12	0x3dbc8b6e	0.092062816
13	0xbd3e8f16	-0.046523176
14	0x3dde4fb5	0.10855047
15	0xbc1f2a59	-0.009714686
16	0x3d09495d	0.03351723
17	0x3c56ca08	0.013109691
18	0x3c8c8c7e	0.017156836
19	0xbd905788	-0.07047945
20	0xbcc035a9	-0.023463087
21	0x3da4af25	0.08041219
22	0x3e091a40	0.1338892
23	0x3dd85eea	0.105649784
24	0x3e0d1efa	0.13781348
25	0x3d5ef491	0.054432455
26	0x3d6a88be	0.057259314
27	0xbdaa296c	-0.08308682
28	0x3dd1b214	0.10239044
29	0x3d8ce46c	0.068795055
30	0xbc31e5af	-0.0108579835
31	0xbc08e6bc	-0.008355793
32	0xbd48a24d	-0.048982907
33	0xbb88ee0f	-0.0041787694
34	0x3d618682	0.055059917
35	0x3e0e5ec4	0.13903338
36	0x3c58a1ef	0.013222202
37	0x3c8747a9	0.016513662
38	0x3d262ab1	0.040568057
39	0x3ccd1b43	0.025037413
40	0xbdd645df	-0.104625456
41	0x3e119bca	0.14219585
42	0xbd0bd848	-0.03414181
43	0x3d6cc0a3	0.0578009
44	0xbd8b8a7a	-0.06813522
45	0x3d7bc7d1	0.061469857
46	0x3d02209c	0.03176938
47	0x3d826700	0.06367302
48	0xbc9c766c	-0.019099437
49	0xbb915ed8	-0.004436355
50	0x3e7c0472	0.24611071
51	0xbdefae5e	-0.1170318
52	0x3dc689be	0.09694241
53	0x3ac3c072	0.0014934673
54	0x3d2b8a30	0.041879833
55	0xbda41aec	-0.080129474
56	0x3d381fe0	0.044952273
57	0xbe0e8495	-0.13917764
58	0x3cc932ad	0.024560297
59	0xbd18beca	-0.037291326
60	0xbb6e99a4	-0.0036407495
61	0x3e4c7f31	0.19970395
62	0x3e05c42c	0.13063115
63	0x3de5b22c	0.11215624
64	0x3c45edee	0.012080653
65	0xbdb00758	-0.08595151
66	0x3dc309a7	0.095233254
67	0xbd065e20	-0.03280461
68	0x3e223d71	0.1584375
69	0xbd32b559	-0.043629978
70	0xbc57d5a7	-0.013173497
71	0xbdd5150b	-0.10404404
72	0x3e17aefb	0.14812844
73	0x3d18ea53	0.037332844
74	0xbda03015	-0.07821671
75	0xbb8c97e1	-0.0042905663
76	0x3d7e8394	0.0621372
77	0x3decc062	0.115601316
78	0xbd50efec	-0.051010057
79	0xbbadb73d	-0.0053013847
80	0x3d60888d	0.054817725
81	0x3cd410ca	0.025886912
82	0xbe26c17e	-0.16284749
83	0x3c409166	0.011753416
84	0x3de0484b	0.10951289
85	0xbd119289	-0.035540137
86	0x3e2c21fa	0.16809836
87	0x3d6548a6	0.055977486
88	0x3d700402	0.058597572
89	0x3c889243	0.016671306
90	0xbb8261f6	-0.003978963
91	0xbc8e30cc	-0.017357253
92	0x3cde2ada	0.027120043
93	0xbc5ccbf3	-0.01347636
94	0x3df01ab9	0.11723847
95	0x3d80edee	0.062953815
96	0xbe1b0399	-0.15138091
97	0xbe2e054c	-0.16994208
98	0x3e055e84	0.13024336
99	0xbbdfaad7	-0.0068257856
100	0xbcb38813	-0.021915471
101	0x3c523d2b	0.012831966
102	0xbd98a808	-0.074539244
103	0x3da085ba	0.07838006
104	0x3d3188a3	0.043343198
105	0xbdb153e9	-0.08658583
106	0xbd2708fd	-0.040780056
107	0x3ccd92f9	0.025094496
108	0xbd71c64b	-0.059026998
109	0xbd666274	-0.056246236
110	0x3b92b5f9	0.0044772592
111	0x3e159ea7	0.14611302
112	0xbd58de6f	-0.052946504
113	0xbc3cc8f7	-0.011522523
114	0xbad5830e	-0.0016289668
115	0xbe24abaf	-0.16081117
116	0x3df6eb23	0.120565675
117	0x3d8a4538	0.06751484
118	0xbcadd538	-0.021219835
119	0xbe0ddea7	-0.13854466
120	0xbde73da2	-0.112910524
121	0x3e3f546b	0.18684547
122	0x3d27de4e	0.04098349
123	0x3d7cbb3a	0.06170199
124	0xbde72075	-0.112854876
125	0x3e0f6a95	0.14005502
126	0x3e3579d0	0.17722249
127	0xbd139d84	-0.03603889
128	0x3dac1bb5	0.08403722
129	0x3cd3ec9d	0.025869662
130	0x3e1da631	0.15395428
131	0x3d456b0b	0.048197787
132	0x3dabde55	0.08392016
133	0xbda6f8d2	-0.081529275
134	0x3d409f14	0.04702671
135	0xbca4097f	-0.02002406
136	0xbde23bd3	-0.11046567
137	0xbdb847ad	-0.08998046
138	0x3c967133	0.018364524
139	0x3b83ca5d	0.0040219263
140	0x3e6a5fb9	0.22888078
141	0xbd417b5b	-0.04723678
142	0xbdfa1bd5	-0.1221234
143	0x3dcc356c	0.09971127
144	0xbd1db69f	-0.03850424
145	0xbda9a2d9	-0.08283014
146	0xbd5015b0	-0.050801933
147	0xbc780b84	-0.015139464
148	0x3d61ac38	0.05509588
149	0xbd0c570f	-0.034262713
150	0x3c4989a7	0.012300885
151	0x3d98cb12	0.074606076
152	0xbd7c944b	-0.06166486
153	0x3c708325	0.014679705
154	0x3d0ced55	0.034406025
155	0xbcc30e81	-0.023810627
156	0xbc95115d	-0.018196756
157	0x3d99fead	0.07519279
158	0xbd0b805f	-0.03405797
159	0x3dd7e48c	0.10541639
160	0xbec2e77e	-0.3806724
161	0x3da83e9f	0.08215069
162	0x3e0bceaf	0.13653062
163	0x3c862cb0	0.01637873
164	0x3e031a9e	0.12803122
165	0xbd9b8f68	-0.07595712
166	0xbd10f721	-0.03539193
167	0xbd932b33	-0.07185974
168	0xbae0bfcf	-0.0017147007
169	0xbc803e0c	-0.015654586
170	0x3cb7e228	0.022446707
171	0x3c878e5c	0.016547374
172	0xba6b721b	-0.00089815416
173	0xbd9615e2	-0.073283926
174	0x3d016ab4	0.0315959
175	0xbd0c1484	-0.034199253
176	0x3cbec841	0.023288848
177	0xbd10082e	-0.03516405
178	0x3d94b0a7	0.07260256
179	0x3dd8d705	0.10587887
180	0x3e08d265	0.13361509
181	0xbda7492b	-0.081682526
182	0x3e65ee1f	0.22454117
183	0x3de723ce	0.11286126
184	0xbd376a83	-0.044779312
185	0x3e716901	0.23575212
186	0xbd824a19	-0.06361789
187	0x3c5acb36	0.013354113
188	0xbd5c7bcc	-0.053829
189	0xbdbe4dc4	-0.09292176
190	0xbd59774a	-0.05309228
191	0x3d010570	0.031499326
192	0xbd524811	-0.05133826
193	0x3d244078	0.040100545
194	0x3dd1be7f	0.10241412
195	0x3d56e709	0.052466426
196	0xbe647530	-0.22310328
197	0xbdf26a98	-0.118367374
198	0x3dc35b09	0.09538848
199	0x3da4aa99	0.080403514
200	0x3dd313f7	0.10306542
201	0x3e9d8dd4	0.3077227
202	0x3e15b29b	0.14618914
203	0x3d8c30d6	0.06845252
204	0xbdc64d90	-0.096827626
205	0x3cf2e2af	0.029649107
206	0xbd82af51	-0.06381095
207	0x3e4929fb	0.1964492
208	0xbde10713	-0.109876774
209	0xbcc34d1e	-0.023840483
210	0x3db5d49a	0.08878441
211	0x3d975f34	0.073912054
212	0x3d77a527	0.060460236
213	0x3e24460b	0.16042344
214	0xbd414c2e	-0.04719179
215	0xbcd2159b	-0.025645068
216	0xbdfd51ef	-0.12369143
217	0x3da1cdf9	0.07900614
218	0xbd46c5c4	-0.048528448
219	0xbdf2927b	-0.11844345
220	0x3d420342	0.04736639
221	0xbca0e73b	-0.01964151
222	0xbe1fc70b	-0.15603273
223	0xbc139bdb	-0.009009327
224	0xbd620e7e	-0.055189602
225	0xbd2d2dea	-0.042280115
226	0x3d8ee541	0.069773205
227	0xbc280a98	-0.010256432
228	0xbe01e1a4	-0.12683731
229	0xbdc002e9	-0.09375555
230	0x3c4dc1f0	0.012558445
231	0xbd049798	-0.032371134
232	0xbdadaa2a	-0.08479722
233	0x3e8b10dd	0.27161303
234	0x3d5cf04c	0.053940102
235	0x3d68145d	0.056660045
236	0xbd2b81e5	-0.041871924
237	0xbd6d1afd	-0.057887066
238	0x3d4e0aa7	0.050303128
239	0x3e677e34	0.22606736
240	0x3d37b35d	0.04484879
241	0xbdaf47e4	-0.08558634
242	0x3bf14bf6	0.0073637916
243	0xbdf7a4bd	-0.12091968
244	0x3ddbece3	0.10738542
245	0x3c4fcae7	0.012682653
246	0x3e024ab2	0.12723807
247	0xbd8ed714	-0.06974617
248	0x3cec15f8	0.02881907
249	0xbc5b8402	-0.013398172
250	0x3e166982	0.14688686
251	0xbe3142c6	-0.17310628
252	0x3d01f0bf	0.031723734
253	0x3e1f41f1	0.15552498
254	0x3c783eaf	0.015151664
255	0xbcd72337	-0.026261909

fc2.bias f4 [84]
0	0x3cf8875b	0.03033798
1	0x3d9d3b0a	0.076772764
2	0x3d13e5c0	0.03610778
3	0xbc382764	-0.01123986
4	0xbdb50072	-0.088379756
5	0xbe0469a7	-0.12930928
6	0x3d23ad00	0.039959908
7	0xbd09676d	-0.0335459
8	0xbce213ba	-0.027597297
9	0xbd31385d	-0.043266643
10	0x3ce22ccb	0.02760925
11	0x3dcab684	0.09898093
12	0x3bc1d30d	0.005915052
13	0x3ce78603	0.028262144
14	0xbda34205	-0.079715766
15	0x3d3c5869	0.045982752
16	0xbd0ada09	-0.03389934
17	0x3dc28011	0.09497083
18	0xbdfecb62	-0.12441136
19	0xbc3a0340	-0.011353314
20	0xbdaa0ff1	-0.08303822
21	0x3cf44c4e	0.029821541
22	0x3cdefe57	0.027220888
23	0xbd7d8c7b	-0.06190155
24	0x3da04cb5	0.07827131
25	0xbd0505e6	-0.03247633
26	0x3bf3755c	0.007429762
27	0x3d9d96b8	0.07694763
28	0x3cff1d4f	0.031141905
29	0x3dd08112	0.10180868
30	0x3d434c58	0.04768023
31	0x3dc398ea	0.095506504
32	0xbdac27b7	-0.084060125
33	0xbc99c535	-0.018770793
34	0x3c5f875d	0.013643113
35	0x3d00dd82	0.031461246
36	0x3d71e33c	0.0590546
37	0x3cab5e83	0.02091909
38	0x3d160094	0.036621645
39	0x3dd95c83	0.10613348
40	0x3d3bc2a3	0.045839917
41	0x3dd39558	0.103312194
42	0x3d5531b9	0.052049372
43	0xbc17bfcd	-0.009262037
44	0xbd6e67fe	-0.058204643
45	0xbdba0108	-0.09082228
46	0xbd9a32cf	-0.07529222
47	0x3d053e2d	0.03253
48	0xbca083df	-0.019594131
49	0xbd654867	-0.05597725
50	0x3d454918	0.04816541
51	0x3d83fbb5	0.06444494
52	0xbc43d807	-0.01195336
53	0xbd710557	-0.058842983
54	0x3df5c949	0.12001283
55	0x3d9be4ab	0.07611974
56	0x3c9e40a5	0.019317934
57	0xbe1fd2f7	-0.1560782
58	0x3be0f828	0.00686552
59	0x3b96e03f	0.004604369
60	0x3e1cb9d0	0.15305257
61	0x3b3251e7	0.0027209462
62	0xbe2d40e6	-0.16919288
63	0xbc4132bb	-0.01179188
64	0x3c39261f	0.011300593
65	0xbdae4930	-0.08510053
66	0xbd0fe367	-0.035128977
67	0x3cdf7005	0.027275095
68	0x3da11d89	0.078669615
69	0xbc85e942	-0.016346578
70	0x3c31f31d	0.010861185
71	0x3d15d567	0.03658047
72	0x3ce9a455	0.028520742
73	0xbde5737e	-0.11203669
74	0x3d931155	0.0718104
75	0xbd544f06	-0.051833175
76	0xbc852b1e	-0.016255911
77	0xbd588ab7	-0.052866664
78	0x3bad42f9	0.005287525
79	0x3db1d5f0	0.086833835
80	0x3d788f8c	0.060683772
81	0xbdbd1809	-0.092331
82	0x3dcdeb45	0.1005464
83	0x3df3bbc8	0.11901051

fc3.weight f4 [10, 84]
0	0x3c129454	0.008946497
1	0xbc1e6365	-0.009667252
2	0xbcf29f3a	-0.02961694
3	0xbdc7aec5	-0.097501315
4	0xbeb5c92d	-0.35505047
5	0xbd98b3e5	-0.07456187
6	0x3dcd3fce	0.100219354
7	0xbdd7fd83	-0.105464004
8	0x3af35135	0.001856363
9	0xbc8caeeb	-0.017173251
10	0x3cf77f08	0.03021194
11	0xbdbb32b1	-0.09140528
12	0x3be3b8f5	0.006949539
13	0xbe8919ba	-0.2677744
14	0x3c903e8c	0.01760795
15	0x3b0b7098	0.0021276828
16	0xbe2a9cef	-0.16661428
17	0x3e07775b	0.13229124
18	0x3d93166f	0.07182013
19	0xbd4a3a6a	-0.049372114
20	0xbd1342b9	-0.035952304
21	0x3dba0b29	0.0908416
22	0xbdab02d7	-0.08350151
23	0x3dc06e52	0.09396042
24	0x3e855530	0.26041555
25	0xbe542ab3	-0.20719413
26	0xbe480fe2	-0.19537309
27	0xbc9754fd	-0.018473143
28	0x3dfe2068	0.12408525
29	0xbd5d0842	-0.053962953
30	0x3c56e142	0.013115229
31	0xbde56f82	-0.11202909
32	0x3dbbc9ba	0.09169336
33	0xbd767328	-0.060168415
34	0xbcc9a319	-0.024613904
35	0xbd4bbdfd	-0.049741734
36	0xbe293976	-0.16525826
37	0x3e0f1bd5	0.13975461
38	0xbe4a5714	-0.1975978
39	0xbbc55a28	-0.0060227104
40	0xbd33ede2	-0.043928035
41	0xbde8fd90	-0.11376488
42	0xbe80c937	-0.25153515
43	0x3dc4cb27	0.09609061
44	0x3db8e82b	0.090286575
45	0x3d818687	0.06324487
46	0xbdbf5fd8	-0.093444526
47	0xbe486737	-0.19570623
48	0xbf35104f	-0.7072801
49	0xbd5de86e	-0.05417674
50	0xbe1b723e	-0.15180299
51	0x3d90502a	0.0704654
52	0xbdae6124	-0.08514622
53	0x3dadd1df	0.08487295
54	0x3e17223c	0.14759153
55	0xbdc11c00	-0.09429169
56	0xbd1df373	-0.03856225
57	0xbe22b2b1	-0.15888478
58	0x3e1bc041	0.15210058
59	0xbcfcc846	-0.030857217
60	0x3e0272e4	0.1273914
61	0x3d43cbe6	0.047801875
62	0xbd4ad6a5	-0.049521107
63	0xbcd6e98c	-0.02623441
64	0xbd7bc910	-0.061471045
65	0x3b64b5a2	0.00348983
66	0xbe8802ad	-0.2656454
67	0xbc830b37	-0.015996559
68	0x3df339d7	0.118762664
69	0xbcf4eaaa	-0.029897053
70	0x3e33badf	0.17551754
71	0xbe4f0007	-0.20214854
72	0x3d00314b	0.03129701
73	0x3d2d4153	0.042298626
74	0xbd0ee5ff	-0.03488731
75	0xbe1a5e6d	-0.15075083
76	0xbce0cfe8	-0.027442887
77	0x3d44a6dc	0.048010692
78	0x3dc19196	0.094515964
79	0xbe3528dc	-0.17691368
80	0x3d4b6dac	0.049665138
81	0xbcdd95c7	-0.027048958
82	0xbd325e05	-0.043546695
83	0xbde7d844	-0.11320546
84	0xbe0bea85	-0.13663681
85	0x3e37b16e	0.17938778
86	0xbe9a1e28	-0.30101132
87	0xbe979652	-0.29606873
88	0xbdbd6988	-0.09248644
89	0xbd876d92	-0.06612696
90	0xbd9bfbe4	-0.07616404
91	0xbe27b04a	-0.16375843
92	0xbe3f3292	-0.18671635
93	0xbdf72140	-0.12066889
94	0x3c603d79	0.013686531
95	0xbe91f8d0	-0.2851014
96	0xbd1689ac	-0.036752388
97	0x3e049180	0.12946129
98	0x3d768e36	0.060194217
99	0xbd6aa8b6	-0.0572898
100	0xbe38cc2f	-0.1804664
101	0xbe3b8b42	-0.18314841
102	0xbd2e4678	-0.042547673
103	0x3d4712fc	0.04860209
104	0xbe15499f	-0.14578865
105	0x3da70f38	0.081571996
106	0xbe67b012	-0.22625759
107	0x3e01e1af	0.12683748
108	0xbdfc6934	-0.123247534
109	0x3dba4c6c	0.090966076
110	0xbe05dffb	-0.13073723
111	0xbe4accb6	-0.19804654
112	0xbe5f14d8	-0.21785295
113	0x3e037238	0.1283654
114	0xbe5a1017	-0.212952
115	0x3e11b4ba	0.14229098
116	0xbdff66f9	-0.12470812
117	0xbd745527	-0.05965152
118	0x3e28ab13	0.1647151
119	0xbc2c5231	-0.010517643
120	0x3e0820d6	0.13293776
121	0xbd206f46	-0.03916862
122	0x3e0accc6	0.13554677
123	0x3dc19981	0.09453107
124	0xbe3a7da8	-0.18211997
125	0x3d1b7958	0.03795752
126	0x3d20ee44	0.039289728
127	0xbb8e5e27	-0.00434472
128	0x3d2dc7c5	0.042426843
129	0x3d36eb95	0.044658262
130	0xbca66ed3	-0.020316517
131	0xbd93b459	-0.07212133
132	0x3e07c6d8	0.13259447
133	0xbd873e2b	-0.066036545
134	0xbdf15a26	-0.117847726
135	0x3dc2393b	0.09483572
136	0xbc8b655d	-0.017016107
137	0x3d4647a6	0.048408173
138	0xbd922cf4	-0.071374804
139	0xbda1db26	-0.07903127
140	0x3d8eb0ab	0.069672905
141	0xbe491fe3	-0.1964107
142	0xbe14c7a8	-0.14529288
143	0x3ddd1a02	0.10795976
144	0x3d857957	0.06517284
145	0x3d665dd9	0.056241844
146	0xbc5bcf68	-0.013416149
147	0x3c596420	0.013268501
148	0x3df4ff3d	0.11962745
149	0xbdcbcfc0	-0.099517345
150	0xbc3bfb0d	-0.011473429
151	0x3e66259b	0.22475283
152	0xbdc34295	-0.09534184
153	0xbe723c01	-0.23655702
154	0xbdeb409c	-0.11486933
155	0x3e0147ad	0.12624998
156	0xbe70bb6d	-0.23508997
157	0xbd5005ae	-0.050786667
158	0x3d863d35	0.06554643
159	0xbd4c3639	-0.0498564
160	0xbd8d5672	-0.06901254
161	0xbb60c3f0	-0.0034296475
162	0xbb9d61ab	-0.0048029027
163	0xbd95806e	-0.07299887
164	0xbe7a5253	-0.24445467
165	0xbd0a235d	-0.03372513
166	0x3de5001f	0.11181664
167	0x3dfeaa6f	0.124348514
168	0xbce1a843	-0.027546054
169	0x3dd088b4	0.10182324
170	0x3dacf24c	0.08444652
171	0xbe53265a	-0.20620099
172	0xbd704b86	-0.058665775
173	0xbcd0db62	-0.025495235
174	0xbe8856aa	-0.2662862
175	0xbe1b71a5	-0.1518007
176	0x3df22233	0.11822929
177	0xbd1918c8	-0.03737715
178	0x3b9b4cf5	0.0047393986
179	0x3da7818e	0.081790075
180	0xbe62ffba	-0.22167864
181	0x3d8aacdc	0.067712516
182	0xbe62a42a	-0.22132936
183	0x3d82309b	0.06356927
184	0x3d66adcb	0.056318086
185	0xbcbce7ae	-0.023059692
186	0xbdad6b37	-0.08467715
187	0xbb4c1b9b	-0.0031144384
188	0x3dde196f	0.10844695
189	0xbe701529	-0.23445572
190	0x3dbb25ba	0.09138055
191	0xbd8f0d00	-0.069849014
192	0xbcf6af08	-0.030112758
193	0x3d895d5d	0.06707261
194	0xbe372802	-0.17886356
195	0x3e163df1	0.14672066
196	0xbb391460	-0.0028240904
197	0x3da72826	0.081619546
198	0xbe4004dd	-0.18751855
199	0x3dc802be	0.09766148
200	0xbe446a70	-0.19181228
201	0xbd9ef3c8	-0.07761341
202	0xbe0eec63	-0.13957362
203	0xbbd1d233	-0.0064032315
204	0xbdcb58a3	-0.099290155
205	0x3d8f4626	0.06995802
206	0xbe1fbb1f	-0.15598725
207	0x3a4314aa	0.0007441739
208	0x3e398740	0.18118
209	0xbcf82b45	-0.03029407
210	0x3e09bba1	0.13450481
211	0xbe5a9cb4	-0.2134884
212	0xbd431703	-0.047629368
213	0xbd83eeac	-0.064420074
214	0xbc338e8e	-0.010959281
215	0xbd7ef590	-0.062245905
216	0xbdda9b71	-0.10674179
217	0xbd7c0a77	-0.061533418
218	0xbe75ea6f	-0.2401521
219	0xbe83b5c3	-0.2572461
220	0x3dc9bc77	0.098504
221	0x3c2eb7d7	0.010663948
222	0x3cc16078	0.02360557
223	0x3dc6a9c9	0.09700353
224	0x3c876309	0.016526716
225	0xbe2a6f02	-0.16643909
226	0xbd9ecae1	-0.0775354
227	0x3d805b00	0.06267357
228	0xbd87ab5f	-0.06624483
229	0xbde86315	-0.113470234
230	0x3de8523d	0.11343811
231	0x3dd9e8c4	0.106401
232	0xbc896458	-0.01677148
233	0xbe3295d4	-0.17439967
234	0xbe336ff5	-0.17523177
235	0xbc94c799	-0.018161582
236	0xbd97709a	-0.07394524
237	0x3d51ab57	0.051188793
238	0xbe29e3c7	-0.16590796
239	0xbe5dfb90	-0.21677995
240	0xbb6e4d89	-0.0036362133
241	0xbdc1921d	-0.09451697
242	0x3cdfd4ff	0.027323244
243	0x3cc6c24d	0.024262572
244	0x3e3008dc	0.1719088
245	0xbbe19a84	-0.006884875
246	0x3e2e5120	0.17023134
247	0xbe08e4d5	-0.13368542
248	0x3e3675df	0.17818402
249	0x3c96c9ee	0.018406834
250	0x3b93b722	0.004507915
251	0x3df07cb5	0.11742536
252	0x3dbd46a0	0.09241986
253	0xbddadb65	-0.106863774
254	0xbe618ab2	-0.22025564
255	0xbe1d80ec	-0.15381211

fc3.bias f4 [10]
0	0xbba186eb	-0.0049294136
1	0x3d6e0cf5	0.058117826
2	0x3c52c6c9	0.012864777
3	0x3d9d0e64	0.076687604
4	0xbde6de9c	-0.11272928
5	0xbcf9a213	-0.03047279
6	0xbdbe8a66	-0.09303741
7	0xbd56e8ec	-0.052468225
8	0xbd75d1e8	-0.060014635
9	0xbdaaf37f	-0.083472244
