models/Cutout-7-1-L_inf-PGD-0.3-40 BasicNet.pt (torch, 180615 bytes, 10 tensors)

conv1.weight f4 [6, 1, 5, 5]
0.0012622735 0.0017405371 0.0012626047 -0.0011037885 -0.0024983266 0.0024054653 0.0035398265 -0.0023063882
-0.01749596 -0.010806617 0.003992034 0.006760582 -0.0042706267 -0.02043171 -0.008340015 0.0014517438
0.006158042 0.9223681 -0.0021592542 -0.0004585585 -0.0027769876 -0.0038352755 -0.0007138168 0.0014179326
0.0008709429 0.00033890267 -0.0001374682 -0.00023666168 -0.0007062378 0.00012661717 0.000111433306 -0.0006207442
-0.0017322716 -0.0012590698 -0.0006693681 0.0013152979 0.00037513248 -0.0015387719 -0.0018954328 -0.0013957982
0.00070154236 0.0022367989 0.0054374337 0.004179236 -0.000289184 0.0042538876 0.021061895 0.70416737
0.011749416 0.00079978694 -0.00025639712 0.0005505495 -0.00045662577 -0.001212203 -0.0012636264 4.788442e-05
0.00036280233 -0.0022259462 0.00057130767 -0.0022106036 -0.000494856 -0.00078530004 -0.00032497197 0.8569964
-4.599068e-05 -0.0008249523 -0.001206373 -0.00029243575 0.004971962 0.0017215357 -0.00030824245 -0.00046579435
-0.00031675395 0.00022270011 0.0012460321 -0.0020921335 -0.0029733605 -0.007207644 -0.006119767 0.0015230351
0.0015327608 0.0034033097 -0.037964832 -0.02435057 -0.0011517141 0.0026132565 0.006042838 -0.095842786
-0.030956855 0.0017740306 -0.0014809993 0.007703009 0.020630222 0.0014349542 0.0018454586 -0.0011293708
0.012322707 0.008698473 -0.001225123 -0.00071287836 -0.0027356672 -0.0021109856 0.00012408108 0.0038212675
0.0031728784 -0.003234213 -0.0018832939 0.011684894 0.022898627 0.0077251876 -0.0037149994 -0.0030276093
0.03452711 0.022258006 0.0052787447 -0.0026756085 0.0006884251 0.5315418 0.009456538 0.0006309454
-0.000970238 0.0022369637 0.0028474254 -0.0007440591 -0.00029882463 0.0002093457 0.0012372979 0.002046292
0.0006822809 0.0005911201 0.0012317006 0.004575906 0.0045271544 0.0011250196 0.0019810759 0.0025652314
0.023905078 0.012397407 0.002123649 0.0012494002 0.00374746 0.73795104 0.010638315 0.001403112
0.0007978934 0.0013317115 0.021615768 0.0073375427 -6.152745e-05 -0.0016088639
00000000: df72 a53a bc22 e43a fc7d a53a ffac 90ba
00000010: f7ba 23bb 03a5 1d3b 6ffc 673b c626 17bb
00000020: b053 8fbc 3d0e 31bc 9ccf 823b df87 dd3b
00000030: 9df0 8bbb 6760 a7bc 8fa4 08bc 7048 be3a
00000040: 66c9 c93b 5120 6c3f 4682 0dbb ae6a f0b9
00000050: 1ffe 35bb 3f59 7bbb 6f1f 3bba ecd9 b93a
00000060: fd4f 643a bfae b139 5725 10b9 6328 78b9
00000070: d122 39ba 8ac4 0439 4db1 e938 70b9 22ba
00000080: 640d e3ba 5f07 a5ba 8878 2fba 1366 ac3a
00000090: 6ead c439 9eb0 c9ba 2c70 f8ba 37f3 b6ba
000000a0: b6e7 373a 4297 123b 802c b23b f9f1 883b
000000b0: 9f9d 97b9 3264 8b3b ff89 ac3c 5044 343f
000000c0: 9f80 403c cba8 513a 0a6d 86b9 c052 103a
000000d0: 4667 efb9 c8e2 9eba 44a0 a5ba 81d7 4838
000000e0: 8136 be39 2ee1 11bb cfc3 153a c6df 10bb
000000f0: 39b9 01ba 98dc 4dba 0061 aab9 1e64 5b3f
00000100: 1ee6 40b8 9d41 58ba 291f 9eba 1052 99b9
00000110: d7eb a23b 27a5 e13a 9a9b a1b9 dc35 f4b9
00000120: ff11 a6b9 9b84 6939 e651 a33a 2d1c 09bb
00000130: b6dc 42bb 1a2e ecbb 5488 c8bb 94a0 c73a
00000140: ebe6 c83a 100a 5f3b 0381 1bbd d97a c7bc
00000150: 1df5 96ba 2b43 2b3b 0003 c63b 3949 c4bd
00000160: 3b99 fdbc 9786 e83a 171e c2ba 8669 fc3b
00000170: b600 a93c 1315 bc3a 51e3 f13a 6507 94ba
00000180: 2ee5 493c 0a84 0e3c 4e94 a0ba 75e0 3aba
00000190: e148 33bb 7658 0abb c31b 0239 3b6e 7a3b
000001a0: 11f0 4f3b 17f5 53bb dbd8 f6ba ff71 3f3c
000001b0: e795 bb3c 9223 fd3b 5977 73bb db6a 46bb
000001c0: 4d6c 0d3d 6c56 b63c 52f9 ac3b 4359 2fbb
000001d0: 6d77 343a 2013 083f 98ef 1a3c 0766 253a
000001e0: 9257 7eba 069a 123b df9b 3a3b f60c 43ba
000001f0: 90ab 9cb9 cf83 5b39 d42c a23a 151b 063b
00000200: 19db 323a 66f5 1a3a 0471 a13a 7bf1 953b
00000210: 8658 943b 6575 933a f0d4 013b 711d 283b
00000220: 95d4 c33c 7e1e 4b3c eb2c 0b3b eac2 a33a
00000230: f297 753b 5cea 3c3f 544c 2e3c a0e8 b73a
00000240: b829 513a d38c ae3a 8d13 b13c c56f f03b
00000250: 4c08 81b8 84e0 d2ba

conv1.bias f4 [6]
-0.29537934 -0.21129969 0.09628612 -0.12154728 -0.17423464 -0.21980633
00000000: f63b 97be f25e 58be a831 c53d c8ed f8bd
00000010: 916a 32be e914 61be

conv2.weight f4 [16, 6, 5, 5]
-0.005743866 0.005885823 0.038753472 0.043098968 0.024830492 -0.04811769 -0.017710509 -0.09695826
0.016859632 0.08739396 -0.041244052 -0.09717121 0.0044516255 0.0813809 0.06067753 0.034779686
0.080836356 0.042884298 0.045022972 -0.11067602 0.0190249 0.055128243 0.046599552 -0.064828254
-0.0035343433 0.005978663 -0.022374848 -0.050340768 -0.036596686 0.04477258 -0.034332223 -0.086318485
-0.14688408 0.059689257 0.083211355 -0.042517703 -0.07374875 0.09366453 0.118211105 -0.065646306
0.009884618 0.077814184 0.09737507 -0.01118464 -0.10592323 0.029710827 0.09962124 0.011555357
-0.06362451 0.05674788 0.003468064 0.030670641 0.010395524 -0.01250181 -0.0681655 -0.029902805
-0.05045614 -0.0493214 0.06787774 0.09652301 -0.046808843 -0.24585664 0.008940998 0.17160922
0.09350792 -0.07050952 -0.0022261657 0.16592135 0.1350768 -0.17440781 0.03183502 0.11504205
0.13631572 -0.09172008 -0.023693802 -0.0054528643 -0.0020140384 -0.010673453 -0.011874263 -0.014301063
0.0021409485 0.00286669 -0.02871195 -0.012770343 0.00797258 0.0051884684 -0.03327298 -0.03155921
0.019426806 0.017728781 -0.0068778098 -0.030500647 0.0013067971 0.02069221 -0.006428396 0.001010836
-0.015243924 -0.0028863896 -0.0013544215 -0.0064017503 0.009563053 0.011437951 0.0026933677 -0.031299073
-0.023001274 0.008474067 -0.042876113 -0.16699798 0.002614147 0.06809926 0.048178803 -0.18165608
-0.07340658 0.16059786 0.08828009 -0.017492073 -0.048768178 0.13691446 0.15400285 -0.15663828
-0.031929776 0.03234542 0.072923936 -0.09475863 -0.04359328 -0.019814737 0.018587545 0.019119035
-2.1669824e-05 -0.025255548 -0.020869149 -0.0076090298 -0.089437895 -0.10795381 0.08443797 -0.0336505
-0.06711763 -0.11973798 0.09841519 0.1358851 0.012110059 -0.036007617 0.059763327 0.119846374
-0.031043356 0.029870585 0.044940908 0.10398602 0.017809816 -0.09792045 -0.016703406 0.06794146
0.00525548 0.010180974 -0.15252368 0.020353232 0.08381657 0.04430753 -0.20714384 -0.44024622
0.040126428 0.052964218 0.016705198 -0.6042899 0.002632586 0.0009433753 0.075808376 0.012428124
-0.11590496 -0.013695685 -0.00070237357 0.04524413 0.017986054 -0.015500613 -0.030943986 -0.017936945
0.0736046 0.019854782 -0.031603158 -0.3831884 0.05400762 0.038145915 0.045732103 -0.39344004
-0.057153877 0.056532435 0.040622313 -0.021465324 -0.24720903 0.073342524 -0.01573199 0.0025927562
0.011347744 -0.018065294 0.0014231554 -0.018416172 -0.010492691 0.05579982 0.0262792 0.006363939
0.06337109 0.12443252 0.08665578 0.0060144714 -0.0731529 0.122776546 0.05405227 0.1141906
-0.22002149 -0.11061003 0.16521958 0.10268409 -0.0541657 -0.33039883 -0.04217327 0.1173554
0.10809369 -0.21468247 -0.072815575 -0.034164596 0.059296504 0.06369906 -0.012835038 -0.06251301
-0.031455908 -0.0015196634 0.011065415 0.00683509 0.0026613413 0.0038235236 -0.0069362056 0.017323129
0.008961912 -0.0014811684 0.002981684 0.0223517 0.03778693 -0.0042802095 -0.016290208 0.009638496
0.01106002 0.030439258 -0.0075712744 -0.006866371 0.0131040355 0.004562478 0.014423415 -0.0011467079
0.0012561223 0.0054255268 -0.019451926 0.06445241 0.05742751 0.06467662 -0.026868243 0.09156873
00000000: 0a37 bcbb dddd c03b f6bb 1e3d 8b88 303d
00000010: 5169 cb3c 0e17 45bd a115 91bc 0d92 c6bd
00000020: 361d 8a3c 9bfb b23d 86ef 28bd b301 c7bd
00000030: f1de 913b 08ab a63d 0089 783d 2575 0e3d
00000040: 888d a53d 72a7 2f3d 026a 383d 1caa e2bd
00000050: 1bda 9b3c 27ce 613d 2cdf 3e3d adc4 84bd
00000060: 71a0 67bb a9e8 c33b 754b b7bc 1f32 4ebd
00000070: 68e6 15bd 7463 373d f29f 0cbd bfc7 b0bd
00000080: c868 16be b97c 743d b76a aa3d 0b27 2ebd
00000090: 9609 97bd 30d3 bf3d aa18 f23d 9271 86bd
000000a0: 18f3 213c 0b5d 9f3d 956c c73d c83f 37bc
000000b0: 47ee d8bd 1f64 f33c 3806 cc3d ae52 3d3c
000000c0: 914d 82bd 7770 683d 7548 633b ff40 fb3c
000000d0: fd51 2a3c 64d4 4cbc 5b9a 8bbd baf6 f4bc
000000e0: 19ab 4ebd 3c05 4abd 7c03 8b3d dbad c53d
000000f0: a1ba 3fbd d8c1 7bbe 447d 123c 54ba 2f3e
00000100: 1581 bf3d 4c67 90bd dde4 11bb 49e7 293e
00000110: 9351 0a3e f697 32be 7065 023d 2b9b eb3d
00000120: 5996 0b3e bdd7 bbbd 8119 c2bc f1ad b2bb
00000130: f5fd 03bb b5df 2ebc 458c 42bc 014f 6abc
00000140: 284f 0c3b 14df 3b3b 5335 ebbc b33a 51bc
00000150: 6d9f 023c 0704 aa3b 4049 08bd 3b44 01bd
00000160: f724 9f3c f33b 913c 405f e1bb 7edc f9bc
00000170: d648 ab3a b682 a93c 4ba5 d2bb 077e 843a
00000180: a7c1 79bc 9529 3dbb d886 b1ba c6c5 d1bb
00000190: 5aae 1c3c 3e66 3b3c 3683 303b 7533 00bd
000001a0: 2b6d bcbc d0d6 0a3c dd9e 2fbd 8501 2bbe
000001b0: 1c52 2b3b a077 8b3d 2357 453d 0d04 3abe
000001c0: 3056 96bd c473 243e 31cc b43d 894b 8fbc
000001d0: 24c1 47bd 4e33 0c3e ecb2 1d3e c965 20be
000001e0: ccc8 02bd a27c 043d 2559 953d d010 c2bd
000001f0: de8e 32bd 8452 a2bc e844 983c 869f 9c3c
00000200: 98c7 b5b7 b9e4 cebc c7f5 aabc 2b55 f9bb
00000210: 372b b7bd e316 ddbd d0ed ac3d 1bd5 09bd
00000220: f874 89bd 3039 f5bd e78d c93d 7725 0b3e
00000230: 4569 463c b97c 13bd 64ca 743d 0472 f53d
00000240: a34e febc 28b3 f43c f513 383d 9ff6 d43d
00000250: e4e5 913c 848a c8bd 95d5 88bc e424 8b3d
00000260: 2936 ac3b 1ace 263c 2b2f 1cbe d2bb a63c
00000270: 06a8 ab3d d07b 353d 841d 54be f467 e1be
00000280: 9c5b 243d 02f1 583d 57d9 883c beb2 1abf
00000290: 7787 2c3b d84c 773a 6c41 9b3d 559f 4b3c
000002a0: 945f edbd de63 60bc 7e1f 38ba e951 393d
000002b0: 7d57 933c 48f6 7dbc 3e7e fdbc 80f0 92bc
000002c0: 02be 963d 7fa6 a23c 5072 01bd 4531 c4be
000002d0: 1837 5d3d e43e 1c3d 9651 3b3d f970 c9be
000002e0: 2f1a 6abd 8e8e 673d 9563 263d 0cd8 afbc
000002f0: 5d24 7dbe 9b34 963d 60e0 80bc 3beb 293b
00000300: e3eb 393c abfd 93bc 2c89 ba3a 83dd 96bc
00000310: 89e9 2bbc 5a8e 643d 7a47 d73c 9788 d03b
00000320: b4c8 813d 7ad6 fe3d 9678 b13d 0b15 c53b
00000330: 30d1 95bd 4572 fb3d ea65 5d3d c3dc e93d
00000340: 504d 61be 8387 e2bd 522f 293e 094c d23d
00000350: dadc 5dbd 092a a9be e1bd 2cbd 0758 f03d
00000360: 3960 dd3d b9d5 5bbe 5520 95bd 2df0 0bbd
00000370: e4e0 723d a774 823d 0d4a 52bc d206 80bd
00000380: e9d7 00bd 712f c7ba b74b 353c e4f8 df3b
00000390: e669 2e3b 1594 7a3b 1c49 e3bb 3ce9 8d3c
000003a0: fcd4 123c c423 c2ba 5b68 433b ea1a b73c
000003b0: 78c6 1a3d 0041 8cbb 0b73 85bc c8ea 1d3c
000003c0: 1635 353c c05b f93c 7418 f8bb 4bff e0bb
000003d0: 4fb2 563c d780 953b 3050 6c3c 224d 96ba
000003e0: 78a4 a43a 9ec8 b13b a559 9fbc a0ff 833d
000003f0: 1c39 6b3d 2d75 843d ca1a dcbc 6388 bb3d

conv2.bias f4 [16]
-0.17561172 -0.053250864 -0.20912263 -0.06805047 -0.18047157 0.553678 0.13652617 0.06381151
0.5977859 0.018301835 0.11343843 0.40883228 0.3774527 1.1380233 0.5636234 0.3974721
00000000: 8fd3 33be 941d 5abd 3e24 56be 0b5e 8bbd
00000010: 8acd 38be d7bd 0d3f 84cd 0b3e 9caf 823d
00000020: 7f08 193f bbed 953c 6852 e83d 7752 d13e
00000030: 7b41 c13e bfaa 913f a049 103f 7781 cb3e

fc1.weight f4 [120, 256]
-0.072877064 0.010972711 0.044866312 -0.0063986587 -0.048324294 -0.059024777 0.039799575 -0.03852579
0.030114194 -0.06771286 -0.05760445 0.020646613 0.023853367 -0.047225818 0.004805203 -0.029220574
0.006091051 -0.048694316 -0.07293336 -0.025589975 0.022463918 -0.078710146 -0.004277767 -0.011537481
0.015766654 -0.015348658 0.010669757 -0.003751467 -0.021190463 -0.03238726 0.0014999253 0.039799754
-0.059253443 0.017881062 -0.029602733 -0.038424127 -0.09258481 -0.043081105 -0.01874542 0.036954675
-0.08307189 -0.054688435 -0.03812622 0.018182497 -0.051285926 -0.041883558 -0.02083335 0.015386458
-0.032047734 0.043970663 -0.03013575 -0.05367945 -0.034714684 -0.020617358 -0.03042242 0.035500824
0.008043451 0.040145725 0.0023292338 0.054426827 -0.045761287 -0.054420628 -0.010157071 0.03693097
0.030335551 -0.01597477 -0.07704292 0.029417615 -0.051128436 0.0024543933 -0.08196278 -0.035793282
-0.0034311863 -0.05206785 -0.081155546 -0.03142072 -0.010177335 0.0027829714 -0.06504227 -0.005551749
-0.08491334 0.022043847 -0.06339132 -0.06266441 0.05658962 -0.048082486 -0.066519275 -0.055579714
-0.024391785 0.015332257 -0.009519951 -0.033136018 -0.005003676 -0.040408865 0.021512656 -0.025999457
-0.03560646 -0.06477098 -0.03335011 -0.0018110595 -0.014055471 -0.07473604 -0.09001605 -0.079609245
-0.058113262 0.0041354573 -0.06822264 -0.05144973 -0.00946921 -0.06394808 0.04473363 -0.007639241
0.027793162 -0.059591573 -0.013743711 -0.060067076 -0.0960106 0.044290964 -0.028818462 0.0054248553
0.0033240172 -0.056960363 0.03538081 -0.068358034 0.009853188 -0.028856488 0.03589394 -0.0234659
-0.0063867145 0.026701069 -0.050661173 0.052145064 0.033299826 -0.0012638763 -0.046791364 -0.060909204
-0.031903155 0.022808425 -0.07080412 -0.06247921 0.06030728 -0.07293219 0.0014103485 0.015695136
-0.05079241 -0.025374394 -0.07218066 -0.020518312 0.03945121 -0.0027680222 0.024873123 -0.021371078
0.026462734 -0.017563071 -0.0004492567 -0.031592224 -0.008808534 0.013230318 0.028815027 -0.06594673
0.020185485 -0.045161825 -0.014792244 -0.017532201 -0.055314034 -0.0069686226 0.0136940675 0.011683703
-0.056458555 -0.05312977 0.023285627 0.0009577185 0.04775336 -0.003916134 -0.088046275 -0.042553402
-0.022694211 0.01434031 0.021192782 -0.0200641 -0.072615914 -0.056941044 -0.026316922 0.0073032076
-0.044750955 0.027676275 -0.09077226 -0.027037082 -0.06551174 -0.022005321 -0.052641228 -0.02225484
0.024398236 0.042428523 -0.03522189 -0.040204845 -0.039600477 -0.05994048 -0.07065262 0.012677958
-0.07354716 -0.053765725 -0.020741936 0.035996832 -0.035432186 -0.028332865 -0.036558762 -0.01813762
-0.032699607 -0.0574717 0.019111253 0.0026289076 -0.024564937 -0.031483516 -0.030811835 -0.027806029
0.041502185 -0.023337433 -0.017985655 -0.0063559483 0.027011119 0.006560117 0.029867513 0.03603422
-0.042810522 -0.06913178 -0.0722668 -0.031012505 -0.039479427 -0.034302685 0.029774522 -0.018834418
-0.021604719 0.036655553 0.012074368 0.004971042 0.0083059585 0.01470426 -0.013238683 -0.0415842
0.034584925 -0.056707818 -0.028460696 -0.018789196 0.019939728 -0.06428357 0.0054590916 0.013344274
-0.08090321 -0.034674454 -0.000105999046 -0.029233435 -0.04524732 0.016260594 0.025487132 0.010086322
00000000: 9240 95bd e3c6 333c bdc5 373d d7ab d1bb
00000010: b2ef 45bd f7c3 71bd e104 233d 38cd 1dbd
00000020: 0bb2 f63c 0aad 8abd a5f2 6bbd 1623 a93c
00000030: 2368 c33c dc6f 41bd f774 9d3b fc5f efbc
00000040: 7097 c73b b173 47bd 165e 95bd 11a2 d1bc
00000050: 4006 b83c c932 a1bd 832c 8cbb b407 3dbc
00000060: 1229 813c f078 7bbc 34d0 2e3c 2cdb 75bb
00000070: 9f97 adbc 81a8 04bd 2499 c43a 1105 233d
00000080: bdb3 72bd 4e7b 923c 6e81 f2bc 9e62 1dbd
00000090: 1b9d bdbd d075 30bd ff8f 99bc c95d 173d
000000a0: 9821 aabd fb00 60bd 3d2a 1cbd 76f3 943c
000000b0: 3111 52bd 188e 2bbd b4aa aabc 7b17 7c3c
000000c0: 7c44 03bd 951a 343d 40df f6bc fcde 5bbd
000000d0: fc30 0ebd bce5 a8bc 7038 f9bc 5069 113d
000000e0: aec8 033c d86f 243d 0fa6 183b aaee 5e3d
000000f0: 3070 3bbd 2ae8 5ebd d869 26bc ee44 173d
00000100: 4382 f83c 85dd 82bc aec8 9dbd 36fd f03c
00000110: 0d6c 51bd e3d9 203b 1adc a7bd fa9b 12bd
00000120: c1dd 60bb 1945 55bd e134 a6bd 03b3 00bd
00000130: d6be 26bc 8362 363b e234 85bd 72eb b5bb
00000140: 0ce7 adbd 4c95 b43c 4fd3 81bd 3356 80bd
00000150: 84ca 673d 24f2 44bd 423b 88bd 8ea7 63bd
00000160: 48d1 c7bc 2634 7b3c 92f9 1bbc a2b9 07bd
00000170: e0f5 a3bb c483 25bd 4f3b b03c d0fc d4bc
00000180: 14d8 11bd a6a6 84bd 209a 08bd 1361 edba
00000190: eb48 66bc 350f 99bd 565a b8bd 2c0a a3bd
000001a0: 2c08 6ebd bb82 873b 50b8 8bbd f4bc 52bd
000001b0: bf24 1bbc 36f7 82bd 9c3a 373d 9952 fabb
000001c0: 7cae e33c 4b16 74bd 4d2d 61bc e508 76bd
000001d0: 35a1 c4bd 716a 353d b214 ecbc fcc2 b13b
000001e0: c1d7 593b 454f 69bd 78eb 103d 4cff 8bbd
000001f0: 446f 213c 7164 ecbc 8605 133d 8f3b c0bc
00000200: a547 d1bb 33bc da3c 1782 4fbd 1096 553d
00000210: 6665 083d a7a8 a5ba 4da8 3fbd ee7b 79bd
00000220: e2ac 02bd bcd8 ba3c c001 91bd 33ea 7fbd
00000230: c404 773d 795d 95bd 71db b83a 1693 803c
00000240: b40b 50bd f6dd cfbc 74d3 93bd 0516 a8bc
00000250: 9897 213d b567 35bb b8c2 cb3c 6612 afbc
00000260: 60c8 d83c 6ee0 8fbc 378a ebb9 d966 01bd
00000270: ab51 10bc fac3 583c 7e0d ec3c 140f 87bd
00000280: 085c a53c 9bfb 38bd 2b5b 72bc b19f 8fbc
00000290: f890 62bd 0b59 e4bb 155d 603c 016d 3f3c
000002a0: 1641 67bd 9a9e 59bd 80c1 be3c 670f 7b3a
000002b0: 0799 433d ea52 80bb 9b51 b4bd 7a4c 2ebd
000002c0: 36e9 b9bc 9ff3 6a3c 7c9c ad3c 785d a4bc
000002d0: a7b7 94bd 033b 69bd 9696 d7bc bf4f ef3b
000002e0: c74c 37bd 5bb9 e23c cfe6 b9bd df7c ddbc
000002f0: 052b 86bd 8144 b4bc 549e 57bd c84f b6bc
00000300: cfde c73c 88c9 2d3d d444 10bd d6ad 24bd
00000310: 1c34 22bd 2684 75bd 52b2 90bd 36b7 4f3c
00000320: e59f 96bd 7339 5cbd feea a9bc 6a71 133d
00000330: 5721 11bd 531a e8bc a4be 15bd 5995 94bc
00000340: 06f0 05bd 7267 6bbd 348f 9c3c c049 2c3b
00000350: 683c c9bc dcf4 00bd 1a69 fcbc 78c9 e3bc
00000360: 32fe 293d 252e bfbc a756 93bc 8f45 d0bb
00000370: 6c46 dd3c 40f6 d63b b7ac f43c 9e98 133d
00000380: 165a 2fbd f694 8dbd 9e00 94bd f00d febc
00000390: 2eb5 21bd f980 0cbd b3e9 f33c a34a 9abc
000003a0: 61fc b0bc 2224 163d 92d3 453c 1fe4 a23b
000003b0: b715 083c 23ea 703c 10e7 58bc 3254 2abd
000003c0: eca8 0d3d 7546 68bd 6826 e9bc cdeb 99bc
000003d0: a458 a33c 1ba7 83bd 2ee2 b23b f1a1 5a3c
000003e0: 95b0 a5bd cd06 0ebd ce4b deb8 f57a efbc
000003f0: 4155 39bd f034 853c 64ca d03c 1a41 253c

fc1.bias f4 [120]
-0.049824543 -0.06563152 0.2117477 -0.0823466 -0.050003745 0.01513566 -0.05608227 -0.039212417
0.12831394 -0.016959392 -0.06445738 -0.0066746185 -0.06286382 0.026065754 0.015771646 0.22071221
-0.014096194 0.08401711 0.019605873 0.13396583 0.057063214 0.13425228 0.09776159 0.047603216
-0.006008868 0.003779203 -0.061813496 -0.015464593 0.10557799 -0.06366067 0.12136565 0.095286064
-0.0050672763 -0.076972775 0.038545202 0.07117947 0.14460818 -0.033420388 0.03236395 -0.04186701
0.039176885 0.00085820846 -0.015264262 0.015326516 0.0625588 0.05350148 -0.020170681 0.026139976
-0.08522957 0.030665006 -0.013241186 -0.0038767108 -0.104774676 -0.0048527466 0.03156986 0.0015039446
-0.015206633 -0.034871124 -0.03410505 0.013550155 0.008150546 -0.058265496 0.02103815 0.007601689
0.0047799177 0.012395644 -0.0014484583 0.030042429 -0.004273371 -0.0019516997 -0.049656432 0.03386112
-0.005550532 0.039589383 0.048557222 -0.012701509 -0.033744276 -0.054423578 -0.041005295 -0.03475799
-0.039057627 -0.05298194 0.047679495 -0.06680677 -0.08338096 -0.047262795 -0.036048777 -0.06686504
0.030774789 -0.061534192 0.05091564 0.110475086 0.103188924 0.01726836 -0.020508358 0.012289377
-0.041137367 0.061641995 -0.03508427 0.12294535 0.19869213 0.0144123025 0.15549482 -0.047226865
0.110642344 0.21021752 0.11448439 0.02070119 0.09435013 0.12623557 0.011015144 0.04587236
-0.0008870194 0.07674974 0.07417901 -0.04680912 0.045484476 0.014839514 0.015433142 -0.056624193
00000000: d214 4cbd d169 86bd 64d4 583e 56a5 a8bd
00000010: bad0 4cbd 8ffb 773c 86b6 65bd 339d 20bd
00000020: bb64 033e 6cee 8abc 3b02 84bd c2b6 dabb
00000030: bfbe 80bd d987 d53c 8a33 813c 6202 623e
00000040: b9f3 66bc 2a11 ac3d 7f9c a03c 572e 093e
00000050: 1ebb 693d 6e79 093e 3a37 c83d 97fb 423d
00000060: 0ae6 c4bb 81ac 773b 2630 7dbd 345f 7dbc
00000070: 4639 d83d 8660 82bd 8e8e f83d 5725 c33d
00000080: 650b a6bb e7a3 9dbd 93e1 1d3d 8bc6 913d
00000090: 2b14 143e d1e3 08bd 1090 043d be7c 2bbd
000000a0: f177 203d 65f9 603a f516 7abc 111c 7b3c
000000b0: d41e 803d 5e24 5b3d fc3c a5bc 8123 d63c
000000c0: d78c aebd 2e35 fb3c 8ff1 58bc 6a10 7ebb
000000d0: 1b94 d6bd ca03 9fbb 664f 013d 0220 c53a
000000e0: 3e25 79bc 06d5 0ebd bdb1 0bbd 7801 5e3c
000000f0: de89 053c cda7 6ebd 3358 ac3c 9717 f93b
00000100: dba0 9c3b 1917 4b3c 32da bdba 8a1b f63c
00000110: a207 8cbb 2dd0 ffba 8b64 4bbd f5b1 0a3d
00000120: 3de1 b5bb 7a28 223d f0e3 463d fd19 50bc
00000130: 7037 0abd 42eb 5ebd 2bf5 27bd 655e 0ebd
00000140: e4fa 1fbd 9703 59bd 934b 433d fdd1 88bd
00000150: a3c3 aabd a296 41bd e2a7 13bd 8af0 88bd
00000160: 691b fc3c 470b 7cbd eb8c 503d c340 e23d
00000170: b754 d33d 6076 8d3c 2501 a8bc 6259 493c
00000180: a87f 28bd 517c 7c3d 86b4 0fbd c6ca fb3d
00000190: f375 4b3e 9421 6c3c 093a 1f3e f570 41bd
000001a0: 7498 e23d 4343 573e cb76 ea3d 8b95 a93c
000001b0: a43a c13d e643 013e dd78 343c a8e4 3b3d
000001c0: dd86 68ba f82e 9d3d 2aeb 973d ebba 3fbd
000001d0: ee4d 3a3d 6f21 733c 4adb 7c3c c5ee 67bd

fc2.weight f4 [84, 120]
-0.065744445 0.07222144 0.02915031 0.054256536 -0.0058088982 -0.017672384 0.010845801 -2.7510634e-05
-0.15671119 0.06529161 -0.06221101 0.0592064 -0.015005344 -0.042247366 0.030618465 0.09627283
0.043251168 0.03167269 0.03284901 0.04268271 0.02834597 -0.08478474 -0.025271602 -0.20462522
-0.07712102 -0.060297977 0.08380561 0.062630534 0.09880323 0.06651179 -0.04297171 0.074829735
-0.029567614 0.042204533 0.03199417 0.06821384 0.10745471 0.057994336 -0.03108109 0.01853359
-0.0820748 -0.0060271164 0.046817422 -0.054353554 0.041738346 -0.069755346 0.013430355 0.16368505
-0.005667216 -0.1067509 -0.055831067 0.06431588 0.01604531 0.068646245 0.051933546 -0.08406397
0.07055382 0.052888386 -0.023796508 0.00012524876 0.025011644 0.012645123 0.010301183 0.044569504
-0.000978483 0.12939024 -0.032519333 -0.0019817234 -0.07282356 0.0064842114 0.056524724 0.25315058
-0.06150784 -0.0469551 0.017806437 -0.075907074 0.0717298 0.07849334 0.09985387 -0.033133652
-0.032236267 -0.03458939 -0.019189553 -0.040588815 -0.06482703 -0.08878188 -0.030055832 -0.0156287
-0.0418452 -0.025666354 0.08323936 -0.13833001 0.020271735 0.026541328 -0.011774491 0.005099125
-0.095266975 0.027701965 0.009626786 -0.024100065 -0.07976963 -0.032751523 0.090772375 0.012673123
0.084223256 0.071044445 0.058528192 0.068412304 0.14464971 0.17932849 -0.024016889 0.28803885
0.069199994 -0.0037787594 0.14897765 -0.067508765 0.014916209 -0.029961646 -0.051695682 0.09572163
0.044484925 0.031120276 0.12822337 0.020143423 0.00075863133 0.023878306 -0.0040880973 0.08978594
0.18467452 -0.08503541 0.007643416 -0.0702681 -0.020522274 -0.02518025 -0.0036137567 0.27113023
0.0910734 -0.06551121 0.08749331 0.043247968 0.08882708 -0.055058815 -0.039590757 -0.08342248
0.0011441904 -0.006220422 -0.033966687 0.031533178 -0.09942931 0.050061125 -0.059709925 -0.03892252
-0.035676897 -0.029694088 0.09154987 -0.031032816 -0.048956975 0.031819575 -0.13709646 0.09237881
-0.06516407 0.051852293 -0.0334541 0.0785545 0.13320531 0.05871101 -0.026395164 -0.020526022
0.015247883 -0.08040664 0.0139574455 0.047282465 -0.0043581584 0.064418875 -0.0866724 -0.12695023
0.043542992 -0.026885642 -0.05287735 0.06097119 0.081671335 -0.046238944 -0.082691625 0.13252081
-0.06999344 0.16234802 -0.05592362 0.054907802 0.059200548 0.03328475 -0.061154857 0.04177679
0.052380197 -0.06282148 -0.0128133185 0.010228875 -0.055562478 0.02414882 -0.018268581 -0.021187037
-0.03571083 -0.07182484 -0.14028767 0.05820311 0.017780783 -0.00907784 -0.11613094 0.032130826
-0.046331495 -0.039581116 0.16635367 0.17776027 -0.004354898 0.040157657 -0.02823829 0.15760276
-0.018639712 0.08064692 0.07008992 0.17114057 -0.0148340445 0.07786759 -0.06635949 0.01308459
-7.924583e-05 0.12180512 0.14006983 0.00678167 -0.07474611 0.08752538 0.03492456 -0.2654314
0.015740748 0.16367897 0.11064679 -0.049169444 0.0681856 -0.06761603 0.073739626 0.006830566
-0.0010592256 -0.0802316 -0.022238776 -0.008702193 -0.08947728 -0.015837962 -0.017697997 -0.056297217
0.02441825 -0.006814564 0.035882212 0.06642151 0.033341754 -0.073786706 -0.08179073 -0.046473064
00000000: 06a5 86bd d6e8 933d a2cc ee3c 1a3c 5e3d
00000010: 9258 bebb adc5 90bc 96b2 313c a3c6 e6b7
00000020: e678 20be 9cb7 853d f9d0 7ebd 6982 723d
00000030: f9d8 75bc 930b 2dbd 93d3 fa3c b12a c53d
00000040: 2328 313d 39bb 013d af8c 063d 11d4 2e3d
00000050: cf35 e83c 9fa3 adbd 6406 cfbc 4689 51be
00000060: a0f1 9dbd 03fb 76bd 47a2 ab3d 7044 803d
00000070: 5959 ca3d 5537 883d 1b03 30bd 5540 993d
00000080: c837 f2bc a9de 2c3d 520c 033d b3b3 8b3d
00000090: 3711 dc3d 788b 6d3d c59d febc c1d3 973c
000000a0: d516 a8bd 1e7f c5bb a0c3 3f3d d5a1 5ebd
000000b0: d4f5 2a3d e4db 8ebd fe0a 5c3c 0e9d 273e
000000c0: 0eb4 b9bb 37a0 dabd 1eaf 64bd 0bb8 833d
000000d0: 7471 833c 6796 8c3d 45b8 543d bb29 acbd
000000e0: 857e 903d 7ea1 583d e5f0 c2bc 3555 0339
000000f0: 38e5 cc3c 7d2d 4f3c 4bc6 283c 838e 363d
00000100: 7140 80ba e07e 043e fe32 05bd cddf 01bb
00000110: 8524 95bd 8279 d43b 7886 673d f49c 813e
00000120: a5ef 7bbd fe53 40bd cede 913c 2b75 9bbd
00000130: 13e7 923d 1ec1 a03d 3080 cc3d 27b7 07bd
00000140: 2d0a 04bd 9bad 0dbd 6933 9dbc 7540 26bd
00000150: 09c4 84bd 46d3 b5bd a637 f6bc c207 80bc
00000160: df65 2bbd 3f42 d2bc 6679 aa3d 62a6 0dbe
00000170: e910 a63c 336d d93c cbe9 40bc 9016 a73b
00000180: 551b c3bd 3bef e23c abb9 1d3c 806d c5bc
00000190: 435e a3bd 7626 06bd dee6 b93d eea2 4f3c
000001a0: 3e7d ac3d c07f 913d 42bb 6f3d c01b 8c3d
000001b0: 0e1f 143e e3a1 373e 11bf c4bc d479 933e
000001c0: bab8 8d3d 10a5 77bb 998d 183e 0942 8abd
000001d0: 1d63 743c 2072 f5bc dabe 53bd b409 c43d
000001e0: d335 363d f3ef fe3c fd4c 033e d203 a53c
000001f0: e3de 463a 709c c33c 72f5 85bb b1e1 b73d
00000200: 511b 3d3e 0c27 aebd 9f75 fa3b b9e8 8fbd
00000210: 541e a8bc d046 cebc c7d4 6cbb 95d1 8a3e
00000220: b184 ba3d be2a 86bd b12f b33d c824 313d
00000230: f9ea b53d 5a85 61bd eb29 22bd 68d9 aabd
00000240: a9f8 953a afd4 cbbb a720 0bbd ef28 013d
00000250: 98a1 cbbd e50c 4d3d 6592 74bd 386d 1fbd
00000260: f021 12bd 0441 f3bc 807e bb3d 8838 febc
00000270: 1c87 48bd 3e55 023d 0463 0cbe 1a31 bd3d
00000280: bd74 85bd 1263 543d 2b07 09bd 2fe1 a03d
00000290: f966 083e f57a 703d ac3a d8bc 3026 a8bc
000002a0: 42d2 793c 3dac a4bd c5ad 643c 42ab 413d
000002b0: e2ce 8ebb 0bee 833d 4d81 b1bd 3eff 01be
000002c0: 235a 323d 473f dcbc ec95 58bd edbc 793d
000002d0: 4d43 a73d 0c65 3dbd 3a5a a9bd 89b3 073e
000002e0: b858 8fbd 8f3e 263e 2a10 65bd 01e7 603d
000002f0: 467c 723d 9755 083d 847d 7abd 241e 2b3d
00000300: 9e8c 563d 8ca8 80bd f4ee 51bc 0397 273c
00000310: 7b95 63bd bfd3 c53c fea7 95bc 7090 adbc
00000320: 8545 12bd e718 93bd 92a7 0fbe 6266 6e3d
00000330: 01a9 913c 38bb 14bc 0fd6 edbd 9d9b 033d
00000340: 18c6 3dbd cf1f 22bd 9e58 2a3e ca06 363e
00000350: 88b3 8ebb 5b7c 243d fd53 e7bc 9e62 213e
00000360: 4fb2 98bc 362a a53d 4e8b 8f3d 793f 2f3e
00000370: 7e0a 73bc 0b79 9f3d 7ce7 87bd c060 563c
00000380: c830 a6b8 f674 f93d 776e 0f3e c538 de3b
00000390: 7d14 99bd 8240 b33d 0e0d 0f3d a0e6 87be
000003a0: bef2 803c 769b 273e c99a e23d e665 49bd
000003b0: e4a4 8b3d 467a 8abd cd04 973d f1d2 df3b
000003c0: b7d5 8aba 7750 a4bd 182e b6bc a593 0ebc
000003d0: dd3f b7bd 9dbe 81bc 64fb 90bc e997 66bd
000003e0: c808 c83c b54c dfbb 3af9 123d 0008 883d
000003f0: 5d91 083d 7c1d 97bd e681 a7bd 8a5a 3ebd

fc2.bias f4 [84]
0.13591039 0.15443498 -0.001272593 0.15936598 0.067074396 0.15980299 0.01033318 0.2093049
0.056475434 0.031556703 0.24099554 -0.025426377 0.104224816 -0.10483334 0.0840083 -0.0126639325
0.10066389 0.0025947604 -0.0704529 0.04249192 0.16215838 0.07297898 0.1133319 -0.040641714
-0.08913986 0.018092215 -0.05667853 0.0030412325 -0.041293457 0.072355494 -0.046668705 0.028754147
0.012791937 -0.016881283 -0.094605066 -0.025298283 0.16876096 0.009084415 -0.07756246 0.08097211
0.03869532 0.037296172 -0.031186018 0.07587581 -0.12711324 0.01693831 -0.036780592 -0.08503711
-0.056663584 -0.0008526369 0.081240945 -0.100732975 0.02067428 -0.11014644 0.011026995 -0.07000254
-0.046507467 0.008171921 0.08185331 -0.03931032 0.20780109 0.14648286 0.1207586 0.13269623
-0.08521459 -0.086079076 0.07184421 -0.041022673 -0.03126781 0.045304302 0.115439534 0.03247923
0.046538968 0.2039801 0.014999164 -0.05939051 -0.020066623 0.08445315 0.0082944315 0.10340741
0.09367756 0.110223494 0.10253976 0.060962252
00000000: 182c 0b3e 3424 1e3e 23cd a6ba d630 233e
00000010: 4d5e 893d 65a3 233e 804c 293c 0654 563e
00000020: c952 673d 9a41 013d 89c7 763e fa4a d0bc
00000030: d273 d53d ddb2 d6bd 8b0c ac3d 627c 4fbc
00000040: df28 ce3d db0c 2a3b 9c49 90bd 020c 2e3d
00000050: d90c 263e 0176 953d 8e1a e83d ed77 26bd
00000060: f58e b6bd 2036 943c bf27 68bd 6a4f 473b
00000070: 5423 29bd 1e2f 943d af27 3fbd d18d eb3c
00000080: 4695 513c 9e4a 8abc 4dc0 c1bd 583e cfbc
00000090: accf 2c3e ccd6 143c 11d9 9ebd b5d4 a53d
000000a0: fc7e 1e3d dfc3 183d d279 ffbc c764 9b3d
000000b0: f929 02be 36c2 8a3c 3fa7 16bd f027 aebd
000000c0: 1318 68bd 7e83 5fba a761 a63d 174d cebd
000000d0: 1c5d a93c 7594 e1bd 92aa 343c 7e5d 8fbd
000000e0: 9d7e 3ebd 85e3 053c b5a2 a73d dc03 21bd
000000f0: cfc9 543e 9aff 153e 4950 f73d 85e1 073e
00000100: fd84 aebd 3a4a b0bd 0f23 933d 6407 28bd
00000110: ad12 00bd 0191 393d 906b ec3d f108 053d
00000120: a59f 3e3d 29e0 503e 0ebf 753c 7743 73bd
00000130: c262 a4bc c6f5 ac3d 5ee5 073c 44c7 d33d
00000140: 05da bf3d dbbc e13d 5e00 d23d 8eb3 793d

fc3.weight f4 [10, 84]
0.007242062 0.066795595 0.061115645 0.1178853 -0.23108889 0.11421995 -0.2679751 0.0956501
0.10095919 -0.056368392 -0.01913758 -0.089611575 0.094926625 -0.0319623 0.08858246 0.0659398
-0.1312892 -0.18592769 -0.095670074 0.07491026 0.108724594 0.10370229 -0.06926487 -0.064397
-0.046294406 -0.09721954 -0.037731532 -0.0048943674 -0.042541012 0.040678807 0.08182923 0.07077435
0.002472141 -0.1090208 0.009870041 -0.00381847 -0.17701106 -0.03836443 -0.12884043 -0.16655998
-0.17514363 -0.10595428 -0.13086466 -0.16131267 0.030932091 -0.058320824 -0.14476551 0.0806185
-0.0020572466 0.020509388 -0.29094028 -0.032092083 0.13318196 -0.022414219 -0.01237775 -0.052025802
-0.05233888 -0.038736366 -0.1274171 -0.057632085 -0.350899 -0.12123791 -0.05102487 0.07882458
0.0155181 0.038382776 -0.06679489 -0.13485073 -0.04729623 -0.032810926 -0.04263594 0.045853242
0.011952506 -0.22168079 -0.31253347 0.025117984 0.11712184 0.015109099 0.018571477 -0.084087
0.08517837 -0.08066025 0.1599207 -0.12208448 0.13738704 0.2539654 -0.015119031 -0.20388918
0.025110392 0.3173641 -0.114109464 0.0765475 -0.18950056 0.06325205 -0.30628005 -0.087145105
0.061375722 -0.10589211 0.09285087 0.22318421 -0.21419293 -0.18412602 0.05913342 0.07255675
0.08974067 0.06079416 -0.1847712 -0.030715533 -0.05073925 0.11166402 -0.06670903 0.043646984
-0.02665053 -0.03817352 -0.15151091 -0.0141976625 0.00026148383 -0.22962075 -0.10673253 -0.07527536
0.124743864 -0.1659237 -0.00011658012 0.049803026 -0.015253611 0.033370875 -0.036786176 0.21417019
-0.052838996 -0.043327473 0.014996407 0.033091217 0.10554487 -0.18691905 0.032422043 -0.041349888
-0.27030322 -0.20767376 -0.036245648 0.051225472 0.060338527 -0.044213835 -0.15916903 -0.076071054
0.12706222 0.034234647 -0.017743057 -0.07235411 -0.114617676 0.006924279 -0.06674284 -0.060904857
0.008508523 0.0022577278 -0.108889855 0.0021412976 0.041142456 -0.16041131 0.061271064 -0.009908108
-0.09011553 -0.15627313 -0.29390368 -0.04110326 0.06497887 0.12735687 -0.1565254 0.12333869
0.09862022 0.06159081 -0.0361886 -0.10547071 -0.13171422 -0.21323419 0.04849457 -0.15704148
-0.2104186 -0.0066572833 -0.07088633 -0.10374115 0.13712646 0.016996736 -0.04754859 -0.04003176
0.036747415 0.005436654 0.04217598 -0.011923812 0.08182294 0.04044108 -0.14370123 -0.06516827
-0.011004781 0.060798887 -0.1125733 -0.024919001 -0.038167164 0.09758326 0.036241382 0.1025266
-0.14344068 0.0020128065 0.039238125 -0.0016754792 -0.106144086 0.12796904 0.050749462 0.10022797
-0.058938865 0.0008061354 0.056530036 -0.057557456 0.0639109 -0.059042275 -0.21543488 0.04336123
-0.062056106 -0.11156664 0.036997057 -0.010171736 0.035484377 -0.1413343 -0.062240385 -0.06519729
-0.041819368 -0.06586109 0.083453566 -0.11494885 -0.23796202 0.082368225 0.13700858 0.10000591
-0.022035409 0.047180943 -0.06666951 -0.17482339 0.010679522 0.058105547 0.08851928 -0.086742505
-0.05902772 -0.19898821 0.20037368 -0.029277131 -0.11333607 -0.2340849 -0.06411977 -0.029763557
0.16653155 -0.1792482 -0.08213945 -0.35067937 -0.00066699786 0.065378495 0.0070519373 -0.13236144
00000000: d24e ed3b 21cc 883d 6654 7a3d d96d f13d
00000010: 91a2 6cbe 26ec e93d 0834 89be 33e4 c33d
00000020: b1c3 ce3d 8be2 66bd 6ac6 9cbc 4686 b7bd
00000030: e468 c23d e7ea 02bd b96a b53d 720b 873d
00000040: ad70 06be d463 3ebe acee c3bd 8d6a 993d
00000050: 00ab de3d de61 d43d bdda 8dbd 93e2 83bd
00000060: 349f 3dbd 0a1b c7bd 618c 1abd ee60 a0bb
00000070: 7c3f 2ebd d29e 263d 1596 a73d 24f2 903d
00000080: a503 223b 4c46 dfbd f4b5 213c 4c3f 7abb
00000090: 6342 35be 0524 1dbd bfee 03be b38e 2abe
000000a0: da58 33be 8ffe d8bd 6301 06be 262f 25be
000000b0: 4c65 fd3c d1e1 6ebd 693d 14be 501b a53d
000000c0: dfd2 06bb 4e03 a83c 20f6 94be fd72 03bd
000000d0: da60 083e 069e b7bc 0ccc 4abc 0219 55bd
000000e0: 4b61 56bd 06aa 1ebd a179 02be 9f0f 6cbd
000000f0: 09a9 b3be 954b f8bd 74ff 50bd c86e a13d
00000100: a13f 7e3c 4237 1d3d c2cb 88bd 4f16 0abe
00000110: b1b9 41bd c064 06bd 06a3 2ebd 9cd0 3b3d
00000120: 72d4 433c 4a00 63be 6304 a0be 3bc4 cd3c
00000130: 93dd ef3d 288c 773c 3623 983c ce35 acbd
00000140: ff71 ae3d 3331 a5bd 41c2 233e 6e07 fabd
00000150: 30af 0c3e c107 823e d0b5 77bc 53c8 50be
00000160: 4fb4 cd3c 8c7d a23e 39b2 e9bd f0c4 9c3d
00000170: 6f0c 42be 4a8a 813d bdd0 9cbe 2279 b2bd
00000180: 1c65 7b3d f6dd d8bd 9928 be3d 678a 643e
00000190: 6455 5bbe 888b 3cbe e335 723d a298 943d
000001a0: f5c9 b73d 4c03 793d a934 3dbe 249f fbbc
000001b0: f6d3 4fbd 1bb0 e43d be9e 88bd 2ec7 323d
000001c0: 3652 dabc d65b 1cbd ad25 1bbe 509d 68bc
000001d0: c417 8939 b421 6bbe 9696 dabd f829 9abd
000001e0: b679 ff3d e7e7 29be 7a7c f4b8 42fe 4b3d
000001f0: 48ea 79bc e6af 083d 1aad 16bd 6e4f 5b3e
00000200: b46d 58bd 2678 31bd 7db3 753c a88a 073d
00000210: e927 d83d b567 3fbe facc 043d 805e 29bd
00000220: 2f65 8abe 6ea8 54be 5176 14bd cdd1 513d
00000230: 8825 773d 9119 35bd 35fd 22be 24cb 9bbd
00000240: 991c 023e a139 0c3d e359 91bc 642e 94bd
00000250: acbc eabd 10e5 e23b 78b0 88bd 5f77 79bd
00000260: 5567 0b3c 63f6 133b a501 dfbd 0355 0c3b
00000270: fe84 283d dd42 24be 5ef7 7a3d 9e55 22bc
00000280: 7e8e b8bd 1006 20be 8b7a 96be e45b 28bd
00000290: a413 853d d769 023e 3248 20be ff98 fc3d
000002a0: 66f9 c93d a546 7c3d 7f3a 14bd 0701 d8bd
000002b0: 18e0 06be 105a 5abe 3ea2 463d 7bcf 20be
000002c0: f977 57be 5725 dabb da2c 91bd 3d76 d4bd
000002d0: e16a 0c3e bd3c 8b3c 4fc2 42bd 58f8 23bd
000002e0: 7584 163d f625 b23b b8c0 2c3d 185c 43bc
000002f0: c992 a73d 8ca5 253d 6a26 13be f176 85bd
00000300: 664d 34bc 4108 793d d58c e6bd ef22 ccbc
00000310: 2c55 1cbd bbd9 c73d d871 143d 77f9 d13d
00000320: 1de2 12be 4ae9 033b 28b8 203d c19b dbba
00000330: 1262 d9bd 510a 033e abde 4f3d 5244 cd3d
00000340: e169 71bd d552 533a 0a8c 673d 5ec1 6bbd
00000350: b8e3 823d 50d6 71bd f69a 5cbe 8c9b 313d
00000360: 8b2e 7ebd 0d7d e4bd 3a8a 173d 5aa7 26bc
00000370: 1158 113d f0b9 10be c6ef 7ebd 2886 85bd
00000380: c94a 2bbd 2ee2 86bd b4e9 aa3d 4d6a ebbd
00000390: 51ac 73be acb0 a83d fa4b 0c3e e6cf cc3d
000003a0: 9a83 b4bc ce40 413d 068a 88bd e704 33be
000003b0: 29f9 2e3c 1500 6e3d 9949 b53d 0ea6 b1bd
000003c0: 0dc7 71bd 91c3 4bbe c22e 4d3e 98d6 efbc
000003d0: be1c e8bd f4b3 6fbe 3a51 83bd b4d2 f3bc
000003e0: 3f87 2a3e d78c 37be ba38 a8bd 3f8c b3be
000003f0: 78d9 2eba 29e5 853d f013 e73b c289 07be

fc3.bias f4 [10]
0.086666964 0.018381288 -0.067582995 -0.06060506 0.13452272 0.13595322 -0.01906756 0.0026409125
0.103656396 -0.051906634
00000000: 737e b13d 5b94 963c f468 8abd 033d 78bd
00000010: 53c0 093e 5237 0b3e 9233 9cbc 2913 2d3b
00000020: ce49 d43d 0d9c 54bd
