models/Cutout-10-4 BasicNet.pt (torch, 180615 bytes, 10 tensors)

conv1.weight f4 [6, 1, 5, 5]
00000000: 62d2 a43d e44a 59bd f851 9cbe d401 62be
00000010: 3c3d b4bc b603 d0bd 98e9 c3be 966a babe
00000020: 6f90 babe 6b64 42be 2ae0 7abe 4464 acbe
00000030: c372 9dbe f2d4 bbbe 1706 0bbe 682e 2ebe
00000040: b3b3 c6be ea14 93be 025b b9be 8f33 8abd
00000050: 56d7 093d d66c fcbe 7c78 ffbe 47cd fdbd
00000060: 8752 883d 23a6 95bd d628 edbe fcad 383d
00000070: 065e 193d 9c1b 4c3c a4cd bebe e0ad 64bd
00000080: 759a 0f3e 72b8 333e 5b1c afbc 489c aebe
00000090: 37e5 6a3e c866 a53e 3cf6 c73d a25e 2fbe
000000a0: f9cd c8bd 982a 833e 706d 043e d926 44be
000000b0: e332 17be 1024 213d 4b50 a53d e9d4 f3bd
000000c0: 3e33 2ebe e72e d8bb d44b 2d3d d80f 713e
000000d0: 7c33 683e 7616 85bc 5b6e 62be 5154 423b
000000e0: 5b33 88be 410d 05bf b21c 81be 4832 883e
000000f0: dfc6 e5be db13 85be 9f85 613e 2ddf ac3e
00000100: 8aa0 77bd c812 1abd 9f8c e53c 7b1b b63e
00000110: c7d0 60be 5afb 97bd ed92 8a3e 4bca 3e3e
00000120: b0db 3abe 23cd 34be 6fb1 663e f60c 653d
00000130: 1e27 7e3d 72f7 643e c353 803e 0a49 1abe
00000140: 97e7 6bbe d84f 86bd 6c67 2dbe 0af5 9d3e
00000150: 83a4 d93e db0a 10bd 9729 86be 1dcf 7cbe
00000160: 4246 acbe 9741 f13d ba26 1e3e 0c71 93bd
00000170: b264 9bbe e155 063d 5a42 f23d c222 033e
00000180: 0f34 a63d aec3 0a3b 578e 8abe 4d22 b23d
00000190: 49de f43d 9a59 143e a4f4 2b3e f000 613c
000001a0: 9771 e23d 7077 51bd a440 7e3e 825c 2e3d
000001b0: 8bbd 1bbe 4b1e 413d f2b6 c7bd 0dc4 203e
000001c0: 6955 7e3e e8f6 0f3e 2977 bc3d 0000 4dbd
000001d0: a78b 483d 39a1 0d3e d072 4e3e 6c42 5dbe
000001e0: 460f bbbc 83f6 2b3e 8eab 8b3d e032 a4bd
000001f0: f9e5 63be 3631 14bb a12d 9dbd 0d96 a2bb
00000200: d2b1 78bd b311 edbd cda6 3abc d55c 3b3e
00000210: 087a 8b3e 4dc1 1d3d 05ba 79bb 540a 2a3e
00000220: 118a 7cbc 625a 853d 6f13 1f3e 7f9c 153d
00000230: 1c01 1f3e 3c9e b53c 923e 9fbe 37f0 643d
00000240: 1316 fe3d e0f7 07bf 372d 33bf 5eb7 3bbf
00000250: 751e fabe 289d f5bd
0.0804794 -0.053049937 -0.30531287 -0.2207101 -0.022001855 -0.10156958 -0.38264155 -0.36409444
-0.3643832 -0.18983619 -0.24499574 -0.33670247 -0.3075162 -0.36685902 -0.13576542 -0.1700989
-0.38808975 -0.28726894 -0.36202246 -0.06748115 0.033652626 -0.49301785 -0.4989661 -0.12392669
0.06656366 -0.07307079 -0.46320218 0.0450878 0.037443183 0.012457754 -0.37266266 -0.055829883
0.14023764 0.17550829 -0.021375826 -0.34103608 0.22939001 0.32304978 0.09763762 -0.17125943
-0.09804911 0.25618434 0.12932372 -0.19155444 -0.14765505 0.039341033 0.08071955 -0.11905844
-0.17011735 -0.006597388 0.042308643 0.235412 0.2267589 -0.016246062 -0.2211241 0.0029652307
-0.2660168 -0.5197335 -0.25217205 0.26600862 -0.4487829 -0.2599171 0.22023629 0.3376402
-0.060455836 -0.037615567 0.028021155 0.3556784 -0.21954642 -0.074209884 0.2706522 0.18631856
-0.18247867 -0.17656378 0.22528623 0.055920564 0.062049024 0.22360018 0.25063905 -0.15066925
-0.23037563 -0.06558198 -0.16933984 0.30851012 0.42508325 -0.035166603 -0.26203606 -0.24688382
-0.33647352 0.117800884 0.1544446 -0.07199296 -0.30350262 0.032796744 0.11829062 0.12806228
0.08115398 0.0021173763 -0.27061722 0.086979486 0.1195646 0.14487305 0.16792542 0.013733134
0.11056822 -0.051139295 0.24829346 0.04256869 -0.15209024 0.04714803 -0.09751691 0.15699787
0.24837269 0.14059031 0.092024155 -0.050048828 0.048961308 0.13831033 0.20160985 -0.21607369
-0.022834431 0.16793256 0.06819831 -0.08017516 -0.22255696 -0.002261234 -0.07674719 -0.004961735
-0.060716458 -0.115756415 -0.0113923075 0.18297131 0.2724154 0.038514424 -0.003810526 0.16605502
-0.015413777 0.0651138 0.15534757 0.0365262 0.15527767 0.022170179 -0.31102425 0.05589315
0.12406554 -0.531126 -0.6999087 -0.7332667 -0.48851362 -0.11992866

conv1.bias f4 [6]
00000000: dbad 5b3e d9fd bebc 60b8 0abe ba12 b8bd
00000010: eea4 bb3d 378f 3ebe
0.2145304 -0.023314403 -0.13546896 -0.08987947 0.09162317 -0.1860932

conv2.weight f4 [16, 6, 5, 5]
00000000: af94 7a3c b582 5fbe 59bc 02bf 2362 7fbe
00000010: 3dc8 25be 3ee8 21bc 3764 60be e93d 01bf
00000020: 374a 9dbe a1dd 1bbe 52de 86bd b4ef ac3d
00000030: b6ff 043e 9a60 833d baca ce3d b253 843d
00000040: eaa2 4f3e 4327 023e 3514 9c3d 4737 043c
00000050: 76b2 72bd 8eba 4c3d 3d18 e43b d1ad 89bc
00000060: 04d5 43bd 429b 1dbc 6010 913d b6b4 023d
00000070: cb4a 363d 16d3 3e3c 766d cc3d 84c3 b13d
00000080: 0104 3ebd 8f17 c1bd 2f6c 51bd fb63 bebc
00000090: 6ec6 06be 5501 82bd d5b3 233d b9f0 ccbb
000000a0: 727f 0abd 6a08 003e d955 0c3e df9b 053e
000000b0: 78ae eb3a f91d fe3d 4393 c63d b2ab 533d
000000c0: 14cb 1e3c 7478 4bbd 6cc1 3c3e 4ee8 133e
000000d0: f042 243e eb6f 7d3d cb8c 1b3c 594f 21bd
000000e0: 0415 1cbd 9dec b8bd 9c97 87bd 1ec3 27bd
000000f0: d485 5cbe 869f 8ebd af61 503d 2e88 2f3b
00000100: e8e1 a8bb 302e b63c b271 9e3d 5d38 62bd
00000110: e36e 1b3d 5c14 ddbc 2f5a a4bc 3682 ae3d
00000120: 3bcb f8bc 167b 2abd 6899 7bbc 78fa 89be
00000130: c020 08be 62b3 12be ff32 fcbd 0c1b 15be
00000140: c29c 123e 6918 df3d a8db 4f3d 24c2 f23d
00000150: 886d 573c 7808 403d 267c 373d 333d 233d
00000160: 1dc5 cc3b 3095 76be 4b3d 093d 58b4 acbb
00000170: b5a1 39bd bf7d 97bb 0bfa 2dbe 0469 0c3e
00000180: 2c34 80bc 0c86 263d eb4b 003c e0fa 4cbc
00000190: 7151 08bc 3e9e 093c a768 8fbd 3cb8 32bd
000001a0: e90e adbd 3a31 273e 4817 5b3c b146 583d
000001b0: a0d3 7b3d 7f72 c83d 77e8 803d 9a25 503d
000001c0: 976f 193d 51e8 5ebc 6f04 063d cfea 003d
000001d0: 1196 08be bf83 bbbd f2a5 1bbd 09b8 7bbc
000001e0: cd35 a7bb dc3a 6b3b 97c6 143c fc20 5e3d
000001f0: b053 f8bc dbba 09bd aa7a bf3d 1e9f 7c3d
00000200: d3a9 873d 5202 cebc 2662 ec3d 1c3a 5d3e
00000210: 27c9 5f3e d697 113e bc39 bb3d 1716 5e3e
00000220: 5dae 683d f68f fabd 1476 b3bd 9062 ccbd
00000230: c843 7d3d 4b2b e0bd 1869 87bc 530e d139
00000240: 7c1c edbd 6b4d 9a3d 2ca1 713d 7244 a03d
00000250: a64b 4a3c e9f7 c83d 22d9 47bd 9fa3 e1bb
00000260: 96b9 873d f332 033e fb8d e7bc d33f 633d
00000270: 1df5 243d abe9 08be 87d5 b5be eace 45be
00000280: 8b49 36bd b6d7 68be 6d0f 05bf b893 60be
00000290: 2c58 08bd 5f9f f3bd fddd 88be bd9a 91bd
000002a0: 58d8 663d 3afb edbb 59f1 703d 1f3f 9c3d
000002b0: 3f2a cf3d 9501 0e3e d5f0 7dbd 4288 1c3d
000002c0: 26a2 2b3d c0ae bb3d 820d bebd f0ed bdbc
000002d0: ec85 4a3c 6310 d9bd 3e97 d9bd 2e8e d53d
000002e0: ac55 273e ec45 41bd daa9 753d 6090 0e3e
000002f0: 3c76 2b3b 9533 4bbe bb24 82bd 1402 da3d
00000300: 77bb 11bd fe4e 04be 926d 84bc da85 94bd
00000310: e62c b3bd e8a5 c3bd 7264 943d f55f 203d
00000320: 96a3 e1bc 3f16 bebc 27fb babd 8fed 06be
00000330: eb0a 5d3e 9c60 5238 22c0 95bd 4863 333d
00000340: b933 4e3e 5ed7 7c3e f5e9 23bd 5ddf 913e
00000350: ee18 a53e 8637 123c c1ae e33d 9081 0f3d
00000360: 43bc 233e 2a7e 02bd 2a35 043e eb71 2d3e
00000370: 5a85 83bd 0bc3 23bd c80e 303e 500f 293e
00000380: 7b11 6dbb ef66 dfbc 1c72 913d 7927 223d
00000390: 68ba 7b3d 9249 95bd b649 0fbd 8d61 1fbd
000003a0: fde4 e6bd 38a4 eebd 18cf 89bd 52f2 82bd
000003b0: c591 f7bd b2e9 d1bd 0fb6 03be 1434 1e3e
000003c0: 6036 683c c617 11bc 79b3 07be 4016 a5bc
000003d0: 090e 103d d598 0a3e 63ba de3c e798 9a3d
000003e0: 4d25 4abc e29d c53c c7bb 4e3d 5968 eb3d
000003f0: 0633 ae3d 846e 07bd 8bf4 ae3d d606 5fbd
0.015294238 -0.21827205 -0.51068646 -0.2493978 -0.16189666 -0.009882031 -0.21913229 -0.5048509
-0.30720684 -0.15221263 -0.06585373 0.08444157 0.12988171 0.0641491 0.10097261 0.06461276
0.2027699 0.1271029 0.07621042 0.00806982 -0.059252225 0.0499826 0.0069608972 -0.016806515
-0.04781057 -0.009619536 0.070832014 0.03191062 0.044504922 0.0116470065 0.099818155 0.0867987
-0.046390537 -0.094283216 -0.051128563 -0.023241034 -0.13161632 -0.0634791 0.039966423 -0.0062542823
-0.033812948 0.1250321 0.13704623 0.13047741 0.0017981073 0.124080606 0.09696057 0.051677413
0.009691972 -0.04967542 0.1843316 0.14444086 0.1604116 0.06187431 0.009494017 -0.039382312
-0.03810598 -0.090295054 -0.06620714 -0.040957563 -0.21535426 -0.069640204 0.05087441 0.002678405
-0.0051538832 0.02223882 0.077365294 -0.055229533 0.037947547 -0.026987247 -0.020062534 0.085209295
-0.030370345 -0.04162129 -0.015356399 -0.26948905 -0.13293743 -0.14326242 -0.12314414 -0.14561099
0.14317611 0.10893328 0.05074659 0.11853436 0.013148673 0.046883076 0.04479613 0.039853286
0.0062490837 -0.24080348 0.03350572 -0.005270522 -0.04532023 -0.0046231444 -0.16989915 0.13711935
-0.015649877 0.04065518 0.0078306 -0.012510985 -0.008320198 0.008399544 -0.07002383 -0.04363273
-0.084501095 0.16327372 0.01337225 0.05280179 0.06148112 0.097874634 0.06294339 0.05081711
0.037459936 -0.013605193 0.032719072 0.03147393 -0.13338496 -0.09155988 -0.038000055 -0.015363702
-0.005102849 0.0035893237 0.009080551 0.054230675 -0.030313343 -0.033625465 0.09349568 0.061675183
0.06624188 -0.02514759 0.11542158 0.21604198 0.21854077 0.14218077 0.09141871 0.21688114
0.05680691 -0.122344896 -0.08762756 -0.09979737 0.06183222 -0.109457575 -0.016529605 0.0003987426
-0.115776986 0.075342976 0.058991596 0.07825555 0.012347138 0.0981291 -0.04879106 -0.00688596
0.066271946 0.12812404 -0.028265944 0.05548079 0.04027282 -0.13370387 -0.3551447 -0.19317213
-0.04450373 -0.22738537 -0.5197666 -0.2193135 -0.033287212 -0.11895632 -0.26731864 -0.07109592
0.056358665 -0.0072626146 0.058823917 0.07629227 0.1011548 0.13867791 -0.061997253 0.038215883
0.041902684 0.0916419 -0.0927992 -0.023184747 0.012361031 -0.10598829 -0.1062455 0.10427509
0.16341275 -0.047185823 0.059976436 0.13922262 0.0026163002 -0.19843896 -0.06354662 0.106449276
-0.03557917 -0.12920758 -0.016165528 -0.07252093 -0.08748798 -0.095531285 0.07245721 0.03915401
-0.027543824 -0.023203967 -0.09129935 -0.13176559 0.21586196 5.0157876e-05 -0.07312037 0.043795854
0.20136918 0.24691531 -0.04001804 0.28490725 0.32245582 0.008924371 0.11117316 0.03503567
0.15989785 -0.0318586 0.12910905 0.16937988 -0.06421919 -0.03998093 0.17193139 0.16509748
-0.003617375 -0.027270762 0.07101843 0.039588425 0.061457068 -0.07289423 -0.034982406 -0.03891139
-0.11274145 -0.11652416 -0.06728953 -0.06393875 -0.1208835 -0.10249652 -0.12862419 0.15449554
0.01417312 -0.008855766 -0.13252057 -0.020152211 0.035169635 0.13534863 0.027188485 0.07548695
-0.012337995 0.024123136 0.050472047 0.11494512 0.08505826 -0.03306438 0.085427366 -0.05444988

conv2.bias f4 [16]
00000000: 1a39 62be c840 d0bc 3f99 3fbe 0485 d83c
00000010: cd07 2cbe 0273 bfbc f0f9 633e 7966 3c3d
00000020: e67a dcbd b1ba 853d f65b 53bd 3b13 d53d
00000030: 9777 f33d be2f 48bd ff3f da3c 3e33 1dbe
-0.22092095 -0.025421515 -0.18710802 0.026430614 -0.16799851 -0.02337027 0.22263312 0.045996163
-0.107656285 0.06529749 -0.051601373 0.104040585 0.11888044 -0.048873655 0.026641844 -0.15351579

fc1.weight f4 [120, 256]
00000000: 5c56 eb3c cb62 f73d 9d06 1d3c 8b04 5abe
00000010: 373e 223e 2652 b03d f497 823c c34a f0bd
00000020: 78cd 1bbd 90d0 0f3c 55e8 c33d b15a a63d
00000030: cc60 17bd 5abf 6a3d b506 aebc e34c b13b
00000040: a1af df3c 6118 903d b6a3 f5bd f7db acbd
00000050: 69a5 203d 41ea 753d d10b 943d aecc 09be
00000060: fe5f dfbc bdbc bd3c 4d75 20bd c64b 45bd
00000070: 399f 00be e83f 233d fbba 19bb 6472 36bd
00000080: 1bf2 c43c ada0 613d 8177 673d a052 303d
00000090: 5820 ca3d 3278 1b3e fa3a cdbd e5e9 0cbe
000000a0: ac4d 6c3d 1c49 d43d b70d 67bd fa34 6abd
000000b0: 3c74 923d ee17 613d 1609 1b3d 0232 a03b
000000c0: 70ea a33d 61b3 92bc 0ac5 4bbc e5fc 5dbe
000000d0: d727 a8bd d8f7 013e 71d0 223d 72a6 59bd
000000e0: 48ed 83bc c43a 9abc e0ba a73d ed8e a03d
000000f0: 0b24 f93d 4cb6 073e 27a8 043d 4d20 34bb
00000100: 1fac db3d 24d0 303d c6b0 72bc db60 98be
00000110: 6ef1 513d 4f97 adbd 3380 ce3c 5107 753d
00000120: 41bf 8dbc 8cd9 873b a705 f5bd c204 4bbd
00000130: 9245 88bd ee45 03be 1911 44bd 1373 c23c
00000140: 81e5 4b3d 0d95 7c3d 6296 92bd 93bc 1ebe
00000150: 9da2 d13c 274a a5bd dd4a e53d d305 f7bb
00000160: 72b9 8f3c b0fd e43d e42a 96b9 2bf3 dd3b
00000170: 1799 d7bb 04ec c03d 30ee a63d 3aa7 a6bd
00000180: d42d 7a3d e212 113e 2f57 863e 8b83 dd3d
00000190: 56ec 283d 4610 2abd 1c6c 163e 53c6 60bc
000001a0: 3493 ecbd d799 193d 9392 0b3d 3fac 473d
000001b0: e73f d53d bb3a 953d cdc0 8fbd df9f 6a3c
000001c0: a2b2 43be d461 e0bd 0aef 24bc cbb0 8b3c
000001d0: 13fe 41be dc5e e3bd 4836 e9bc 510d 0d3d
000001e0: 8c2e 7ebd 7649 ffbd a724 f13a c80a 9dbd
000001f0: 3d71 1c3d 3d90 563d dceb 2d3d 79ed 77bc
00000200: ed7d aebc 63f4 26bd b39b 5bbd e0da e1bd
00000210: 3b06 4a3d 0a01 0e3d 9258 2abe 6d79 ebbd
00000220: 4bda 783d fc5f 073d d925 8b3d 83b3 27bd
00000230: fd63 0e3e 9bb8 983d 6615 ad3d 88c7 843b
00000240: 2f51 15bc 0b5b 47be e48c 053e 5150 a53d
00000250: 66e7 00be f0e9 2bbe 3872 a0bd 34b0 02bd
00000260: eac3 313c a145 17bd 24f0 be3c 6e60 893d
00000270: ad55 073d 3ed9 083e 2009 123e 61ef cebc
00000280: b345 11be 3835 17be 10c1 8fbd dfe6 06bd
00000290: 3803 b13d 7cc7 69bd 09ca de3b b5bb d33c
000002a0: 2417 b23c 697b 34bd 8b07 d0bc 18d6 1d3d
000002b0: 4bd0 153b a53a 153e f82d 4abd 6925 c1bd
000002c0: 9a03 2cbd 0080 17be 7d04 1abc acbc 91bd
000002d0: e9dc ca3a 15e4 523c b437 eb3d 9572 47bd
000002e0: 81bd c0bb 98de 86bd 6395 833d 62f6 2dbc
000002f0: 69f8 edbc 6cc7 3e3d 39cd b8bd 0cf9 66bc
00000300: 83af 593c 2636 8cbd d99d 01bd 7ca1 333e
00000310: 2607 343d d4a8 b1bb 738b 053e 3424 b13c
00000320: 0878 303c 002c 3a3d 7eb5 823d b5ef 58bc
00000330: e193 0f3e b5c6 e43d 21ac 48bd 46d1 f93c
00000340: 3a58 653e 0ddf 023d d910 d8bc 093c eebd
00000350: 16c5 9d3c 4b09 b1bd 302d 8d3c 86c7 11bd
00000360: 1b53 e53c 26b8 91bc 8d61 ab3d 0218 95bd
00000370: d2aa bfbd 4e48 6f3c eee0 c53c 8500 61bd
00000380: 35b3 e7bd 1792 19be 9c0e 49bc 9235 d2bc
00000390: cc4c 1fbe f0a5 03be b6a2 9e3d 4dfe f23a
000003a0: 2df9 12bd efa8 ec3d 1251 4bbd 379a f3bc
000003b0: 0e9d 23be f585 933d 7f31 0d3e 7262 703d
000003c0: 4eb9 103e 628f 483d e64a a2bd 5790 0cbd
000003d0: 2423 d23d d1b2 9fbd 5d20 2cbe eecd 23bd
000003e0: dcf7 143d ee31 57bd 29ea 63bb 204f a7bd
000003f0: 1ff8 293d 8a5b 18bd 0e16 2d3c 003d 62bc
0.028727703 0.1207939 0.009584096 -0.21290796 0.15844046 0.086094186 0.015941598 -0.1173301
-0.038037747 0.0087777525 0.09565798 0.08122767 -0.036957547 0.057311393 -0.021243433 0.005410777
0.027305426 0.070359 -0.11994116 -0.084403925 0.039220247 0.060037855 0.07228816 -0.13456985
-0.027267452 0.023161286 -0.039174367 -0.048167966 -0.12560739 0.039855868 -0.0023457396 -0.044542685
0.024041226 0.055084873 0.056510452 0.043047547 0.0986945 0.1518257 -0.100210145 -0.13761099
0.05769126 0.10365507 -0.056409564 -0.05717943 0.07151076 0.05495446 0.037850462 0.004888774
0.080037 -0.0179078 -0.0124371145 -0.21678503 -0.08210724 0.12692201 0.039749566 -0.05313725
-0.016104355 -0.01882685 0.081899405 0.07839761 0.12165078 0.13253134 0.032386925 -0.0027485073
0.10726189 0.04316725 -0.014812654 -0.29761395 0.051255636 -0.084761254 0.025207615 0.05982143
-0.017303111 0.0041458067 -0.11963969 -0.049565084 -0.066538945 -0.12819645 -0.047867868 0.023736512
0.04977942 0.061665583 -0.071575895 -0.15501623 0.025590235 -0.08070784 0.1119592 -0.007538536
0.017544482 0.111811996 -0.00028642185 0.0067733726 -0.006579529 0.094200164 0.081508994 -0.08137365
0.06107886 0.1416736 0.2623839 0.108161055 0.041241013 -0.041519426 0.14689678 -0.013719159
-0.11551514 0.03750023 0.03407533 0.04874825 0.10412579 0.072865926 -0.07019196 0.014320343
-0.19111112 -0.10956159 -0.010066757 0.017052075 -0.18944578 -0.11102077 -0.028468266 0.034436528
-0.06205611 -0.124651834 0.0018397764 -0.07668072 0.03819393 0.05238365 0.04246126 -0.0151323015
-0.02130028 -0.04076041 -0.053615283 -0.11028075 0.049322348 0.03466896 -0.1663535 -0.114977695
0.060755055 0.033050522 0.06794328 -0.04094268 0.1390533 0.07457086 0.08451347 0.0040521063
-0.009113594 -0.19468324 0.13042027 0.0807196 -0.12588271 -0.16788459 -0.078342855 -0.03190632
0.010849932 -0.036931638 0.023307867 0.06707846 0.03304069 0.13364121 0.14261293 -0.02526063
-0.14186744 -0.14766395 -0.070192456 -0.03293502 0.08643192 -0.05707501 0.006798987 0.025846342
0.02173955 -0.044063006 -0.025394222 0.038534254 0.0022859748 0.14573152 -0.049360245 -0.094309635
-0.041995622 -0.14794922 -0.009400484 -0.071160644 0.0015477213 0.012871762 0.11485234 -0.04869326
-0.0058819656 -0.06585425 0.06424978 -0.010617824 -0.029049115 0.046576902 -0.09023518 -0.014097463
0.013286474 -0.068462655 -0.031644676 0.1754207 0.04395213 -0.005421737 0.13041477 0.021623708
0.010770805 0.045452118 0.06382273 -0.013240744 0.14021255 0.11170713 -0.04899228 0.030495297
0.22396937 0.031951 -0.026375221 -0.116325445 0.019259017 -0.086443506 0.017233461 -0.03559067
0.02799373 -0.017788004 0.08368216 -0.0727997 -0.09358753 0.014604641 0.024155106 -0.054932136
-0.11313478 -0.14997135 -0.01227155 -0.02566031 -0.1555664 -0.12856269 0.077458784 0.0018538922
-0.035882164 0.11555659 -0.04963786 -0.029736621 -0.1597788 0.07203285 0.13788413 0.058687635
0.14133188 0.048964866 -0.07924442 -0.03431734 0.10260609 -0.077977784 -0.1680922 -0.03999131
0.03636919 -0.05253785 -0.0034777022 -0.08169389 0.041496392 -0.037196673 0.01056434 -0.013808489

fc1.bias f4 [120]
00000000: dab7 903d 9c07 5dbd e48c 6ebd 115b 803b
00000010: 6414 59bd e3b9 1d3c e8e2 513c 9986 b1bd
00000020: db5c 6ebd ff0a 8dbb 4da6 9abd 4b54 563c
00000030: e4f6 413c 01fe 92bd e8d5 9d3c 262d af3d
00000040: 5088 b03c 1f7c bc3d 56df b43d 3b20 293d
00000050: f86a 33bd ae20 043c c8ff 8f3d 39c8 473d
00000060: 2952 373d 0504 343e 70b5 aebc 2a85 383e
00000070: 3a46 4bbb 203b 98bd 2aa9 b43d 467c c1bd
00000080: 499e 173e 6529 043d 4a6a 4c3d 4a24 993d
00000090: 292c 3ebc 8e3e 8f3c c121 fcbc 1cb8 a1bc
000000a0: f0fb 163e 7c84 3f3e fcaf 9fbc bb7e 83bb
000000b0: 7ac3 a4bd ed3a 15bd 1b9f 14bd 5432 b03d
000000c0: da82 8abd e966 a7bc 4f66 183e 5662 dfbc
000000d0: ab3b de3b cb87 2dbd 1057 3bba f532 00bd
000000e0: 3709 5dbd 3d59 c43d 4ebe a4bd ef6d 9fbc
000000f0: 3bfc 58bc e944 a13d 15e0 143d bd28 273d
00000100: f5b5 51bc 1592 24bb 119b 9f3c f9db ed3c
00000110: ad98 8e3d 4981 33bd 5c75 c03a 18ad 653c
00000120: 724d a53d fb51 c73c 31a1 b33d 1f45 c93b
00000130: b889 4c3d f2ff 703d fd05 963d dadb 843d
00000140: 64ec d03c ca8e bd3d 51d4 d73c de80 dcbc
00000150: 3e88 01bd 093c 2b3e f3c7 92bd 4d3c c93d
00000160: 94a1 be3c 3bbb eebd 6549 613b 1913 61bd
00000170: 378e 5fbc c328 9cbc dd70 95bd 865a f4bc
00000180: 46ce 05bd 7e45 40bd eeb9 8b3b 4778 b4bd
00000190: 13f0 943d b866 c53c 16ea 943d aed7 0f3e
000001a0: fed0 0bbd ae29 b43c c681 993d 1c02 7f3d
000001b0: f546 023e 523d 0d3c c826 b83b 3290 e93b
000001c0: 3745 593e 2e5b bf3d 231e da3d e906 e53c
000001d0: 0913 e43b 709e 973d e00f 5cbc e7aa 063e
0.07066317 -0.053962335 -0.058239833 0.003917106 -0.05299796 0.009626838 0.012810446 -0.086682506
-0.058194023 -0.0043042894 -0.075512506 0.01308162 0.0118386485 -0.07177354 0.019267038 0.08553533
0.021549374 0.09203362 0.088316604 0.041290503 -0.043803185 0.008064432 0.07031208 0.04877493
0.04475609 0.17579658 -0.02132675 0.18019548 -0.00310172 -0.07433152 0.08821328 -0.094475314
0.14806475 0.03226604 0.049906053 0.07477625 -0.011607208 0.017485883 -0.030777814 -0.01974111
0.14744544 0.18702883 -0.019493096 -0.00401291 -0.08045097 -0.03643315 -0.036284547 0.08603349
-0.06763239 -0.020434814 0.14882778 -0.02726857 0.0067820153 -0.04236583 -0.0007146457 -0.031298596
-0.053963866 0.09587333 -0.0804411 -0.0194616 -0.01324373 0.07874472 0.036346514 0.040810335
-0.01279973 -0.0025111486 0.019483121 0.029035555 0.06962714 -0.043824468 0.0014683413 0.01401832
0.08071412 0.024331084 0.08770979 0.006142273 0.049936026 0.05883784 0.07325361 0.06487246
0.025503345 0.092557505 0.026346358 -0.026916917 -0.03162407 0.1672212 -0.071670435 0.098259546
0.023270406 -0.11656805 0.0034376022 -0.054949854 -0.0136447465 -0.019062405 -0.072969176 -0.029828321
-0.03266742 -0.046941273 0.004264108 -0.088120036 0.07272353 0.024096832 0.07271211 0.14047119
-0.034134857 0.02199253 0.074954554 0.06225787 0.1272238 0.008620577 0.0056198575 0.007127785
0.2121781 0.09343563 0.106502794 0.027957397 0.006960277 0.074032664 -0.013431519 0.13151132

fc2.weight f4 [84, 120]
00000000: a5b4 153e 1de7 2abe 939f c8bd 8170 66bd
00000010: e7b6 a73a 4e81 193e e31c 3fbd 0408 1e3e
00000020: 195c dc3d ff33 a2bd dc9e 42bb f25c 9cbc
00000030: 2a66 4c3d c051 013d 5ff2 64bc 4813 383e
00000040: 5a04 a5bc 46ac a33d a47b 4fbd fa27 d1bc
00000050: 84ce a4bc 232b 41bd 33f0 0bbe 0a49 3b3e
00000060: d20b a63d 3076 043e 6d59 183e 1b7a 963d
00000070: 034b d7bb 4efb 9b3b adfb 803e a7b6 c2bc
00000080: 9e9d be3d 9080 ec3c 57af 3c3c 85bf 133d
00000090: 06f4 1e3b 278e 2a3d 6cf4 1abd 8b74 993b
000000a0: 44e1 363e 0fab cc3d dc70 e23d c9f2 a2bd
000000b0: a20e 023e 8c1f b8bc 8cff 1bbb fa91 a9bd
000000c0: d658 95bd 5bed ed3c ce4b e83c ce52 813c
000000d0: cbc3 20be 4da8 05bc 32b4 91bd b3cd 053d
000000e0: c58a 87bd 0378 abbb b47e acbd 5a22 9d3d
000000f0: 4e63 2d3d da7a a63d fced cb3d 1d10 12be
00000100: 054c 4d3b 04ee 3dbc 3647 e4bd b250 87bd
00000110: 9178 09bd 9197 b3bd acb9 0d3e ec0c 183c
00000120: 0758 fe3c 2076 b73a 0548 3cbd c0a3 0ebe
00000130: ad37 26be ef28 0e3d 9e41 3abd 5eba 5b3c
00000140: 2257 053e 8228 35be c7d5 dc3d 701e 6a3d
00000150: 0583 dbbc bc5e b0bd c66c 713d 827c 643c
00000160: 99ee dfbd 5fc5 fb3d dfee 493c 879d 143d
00000170: 4ef0 483e 4f8a ab3c e5ee d8bc f9e7 d13d
00000180: f4aa 32be f4fa 95bd bf5a 3b3d bfe4 94bd
00000190: 71a4 a2bd 5283 1e3e 69c5 f23d 301a 1b3e
000001a0: fe90 193d 4c05 473e 7afe 5fbd e4dd 9c3d
000001b0: 3928 8cbd fa6e 8f3c 16bb 693d da62 1c3d
000001c0: ce66 713e f6e8 60bd 51a8 25bc 2040 c23d
000001d0: c253 c23d 57df 37be 5a28 6f3c 9b6d 07be
000001e0: 73f0 a23d 7dfc 87bd 0813 803d 77ba 03bc
000001f0: 0435 2abe c408 03be 320e 4a3d 4e4f 0bbe
00000200: 804d 843c 4479 01be b81b 20be 9130 2f3d
00000210: 94b7 443e 3aea 4f3d fb50 e33d e510 f7bc
00000220: 052d 67bc 724e b23c e6a6 19bd 8b32 7f3c
00000230: 388d b43d 569f 1fbe 8737 bc3d 7823 46be
00000240: 8b0a 5a3d ae7c e43d 072a cf3d 2113 663e
00000250: f0a2 083e 07a7 2e3d e663 98bd d594 bc3d
00000260: c34d 433d a442 4d3c f501 7dbd 07e3 21be
00000270: c48a 073e 2c7e 003d 51a4 2bbb 84ea bfbd
00000280: 319e 5c3c 64da 053d 67ea 9a3c 5e2f 7dbc
00000290: 0b79 263d f6e0 113d d334 c7bd 9bbb 3a3d
000002a0: 0448 55bd a870 223e bed2 0b3e 80c0 64bd
000002b0: 160c a7bc 63b8 babd 20f8 4abd ed68 6ebd
000002c0: b447 4fbd 6e2f a23d 6e22 3b3d 6c5f f8bc
000002d0: bea8 0fbe c629 413d d1da 98bd f75d 51bc
000002e0: 50db 503d 1e9e e7bd 474c b7bc b958 06be
000002f0: 6ac0 b83d b811 d9bc a1eb 753d 9e22 83bd
00000300: 2ba8 353e d01f a6bd 485e 0c3e 8c34 a33d
00000310: 8b28 e23d 0a82 c03b 8088 083e c5dc 0c3e
00000320: 1e36 d93d 6430 68be 13b8 c03d 74cd 69bd
00000330: ec7d 7a3c 4888 70bc 0024 59bd ba17 5fbe
00000340: 2a44 4abe 8829 2b3d 03ed 843c aa38 c6bd
00000350: a393 5bbe c93b 12bd 7985 983d 6d52 0abd
00000360: 7d2a 543d e030 56bd e393 463d b3d9 593d
00000370: 1f72 ceb9 4677 6fbd 8681 2c3e 73d4 133e
00000380: 0a65 25be 4c7f 303d 6d01 0f3e 092f 313c
00000390: dda3 05be cc37 b8bd e064 973c 62f4 173d
000003a0: 2376 5d3e d4c7 f03d 010e 07be 842f 20be
000003b0: 5ec5 133c 45b2 6d3e b6f6 a3bd 7c4f ea3d
000003c0: 7b8a 86bd c227 99bd 6ccb 40bd 14b7 153d
000003d0: eff3 62bd 030b 2fbd e7e3 71bd 1f0e 363e
000003e0: 30a6 043e e553 83bd f4e8 483d 4ee3 723d
000003f0: 1e6f 243e 57b0 1c3d 1ffd 06be 07eb 223e
0.14619692 -0.16689725 -0.09796061 -0.056259636 0.0012795598 0.14990732 -0.046658408 0.15432745
0.10759754 -0.07920074 -0.0029696738 -0.019087289 0.04990212 0.031572104 -0.013973801 0.17976105
-0.020143677 0.07991843 -0.050655022 -0.025531758 -0.020118006 -0.04716028 -0.13665847 0.18289581
0.08107723 0.1293571 0.14877863 0.073475085 -0.0065702214 0.0047601825 0.25192013 -0.023768736
0.09307407 0.028869897 0.011516414 0.03607132 0.0024254336 0.041639473 -0.037830755 0.0046830825
0.1785937 0.09993564 0.110566825 -0.07956464 0.12700894 -0.02247598 -0.002380344 -0.08279796
-0.07292335 0.029043844 0.028356459 0.015786555 -0.15699689 -0.008157802 -0.07114448 0.032666873
-0.06618265 -0.0052328124 -0.08422604 0.07672568 0.042331032 0.08128901 0.09957501 -0.14263959
0.0031325829 -0.011592392 -0.11146395 -0.06607188 -0.033562247 -0.087691434 0.1384036 0.009280425
0.031047834 0.0013996996 -0.04596712 -0.13929653 -0.16232176 0.034707006 -0.045472734 0.013411133
0.1302152 -0.17691234 0.10782962 0.057157934 -0.026795873 -0.08611819 0.058941625 0.013945701
-0.10934181 0.12293505 0.012325018 0.036283042 0.19622919 0.020939974 -0.026481101 0.102493234
-0.17448026 -0.07323256 0.04574084 -0.07270192 -0.07941521 0.15479782 0.11854059 0.15146708
0.03749179 0.19435614 -0.054686047 0.0765951 -0.06843609 0.017508972 0.057063185 0.03818021
0.23574373 -0.05490967 -0.010110931 0.09484887 0.09488632 -0.17956291 0.014597023 -0.13225405
0.07956018 -0.06639955 0.0625363 -0.008040062 -0.16621786 -0.12796313 0.049329944 -0.13604471
0.016150236 -0.12643915 -0.15635574 0.042770926 0.19210654 0.050760485 0.1109943 -0.030159423
-0.014109855 0.021765921 -0.037512682 0.015576015 0.08815998 -0.15588126 0.091902785 -0.19349468
0.05323271 0.11156593 0.10115438 0.22468235 0.13343406 0.04263976 -0.07440929 0.09208075
0.04768158 0.012528095 -0.061769444 -0.1580926 0.13236529 0.031370327 -0.002619047 -0.09370902
0.01346545 0.032678977 0.0189106 -0.015453188 0.04064278 0.03561493 -0.09726872 0.04558907
-0.052070633 0.15863287 0.1365461 -0.055847645 -0.020391505 -0.091172 -0.049553037 -0.058205534
-0.05060549 0.07919203 0.04568713 -0.030318938 -0.14029214 0.04715898 -0.07463611 -0.012778751
0.050990403 -0.11309455 -0.022375239 -0.13119783 0.09021075 -0.026497707 0.060039166 -0.06403087
0.17739932 -0.081115365 0.1370784 0.07969007 0.11042889 0.005874877 0.1333332 0.13756092
0.10606025 -0.2267471 0.09410109 -0.0570807 0.015288811 -0.0146809295 -0.053012848 -0.21786395
-0.19752565 0.041787654 0.016226297 -0.096787766 -0.21443038 -0.035701547 0.07447333 -0.033770014
0.051798332 -0.052292705 0.04848088 0.05318613 -0.0003937641 -0.058463357 0.16846284 0.14436512
-0.16151825 0.04309015 0.13965388 0.010814437 -0.1305079 -0.089950174 0.018480718 0.037098296
0.21627097 0.11756864 -0.13188936 -0.15643126 0.009019224 0.23212536 -0.08006041 0.11440942
-0.06569382 -0.07478286 -0.047069 0.03655155 -0.055408414 -0.04273511 -0.059055235 0.17778824
0.1295402 -0.06412486 0.049050286 0.059298806 0.16058013 0.03825411 -0.13182496 0.15909968

fc2.bias f4 [84]
00000000: 5283 033e 5236 583e e6f1 b13d 5e87 55bd
00000010: e481 8b3c 0b59 0cbd cf01 073e d77c 08be
00000020: 296f 853d 72b6 153d f87e e53d 118a 183e
00000030: e03b a7bc 6256 d83c 8af1 adbc 9410 b63d
00000040: a0ae ec3d f7b0 e13b 729c 8ebd 6ed3 94bd
00000050: d2d4 953d 741c 2e3d ae1f 10bc 97de c6bb
00000060: 6961 253d 93ae 813d c3ce eb3b 38e4 51bd
00000070: 5a94 d43d 5652 6a3d c719 aa3d 8a16 2f3d
00000080: 0135 c83d d21e 463d 92d6 a03d 4d33 da3b
00000090: 2a9e 343d c4bc 383d 75b7 8f3d 882d 993c
000000a0: 0607 b43b 2cba 83bd 84f0 e93d 8512 66bd
000000b0: f766 8c37 69e8 bb3d b8a9 6dbd c91c dd3d
000000c0: 3498 123e 3c76 053e 4734 8c3d 9ab7 bd3d
000000d0: c875 883d 588b 79bd f77b a13d e64b a5bb
000000e0: 3c51 b8bc b7e8 533e 71e0 edbb cfee 713d
000000f0: 63df da3d c549 09bd da19 88bc 9069 cabc
00000100: ebda 373e 46cc de3d 403f 72bb 7ce9 193c
00000110: c504 783d b363 8b3d cbd4 b23d e345 0c3e
00000120: faf0 583e 4f17 0e3e c9b3 f13c 042c bbbd
00000130: 3ddd 4c3d 6d59 1a3d 46d2 6f3c 2d24 b23d
00000140: b8ac c43d 357c 083d d985 41bd 5515 0d3e
0.12843063 0.21114472 0.086887166 -0.05213105 0.01702971 -0.034264605 0.13184284 -0.13328873
0.06515343 0.036550947 0.11205858 0.14896418 -0.020414293 0.026408378 -0.021233339 0.08889881
0.115567446 0.006887551 -0.06963433 -0.072668895 0.07315983 0.042507604 -0.0087966155 -0.0060690152
0.0403761 0.063321255 0.007196279 -0.051243037 0.10379858 0.057207428 0.08305698 0.042746104
0.09775735 0.048369236 0.07853426 0.0066589476 0.04409615 0.045101896 0.070174135 0.018698469
0.0054940013 -0.06431994 0.11422828 -0.056170005 1.6737247e-05 0.09175188 -0.058023185 0.10796506
0.14315873 0.13033384 0.068459086 0.09263535 0.0666309 -0.060923904 0.078849725 -0.005044448
-0.022499673 0.20694242 -0.0072594215 0.059065636 0.10687139 -0.033517618 -0.01661389 -0.02470854
0.17954604 0.10878806 -0.003696397 0.009394046 0.060551424 0.068061255 0.08731993 0.13698535
0.21185675 0.13876079 0.029504674 -0.09139255 0.050015677 0.03768294 0.014637535 0.08698306
0.09603256 0.033321578 -0.047246788 0.13777669

fc3.weight f4 [10, 84]
00000000: c8d6 29be 5342 aa3d 6994 4f3c 2a16 263d
00000010: 88a7 813b 9b2a a93a f233 c23d f767 d0bd
00000020: ad17 c83d 627a 673d 958e f53c 2674 013e
00000030: db9a 90bd 54e2 143c 506b be3d 7269 ac3d
00000040: 54ad 0ebe 3c61 9a3d e3a0 37be d5b8 dfbd
00000050: 0ddf 8dbe 0bb2 82be 19fa 183d 52e0 09be
00000060: 03b5 8f3d 301c e43d 979d b2bd e5b0 d7bd
00000070: 17a2 34bd f849 3ebe de27 da3c 0736 aabd
00000080: 3b94 c83d 06d5 523d d1f3 92bd da45 503d
00000090: a6aa 0abe 6e48 0dbe 1d92 8cbd 7aff 5ebe
000000a0: 165a 1ebe 8a70 af3d 789e 4f3c 22d5 2abe
000000b0: 723e 5d3d 22ef 25be 607e c4bd 6a59 8f3d
000000c0: 6f6a 92bd d837 9cbe 0fc7 79be ea8b 83be
000000d0: 8295 97be 7b6b aa3d 906a 463d 876d 163d
000000e0: 3616 67be 28a5 ba3d 170e 29be ff3a d13c
000000f0: e35e c23d e26a a4bd 201e 9b3b 6764 1cbe
00000100: 2c60 3c3e 74cf 18be da7e 15bd 53c9 653c
00000110: 9eaf bb3d 4f58 893c cd4a e0bd beba 1b3e
00000120: 100d e5bd ad5b b33d ebf3 673d 4cb2 26be
00000130: 477c 90bd dcef 2fbe 17ed 0dbe 1af7 5b3d
00000140: 067a de3d 56ee f43d aa77 423b 7388 323e
00000150: c3dd 063e d293 393e 1734 9abe 14b9 16bd
00000160: b761 a33c 5175 e3bc 77b8 fabd d120 21be
00000170: fd62 6bbc 3433 2e3e eee1 ecbd b5a4 1dbe
00000180: a6d9 2bbe 93df 2dbc 4601 2abe 5d6c f73d
00000190: 7e37 af3a cd38 713c 1eaf a1bd 77f4 9abd
000001a0: b2cf 483c 717e d33d 6aaa a1be 6f01 a8bd
000001b0: d319 b53d e90f 643d bad8 303d 5e32 38be
000001c0: e695 fe3b ca80 9dbd 0c29 463d 49bc 42be
000001d0: 4816 023e 2563 f63d 3d9e 40bd ce6e 543c
000001e0: d373 873c 123a 21bd 1ddb 27bc a0dd 893d
000001f0: 121d bb3c b53f 09be 5dd5 31be 1d9f 99bd
00000200: 3a3e 45be dc68 1a3e d068 b0be f876 bfbb
00000210: e898 283e 9fb7 fd3d bae0 bebc eb3b 643d
00000220: 5392 4f3e db46 ad3b bbca d9bd 91de 693d
00000230: f9b3 0abe 18de 73be feee dcbd b7a4 363e
00000240: a478 0bbe 6bd9 96be 030c 99bd f3dc 7ebd
00000250: 5bcc 163e 1faf 4bbd 5d39 aabd a7c5 8f3d
00000260: 35e2 5ebe 03e9 3abe 449b 173e 2427 033e
00000270: c8b4 ff3b d3fa 28be d60f cf3d 9d1d 56be
00000280: 1947 443e 49de 16be 419e 713d 1430 18be
00000290: 69b6 23bd dd6d 73be 329f 0bbe 52ab 91be
000002a0: 7d71 f13d 6264 13be 4d1f e43d 595f 02bd
000002b0: dffc 833d 551b bebd d5b9 7dbc 6198 96bc
000002c0: fd1f bebd 0a09 a8bc 2f29 843c 1562 fb3b
000002d0: f618 493e c831 743d 4972 ccbd e4dd 363e
000002e0: 60ce 85be b3ea b03c 967f bc3d a3d0 763d
000002f0: 6286 7fbd 8b35 68bd eb58 ccbc 72f3 423d
00000300: 9542 fa3d 948a 383e e049 313c ab0c bebd
00000310: 6790 363d 8a8f acbc 9d61 8abe c6fe 99bc
00000320: 65f1 d53d 5b76 febd 60f7 513e 3ae6 bc3c
00000330: bedd 2bbc fccc 6b3d 2c30 e43b bb69 5fbe
00000340: 1212 20be b2b0 db3d 8cbe b03d e2e3 363d
00000350: ee28 34be cdf7 ec3d 1141 063e 0992 fb3d
00000360: 12d8 733d 4dda 1bbe 5cfe 123e e49c 853d
00000370: 6fbe a6bc 42dc 153e 8497 1ebd df2f 3abe
00000380: 02e8 c73c 18e2 bd3b 38e4 0cbe 430a 9ebd
00000390: e2b7 513c d2e6 06be 00e4 71bd 0ef8 04be
000003a0: 9788 adbd 9a12 173d f65d 04be 43b1 a839
000003b0: 3b2e 693d eccf 1b3d 79e1 c4bd 4f68 debd
000003c0: cca3 c2bd fa37 dcbc 632f 4f3d e871 2dbe
000003d0: 0727 08bd bca7 7c3d ebb1 bbbd ee48 98bd
000003e0: cae3 2cbe a7ea 4c3d 38a9 7bbe f630 4dbe
000003f0: 8714 283c f1c6 59be 401d 17be 2bbf 49bd
-0.16585839 0.083134316 0.012669661 0.04054848 0.003956739 0.0012906374 0.09482564 -0.1017608
0.09770141 0.056513198 0.029975215 0.12641963 -0.07060786 0.009087164 0.09297812 0.084185496
-0.13933307 0.07538077 -0.17932467 -0.10923926 -0.27709237 -0.2552646 0.037347887 -0.13464478
0.07016947 0.11138189 -0.08721464 -0.10531787 -0.044099893 -0.18582904 0.026630338 -0.08311086
0.09793898 0.051472686 -0.071754105 0.050847866 -0.1354166 -0.13797161 -0.068638064 -0.21777144
-0.15464053 0.08566387 0.012672059 -0.16682866 0.05401463 -0.16204503 -0.095944166 0.06999476
-0.07149207 -0.30511355 -0.24392341 -0.25692683 -0.29606253 0.083212815 0.04844147 0.036725547
-0.22567067 0.09113532 -0.16509281 0.025540827 0.094907545 -0.08028199 0.004733816 -0.15272675
0.18396062 -0.14922887 -0.03649793 0.01402505 0.09164356 0.016765742 -0.10951767 0.15207955
-0.11184132 0.0875772 0.056629103 -0.16278952 -0.07054954 -0.17181343 -0.13859974 0.05370245
0.10863118 0.119595215 0.0029673376 0.17434864 0.13170533 0.18122795 -0.30117866 -0.036797598
0.019944055 -0.027765902 -0.12242215 -0.15735175 -0.014366862 0.1701172 -0.1156653 -0.15394862
-0.16782245 -0.010612386 -0.16602048 0.120812155 0.0013367978 0.014723015 -0.07894729 -0.07566159
0.01225655 0.10326851 -0.31575328 -0.082033984 0.08842816 0.055679236 0.043175437 -0.17987964
0.007769334 -0.0769058 0.04837899 -0.19017138 0.12703812 0.12030629 -0.047025908 0.012965871
0.016534721 -0.03936202 -0.010245112 0.06731725 0.02284101 -0.13403209 -0.17366548 -0.075010516
-0.19262019 0.15079063 -0.34454966 -0.0058430396 0.16464579 0.123885386 -0.023300517 0.055721205
0.20270662 0.0052879876 -0.10634371 0.05709702 -0.13545217 -0.23815191 -0.10787772 0.17836271
-0.1362024 -0.29462752 -0.07472994 -0.062222432 0.14726393 -0.049727555 -0.083117224 0.07020121
-0.21765979 -0.1825295 0.14805323 0.128079 0.007803533 -0.16501932 0.10110442 -0.20909734
0.19167747 -0.14733233 0.058988813 -0.1486209 -0.03996888 -0.23772378 -0.13634947 -0.2845102
0.11789224 -0.14393762 0.11138783 -0.03182921 0.06444716 -0.09282557 -0.0154862 -0.018383207
-0.09283445 -0.020512123 0.01613292 0.0076716044 0.19638428 0.059617788 -0.09982736 0.17858082
-0.26134014 0.021596288 0.092040226 0.060257565 -0.062384017 -0.056691688 -0.024944743 0.04759545
0.12219731 0.18021613 0.010820836 -0.0927976 0.044571307 -0.021064539 -0.27027598 -0.018798243
0.10446433 -0.12424918 0.20504522 0.023059 -0.010489879 0.057568535 0.0069637503 -0.21817677
-0.15631893 0.10727061 0.08630094 0.04465092 -0.17593738 0.11570702 0.13110758 0.12283713
0.059532233 -0.15219994 0.14354843 0.06524065 -0.020354478 0.14634803 -0.038718715 -0.18182324
0.024402622 0.0057947747 -0.13758934 -0.07716801 0.012800189 -0.13173988 -0.05905533 -0.1298525
-0.08473318 0.036882974 -0.12926468 0.00032175527 0.056928854 0.038040087 -0.09613318 -0.10859739
-0.09503898 -0.02688216 0.0505823 -0.16937983 -0.033240344 0.0616834 -0.091647945 -0.07435785
-0.1688377 0.05002847 -0.2457627 -0.20038208 0.0102588 -0.21267296 -0.14757252 -0.049254578

fc3.bias f4 [10]
00000000: 1c53 7e3d 8bf2 2c3e 6605 21be 53a7 a63d
00000010: 1069 c2bd ff79 90bd 6686 123b 3129 6cbd
00000020: 1fb4 0c3d 62bf 933d
0.062090978 0.16889398 -0.15724716 0.08137383 -0.09492695 -0.07054519 0.002235794 -0.05765647
0.034351464 0.07214238
