models/Cutout-7-5 BasicNet.pt (torch, 180615 bytes, 10 tensors)

conv1.weight f4 [6, 1, 5, 5]
00000000: 17ff d53b 4e9e abbd c48d 723e 077e bd3d
00000010: 9af2 a43e 92c2 3a3e 8a0b 98bd 6058 85bd
00000020: 6d80 efbe 2eab d0be aa89 913d 617d 6dbe
00000030: a3ad 8a3e a4ad a23e 6811 0a3d 528c 163e
00000040: c1db 4b3d 82c0 273e de8f aa3e accc d13d
00000050: a369 d63d 4fe8 2cbe 2322 6dbe 9048 1bbd
00000060: 8e1e 643d ef3c 153b 6d90 5f3e b6bb a03e
00000070: 5778 be3e 3d30 eebd e797 d5bd 0336 89be
00000080: 3d50 203c caff 313e 1801 783e 8dda 50be
00000090: a62f 28bf 24ff cabe f5ca 8d3d 9ce0 473e
000000a0: 1e21 843d 829b 90be 18c8 59bf d263 afbe
000000b0: acf6 59bc 2f66 1b3e cc08 ee3c f05d 953d
000000c0: 8529 7a3c 5780 d6bc 8392 e5bc fca6 433e
000000d0: 576c 53be f1d8 603d 746b 70be b21a b2be
000000e0: 0993 6b3e a56c 683e 802a b7bb 7a0d 613e
000000f0: 26e3 b13e 23c0 063e a874 3ebe 2d14 883e
00000100: 081e cd3d e1f6 103e 81f8 b6be 4cdc a13d
00000110: c4ae b6bd 7019 e73d 7105 50be 0773 a63d
00000120: 9de9 423e 0ad5 4bbd 0540 a2bd bfec 62bd
00000130: 8b1f d3be 592c 093b faff 993e 15d3 95bd
00000140: 8287 cdbd 56b4 f73d 1622 633e 0dea 74bd
00000150: 6dc8 a3be db45 9c3e c547 283e 93cd 483e
00000160: 7d00 bbbe 768b 1dbe 2f8b b3bb e415 a9be
00000170: fe99 df3e 5f14 32be 603e 5dbe 65fd ccbd
00000180: fe1e 41be 82f1 4b3e 0342 6e3e 9cca 64be
00000190: b7d3 143d 7a23 443d fa88 b53d 5c73 9abc
000001a0: c10f 263e e772 ecbd 8177 ae3d dee0 913e
000001b0: 78d1 f83d ffd6 1f3d 76cd f73d d87b 223e
000001c0: 7d87 fd3d 235f e8bc 1059 d7bd 9f25 183e
000001d0: a75d 663d d0e8 fdbe 8344 3cbf ce58 e7be
000001e0: 04c1 9bbd d491 24bf 3bc6 92bf e4a6 28bf
000001f0: e657 533e a342 66bd 488b 523d d8d5 02bd
00000200: 0f44 b53d 6206 783e bd6c edbd 9a87 a4be
00000210: 9e2e 24bd a57a dd3d b3d5 a03e c9de a7be
00000220: 3ca3 59be 16bd 5a3d 9cfc 2f3e b776 1c3e
00000230: 8c86 87be 3e74 7ebd 9399 1cbd c4cc 9b3e
00000240: f1c0 f03d c28e 04be 2aa0 be3d 102e 283e
00000250: d368 d43d aaf1 403d
0.006530653 -0.083798036 0.23686892 0.092525534 0.3221634 0.18238285 -0.07424076 -0.06510997
-0.4677767 -0.407556 0.071063355 -0.2319236 0.270856 0.31773102 0.033708006 0.14701965
0.04977012 0.1638203 0.33312887 0.10244116 0.10469367 -0.16885494 -0.23157553 -0.037910998
0.0556932 0.0022771915 0.21832438 0.31393212 0.37201187 -0.116302945 -0.10429364 -0.2679902
0.009784755 0.17382732 0.24219167 -0.2039587 -0.65697706 -0.39647782 0.069234766 0.19519275
0.06451629 -0.28243643 -0.85070944 -0.34255844 -0.01330344 0.15175699 0.029056929 0.07293308
0.015268688 -0.026184244 -0.028023964 0.19106668 -0.20646797 0.05489439 -0.2347849 -0.34785992
0.23005308 0.22697695 -0.005589783 0.21977797 0.34743613 0.13159232 -0.18599188 0.26577893
0.10015494 0.14156677 -0.35736468 0.079033464 -0.08920053 0.11284149 -0.20314576 0.081274085
0.19034429 -0.049763717 -0.07922367 -0.05540156 -0.41235003 0.0020930974 0.30078107 -0.07315651
-0.10035612 0.12094943 0.22180972 -0.05979352 -0.3198885 0.30522045 0.16433628 0.1960967
-0.3652381 -0.15385231 -0.0054792385 -0.33024514 0.43672174 -0.17390583 -0.21605825 -0.10009269
-0.18859479 0.19916347 0.23267369 -0.22342914 0.03633472 0.047885396 0.08864017 -0.018853836
0.16216947 -0.115453534 0.08518887 0.28491873 0.12149328 0.039023396 0.120997354 0.15867555
0.12379358 -0.028365677 -0.10515034 0.14858101 0.056241658 -0.49591684 -0.7354204 -0.4518494
-0.07605174 -0.64285016 -1.1466745 -0.65879655 0.20639 -0.056215893 0.05140236 -0.03194222
0.08850872 0.24221185 -0.11593006 -0.32134706 -0.04008352 0.10814408 0.3141304 -0.3278716
-0.21253675 0.053402983 0.17186207 0.15279661 -0.2646984 -0.062122576 -0.038232397 0.3042966
0.11755551 -0.12945083 0.093078926 0.16423821 0.10371556 0.04710547

conv1.bias f4 [6]
00000000: ebc9 f13d 14a1 8cbe 7863 0e3d bba1 ec3d
00000010: 950b dbbc 474d 9cba
0.11806091 -0.27466643 0.03476283 0.11554285 -0.026738921 -0.0011924886

conv2.weight f4 [16, 6, 5, 5]
00000000: 6091 c2bc 1dd9 993c c174 fa3d b659 453d
00000010: 791f e73d f5f8 babd eda5 b23d a5da 373d
00000020: e6d5 143d 8cb2 673d eb40 75bd 3269 05bb
00000030: c765 78bd 1eb6 f7bd 4c68 b6bd 5bb4 08bc
00000040: c9dc abbd e8e3 07be 13e9 a8be 305c abbe
00000050: e0a7 a2bd e0c7 c8ba 4763 73be fc37 82be
00000060: 320f dcbe 6795 98bb f61c 913c 8803 cd3c
00000070: 2bd3 3f3d 76ae a2bd 01f1 29bc e0cc 163e
00000080: e473 adbd a171 43bd 4540 3e3d 05ad 183e
00000090: d31e 95bb 4873 39bc fa12 273c 901e f03c
000000a0: c231 41bc 49a7 12bd 1a73 32be bf6c 30be
000000b0: ec00 d43d 54d3 2ebe fcf0 cbbb 1852 f5bd
000000c0: 5aa6 193e 18a9 1d3e b81a a9bb 173d fabc
000000d0: 2db8 283e 9d80 0e3d 7a3a 363d 038a 25bd
000000e0: bf0e 143e 491b dfbc 601b d83c ae09 113d
000000f0: a33f 213d 0635 c33d cad4 bd3d 0069 9dbc
00000100: 2b3b 30be b11c 8ebd ca77 cb3d bec4 1a3e
00000110: 302e b7be 7a7c b4be ac06 45bd ce05 a83d
00000120: 6539 acbe 6a00 f9be e1f7 8abe 6cb7 36bd
00000130: f5a2 a53d 247e 6e3d f1f5 edbc e376 a5bb
00000140: 8193 463d 5ea0 3d3e 9330 c7bb 0345 853d
00000150: 24de 24bc 9a7f 18bd 553a c93c bbda a03d
00000160: b042 4b3d c1e1 96bd 8dc3 90bd 6663 183e
00000170: 6aeb 873d 97a9 d9bd 17f6 6dbd ce12 253e
00000180: 293b 8c3d e69a e3bd 1160 16be eddf 95be
00000190: aab5 f1bd 8d6b e3bc 12c0 41be e85a 1bbe
000001a0: 7dc9 743d 4906 e0bd 820b 74be 2e86 ce3d
000001b0: c885 c53d c1b2 a13c 475a 11be 4963 0dbc
000001c0: c87f 403e 7722 993d e35c 92bd 4234 1b3d
000001d0: d1b9 8a3e 884e df3d fe10 f13d b4ef 42bd
000001e0: acfd fa3d 3410 a63d cb79 fe3b 0095 1cbe
000001f0: feac 44be 7dd4 58bd 5896 083d 1cd1 b73d
00000200: ae2b fd3d f61c 6bbd 1c57 acbd 7f22 433d
00000210: 8af1 4ebd 16c0 f5bd 1b6c eb3b d33a 9b3d
00000220: 5fd9 263e 8604 2ebe 88a8 74be 1ab9 70bd
00000230: 2d68 af3d 32a9 3cbb 2736 f9be 0ef1 5cbd
00000240: ca1c 503c 2d05 18be 3b53 2fbe fd03 c6be
00000250: 256d 38be 4b15 15be b37a 203d b13c 2bbd
00000260: 0e78 533d 69fb 073e b6b5 77b9 7506 71bd
00000270: cf18 92bd 9024 9d3d 8a29 d43d 575c d83d
00000280: 1cd9 bc3c 4057 d93d 64ed 6c3d 340b a53c
00000290: e4fd eb3c 2f63 d7bd c552 d9bd b22d 8d3d
000002a0: 5359 01bd 3b43 60bd 9a0d fc3c cec4 803d
000002b0: bc5b 0c3b e593 a73b 303e ebbd adf6 493c
000002c0: bcf1 7abc e667 3cbe ec1a 8abd f340 e5bd
000002d0: 577a c0bd 908c 0ebe 255b 30be 70e6 133d
000002e0: 39be 283e 35b9 b63d 165e 263e aa18 053e
000002f0: 5cef d13d 927d 0ebe 936a 1e3e 2284 0f3e
00000300: 3f51 ee3b fa6d 74bd 7a33 35be 8c37 c9bc
00000310: 4b32 09be 7c7f a9be 8245 e4bd 4794 e7bd
00000320: a684 10bd 3e96 61bc 83a2 50be 1c37 b6bd
00000330: 6346 4cbc d354 1abc fecd 253c 0a18 c03c
00000340: b94a 573d a2bf c83d dfd3 18bd 475c 8b3d
00000350: 50d5 48bd f083 683e ba64 df3d 5b31 43bd
00000360: e64b ac3d 0b6a 573d 6d42 7f3d b71f 863c
00000370: af5b 94bc c213 af3d 9eaa 233d c0c6 cebb
00000380: 45be 63bd 133d 8e3d af0a 5ebd 32b2 40be
00000390: 010c c7bd f11b ed3c 939c 3e3d 0c17 523d
000003a0: b8a8 2fbd 5e2c 8e3d fbda 393e c6d5 64bd
000003b0: 53ea f3bc e26c 2b3d fc2a 663d d272 ae3d
000003c0: 192f f7bd 31c0 14be c3d1 3939 36d3 533c
000003d0: e627 ea3d 582c 423d 24c4 1c3d d2b6 2b3e
000003e0: b23e 803e 4dd6 813d e78c d13d f4e2 ba3d
000003f0: 5076 4fbd 87ef fcbc 73ce 06be e7f4 7dbd
-0.02375096 0.018780285 0.122293 0.04818126 0.112853 -0.09129516 0.08723054 0.04488625
0.036336802 0.05656676 -0.059876364 -0.002035689 -0.060643937 -0.12095283 -0.08906612 -0.008343781
-0.08391721 -0.13270533 -0.32990322 -0.3346877 -0.07942176 -0.0015318356 -0.2376834 -0.25433338
-0.42980343 -0.004656482 0.017714005 0.025026098 0.046832245 -0.07943432 -0.010372401 0.14726591
-0.0846937 -0.047715787 0.04644801 0.14909752 -0.0045507937 -0.011318989 0.010197395 0.029311448
-0.011791648 -0.035804067 -0.1742672 -0.17228983 0.10351738 -0.17072803 -0.006223796 -0.11978549
0.15004864 0.15396535 -0.005160656 -0.030546708 0.16476507 0.034790624 0.04448936 -0.04041482
0.1445875 -0.02723469 0.02638024 0.035409622 0.03936733 0.09531598 0.09269102 -0.019215107
-0.17210071 -0.06939066 0.09934957 0.15114114 -0.35777426 -0.35251218 -0.048102066 0.08204232
-0.3363754 -0.48633128 -0.27142242 -0.04460852 0.08087722 0.058225766 -0.029047938 -0.005049573
0.048480514 0.18518206 -0.0060787885 0.065073036 -0.010062728 -0.037231065 0.024563948 0.078542195
0.049624145 -0.07367278 -0.07068548 0.14881667 0.066366985 -0.1062805 -0.058096018 0.16120455
0.068472214 -0.11113529 -0.14685084 -0.29272404 -0.11802228 -0.027761245 -0.18920925 -0.15171397
0.059762467 -0.10938699 -0.23832515 0.100841865 0.096446574 0.019738557 -0.14194594 -0.008629628
0.18798745 0.07477277 -0.07146623 0.037891634 0.27094892 0.109036505 0.11770819 -0.04759188
0.12255415 0.08108559 0.0077659837 -0.15291214 -0.19206616 -0.05293702 0.033346504 0.08975431
0.12361847 -0.057400666 -0.08415052 0.04764032 -0.05052332 -0.11999528 0.007184518 0.07579579
0.16293858 -0.16993913 -0.23892415 -0.058770277 0.08564792 -0.0028787372 -0.48674127 -0.053940825
0.012702176 -0.14845724 -0.17121594 -0.38674918 -0.18010385 -0.14558904 0.039179515 -0.041805927
0.051628165 0.13279499 -0.00023623448 -0.05884405 -0.07133638 0.07672989 0.103594854 0.105644874
0.023052745 0.10612345 0.05784358 0.020146944 0.028807588 -0.10516965 -0.1061149 0.06893481
-0.031579327 -0.054751616 0.030768204 0.062875375 0.0021416983 0.005114066 -0.11486471 0.0123268785
-0.015316423 -0.18399009 -0.06743416 -0.11194029 -0.093983345 -0.13920808 -0.17222269 0.036108434
0.16478814 0.08922044 0.16246828 0.1299769 0.10250732 -0.13915089 0.15470342 0.14015248
0.007272869 -0.059675194 -0.17695418 -0.02456262 -0.13398091 -0.33105075 -0.1114607 -0.113075785
-0.035282753 -0.013768731 -0.20374493 -0.0889723 -0.012467953 -0.009419638 0.010119913 0.023448963
0.052561495 0.09802176 -0.03731143 0.0680471 -0.049031556 0.2270658 0.10907884 -0.04765449
0.08412914 0.052591365 0.062319208 0.016372545 -0.018110124 0.085486904 0.039957635 -0.006310314
-0.055601377 0.06945243 -0.054209407 -0.18817976 -0.097190864 0.028943988 0.04653604 0.05129151
-0.042885512 0.06942056 0.1814994 -0.055867933 -0.02977482 0.041851886 0.056193337 0.08517994
-0.1206953 -0.1452644 0.00017721117 0.012928775 0.11433391 0.04740557 0.03827299 0.16768959
0.25047833 0.06339703 0.10231953 0.09125319 -0.05064994 -0.030875934 -0.13164692 -0.062001135

conv2.bias f4 [16]
00000000: 314c 3f3c e79f d0bd 2edf 233d 103f 003e
00000010: 52ea 233e d842 6ebe 7171 443e f100 323e
00000020: 922d e2bd 0d92 273e 1b1b 3dbe 1bc7 8cbc
00000030: 90e2 013d 51b3 bd3b 0913 70bd 4cd0 e2bd
0.01167588 -0.10186749 0.040007763 0.12524056 0.16007355 -0.23267686 0.191839 0.17383172
-0.11043848 0.16364308 -0.18467371 -0.017184785 0.031710207 0.0057891984 -0.058611903 -0.11074886

fc1.weight f4 [120, 256]
00000000: 1199 183e e8e1 b63d 6143 333d ea11 fabd
00000010: 891d d13d e155 82bd 0054 0d3c 7083 11be
00000020: c534 d0bd 6507 1abe dbd0 85bd 3e06 7a3a
00000030: 0aa7 c53b 6e2e 893d a180 c53d 9d1f 3a3e
00000040: 4f60 7f3d c369 243e 766c 473c 9d8a f9bd
00000050: 0a6e a6bd 15f5 523d 5b74 ce3c 8892 4a3e
00000060: 3c81 f5bd 33ae c4bd 5d7f a73a f4c3 713b
00000070: efed 293d 9900 90bc e364 13bd be97 013d
00000080: db79 95bc e670 5fbc 61f1 433a 6869 2b3c
00000090: 7a7b d2bd db1d 063d 5656 6abd 2e46 c93c
000000a0: 1cb2 2b3d 49ca bc3d d8b7 6dbd 6c53 24be
000000b0: 1d95 b7bc 265f 66bd 2e6a ecbc 44fd 533c
000000c0: f497 bcbd 72cd 6ebc e157 053d 4e12 d73c
000000d0: 88a4 c2bc 4087 803d 3268 c53a 31cc 30bb
000000e0: 97fa 0cbe 0a74 213e 455e 8f3d 3ed3 4d3d
000000f0: fc2d 753d 0cf4 783d 36d5 17be a362 ddbb
00000100: e877 adbb 2862 e7bb f937 af3d 0c61 0d3d
00000110: fbf1 3abd a86d e8bc 755b b43d 079e 293e
00000120: 73db 4f3d 7b21 1cbd 72a0 a4bd 578e d33d
00000130: 184a db3d e7e9 ac3d a7f0 a73d de21 a6bd
00000140: 4fd1 de3d 292b bdbd 5036 3dbd f7d2 57bd
00000150: 25f1 debc ffd7 693c 225f 9e3d 9b73 0fbe
00000160: c0b7 d43b e8f1 b1bd 813d d6bd 975e 50bc
00000170: e436 28be 7511 573d ad48 e63c c2ea 56bd
00000180: 035a 89bc 4393 15bb 6ac2 ce3c 8b52 5abd
00000190: b56e 88bd a1e3 3a3d 4d1b 173d 770e 7b3d
000001a0: 80df 4aba 2ebe c13d 4259 dfbc 28d6 a13d
000001b0: ace7 a0bc c8f8 86bc 3f78 9b3d d2a2 1f3e
000001c0: c32e 233e 7648 a53c 64e0 3b3d 940a 093d
000001d0: 695a 41bd dbbe e6bb 4368 9a3d 2402 023e
000001e0: c25a 37be d7c3 72bc 658a 26bd 4cbc 27bd
000001f0: 4d82 1b3e ddd3 043e c717 10bb 9073 2fbe
00000200: 3029 e23c 144f 97bc 2d8a d43d 6629 e4bc
00000210: ac24 e7bc 949f 20be 817d 753d 6e32 e13d
00000220: 80d6 ea3c fbb9 afbc b224 0f3e 9339 813d
00000230: 48fc 6d3d eff0 303d 82be 8c3c 5002 223d
00000240: 3ca5 3abe 1ee8 c6bc f6b0 b53c dcac 32bd
00000250: 3527 28bd c3fa 1e3d f514 233e 3a10 a23d
00000260: 6571 2cbd c3ff 03be ccfa 273e 5ee2 0fbd
00000270: 92ac adbc ab26 2abe e8ad 10be b625 08bd
00000280: c1d1 c93d 20d8 ff3c 9707 da3d 3df6 2d3e
00000290: 55d1 bbbd 2696 5dbe d60f aabd 082a 433e
000002a0: e558 403c 0b71 633d 7c7f d03d 48e5 d2bd
000002b0: 3433 043e dfa1 b1bb d7d1 e53c 5529 70bd
000002c0: 81b4 ea3d 704a 903c 85f4 553d a301 96bd
000002d0: d4d7 e6bd e1d2 92bd 38ad fb3c 1a6b 823d
000002e0: 3c21 89bb 3521 0fbd 5051 8fbc 0e1c c4bd
000002f0: ab6c 463d bc5b 763c 3f8c 043e bd8e ad3d
00000300: 0a60 65be 6fc6 23bd 7ecd 5b3d 3506 a83d
00000310: dcec aabd e266 003e cdc6 af3a 59cf 543e
00000320: 5ddf 6d3d 45b9 9e3b 06fd 1b3d a6dc 133d
00000330: 1c81 193d 4039 d3bc 5268 61be e129 bdbe
00000340: e020 aa3d 91eb b73c 584d 3fbd 673a 70bd
00000350: 5143 653d d18e 87bd 3b53 1cbe 3f6b cb3c
00000360: 9f78 37be a965 963b d496 33bb b03a 0a3c
00000370: 602c fa3c 8d5c aa3c b543 cebb 7929 cabd
00000380: 3bb9 8c3d 083f 81bd 7072 ccbd ffff 2abe
00000390: 148e ba3d c703 cdbd 92f1 5e3a dae5 8fbd
000003a0: 36c9 d5bd d364 e1bd 5697 d3bd 0e91 033e
000003b0: 1873 8cbc 34f1 f03c 9f6c 7b3d adbd 643d
000003c0: 8f74 fd3c 1fb7 1ebd d183 45bd f3de 1cbc
000003d0: 48c0 b1be e4bb 00be 3e82 23bd 52c7 213c
000003e0: 850b 8fbd c9b0 80bd 28bc 67bb 049c 473c
000003f0: 3618 173c f888 7b3d d38a d8bd ba28 42be
0.1490214 0.08929807 0.04376543 -0.12210448 0.102107115 -0.06364036 0.008625984 -0.14210296
-0.10166315 -0.15041883 -0.06533977 0.00095376733 0.0060318755 0.06698309 0.09643675 0.18176122
0.062347706 0.1605597 0.012171855 -0.121846415 -0.08126457 0.05150326 0.025201967 0.1978246
-0.1198754 -0.09603538 0.0012779046 0.0036890479 0.041486677 -0.01757841 -0.035984885 0.031638853
-0.018246582 -0.013637757 0.0007474628 0.0104621425 -0.102774575 0.032743316 -0.057211243 0.024569597
0.041917905 0.0921827 -0.058036655 -0.16047448 -0.02240997 -0.056243084 -0.028859224 0.012938801
-0.0920867 -0.014575349 0.03255451 0.026253846 -0.023760095 0.06275797 0.001506096 -0.0026977176
-0.13767467 0.15766922 0.07000402 0.050250284 0.059858307 0.060779616 -0.14827427 -0.006756143
-0.005293835 -0.0070612617 0.08555598 0.03451638 -0.045640927 -0.0283726 0.088065065 0.16564189
0.050746392 -0.038117867 -0.08038415 0.103298835 0.10707492 0.08443051 0.08200198 -0.081119284
0.10879766 -0.09236748 -0.046194375 -0.052691426 -0.027214596 0.014272689 0.07732989 -0.14008944
0.0064916313 -0.08688718 -0.1046095 -0.0127178645 -0.16427189 0.052506883 0.028110826 -0.052469976
-0.016766554 -0.002282337 0.025239188 -0.053301375 -0.06661741 0.04562724 0.03689127 0.06129309
-0.00077389926 0.09460102 -0.027264241 0.07902175 -0.01964172 -0.01647605 0.075912945 0.15589455
0.15935807 0.020176154 0.045868292 0.033457354 -0.047205362 -0.0070417947 0.075394176 0.12696129
-0.17905715 -0.0148172 -0.040659327 -0.04095106 0.15186425 0.12971444 -0.0021986829 -0.17133927
0.02760753 -0.018470325 0.103779174 -0.027851772 -0.028215729 -0.15685874 0.059934143 0.10995947
0.028666735 -0.021450987 0.13978842 0.063098095 0.058101922 0.043198522 0.017180685 0.039552987
-0.18227094 -0.024280604 0.022179108 -0.043621883 -0.041053016 0.038813364 0.15925963 0.07913251
-0.04210033 -0.12890534 0.16404265 -0.03512799 -0.021200452 -0.16616313 -0.1412884 -0.03323909
0.098544605 0.031230986 0.10645979 0.16988464 -0.09170786 -0.21639308 -0.08303802 0.19059002
0.011739944 0.055527728 0.10180566 -0.10297638 0.12910157 -0.005420908 0.028054161 -0.058633167
0.1146021 0.01761362 0.052235145 -0.07324531 -0.11271635 -0.07169128 0.030722246 0.06368084
-0.00418487 -0.034943778 -0.017494828 -0.095756635 0.048443478 0.01503652 0.12944125 0.08474491
-0.22399917 -0.039984163 0.05366277 0.08204309 -0.083459586 0.12539247 0.0013410688 0.20782222
0.058074344 0.004843863 0.0380831 0.0360991 0.037476644 -0.025784135 -0.22012451 -0.36946014
0.08307052 0.022451194 -0.04670462 -0.058649447 0.0559724 -0.06619037 -0.15266125 0.024831412
-0.17917107 0.0045897556 -0.0027403133 0.008436844 0.030538738 0.020796085 -0.0062946924 -0.098711915
0.068712674 -0.063108504 -0.09982765 -0.16699217 0.091091305 -0.10010486 0.0008504625 -0.070262626
-0.104387686 -0.11005559 -0.103315994 0.12848303 -0.017144725 0.02941189 0.061382886 0.05584495
0.030939369 -0.038748857 -0.048221413 -0.00957464 -0.3471701 -0.12571675 -0.03991913 0.009874182
-0.06984619 -0.06283719 -0.0035359953 0.012183193 0.009222081 0.06140992 -0.105733536 -0.18960848

fc1.bias f4 [120]
00000000: ac19 26bc 5838 1e3e 18ed 8abb c686 62bc
00000010: 94b2 803c 5bd5 54bd 7f29 6f3c 7e16 043d
00000020: b3d0 4ebd c2f4 c3bd 8335 e53c ba1e a63d
00000030: dfcd f73d d543 6c3c d4d5 b3bd 702a 40bd
00000040: 0836 9a3c 5918 493e c200 4fbd 37e0 763d
00000050: 449e dc3b 0be3 ddbd 4b64 29bd 8236 ce3b
00000060: 3e2e 2c3e b709 553d d20f de3c 03c1 a5bd
00000070: 9f91 e53a fb90 be3b bd6d d63c 1ad4 0f3d
00000080: bcbe 2f3e 1bdd b5bd 0872 183d 115a 063d
00000090: 19f5 c23d 77d7 14b8 0bfc 3dbd 09ea 523c
000000a0: 2d11 85bc ae70 a23c e2e4 25bd 948f b63c
000000b0: f926 32bd 0a10 9fbd e90f 92bd 01fd dbbd
000000c0: 60ae b73c 59c7 553d c55d bc3c 7457 1fbd
000000d0: e55d 5b3d 475d 8a3d adf8 8dbc f626 ecbb
000000e0: 26da cd3d 4be6 fe3d 25b1 50bd d0c8 d73c
000000f0: 78ad 313e e679 223e 9524 4dbd d4e7 8fbd
00000100: 55f9 26bd aa1a 4b3c ba1e d03c 7e18 4b3e
00000110: 4bb4 4bbc 3ab0 0c3d 2f97 92bd bc06 fabb
00000120: e0de f5ba 66d8 03be a4c9 89bd b819 813d
00000130: 2d4e 9c39 df7e 0abd 6cd2 c8bc a309 943d
00000140: 2779 28bd e7d0 2f3e 2c89 cf3d bb86 77bd
00000150: 83ba 4abd f5f8 923d 2b07 df3d 63ca 67bd
00000160: d80c 253d 849f 813d 91d5 19bd d5e0 e4bc
00000170: 06d9 ec3d c7d4 c6bd 4c3e f53d 6ec9 833d
00000180: aa84 c7bd 2317 303e 1490 073e 1445 19bd
00000190: 1a20 e7bd 2afe 2b3e ffea 8abd 0ddd f23c
000001a0: aa63 393e 0cd7 a4bd e736 cbbd a7c7 52bd
000001b0: fb02 003d 7e76 103d d4ac bd3b 7a95 54bd
000001c0: 51b1 0a3e d9f3 6a3d cadd 34bd 3027 1d3d
000001d0: bc90 0b3e b5ba 4cbe dad5 ad3c 350d 38bc
-0.010137957 0.15451181 -0.0042396896 -0.013826078 0.015710153 -0.051961284 0.014597296 0.032248013
-0.050492 -0.09568168 0.027979618 0.081113294 0.12099814 0.014420469 -0.08781019 -0.04691547
0.018824592 0.19638194 -0.050537832 0.06027242 0.006732734 -0.10834321 -0.041355412 0.006293119
0.16814515 0.052011218 0.027107153 -0.08093455 0.0017514712 0.005815623 0.026175374 0.035114385
0.17162603 -0.08880063 0.037218124 0.032800738 0.09519405 -3.5486617e-05 -0.046382945 0.012873181
-0.016243542 0.01982912 -0.040501483 0.02228526 -0.0434942 -0.07766731 -0.07131941 -0.10741616
0.022422016 0.052192066 0.022993932 -0.03890176 0.05355634 0.067560725 -0.017330492 -0.007206793
0.10051374 0.12446269 -0.05095019 0.026340872 0.1735133 0.15866813 -0.050083715 -0.070266396
-0.040765125 0.012396494 0.025405277 0.19833562 -0.012433122 0.03434775 -0.07157742 -0.0076301973
-0.0018758439 -0.12875518 -0.06727913 0.063037336 0.00029812884 -0.0338124 -0.0245144 0.072284006
-0.041131165 0.17169534 0.10133585 -0.060431223 -0.049494278 0.07176391 0.10890039 -0.056589495
0.040295452 0.06329253 -0.03755719 -0.02793924 0.115648314 -0.09708553 0.11974773 0.06434904
-0.097421005 0.17196326 0.13238555 -0.037419394 -0.1128542 0.16796175 -0.06783103 0.02964642
0.18104425 -0.080488294 -0.09922581 -0.051459935 0.031252842 0.035269253 0.005788425 -0.051900364
0.13544203 0.057361457 -0.044156827 0.03836745 0.1362943 -0.19993098 0.021220136 -0.011233618

fc2.weight f4 [84, 120]
00000000: 3c49 6b3d 60ce a6bd 69d7 8b3d 6079 0abd
00000010: 553b c2bc fcc6 803c 55f5 3ebc 3fcf 223d
00000020: b803 18bd 27d4 103e a82f 43bc c716 db3d
00000030: c45e 533d 4d6a 903d 907c d6bd 9940 253d
00000040: 119c d8bd e1a9 11be f586 7ebc f84f e4bd
00000050: 4e32 8fbd 3fb4 793e 49c8 8b3e c619 1d3e
00000060: 4971 03bd eee3 9abd 1271 213d 1b03 a13d
00000070: 4602 ef3d 0ddf 12bc 1298 0dbe 05f2 f5bd
00000080: 61dc e23d a9a0 4fbd 274f 1c3d 41aa 5a3c
00000090: 60b5 5abd 8704 88bd a4a0 033d f846 adbd
000000a0: 0025 973c 5b6b d43c 4d69 8d3d 1bd9 69bd
000000b0: 1abc 9cb9 9745 86bb 55ed 643e 8478 bcbd
000000c0: c3cf e53d 2eab e43c a940 933c 1d25 183d
000000d0: e1a3 08be 1b53 ff3c b2be 4abd 8efb 4c3d
000000e0: 2700 63be 77c4 1a3e f52c 0b3e f1d2 ca3d
000000f0: 4e5f c3bd c58d 04be ce6d b13c f12a 023e
00000100: dccf 9bbd 9837 2dbe 5c4d bb3d c786 973d
00000110: e703 31bd abcb 05be b982 3c3d 4e26 7c3d
00000120: a938 43be 50da acbd 347b ca3c 5f2b 0e3e
00000130: 2e95 4f3d 8cb9 713d cef5 8c3d dbc8 4b3d
00000140: 1111 6fbd 5af3 bd3c 2e7a 02be 305a d73c
00000150: f342 86bb 28f6 933c e237 82bd 5194 0f3d
00000160: 7e75 b93d ea97 583c e7e0 c4bd 8bf4 fa3d
00000170: ee9d 773d c11f 113e 8343 0fbd ba3e c4bd
00000180: 4492 a83d 8871 12be 7548 a63d 7ae3 17bd
00000190: eff0 503c 43be 0fbe 1674 3d3d c301 6f3c
000001a0: ab84 2f3d 659b 4ebe 08ee 893d 514d adba
000001b0: 86e9 04bd cc2a 30be cd0d 2b3d 5c55 f93d
000001c0: feec a9bd 89d3 08be 9a7b 02bc 7db6 0d3d
000001d0: b20a 74bd 706e 763e 095e b73d df1e 2fbd
000001e0: 71b9 0ebe ee79 3d3d 4ef5 693e 7618 12be
000001f0: b852 80bc d64d 993d 35a7 bf3c 6b3a 543d
00000200: 4843 cbbd b664 26bd 0d62 c23c e943 863d
00000210: 3406 b73d 05d6 97bd 7df9 ce3d 27ef d6bd
00000220: b743 613b 5146 633d 3d5c 4bbd fcdd 523d
00000230: 7761 e8bd 1085 1b3b d79e 84be c67d 2a3e
00000240: e552 d3bb 2728 35be 9a4d 14bc 56bd 2dbd
00000250: df96 04be 3e5d 023d cb03 8cbe 7568 cf3c
00000260: a14a d43d 8289 613c 797d c53d 72c4 883d
00000270: 0c64 273d 8bef 3d3d e840 bc3c ddc9 e53b
00000280: a11c 943b 8d7e e33d 3524 dd3c 4cd0 4bbd
00000290: e73a 92bd c5e3 753d a14f 703d 1d51 4dbd
000002a0: 8f37 02be 2c72 a13d 8524 e73d f292 69ba
000002b0: cd3e aabd 7212 b13c 7b4b 973d 8aa6 d9bc
000002c0: 322c 19bc 1b31 c73d c62e 82be 9c50 bc3d
000002d0: ea79 00be 9a0d 253e a9a1 5abb 4264 aebb
000002e0: ec34 cb3d 2053 e73c 8ca0 203e f743 d03d
000002f0: 5ec0 e3bd 453d 0ebc a0ba 093c aa21 3abd
00000300: f398 0f3d a0a8 b13d c62a a6bc 7eab 353e
00000310: e39e ecbc c778 88bd 7899 173d 9988 f83c
00000320: 84cf 5e3d f9a0 1c3e 9926 d5bc 63e3 bfbb
00000330: 41ba abbc ce26 1d3e a607 e63d 1821 193d
00000340: f102 2ebc 514b 7fbd 003b 0d3e 1a33 663d
00000350: 2f99 ad3d 847b be3d 43fd 123e 53c8 813c
00000360: a21a 1abe 075c 8f3d 1142 613d 6895 6f3c
00000370: 7b2b bfbd 4cfd e33d d9be 89bd a124 6d3c
00000380: 9747 aabd 10c5 7d3d 83f0 443d 0085 64bd
00000390: 8c22 433d 216e e8bd 2e7e 09be 75f5 e23d
000003a0: 8efe 053e f91d 8b3d 3303 d6bd 3ac2 3ebd
000003b0: b74b cc3c f3d3 15be 9f63 85be f6fc 1a3c
000003c0: 2067 58bd ffd0 7cbd 0381 a23c 57c7 ae3d
000003d0: 7e64 aabd c840 ad3d 5b31 aabd ec90 033c
000003e0: cb03 893a 0031 163c a039 e7bb 282f 1ebd
000003f0: 5ea4 473d 8ec1 2abb e99c 67bb 2e50 d03d
0.05744289 -0.08144832 0.068281956 -0.03380716 -0.023709932 0.015719883 -0.011655171 0.039748427
-0.03711292 0.1414343 -0.011913218 0.10697704 0.051604047 0.07051525 -0.10472977 0.04034481
-0.10576642 -0.1422496 -0.015535106 -0.11148065 -0.06992017 0.24385165 0.27301243 0.15341863
-0.03209046 -0.075630054 0.039414473 0.078619204 0.116703555 -0.008964312 -0.13827541 -0.12009052
0.1107719 -0.050690327 0.038161423 0.013346256 -0.05339563 -0.066414885 0.03213562 -0.08460802
0.01845026 0.025930097 0.0690485 -0.057091814 -0.00029894785 -0.004097651 0.2235616 -0.09202674
0.11221268 0.027913656 0.017975168 0.03714477 -0.13343765 0.031167557 -0.049498267 0.05004459
-0.22168027 0.15114008 0.13591368 0.09903515 -0.09539662 -0.12944706 0.021658804 0.12711693
-0.076080054 -0.16915739 0.091456145 0.073987536 -0.043216612 -0.13065974 0.046023104 0.061559968
-0.19064583 -0.08440077 0.024716951 0.13883732 0.05067938 0.059014842 0.06882821 0.049752098
-0.058365885 0.023187328 -0.1274192 0.026288122 -0.0040973364 0.018061712 -0.06358315 0.035053555
0.09055613 0.013219813 -0.09613209 0.12253674 0.060453348 0.1417227 -0.034976494 -0.09582277
0.08231023 -0.14301121 0.08119289 -0.037082173 0.012752756 -0.14037423 0.046253286 0.014587822
0.04285113 -0.20176466 0.06734854 -0.0013221895 -0.032449268 -0.17203826 0.04176121 0.12174484
-0.08297156 -0.13361944 -0.007964039 0.034597863 -0.059580512 0.24065566 0.08953483 -0.04275405
-0.13937928 0.04625886 0.22847483 -0.14267144 -0.015664443 0.07485549 0.02339516 0.051813524
-0.09924942 -0.04062339 0.023728395 0.065559216 0.0893673 -0.07413868 0.1010618 -0.104948334
0.0034372637 0.05548698 -0.049648512 0.051481232 -0.11346715 0.0023730434 -0.25902435 0.16649541
-0.006449091 -0.17691098 -0.009051705 -0.042416893 -0.12948178 0.031827204 -0.27346644 0.025318364
0.10365797 0.013765695 0.09643073 0.06678094 0.040866897 0.046371024 0.022980168 0.0070125894
0.0045200144 0.11108122 0.026994804 -0.049759194 -0.07140141 0.06003167 0.05866969 -0.050126184
-0.12716506 0.07883105 0.112862624 -0.0008910141 -0.083127595 0.02161524 0.07387444 -0.02656867
-0.009348916 0.09726163 -0.2542631 0.091950625 -0.12546507 0.1611847 -0.0033360517 -0.0053220103
0.099222034 0.02823788 0.15686244 0.10169213 -0.111206755 -0.0086816 0.008406311 -0.04544226
0.035057973 0.08674741 -0.020284068 0.177412 -0.028884357 -0.066636615 0.037011594 0.030338572
0.05439712 0.15295781 -0.026019381 -0.005855964 -0.020962836 0.15346834 0.112319276 0.037385076
-0.0106208185 -0.062327687 0.13792038 0.056201078 0.08476483 0.093009025 0.14354424 0.015842592
-0.15049222 0.06999975 0.054994646 0.014623024 -0.09334465 0.11132297 -0.067258544 0.014474065
-0.08314436 0.06195551 0.048080932 -0.0557909 0.04764037 -0.113491304 -0.1342704 0.110819735
0.13085386 0.06792826 -0.10449829 -0.046571948 0.024938447 -0.14631633 -0.26052567 0.009459725
-0.052832723 -0.06172275 0.019836908 0.08534115 -0.083199486 0.08459622 -0.08310195 0.008030158
0.0010453401 0.009166956 -0.00705643 -0.03861919 0.048740737 -0.002605531 -0.0035341328 0.10171543

fc2.bias f4 [84]
00000000: b294 0f3d 1019 093e 2166 bebd f23c 77bd
00000010: 511a debd 9085 b8bd ba07 ab3b e749 dc3c
00000020: c860 a6bd 8b4e 723e a0fc dfbc 8c93 2d3d
00000030: c8c4 35bd 2482 f4bb 3d41 a83b 3ec2 f9bb
00000040: c599 d3bd 767d 8abd 3283 8dbd ba6a 02be
00000050: 7c0b 95bd bf5c 66bd 05d3 33b9 0fcc 143d
00000060: 4f9f af3d f0e6 75bd 3199 9d3c f654 d7bd
00000070: 19c2 9f3c 6ed7 dc3d 49ad 693d 038d 423d
00000080: f8a1 48bd 6baa eb3c 8e0a 5e3e a512 b5bd
00000090: 98cc fb3c 1670 55bd 95d8 ec3d 0e3f 9bbd
000000a0: 4048 d9bc 3361 cdbc 2452 aebb 340f 973d
000000b0: 8889 6abc 58fc 19be 9592 bfba c9dc 1e3e
000000c0: f9a5 d53d 905d 023c 1caa 303e 4607 0e3d
000000d0: 980e 653e 9637 16bd ac56 47bd 5962 f2bc
000000e0: af1c 9f3d 99a7 a73d fc1d 1e3d b051 ae3d
000000f0: dc38 a0bd 8e29 bb3c 4366 513e 0160 c33d
00000100: fe98 853d 4bea a4bd ad78 5d3d 8312 a7bc
00000110: e034 cd3c 046f 89b8 6ee2 943b bd3e 073e
00000120: 0b5a f8bc b92f be3d 2eff 32bc 3e6d 40bd
00000130: 95c0 b03d d10d 183d 920f 143e c34d 113d
00000140: 8038 123d ec88 c23d 28c5 4fbd 3f72 ae3d
0.035053916 0.13388467 -0.09296823 -0.060360856 -0.10844863 -0.0900985 0.005219427 0.026890708
-0.08123928 0.23662774 -0.02734214 0.04237704 -0.04437712 -0.007461803 0.00513473 -0.0076220324
-0.103320636 -0.06762211 -0.06909789 -0.12736025 -0.07277581 -0.056240793 -0.00017149381 0.036327418
0.085753076 -0.060034692 0.019238086 -0.10514252 0.019501733 0.107832775 0.057050023 0.04749776
-0.04898259 0.028767785 0.21683714 -0.08841447 0.030737206 -0.052108847 0.11564747 -0.07580386
-0.02652371 -0.025070762 -0.0053198505 0.07375947 -0.014315017 -0.15037668 -0.0014615828 0.1551391
0.104320474 0.007956877 0.17252392 0.034674905 0.22368848 -0.036674105 -0.04866664 -0.029587911
0.07769143 0.081862636 0.038602814 0.085116744 -0.07823345 0.022846963 0.20449166 0.09539796
0.065233216 -0.080525 0.054070164 -0.02039457 0.025049627 -6.553347e-05 0.004543594 0.13207527
-0.030316373 0.09286446 -0.010925097 -0.04697918 0.08630482 0.03712255 0.14459065 0.03547455
0.035698414 0.09498772 -0.050725132 0.085178845

fc3.weight f4 [10, 84]
00000000: 7790 003e 8b54 f33c 9de4 1b3d e99d 34bd
00000010: 77ea 71bd 7f0a abbc 05fa 1dbe 3f83 24be
00000020: 4d49 7bbd 34bc 64be f76d 68be fc98 14be
00000030: 1f3d e6bc 11fe c0bb 205f 823c 9ad2 64be
00000040: 3aae d4bd 344e 63bc 24f1 dfbd 40b4 a1bd
00000050: 3e5a fb3d dce7 e8bd 915b 82bd e84c 1c3e
00000060: 4c17 1c3c 565a 993d 578c 85bd 28d1 893d
00000070: 802c 0bbe 2800 72bd 1227 bbbd c1c4 123e
00000080: 2984 1a3e 01a0 85bd 66bc 39bd 3f01 883d
00000090: 6f9c aa3d ba69 6c3e 2d9e 573c c652 3dbd
000000a0: 02e8 41be 841f 5dbc 612c 0d3e 9bde d5bd
000000b0: b598 a6bd 69b6 dfbd 3f4a 0c3e 8591 1ebe
000000c0: e19b 673d 4c18 dbbd 4df5 273c 3b53 343d
000000d0: 996d 03be 8c50 813d affe 06bc 1bd2 063e
000000e0: 5c7f 32be 09ed 5bbe 96fa 6cbe 163f 053e
000000f0: 0fe7 613d 1c79 40be 2178 c03d 8c1e afbd
00000100: 18ac f2bd 8316 e33d 3355 57ba 025b 0fbe
00000110: 6212 0abd 247b 8d3c dae7 64bc 013e 94bd
00000120: fb0a a9bd f707 6bbe 2b86 2cbe 1750 bdbd
00000130: 2dee 59be 3bef 8e3d aa4e 23be fe7e b53d
00000140: ba40 dc3c eb38 2f3e bc60 9ebc 0061 1abd
00000150: 21c2 3abd 36c5 de3d fbf8 ea3b 69e1 97bd
00000160: da1f 8fbd 3623 ddbd 0272 96bd e9fa 883d
00000170: 9ca2 e2bd d38c 483e 3e8d bdbc 38c8 5ebe
00000180: 6e91 873c d66d 99bd fbb5 ba3d 77aa 13be
00000190: 16f9 9f3d b79e 18bd 7daa a3bd e3fc b83c
000001a0: b2a3 883b 9d04 debd ef48 a6bd 6af6 36be
000001b0: 9e8e 283e 8787 cfbe 320b b0bd e187 46be
000001c0: f1d2 f03d 37f7 3b3e 477d 1fbe 33ef ec3c
000001d0: fe1c cc3c 71f5 013d f0d0 ea3d e5ac d3bd
000001e0: e6a8 923c ed9b 123d 9309 763e 82c3 60bd
000001f0: 1486 0ebe de6b 9ebc 7cf3 58be e893 c4bd
00000200: 802b 383d 040e 3bbe 6be3 17be 12ba 333e
00000210: 164a 0a3e 3ef7 38bd 739b 183d ba7e 3ebd
00000220: e6e5 973d dbe7 acbd 4a70 b2be 941b b73d
00000230: cb55 473e 880d f3bd bb65 843d bad8 36be
00000240: da37 f53c f89a d23d 78d7 3d3e 3e53 f13b
00000250: e87a 683e f5ec 2cbe 2e8f 013e 0c08 853d
00000260: f49e a9bc 008b 8cbb 5053 2a3b a3bd 0e3e
00000270: 3334 033c 78e9 63be aca0 8ebe 1f30 c83d
00000280: c9d8 69bc 8655 67be 6619 733e ac14 7c3d
00000290: 7eb0 27be 6148 7fbe c04a 99be ed71 b83d
000002a0: febe a93d c522 d5bd 8c63 623d d2b3 50bd
000002b0: 8d3e fdbb 9ff1 943d deb1 20be 9d70 c3be
000002c0: 7846 d9bd 8ae5 3abe e9ca e7bc 473e 02be
000002d0: 5318 43bd 3e35 edbb f1c5 b23c e212 a9bc
000002e0: a6d8 e73d cbd5 1fbd 5246 9c3d 787c 9f3d
000002f0: 545f d0bc 958a 313e 700e c9bd 8aa4 49be
00000300: c9d6 44bd 37e8 8d3c 56e3 71bd 7a3f dc3d
00000310: 6be0 6a3e 08b8 ebbd 76ba 503d e51a 9e3d
00000320: 61fe 81bd 1aff d7be 9c80 91bd 7c80 423d
00000330: 2a52 c73d 9c15 5fbe 9ab5 73be 433e 12be
00000340: 138a 023e f9ba b53e d81b cf3d 56e9 053e
00000350: 47b8 02be 250a 0c3d 8fed 973d a1ea 9fbc
00000360: 1930 90bd bb84 1c3d 443c 2f3c 8994 ef3d
00000370: a302 0f3c 7474 bb3d 97bd 92bd 4861 a83d
00000380: aa58 c4bd 369d 16be 1615 12be 4aa3 13bd
00000390: 385a 4b3d 79e1 063e 91ab 30bd 8ee0 29be
000003a0: 60b7 fb3d 7cd9 1cbe 4936 013e fe54 d63d
000003b0: b7aa 433d 7ab9 8ebc 04cc 14be 7356 8a3c
000003c0: 3bab d93d 5389 6ebe 2fa2 b53d ed78 7f3d
000003d0: 7ce8 f73d ef0f 2cbd ddd8 10be d7b7 453e
000003e0: cb6c f1bd e918 d1bd dc3d a5bd f983 e03c
000003f0: 6e14 be3c f779 dabd d1c7 bfbd 9513 84bc
0.12555109 0.0297034 0.03805982 -0.044095907 -0.059061494 -0.020879028 -0.15427406 -0.16065691
-0.061349202 -0.22337419 -0.22698198 -0.14511484 -0.028105317 -0.005889662 0.0159145 -0.22345963
-0.103847936 -0.013873626 -0.10934666 -0.07895708 0.12273072 -0.11372349 -0.06365121 0.15263712
0.009527039 0.07487933 -0.06520908 0.067293465 -0.13591194 -0.05908218 -0.091383114 0.14332868
0.15089478 -0.06524659 -0.045345686 0.06640863 0.083306186 0.23087206 0.013160271 -0.046221517
-0.1893616 -0.013496283 0.1378646 -0.10442849 -0.08134595 -0.10923464 0.13700198 -0.15485199
0.056545142 -0.10697994 0.010251355 0.044024687 -0.12834777 0.06314191 -0.008239432 0.13166086
-0.17431396 -0.2147714 -0.23142466 0.13012347 0.055151995 -0.187962 0.09397913 -0.08550748
-0.118492305 0.11088278 -0.0008214295 -0.1399956 -0.033708937 0.017270632 -0.013971293 -0.07238389
-0.082540475 -0.22952257 -0.16848056 -0.092437916 -0.21282263 0.06979223 -0.15947977 0.088621125
0.026886333 0.17111556 -0.019333236 -0.037690163 -0.045595292 0.10877459 0.007170794 -0.074160405
-0.06988497 -0.107977316 -0.07345964 0.06688482 -0.110661715 0.1958497 -0.023138639 -0.21756065
0.016548838 -0.07491653 0.09116741 -0.14420496 0.07811181 -0.037260737 -0.079915024 0.022581523
0.0041699046 -0.10840724 -0.0811938 -0.17867437 0.16460654 -0.40533087 -0.08595885 -0.19387771
0.11758984 0.18356024 -0.15575133 0.028922653 0.024916168 0.03172821 0.11465633 -0.103357114
0.017902803 0.035793234 0.2402709 -0.05487395 -0.13918334 -0.019338544 -0.21186632 -0.095985234
0.04496336 -0.18267065 -0.14832847 0.17551449 0.13504824 -0.045157664 0.037257623 -0.046507575
0.074168965 -0.084426604 -0.34851295 0.08940807 0.19466321 -0.11867815 0.06464716 -0.17856112
0.029933859 0.10283464 0.18539226 0.0073646596 0.22703135 -0.16887267 0.12652275 0.064956754
-0.020705678 -0.004289031 0.00259896 0.13939528 0.008008051 -0.2225703 -0.27856958 0.09774803
-0.014272877 -0.22591218 0.23740157 0.06154315 -0.1637592 -0.24929954 -0.29939842 0.090061046
0.08288382 -0.104070224 0.055270717 -0.05095274 -0.007728404 0.07272648 -0.15692851 -0.38171855
-0.10609144 -0.18251625 -0.028294997 -0.1271907 -0.04763062 -0.007239013 0.021822901 -0.020638887
0.11320619 -0.03902225 0.076306 0.077874124 -0.025436081 0.17338021 -0.09817207 -0.19691673
-0.048056398 0.017322643 -0.059054695 0.10754295 0.22937171 -0.115097106 0.050959073 0.077199735
-0.06347347 -0.42186815 -0.071046084 0.047485813 0.097324684 -0.21785587 -0.23799744 -0.14281563
0.12747984 0.3549421 0.10112733 0.13077292 -0.12765609 0.034189362 0.074183576 -0.01952106
-0.07040424 0.03821252 0.010695521 0.11698253 0.008728656 0.09153071 -0.07165068 0.0822168
-0.09587224 -0.14708409 -0.14265856 -0.036044396 0.049646586 0.13171948 -0.04313237 -0.16589567
0.122908354 -0.15317339 0.12618364 0.1046543 0.04777023 -0.017422426 -0.14530951 0.016886925
0.10628363 -0.23294573 0.08868825 0.062371183 0.1210489 -0.042007383 -0.14145227 0.1930841
-0.11788329 -0.10209829 -0.08068439 0.02740668 0.023203101 -0.10667794 -0.09364284 -0.016122619

fc3.bias f4 [10]
00000000: 0af1 bb3d 4300 d53d b25a 6bbd 6a69 6e3c
00000010: 0567 7b3d c1ed 1c3d 425e 06be cf8e a33c
00000020: 21c6 513d 47d4 253c
0.09176834 0.104004405 -0.05745954 0.0145515 0.061377544 0.038312677 -0.13121894 0.019965557
0.05121434 0.010121412
