models/Cutout-14-3 BasicNet.pt (torch, 180615 bytes, 10 tensors)

conv1.weight f4 [6, 1, 5, 5]
00000000: 1804 983d 1908 25be 3e98 5f3d 43f3 973d
00000010: 3dec c2bb d83a e53c ad4c 92be c532 2ebe
00000020: 67a6 883d 9720 1e3e a329 29be 692c f6be
00000030: dd94 9abe 5fe2 bcbc 1820 853e c609 2fbe
00000040: bafd 87be 6caa 1fbe 1790 27bc bc20 ff3d
00000050: 37b2 5aba 09e7 e1be 0ff5 223d c574 91bd
00000060: 49ac 783d e062 fa3c 004e 0f3e bd26 a83d
00000070: da98 85be 1884 cabe ca65 993d 32cd 393d
00000080: c318 c7be 03e0 c4be 153a 9ebe 68b9 5f3b
00000090: 35d2 4bbe 7150 e5be 1d13 cbbe 957d 81be
000000a0: 7d96 87bd 073b 80be 1829 d2be 469e cfbe
000000b0: ddf8 7abd 069a 803d edf2 63be 916e a0be
000000c0: 956c b1bd c3a2 f93d 0ce4 bfbd 4604 b2bd
000000d0: 0b72 223e ef10 88be 2145 a2be dc63 023e
000000e0: 600c 79be 5782 27bf b9d8 9dbe b3e4 943e
000000f0: 653a 733e 6dfe 943e af85 c4be 72fd f43e
00000100: 57bd 903e ef66 20be 0858 af3e 292f 0b3d
00000110: 5447 9f3d 1df9 84be 4888 43bd 1c73 95be
00000120: 7978 d23e 4adc 8ebe 00f2 493d 1770 e33d
00000130: 5781 393e 33bc afbd f566 a4bd 7098 eebd
00000140: 5368 febd 2e26 90bd b8d9 3fbe 6dd2 dc3e
00000150: f2ef c1bd bfce 83be 65aa e43e e495 80be
00000160: ce84 143e 94dc a2be 3e97 653e 00c5 313e
00000170: 6da1 b8be 1339 993e db9a 1f3e 56c9 ac3c
00000180: 93ee 66be 75eb 3dbd c2ec 84be 6fce cb3d
00000190: 3331 7bbc 190b 1a3d 9512 5f3d 40c5 66bd
000001a0: 66e6 3c3d 4777 3b3d a2ce b4bc d5f7 dfbc
000001b0: ebcb 4fbd 3af5 263e 095f 643b 438a 11be
000001c0: 05eb ad3c ad02 183c 89f0 ef3d 3943 35be
000001d0: b483 babc b9ab 11be c79e 303e fa1c 923e
000001e0: cbaf 2abe 0997 013d fede 453e bf59 9c3e
000001f0: 2d7e d8bd 0c35 5ebd b9d4 efbc e416 063e
00000200: ac02 bc3d 0209 1bbe 7fcb 0f3e f0c2 fb3a
00000210: 20f9 83bd bd04 773e ae86 ee3d 728b 69bd
00000220: 9ea6 263e 165f e7bd 6a77 debc accf 6b3e
00000230: d11e a63c 4167 5abe 94a8 82be e49c c1be
00000240: 0781 cc3d 248f 9abe cb6f a3be f90e d7be
00000250: 85f8 2ebf b4e4 35bf
0.07422656 -0.1611637 0.05458855 0.07419445 -0.005948572 0.02798216 -0.28574124 -0.17011555
0.06672364 0.1544212 -0.1651979 -0.48080757 -0.301917 -0.02305716 0.26001048 -0.17093572
-0.26560766 -0.15592355 -0.010227225 0.124574155 -0.0008342596 -0.44121578 0.039784487 -0.0710235
0.06071118 0.030564725 0.13994598 0.08210514 -0.2609318 -0.39553905 0.07490118 0.045361705
-0.3888608 -0.38452157 -0.30903688 0.003413761 -0.19904406 -0.44787934 -0.3966302 -0.25291124
-0.066205 -0.25045034 -0.41046977 -0.4055044 -0.06127249 0.06279378 -0.22260638 -0.31334355
-0.086632885 0.121892475 -0.09369668 -0.08692221 0.15863816 -0.2657542 -0.31693366 0.12733406
-0.24321127 -0.6543326 -0.3082941 0.29080734 0.23752744 0.2910036 -0.38383242 0.47849613
0.28269455 -0.15664266 0.3424685 0.033980522 0.07777277 -0.25971308 -0.04773739 -0.29189384
0.41107538 -0.27902442 0.049303055 0.11105364 0.18115745 -0.08580818 -0.0802745 -0.11650169
-0.12422242 -0.07038532 -0.18735397 0.43129292 -0.09469594 -0.25743672 0.4466125 -0.25114357
0.14503786 -0.31808913 0.22420976 0.17360306 -0.36060658 0.29926357 0.15586416 0.021092098
-0.22551946 -0.046367127 -0.25961882 0.099514835 -0.015331554 0.03760824 0.05446108 -0.056340456
0.046118163 0.04576805 -0.022071186 -0.027339855 -0.05073158 0.16304484 0.0034846684 -0.14212899
0.02123023 0.009277982 0.117158 -0.17701425 -0.02276788 -0.14225663 0.17248069 0.28537732
-0.16668622 0.03163818 0.19323346 0.3053722 -0.10570941 -0.05424981 -0.029276239 0.1309467
0.09180197 -0.15140155 0.14042471 0.0019207876 -0.06444001 0.24122901 0.11646782 -0.05701775
0.16274497 -0.11297433 -0.02715655 0.2302844 0.020278366 -0.2132845 -0.2551924 -0.3781501
0.099855475 -0.30187333 -0.3192123 -0.4200361 -0.6834796 -0.710521

conv1.bias f4 [6]
00000000: c4dd e3bb 5809 133e f242 a4bd f461 813d
00000010: 4193 563d 6156 82bd
-0.0069539268 0.14359033 -0.08020581 0.06317511 0.052386526 -0.06364132

conv2.weight f4 [16, 6, 5, 5]
00000000: a983 12bd 1ce2 a33d 0896 b339 dba0 11bd
00000010: 44ae a73d eb02 f8bd aab9 703d d938 ff3c
00000020: 84b2 9d3b f238 4f3d eaf7 4d3d e514 7f3d
00000030: 54e6 bb3d f4c4 b03d 8d75 953d 9f6b 1e3e
00000040: 01c3 f13c 663a a7bc c3f1 0bbe 8b0f 09be
00000050: e59b 543d b07e 983d 9ba8 c1bd 48db 38be
00000060: 0c6c 59be 8510 92bd 4c47 89bc dc54 b8bd
00000070: 2f41 a2bd 62d2 82bd 4273 7e3d da92 183e
00000080: e5ec be3c f9dc 063e 2b5d 193e c835 d6bd
00000090: 943e f0bd 608e 023e ebec 3a3d 1c03 2cbe
000000a0: d07d 2fbe c008 54be f2df 5fbe 88e0 b5be
000000b0: d9d8 79be 49aa b93b 6d7b 34be 50fe 67bd
000000c0: f79a a63d 846a 84bc 71f8 a6bb 5750 0cbd
000000d0: 4bd5 6e3d a731 0b3e 1aa0 ec3d c972 81bb
000000e0: 53b4 a83d 7b32 2e3e 9d46 3d3d 5edd 6fbd
000000f0: 6c42 853d fd03 673e 401e a6bd c922 e13d
00000100: fe37 aa3e 067d 02bd 5347 063e 2c3f 7e3e
00000110: f281 853e 772c 813e 7756 40be ba1a 66bd
00000120: 10ba 3b3e a328 8b3e 2a56 843e abec cd3c
00000130: 7d8b 273d f2c2 793c b427 d83d 3bad 503d
00000140: 6f6c 06bd b03a ab3c ddb3 66bb 66e2 ba3d
00000150: f4bb dabc afaf b93d 4be8 b53b 4166 f3bd
00000160: c688 d2bd 298d a2bd 50bd 3c3e 6ce2 c73d
00000170: 4d85 063e e0d4 4b3d b2a3 9a3d 9818 24be
00000180: 537b 1a3c 650f 6a3d 3fa9 38bd dae3 ab3c
00000190: f784 e7ba 62a0 463c 03bb e43c c134 b6bb
000001a0: 0c7c 0bbe 55d5 113d 9af6 513d dcce b0bc
000001b0: 367d 73bd 42fe afbd 3759 4d3b db5c 97bd
000001c0: f98a 29be 3009 d33d fe1a ff3d 1c04 20bc
000001d0: 8b8e b3bd b0a6 fa3b 835a 753c 36f8 1f3e
000001e0: 4ced 19be 17cd a3be 7684 bbbe ab9f 41be
000001f0: 0442 ebbb cfbd 403d eed5 95bd a687 d7bd
00000200: 8b23 d43c 1c96 a53d c2f7 4f3d c2e1 24bc
00000210: 7af4 cfbd 00a7 c63d c5b9 233e 18c2 86bd
00000220: 7b1a 98bd eec8 87bc cc42 5c3c 240d 55bd
00000230: dc2c 5f3e eb90 453d a639 babd 62f0 623d
00000240: aeda b23d 8113 0f3e 1a46 343e 2d8e 163e
00000250: 4b06 763e 21f1 0a3e c91d cdbd 2383 0abd
00000260: cc8a 86bd 3a71 24be 2367 aabc 3e41 223d
00000270: ce49 2f3d 4afe 2d3e 4c5d 1bbe b5e7 cabe
00000280: 7cb5 333c 38df d0bd 23a2 2b3e 14ca 743e
00000290: 151d 82be 5097 aabd 8bdf a5bd 7f38 363d
000002a0: c59b 3b3e 398b 6bbd 9440 85bd e09d 12be
000002b0: f245 72bd 50a2 6c3d cfcc 2fbe eaaa 853d
000002c0: 7285 123d 802d 3ebd 4c8c 8d3d 4762 803e
000002d0: 43ba 76bd 7bbb 7fbe bf2c ebbe 2d84 02bf
000002e0: 11ff 123d 018e 1fbd 12b5 c23d 6512 afbe
000002f0: a6b3 e4be e966 86bb e387 b63d 8b82 283d
00000300: 1882 87be 69d0 dfbe f8c8 9d3d 9c9a 693d
00000310: ef89 69bd abcd afbe e0e2 0abe 6159 483e
00000320: c538 5ebd a417 d93c 193a bd3d 634f a93d
00000330: 2f6c 18bd bf97 20bd 7e10 563d fa9e 233e
00000340: f169 523e 7467 9f3e 6c9f b73d 0dc5 1c3d
00000350: f894 11be 927a 20be 1818 8c3e 7fd4 373d
00000360: 408b 883d c986 ea3d 844a a5bd 530f a7bd
00000370: 1357 913d cfa7 623e 155a 303e 41b5 043d
00000380: a5aa 25be df59 b3bd 2088 983d d022 a03c
00000390: de20 74bd 63b1 4abe 9f2d 27be 978e 5f3d
000003a0: baf2 f03d e585 bf3d 9240 86be 0b99 ecba
000003b0: 70f4 a1bc 633c 343e 0dd4 563e 3ca0 203e
000003c0: cb6a 91bd 50e6 75bd 3be9 713d 2d62 eb3d
000003d0: e36e 683e 95f2 04be 47bb 87bd 4838 cb3c
000003e0: 60e6 833e fb8a f53d e7a0 f33c d2ae 8b3d
000003f0: 4ab4 8bbd 1d5c acbd cb4b 45be 6f9e 943d
-0.035770092 0.08002111 0.00034253323 -0.035553794 0.081875354 -0.121099316 0.058770813 0.031155037
0.0048125405 0.050591417 0.050285257 0.062275786 0.09174791 0.08631316 0.07297812 0.15470742
0.02951193 -0.020413589 -0.13666444 -0.13384835 0.051906485 0.07446039 -0.09455987 -0.18052399
-0.21232623 -0.07132057 -0.01675763 -0.09000561 -0.07922589 -0.063877836 0.062121637 0.1489977
0.02330632 0.13170232 0.14976947 -0.10459477 -0.11730686 0.12749624 0.0456361 -0.16798061
-0.17137837 -0.20706463 -0.21862772 -0.35522866 -0.24399127 0.0056660515 -0.17625208 -0.056639016
0.08135026 -0.016164072 -0.0050955345 -0.034256306 0.05830888 0.1359316 0.115539744 -0.003950451
0.08237519 0.17011444 0.04620992 -0.05856072 0.065068096 0.22560115 -0.081112385 0.10992963
0.33245844 -0.031857513 0.13113146 0.24828786 0.26075703 0.25229236 -0.18782984 -0.056177832
0.18332696 0.2717944 0.25846988 0.025137266 0.04090451 0.0152442325 0.10554448 0.050946455
-0.032818254 0.020902008 -0.0035202422 0.09125213 -0.026700951 0.09066712 0.005551373 -0.11884738
-0.10279994 -0.079370804 0.18431592 0.097599834 0.13136788 0.04976356 0.07550754 -0.16025007
0.009428817 0.057143588 -0.04508328 0.020982672 -0.0017663528 0.012123199 0.027921205 -0.005560488
-0.13621539 0.03560384 0.05126057 -0.021583013 -0.059445582 -0.08593418 0.0031333694 -0.07390758
-0.1655692 0.10304487 0.1245632 -0.009766605 -0.08767422 0.007649265 0.014975193 0.15622029
-0.15031928 -0.3199241 -0.36624497 -0.18908565 -0.0071795005 0.047056016 -0.073161945 -0.1052392
0.025895854 0.08085272 0.05077339 -0.0100635905 -0.10154052 0.096998215 0.15988834 -0.06579989
-0.07426926 -0.016575303 0.01344366 -0.052014485 0.21794456 0.048233908 -0.09093027 0.05540503
0.08733116 0.13972284 0.17604867 0.14702673 0.24025838 0.13568546 -0.10015447 -0.033816468
-0.06569442 -0.16058818 -0.020801133 0.039613 0.042794995 0.16991535 -0.15172309 -0.39629903
0.010968562 -0.101988256 0.16761069 0.23905212 -0.25412813 -0.08329642 -0.08099278 0.044487473
0.1832114 -0.05750582 -0.06506458 -0.14318037 -0.059148736 0.05777198 -0.17167972 0.0652674
0.035771795 -0.04643011 0.06911525 0.2507498 -0.060236227 -0.24973862 -0.45932576 -0.50982934
0.03588778 -0.038953785 0.09507193 -0.3419372 -0.4466831 -0.0041016233 0.08912637 0.04114012
-0.2646644 -0.43713692 0.07704347 0.057032213 -0.05701631 -0.343366 -0.13563108 0.19565345
-0.05425336 0.02650053 0.09239597 0.08267095 -0.037212547 -0.039207216 0.052261822 0.15978613
0.20548226 0.31133616 0.08965954 0.03827386 -0.14216983 -0.15671757 0.27362132 0.044880386
0.06667185 0.114514895 -0.08070853 -0.0815722 0.07096686 0.22134326 0.17221864 0.03239942
-0.16178377 -0.08757376 0.07447839 0.01954785 -0.059601657 -0.1979423 -0.16325997 0.054579344
0.117650464 0.0935171 -0.26221138 -0.0018050981 -0.019769877 0.1760116 0.20979328 0.15686125
-0.07100447 -0.060034096 0.059060317 0.11493335 0.2269855 -0.12983163 -0.06627517 0.02480711
0.257617 0.11989399 0.02973981 0.06820454 -0.06821497 -0.08416007 -0.19267194 0.07256781

conv2.bias f4 [16]
00000000: 9567 45be 76ac 2ebd ab8b 97bd 2198 993d
00000010: 4503 26be 7074 8abd 50d5 24be ddb0 3ebc
00000020: d25d 133e 3967 0abd 354c 88bc 60a9 39bb
00000030: 5257 d5bd c263 03be fdd4 b2bd 5bfd e33d
-0.19277795 -0.04264494 -0.073996864 0.074997194 -0.16212185 -0.0676049 -0.16096997 -0.011638847
0.14391258 -0.033789847 -0.0166379 -0.0028329715 -0.10417046 -0.12831023 -0.087320305 0.11132308

fc1.weight f4 [120, 256]
00000000: 1179 663d 8a37 1fbe 604a c53c d50b 973c
00000010: 4c1b f7bc 7ba2 c2bd 3c12 0cbd 8590 a93c
00000020: f940 82bc 4ec0 733c 406b f5ba 6ffa a73d
00000030: e80e 4fbd 5278 1b3d 74da 03bd 4889 883d
00000040: 4750 70bb 18a7 643e 7978 89bc 604e 4bbe
00000050: a50f 413c d6bc 5b3d 9357 f03d 9490 13bc
00000060: 7cde 43bd 2376 1ebe 18fb 293c 3129 4ebd
00000070: 4539 94bc d336 26bd 33a1 a63d f4de 773d
00000080: 1a8f 73be 64ee 9cbe 934a 97be 9a22 94be
00000090: a7ca 87bd 8a80 0ebe 4e94 90bd 0938 35bd
000000a0: 7ab6 bdbc f62a 953d dc09 1a3c 0632 80bc
000000b0: 2be8 0d3e 1d00 01bd 9816 a53b 8629 403d
000000c0: 89f0 233c 087d 8e3d 4790 f2bc dce3 033d
000000d0: aa07 d63d bfa1 ca3d b654 ac3d 0157 ab3c
000000e0: 015f d53d 2cd2 b7bd a80d 00bc 6b1a 1d3c
000000f0: 5784 3f3d 4d55 003e 0a7e e53d 4f5c 11bd
00000100: 4d04 4dbd 4ad2 393e a539 ac3e 7d8f aa3d
00000110: f2a6 6fbc 8c9b d8bd 5d73 7cbc 9b9e 523d
00000120: d595 d1bd 7d67 53bd d00f 0cbe c676 353c
00000130: a201 283c 237e 0f3d 5b73 7c3d 13a1 4fbc
00000140: 407f 5d3e a38e dbb9 8331 d4bd 7d94 04bd
00000150: 8bd4 34bd 8f63 013e 967a cbbc 4554 3e3d
00000160: cfca 41bd 4a7a d1bc e612 0dbd 7b38 05bc
00000170: fdf3 5bbd 0b73 33bd 19c4 293e 3a7f 233d
00000180: 19a9 b53e e0f6 17bd ec14 4bbe 9dc6 1bbe
00000190: e1ad 5d3e 2049 1b3d ea98 1dbd 119c d2bd
000001a0: 8d6d 91bd d4db b13d a803 a83d 0157 013d
000001b0: f79d 0bbe e490 5a3d 748d 3f3d 6bd5 613c
000001c0: 988b 86bd 588a a1bc 34fa 26bd 5768 23bd
000001d0: a546 153c b180 1e3d 971f 6ebd f765 80bd
000001e0: b578 9d3c ef63 483d 9b8a 67bc cae9 0e3d
000001f0: 2701 2e3c 191a a5bc 52be 553d fd07 833a
00000200: 2910 02be 879d 2f3c ded4 963d d255 2abe
00000210: 25ca c23c f7d9 13be b988 43bd 52a1 dcbd
00000220: d0df 803d 6fd9 e73d 0c9c d93c ed8f 983c
00000230: ae7e 943d 79c0 2d3c 4225 a7be afdc 3dbd
00000240: fad3 083c 63cc 82bc 6f88 153e 3d13 7f3c
00000250: ce61 a93d 571f 563d d96a 5f3d b0dd 3bbd
00000260: 19c9 dcbc 835c a33d df6c 4fbc c5c6 49bc
00000270: 41ef df3b 59d1 abbd 76ed dfbd efff 9e3b
00000280: 972b ca3c 0b94 8a3d 952c 133e 6209 d93d
00000290: 5dce 353c 9395 e9bd c457 67be 3760 203d
000002a0: ffd2 0a3b 6c8f c6bc bfec 1a3d d263 733d
000002b0: 2b0e 90bd 65f4 573c 814d e13d 4a5f 8ebc
000002c0: 3d71 64be 30e0 62bd e1ca 903e a179 ea3d
000002d0: 603b 04bd 11a3 f13c ae66 b3bb 8e2a e23d
000002e0: 86a0 c33d 7169 933d bdb4 1abd e140 f9b9
000002f0: e7ee 153e 51f4 213c 3555 dcbd 367b 9d3b
00000300: 574d 03bd 4aee 613e c45a f93d 34a4 60be
00000310: e72e ca3c 27e4 fc3d 61e3 433e 8102 81bb
00000320: da5d e23d 584b ab3d 4f31 c8bc bb1e 033d
00000330: 5c76 ea3d dc41 cabd a3b5 c1bd c645 3bbd
00000340: 0739 683d 31c2 a4be 87d2 bbbe 431c 86be
00000350: 80d2 493d da5c 08be d29d 893b 8202 95bd
00000360: c0c9 a4bd 7115 d73d f821 8e3c 54dc 1fbd
00000370: e74f 76bc ce69 33bd 1cef b1bd adbe 003b
00000380: 1b4b 103e bd28 723d 1234 93bd 6921 8bbb
00000390: 1555 713e 8f81 fa3d 6374 01bd 4fe5 b93d
000003a0: fca7 abbd e90d 283d d882 213d c373 043d
000003b0: 117a 1abe d6e2 9fbd 2761 54bd 6afe 023d
000003c0: 2dc9 083d 0ae7 253a 29db 08be 0123 f13c
000003d0: 821d a33c f503 20be dfd4 7f3c 1d32 0dbb
000003e0: eaea d4bd b824 84bd 900a 54bd ac5c 0d3d
000003f0: e547 83be 410d e5bc 1abd 053c 99fe 243e
0.0562678 -0.1554853 0.024083316 0.01843826 -0.030164383 -0.09503647 -0.034197077 0.020698795
-0.015900122 0.014877392 -0.001872398 0.08202063 -0.050551325 0.037956543 -0.032190755 0.06666809
-0.0036668943 0.22329366 -0.016781079 -0.19854116 0.011783515 0.053646885 0.117354535 -0.009006638
-0.0478196 -0.15474753 0.010374807 -0.050332252 -0.018093714 -0.04057963 0.08136215 0.06051536
-0.23785058 -0.30650628 -0.29549083 -0.2893265 -0.0663045 -0.13916221 -0.07059537 -0.044242892
-0.0231583 0.07283585 0.009401765 -0.015648853 0.13858096 -0.03149425 0.005038094 0.0469146
0.0100060785 0.069574416 -0.029609812 0.032199726 0.104506806 0.09894132 0.08414595 0.02091551
0.10418511 -0.08975634 -0.007815756 0.009588818 0.04675707 0.1253254 0.11205681 -0.035488423
-0.05005293 0.18146625 0.3363773 0.083281495 -0.014627205 -0.10576543 -0.015408364 0.05142079
-0.10233656 -0.051612366 -0.13677907 0.011075681 0.010254296 0.035032403 0.06163345 -0.01267268
0.21630573 -0.00041877208 -0.10361006 -0.032368172 -0.04414801 0.12635635 -0.024838727 0.046467084
-0.047312554 -0.025571007 -0.03444185 -0.008131142 -0.053699482 -0.043810885 0.16578712 0.039916255
0.35480574 -0.037100673 -0.198322 -0.15212484 0.21648361 0.037911534 -0.03847591 -0.102836736
-0.07100973 0.08684507 0.082038224 0.031577114 -0.13634478 0.053360835 0.04676576 0.013783793
-0.06569594 -0.019719288 -0.040765956 -0.039894428 0.009111081 0.03869695 -0.058135595 -0.06269448
0.019222597 0.04892343 -0.014132167 0.034890927 0.010620392 -0.020154046 0.052183457 0.0009996888
-0.12701477 0.01071871 0.0736482 -0.166343 0.02377803 -0.14438616 -0.04773781 -0.10772957
0.06292689 0.11320769 0.026563667 0.018623317 0.07250725 0.010604971 -0.32645613 -0.04635304
0.00835132 -0.0159666 0.14602827 0.015568552 0.08270608 0.05227598 0.054545257 -0.045865715
-0.02695136 0.079766296 -0.012660234 -0.012315457 0.006833941 -0.08389539 -0.10933964 0.004852287
0.024678988 0.06766518 0.14372475 0.10597493 0.011096564 -0.11405482 -0.22592074 0.039154258
0.0021182892 -0.02423831 0.037823435 0.059421368 -0.07033952 0.013180827 0.11001111 -0.017379422
-0.22308822 -0.055389583 0.28279784 0.1144898 -0.032283187 0.029496701 -0.005474887 0.11043273
0.09552102 0.07197846 -0.03777002 -0.0004754132 0.14641915 0.00988491 -0.107584395 0.0048059477
-0.03205618 0.22063556 0.12175515 -0.21937639 0.024680568 0.12348204 0.19129707 -0.003937066
0.11053057 0.0836398 -0.024437575 0.03201173 0.114483565 -0.09875843 -0.094584726 -0.045720838
0.05669501 -0.32179406 -0.36684057 -0.26193437 0.049273014 -0.1331667 0.004199722 -0.07275869
-0.08046293 0.105021365 0.017350182 -0.03902848 -0.015033699 -0.043802075 -0.086881846 0.0019644902
0.1409115 0.059120882 -0.07187666 -0.004245926 0.23567612 0.122317426 -0.031605136 0.0907694
-0.0838165 0.04102889 0.039431423 0.03233696 -0.15085627 -0.078069374 -0.051850464 0.03198091
0.03339498 0.0006328678 -0.13364853 0.029435636 0.019911531 -0.1562651 0.015614717 -0.0021544762
-0.10396369 -0.06452316 -0.051767886 0.034512207 -0.2564079 -0.027960422 0.008162761 0.16112746

fc1.bias f4 [120]
00000000: 1325 633d 449f 0bbc bdfa ac3c 8afc 65bc
00000010: 7ff4 fdbc b5f8 4e3c bb47 13be fa2c 8dbd
00000020: bef4 b2bd 7a60 9c3d 1516 543d 099a be3d
00000030: 6bbb 3bbd 6112 a1bc c2c7 a83d 3aa3 4b3d
00000040: 5e12 a8bd 8494 6a3c b110 c83d 4c82 2dbd
00000050: 95b1 10be c885 93bd 4e4a 613e b5f6 013e
00000060: 3101 d83b 9709 a1bd 6d16 c43b fb52 9b3e
00000070: a6dc 01bc d862 e33d c255 2d3e d12e 93bd
00000080: 7d3f 03bd 70b1 a4bd 3c87 643d 9591 d13d
00000090: 69e5 273d ecf7 e93d fb42 393e b2dd c93d
000000a0: 9a6f 28bd a45a afbd c94b 063b e93d 753e
000000b0: 6b3f ffbb 2153 a93d 556b 6f3e 1f41 a23d
000000c0: cca5 23be bba3 0a3d 1bc1 673e f666 dabc
000000d0: 4151 2c3e 9cb8 1ebd 06fe 943e 0fe8 173e
000000e0: 1c37 02bd 9b98 193e 19b7 9cbc 215d 7b3d
000000f0: c8f2 533e d775 933d dcc5 91bc 6b0f dabd
00000100: 1db7 2a3c 2f5e 093d dd00 2b3e 1fd2 88bd
00000110: f520 0e3c c679 be3c fb0c 06bd 5f08 a83d
00000120: c537 15bc af9f c1bb 5aad 163d 133f c2bd
00000130: 51c7 57bd 56c5 48bd 84cb e2bd 3ac6 a1bc
00000140: cb80 c3bd 5914 66bc b3ba f63d f753 a73c
00000150: ecc9 17be cf64 8dbd 6a3c dfbc 3485 053e
00000160: 29ad df3c 1c7e 3c3e 0778 9dbd 8af6 7f3d
00000170: 42ed fbbd c623 c9bc 5016 a23c 6a33 173d
00000180: 309a a1bd 2756 2abe 6f16 9e3d a919 643c
00000190: 583c bb3d 406b 3fbd f831 233e a653 1cbc
000001a0: c2b3 363e 7b8c 13bd 2c5c 7b3d 3750 483e
000001b0: cde4 f5bd 9d27 e43d 59b6 8d3d d21b 663d
000001c0: ebc9 6b3d 6a09 77bd 14bb cdbd 5dd8 a03c
000001d0: 707d 153d 31df 9b3e 8380 8e3d 7ef9 7dbd
0.05545528 -0.008521859 0.021115655 -0.014037261 -0.031000374 0.012632539 -0.14382832 -0.06893344
-0.08738087 0.07635589 0.05177887 0.093067236 -0.045833033 -0.019662084 0.08241226 0.04971621
-0.08206628 0.014317635 0.09768809 -0.04236059 -0.14130242 -0.07203251 0.22001001 0.12691768
0.006591939 -0.07863157 0.0059841187 0.30336747 -0.007926142 0.11102837 0.16927245 -0.07186664
-0.03204297 -0.08041656 0.055793032 0.10232846 0.040990267 0.114242405 0.18091957 0.09856738
-0.041122057 -0.0856221 0.0020491949 0.23949398 -0.0077895424 0.08267809 0.23380788 0.07922577
-0.15981215 0.03384755 0.22632258 -0.026660424 0.16827871 -0.038750276 0.29100055 0.14834617
-0.031790838 0.1499962 -0.019130277 0.06136811 0.20698082 0.072002105 -0.017794542 -0.10647472
0.010419634 0.033537086 0.16699548 -0.066807024 0.00867485 0.023251425 -0.032727223 0.08204722
-0.009107535 -0.0059089283 0.036786415 -0.09484687 -0.052680317 -0.04901632 -0.11073974 -0.019747842
-0.0954605 -0.014042937 0.12047329 0.02042578 -0.14823121 -0.06903993 -0.027250487 0.13039094
0.027304249 0.18407482 -0.07688909 0.062490977 -0.12301113 -0.02455319 0.01978603 0.036914267
-0.07890737 -0.16634427 0.077191226 0.0139221335 0.09142369 -0.04673314 0.1593703 -0.009541428
0.1784201 -0.036022644 0.0613672 0.1956185 -0.12006531 0.11140368 0.06919546 0.056178875
0.05756561 -0.060311712 -0.10045448 0.01963442 0.03649658 0.3044372 0.069581054 -0.062005512

fc2.weight f4 [84, 120]
00000000: 125d ebbd 3225 09be 79c2 38be e3f7 cc3c
00000010: fa55 453d 931b 803c ba06 74bd 107c 6abc
00000020: 37a3 9f3c c466 5abc 35b1 96bd 0ec5 1f3d
00000030: f1e5 37bc 4208 bd3d e849 11bd e8ef 273d
00000040: dc9f 543d 1a8c eebd 80da a33d 2018 dc3d
00000050: 6f3c b2bd a942 36bc 2058 8dbd ff02 503d
00000060: d9b2 c63d 5672 663c aeda 09bc 6285 7d3c
00000070: 1c80 12be f847 4cbd e741 343d 02ca 933d
00000080: 17ee 9abb 729a 683d bbc8 c9bd f4f6 f8bd
00000090: 9090 d93b 55ed 883d 0ef8 a43d af16 f03c
000000a0: 8bc8 91bc ac4a 90bd a9ce 943d 2be7 8abd
000000b0: 87e5 313e d5d6 c0bd b28e 143c 14cd e2bd
000000c0: 337a 8dbd 2752 af3d 65ea 0f3e 12c6 34bd
000000d0: 04f6 85be e5ac 1cbd 2704 07bd 5c77 fd3d
000000e0: b400 a8bd 1b8c 1d3d 6430 29bd 10eb 23be
000000f0: acb8 67bd 37fb acbd a584 a5bd 33d5 ad3d
00000100: 52e1 313e ea01 c3bc 11a4 bb3a bd0b c93d
00000110: 8418 563e 2c78 91bd fb5c 8cbd f8ed 5c3d
00000120: db42 1a3c b62d a63d 81d3 193e 821c 55bd
00000130: 2849 15be 799f 92bd 048b acbd f208 c2bd
00000140: d95e 9c3e 2d62 b33d f88d 943c f3b9 be3d
00000150: ea34 9cbd 5209 b73b fb2c ca3d fb07 123e
00000160: 687d b03d ebf7 78bd 137e c03d 9870 21be
00000170: e2c7 23bd 8327 263d ae20 423d 66f7 203e
00000180: 363b 0abd e5b6 00be 0ab1 c2bd f870 8bbd
00000190: 7e67 163c 3ea3 2e3e e149 493e c95c fa3d
000001a0: 7d0a e2bd 06f8 433c 286e 93bd fc78 dbbd
000001b0: edba 1a3e 31e5 bc3d 81e4 5bbe c1af e23c
000001c0: fda2 143b 5caa 933c 2f55 c93c 0ffe 1abc
000001d0: fa6f aabd ae2d 2d3d b687 f8bd c0ab c93c
000001e0: 16d6 2f3a 7cc2 163e 4ed6 99bd 9f35 a2bb
000001f0: 7cf7 30bd 389c 8dbd 443a efbc 149b 3f3d
00000200: dc81 1e3d d0e3 05be a2f3 183e 2d39 29bd
00000210: 0e57 953d c21a cf3d 8b1c 84bd b2e4 b03d
00000220: b111 01bd 5eae 0ebe 282a 42be a2d6 06be
00000230: 9b6b bebd ad0d 9ebd af08 333e 0ffc 56be
00000240: 61c2 0e3e 257d b33a e9bb 35bc 588a 2bbe
00000250: 6e9a fa3d d551 70bd 6adc 7c3d 5f1f aa3d
00000260: c444 32bd aae6 3f3e 3e49 563d 958a 883c
00000270: 7a74 09bd c207 0cbe e560 c93d dd7b 723b
00000280: 754e c73d 9ee7 06bd 5a06 b43b 19e5 453c
00000290: 1735 883d 68a7 4ebd c3ba 64bc b3ea eabc
000002a0: d097 133d 969a 00bd 9e75 323c b2cb b2bd
000002b0: af92 653d d6e7 903a 49c3 b33d d60b 86bd
000002c0: f01b 96bd 16d4 6f3e 4ad8 1cbd 33a6 833c
000002d0: d17e f83d a89b 80bd b2d7 033d 50b4 56bc
000002e0: 9924 263d d469 0cbe 5a08 32bd fd99 023e
000002f0: 7998 cbbb 3636 f53c 9521 b83c 7884 abbd
00000300: 1de8 a0bc 4da0 0bbd abfe 313e 5235 b53b
00000310: 89e2 6dbd fd0a 13bd 5cb5 1f3d 88f1 81bd
00000320: dea0 2d3d d3a0 b83b 1c11 eabc 2ced 4c3d
00000330: 7241 a03d d722 473d c90e 3dbd 289a a53d
00000340: 0f1f 16be b955 50bd fe94 c2bd 1702 7d3c
00000350: 3f37 c83c 3836 08bd eca8 d13c 1536 1b3d
00000360: 9272 b03d 52b8 4ebd 3048 29bd dd47 e9bd
00000370: a736 273d 53b6 623e 30b3 923d 0e59 c93b
00000380: 2abc 51bd 1adf b23d b881 273e 969f 39bd
00000390: cad4 9fbd 0afe 69bd 8793 763e e92b a8bd
000003a0: 0f3c 753d afaa 29bc 78f9 053e 1f2e 9bbc
000003b0: c184 a4bd e9a6 2fbd a4cb d93d 01fd fa3c
000003c0: 83da bd3d 7495 973c 3e8b 40be 1b87 6a3d
000003d0: 3247 95bd b687 083c 5acb a73d c49c ba3d
000003e0: 2e6a 47bd 00d3 b7bd 023c 6fbb 6c35 ab3d
000003f0: 4e1b 993d c109 483e bf4d 953d eee3 49bd
-0.11492361 -0.13393095 -0.18042935 0.025020545 0.048177697 0.015638148 -0.059576727 -0.014311805
0.019487007 -0.013330165 -0.07358018 0.039006285 -0.011224256 0.09230091 -0.035470873 0.041000277
0.051910266 -0.11647816 0.0800066 0.10746789 -0.08702933 -0.011124291 -0.06901574 0.050784107
0.09702081 0.014065346 -0.008413954 0.0154736955 -0.14306682 -0.049873322 0.044008162 0.07216264
-0.0047280896 0.056787916 -0.098527394 -0.121564776 0.0066395476 0.066858925 0.08055125 0.029307691
-0.017795822 -0.070454925 0.0726598 -0.06782373 0.17372714 -0.09415976 0.009067224 -0.11074272
-0.06908073 0.08560591 0.14054258 -0.044134207 -0.26164258 -0.038250823 -0.032962944 0.123762816
-0.08203259 0.038463693 -0.041305915 -0.16007638 -0.0565726 -0.08446353 -0.080819406 0.0848793
0.17371109 -0.023804624 0.0014315863 0.09816692 0.2090779 -0.07102999 -0.06853672 0.053937882
0.009415354 0.081141874 0.15022089 -0.05202914 -0.14578688 -0.07159323 -0.084249526 -0.094743624
0.30541113 0.0875896 0.018134102 0.09312811 -0.0762728 0.005585828 0.098718606 0.14260857
0.08617669 -0.060783308 0.09399047 -0.15765607 -0.039985545 0.040565025 0.047394447 0.15719375
-0.033747874 -0.12569769 -0.09506424 -0.068086565 0.009179948 0.1705446 0.19657089 0.122247286
-0.11037157 0.011960989 -0.07198745 -0.10716435 0.15110369 0.09223402 -0.21473886 0.027671697
0.0022680156 0.01802557 0.024576752 -0.009459986 -0.08322139 0.04227989 -0.1213526 0.02461803
0.00067076215 0.14722627 -0.075115785 -0.00495024 -0.04320477 -0.06914562 -0.029202588 0.046778753
0.038698062 -0.13075185 0.14936689 -0.041314293 0.07291995 0.101125255 -0.06450757 0.0863737
-0.031511012 -0.13933703 -0.18961394 -0.13167813 -0.09297868 -0.07717452 0.17483781 -0.2099459
0.13941337 0.0013693912 -0.011092165 -0.16751993 0.122364864 -0.05867179 0.06173364 0.08306765
-0.04352261 0.18740335 0.052315943 0.016667644 -0.033558346 -0.13674834 0.09832934 0.0037000098
0.09731761 -0.03293573 0.005493921 0.012078547 0.06650751 -0.05045262 -0.013960543 -0.028676366
0.03603345 -0.031397425 0.0108923 -0.08730258 0.05604809 0.0011055421 0.08777482 -0.06545226
-0.073295474 0.23420748 -0.038292207 0.01607046 0.12133563 -0.06279689 0.032188125 -0.013104513
0.040562246 -0.13712245 -0.043464996 0.12754054 -0.0062132445 0.029933076 0.02247695 -0.08374876
-0.01964193 -0.03408842 0.17382304 0.005530038 -0.05807737 -0.03589915 0.038991317 -0.063448966
0.042389743 0.005634406 -0.028572612 0.050030872 0.07824983 0.04861721 -0.04615668 0.080860436
-0.14660285 -0.050863 -0.09501074 0.015442393 0.024440406 -0.033254832 0.025593244 0.037893374
0.086156026 -0.05046875 -0.04132861 -0.1139066 0.040823605 0.22139864 0.071630836 0.0061446493
-0.051204838 0.087339595 0.16358078 -0.04531821 -0.07804258 -0.057127036 0.24079715 -0.082115
0.05987173 -0.010355636 0.13083446 -0.01894289 -0.08033133 -0.042883787 0.106345445 0.03063822
0.092701934 0.018503882 -0.18803117 0.057257753 -0.0728897 0.008333137 0.08193083 0.09111932
-0.048685245 -0.08975792 -0.0036504273 0.08359799 0.07475911 0.19534971 0.072902195 -0.049289636

fc2.bias f4 [84]
00000000: 7f61 c23d e85a b83c f859 f83c 7d1e 8438
00000010: 8a11 283e 0bdb 023e 6af6 d4bc 7b4d f8bd
00000020: f86e 8d3d f972 453e 338a 113e 5390 3c3d
00000030: 8641 393e ddab 3b3d 26c8 463e 9ace 423e
00000040: d8f5 ae3d 05f1 1d3e 6036 c83d a87a b93d
00000050: b688 da3d 1785 753d aa9e 95bd 7bf6 013d
00000060: 5a70 4d3e de41 663c 5806 113c 6650 213e
00000070: 7c1b 043d 55cd 263e a33c 203e 9a78 ac3d
00000080: f7dd 1c3e c6c3 f4bd fccb 81bb 5bac d2bd
00000090: ac41 8d3d 335d 453d 67b0 793d 823d 023e
000000a0: b8a2 033e ed01 81bd 049a 54bd f00f 243e
000000b0: 1616 c33d 2e5f e03d d52a 173d bf63 0abe
000000c0: ef85 13be 523b b0bd 27f8 4a3e a4c5 47bd
000000d0: 5b75 86bd a0c7 133e cb69 0a3e 5c04 603e
000000e0: c7bd c83d c490 4a3e 9cab 803e d802 f9bc
000000f0: 54c6 823d 312d 133e db2d 23bd 8b7b 913d
00000100: c55a cf3c 1462 2cbb ec01 58bd e75b 1ebb
00000110: 94a7 3d3e 2637 fb3d cc79 593c 6d3b d13c
00000120: 780d 43bd a868 df3d 0392 94bd 97bd 7c3e
00000130: 9de8 883d ae0b d1bb 9d72 dabc d85b a23d
00000140: 8d11 d83d 5bbf a93d dc64 a2bd a8ec 13bd
0.09491252 0.022504285 0.030316338 6.2999294e-05 0.1641294 0.12778871 -0.025996406 -0.12124153
0.06905931 0.1928214 0.14212875 0.046036076 0.18091401 0.0458182 0.19412288 0.19024125
0.08542985 0.15423973 0.09775996 0.09056598 0.10670607 0.059941377 -0.073056534 0.031729203
0.2006239 0.01405379 0.00885161 0.15753326 0.032252774 0.16289265 0.15648131 0.084214404
0.15319048 -0.11951403 -0.0039610844 -0.102867804 0.068972915 0.048184585 0.060959246 0.12718776
0.12855041 -0.062991954 -0.051904693 0.16021705 0.09525697 0.10955654 0.036906082 -0.13514613
-0.1440656 -0.086050645 0.19821225 -0.04877247 -0.065653525 0.1443162 0.1351692 0.21876663
0.09801822 0.19781786 0.25130928 -0.030396864 0.06385484 0.14372708 -0.039838653 0.07103642
0.025311837 -0.0026303576 -0.052736208 -0.0024163665 0.18520957 0.12266378 0.013273668 0.025541032
-0.047620267 0.109086335 -0.07254412 0.24681698 0.066849925 -0.006379566 -0.02666598 0.07927674
0.105502225 0.08288451 -0.07929394 -0.036114365

fc3.weight f4 [10, 84]
00000000: dfdd c23d 46b3 d9bd 7b20 ab3d ede3 91be
00000010: 0bd1 3ebe 913e 6abe 5ac3 b0bc aa48 76be
00000020: 7e8c 413e 99f3 52be a144 b63d 5a4f 363e
00000030: 6a8f 51be 57a5 2dbe d7c7 03bd f232 493d
00000040: 40b2 163e 4627 0cbe b1f2 203d 88a0 ba3d
00000050: 1341 88bd 57b5 8b3b 0e1a 393c 15a9 82bd
00000060: 1095 34bd 7516 aa3c 1a9f 28be bdd5 fa3c
00000070: 68a5 eb3c 9192 71be 535b 3bbe 838e 85bd
00000080: 004c 01be 31ef abbd 479e 32bd 4333 ab3c
00000090: 1500 483e 1ae1 d4bc 5b87 743d a0d8 6fbe
000000a0: 2812 1abe efe8 71bd 487e e9bd 0bc5 98bd
000000b0: 7655 53be aa34 51be 596e 953b 315f ecbc
000000c0: 7612 7eba 8e27 1cbe e547 1b3d 5f58 823d
000000d0: b638 713d 91e4 4a3d fff9 fe3d acf0 b73d
000000e0: 349e 18be 1e40 a7bb 34a8 ee3d a288 7ebe
000000f0: 53be 4d3d 3fa0 4ebe 139b 57bc ce70 503e
00000100: 1566 a8bd 28b7 0abd 02b8 7f3d f19e 24be
00000110: 14e8 5abd 9450 89be 0981 603b cdd9 3cbe
00000120: 65da 88bc 676a fc3d 90c4 c1ba 5efc 2d3e
00000130: 5e0b 27bd 66e0 c8bb 724f 9cbd 2646 e23c
00000140: 55bb 06be 96d7 e6bd 79d5 0dbe 823a 06bc
00000150: 12f2 17be caea 373c 1d70 5cbe 6bec 3fbd
00000160: 2089 0a3e 5f60 1dbe b227 023e b459 eabc
00000170: ac1d ba3d 61d6 a13d 77a2 363e fa4c 3abe
00000180: e47a 2b3d 1260 e2bc 97bf 8d3e 10f4 2dbe
00000190: 6af1 8b3d cec9 f93d 0049 e43d 1c2d 33be
000001a0: 72d1 47be 384f cfbc 8cbf 28be 1d21 f33d
000001b0: 8383 983d bc0e b83d 9212 1c3e 0d18 2c3e
000001c0: 954c 99bd e66f 403d 375a 083e cffb 7cbe
000001d0: eb17 5a3e 6be0 06be 41d6 92be e468 a3bd
000001e0: 6fa7 4fbe a6f7 9bbe 81de a1b8 24c3 e93d
000001f0: 4364 cb3d 5f41 6bbc 6297 64bd 3f1c f53d
00000200: a52a 52bc f272 fd3c 5c48 88be cb2f 57bc
00000210: e7b2 cc3d 8a3a 3dbe 2dff c13d da36 c3be
00000220: 39a0 afbd 1ccc 873c c966 19bc c554 303e
00000230: aba7 b33d d14d ba3c 76b1 44be 1915 873d
00000240: 64f5 43be 5bb4 503d 02d0 77bd 4e38 19be
00000250: 7cdd 75be bd6e b8be 6131 84be 3fad 81be
00000260: eff7 dbbc 1a57 0b3d b275 12be 58c2 e23c
00000270: c1c7 db3d 0008 b63d 9d7b a7bd 634b 70bc
00000280: 3539 22be 091f 8bbd 17b8 d4bd b49d d83a
00000290: 6c7d 0fbc 7ae5 a8bd 1b57 04be 442d 0abd
000002a0: 4347 02be 00cf a53c f0c7 9cbd a207 503d
000002b0: 7e25 033e 26d5 86be 7656 8d3d aeb4 923d
000002c0: 52b7 863d b7b2 c9bd 9557 a83d 26b3 b8bc
000002d0: dff4 28be 8a41 b7bd eaf4 42be 18e8 e3bc
000002e0: 6614 263e 352a cb3a 4911 24be 37c9 b73b
000002f0: 129e 2b3e 65a2 29ba 19af 36be cfb7 44be
00000300: f4cd be3d 75c0 4e3e 7269 dc3d e80a c7bc
00000310: 7dad 07be edcd 91be 486f d83d d32c d03d
00000320: c690 87be 9f09 eb3c 0087 babd 9afd 6fbd
00000330: d839 ebbd 3caf 10bd abdf 0ebe 27e8 97bc
00000340: 9c84 85be 24b2 02be 46b8 563d e25c 623d
00000350: 84ee 8a3d 620b 60bd d261 613d d4f0 7ebd
00000360: 0f12 c5bd 778a 043e d043 22bd 3f08 573c
00000370: a111 193e 67fe 123d 0b5d c0bd 7bba 13be
00000380: 031f 5f3d dc03 e23d 802d c2bd d795 933c
00000390: 9d95 823d 3eed 0c3d 77c6 a53b 8d01 bbbd
000003a0: 779b e63c 8b89 e43c 075a 1f3d 56cf c8bc
000003b0: d7ac ecbd b400 203e 1acd b53d 487d dd3d
000003c0: e7a3 843d a9df ccbd 0705 a53d 7e76 47be
000003d0: 1fad e43d 216f bcbc 72b5 863b ec0a dcbd
000003e0: ce5d 21be b006 14be 2ea3 52be 09ad e7bb
000003f0: 55ee 55be 1863 a5bd fb93 d7bd 97e7 ab3d
0.09514975 -0.10629897 0.083558045 -0.28494206 -0.18634431 -0.2287543 -0.021577526 -0.24051157
0.1890125 -0.20600738 0.08899809 0.17803708 -0.20464864 -0.16957603 -0.032173004 0.04912085
0.14716434 -0.13686857 0.03929395 0.0911265 -0.06653037 0.0042635608 0.011297716 -0.06379906
-0.04408747 0.020762661 -0.16466942 0.030619496 0.028765395 -0.23591067 -0.18296556 -0.065213226
-0.12626648 -0.083952315 -0.043607976 0.020898467 0.19531281 -0.025986243 0.059699398 -0.2342248
-0.15045989 -0.059060033 -0.11401039 -0.07459458 -0.2063807 -0.20430246 0.0045602736 -0.028853985
-0.0009692082 -0.15249464 0.03791036 0.06364512 0.058891974 0.049534384 0.12450027 0.089814514
-0.149041 -0.005104079 0.11653176 -0.24856809 0.050230335 -0.20178317 -0.013159531 0.20355532
-0.082225956 -0.033866078 0.062431343 -0.16076256 -0.053443983 -0.2681929 0.0034256598 -0.1844246
-0.016705701 0.12324982 -0.0014783312 0.16990802 -0.040782325 -0.006130266 -0.076323405 0.02762134
-0.13157399 -0.112715885 -0.13850965 -0.00819266 -0.14838436 0.011225412 -0.21527143 -0.046856325
0.13528872 -0.15368794 0.12710455 -0.028607227 0.09087691 0.07902218 0.17835413 -0.18193427
0.041865245 -0.0276337 0.27685234 -0.16987634 0.068331555 0.12196694 0.11146736 -0.17497677
-0.19513491 -0.02530633 -0.1647932 0.1187155 0.07446959 0.08987185 0.15241459 0.1680605
-0.0748531 0.046981715 0.13315664 -0.24705432 0.21298186 -0.13171546 -0.28679088 -0.07978991
-0.20278715 -0.30462378 -7.718523e-05 0.11414173 0.09931233 -0.014358847 -0.055808432 0.11968278
-0.01282755 0.0309386 -0.26617706 -0.013133953 0.099950604 -0.18479362 0.09472499 -0.38127786
-0.08575482 0.01657682 -0.009362885 0.17219837 0.087722145 0.022742184 -0.19208321 0.06595821
-0.19136578 0.05095325 -0.060501106 -0.14962885 -0.24010271 -0.36021987 -0.25818923 -0.2532749
-0.026851622 0.034018613 -0.1430271 0.027680561 0.107314594 0.08888245 -0.08177874 -0.014666411
-0.15842135 -0.06793029 -0.10386675 0.0016526491 -0.00875793 -0.08246894 -0.12923853 -0.033734575
-0.12722497 0.020240307 -0.076553226 0.05078853 0.12807271 -0.26334494 0.06901257 0.07163368
0.06577934 -0.0984854 0.0821983 -0.022546362 -0.16499661 -0.089480475 -0.1903874 -0.027820632
0.16218719 0.001550025 -0.16022219 0.0056087035 0.16759518 -0.0006471037 -0.17840232 -0.19210742
0.09316626 0.20190604 0.107622996 -0.024297193 -0.13249774 -0.2847742 0.105681 0.101647995
-0.2647764 0.028691111 -0.091077805 -0.058591463 -0.11485642 -0.035323367 -0.1395251 -0.018543316
-0.26077735 -0.12763268 0.05242183 0.05526436 0.067837745 -0.054698355 0.05502493 -0.06224139
-0.09622585 0.12943445 -0.039615452 0.013124525 0.14948131 0.03588715 -0.093927465 -0.14426605
0.054472934 0.11035892 -0.09481335 0.018015785 0.06376193 0.03440594 0.0050590592 -0.09131155
0.028150303 0.027897617 0.038904216 -0.024512928 -0.11556404 0.15625268 0.08877011 0.10814911
0.064765744 -0.10003597 0.080575995 -0.19478795 0.11165833 -0.02300221 0.0041109854 -0.10744271
-0.1575844 -0.14455676 -0.2057006 -0.007070188 -0.20891698 -0.08075541 -0.10526272 0.08393782

fc3.bias f4 [10]
00000000: bdbf ee3d f28a 2e3e 32c5 96bd e24b 85bc
00000010: a8d5 26bd a5e3 1c3c fcc0 34bd a476 75bd
00000020: 9b49 44bd 9ed2 693c
0.11657665 0.17045191 -0.07361831 -0.016271535 -0.040731102 0.009575759 -0.044129357 -0.059927598
-0.04792176 0.014271406
