models/Cutout-7-2-L_inf-PGD-0.3-40 BasicNet.pt (torch, 180615 bytes, 10 tensors)

conv1.weight f4 [6, 1, 5, 5]
00000000: 4b4e aeba 4385 42ba 08b6 4dba 6c6a 2139
00000010: d6b0 5f39 d1aa 14ba 1f5d 1dba 884c 63ba
00000020: c73c c6b8 1d8f 2f3a 6dc4 95ba e682 70ba
00000030: 6919 d138 420b ee39 7183 c238 609e 9db9
00000040: 9289 123f 12cc ee3a ad51 6539 d86c acb9
00000050: bbf3 75ba 11b5 2a3a 2378 8eba 5a0f 8dba
00000060: 2442 92ba 3a1b bd3b 9de2 1a3c cf96 6a3b
00000070: dd3d 96b9 c962 efb9 ec01 553d 1bf2 103b
00000080: 6693 0cbb a0e7 ffba b95f 0eba 2eb2 413e
00000090: 9251 6cbb 937f 4cbb 49da 08bb d1f1 f139
000000a0: 27ef 2c3c 3bc0 6a39 885b 17bb 3b81 8cba
000000b0: 1e4d 2338 8310 163b 5db6 23ba 835b 34bb
000000c0: 0125 9bba be06 9d39 a605 34ba 2f42 09ba
000000d0: 40b3 aaba ae26 4dba 9ce5 90ba 7dc4 bc38
000000e0: 8a87 a53f 8a1c de3a db8b 06bb 852b 84ba
000000f0: 0ab5 edba c0b9 963a b3dd b739 fb80 efba
00000100: 3998 eeba c52d 38ba d617 243a 462e 75b9
00000110: 5ae1 dab9 9c01 873a 6949 be37 08cc 1f3a
00000120: 53d6 0c39 ffbb 353a 4945 d13a 3eeb 623a
00000130: 7d5d 813a 0b93 c33a db86 a03a 729c 2f3a
00000140: a5d7 813a 7bb8 6139 66d8 293a fa60 e539
00000150: 3a43 8637 5ddd 623a f984 07b9 fd71 c73a
00000160: 7e2e b1b8 dc13 47ba 7c50 fe39 4c83 2339
00000170: df6f 0c3e 2fe3 2ab9 869b b8b9 f3a6 8739
00000180: 6d04 2bba 9ab3 98ba 2a73 e8ba d3fd b7b9
00000190: 1445 feb9 05d4 003a 27d8 e33a 1697 293a
000001a0: 5565 56ba d7da a23a 8cbd 9c3b 4eda 093b
000001b0: e1a8 803a 82cc 2d3a 67ef 673a 5716 083f
000001c0: 5698 e43a 7ba5 c73a 1850 b5b8 f596 19ba
000001d0: ccf4 343c 710c bd3a 238a 34ba a0ee efb9
000001e0: c356 2f3a 92a0 483b 8b89 51b9 bb54 b7b8
000001f0: 0f12 a239 1fe4 8a3a 7cbc 0938 130f b03a
00000200: 1e41 8eb7 cda3 06ba 942d a6b9 9ae7 e73a
00000210: 026a 683b 8d78 9b3a 3d25 6cba 671c 033a
00000220: 4f7f c53a b95c 2e3f f23e cd3a 5800 2cba
00000230: 0bae ae3a 3e47 f339 16da 463c cb44 1839
00000240: 80f0 91ba 0516 3f3a 69ac 9b39 193d 09ba
00000250: d138 b7ba c88c 8cba
-0.001329848 -0.000742037 -0.0007847254 0.00015393802 0.00021332814 -0.00056712056 -0.0006002951 -0.0008670767
-9.4526964e-05 0.0006697046 -0.0011426337 -0.0009174779 9.9706296e-05 0.00045403285 9.275124e-05 -0.00030063372
0.57241166 0.0018218777 0.00021869568 -0.0003288749 -0.0009382327 0.00065119663 -0.0010869544 -0.0010762021
-0.0011158627 0.005771068 0.009453443 0.0035795455 -0.0002865632 -0.00045659233 0.052003786 0.0022116962
-0.002145016 -0.0019523986 -0.0005431134 0.18915626 -0.0036059362 -0.003120397 -0.0020882061 0.0004614727
0.010555065 0.0002238759 -0.0023095328 -0.0010719666 3.893405e-05 0.0022898025 -0.0006245131 -0.0027520366
-0.001183659 0.00029950397 -0.0006867297 -0.00052359974 -0.0013023391 -0.0007825893 -0.0011054757 9.0011374e-05
1.2931988 0.0016945761 -0.0020530138 -0.0010083771 -0.0018135619 0.001149945 0.0003506966 -0.0018272692
-0.0018203325 -0.0007025863 0.00062596553 -0.00023382259 -0.000417481 0.0010300162 2.268395e-05 0.00060957717
0.00013431282 0.00069326157 0.0015966083 0.00086562696 0.0009869781 0.0014921142 0.0012247221 0.00066990324
0.0009906186 0.00021526396 0.0006479084 0.00043750537 1.600535e-05 0.00086542015 -0.0001292414 0.0015216466
-8.4486775e-05 -0.0007594207 0.0004850662 0.00015593803 0.1371455 -0.00016297096 -0.0003521109 0.00025873593
-0.0006523792 -0.0011650205 -0.0017734517 -0.00035093594 -0.00048498122 0.0004914406 0.0017383144 0.0006469352
-0.0008178552 0.0012424838 0.004783338 0.002103466 0.0009815955 0.00066299003 0.00088476244 0.5315909
0.0017440419 0.0015231812 -8.645671e-05 -0.0005858981 0.011044692 0.0014423263 -0.0006887039 -0.00045763422
0.0006688649 0.0030613285 -0.00019983032 -8.741902e-05 0.00030912503 0.001059655 3.2838885e-05 0.0013432227
-1.6958042e-05 -0.00051361026 -0.00031695946 0.0017692924 0.0035463576 0.0011861488 -0.00090082345 0.00050014857
0.0015067848 0.68110234 0.0015659018 -0.00065613305 0.0013327015 0.0004640165 0.012136957 0.00014521477
-0.0011134297 0.0007289353 0.0002969236 -0.00052352395 -0.0013978725 -0.0010723108

conv1.bias f4 [6]
00000000: d3fb b7bf e382 57be 4837 ccbe dd2d 093c
00000010: fc82 28be 3076 57be
-1.4373726 -0.21046023 -0.39885926 0.008372751 -0.16456217 -0.21041179

conv2.weight f4 [16, 6, 5, 5]
00000000: 2345 c93d cf1e 6e3d 3d5b 113d 562f 86be
00000010: bee9 f1be f2ae e8bc 99b5 093e bc15 153f
00000020: 80f4 9fbe 674b 30bf 10e2 2e3e 1b45 123f
00000030: c361 f53d 5f7a 16bf 7479 f7be 43f3 693e
00000040: d528 543d 9f2f bfbe ca9d f1be 8393 e93d
00000050: 480d e33c fe81 23bc 5e51 4bbd 126d 11bd
00000060: 86ad 1a3b 2a74 35bc 4aeb a03c 0de7 d4bc
00000070: 5c80 c6bc ed90 12bd d09e 63bd 0b08 093d
00000080: 8311 6c3c 86df 723b a7d8 143c 85dc 23bd
00000090: 2a86 ef3d 217e 0dbc b421 8a3c 8c8f 2f3d
000000a0: a61b bcbd 6e4c fe3c 8b79 aebc 3d4f 883d
000000b0: ee84 9b3c 306f 59bc 6106 ff3c e672 203d
000000c0: 3a7e e83b eb2f b3bc da07 4a3c 6986 733b
000000d0: 988b ad3c a8d2 283d a40a 5f3c 9b8c d5bc
000000e0: 7aa1 72bc 8b5e 4abc dcda c33d 449c 3d3e
000000f0: ca37 283c 0483 12bd 2c15 69be 96b7 cd3d
00000100: 301a 833e 70a3 50bd ec97 61be 389e 8ebd
00000110: 2f95 513e c98e 243e 1620 8bbd 1331 61bc
00000120: 0dc4 0a3e df28 283e 8e00 8bbd ea86 fabc
00000130: be02 7bbc f846 2c3d a34d ca3d c2bd bf3d
00000140: e27b 1fbc 752a 6dbd df8f a0bc cf79 083e
00000150: 4726 eb3d 91ed a1bc b8fb 07be b286 943d
00000160: c467 1e3e e70e 163d 3742 00bd 6a86 2e3d
00000170: 9f0a a73d de2e 423d d4ef 6fbd c8d7 803c
00000180: 79a4 9b3d b9c0 7b3d 1c75 c33c 7bce 0dbd
00000190: 1f2f a1bc bbe7 4ebb 201c d13c 5df2 4e3d
000001a0: 64de dc3c bb48 5e3b ce02 6ebc 3682 81bd
000001b0: b231 aa3d 1440 ce3d 01d6 253c d93b 71bd
000001c0: 7bc0 1fbe d40c 063e d443 0f3e 060a 23bd
000001d0: 15d4 a1bd 175a 753d dcea fc3d 69ce 593d
000001e0: 6e92 bfbc b38e 103c 0566 433d 1bfe e63c
000001f0: f3e0 17bc a366 babb 8d06 993c 03a2 473d
00000200: 5a02 943d be6a 013d 3e7d 1dbd eafc 5abd
00000210: 0ca2 273b 3282 923d ed46 b53d 7f67 cfbc
00000220: 4981 3dbe 9484 053d e1bc 9f3d 072f 853d
00000230: 6a70 7fbd b2bd 7bba 3d6b cc3c 301b 6f3d
00000240: 94b3 1dbd 2019 89bc 8629 bd3b 2101 e63c
00000250: d7a2 f93a a42a 04bd 4def f53c 2f14 74be
00000260: e2b1 a3be 1774 c8be b960 09be 38be 323e
00000270: 30e4 ab3e a157 b3bc 09a4 f23e 956f 193f
00000280: 2112 373b 898e 953e f791 613d a8c2 00bd
00000290: 25bb 1bbe 5eb3 a4be 40c7 31bf edd3 26bf
000002a0: 6e20 d0be 396d 6abe 71d3 42bc 5bce 4dbd
000002b0: 6e1b 8ebd c2ef bebc b9c5 02bb 140e 9fbd
000002c0: 2ea8 813c 5689 263d 1b6d 033d db1a 7e3c
000002d0: e80f e63b 3e29 fb3c 822c 8f3d 302d ae3d
000002e0: a6e8 2b3d b2f8 023d 9cf7 7abd 987b a6be
000002f0: 8eba 94be fe8e 40be 5bcf 813d 36bd b8bd
00000300: c0da 84bd d1f7 6fbd 6240 1ebd 7ad4 69bd
00000310: 2b76 16bc b480 a0bc f3db 02bd db76 9dbc
00000320: f85e b1bc c85d 283b 22aa 72bb d550 82bc
00000330: 1df1 60bc 6784 38bc be77 ac3d f3df d83d
00000340: 824e 073e 71e4 173d 7217 6dbd 2aff 07be
00000350: 7d5f 3abc 1260 52be d51e 87be 5da4 3cbb
00000360: 10f5 15be 2743 c2bd 5a10 373b b7f5 923d
00000370: 631c 023e 1044 893e 475d 6f3e 0496 1a3e
00000380: b2ef bb3d ddaa 943b 9f8e 573c 4427 443c
00000390: d057 353d 8e3b 9ebb 1f10 4dbd 1c2e 86bb
000003a0: 2876 e2bc 0a75 18be a687 9bbd b0cf 5cbd
000003b0: 805f bebd 47ee 80bc 2e6b 363d 9905 6f3c
000003c0: 058f a83d 2b82 123e 33be dc3d b5f5 3b3d
000003d0: f46c b03c b039 c03c 5f20 b43d 538a 3b3d
000003e0: b9b5 3cbb 1693 70bd 20c3 05bd b7f2 373c
000003f0: 515d c23c c99d 0d3c 6194 9e3c 56b4 4e3b
0.0982764 0.05813485 0.035487402 -0.2620799 -0.47248644 -0.028403733 0.1344818 0.5823629
-0.31241226 -0.68865055 0.17078424 0.57136697 0.11981537 -0.58780473 -0.4833485 0.22846703
0.051796753 -0.3734102 -0.47190696 0.11405089 0.027716294 -0.009979723 -0.049638145 -0.03550441
0.0023601963 -0.011075059 0.019643445 -0.02598908 -0.024231128 -0.035782743 -0.055571377 0.033454936
0.014408472 0.00370595 0.009084857 -0.040005226 0.11695512 -0.0086360285 0.016861774 0.042861506
-0.09184961 0.031042304 -0.02129819 0.066557385 0.018984284 -0.013271138 0.031130971 0.039172076
0.0070951255 -0.021873435 0.0123309735 0.0037158972 0.021184728 0.041216522 0.013613377 -0.026068022
-0.014809007 -0.012351642 0.095632285 0.18516642 0.010267207 -0.035769477 -0.22761983 0.10044782
0.25605917 -0.050937116 -0.2203061 -0.069637716 0.20467065 0.16070093 -0.06793229 -0.01374461
0.1355135 0.16421841 -0.06787215 -0.03058191 -0.015320478 0.04205987 0.09878089 0.09362365
-0.009734126 -0.05790182 -0.019599853 0.13327716 0.1148191 -0.0197666 -0.13279617 0.072522536
0.15469271 0.036635306 -0.031313147 0.042608656 0.08156323 0.047407977 -0.058578327 0.015727893
0.0759973 0.06146309 0.023859553 -0.034620743 -0.01967579 -0.0031571228 0.025526106 0.050524104
0.026961513 0.0033917862 -0.014527036 -0.06323664 0.0831026 0.10070816 0.010121823 -0.058894966
-0.15600769 0.13090831 0.13990718 -0.03980448 -0.079017796 0.05990037 0.12349483 0.053175364
-0.023385253 0.008823085 0.047704715 0.028197339 -0.009269941 -0.005688505 0.018679881 0.04873849
0.07227011 0.031595938 -0.03844952 -0.053463854 0.0025578765 0.07153739 0.08851419 -0.025317905
-0.1850635 0.03259714 0.07799698 0.065031104 -0.062363066 -0.0009603157 0.024953479 0.058375537
-0.038501337 -0.016735613 0.0057727722 0.02807671 0.0019045722 -0.032267228 0.030021334 -0.23835824
-0.3197165 -0.3915107 -0.13415803 0.17455375 0.3357253 -0.02189237 0.47390774 0.59935886
0.002793439 0.29210308 0.055070844 -0.03143564 -0.15208109 -0.32168096 -0.69444656 -0.65167123
-0.40649742 -0.22893228 -0.011891232 -0.050245624 -0.069388255 -0.023307685 -0.0019954278 -0.07766357
0.015827265 0.040658318 0.032086473 0.0155093325 0.007020939 0.030659314 0.06990911 0.085047126
0.041969918 0.031975456 -0.061271295 -0.3251617 -0.2904858 -0.18804547 0.06338378 -0.09020464
-0.06487036 -0.058585946 -0.03863562 -0.0570874 -0.009183447 -0.01959262 -0.03194804 -0.019221714
-0.02165173 0.0025690664 -0.0037027677 -0.015907684 -0.013729361 -0.011262036 0.084212765 0.1058959
0.13213542 0.037083093 -0.057883687 -0.13280931 -0.011375305 -0.2054446 -0.2639071 -0.0028784492
-0.14644265 -0.094854645 0.002793333 0.07175773 0.12706141 0.2680974 0.23375426 0.15096289
0.09176578 0.00453697 0.013156562 0.011972252 0.044273198 -0.004828877 -0.050064202 -0.004094852
-0.027644232 -0.14888397 -0.07594232 -0.053909004 -0.09295559 -0.01573862 0.04453581 0.014588737
0.08230404 0.14307468 0.10778465 0.04588862 0.021536328 0.023465008 0.08795237 0.045786213
-0.0028794839 -0.058734022 -0.03265679 0.011227301 0.023726137 0.008643576 0.019357862 0.0031540594

conv2.bias f4 [16]
00000000: aa61 55be b462 80bc b90f d53d 3180 413e
00000010: fd25 f1bd c693 933e cbfd 2c3f ed8b 1a3e
00000020: 48e2 45bd 76e3 e73e ce7f 963e 3aa9 90bd
00000030: 1ca3 e1bd 88c6 19bd b2e1 543f 75da 193f
-0.20838037 -0.015672065 0.104033895 0.18896557 -0.11774824 0.2882368 0.6757476 0.1509244
-0.0483115 0.45290726 0.29394382 -0.070635274 -0.11017439 -0.03754285 0.83156884 0.60098964

fc1.weight f4 [120, 256]
00000000: 290c 293c 08aa 34bd 7fc7 96bc 15bb 31bc
00000010: 1bcc eabc 3099 e8bb 405c 8abd 9e68 71bd
00000020: aa1b 38bc 3c86 17bc 7bdc bcbb 282c ea3c
00000030: 33d9 d4bc 7592 cebc 15dd c4bc 2f4b 283d
00000040: f538 dfbc 82b7 153d 6f52 c9bc 02b0 3dbd
00000050: e00d 9fbb 8eae a33b 8b6d 0dbd fcdd 58bc
00000060: ad72 15bd c0c7 20bd c531 02bd 1837 1abd
00000070: 9522 37bd 7e0b 57bd b8cb 8dbc a155 aabc
00000080: 647c b53c 500a 013c 4656 343d 24a3 dfbc
00000090: 9038 6f3d 201c 9cbc a07c 633d f051 66bc
000000a0: e0cd 8dbb e216 203d fa85 613d 2ead 573d
000000b0: ae95 07bd c5c9 c4bb 004d cdbb 8c89 f1bc
000000c0: 406e c03a 1ecc 63bd c031 6fbc 5c68 5dbd
000000d0: 0c16 60bd 50a1 623c 8121 f13c 2035 f13b
000000e0: d80d 65bd 5354 e1bc c82d 0ebd a01c 4abc
000000f0: bc06 0c3d 50c6 9a3c 4091 88bc 5a3f 133d
00000100: bce8 cf3b a3a0 933c 80e9 40ba 301d 69bc
00000110: 30ed 313c e3f0 fcb9 846d 8abd 723a 6abd
00000120: 4c14 ba3c 3215 70bd 9fba 373d 6205 0dbd
00000130: e0a9 133b e064 5abb 1ffd 1ebd 1394 ed3c
00000140: 2827 edbc 8bfb e63c f0db e4bc 3aad 87bd
00000150: 7e06 e93a e1b6 9d3c 3a8c 17bd df7c c63c
00000160: f4e6 d1bc 68f1 1e3d 6459 d3bc 3583 6cbd
00000170: b930 383d 807f 7bbb 6b35 743c 63c3 65bd
00000180: 5676 6bbd cc83 b83c a0f9 42bd 24d9 b73c
00000190: d24d 7d3d 6149 d53c 68f3 0c3c d8e4 af3c
000001a0: d055 f13b 0037 72bb 742d 4fbd cc87 7bbd
000001b0: c55f 283d 8032 9fba 54ab 14bd 0e9a 1ebd
000001c0: 1a34 3bbd 7edd 84bd 7d3c 5e3d 28f1 453d
000001d0: 9ae6 19bc 62a2 7cbb 029c 5b3c 056b 08bd
000001e0: d4b0 2abc 1ca1 86bd 7dc5 60bd 3577 dfbb
000001f0: 66f1 88bd aa93 363c 6b4c 923c 1010 f2bc
00000200: 6b22 533d b69e 16bd 6fcb 02bc cbb7 373d
00000210: 301c 093c 688b e4bc 30de 99bc e059 6ebc
00000220: 519f 893c 608e 68bd e8e6 3f3d 0084 653b
00000230: 9fa8 b6bc 3ddc b33c 15dd 2b3d f8f6 6abd
00000240: c1b0 e6bc 4ffc 503d c7a6 b2bc 3813 54bd
00000250: ab08 63bb f42e 97bc 881c eb3c d84d c0bc
00000260: 5e68 303d aa96 b4bc 3d82 b0bb 7295 263d
00000270: 8164 403b 1b63 e53c 90f0 adbc 97bd 70bc
00000280: 90a8 9d3b b061 7ebd cacb 223d 0c95 23bd
00000290: 8cc4 55bd 00c4 2e3d c607 0bbd 90f6 eb3b
000002a0: d292 603d 0eb9 523d 8017 73ba c073 87ba
000002b0: b86e bcbc 5022 a13c 8d41 05bd 10fa ea3b
000002c0: e0e1 06bc ff03 8abc ea85 193b 7ba0 24bd
000002d0: b6da 89bd 5d23 3f3d dcb0 aebc 768a 8a3c
000002e0: b59c 7c3c f193 40bc f19d 313d 4003 63bb
000002f0: 9cd3 6ebd d425 3c39 7ec3 59bd deac 2ebd
00000300: a329 033d e928 4e3d 0f60 cabb 2b5f ba3c
00000310: 83c7 a5bc 8040 5bbd 4c3b 8b3c 50d6 183d
00000320: f366 613d 1567 1c3c d517 c5bc 0d7d 9d3c
00000330: 47f9 8cbc 62d5 4ebd 2e5e 38bc 98b3 993c
00000340: e4c9 033c 4277 d23c ed1c 88bd 93a4 30bd
00000350: 33f4 41bc 96ba 89ba be05 e1bc bda0 81bd
00000360: e42f 91bc f8c0 8cbc 876f 543d 1fa2 ce3a
00000370: 793f e23a 126b 66bd 54a7 acbc 7f60 24bd
00000380: d423 a83c 700f 0fbc 98ea 743c 206e 8c3b
00000390: b0a6 c93b 3c5d f3bc 38d9 b7bc 8e19 47bd
000003a0: 08ff 973c c67d 81bd dad5 2e3d a44c 48bd
000003b0: 177a c83c d684 0cbd d053 dcbb 8071 e33b
000003c0: 5c2f 053d 243f 2dbd 2c5b f83c 1cf3 1abd
000003d0: 7ecc 0a3d 2cba 9dbc a4b6 653d d2e0 45bd
000003e0: d2ce 233d 9054 873c e873 a53c 70f3 51bc
000003f0: 1806 da3c 849a 043d 6eea 37bd 3cda ddbc
0.010317841 -0.044107467 -0.018405674 -0.0108478265 -0.028661778 -0.0070983395 -0.067558765 -0.05893766
-0.011237064 -0.009248313 -0.005763588 0.028585508 -0.025982475 -0.02521632 -0.024031201 0.041087326
-0.027248839 0.03655196 -0.02457544 -0.046310432 -0.004853949 0.004995174 -0.034528296 -0.013236519
-0.036486316 -0.039252996 -0.031785745 -0.037650198 -0.044710714 -0.052501194 -0.017309055 -0.020792784
0.02215404 0.007875994 0.04402759 -0.027299471 0.05840355 -0.01905638 0.055538774 -0.014057621
-0.0043275207 0.039084323 0.05505941 0.05265539 -0.03310173 -0.006005498 -0.0062652826 -0.029484533
0.0014681295 -0.055614583 -0.014599264 -0.054054603 -0.054708526 0.013832405 0.029434921 0.0073610693
-0.055921406 -0.02750603 -0.03471163 -0.012335926 0.03418611 0.01889339 -0.016670823 0.03594909
0.006344883 0.018020933 -0.0007359013 -0.01422815 0.010859773 -0.0004824466 -0.0675917 -0.057184644
0.022714756 -0.058613963 0.04485571 -0.03442896 0.0022531673 -0.0033324286 -0.038815614 0.029001271
-0.028949335 0.028196117 -0.027936906 -0.06624837 0.0017778424 0.019252243 -0.036998965 0.024229465
-0.025622822 0.03880444 -0.02579946 -0.057742316 0.04496834 -0.0038375556 0.014905314 -0.05609454
-0.0574859 0.022523783 -0.047601342 0.022442408 0.061841793 0.026035966 0.008602954 0.021471426
0.007364966 -0.0036959052 -0.050580457 -0.061408803 0.041106958 -0.0012145787 -0.036296204 -0.038721137
-0.045703985 -0.06487559 0.054256905 0.048325688 -0.009393359 -0.0038548936 0.013403894 -0.033305187
-0.010418136 -0.06573698 -0.05487584 -0.0068196305 -0.06686668 0.011143604 0.017858705 -0.029548675
0.051546495 -0.036772452 -0.007983073 0.044853013 0.008368537 -0.027898505 -0.018782705 -0.014547795
0.0167996 -0.056776404 0.04685107 0.0035021305 -0.022297202 0.021955604 0.041958887 -0.057364434
-0.028160455 0.05102187 -0.021808041 -0.05177614 -0.0034642618 -0.018455006 0.028700128 -0.023474619
0.043068282 -0.022044498 -0.0053866194 0.040669866 0.002935678 0.028001359 -0.021232873 -0.014693639
0.004811354 -0.06210488 0.03974513 -0.039937064 -0.052189395 0.04266739 -0.03394296 0.0072010234
0.05482752 0.051446013 -0.0009273216 -0.0010334179 -0.023002014 0.019669682 -0.032533217 0.007170923
-0.008232564 -0.016847609 0.0023425766 -0.04019211 -0.06731169 0.046664584 -0.021324567 0.016911726
0.015418221 -0.011754022 0.043363515 -0.0034639388 -0.058307275 0.00017943169 -0.05316495 -0.042645328
0.03202213 0.050331984 -0.006176002 0.022750458 -0.020236736 -0.05352831 0.016996048 0.03731376
0.05502982 0.009546061 -0.024059216 0.019224668 -0.017208708 -0.050496466 -0.011252923 0.018762395
0.00804374 0.025691632 -0.06646142 -0.0431257 -0.011838007 -0.0010507877 -0.027468558 -0.063294865
-0.017723031 -0.017181858 0.051864173 0.0015764869 0.0017261348 -0.056254454 -0.021075882 -0.04013109
0.020524897 -0.008731708 0.01494851 0.004285589 0.006153904 -0.029707544 -0.022442445 -0.048608355
0.018554226 -0.063228175 0.042684413 -0.048901215 0.02447228 -0.03430637 -0.0067238584 0.0069410205
0.03251587 -0.042296544 0.030316912 -0.037829503 0.033886425 -0.019253813 0.056082383 -0.04831011
0.03999216 0.016519815 0.02019687 -0.012814388 0.026614234 0.03237392 -0.044901304 -0.027081601

fc1.bias f4 [120]
00000000: 569d 08bd 0436 95bd 3d7b 1c3d e144 bdbd
00000010: 6af1 1b3d 58b3 48bc 0309 41bd 09e4 a5bd
00000020: 1c45 8f3d 8b9a 283d 6d99 4bbd 91b0 113c
00000030: f5ae 80bc 9180 32bd c3be cf3d 2d86 a6bc
00000040: 884d 30bd 94fb e539 f5e1 b0b8 8406 dcbc
00000050: fb10 3c3d 68db 0f3e 99cf 4c3e e342 a33d
00000060: 5a79 093d 24a7 68bd 7d6d 20bd 7aa0 90bd
00000070: 7012 0f3b ce90 e0bb 57e3 1ebd e4fc 903d
00000080: 609f 93ba 7009 ad3d c6bd bb3c f2f5 9bbb
00000090: 5675 c8bb c981 813d a78c 843d 63eb 7f3e
000000a0: 84d1 de3c 7467 b63c 7446 913d 1778 0e3c
000000b0: d7d1 8ebc 0db6 b1bc 5553 38bd 0511 073e
000000c0: ddc1 ae3b 324a 6bbd bdae 7a3c 5f7c 82bd
000000d0: 1a09 263b cb32 33bc 9138 29bd 0e2a be3c
000000e0: 5c2c 513c b2da ca3d faf4 443e 8434 c93d
000000f0: 854e ce3d a233 493e e0dc af3b d598 583c
00000100: 7256 bebb d18d f23d 5483 a6bc 98ac a4bd
00000110: 4693 f3ba 9835 183e 53db a83c 085d 513d
00000120: df9e 72bd e148 123d 69ec c53d b64b 853b
00000130: d184 273d d825 80bd 4814 293e 958f 0e3d
00000140: fba7 e9bd c089 6cbd 6584 ad3c 22e7 8ebd
00000150: 781e 023d 28f0 a8bc 23e5 72bd 6df3 26bd
00000160: 59a5 f43c 1fd0 503d 5dfd 8ebd e04e ecbc
00000170: b4d3 103e 69d7 e13d 6ec8 1b3e 5667 aa3d
00000180: 9c78 9ebc 3ad5 cc3d 2c05 3cbd 0054 8b3d
00000190: 5404 06bd bfe4 123d 3ac7 3e3e 8aaf d73d
000001a0: c1db 343d 1937 ca3d d788 d53d 7111 843d
000001b0: 65aa 9dbd 236e 2a3c 2a82 c63d f74c 133c
000001c0: da91 00bb 3e23 4c3d 9c4c e73d 96a3 f3bb
000001d0: 8b3f b13d 01df 153c 3c42 21bd 3fdb 693d
-0.033353172 -0.07285693 0.038203467 -0.09241653 0.038072027 -0.01224979 -0.047127735 -0.08100135
0.069956034 0.04116301 -0.049706865 0.008892194 -0.015708426 -0.04357964 0.10143807 -0.020327652
-0.04304269 0.00043865724 -8.434422e-05 -0.026858576 0.04591463 0.1404854 0.20001067 0.07971742
0.033562995 -0.056800023 -0.039166916 -0.070618585 0.0021831058 -0.0068531996 -0.038791027 0.07079485
-0.0011262707 0.08449066 0.02291764 -0.0047595436 -0.006117503 0.06323583 0.0647214 0.24992137
0.027199514 0.022266127 0.07093516 0.008695624 -0.017434044 -0.021693254 -0.045001347 0.13190086
0.005333169 -0.057443805 0.01530045 -0.06371378 0.0025335015 -0.010937403 -0.04131371 0.023213413
0.012766924 0.09904994 0.19234076 0.0982447 0.1007357 0.19648603 0.0053669065 0.013220032
-0.005808645 0.118434556 -0.020326294 -0.08040732 -0.001858332 0.14864194 0.020612394 0.051114112
-0.059233543 0.035714034 0.09664232 0.0040678633 0.040898148 -0.06257218 0.16511643 0.0348049
-0.11408993 -0.057748556 0.021181295 -0.06977679 0.03176734 -0.020622328 -0.059300553 -0.040759493
0.029864 0.05097973 -0.06981919 -0.028846204 0.14143258 0.11027414 0.15213177 0.08320491
-0.01934462 0.10001607 -0.04590337 0.06803131 -0.03271897 0.03586268 0.18630686 0.10531528
0.044154886 0.0987379 0.10426491 0.06448639 -0.07698516 0.010402235 0.096927956 0.008990518
-0.0019618184 0.049838297 0.11293909 -0.0074352724 0.08654698 0.009147407 -0.039369807 0.057093855

fc2.weight f4 [84, 120]
00000000: 0103 f4bc 01dd e73c 1331 813d c780 c7bd
00000010: 9627 8d3d 249b 9dbd 0ed2 c6bc 3684 eb39
00000020: 2ab1 ee3d b666 d1bd 12f6 6e3d 08e6 6c3e
00000030: 3629 5ebe b13a 8e3d b175 20bd 47a3 473c
00000040: 5a27 4f3d 2823 b1bd 24ce 973d 0385 b2bd
00000050: adf7 0b3c 7de7 94bd 7393 77be a1ce 06be
00000060: 9607 aabd 37ee 873c 63ea 2c3b b8c7 e2bd
00000070: c584 093c 7961 c63c c1d2 a9bd 5c15 8fbd
00000080: dc88 7c3c 761a dd3d c627 893c 83e6 46bd
00000090: d07b a33d 0eff 70be cde9 ea3d 4bf9 cd3d
000000a0: 1487 ab3d 2dbf 613d 3936 f83c 3a9a 2c3d
000000b0: 9b4c 2ebd d489 bb3c bed0 803c d929 8e3e
000000c0: ca77 a3bd e621 b1bd 6675 4ebb 8d5b 5c3b
000000d0: d7eb a9bd d339 9b3c 4564 a13d 0f96 c03b
000000e0: fad0 413d c774 f4bd c363 1f3d 71da 3e3e
000000f0: 555b 943d 8ebf 23bd d03f 5c3d b134 763c
00000100: c1d2 c5bd cf3b dcbd ed99 093d 711a d9bd
00000110: 5a96 cdbc f801 f7bc a440 fabb aaef 27bc
00000120: 1fad c73a aeae 7abd 7b3a 5abe 8f32 c8bd
00000130: 3019 1fbe 9402 6bbd 0058 65bd 1fa4 85bd
00000140: eacb f5bc b4cf a03d 60f0 88bd 6dc0 72bd
00000150: 0aea 2cbd 2072 1b3c 5747 9ebd c46f 823d
00000160: 8688 29bd ec2b 6e3e 1806 00bd f5d2 7c3e
00000170: a2ea 92bd efb6 de3d 20c3 643e f014 38be
00000180: 8610 d9bd ced9 293e 8195 dbbb c081 5fbd
00000190: dadc f53d 8fe9 b03c b5f5 eebd 91d9 3f3d
000001a0: def0 6a3d c240 963d c4ee 2ebe 9a0b 483d
000001b0: ccb7 223d d952 91bd c67b 00bc eb55 ea3c
000001c0: 20ad ee3d 4e0e cdbc 8934 373d ae2c d2bc
000001d0: e8a3 af3c 3138 a6bd c661 a0bd 7e2c 563d
000001e0: 0821 623d 807a 7d3c 8822 67bd 86a7 acbd
000001f0: 8f1c dcbd c461 1cbe ab66 8e3c b7b4 313d
00000200: cea2 4a3e 16b1 f73d baec 15bd f386 0f3e
00000210: 546e 86bc 0aff 6fbd b8cc 0abc a98b 55bd
00000220: 178b babd 2f70 493e 4faf bc3d ca60 cb3b
00000230: 5535 f03d bfd4 ccbc 0697 d73c 4cde 9f3d
00000240: 3380 94bd 958d 153d 00af 99bc 0090 99bc
00000250: 9104 b5bd 3836 a3bd acff ab3c f065 843d
00000260: 1187 a63d b749 aabc a4d0 1fbd 1c2e 963e
00000270: 00e7 be3c 21b1 d93c b53a 463c 0c00 44bd
00000280: 07b0 5a3e 7a02 8ebd f93b 163e 0078 af3c
00000290: 4ab8 133d cb8e 3f3e 1dcb 7abd 2465 eb3d
000002a0: 665c abbc e1bb b5bd d2d4 8d3d a3d1 bbbd
000002b0: f1e3 5a3e d440 06bd 7a72 1dbd 856f 4c3d
000002c0: 4091 c8bb fcaf 983c 8a2b 543d 849a 9abc
000002d0: 5847 013e 5712 163e 5c15 79be d802 87bd
000002e0: ac42 763e ff75 8cbb 5e1e f43c 8470 8ebd
000002f0: abac 90bd 5779 1a3e f8b8 82bd 69b6 2abe
00000300: 6133 093b 576d 1abd 9464 a8bd 8580 963d
00000310: 112d 73bd 0d0f 86bc e89c 2a3e 3d33 963d
00000320: 8fd6 063e 1b3d 0b3e ca45 b53d 9467 83bd
00000330: b3a2 8ebd 6eb4 b8bc 78a6 6bbd 3594 70bd
00000340: d9ec 8cbd 9f01 263d de44 b73d af90 e03c
00000350: 3747 da3d 4929 603e 55ee 7cbc b8bc 2b3e
00000360: e8a4 5c3e 529e 013d 67ec b23d 3852 123e
00000370: 2cb9 0e3d 96aa c53b 5235 b43c 9dfe 283e
00000380: f646 ab3d cf8f a9bd 8b3a 2e3e ca31 8f3d
00000390: cc89 62bc c9f3 83be 1338 a83d 544d 4ebd
000003a0: b722 95bd 8ced eebd a793 3a3e 085c 733c
000003b0: 6836 03be 54de 9d3d 0dd7 3d3d 55a7 603e
000003c0: f438 563d b645 8bbd 3946 7c3d 1959 a3bc
000003d0: daf2 43be 8fe2 803d 393a 1cbd 1449 d63c
000003e0: 7ef6 ad3d bbfa 2dbe 8f15 40bd 55ad fbbd
000003f0: 9837 3abc 8401 4abc deac b0bd eaea 403d
-0.029786589 0.028303625 0.06308188 -0.09741359 0.06892316 -0.07695606 -0.024270084 0.00044921198
0.11654885 -0.10224669 0.05834014 0.23134625 -0.21695408 0.06944788 -0.03917474 0.012184924
0.050574638 -0.08649284 0.07412365 -0.08716776 0.008542937 -0.072707154 -0.24177341 -0.1316476
-0.08302228 0.016593082 0.0026384823 -0.110732496 0.008393471 0.0242164 -0.08292151 -0.06986496
0.015413489 0.10796063 0.016742598 -0.048559677 0.079826 -0.23534796 0.11470375 0.100573145
0.083753735 0.05511396 0.030299293 0.04213927 -0.042553525 0.02289287 0.015724536 0.27766302
-0.07981832 -0.08649044 -0.003150308 0.0033623904 -0.08296936 0.018948471 0.07880453 0.0058772634
0.047318436 -0.11936336 0.0389135 0.18638016 0.07243983 -0.039977603 0.053771794 0.015027211
-0.09659339 -0.10753595 0.03359406 -0.106007464 -0.025096107 -0.030152306 -0.0076371003 -0.010250011
0.0015234089 -0.061201744 -0.21311371 -0.09775268 -0.15536952 -0.057375506 -0.055992126 -0.06525444
-0.03000446 0.07852116 -0.06686473 -0.059265543 -0.042215385 0.009487659 -0.07728451 0.06368974
-0.041389965 0.23258942 -0.03125581 0.24689849 -0.07173659 0.108747356 0.2234006 -0.17976737
-0.10598855 0.16586992 -0.006701172 -0.0545671 0.12005015 0.021595744 -0.11667959 0.046838347
0.057358615 0.0733657 -0.1708327 0.04883919 0.039726064 -0.0709588 -0.00784201 0.028605422
0.11654115 -0.025031235 0.044727836 -0.02565607 0.021440461 -0.081161864 -0.07831149 0.052288525
0.055207282 0.015471101 -0.056429416 -0.0843039 -0.107476346 -0.1527167 0.01738294 0.043385234
0.19788668 0.12094323 -0.036602713 0.14016323 -0.01641003 -0.058592834 -0.00847166 -0.052135143
-0.091085605 0.19671701 0.09213125 0.0062066065 0.11728922 -0.025003789 0.02631713 0.07806072
-0.072510146 0.036511976 -0.018760204 -0.018745422 -0.088387616 -0.07969326 0.020995937 0.064647555
0.081312306 -0.020787103 -0.039017335 0.29332054 0.023303509 0.02657372 0.012098958 -0.047851607
0.21356212 -0.06934066 0.14671315 0.021419525 0.036064424 0.18706815 -0.06122886 0.114939004
-0.020918082 -0.08873726 0.06925358 -0.091708444 0.21376015 -0.03277667 -0.03843925 0.04991104
-0.006120831 0.018638603 0.051799335 -0.018872507 0.12624872 0.14655434 -0.24324554 -0.06592339
0.24048871 -0.004286527 0.029799636 -0.069550544 -0.07064184 0.1508535 -0.06382936 -0.16671146
0.0020935165 -0.03770193 -0.08222309 0.07348732 -0.05936915 -0.016364599 0.16661417 0.07333992
0.13167785 0.13597529 0.08851202 -0.0641624 -0.06964626 -0.022546973 -0.057531804 -0.05873509
-0.068811126 0.04052889 0.08948682 0.02741274 0.106581144 0.21890749 -0.015437682 0.16771209
0.21547282 0.031645127 0.087364964 0.14289176 0.034844562 0.0060322983 0.021998081 0.16503377
0.08363144 -0.082793824 0.1701452 0.069919184 -0.013826799 -0.2577193 0.0821382 -0.050366715
-0.07282012 -0.11666402 0.18220387 0.014853485 -0.12813723 0.07708421 0.046347667 0.21938832
0.05230041 -0.06800406 0.061590407 -0.019939946 -0.1913561 0.062932126 -0.038141463 0.026157893
0.0849428 -0.16990177 -0.04689556 -0.1228892 -0.011365794 -0.012329463 -0.08626722 0.04709903

fc2.bias f4 [84]
00000000: ce56 513d 7899 973d 46d7 9d3d 4c16 a43c
00000010: 4377 01be 28df 7b3e e298 903c e73a 3d3d
00000020: 31d6 123e bca8 afbd ed54 7e3d 703a 6b38
00000030: 4db5 06be 0b18 2d3e 2617 4cbd e06f 03bd
00000040: 0dbe 463d 73a1 a0bd d137 a63d ad02 84bc
00000050: 3f71 163e 2628 d2bd 76ba 55bd 0d56 51bd
00000060: 5191 c4bd 4328 de3d 53f7 39bd 914a 133e
00000070: 8ffc 6fbc 652e f5ba c77d 32bd ca77 0a3d
00000080: 356b 49bd c96a 7fbd f6ae d73d 40f6 dd3d
00000090: 0751 2fbd 3047 81bd 0fae a6bc fb26 4d3d
000000a0: 9447 a3bd 05ad d4bc ffd3 30be b0c7 63bd
000000b0: 2e3f b43b e986 f4bd f66b cbbd 027e 323e
000000c0: b140 593c 010f bcbd c36d be3d df1f 813d
000000d0: db59 8c3d 9032 bbbb ffd4 f03d f74a 86bd
000000e0: ae54 563d c51e da3d 4061 a13d a1ac 81bc
000000f0: 5173 133e 1e6d 1cbc 55fe b93d 4dcd 3bbc
00000100: 87c1 0abd 0257 633d 17cb 053e 8790 1d3e
00000110: dbed 213e 5eb8 8abd c2bf a83b 30cb 043e
00000120: a63b 0b3e 74eb 21bd f154 ddbd 5a29 8e3b
00000130: 0d3a 5f3d e5b6 e63d 414e df3d d12d 0b3e
00000140: d8a3 a63d b085 083e 5a1f 9ebb 2b4f 29bd
0.051108174 0.07402319 0.07707076 0.020030163 -0.12643151 0.24596846 0.017651025 0.04619875
0.1433952 -0.085771054 0.06209271 5.608279e-05 -0.13155098 0.16903703 -0.049826764 -0.032089114
0.04852109 -0.07843294 0.08116115 -0.016114557 0.14691637 -0.10261564 -0.052179776 -0.051107455
-0.095980294 0.10847523 -0.045401882 0.14383914 -0.014647617 -0.0018705843 -0.043576982 0.033805646
-0.049174506 -0.062357698 0.10531418 0.10837984 -0.042801883 -0.06312406 -0.02034667 0.050086003
-0.07972637 -0.025961408 -0.1726837 -0.05561036 0.0055006957 -0.119397946 -0.09932701 0.1743088
0.013260053 -0.09182549 0.09298279 0.06304907 0.06853076 -0.0057128146 0.11759376 -0.06557267
0.05232685 0.106504 0.07879877 -0.015829386 0.14399458 -0.0095475 0.09081713 -0.011462522
-0.03387597 0.0555029 0.13065754 0.15387164 0.15813391 -0.067734465 0.0051498124 0.12968135
0.13596973 -0.039531186 -0.10807217 0.0043384256 0.05449872 0.11265353 0.109035976 0.13591696
0.081367195 0.13332248 -0.0048255147 -0.041335266

fc3.weight f4 [10, 84]
00000000: ba95 4f3d e9ad 43bd f5b8 afbd 1f66 213e
00000010: 7545 b4bd 6525 84bd 49c0 bf3d b6bb 593d
00000020: 1976 2cbe 62e6 5a3d ad9f 6dbb 5133 c3bd
00000030: 0381 7abd 21e8 9c3d 60fc 733d f6c1 0cbe
00000040: 1e49 1d3d 4f6c babd 9a76 d43d b508 8dbd
00000050: 5c3e 233d f4c1 bcbd f838 fa3d 9521 79bc
00000060: fe95 0f3d e63d cbbd 5f0d 7ebd 097d 253d
00000070: 5fde f6bd 482d 963d 00c3 95bd b3fb 90bc
00000080: 7e16 f0bc a892 9c3d 9c76 d2bd 6c85 b93b
00000090: 64b7 bf3d 92bb 093e 59b5 e0bc dd29 85be
000000a0: 4981 723d 4d90 38be 1f62 873d 0d1d 61bd
000000b0: 2d54 8ebd c67b 18be 978d 81bd 1e60 bd3d
000000c0: 1360 d9bd b15f 7dbd 5ead 69be 994d aa3d
000000d0: 0c5b e53d c327 013d b7f2 52bb 1d66 76bd
000000e0: c34f 56bd d39b 7cbe 8475 63bd 38ad 72bd
000000f0: c568 1cbe 474f 083d 470f bbbd 87c8 3d3e
00000100: 408c 47be a77b 133e a988 07bc 4223 c6be
00000110: e70e 9fbe 428d 5e3c c35c 81bd 79e1 8fbd
00000120: 39ce ff3d 116a 4bbe b118 0ebd b587 59bc
00000130: 8df3 633d 894d ddbc c146 893d 947f 71bd
00000140: bf37 16be 2c8a 55be 86ae 97bd aa0d d0bd
00000150: 3355 abbe 37af 353d 4cf1 2bbe f8a8 f5bc
00000160: a675 79bd 9c7a 0d3e a9fb 99bd a775 833c
00000170: 5f45 6d3e 5010 783d 1f9d 323e 47fd b0bd
00000180: 4ce2 07bd 91a9 fe3c ea78 963d 8465 3f3d
00000190: cfb1 b1bd 4027 67bd 30ae 12be 7ec2 bc3d
000001a0: daac 9f3d ea5d 56bd d820 f03d 2792 0cbd
000001b0: db19 01bd f7cb 88be 4b62 d53d 90aa 2b3e
000001c0: a5dc f8bc 28d2 8e3d 2991 c5bd 93ef 25ba
000001d0: 0e2e de3d d42f 1dbe 9d12 1c3c 310d 1b3e
000001e0: bd49 06bc a67a 21be 8fd6 b4bd fb85 263d
000001f0: fde0 e8bb 2724 a83d 33cb 97bd 5dbf b5bd
00000200: bc67 2fbb 2bc7 593d 1e81 9e3d e1c8 64be
00000210: 3742 6abe de22 603e 7aa8 a6bc f132 953c
00000220: 217b 81be 9065 a4bd ecdd 7fbe 93bf acbd
00000230: 5670 15be d871 f8bc 1c80 07be 0c2a 8e3c
00000240: 4143 bf3d ad5f 1dbd 788d 09be 74fc 253e
00000250: d1b3 0fbe 4f30 3b3e c1ac 153e 1fdf 7a3d
00000260: 535c 33bd 8df8 dd3c 3881 9abb 9a15 14bd
00000270: f4e7 d43d 284f f8bd adc2 08be 5c82 dcbd
00000280: 2b13 20be 1e70 843e a3b8 47be c12a 45be
00000290: f948 78bd 8112 ac3d 854a 213d a431 92bd
000002a0: 2deb 21be 1236 533d c341 c5bd 9b58 03be
000002b0: b83c 2d3d 9627 26be 6177 e5bc 7d19 b1bd
000002c0: a899 7d3c 4990 b53d 9db1 fcbd 466e 213d
000002d0: d30a e3bd aa76 75be 2966 e13d 14d5 383e
000002e0: 28e2 3c3e 6c7b c1bd 960e 11be 240f 1dbb
000002f0: caf6 5d3c 27e3 543b 0347 1cbe dc0e 98bd
00000300: ae8e 6cbc 1133 b3bc 6ddf 12be 1258 103e
00000310: 6647 a93d b255 70bd 7cff b73b 4051 c2bc
00000320: deb8 203c b102 0f3d fb7c 3a3d f9a1 f3bd
00000330: e121 c5bd 341c 503d a826 febb 4c6e d33d
00000340: 9437 a7bc d355 e93d 7895 acbc ecfc 3c3d
00000350: aec5 54bd e813 89bc c81c e2bc 8fd9 13be
00000360: 26dd 123e b0c0 e2bd 4908 01be 8e7f 3fbe
00000370: 9450 9f3d 897b 2239 3e0b f9bd 983f 86bd
00000380: 67ea bb3b b4b3 f4bd 088a 6ebe 8463 c1bd
00000390: 2c38 27bd 048f a6bd f116 07bc 7bf3 01be
000003a0: 0fe7 84bd 03d7 af3d 04e9 91be ff9b 21bd
000003b0: b10d 8ebe 9a2f d2bd 0a1c 6d3b f7c5 2fbe
000003c0: 6fcd 8e3d afd3 3abd 0b9b 06bd 5d08 1dbd
000003d0: 88a7 1e3d 1ee6 28bd 0f92 433d 520b 953d
000003e0: 9079 293e 7b48 b23d e62c a83d a5b9 c0bd
000003f0: 24ab 513e e292 eebd 1112 c83b bb3b 35bd
0.0506799 -0.047773276 -0.085802 0.15761612 -0.088023104 -0.06452445 0.09362847 0.05315753
-0.16841926 0.053442366 -0.0036258504 -0.09531272 -0.06115819 0.076614626 0.059566855 -0.13745865
0.038399808 -0.091026895 0.10374184 -0.06886426 0.039854392 -0.09216681 0.12217897 -0.0152057605
0.035055153 -0.099239156 -0.06202447 0.040402446 -0.12054133 0.073328555 -0.07312584 -0.017698145
-0.0293076 0.0764516 -0.10276529 0.005661657 0.09361151 0.13450459 -0.027430223 -0.26008502
0.059205327 -0.18023796 0.06610512 -0.054959346 -0.06949649 -0.14890966 -0.06325834 0.092468485
-0.10614028 -0.061858837 -0.2282004 0.08315582 0.111990064 0.03153206 -0.0032188126 -0.060155977
-0.05232216 -0.24668817 -0.055531994 -0.059247226 -0.15274341 0.03327873 -0.09133773 0.18533526
-0.19487095 0.14402638 -0.008272328 -0.38698775 -0.31066057 0.013583483 -0.06316521 -0.07025427
0.12490506 -0.1986468 -0.034691516 -0.013276984 0.05565219 -0.02701451 0.06702948 -0.05895956
-0.14669703 -0.2085349 -0.074063346 -0.10158856 -0.3346344 0.04435655 -0.16791266 -0.029987797
-0.060903214 0.13816303 -0.075187035 0.016047312 0.23170994 0.06056243 0.1744275 -0.08642059
-0.033174798 0.031086715 0.07347281 0.046727672 -0.086764924 -0.056433916 -0.1432426 0.09216784
0.07796641 -0.052335657 0.117250144 -0.03431907 -0.0315188 -0.26718113 0.104191385 0.16764283
-0.030378649 0.06973678 -0.09646828 -0.000632995 0.10848628 -0.15350276 0.009525922 0.15141751
-0.0081962915 -0.15769443 -0.08829986 0.040655117 -0.007106899 0.082100205 -0.07411804 -0.0887439
-0.0026764711 0.053168457 0.07739471 -0.22342254 -0.22876821 0.21888301 -0.020344008 0.018212767
-0.25289252 -0.08027184 -0.24987 -0.084349774 -0.14593634 -0.030327722 -0.13232464 0.017354034
0.093389995 -0.03842132 -0.13432872 0.16209584 -0.14033438 0.18280147 0.14616682 0.06124794
-0.04378922 0.027096057 -0.004715111 -0.036153413 0.10395804 -0.12124473 -0.13355513 -0.107670516
-0.15632312 0.2586679 -0.19504027 -0.1925459 -0.060616467 0.08401967 0.039377708 -0.071383744
-0.15812369 0.051565237 -0.09631684 -0.12826769 0.042294234 -0.16226038 -0.028011026 -0.0864744
0.015478529 0.08865411 -0.123385645 0.039411806 -0.11086049 -0.23971048 0.11005814 0.18050033
0.18445647 -0.09447369 -0.1416572 -0.0023965323 0.013547609 0.0032484026 -0.15261464 -0.07424709
-0.014438314 -0.021874936 -0.14343043 0.14096096 0.08265571 -0.058675475 0.005615173 -0.023720384
0.009809701 0.034914676 0.045529347 -0.11896128 -0.096256025 0.050808147 -0.007756073 0.10323772
-0.020412244 0.11393323 -0.021067366 0.046139643 -0.051946335 -0.016733125 -0.027601615 -0.14438461
0.14342174 -0.110719085 -0.12600817 -0.18701002 0.07779041 0.00015495544 -0.121603474 -0.06555098
0.00573473 -0.11948338 -0.23294842 -0.09442809 -0.040825054 -0.08132747 -0.008245216 -0.12690537
-0.064893834 0.08585932 -0.2849809 -0.03945541 -0.2774482 -0.102629855 0.0036180043 -0.17165361
0.06972777 -0.045612033 -0.032862704 -0.038338054 0.03873399 -0.04123508 0.047746714 0.0727755
0.16550279 0.08705231 0.08211689 -0.09410409 0.20475441 -0.116491094 0.0061056693 -0.044246417

fc3.bias f4 [10]
00000000: 702e 82bd 36f5 c13d 5f23 803c 4741 133d
00000010: 1860 8f3d e640 f53d 4114 ccbd 0d95 88bd
00000020: 575e 1abc 8bbf 0abe
-0.063565135 0.094705984 0.015641866 0.035950925 0.0700075 0.11975269 -0.099648006 -0.06669054
-0.009421906 -0.1354963
