models/FGSM-0.3-Mixup-4 BasicNet.pt (torch, 180551 bytes, 10 tensors)

conv1.weight f4 [6, 1, 5, 5]
0	0x3c42aae9	0.0118815685
1	0xbc0d8c9d	-0.008639482
2	0xbd2f9ad6	-0.042872272
3	0xbc556492	-0.013024466
4	0x3a832011	0.0010004063
5	0x3d0d0cfb	0.034436207
6	0xbc385e0f	-0.011252894
7	0xbe3e311b	-0.1857342
8	0xbdcc43da	-0.09973879
9	0xbcc23786	-0.023708116
10	0x3da35639	0.0797543
11	0x3e26b4c1	0.1627989
12	0xbdb84700	-0.08997917
13	0xbda78f80	-0.08181667
14	0x3bcbb9a2	0.0062171975
15	0x3c27bbd9	0.010237657
16	0x3eaefb24	0.3417598
17	0x3f054248	0.5205426
18	0x3e043298	0.12909925
19	0x3cda4819	0.026645707
20	0xbd9eec04	-0.0775986
21	0xbdebc903	-0.11512949
22	0xbb8559a0	-0.004069522
23	0x3d8882d4	0.066655785
24	0x3c8c11c9	0.017098324
25	0x3cb1a9e3	0.021687454
26	0x3c85ca10	0.016331702
27	0x3b1f93d3	0.0024349585
28	0x3c2cbb5c	0.010542717
29	0xbc2f7460	-0.010708898
30	0x3d0a719e	0.03379976
31	0xbbc0eb22	-0.005887405
32	0x3ae00632	0.001709169
33	0x3c65049c	0.01397815
34	0xbd21255b	-0.039342266
35	0x3c8520f0	0.016251057
36	0xbda031d1	-0.07822002
37	0x3e1c3d0a	0.1525766
38	0xbcf199d9	-0.029492306
39	0xbd8ae53d	-0.06782005
40	0xbc36f01d	-0.011165646
41	0x3ba47233	0.0050184964
42	0x3f81a543	1.0128559
43	0xbb4e6020	-0.00314904
44	0xbd453d4d	-0.048154164
45	0x3b44586e	0.0029959935
46	0xbdaaa83b	-0.08332869
47	0x3c2d2526	0.010567939
48	0x3d0a8823	0.033821236
49	0xbb281b9a	-0.0025651217
50	0x3ac23461	0.0014816636
51	0x3b6345b8	0.0034679007
52	0x3bdcb519	0.0067354557
53	0x3c27865c	0.010224905
54	0x3bf86906	0.007580879
55	0x3bbd8a3e	0.005784302
56	0x3c7449d7	0.014910183
57	0x3c90f897	0.017696662
58	0x3bf45e0f	0.0074575017
59	0xbb5ddaee	-0.0033852416
60	0x3bec7a99	0.007216763
61	0x3c565ffd	0.013084409
62	0xbcf259f3	-0.029583907
63	0xbe280958	-0.16409814
64	0xbdb63658	-0.08897084
65	0x39cda9e5	0.00039227228
66	0xbcba5347	-0.022744788
67	0xbd407efc	-0.0469961
68	0xbd2d7a81	-0.042353157
69	0x3d8be525	0.06830815
70	0x3bb4a50b	0.0055128387
71	0x3ba2ce92	0.0049684728
72	0x3e7e11fa	0.24811545
73	0x3f17f5b8	0.5935931
74	0x3ddf6af9	0.10909075
75	0xba961930	-0.0011451598
76	0xbab989d4	-0.0014155456
77	0xbd1faa9d	-0.03898107
78	0xbdab6a71	-0.083699115
79	0xbc54d9cc	-0.01299138
80	0xba89922f	-0.0010495837
81	0xbcadeabc	-0.021230094
82	0xbe008d6c	-0.12553948
83	0xbd8d6f7e	-0.06906031
84	0x3d4da498	0.050205797
85	0x3aecb3f1	0.0018058998
86	0xbd2a652a	-0.041600384
87	0xbda56499	-0.08075828
88	0x3db9831f	0.090582125
89	0x3e0a47fd	0.13504024
90	0x3aea8ddb	0.001789506
91	0xbc7dcaac	-0.015490215
92	0x3b9f5269	0.004862119
93	0x3e734c24	0.23759514
94	0x3e342959	0.17593898
95	0x3afeddbb	0.0019444743
96	0xbb5eefbe	-0.003401741
97	0x3d51d24b	0.05122594
98	0x3e3dcb7f	0.18534659
99	0xbc985988	-0.01859738
100	0xbd304d10	-0.043042243
101	0x3f255fd3	0.6459934
102	0x3da5e7cd	0.08100853
103	0xbcb79f45	-0.022414813
104	0x3c14d460	0.009083837
105	0x3c1a50f9	0.009418719
106	0x3ee1e0a3	0.44116697
107	0xbd375fe8	-0.044769198
108	0xbce4dfe7	-0.027938796
109	0xb986263d	-0.0002558696
110	0x3c116867	0.008874989
111	0xbc7531bf	-0.014965474
112	0xbd843bed	-0.064567424
113	0xbc83894c	-0.01605668
114	0xbb4a5311	-0.0030872265
115	0xbbb61c47	-0.00555757
116	0xbd1b002b	-0.037841957
117	0xbc220f90	-0.009891406
118	0xbb16c937	-0.0023008117
119	0xbad3b266	-0.0016151189
120	0x3b62cf4c	0.0034608422
121	0xbbaef324	-0.005339043
122	0xbaa162e3	-0.0012312796
123	0x3a0ee388	0.0005450775
124	0xbb0bb329	-0.0021316505
125	0x3ae79097	0.0017666992
126	0xbad7c264	-0.0016461131
127	0xbbd0a422	-0.0063672224
128	0x3d0ab458	0.033863395
129	0x3d2a5e8d	0.041594077
130	0xb90a8236	-0.00013209213
131	0xbc19f85c	-0.009397592
132	0xbcf57e12	-0.029967342
133	0x3dca94d7	0.0989167
134	0x3e0fbe4e	0.14037439
135	0xbb72c2a2	-0.003704228
136	0xbd038bef	-0.032115873
137	0xbd840ccb	-0.064477526
138	0x3e878375	0.2646748
139	0x3ec66731	0.38750604
140	0xbb337780	-0.002738446
141	0xbc73eb69	-0.014887669
142	0xbd191e08	-0.037382156
143	0x3d7b3710	0.06133181
144	0x3dcf7c47	0.10131126
145	0x3970a332	0.00022948979
146	0xbb965927	-0.0045882645
147	0xbc9ad738	-0.018901452
148	0x3cf03422	0.029321734
149	0x3d71765c	0.058950767

conv1.bias f4 [6]
0	0xbe8a856a	-0.27054912
1	0x3e25b7ef	0.16183446
2	0x3d5e2209	0.054231677
3	0x3e28b03c	0.16473478
4	0x3eb6d5c7	0.35709974
5	0x3d876347	0.066107325

conv2.weight f4 [16, 6, 5, 5]
0	0x3d9a0f68	0.0752247
1	0x3d798d3e	0.060925715
2	0x3d984a07	0.074359946
3	0x3cb3bbee	0.021940198
4	0x3cf3ea71	0.029774876
5	0xbd1a2d4c	-0.037640855
6	0x3bf48af0	0.0074628517
7	0x3d9bcb6f	0.07607161
8	0x3c1e1da3	0.009650621
9	0xbea0b5ee	-0.313888
10	0x3d52f2fb	0.051501255
11	0x3e46a0f8	0.19397342
12	0x3e21212a	0.15735307
13	0xbc5f4e41	-0.013629497
14	0xbd761957	-0.06008276
15	0x3ceffccd	0.02929535
16	0x3d4bbec9	0.049742494
17	0xbdcf110b	-0.101106726
18	0xbdc83626	-0.09775953
19	0xbc88b332	-0.01668701
20	0x3d44b268	0.048021704
21	0xbdcc146c	-0.09964833
22	0xbdc224b2	-0.09479655
23	0xbdc2ddde	-0.09514974
24	0x3dbd14fa	0.092325166
25	0x3d7954f7	0.060872044
26	0x3e24ef88	0.16106999
27	0x3e75be6c	0.23998421
28	0x3e2cd856	0.168794
29	0x3e19ac68	0.15007174
30	0xbdd659c1	-0.10466338
31	0xbc974f18	-0.018470332
32	0xbc87fdbf	-0.016600488
33	0xbca4c9de	-0.020115789
34	0xbe2d39f2	-0.16916636
35	0xbd411158	-0.04713568
36	0xbe12fc86	-0.14354143
37	0xbe76f730	-0.24117732
38	0xbed3ff4a	-0.41405708
39	0xbc9f71cf	-0.019463448
40	0x3d02612d	0.031830955
41	0xbd631f42	-0.05544973
42	0xbdf264f8	-0.118356645
43	0xbba73f54	-0.005103985
44	0x3c3b783d	0.011442241
45	0x3c50aceb	0.012736539
46	0x3d8ecfe2	0.06973244
47	0x3db7ed5f	0.08980822
48	0x3d80b883	0.06285193
49	0x3c67ee5c	0.01415595
50	0x3dd1cb7f	0.10243892
51	0x3da388fe	0.079851136
52	0x3e0342c9	0.12818445
53	0x3e48beb6	0.19604
54	0xbd9158cd	-0.070970155
55	0xbe87d429	-0.26529053
56	0xbe854a1f	-0.26033112
57	0xbde600ab	-0.11230596
58	0xbe89a5f2	-0.2688442
59	0x3d222cc4	0.039593473
60	0xbc2bb616	-0.010480424
61	0x3d07cfee	0.03315728
62	0xbd9744ac	-0.07386145
63	0x3d4d710c	0.050156638
64	0xba6ee91c	-0.00091137155
65	0xbd8347a3	-0.06410148
66	0xbd9d6ad4	-0.076863915
67	0xbe116b6a	-0.14201131
68	0xbe102cae	-0.14079544
69	0x3b8c07d7	0.0042733955
70	0xbd345ffa	-0.044036843
71	0xbdba76e3	-0.09104707
72	0xbdf395ee	-0.11893831
73	0xbde9f054	-0.11422792
74	0xbb96db66	-0.004603791
75	0x3d0a95b7	0.033834185
76	0x3e0003c8	0.12501442
77	0x3e0c15b6	0.13680157
78	0x3df41622	0.11918284
79	0x3da8e80a	0.08247383
80	0xbe433861	-0.19064476
81	0xbe2e71c2	-0.17035583
82	0xbd5b4869	-0.053535853
83	0xbe7be4d5	-0.24599011
84	0xbd46e11c	-0.048554525
85	0xbd0bb1cd	-0.03410511
86	0xbcae0b8d	-0.021245742
87	0xbdb3d767	-0.08781319
88	0x3e106036	0.14099202
89	0x3dee6fd1	0.11642421
90	0x3d7ed28d	0.062212516
91	0xbda552fa	-0.08072467
92	0x3cc3c6c1	0.023898484
93	0x3d8e7b75	0.06957141
94	0xbcb4cefd	-0.022071356
95	0x3d510400	0.051029205
96	0xbc312096	-0.010810992
97	0xbd0c4acd	-0.034251023
98	0xbd6d11e8	-0.057878405
99	0xbda490bd	-0.08035419
100	0xbccd2bc5	-0.025045285
101	0xbd2350ab	-0.039871853
102	0xbda90261	-0.08252407
103	0xbc52d6ae	-0.012868566
104	0xbb9589e8	-0.004563559
105	0x3dcefd36	0.1010689
106	0x3dd6b605	0.10483936
107	0x3e03f380	0.12885857
108	0x3e2a3088	0.16620076
109	0x3e4ab674	0.19796163
110	0xbd497ca9	-0.04919115
111	0xbd76c1aa	-0.060243286
112	0xbd75962e	-0.059957676
113	0x3d5e2f57	0.054244366
114	0x3d71f784	0.05907394
115	0xbe6da468	-0.23207247
116	0xbe3031f3	-0.17206554
117	0xbe12f857	-0.14352547
118	0xbe0ef545	-0.1396075
119	0xbda0be1a	-0.07848759
120	0x3de5824b	0.11206492
121	0xbc8b808c	-0.01702907
122	0xbd6bdded	-0.05758469
123	0xbd9a3a46	-0.07530646
124	0xbce89d4e	-0.028395321
125	0x3c5e0337	0.013550571
126	0x3ce1b83e	0.027553674
127	0x3dbf7009	0.09347541
128	0x3d443c35	0.04790898
129	0x3cb1c979	0.021702515
130	0x3d3a8f12	0.0455466
131	0x3ded0ae0	0.1157434
132	0xbc1dcc1a	-0.009631181
133	0xbdb467cf	-0.088088624
134	0xbdd9a626	-0.106273934
135	0xbdca1733	-0.09867706
136	0xbda454db	-0.080239974
137	0xbe1f8231	-0.15577008
138	0xbe18fd44	-0.14940363
139	0xbca74821	-0.020420136
140	0xbbf4ea84	-0.0074742455
141	0xbc84746c	-0.016168796
142	0xbcc050ed	-0.023476088
143	0x3db64e89	0.08901698
144	0x3d84463c	0.06458709
145	0x3d8bb510	0.06821644
146	0x3d96b2cd	0.07358322
147	0x3d89780c	0.0671235
148	0x3d8f7cd5	0.07006232
149	0x3d1ad2ad	0.037798572
150	0xbcf405f2	-0.029787991
151	0xbd5630ff	-0.05229282
152	0xbdd13b5b	-0.10216399
153	0xbda38ebc	-0.07986209
154	0xbdc178e6	-0.09446888
155	0x3d71865d	0.05896603
156	0x3d30c43c	0.043155894
157	0xbd9398c6	-0.072068736
158	0xbd6f618c	-0.058442637
159	0xbc8cc2b4	-0.017182685
160	0x3de0fae5	0.10985354
161	0x3e288d67	0.1646019
162	0x3dbef433	0.09323921
163	0x3cbe12b9	0.023202287
164	0x3d022612	0.031774588
165	0x3e0b8061	0.13623191
166	0x3c128b02	0.008944275
167	0xbdab58f3	-0.08366575
168	0xbcd5d619	-0.026103066
169	0x3d6c8ee7	0.05775347
170	0x3d5815bb	0.0527551
171	0xbd85bef6	-0.065305635
172	0xbc49cff3	-0.012317645
173	0x3d172687	0.036901977
174	0x3d207372	0.039172597
175	0xbb6418e3	-0.0034804873
176	0x3df62530	0.12018812
177	0x3e167840	0.14694309
178	0x3d882c8b	0.06649121
179	0xbd03d2ca	-0.032183446
180	0x3dc97c33	0.09838142
181	0xbbacb4d5	-0.0052705803
182	0xbe4c6ed8	-0.19964159
183	0xbda9c0c7	-0.082887225
184	0x3cf034b9	0.029322015
185	0xbe2496e2	-0.16073182
186	0xbec5003f	-0.3847675
187	0xbdc7dddb	-0.097591124
188	0x3d2c154b	0.042012494
189	0x3d4c4d21	0.049878243
190	0xbd83fba5	-0.06444482
191	0x3d10b5f1	0.035329763
192	0x3dc2a6e1	0.09504486
193	0x3d9257b8	0.07145637
194	0x3d5211bd	0.051286448
195	0x3db7214c	0.08941898
196	0x3c275a54	0.010214407
197	0x3c6f9b13	0.014624375
198	0xbb8b79a5	-0.0042564445
199	0xbc7090d1	-0.014682964
200	0x3de68f3b	0.11257788
201	0x3db23379	0.08701224
202	0xbd333819	-0.04375467
203	0xbaf3c30e	-0.001859756
204	0xbcdd57d1	-0.027019413
205	0x3d824882	0.06361486
206	0xbe56c94d	-0.20975228
207	0xbcf07629	-0.029353218
208	0xbcb6e8f4	-0.022327878
209	0xbd01b73f	-0.031668898
210	0x3dbe8b30	0.09303892
211	0x3de91f4c	0.113829225
212	0x3cc1e7f0	0.023670167
213	0xbcb9e92a	-0.02269419
214	0x3d89497a	0.06703468
215	0x3dfa05d2	0.122081414
216	0xbb3bf2e4	-0.002867871
217	0xbd0191c9	-0.031633172
218	0x3cd20783	0.025638347
219	0x3c6a3dc6	0.0142969545
220	0x3e0ab68a	0.13546196
221	0x3ce2f519	0.027704762
222	0x3c6946f2	0.014238106
223	0x3c9b7359	0.0189759
224	0xbc8e2189	-0.017349975
225	0x3da92fdc	0.082610816
226	0x3dd0d713	0.10197272
227	0x3d8c5047	0.06851249
228	0xbd4d4eac	-0.050123855
229	0xbd5766dd	-0.052588332
230	0x3dfe24a0	0.124093294
231	0xbe50f7fa	-0.20407096
232	0xbe58a1e5	-0.21155508
233	0xbd81fb7f	-0.06346797
234	0xbd81cfc1	-0.06338454
235	0xbe98899f	-0.29792497
236	0x3c1e4f72	0.009662496
237	0x3dbfb8ea	0.093614414
238	0x3d031655	0.03200372
239	0x3c894bf3	0.016759848
240	0x3de7b950	0.113146424
241	0x3e0c18be	0.13681313
242	0x3cbfe688	0.023425356
243	0x3ceb374f	0.028712897
244	0xbb925480	-0.0044656396
245	0x3decca8c	0.1156207
246	0xbd9f52a3	-0.077794336
247	0xbd0164a5	-0.031590123
248	0xbcf89388	-0.030343786
249	0xbcce4f12	-0.025184188
250	0x3dd3ab37	0.10335391
251	0xbd175a2c	-0.03695123
252	0xbd743c6b	-0.05962793
253	0x3d7f0029	0.062256012
254	0x3d5a921c	0.053361997
255	0xbd8b32cf	-0.067968

conv2.bias f4 [16]
0	0x3ef7653a	0.48319417
1	0xbd62d66b	-0.055380266
2	0xbee587db	-0.44830212
3	0xbe6edd41	-0.23326589
4	0x3e7680fb	0.2407264
5	0xbf068562	-0.52547276
6	0xbe8fa7bb	-0.28057656
7	0x3f270b28	0.652514
8	0xbf1286f8	-0.57237196
9	0x3ec24682	0.37944418
10	0x3ea3557d	0.3190116
11	0x3e9a438a	0.30129653
12	0x3dcd3233	0.1001934
13	0x3e777bc5	0.24168308
14	0x3f3d3139	0.7390323
15	0x3e81fff4	0.2539059

fc1.weight f4 [120, 256]
0	0x3bfbeda9	0.0076882434
1	0x3d7e71d0	0.06212026
2	0x3d56baf4	0.052424386
3	0x3b8a0c9c	0.004212929
4	0xbd8c3089	-0.06845195
5	0xbd542cd1	-0.051800553
6	0x3d06133f	0.0327332
7	0xbc521371	-0.012822018
8	0xbd302302	-0.043002136
9	0xbd818d02	-0.06325723
10	0x3ce231d6	0.027611654
11	0x3c14eca5	0.009089624
12	0xbcfea150	-0.03108278
13	0xbd3283b7	-0.043582644
14	0x3c9ec126	0.01937921
15	0x3d0b6ba6	0.03403821
16	0x3c8fb944	0.017544396
17	0x3d6273af	0.055286106
18	0x3cce44d7	0.02517931
19	0xbdac0819	-0.08399982
20	0xbd5a14fc	-0.05324267
21	0xbd80544b	-0.062660776
22	0xbd9a6eaa	-0.07540639
23	0xbd8add88	-0.06780535
24	0x3d168b94	0.036754206
25	0xbd469017	-0.04847726
26	0xbac49e9e	-0.0015000885
27	0xbca16fd7	-0.01970665
28	0xbd375e6f	-0.044767793
29	0xba6c2add	-0.00090090727
30	0xbd180eef	-0.037123617
31	0x3d2e90cd	0.04261856
32	0x3b0fc759	0.0021938889
33	0x3c24cc9e	0.01005855
34	0xbc2c5faa	-0.010520855
35	0x3d190ec2	0.03736759
36	0xbd203835	-0.039116103
37	0x3ce14484	0.027498491
38	0x3bd778d0	0.0065756813
39	0x3c33479b	0.010942365
40	0xbd7c399c	-0.061578378
41	0xbda78640	-0.08179903
42	0x3c82abe8	0.015951112
43	0xbd745f78	-0.05966136
44	0x3ca432db	0.020043781
45	0x3c473eb7	0.0121609485
46	0x3c773679	0.015088671
47	0xbd28e0f9	-0.041230176
48	0xbc1bc551	-0.009507493
49	0xbd84f9fd	-0.06492994
50	0xbd0f00d7	-0.03491291
51	0xbd71ea72	-0.059061475
52	0xbd21048d	-0.03931098
53	0xbd67d7a9	-0.056602154
54	0xbd380b44	-0.04493262
55	0xbce53691	-0.02798012
56	0xbbb7f59e	-0.0056139966
57	0xbd39d516	-0.04536923
58	0x3d164446	0.036686204
59	0x3cc6cf72	0.02426884
60	0xbd708596	-0.058721147
61	0xbc9f6270	-0.019456118
62	0xbd470c76	-0.048595868
63	0xbcec56d4	-0.028849997
64	0xbd525a50	-0.05135566
65	0x3cf45606	0.029826175
66	0xbc8205b0	-0.015871853
67	0x3cf1dbd7	0.029523773
68	0xbb36df5d	-0.002790413
69	0x3d1db29d	0.038500417
70	0x3cb0c4c8	0.021578208
71	0x3c44cca7	0.012011684
72	0x3b1c672c	0.0023865206
73	0xbd5ae736	-0.053443156
74	0xbc82c301	-0.015962126
75	0xbca93991	-0.020657333
76	0x3c7e14b6	0.015507868
77	0x3cde63f7	0.027147276
78	0xbc553e67	-0.013015366
79	0xbcba1d90	-0.022719175
80	0xbd6b4350	-0.05743724
81	0x3c8b49b7	0.017002923
82	0x3c983e24	0.018584318
83	0xbdaa0690	-0.08302033
84	0x3b8b8261	0.0042574857
85	0xbd556207	-0.05209544
86	0x3d286ac5	0.04111745
87	0x3d11cccb	0.035595696
88	0xbd3309d4	-0.043710545
89	0xbd1fb9e0	-0.038995624
90	0xbcf1b069	-0.029503064
91	0xbd893e2f	-0.06701314
92	0xbcab6219	-0.0209208
93	0xbd0f63f8	-0.035007447
94	0x389e1407	7.5377575e-05
95	0xbd21bc12	-0.039486
96	0xba84e67a	-0.0010139488
97	0xbd932b1f	-0.07185959
98	0xbbbffb7d	-0.005858837
99	0xbd973e05	-0.07384876
100	0xbd5b64b4	-0.053562835
101	0xbb8e9f22	-0.004352466
102	0xbd382e4d	-0.04496603
103	0xbbe2bf76	-0.0069197966
104	0xbd4d538e	-0.050128512
105	0xbcc8493a	-0.02444898
106	0x3c09f889	0.008421072
107	0xbabd07c3	-0.0014421869
108	0x3c307f12	0.010772483
109	0xbc6bd3c8	-0.014393754
110	0x3c452a83	0.012034061
111	0xbd4993d2	-0.049213238
112	0x3c683420	0.014172584
113	0xbd023ce9	-0.03179637
114	0xbd357146	-0.04429748
115	0xbcf0116c	-0.029305182
116	0x3cecc044	0.028900273
117	0xbcef20f0	-0.02919051
118	0x3c3fcc90	0.011706486
119	0xbc418b30	-0.01181297
120	0xbc7f4b08	-0.015581854
121	0x3cbcdfd7	0.023055954
122	0x3c4ea5a8	0.012612738
123	0xbbae123c	-0.0053122323
124	0x3d186f43	0.037215482
125	0x3c69cec3	0.014270487
126	0xbcd37a94	-0.025815286
127	0x3cc106d4	0.023562826
128	0x3b28955f	0.0025723798
129	0xbcf388d7	-0.029728336
130	0x3d108624	0.035284176
131	0xbd8b30d5	-0.06796423
132	0xbb2a9d56	-0.002603372
133	0x3b60abe8	0.0034282152
134	0x3bdf2b9c	0.0068106186
135	0xbd6e60d4	-0.05819781
136	0xbcd4dac4	-0.025983222
137	0xbc5b12c7	-0.013371176
138	0xbd0d5845	-0.03450801
139	0xbc8157b5	-0.015788892
140	0x3adfc29a	0.0017071546
141	0xbd3a4f37	-0.0454857
142	0xbd54a7a0	-0.051917672
143	0x3cdcdbfe	0.02696037
144	0x3d1cd2f9	0.038287137
145	0xbc49935c	-0.0123032
146	0x3d577b30	0.052607715
147	0xbbe666b9	-0.0070312885
148	0xbc32babb	-0.010908778
149	0xbd076862	-0.03305853
150	0x3cc79f10	0.02436784
151	0xbc550725	-0.013002192
152	0xbce2f61d	-0.027705247
153	0xbc548fe7	-0.012973762
154	0x3b3769b3	0.0027986586
155	0xbc49694e	-0.012293173
156	0x3c94eb83	0.018178707
157	0xbcab2cc0	-0.020895362
158	0xbcf18ffd	-0.029487604
159	0xbbed652b	-0.007244726
160	0xbcadaf4a	-0.021201748
161	0xbce19190	-0.02753523
162	0xbd12774b	-0.035758298
163	0x3cea9601	0.02863598
164	0xbd86fefe	-0.06591605
165	0xbd6e5abb	-0.058191996
166	0xbc8cafdb	-0.017173698
167	0xbb81651e	-0.0039488217
168	0x3cf8b44c	0.03035941
169	0xbd7c25de	-0.06155955
170	0x3d0b5493	0.034016203
171	0xbd34d461	-0.044147853
172	0xbd01e103	-0.03170873
173	0x3c176f0b	0.009242783
174	0x3ceaf5d8	0.02868168
175	0xbd761cee	-0.060086183
176	0xbc3df6ea	-0.011594513
177	0xbd02c517	-0.03192624
178	0xbcb1fd8f	-0.021727351
179	0x3d01066f	0.031500276
180	0x3d22ca5f	0.039743777
181	0x3cf6b9af	0.030117838
182	0x3d05f183	0.032701027
183	0xbd835d6b	-0.064143024
184	0x3cc6458c	0.024203084
185	0xbcc1f9de	-0.023678716
186	0x3d1c6274	0.03817983
187	0xbd1bb75f	-0.038016673
188	0x3c8b1fb4	0.01698289
189	0xbd2a9fb6	-0.04165622
190	0xbd620d84	-0.05518867
191	0xbd05c2c7	-0.032656457
192	0xbd815037	-0.06314128
193	0xbd85a149	-0.06524903
194	0xbcdb5a28	-0.026776388
195	0x3c84ed38	0.016226396
196	0xbc5b080f	-0.013368621
197	0x3ccc5d2e	0.024946775
198	0xbc3fc86c	-0.011705499
199	0xbbee73ae	-0.0072769737
200	0x3cee880d	0.029117608
201	0x3bab38bc	0.005225269
202	0xbd5335c2	-0.05156494
203	0xbd11841d	-0.035526384
204	0xbd859fc3	-0.06524613
205	0xbd90183d	-0.07035873
206	0xbc1d147d	-0.009587404
207	0x3d580346	0.052737497
208	0xbd11242e	-0.035434894
209	0xbd780695	-0.060553152
210	0xbd80d483	-0.062905334
211	0xbd98da51	-0.074635155
212	0x3bf395ae	0.0074336147
213	0x3d6e3adc	0.0581616
214	0xbd869031	-0.06570471
215	0xbcdacb91	-0.026708396
216	0x3d07ec4e	0.033184342
217	0xbd5203d9	-0.0512732
218	0xbd82706d	-0.063691
219	0x3d20c592	0.039250918
220	0xbd3c7f1b	-0.046019655
221	0x3c71d052	0.01475914
222	0x3cf43390	0.029809743
223	0xbd66b516	-0.05632504
224	0xbd8afa29	-0.067859955
225	0x3b22ffee	0.0024871784
226	0xbd4f77f4	-0.050651506
227	0x3b296fad	0.0025853917
228	0xbd869314	-0.06571022
229	0x3d32e645	0.043676633
230	0xbd3670d2	-0.044541188
231	0xbd14be40	-0.03631425
232	0x3c799fc7	0.015235848
233	0xbd282df9	-0.041059468
234	0x3cda8edc	0.026679449
235	0xbce97051	-0.02849594
236	0xbd6441fa	-0.055726983
237	0x3ce791e0	0.0282678
238	0xbcda38f0	-0.026638478
239	0xbd91cc69	-0.07119066
240	0xbc822fb3	-0.015891885
241	0x3d7ce9e2	0.061746486
242	0x3d4b6bce	0.049663357
243	0xbc4c208d	-0.012458933
244	0xbd951f16	-0.0728132
245	0x3d9dac06	0.076988265
246	0x3d0265b8	0.031835288
247	0x3ccf76ea	0.025325257
248	0xbc091c16	-0.008368513
249	0x3c454377	0.012040011
250	0x3c0c8844	0.00857741
251	0x3d37d128	0.0448772
252	0xbd6eda68	-0.058313757
253	0x3c859d10	0.016310245
254	0x3c4415a0	0.011968046
255	0xbd676618	-0.05649385

fc1.bias f4 [120]
0	0xbcf588af	-0.029972402
1	0x3e128c56	0.14311346
2	0x3c2ba328	0.010475911
3	0x3e894059	0.26806906
4	0x3e2a4768	0.16628802
5	0x3e5e64c9	0.21718134
6	0xbe35a369	-0.17738117
7	0x3eb80019	0.35937575
8	0x3ec9134b	0.39272532
9	0xbdaee17c	-0.085391015
10	0x3e50f957	0.20407616
11	0x3e831534	0.25602114
12	0xbd6491e7	-0.055803206
13	0x3e989584	0.2980157
14	0x3cfa612f	0.030563919
15	0x3e8f3ec0	0.27977562
16	0xbd166a7f	-0.036722656
17	0xbdbd7955	-0.09251658
18	0xbd5cf4be	-0.05394434
19	0x3ee4a915	0.4466025
20	0x3ea7c18f	0.3276486
21	0x3bf0f458	0.007353347
22	0xbe24e1fe	-0.16101834
23	0x3e8139e3	0.25239477
24	0xbd412fbc	-0.047164664
25	0xbd5d1ede	-0.053984515
26	0xbd69b231	-0.057054702
27	0xbc4942c9	-0.012283989
28	0xbc98ba7a	-0.018643606
29	0x3d728241	0.05920625
30	0x3c9ef5be	0.019404288
31	0x3e0c81b1	0.13721348
32	0xbaefa0df	-0.0018282196
33	0xbdbb943f	-0.09159135
34	0xbd96bdf0	-0.073604465
35	0x3b316b01	0.0027071836
36	0x3c7bbd68	0.015364982
37	0xbd6e0a7c	-0.058115467
38	0x3e5afe61	0.213861
39	0xbc86e5ae	-0.016466942
40	0x3e95e7d2	0.29278427
41	0xbd47c8bb	-0.048775416
42	0xbd9ce6e1	-0.07661224
43	0xbdaee6c8	-0.08540112
44	0xbd334600	-0.04376793
45	0x3e4fd1e1	0.20294906
46	0x3ddf3d12	0.1090032
47	0xbdb5fcec	-0.08886132
48	0xbd8b5322	-0.06802966
49	0xbb662b17	-0.0035120898
50	0xbb84f0dd	-0.0040570335
51	0xbd6323e1	-0.05545414
52	0x3e7b5753	0.2454503
53	0x3e4bbbd2	0.19895867
54	0x3de6f475	0.11277095
55	0xba766984	-0.00093998783
56	0x3cfaae31	0.030600639
57	0x3e4f8a14	0.20267516
58	0x3e6cffd5	0.23144467
59	0x3e207e1f	0.15673111
60	0x3e2ee756	0.17080435
61	0xbe27cf91	-0.16387774
62	0x3cea5627	0.028605534
63	0x3dcab7ab	0.09898313
64	0xbe0304f3	-0.12794857
65	0x3d9e2903	0.07722666
66	0xbe238623	-0.15969138
67	0xbc77b58a	-0.015118966
68	0xbd5a0b81	-0.053233627
69	0x3b86de31	0.0041158427
70	0x3c8ccdc3	0.017187959
71	0xbd55776d	-0.052115846
72	0xbd96f272	-0.073704615
73	0x3e8f7a6f	0.28023097
74	0x3a5c0184	0.000839256
75	0xbdb48822	-0.08815028
76	0x3c0df910	0.008665338
77	0x3caf8509	0.02142574
78	0xbd3843d2	-0.044986553
79	0xbd899196	-0.067172214
80	0x3d1fc7dc	0.03900896
81	0x3d24a7f9	0.040199254
82	0x3df27a0d	0.118396856
83	0x3c0707ca	0.008241603
84	0x3d37aed1	0.044844452
85	0xbd7d29f2	-0.06180758
86	0x3e6b184a	0.22958484
87	0x3dd9986f	0.106247775
88	0xbd2a8ee6	-0.041640185
89	0x3ed57096	0.4168746
90	0xbd804e37	-0.06264918
91	0xbcab63c0	-0.020921588
92	0x3d2c1363	0.042010676
93	0x3de92a39	0.113850065
94	0x3e408dc3	0.18804078
95	0x3ddaa2f0	0.10675609
96	0x3e9169fa	0.28401166
97	0xbd6632d3	-0.056200814
98	0xbde709e6	-0.11281185
99	0x3e1e6052	0.15466431
100	0xbdab7ff5	-0.08374015
101	0x3d82d5f0	0.063884616
102	0x3c5225b6	0.012826374
103	0x3e8d829a	0.27638704
104	0xbd3b5f9d	-0.04574548
105	0x3cea3662	0.028590385
106	0x3d69ce65	0.0570816
107	0xbd5c7ddc	-0.053830966
108	0x3c984abd	0.018590325
109	0xbc80aa7f	-0.015706299
110	0x3e34d932	0.17660978
111	0x3e1915aa	0.1494967
112	0xbe53d91a	-0.20688286
113	0x3e96498e	0.29352993
114	0xbe88a242	-0.26686293
115	0x3c1df039	0.009639793
116	0x3df7f19a	0.12106629
117	0xbdb4ac9c	-0.08821985
118	0xba963453	-0.0011459686
119	0x3b09573c	0.0020956537

fc2.weight f4 [84, 120]
0	0xbd7711ab	-0.060319584
1	0x3de4fe0b	0.11181267
2	0xbdb848df	-0.08998274
3	0x3d938890	0.072037816
4	0xbd1df576	-0.038564168
5	0xbc9268f1	-0.017872306
6	0xbd824e68	-0.06362611
7	0x3e6cdf00	0.23131943
8	0x3d38f5f5	0.045156438
9	0x3cc0b8b6	0.023525577
10	0xbdc5af78	-0.09652609
11	0x3d82b5e4	0.06382349
12	0x3bcce14a	0.0062524425
13	0x3df70275	0.120610155
14	0x3cf3cb8b	0.029760143
15	0x3e1d1fa2	0.15344098
16	0xbd7e6185	-0.06210472
17	0xbdf47582	-0.11936475
18	0x3d97936e	0.07401167
19	0xbd993289	-0.07480342
20	0x3db924b2	0.09040202
21	0x3d846cb5	0.06466047
22	0xbce26964	-0.027638145
23	0x3d32b5fb	0.04363058
24	0x3db3ad7f	0.08773326
25	0xbe462a8e	-0.19352171
26	0xbcbc762b	-0.023005566
27	0xbd9ea3db	-0.07746097
28	0xbdd8ce1a	-0.10586186
29	0xbe4b9e3c	-0.1988458
30	0xbcdfd585	-0.027323494
31	0x3c39c680	0.01133883
32	0xbe04d07c	-0.12970155
33	0xbbd1ae1e	-0.00639893
34	0xbd916b4a	-0.07100542
35	0xbdac479e	-0.084120974
36	0x3d7108f6	0.058846436
37	0x3d6dbd1e	0.058041684
38	0x3e2db867	0.16964875
39	0x3b9b842a	0.00474598
40	0x3c9b5d62	0.018965427
41	0xbd196539	-0.03745005
42	0x3b0b0be1	0.0021216797
43	0xbc238027	-0.009979284
44	0x3c69e998	0.0142768845
45	0x3daae5cb	0.08344611
46	0xbd0f622e	-0.03500574
47	0xbcf1213b	-0.02943479
48	0x3d8b4c87	0.06801706
49	0x3d48faf5	0.049067456
50	0xbddad6b7	-0.10685485
51	0x3d376ada	0.044779636
52	0x3e29903d	0.16558929
53	0x3d27221a	0.040804006
54	0x3cdd5c09	0.027021425
55	0xbdf1b5cc	-0.11802253
56	0x3d599ed8	0.05313
57	0x3e1dcc81	0.15410043
58	0x3e1a9269	0.15094914
59	0xbc9be1b6	-0.019028526
60	0x3d96f28a	0.073704794
61	0xbd804020	-0.06262231
62	0xbcff84db	-0.03119128
63	0x3d8e1b71	0.06938828
64	0x3e20d6f4	0.15706998
65	0xbe1e1343	-0.15437035
66	0xbd4ad62e	-0.049520664
67	0x3cdc5beb	0.026899299
68	0x3bab339a	0.0052246572
69	0x3d5f4a5b	0.05451427
70	0x3da3c072	0.079956904
71	0xbc9cd7aa	-0.019145805
72	0xbd190589	-0.037358794
73	0x3cba1dca	0.022719283
74	0xbd3ab265	-0.045580287
75	0x3d6e8e67	0.058241274
76	0x3bbb5f6e	0.005718163
77	0xbdf289f8	-0.11842722
78	0x3d14ae66	0.03629913
79	0xbd496286	-0.049166225
80	0x3c095c9d	0.008383897
81	0x3e7b014c	0.24512213
82	0xbd203904	-0.039116874
83	0x3cce807d	0.025207752
84	0x3df1d1cb	0.11807593
85	0xbd55face	-0.05224114
86	0xbd979d01	-0.07402993
87	0x3dc68507	0.09693342
88	0xbc523a95	-0.01283135
89	0x3dde4ff3	0.10855093
90	0xbd0cd147	-0.03437927
91	0xbc2eb0d7	-0.010662279
92	0x3dcda1ae	0.100406036
93	0xbce4976e	-0.027904239
94	0x3e00e0de	0.1258578
95	0xbd4710e0	-0.048600078
96	0x3e0e1993	0.13876943
97	0xbcdece57	-0.027198
98	0xbe56650d	-0.20936985
99	0x3dc9096a	0.09816249
100	0x3c7291af	0.0148052415
101	0x3d11aa9c	0.035563096
102	0x3d8e8889	0.06959636
103	0x3e5ca7f1	0.2154844
104	0x3d153e21	0.036436204
105	0xbe059ea0	-0.13048792
106	0x3da4303e	0.08017014
107	0x3d996554	0.0749003
108	0xbb9e03a8	-0.004822213
109	0x3d9732e5	0.07382754
110	0x3d7d6f97	0.061874
111	0xbe0ca2f7	-0.13734041
112	0x3d84a417	0.0647661
113	0x3d2137ce	0.03935986
114	0xbd24c459	-0.040226314
115	0x3dc8820a	0.09790428
116	0x3dd21c88	0.10259348
117	0xbd927970	-0.071520686
118	0x3da505a5	0.08057717
119	0x3ce1361e	0.027491625
120	0x3cf9402d	0.03042611
121	0x3dc15dc7	0.09441715
122	0x3c87c8f3	0.016575312
123	0x3c053ec3	0.008132639
124	0xbba3506a	-0.0049839513
125	0x3ce3a7a7	0.027789904
126	0x3e2ed7d3	0.17074518
127	0x3d679221	0.056535844
128	0xbd84cbe4	-0.064842016
129	0xbd52e530	-0.0514881
130	0xbdddfd9c	-0.10839388
131	0x3d8530d3	0.06503453
132	0xbd53c98f	-0.051705893
133	0xbe06dc1a	-0.131699
134	0xbd2f94be	-0.04286646
135	0x3e461e99	0.1934761
136	0xbd8a168b	-0.06742581
137	0xbdceafbb	-0.10092112
138	0x3cca1ffc	0.024673454
139	0xbdc3221a	-0.09527989
140	0x3d73b614	0.059499815
141	0xbd8aa958	-0.06770581
142	0x3da0199d	0.07817385
143	0xbd6a9a7e	-0.05727624
144	0xba3b7143	-0.0007150361
145	0xbdfc7075	-0.12326137
146	0x3dc2d12b	0.09512552
147	0xbd6cc1a3	-0.057801854
148	0xbd90cad0	-0.070699334
149	0x3e415bab	0.18882625
150	0xbac38460	-0.001491677
151	0x3e2b6c13	0.16740446
152	0x3e08f5fc	0.13375086
153	0xbe6523ef	-0.22376989
154	0x3e5a07c4	0.21292025
155	0x3bf12510	0.0073591545
156	0x3d9da223	0.07696941
157	0x3db56767	0.08857613
158	0x3e162c02	0.14665225
159	0x3d976b94	0.07393566
160	0xbe15a52a	-0.14613786
161	0xbd44c452	-0.04803879
162	0xbcfd7e11	-0.030943902
163	0xbb876c56	-0.0041327877
164	0x3db00777	0.08595174
165	0x3dcaac45	0.09896139
166	0x3e6ff06d	0.23431559
167	0x3e02a554	0.1275838
168	0xbd50b2f3	-0.05095191
169	0x3db47537	0.088114195
170	0x3cab001c	0.020874076
171	0x3d18157c	0.037129864
172	0xbc86f083	-0.016472107
173	0xbdd07027	-0.10177641
174	0xbd35b17a	-0.044358708
175	0xbda93351	-0.08261741
176	0x3caba22b	0.020951351
177	0x3b8bc68c	0.004265612
178	0xbb63f9cd	-0.0034786344
179	0xbcaa95a6	-0.020823311
180	0xbd450f61	-0.04811037
181	0xbdd5078e	-0.104018316
182	0x3c38475e	0.011247484
183	0xbb8f4c54	-0.0043731127
184	0x3d7b2ccf	0.06132203
185	0xbd606a44	-0.054788843
186	0xbb8576cc	-0.0040729996
187	0x3dace573	0.084422015
188	0x3c8f6266	0.017502975
189	0xbd29f226	-0.041490696
190	0x3db1486b	0.08656391
191	0x3b88f56c	0.004179647
192	0xbc482dc1	-0.01221794
193	0xbdd41954	-0.103563935
194	0xbd5852f5	-0.05281349
195	0x3b4816ac	0.0030531092
196	0x3d11765d	0.03551327
197	0xbd9acaf1	-0.07558239
198	0xbe9fbc80	-0.31198502
199	0xbd9a9e8f	-0.07549774
200	0xbccf2e00	-0.02529049
201	0x3db7f5cd	0.0898243
202	0xbceb67e6	-0.028736066
203	0x3da9dfd2	0.082946435
204	0x3c0cca56	0.0085931625
205	0xbd2957b9	-0.041343424
206	0xbe2e725d	-0.17035814
207	0x3d89ad8d	0.06722555
208	0x3dc0fc4d	0.094231226
209	0x3da481de	0.08032583
210	0x3d43f588	0.04784158
211	0x3cfba63a	0.030718911
212	0xbe186671	-0.14882828
213	0x3da418ff	0.0801258
214	0x3da3bfb9	0.079955526
215	0x3ddd7bf5	0.108146586
216	0x3d2b5be0	0.041835666
217	0x3d98ae16	0.07455079
218	0xbc8b2d12	-0.016989265
219	0x3da76337	0.081732206
220	0x3bdcc916	0.0067378385
221	0xbe83c084	-0.25732815
222	0x3dea0bf0	0.11428058
223	0x3e52768e	0.20553038
224	0x3cd5a039	0.026077377
225	0xbe313d52	-0.17308548
226	0xbb903ace	-0.0044015413
227	0xbd36ada4	-0.04459919
228	0xbd4dfa12	-0.050287314
229	0xbc4c0865	-0.012453173
230	0xbd547d04	-0.051877037
231	0x3df98ed6	0.12185447
232	0xbda5af18	-0.08090037
233	0xbe097c74	-0.13426381
234	0xbd2113a3	-0.039325368
235	0x3bbececd	0.0058229924
236	0xbdc4fae9	-0.0961817
237	0x3df4cc9f	0.11953091
238	0x3d52a77d	0.05142926
239	0xbd9cc97e	-0.07655619
240	0xbd33469c	-0.04376851
241	0x3c496166	0.012291288
242	0x3cd6bf07	0.026214136
243	0xbddb44da	-0.10706492
244	0xbdf09fed	-0.117492534
245	0x3c76238f	0.015023126
246	0xbdf02db4	-0.11727467
247	0x3b9eef28	0.004850287
248	0xbdf464d0	-0.11933291
249	0xbd6e5628	-0.058187634
250	0x3c977b30	0.018491358
251	0xbd31988a	-0.043358363
252	0x3c095871	0.0083829025
253	0xbd6d552c	-0.057942554
254	0xbd8ce1ec	-0.06879029
255	0xbc205abf	-0.009787261

fc2.bias f4 [84]
0	0x3e93b1d0	0.28846598
1	0x3e195b82	0.14976314
2	0xbc350284	-0.011047963
3	0x3e85f223	0.26161298
4	0xbdbf9be6	-0.09355907
5	0x3dfb70e8	0.122773945
6	0xbdddc02a	-0.10827668
7	0x3cac6cd1	0.021047981
8	0x3e91f5f8	0.28507972
9	0x3c0caa02	0.008585455
10	0x3e72e173	0.23718815
11	0x3e8b5440	0.27212715
12	0x3ed30dd2	0.41221482
13	0xbb9c3c95	-0.004767964
14	0x3e49f79a	0.19723359
15	0x3e3703ba	0.17872515
16	0x3ed96293	0.4245802
17	0xbd3f75c0	-0.046743155
18	0x3e645dc8	0.223014
19	0x3d379454	0.04481919
20	0xbe00b882	-0.12570384
21	0x3e5886a9	0.21145119
22	0x3e296600	0.16542816
23	0xbc5bcd10	-0.01341559
24	0xbdee0f90	-0.11624062
25	0x3cc1eeb3	0.023673391
26	0x3e83fb36	0.25777596
27	0xbd0877c4	-0.033317342
28	0xbb4f1231	-0.0031596536
29	0xbcc567b6	-0.024097305
30	0xbd4b75db	-0.049672943
31	0xbd4451eb	-0.047929686
32	0xbd4ff7be	-0.050773375
33	0x3e422144	0.18958002
34	0x3e1967b2	0.14980963
35	0x3e37510f	0.17902015
36	0x3e4346c5	0.19069965
37	0xbd9201c6	-0.071292445
38	0x3d65d3df	0.05611026
39	0x3dbd3e31	0.09240378
40	0x3db20082	0.08691503
41	0xbe0e348e	-0.13887236
42	0xbdf5518f	-0.11978447
43	0x3e13783e	0.14401338
44	0xbdd20cb6	-0.10256331
45	0x3eac960e	0.33708233
46	0x3eb0b997	0.34516594
47	0x3d952013	0.07281508
48	0xbe86199b	-0.2619141
49	0xbc33fc21	-0.010985405
50	0x3dab3f80	0.08361721
51	0x3e9be707	0.30449697
52	0x3ccac49d	0.024751956
53	0x3c3f9aae	0.011694593
54	0xbd0c36e2	-0.034232028
55	0x3d7ab9b2	0.06121225
56	0x3e1b9483	0.15193371
57	0xbdc143b8	-0.094367445
58	0xbe155008	-0.14581311
59	0x3e223717	0.15841328
60	0x3ead0ac4	0.33797276
61	0xbd8db43f	-0.06919145
62	0x3d8c1515	0.068399586
63	0xbd569557	-0.052388515
64	0xbddbbedb	-0.10729762
65	0xbd29d5a3	-0.041463505
66	0x3e107fc9	0.14111246
67	0xbd9e5f3d	-0.07733009
68	0xbc319cf4	-0.010840643
69	0xbdfa5c07	-0.12224584
70	0xbdcfcfe1	-0.10147072
71	0x3f00de0e	0.5033883
72	0xbda257c4	-0.07926896
73	0xbdb965d4	-0.09052625
74	0xbc9d274d	-0.01918378
75	0xbd8f64cd	-0.07001648
76	0x3e97a6e0	0.29619503
77	0xbdc03683	-0.09385397
78	0x3e4ce6ad	0.20009871
79	0xbe027d57	-0.12743126
80	0xbdd1e082	-0.102478996
81	0xbd49d667	-0.049276736
82	0xbcafe5cb	-0.021471879
83	0x3d20321e	0.039110295

fc3.weight f4 [10, 84]
0	0x3dd7aa41	0.1053052
1	0xbe299835	-0.16561969
2	0x3d8f3e57	0.06994312
3	0x3e706989	0.23477758
4	0xbcb5df95	-0.022201339
5	0x3bfdc825	0.0077448064
6	0x3d806138	0.06268543
7	0x3cfe441e	0.03103834
8	0xbee56483	-0.44803247
9	0xbe9c55dc	-0.30534256
10	0x3d12cb1f	0.035838243
11	0x3dde9489	0.108681746
12	0x3d9f8814	0.07789627
13	0x3bf18a29	0.0073712063
14	0x3ce35e28	0.027754858
15	0x3db6c6f5	0.08924667
16	0xbf2f82da	-0.6855904
17	0xbc884c59	-0.016637968
18	0xbd289565	-0.0411581
19	0x3d2cc855	0.04218324
20	0xbd6c19ac	-0.05764167
21	0x3d89025f	0.066899054
22	0x3deb49ee	0.1148871
23	0xbd33f25f	-0.043932315
24	0x3cc85ce4	0.024458356
25	0x3e13ca1f	0.14432572
26	0x3c7bfe67	0.015380478
27	0x3d71a01a	0.058990575
28	0xbd1f55d1	-0.0389002
29	0xbd49a6ec	-0.049231455
30	0xbd9cacb3	-0.07650127
31	0xbcab94dc	-0.020945005
32	0xbce4a7d5	-0.02791206
33	0xbdc6e690	-0.09711945
34	0x3d9235de	0.071391806
35	0x3dd270e6	0.1027544
36	0x3d845c24	0.06462887
37	0x3dec5cf1	0.11541165
38	0x3d1e53c8	0.03865412
39	0xbd8a61b9	-0.0675692
40	0xbdceb0e1	-0.10092331
41	0x3bfe0b6c	0.0077528264
42	0x3da247af	0.07923829
43	0xba1533b5	-0.0005691604
44	0xbc8731c9	-0.016503232
45	0x3e0bc7a9	0.13650383
46	0xbf1e956a	-0.6194674
47	0x3db17245	0.08664373
48	0x3dc94e29	0.09829361
49	0x3d4fb427	0.050708916
50	0x3dab8701	0.08375359
51	0xbc8516a1	-0.016246142
52	0x3d9eaee9	0.07748205
53	0xbd8ba9b9	-0.068194814
54	0xbd8d95ba	-0.06913324
55	0x3b0e853a	0.002174689
56	0x3c12e6e8	0.008966185
57	0x3da76cd7	0.081750564
58	0xbdef6634	-0.116894156
59	0xbd1c9de7	-0.038236525
60	0x3d981b42	0.07427074
61	0xbd9780cb	-0.07397612
62	0x3d26d8cc	0.040734097
63	0xbc53e506	-0.012933021
64	0x3dacbf6c	0.08434948
65	0xbdbd7d3f	-0.092524044
66	0x3df97504	0.12180522
67	0x3d48975d	0.048972476
68	0xbd438bdb	-0.0477408
69	0xbd88ae80	-0.06673908
70	0xbd47ae2e	-0.048750095
71	0xbd151ec9	-0.036406312
72	0x3d4eaf72	0.050460286
73	0x3c92d18f	0.017922191
74	0xbdcbec3a	-0.09957166
75	0x3c1c97f8	0.009557717
76	0x3dac737e	0.08420466
77	0xbd7bfc84	-0.061520115
78	0x39e22e20	0.00043140445
79	0xbdd331cc	-0.103122324
80	0xbd62175e	-0.055198066
81	0xbe91d0ee	-0.28479713
82	0x3dbd8483	0.0925379
83	0xbc28b1a8	-0.010296263
84	0x3d6f3466	0.05839958
85	0x3d68e75e	0.056861274
86	0x3d5728af	0.052529033
87	0x3de3bb86	0.11119752
88	0x3c822060	0.015884578
89	0xbf07b48c	-0.5300987
90	0x3cdb960e	0.02680495
91	0xbe11054d	-0.14162178
92	0x3ca61eff	0.020278452
93	0x3d9035df	0.07041525
94	0x3d57386e	0.05254405
95	0x3ca4de9e	0.020125683
96	0x3dd930e6	0.1060503
97	0x3d363b92	0.044490404
98	0xbe0adbba	-0.13560382
99	0x3e136039	0.14392175
100	0x3e04cc65	0.12968595
101	0x3d37d207	0.044878032
102	0x3df5f172	0.12008943
103	0xbee64057	-0.44970962
104	0xbdee703c	-0.11642501
105	0x3d822474	0.06354609
106	0xbc12437c	-0.008927222
107	0xbd5b04b8	-0.053471297
108	0x3cfe24e7	0.031023456
109	0xbe5e7550	-0.21724439
110	0x3dda54de	0.106607184
111	0xbe2af71f	-0.16695832
112	0xbc905635	-0.017619232
113	0x3d11f347	0.035632398
114	0xbd28fe20	-0.041257977
115	0xbdca70cf	-0.09884798
116	0xbde6233d	-0.1123719
117	0x3d2b5f68	0.041839033
118	0x3ce9179b	0.028453639
119	0xbc8d9809	-0.01728441
120	0xbe44fcf7	-0.19237123
121	0xbdc28680	-0.0949831
122	0x3c775b9f	0.015097528
123	0x3ddf5788	0.10905367
124	0x3cdd586e	0.027019706
125	0x3dfa94b3	0.122353934
126	0xbd191ef4	-0.037383035
127	0xbe1474c0	-0.14497662
128	0xbcec7918	-0.028866336
129	0x3de2465b	0.110485755
130	0x3d51b328	0.051196247
131	0x3dd885dc	0.10572407
132	0xbdf67578	-0.12034124
133	0x3df0453d	0.11731956
134	0x3d9ff7b3	0.07810917
135	0xbb9b9665	-0.004748153
136	0x3cc9d26a	0.024636466
137	0xbcd4eca1	-0.02599174
138	0xbd9b17bf	-0.075728886
139	0x3e05c4fe	0.13063428
140	0xbc02b791	-0.007978336
141	0xbd96c80c	-0.07362375
142	0xbdbe0f01	-0.092802055
143	0x3b015c64	0.0019738907
144	0x3e088ff1	0.1333616
145	0xbd6515b8	-0.055928916
146	0x3e04ce4c	0.12969321
147	0xbad754e7	-0.0016428501
148	0x3d05d364	0.0326723
149	0x3caa96b1	0.020823808
150	0x3dc909f2	0.0981635
151	0x3d5dae68	0.054121405
152	0xbd972bfc	-0.07381436
153	0xbdb893f6	-0.09012596
154	0xbd872b94	-0.06600109
155	0x3e0376bb	0.12838261
156	0x3d54d681	0.05196238
157	0x3cfb45cb	0.030672928
158	0x3d109511	0.03529841
159	0xbee1324c	-0.43983686
160	0x3c9e780d	0.019344354
161	0xbe0057d0	-0.12533498
162	0x3dcd0db7	0.100123815
163	0x3cdd4ff4	0.027015664
164	0xbdff9441	-0.12479449
165	0xbd90c48e	-0.0706874
166	0x3ddfec81	0.109337814
167	0x3c34b2a3	0.011028918
168	0x3d484c19	0.048900697
169	0x3d8067d1	0.062698014
170	0x3d277092	0.04087884
171	0x3d6978f9	0.057000134
172	0x3d092d6f	0.033490594
173	0x3cd4c9ce	0.025975134
174	0x3d972bf0	0.07381427
175	0xbd7903c6	-0.060794614
176	0xbe95aec9	-0.29234913
177	0x3d7acb82	0.061229236
178	0x3d16e787	0.036841895
179	0xbe348156	-0.17627463
180	0x3e0d6813	0.13809232
181	0x3d8e805d	0.06958077
182	0xbd1900ec	-0.037354395
183	0x3d9e0d22	0.07717349
184	0x3dcd6d5b	0.100306235
185	0xbdf4a8ab	-0.11946233
186	0x3bec96aa	0.007220109
187	0x3d9df211	0.07712186
188	0x3d817baa	0.06322415
189	0x3d03a103	0.032135975
190	0x3d6d8857	0.057991352
191	0xbba1b539	-0.0049349335
192	0x3c48fce5	0.012267326
193	0xbe2bbc62	-0.16771081
194	0xbc4f3fef	-0.01264952
195	0x3d06ff83	0.03295852
196	0x3c5744a7	0.013138927
197	0x3d6e69b8	0.05820629
198	0x3cd65a73	0.026166176
199	0x3d95f6b6	0.07322447
200	0x3da5fd0c	0.081049055
201	0xbd7dd12b	-0.061967056
202	0x3dab8e5d	0.08376763
203	0xbc3849fd	-0.011248109
204	0x3d32aecb	0.043623727
205	0xbe02310c	-0.12714022
206	0x3c99433e	0.018708821
207	0x3b10b854	0.0022082524
208	0x3ba3b00e	0.0049953526
209	0xbe02ced2	-0.12774208
210	0xbd18eaef	-0.037333425
211	0x3dc5e17c	0.09662148
212	0x3dea82be	0.11450718
213	0x3def4ef7	0.11684983
214	0xbd587db9	-0.052854273
215	0xbebcfa6d	-0.3690981
216	0xbc0cc846	-0.008592671
217	0x3dd50c42	0.104027286
218	0xbc92d50f	-0.01792386
219	0xbe752126	-0.23938426
220	0x3d6815b5	0.056661326
221	0x3de1da5b	0.11027976
222	0xbb4ca919	-0.003122872
223	0xbec41bac	-0.38302362
224	0x3d75cca0	0.0600096
225	0xbe7dcef0	-0.24785972
226	0x3d126129	0.03573719
227	0xbcb4d935	-0.022076229
228	0xbe996a41	-0.29963878
229	0xbd22439c	-0.03961526
230	0x3d989103	0.07449534
231	0xbcdd95ba	-0.027048934
232	0xbde8a3df	-0.11359381
233	0xbc27cb88	-0.010241397
234	0x3d3587e4	0.04431905
235	0xbd13d9bc	-0.03609632
236	0xbd0ef276	-0.034899198
237	0xbd448f5a	-0.047988273
238	0xbd99769c	-0.07493326
239	0x3d72a077	0.059235062
240	0x3d87b0d5	0.06625525
241	0xbdd27bb6	-0.10277502
242	0xbdceb607	-0.10093313
243	0xbc6b8db6	-0.014377048
244	0xbbdce791	-0.006741472
245	0x3d200ebb	0.039076548
246	0xbe26a604	-0.16274267
247	0xb9d1926e	-0.00039972685
248	0x3d398b79	0.045299027
249	0xbd44bfce	-0.04803448
250	0xbdabf2ef	-0.08395945
251	0x3cdcc265	0.026948163
252	0x3b70b1dc	0.0036727106
253	0x3dc2ec72	0.095177546
254	0xbd4e4518	-0.05035886
255	0xbd9d9086	-0.07693581

fc3.bias f4 [10]
0	0xbc11b178	-0.0088924095
1	0x3e7e129a	0.24811783
2	0x3d9202e8	0.071294606
3	0xbdd0ec48	-0.10201317
4	0xbd234d7a	-0.03986881
5	0x3e790bb5	0.24320872
6	0xbd94242a	-0.0723346
7	0x3e050df7	0.12993608
8	0xbe7fc082	-0.2497578
9	0xbe2eab6a	-0.17057577
