models/FGSM-0.3-Mixup-0.25 BasicNet.pt (torch, 180551 bytes, 10 tensors)

conv1.weight f4 [6, 1, 5, 5]
000000 62 e2 bf bb 27 ec e2 bb ea 52 66 bc 9b c3 90 bb
       -0.0058558444 -0.006925124 -0.014057854 -0.0044178492
000010 1c f2 c4 b9 fe 99 dd 3a f0 21 55 3c 09 49 8f 3d
       -0.0003756442 0.0016906855 0.01300858 0.06996352
000020 ea 68 bf 3c 03 87 9c ba 5a dc 1e bc 7d 2b 8f 3c
       0.023365457 -0.0011942092 -0.009696091 0.017476792
000030 33 c2 a2 3e 3d 90 92 bb 9a 0d d1 bd fd 71 b9 bd
       0.31788787 -0.004472761 -0.102076724 -0.09054945
000040 f4 85 03 3d 44 50 c7 3e 1a 9f c5 bd 31 b7 95 bd
       0.03211017 0.38928425 -0.09649487 -0.073103316
000050 fb ed 0f bc 95 4a 94 3d 69 dc 90 3e 3a c1 19 3d
       -0.008784766 0.07240788 0.2829316 0.03753779
000060 96 b8 51 3b cb b4 d5 3b f1 f9 df 3b fa eb 03 3c
       0.003200089 0.0065217963 0.0068352153 0.008051867
000070 f4 f4 f6 ba ef 98 b1 bb 25 2c 0d 3c b9 96 4e 3c
       -0.0018841312 -0.0054198424 0.008616482 0.012609177
000080 13 99 98 3c 5a 03 9a 3c 44 08 24 3c 77 60 c3 3b
       0.018627679 0.018800426 0.010011736 0.0059624272
000090 64 35 97 39 2a 75 bb 3d e6 72 b5 3e 76 dd d2 3d
       0.00028840743 0.09153207 0.35439223 0.102961466
0000a0 01 e7 79 3b 21 bd 99 3c b2 d5 b8 3e 2c ae 59 3f
       0.0038132074 0.018766942 0.36100537 0.8503139
0000b0 ce a6 5c 3d 78 ab 9b 3c 63 6f a7 3c 6e 17 96 3c
       0.053870015 0.019002661 0.020438856 0.018321719
0000c0 a9 8f 7a 3c 6d 7b d9 bc 40 18 42 3b 27 6e 0b 3b
       0.01529304 -0.026548112 0.0029616505 0.0021275373
0000d0 2f 6a ab 3b c3 1a 55 3b e0 a9 9d 3b 2c 04 3d 3b
       0.005231164 0.0032517172 0.0048115104 0.0028841598
0000e0 ac 33 2b 3b a0 0b 72 3b 5c 74 5e 3a a1 da bd ba
       0.0026123328 0.0036933199 0.0008485967 -0.0014484712
0000f0 41 47 f9 3a e0 45 cf 37 27 52 4f 3b b6 26 96 bb
       0.0019018428 2.4708861e-05 0.003163466 -0.0045822514
000100 85 f7 2c bf d8 87 1b 3a fd 40 50 ba 47 df 51 3a
       -0.67565185 0.0005933023 -0.00079442543 0.0008005988
000110 4e 35 21 bb 0a 3a e6 39 d2 ec 77 3a ea c4 29 3a
       -0.0024598422 0.0004391226 0.0009457591 0.0006476181
000120 9c 70 10 3b c3 a8 b7 3a 44 51 4b 3b c5 e1 21 ba
       0.0022039777 0.0014012087 0.003102378 -0.0006175305
000130 89 ab 19 3c a0 b1 57 3b 5e aa 55 bc 90 d8 4b bc
       0.009379276 0.003291227 -0.013041107 -0.012441769
000140 5a d9 5c ba 8a 37 cc 3c 1b bc 2e 3c 4d 83 a0 bd
       -0.0008424722 0.024928827 0.010664965 -0.07837544
000150 a0 1b d5 bc f6 48 82 bc 76 1d 76 bc 67 fe c5 be
       -0.02601415 -0.015903931 -0.0150216725 -0.38670656
000160 50 04 06 be ed 75 8a 3d 30 84 1c bc 06 38 94 bd
       -0.13087583 0.06760774 -0.009553 -0.07237248
000170 bd 70 a1 bd 0e 05 6d 3e 29 44 8d 3d 98 26 82 3b
       -0.07882831 0.2314646 0.06897766 0.003971886
000180 11 54 c5 3c 90 3b 00 3e f2 34 fd 3d 58 b3 bb bb
       0.024087938 0.12522721 0.12363614 -0.0057281666
000190 05 63 d1 ba 1e 6c 59 b9 18 d6 b7 3b 27 d3 8e 3b
       -0.0015974945 -0.0002073501 0.0056102388 0.0043586674
0001a0 91 db 69 3b 2a 90 4e bb 9d 02 81 3b df 6a 11 bd
       0.003568385 -0.0031519034 0.003937079 -0.03550231
0001b0 68 3f 42 bd 87 b5 5d bc 0f ff 28 3c 64 a2 5b bd
       -0.04742375 -0.013532049 0.010314717 -0.053621665
0001c0 25 84 9f be 23 bb 62 be 69 03 87 bd e6 e3 cf 3c
       -0.31155506 -0.221417 -0.06592447 0.025377225
0001d0 52 f0 1e 3e 6c 53 00 bc 71 75 5c bd f2 3c a9 39
       0.15521362 -0.007832389 -0.05382294 0.000322796
0001e0 5b fe af bb 3a 21 9d 3e 3f 78 c6 3e 9e c0 c1 3d
       -0.0053708977 0.30689412 0.38763615 0.09460567
0001f0 1a 6c 26 bc 75 6b 40 bb 4a 0b ad bb 51 23 45 3c
       -0.010157609 -0.0029360924 -0.005280887 0.012032346
000200 19 64 d0 bb ea fe 71 bb f3 b8 3c bd 86 a4 46 3e
       -0.006359589 -0.0036925622 -0.04607482 0.19398698
000210 50 fd 4b 3d 96 7d 52 be 4e bc 3d bd 91 4f 20 bd
       0.049802125 -0.2055572 -0.04632216 -0.03913838
000220 2c 4a e1 3e 7a 85 91 bd 40 39 8c be 8f 34 10 bd
       0.440019 -0.07105537 -0.27387428 -0.035206374
000230 fa 91 bf bc 83 24 7b 3e d1 6f ec bd 58 7c e1 bd
       -0.023385037 0.24525647 -0.11544765 -0.11010045
000240 c0 88 f9 3b 57 cd 59 bc f0 73 91 3c 51 60 45 bc
       0.007615179 -0.013293586 0.017755479 -0.012046889
000250 30 88 49 3b bc 3a 28 3a
       0.003075134 0.00064174435

conv1.bias f4 [6]
000000 28 39 b4 3e e8 5b b1 3e d9 d7 cb bd b7 37 d9 3d
       0.35199857 0.3464043 -0.09953279 0.1060633
000010 e1 42 6c 3d df 8d 84 bc
       0.05768097 -0.01618093

conv2.weight f4 [16, 6, 5, 5]
000000 8b a3 05 3d d8 90 36 bc f0 0b 5c bd 35 9d 87 bc
       0.03262667 -0.011142932 -0.053722322 -0.016554454
000010 5f 79 2f bd db 44 2f bd b3 ec 08 bd a9 3a 92 bd
       -0.042840358 -0.042790275 -0.03342886 -0.07140095
000020 6d 1c c7 bd e5 08 c5 bc 04 da 47 bc ca 8f 43 3d
       -0.09722219 -0.024052093 -0.012197975 0.04774455
000030 33 e9 37 3d 10 26 03 3d 75 a2 8d 3d 77 97 15 3d
       0.04490013 0.03201872 0.06915752 0.0365214
000040 da 7f ca 3d fb 0a c9 3d c9 e7 a4 3d df f9 4a 3d
       0.09887667 0.098165475 0.08052022 0.049554702
000050 4e 47 8a bc 4b ab 7a bc 90 1d 7c bc c8 5f 37 bc
       -0.016879704 -0.0152996285 -0.015387908 -0.01119227
000060 f1 c5 4a bb 37 ea 1f 3d 21 79 0f 3d 98 f3 9b bd
       -0.0030940736 0.039041724 0.035027627 -0.07614821
000070 4a d6 5b bd 1d af 4f bd a4 d5 22 bd 4c e4 18 bd
       -0.05367116 -0.05070411 -0.039754525 -0.037327096
000080 c4 0d 25 be cb 62 05 be e4 6a c7 3a b1 1e 15 bc
       -0.16118532 -0.13025968 0.0015214351 -0.009101556
000090 96 c1 7f 3d 83 3f a5 bb f5 da 1c 3d 16 f1 ea 3d
       0.062440477 -0.0050429716 0.03829475 0.11471765
0000a0 e1 33 c9 3d f9 21 c7 3d f7 1a d5 3d d7 96 1a 3e
       0.09824348 0.09723277 0.10405534 0.15096603
0000b0 74 66 e1 3d fc c3 5c 3d 1c 3f 94 3d 4f ca e7 3d
       0.110058695 0.053897843 0.072386 0.11317884
0000c0 b2 83 ad 3d 51 af 23 bd e6 b2 b1 3c f4 34 d4 bb
       0.084723845 -0.039962117 0.02169175 -0.006476039
0000d0 7b 0b bf 3b 63 a5 54 3b d1 b4 d6 bc 8c 09 bc 3c
       0.005830226 0.003244721 -0.026209267 0.022953771
0000e0 63 2f 9d bd 04 30 68 bd bf 71 10 bd b7 c4 54 bc
       -0.07675054 -0.056686416 -0.035264727 -0.012986354
0000f0 16 ec 17 3d f1 9b 81 3b ec 16 a8 bd 6d f3 a0 bb
       0.037090383 0.0039553572 -0.08207497 -0.004911831
000100 94 fa 1b bc 6f 94 40 3d 0b b1 fe 3c b0 e4 0f bd
       -0.009520192 0.047016557 0.03109028 -0.035130203
000110 bc 49 3b 3d 76 de 90 bc 34 dc ba 3d df 7a a3 3d
       0.045724615 -0.017684203 0.09124032 0.0798242
000120 a5 34 2e 3d 74 ec 38 3c 2e 31 e9 bb a2 ee 83 bc
       0.042530674 0.011286844 -0.0071164584 -0.016105
000130 a4 bb 9d bd 49 e6 48 bd af a0 b0 3b 3f 38 50 bd
       -0.07701805 -0.049047742 0.0053902487 -0.05083489
000140 5d 50 0f bb 19 af 96 bd bf bd 59 bc a1 b5 13 3d
       -0.0021867969 -0.07357616 -0.013289868 0.036061887
000150 9c 99 23 3d 19 ec 5d 3d 68 b2 e3 bb 5c 57 bf bc
       0.039941415 0.05418024 -0.006948758 -0.023357086
000160 2e 01 a5 3d ef ea 87 3c b5 ce 4c 3d 99 41 a7 bb
       0.08056866 0.016591517 0.05000182 -0.0051042554
000170 76 2a ce bc 97 d0 31 3d c0 ab 0b bd 88 16 9f 3c
       -0.025166731 0.043411817 -0.03409934 0.019419923
000180 38 6b 68 bb 0b 18 8f bc 26 5c 9a bb 49 5c 22 bd
       -0.0035464298 -0.01746752 -0.004710692 -0.03963879
000190 43 39 45 3d e4 32 20 3d aa 9d ac 3c 05 08 5a 3c
       0.048150312 0.039111033 0.021071274 0.013307576
0001a0 b5 29 41 3d e5 8f 68 3d 46 49 10 3c 0e 5d 0a 3c
       0.047158916 0.056777854 0.008806532 0.0084450375
0001b0 a6 55 7c bc 5f 9e 21 3d 58 8d cf 3d 19 e9 01 bb
       -0.01540128 0.039457675 0.10134381 -0.0019822775
0001c0 09 19 da 3c de 6a c8 3c bb f9 6d bc 27 c7 42 3d
       0.026623266 0.02446502 -0.014524872 0.047553208
0001d0 f3 ab ee ba 0a 62 2e 3d 99 b3 e4 3c c6 42 36 bd
       -0.0018209204 0.042573966 0.02791767 -0.044497274
0001e0 58 ce ff bc a9 e6 b1 bd 60 39 6d 3c dc 74 07 bc
       -0.031226322 -0.08686573 0.014479011 -0.008267608
0001f0 10 1f 6a bd 0d f7 11 bc d2 ac 35 ba bd d1 a2 bc
       -0.05715853 -0.008908999 -0.0006930354 -0.019875402
000200 d3 79 ca 3c bd b4 64 39 2a 60 20 bd ba c0 d3 bc
       0.024716293 0.00021811105 -0.03915421 -0.025848735
000210 01 b4 18 3b 8f fe 30 3c 45 5f c9 3c 98 c1 f7 3a
       0.002330065 0.010802879 0.02458156 0.00189023
000220 7c 69 56 bd 3a 1a d1 3b 92 18 af 3c 3a 95 69 3d
       -0.05234669 0.0063813003 0.02137402 0.05702708
000230 d1 8e 13 3d d2 b1 23 bc 68 ed c2 bc 1b dc 12 bd
       0.036024872 -0.009991126 -0.023794845 -0.03585444
000240 6a 89 4d 3c 2d ac c4 bb 8b f3 dc bd 71 9c fb bd
       0.012544969 -0.0060019703 -0.1078864 -0.12285698
000250 56 7d 84 bd 08 90 02 bd 49 93 18 3e 65 cb cf 3d
       -0.064692184 -0.03187564 0.14899935 0.10146216
000260 2a 00 49 be f7 4b f0 be e3 81 3e be e4 56 2a 3e
       -0.19628969 -0.46932957 -0.18604235 0.16634709
000270 ee 3b cc 3d b4 c3 47 be 8a c7 09 be 2f 39 b2 bd
       0.09972368 -0.19508249 -0.13455024 -0.08702313
000280 b7 8f 02 3e a8 fa ab bd 1f e6 5a be 1c 5e 9b bd
       0.12750135 -0.08397418 -0.21376847 -0.07586309
000290 07 e8 40 3d 9a 01 ef bb 9b 61 85 bd 67 9a 44 bd
       0.04709628 -0.007293892 -0.065127574 -0.047998812
0002a0 ce 99 c7 3d 23 00 be 3d 0f e5 27 bd ba 05 f4 3a
       0.09746133 0.0927737 -0.04098993 0.0018617429
0002b0 d7 d8 27 3e 04 28 14 3e f0 7f 0d 3e f4 4f 85 3d
       0.16391312 0.1446839 0.13818336 0.065093905
0002c0 58 2b 7c 3c bf 2b 9a be 53 a5 e4 be c0 54 cf bd
       0.015391193 -0.301115 -0.44657382 -0.10123587
0002d0 14 19 eb 3d f7 65 e5 3a a9 59 33 bf b5 b2 b6 bd
       0.11479393 0.0017501701 -0.70058686 -0.089208044
0002e0 fc cd 1b bd fc 77 b0 3d c8 ec 8e be 36 de 21 be
       -0.03803824 0.08616635 -0.27915025 -0.15807423
0002f0 21 b8 cd bb ae 97 bf 3d aa e3 8d bc 54 f9 2a bd
       -0.0062780534 0.093551025 -0.017320473 -0.041741684
000300 f7 01 a8 3d de 20 c3 3d 3f e3 67 3d 61 b6 ac 3c
       0.082035 0.09527753 0.056613203 0.021083059
000310 b4 d7 b6 3d ad 16 ec 3d 35 12 bf 3d 28 a8 09 3b
       0.08927861 0.115277626 0.093296446 0.002100477
000320 35 c0 22 3d 81 00 a1 bd 70 00 2b bd a6 aa 51 3d
       0.039734084 -0.07861424 -0.041748464 0.051188134
000330 c3 fa f7 3c 7e 12 ac 3d be d9 65 3d d3 4d a9 3c
       0.03027094 0.084019646 0.05611586 0.020666992
000340 4d fe 1f bd ee a7 ce 3b e0 53 a4 bd a3 e0 1c bd
       -0.03906088 0.00630664 -0.080238104 -0.038300168
000350 1b 75 e2 bc 6b 80 c1 b9 36 52 fe 3b 95 1a 08 be
       -0.02764373 -0.00036907507 0.007761265 -0.1329139
000360 c0 6c ad bd fa 60 93 3c 6f 2c 99 3d 5e e5 8a bc
       -0.08468008 0.017990578 0.07479178 -0.016955074
000370 72 9d 50 bb a8 ce aa 3c 90 93 84 3d 7a 0a 01 3d
       -0.0031832126 0.020850495 0.06473458 0.03150413
000380 36 21 10 bd 2f 94 4e 3d 5f 82 62 bc e8 08 f0 bb
       -0.035187922 0.050434288 -0.013825028 -0.0073252805
000390 16 44 7e bd d5 2f ab bb 3b 07 9f 3d 16 ca 82 bc
       -0.06207665 -0.005224208 0.07765051 -0.015965503
0003a0 c5 20 90 bd 62 72 89 bd 5e bf e8 3c cf 06 13 3d
       -0.070375 -0.0671127 0.028411563 0.035895165
0003b0 f1 04 17 3d 5b f4 09 bd f2 1f 2a bb 1b 38 58 3d
       0.036869947 -0.0336803 -0.0025958982 0.05278788
0003c0 53 f9 28 3b 49 ce 08 3d 4f 31 23 3d d6 3b 80 3d
       0.0025783374 0.033399854 0.039841946 0.06261413
0003d0 41 42 1b bd 4e 34 c2 bb e7 be 7b 3c ae ec 8d 3d
       -0.03790498 -0.0059266454 0.015365339 0.06929909
0003e0 4a 6b df bc a1 eb b1 bd fe 3e ce 3c c3 a4 b7 3c
       -0.02727284 -0.08687521 0.025176521 0.022417432
0003f0 a6 ee 74 3d 8b 52 57 bb 06 82 a5 bc 49 04 e3 bd
       0.059797905 -0.0032855596 -0.020203602 -0.11084802

conv2.bias f4 [16]
000000 18 46 94 be 9a 62 22 bd aa 98 52 3e b1 a8 61 3e
       -0.28959727 -0.039644815 0.20566049 0.22037007
000010 f3 3b 5a 3e eb 7a 4b be f7 c0 cd be 3b d6 01 bf
       0.21311931 -0.19871108 -0.40186283 -0.50717515
000020 7e 15 18 3d 50 9a b5 3e 75 07 e7 3d c5 cd 75 be
       0.03712987 0.35469294 0.11280719 -0.24004276
000030 98 40 7b 3e e6 06 72 3e 8a 73 ae be 17 ea f2 3d
       0.2453636 0.23635444 -0.34072524 0.11861055

fc1.weight f4 [120, 256]
000000 80 12 f5 3d 15 8c e0 3d 07 14 92 bc 99 1e 05 3d
       0.11966419 0.109642185 -0.017831815 0.032499883
000010 e1 1e 59 3d 7c f2 01 3e 56 e0 9e bc 48 27 e5 3a
       0.053007964 0.12690157 -0.019394081 0.001748302
000020 13 e6 29 be f8 96 84 bc 5c 90 91 bd d2 67 8d bc
       -0.16591673 -0.016185269 -0.071076125 -0.01726142
000030 b0 63 07 be 43 07 90 3c 39 9c 9d 3d 92 00 e5 bc
       -0.13221622 0.017581588 0.07695813 -0.027954374
000040 63 bd 67 3e 74 35 0c 3d 14 0f 5e 3d c1 63 e8 3d
       0.22630839 0.034230664 0.0542136 0.113471515
000050 b7 4c 9a bc c1 45 c3 bb 3f ce ab 3d bb e4 7b 3d
       -0.018835409 -0.005959243 0.08388948 0.06149743
000060 13 31 0b be b5 37 f4 3d ec f9 49 3d ae c5 b8 bc
       -0.13592939 0.11924688 0.04931061 -0.022555199
000070 a3 1b 8d bd a1 53 45 3d 38 cd 82 bc ac d3 86 bd
       -0.06890037 0.048175458 -0.015966997 -0.06583342
000080 c0 9d c0 bd a5 f4 07 3d 8c 3e 83 bd d5 34 48 bd
       -0.094050884 0.033192296 -0.06408414 -0.04887851
000090 b4 05 bf bd 4a 43 97 bc 39 3a b3 3b 9e 3b 4c 3c
       -0.0932726 -0.018464703 0.005469587 0.012465386
0000a0 90 a6 3f bd ed cc 95 bd 40 ef 0d 3e a2 4d b0 3b
       -0.046789706 -0.07314477 0.13860798 0.0053803483
0000b0 0b 25 8b 3c e9 0d 56 be fa 3d 74 bd 29 e3 87 bd
       0.016985437 -0.20903744 -0.059629418 -0.06635124
0000c0 83 b4 08 3c c9 a1 1c be fe 55 06 3e 4d 56 44 3e
       0.008343819 -0.15296091 0.13118741 0.19173546
0000d0 09 2b b6 3d 34 ef 39 be 3b 4f 7b 3d 25 96 80 3e
       0.08894927 -0.18157655 0.061354857 0.2511455
0000e0 72 0b 56 bd 8b 70 ca bd 08 49 00 be 4f 65 e7 3d
       -0.05225701 -0.09884747 -0.12527859 0.1129862
0000f0 4f 51 81 3d 7c 4f 5e 3c 6e 13 bc bd e1 87 47 3e
       0.063143365 0.013568755 -0.091833934 0.19485427
000100 f0 ce 10 bd 4c c8 12 3e d5 5e ad 3c 2f e7 01 3c
       -0.0353536 0.1433422 0.021163383 0.007928654
000110 e1 63 ec bd 47 7b 0c 3e ec c6 4c bd e6 1a 95 3c
       -0.11542488 0.13718902 -0.049994394 0.018201303
000120 10 2b 74 3d 07 61 fe bb f3 c7 d3 3d 30 2e 93 bc
       0.05961138 -0.0077630314 0.10340872 -0.01796636
000130 31 d8 a6 bd 47 b9 6e bd e2 10 ba 3c e4 b7 08 be
       -0.08146704 -0.058282163 0.022713128 -0.13351399
000140 26 cf 58 3d 42 ce a7 bd 73 a0 09 bc e0 7b 13 3e
       0.052931927 -0.081936374 -0.0084000705 0.14402723
000150 9e 98 f4 3c 0e e7 e5 bd 89 63 42 3d 1e 46 7c 3d
       0.02985793 -0.11225711 0.047458205 0.061590306
000160 c8 1e 02 3d 21 08 4e be 33 3b cf 3c f1 7f c1 3c
       0.031767637 -0.20120288 0.025296783 0.023620578
000170 26 61 39 bd b5 c9 1e 3c 98 7e a4 bd 66 71 9b 3d
       -0.045258664 0.009691645 -0.08031958 0.075899884
000180 26 5b ab 3d 6e ee 22 be 83 6e 9d bd e1 3f 73 3d
       0.083669946 -0.15911266 -0.07687094 0.05938709
000190 96 24 35 3e 1f a5 cb 3c df e8 36 bc e7 2e 6b 3c
       0.17689738 0.02485901 -0.011163919 0.014354444
0001a0 1e 65 60 3d 68 d3 3d bd 55 84 07 bd f5 28 05 3e
       0.054783933 -0.04634419 -0.033085186 0.13003905
0001b0 38 71 88 3d a9 10 e3 3d 54 d9 ae bd 39 e9 b2 3c
       0.0666222 0.11087162 -0.08537546 0.021839725
0001c0 df 18 2d 3e f4 6c 47 bd d2 56 c3 3d 7c f4 c1 3d
       0.16904019 -0.04868789 0.09538044 0.0947046
0001d0 46 c4 88 3d ab db 37 bc be 9e 7c ba b7 7b bb 3d
       0.06678061 -0.0112218065 -0.00096366915 0.09154456
0001e0 12 02 1f 3c 8f 84 8d bd 1f eb b0 bc 76 a1 b0 3d
       0.009705083 -0.06910049 -0.02159649 0.08624546
0001f0 30 d4 fc 3c 37 06 d3 bd 5c 5d 9a bc 2e 1e fd 3c
       0.030862898 -0.1030392 -0.018843345 0.03089818
000200 a3 46 4a bd 07 43 2e 3d fc 8f fb 3c e3 3c 11 bd
       -0.04938377 0.04254439 0.030708306 -0.035458457
000210 1e a6 6d bd f6 47 33 bc c8 45 34 3c 06 2d ca ba
       -0.05801975 -0.01094245 0.011002965 -0.0015424795
000220 a0 b8 9c 3c 04 b5 48 3d ee cc 59 3d 02 9c 39 3b
       0.019131005 0.049000755 0.05317395 0.0028321748
000230 a9 e7 7f 3c 3f da 70 bd f2 b2 6e 3c b0 b5 4b bd
       0.015619197 -0.058801886 0.014569031 -0.049733818
000240 d3 a7 39 3d 1f e4 15 3e 36 82 6a 3d b8 af ee 3c
       0.045326065 0.14637803 0.057253085 0.029136524
000250 05 77 2c be e9 fc ba 3d c8 fe cb bd 00 54 1b bd
       -0.16842277 0.0913027 -0.09960705 -0.037921906
000260 c9 46 6e bd df 49 bf bc 22 14 68 bd 1a 70 c8 bd
       -0.058172975 -0.023350654 -0.056659825 -0.09787007
000270 b1 07 02 bd a7 be 92 bd b4 dd 5f bd 05 19 9b 3d
       -0.031745616 -0.0716527 -0.054654792 0.075731315
000280 7d cb b7 bb af ee 6a 3c 95 81 35 bd f1 16 41 3d
       -0.0056089745 0.014339133 -0.044313032 0.04714102
000290 f8 a8 b7 3d cb 98 4d 3e e4 32 cc bb a2 36 31 3d
       0.08967775 0.20077817 -0.0062316526 0.043264993
0002a0 43 0a 7a 3c cc f9 0a 3d 03 bd 88 bd 27 aa 20 3d
       0.015261236 0.03392963 -0.06676676 0.03922477
0002b0 c4 3f 61 3c b1 8a 54 3a 01 da 4a bd d2 c9 49 bd
       0.013748113 0.0008107825 -0.04952431 -0.049264736
0002c0 8c 2e 54 bd a2 53 a9 bd 4c f0 51 3d 10 4c c1 bc
       -0.051802203 -0.08267905 0.051254556 -0.02359584
0002d0 b9 b4 12 bd eb c9 ba bd 37 52 16 bd 48 a9 1a bc
       -0.03581688 -0.09120544 -0.0366995 -0.009439774
0002e0 09 c5 f1 bd d9 5f 10 bd 74 dd 69 3d 90 d0 c7 3c
       -0.118051596 -0.035247657 0.05709596 0.024391443
0002f0 d4 c4 04 3d c9 ad c9 bd 43 6e ab 3d 44 dd 61 3d
       0.032414272 -0.098476 0.0837064 0.055142656
000300 14 3c 1d bc 69 76 a9 bd fc 7c 1e 3e ae fa ab bc
       -0.009596843 -0.08274538 0.15477365 -0.020993557
000310 3c 72 a8 3d 22 06 d1 3d 23 2d 79 3e 85 a0 05 3d
       0.082249135 0.10206248 0.24333625 0.032623786
000320 a7 86 63 bd 6b fc 91 3d f3 7a 58 bc c7 cc 16 bd
       -0.055548336 0.07128223 -0.013212907 -0.036816385
000330 bd 1a ca bb 4a ed 18 3c 9f 02 7a 3d ca 85 58 bd
       -0.006167738 0.009333918 0.061037656 -0.052861966
000340 24 bc 97 bb 9f e7 bc 3d 18 c3 3c 3c a4 a8 46 be
       -0.0046305824 0.09223866 0.011521123 -0.19400269
000350 53 7b 89 be 0b 16 11 bd 86 18 2a 3d df e6 0f be
       -0.268519 -0.035421412 0.041527294 -0.14052914
000360 20 c9 a2 bd 09 05 02 be 6f c1 04 bc 91 b9 9e ba
       -0.07948518 -0.12697233 -0.008102759 -0.0012109746
000370 3d 7e cd bb 98 84 7d bc d9 65 4f 3d 15 06 56 bd
       -0.0062711523 -0.015473507 0.05063424 -0.052251894
000380 59 a6 2a 3a 57 6f 54 bd dc c8 3b bb 75 1d 4d 3d
       0.0006509773 -0.051863994 -0.0028653657 0.05007692
000390 a9 75 25 3e 2a 87 45 3d 9c a8 0a bc 4f 4c 66 3d
       0.16158165 0.048224606 -0.008463051 0.056225117
0003a0 f7 d8 82 bd 59 c9 05 3d 7c 63 f7 3c 8f a2 ca 3d
       -0.06389039 0.032662723 0.030198805 0.09894287
0003b0 84 09 00 3d 6c c6 81 3d d6 c8 4a 3d d8 c8 16 bd
       0.031259075 0.06336674 0.04950794 -0.036812633
0003c0 a0 5d cd 3d 74 04 8f 3d 23 18 d7 3d ca d3 2c bc
       0.10027623 0.06983271 0.105026506 -0.010548541
0003d0 ec a0 47 bd 6d 04 c6 3d 4e a0 cf 3d 45 6d 8a 3e
       -0.04873745 0.09668813 0.101379976 0.2703649
0003e0 a6 aa 7d be 03 c1 9c be 7f 49 e5 3d af 84 17 3d
       -0.24772128 -0.30616006 0.11195659 0.03699177
0003f0 9d e4 c8 bd a9 5a f8 ba 15 66 45 3d ae c3 66 bc
       -0.098092295 -0.0018947917 0.048193056 -0.01408474

fc1.bias f4 [120]
000000 0b be 83 be ea ef 64 bc 52 35 1f 3d 1f 23 89 bc
       -0.2573093 -0.013973216 0.03886921 -0.01674038
000010 f1 dd ca 3c 8d 30 cc 3e 08 de c7 3d 4f a2 f6 3c
       0.024764033 0.3988079 0.09759146 0.030106692
000020 91 ea 03 bd 92 30 5b 3c 05 c8 03 3e a9 7a 93 bd
       -0.03220612 0.013378279 0.1286927 -0.0720113
000030 14 7d 5b 3e 46 c5 ec bc df b4 e8 3d f4 dc f5 3c
       0.21434432 -0.028902661 0.113626234 0.030012585
000040 4b 74 63 be 49 7e 26 be 1c 6d 89 3e b9 42 4e bd
       -0.22212331 -0.16259111 0.26841056 -0.0503566
000050 b2 72 c4 3c f2 50 f9 bd 5e 34 82 3e 0f 77 d4 bb
       0.023980472 -0.12173642 0.25430578 -0.0064839195
000060 76 c5 87 bb cb 90 d1 3d 01 bc 27 bd 91 63 01 be
       -0.004143412 0.10232695 -0.04095078 -0.12635638
000070 ab de 80 3d a6 81 31 bd e2 08 66 bd 75 36 4e bc
       0.062924705 -0.043336533 -0.056160815 -0.012586226
000080 3f 65 0a 3e eb 68 c5 3c cb 05 8e bd 56 9a b8 3d
       0.13515185 0.02409788 -0.06934699 0.09013812
000090 94 80 f0 3d 39 ed 2b bc bc cc e4 bd c4 f7 4b 3e
       0.11743274 -0.01049357 -0.111718625 0.19918734
0000a0 15 ff 0e bd 0a b2 04 3d 1b 93 95 3e cd 14 3f bd
       -0.034911234 0.032396354 0.29213795 -0.046650697
0000b0 2f 7c 8d 3b 50 ef 6a bd 01 8d af 3c 8b b9 90 bd
       0.0043177824 -0.057357132 0.02142954 -0.070666395
0000c0 c3 0e 16 bd cb f1 09 bd 11 92 40 bd d3 d3 08 be
       -0.03663517 -0.033677857 -0.0470143 -0.13362055
0000d0 00 47 18 37 ba 01 25 3c 53 eb 68 bc 00 96 e2 bd
       9.076437e-06 0.010071212 -0.014216262 -0.110637665
0000e0 f9 84 0f 3e 13 7d 2e be c0 53 c9 bc e6 bf 27 be
       0.14015569 -0.170399 -0.024576068 -0.16381797
0000f0 21 6f f7 3d c7 41 96 bb 69 60 0c be f4 6b f6 bd
       0.12081743 -0.004585478 -0.13708653 -0.12032309
000100 ce 19 3a 3e 51 b2 2e bd 6f 05 65 3e b8 b6 a7 bc
       0.18173906 -0.042650525 0.22365354 -0.02047287
000110 b2 ab 18 be 18 a8 0c 3c 21 71 96 3e 17 54 55 be
       -0.14909247 0.008584999 0.29383186 -0.20832859
000120 86 ad 02 be 76 1b 3f be 7a 48 90 bd ce 13 03 bd
       -0.12761506 -0.1866282 -0.07045074 -0.03200131
000130 ad 3f ce bc 4a e4 df 3d 83 b9 40 3d 15 ba 85 3e
       -0.025176847 0.109322146 0.047051918 0.26118532
000140 0f 66 80 be 1a 28 f3 3b f7 00 5b 3e 9b 5b 2f 3d
       -0.25077865 0.007420552 0.21387087 0.04281197
000150 ae f6 c7 bd da 6e 4d 3c a7 6f 30 3e 23 9a 68 bd
       -0.09763847 0.012538636 0.17230092 -0.05678762
000160 15 a0 c4 bc 9a 1c 6f bc 3c 5a 86 bc c4 31 4a 3d
       -0.024002114 -0.0145942215 -0.016400449 0.049363866
000170 e7 f7 a3 bb bf de 20 bd 4d 08 29 3c 96 8a 88 3d
       -0.0050039175 -0.039274927 0.0103169205 0.06667058
000180 b5 23 05 bd 4a 1c d8 bd 92 45 e9 3d 8e a0 34 3d
       -0.032504756 -0.10552271 0.113902226 0.04409843
000190 7a 13 13 bc 56 20 be 3c 17 e9 85 3b 32 f0 b4 3e
       -0.008976812 0.023208778 0.0040866244 0.35339504
0001a0 7d 03 68 bd e0 d5 15 3d 68 67 95 3d 84 db 01 be
       -0.05664395 0.03658092 0.07295114 -0.12681395
0001b0 9f c7 99 bd 82 3e 18 3d 77 1f 39 be 08 91 4e 3e
       -0.07508778 0.037168987 -0.18078409 0.20172513
0001c0 ea 04 d2 3c d4 42 b0 bd dd 6d ac bc 1b d8 72 bc
       0.025637109 -0.086064965 -0.02104848 -0.014822031
0001d0 8a 5e c3 3d 17 ea cb bb 07 8f 26 bd db 30 96 bd
       0.09539516 -0.006222974 -0.040663745 -0.07333537

fc2.weight f4 [84, 120]
000000 d3 9d a7 3c 98 63 41 3d dc 0b cd ba 86 d7 2e bb
       0.020460999 0.04721412 -0.0015643793 -0.0026678755
000010 9d 90 af bc 00 69 42 bd ec c8 a8 bd 4b 18 26 3d
       -0.021431262 -0.047463417 -0.08241448 0.04055051
000020 83 94 ad 3d 92 bc d6 bc dc e5 85 bd 4b f9 81 3d
       0.08475592 -0.026212964 -0.06537983 0.06346377
000030 97 89 20 3d ec e6 6f 3d 12 04 50 bd c0 14 8c bd
       0.039193716 0.058569834 -0.05078513 -0.06839895
000040 80 f3 19 3d 3c 50 02 3d ee 58 cc bd 89 1a 38 bc
       0.037585735 0.0318148 -0.099778995 -0.011236795
000050 23 b5 b6 3a 2f 03 82 bd 90 f5 9f bd b6 85 a1 bb
       0.0013939481 -0.063482635 -0.07810509 -0.0049292697
000060 0a e9 04 3d 96 4e d9 bd d3 b0 22 3d 27 82 42 3d
       0.032448806 -0.10610692 0.039719414 0.047487404
000070 25 db f7 bc fa ef 78 bd ea d5 6e bd d5 a1 96 3c
       -0.030255863 -0.060775734 -0.058309473 0.018387714
000080 e8 2f 85 bd 0e 52 e1 3c e8 82 55 bd 7c 97 47 bd
       -0.06503278 0.027504947 -0.052126795 -0.04872845
000090 29 a5 49 bd 34 64 4d 3d 7b f3 4f bc 07 51 8f bd
       -0.049229775 0.05014439 -0.012692328 -0.069978766
0000a0 72 dd 89 3d 05 3a aa 3d ba 02 bf bd 6e c7 4c bd
       0.067316905 0.083118476 -0.09326692 -0.04999488
0000b0 9a 98 9a bd ea 80 b7 3d bf 5a 69 bd 67 bf 9e bd
       -0.07548638 0.08960135 -0.056971308 -0.07751351
0000c0 b2 cb 92 bd 8b 8b 90 bd 6d 13 64 3d 05 aa 25 bd
       -0.07167758 -0.07057866 0.05568259 -0.040445346
0000d0 df a7 33 3d e9 ad 12 bd 38 fc 8b 3d 13 9a 13 bc
       0.043861266 -0.035810385 0.06835216 -0.009008902
0000e0 55 c7 05 bd 3d 5a b1 bb 1e 89 0e 3d 7a 65 ca bd
       -0.0326608 -0.0054123686 0.034798734 -0.09882636
0000f0 be f2 52 bd 49 83 69 3d 7e 79 e4 bc e8 86 f5 3b
       -0.05150103 0.05700997 -0.027889963 0.0074928887
000100 42 cb db 3a 9f 27 8b bd a3 59 97 3d e3 6f 92 bb
       0.001676895 -0.067946665 0.07390144 -0.0044689043
000110 69 9c 8b bd d9 22 8c bd 1b bc 89 3d 94 7c a5 bd
       -0.06816942 -0.06842584 0.067253314 -0.08080402
000120 1d 23 29 3d 24 c7 53 bd ad 87 45 bb c9 ef 9f bd
       0.041293252 -0.051703587 -0.0030140684 -0.07809407
000130 42 6f d8 ba 15 da 10 3d 9f ae b4 bb 55 7e 44 bd
       -0.001651265 0.03536423 -0.0055139805 -0.047972042
000140 69 26 d8 3b 7c bc 83 3d f7 e8 0c 3c ee e9 9b 3d
       0.0065963757 0.06432435 0.008600465 0.07612978
000150 9f bf 85 3c 12 5e 77 3c 3b 8c e7 bb 17 2f 85 3d
       0.016326724 0.015098112 -0.0070662773 0.06503122
000160 35 4b 8e 3d b7 50 90 3d d1 90 50 bd 44 ed ce bd
       0.06947938 0.07046645 -0.050919358 -0.101038486
000170 72 b3 8f 3c 92 e7 7f 3d 97 be 27 3d 83 7b 6f bd
       0.01754162 0.062476702 0.040953245 -0.0584674
000180 29 e5 3d bd 4e 7b 3b bd 02 fe 89 bd 0a f4 bd bd
       -0.046361122 -0.04577189 -0.06737901 -0.092750624
000190 08 e7 51 bc 27 17 e3 3b 00 30 b0 3c 14 d5 47 bd
       -0.01281143 0.00693025 0.021507263 -0.04878719
0001a0 44 d8 f2 bc b8 00 8c bd 18 a0 98 bd 15 c6 dd 3c
       -0.02964414 -0.068360746 -0.074524105 0.027071992
0001b0 e1 85 a5 bd f5 98 ad 3d ca 06 6e bd 74 0d 29 3d
       -0.08082176 0.0847644 -0.058111943 0.041272596
0001c0 5b 53 9d 3d d2 48 70 bd 12 06 89 3c 17 57 19 bd
       0.076819144 -0.058663197 0.016726527 -0.03743657
0001d0 0c 31 ae bd 58 ec 9a bd 00 07 64 3d dd 2e 04 bd
       -0.08505449 -0.0756461 0.05567074 -0.032271255
0001e0 e2 9e e9 3d 9d ac bd bc f2 2f 01 3d 14 fd d3 3c
       0.114072576 -0.023153597 0.031539865 0.025877513
0001f0 8d ba fb bd 5f 54 c0 3d 3a 60 bb 3d 08 e8 f1 3c
       -0.12291441 0.093910925 0.09149213 0.029529586
000200 cd e7 d0 bc 9c 69 b0 b9 be e6 f0 bc a6 f3 ac ba
       -0.025501156 -0.0003364802 -0.029406901 -0.0013195171
000210 78 a8 86 be d9 41 42 39 39 aa 56 3e 60 91 1e be
       -0.26300406 0.00018525812 0.20963372 -0.15485144
000220 95 b0 19 bc 70 6d 9f 3d 78 35 0d be c0 77 a1 3c
       -0.009380479 0.077845454 -0.13789928 0.019710422
000230 a4 d5 fb bc 4e 89 36 3d 15 e4 6d 3d 41 c1 99 bd
       -0.03074152 0.044564538 0.058078844 -0.075075634
000240 d3 59 c6 3d 1e 0d f1 3d 15 e8 6e bd 85 1e 2b 3d
       0.09685101 0.1177008 -0.0583268 0.041777153
000250 34 6d 96 bd 8b bf fd bc 86 bd 82 3d 59 14 8e 3d
       -0.073450476 -0.030975124 0.06383805 0.06937475
000260 66 ed 0a 3e df c1 a2 bd 8d a1 0c bd 72 13 8d 3e
       0.13567123 -0.07947134 -0.034333754 0.27553898
000270 f5 f5 89 bd 67 f8 46 bd 2f 48 95 bd 6e ac ff bc
       -0.06736366 -0.04857674 -0.072891586 -0.03121015
000280 93 cd a2 bd e2 bd b2 3c 0d 2b 04 3e d0 9d 14 3e
       -0.079493664 0.021819059 0.12907048 0.14513326
000290 2c aa 4d bc 56 e5 b4 bd 1c 01 a8 bd 9f ab 06 3c
       -0.012552779 -0.08832805 -0.082033366 0.008219629
0002a0 65 b4 ad bd 80 9a 4b 3e cf b9 8c 3d ba 36 58 bc
       -0.08481673 0.19883156 0.06871378 -0.013196642
0002b0 3c 97 e8 bd a0 a2 41 3d 5e 08 97 bc 5d 27 c4 3d
       -0.11356971 0.047274232 -0.018436607 0.095778205
0002c0 c0 0f b4 3c e8 53 a3 3d 3b 2f 3d bd c2 42 15 be
       0.021980166 0.07974988 -0.04618762 -0.14576247
0002d0 d9 45 4e 3e 82 7d 78 bc bf 33 8d 3d 6f 25 77 3d
       0.20143832 -0.015166642 0.068946354 0.060338434
0002e0 50 e1 a0 3d c0 2a 6e be 7d d0 02 3d 56 ee 0a bd
       0.07855475 -0.23258495 0.03193711 -0.0339187
0002f0 ce 59 a3 bd 12 4e 08 bc be c7 62 3d c8 d9 37 3d
       -0.07976113 -0.008319395 0.05536627 0.044885427
000300 24 d4 e6 3d 95 70 82 bc b2 e0 6f bd 2b 4e 13 bd
       0.11270931 -0.015922824 -0.058563896 -0.03596322
000310 43 c4 a0 3d b1 b3 ff bd 61 40 e9 3c a2 b9 0c bd
       0.07849934 -0.12485445 0.028473081 -0.03435672
000320 09 8c 8a 3d c6 65 15 3d 3f da d8 3d f9 56 c3 3c
       0.06764991 0.03647401 0.10588502 0.023845183
000330 9a 24 22 bd c2 8e f6 bd e1 4c 22 bc 59 57 83 3c
       -0.039585687 -0.12038948 -0.009906025 0.016032862
000340 49 57 b5 3c 3c e2 1b bd 2c 5a 20 3e 27 93 17 3d
       0.022136347 -0.03805755 0.15659398 0.03700557
000350 5d de de bc ae 70 7e 3d f2 94 90 bd c6 8b df 3d
       -0.02720564 0.06211918 -0.07059659 0.109153315
000360 c3 e9 b5 bc fe 99 90 3d 46 82 18 3d c3 e9 79 bd
       -0.022206193 0.07060622 0.037233613 -0.06101395
000370 59 47 cf bc ef f6 f7 3d 9e 33 38 bd ca 0f 0b 3d
       -0.025302576 0.12107646 -0.0449711 0.033950604
000380 0a 89 fd 3c 6a 03 87 bd 1c e0 65 3c 9d 52 d1 bd
       0.030949134 -0.06592448 0.014030483 -0.10220835
000390 95 51 8b bb 4a 7b b9 bd 67 cb 04 be d4 36 08 3e
       -0.0042516687 -0.09056719 -0.12968217 0.13302165
0003a0 ed 8e 48 bd c0 f0 f4 bd 01 06 c1 3d 9e cf 9f 3d
       -0.04896443 -0.11959982 0.09424973 0.07803272
0003b0 43 57 dd 3c cb 63 84 3d 9d 17 33 be cf 98 72 be
       0.027019149 0.064643465 -0.17489477 -0.23691104
0003c0 1d a4 9d bd 35 75 79 3d bc e3 a4 3d 9c 06 4a 3d
       -0.07697318 0.060902793 0.080512494 0.04932271
0003d0 d8 d7 9d 3c a4 fa 5a 3b eb f6 82 bd 1e a8 91 3d
       0.019267961 0.0033413554 -0.06394752 0.07112144
0003e0 84 5a 80 bc 4a b6 78 bd bc 9b 47 bd e0 a0 a2 3d
       -0.015668161 -0.06072072 -0.048732504 0.07940841
0003f0 0c 87 c8 3c 11 23 6c bd b7 6b 50 3d eb 76 d5 bd
       0.024478458 -0.05765063 0.050883975 -0.104230724

fc2.bias f4 [84]
000000 63 bc 9b 3b 17 61 0f bd 36 15 37 bd a5 06 c5 3d
       0.004752682 -0.0350047 -0.044697963 0.09620408
000010 6a fd c5 bd 78 c6 3d 3d d2 8f 63 be ed 82 84 3e
       -0.096674755 0.046331853 -0.22222832 0.25881138
000020 a6 51 21 3d 38 20 a0 bd 37 ca 03 3d 43 be 83 bd
       0.039384507 -0.07818645 0.03217527 -0.06432774
000030 16 ea ce bd ae 03 20 be 3d d0 89 3a 5a 14 80 3d
       -0.10103242 -0.15626404 0.001051433 0.06253882
000040 62 f7 f5 3d 0c 6c 90 bd 2d f1 71 3c 3a 03 c4 bd
       0.12010075 -0.07051858 0.014766973 -0.09570928
000050 4c dc 1e 3e 27 3a 00 be 36 28 a8 3d 2b af ec bd
       0.15513724 -0.12522183 0.08210795 -0.11556848
000060 19 8f 54 be b0 e0 8f 3d 48 c5 1e 3e 2c ff 8e 3e
       -0.20757712 0.070252776 0.15504944 0.27929056
000070 9d 5f c1 bd ec 2b 92 bd c1 14 d5 3c 86 56 81 bc
       -0.09442065 -0.07137284 0.026010873 -0.015788328
000080 96 a7 f1 3d a1 1c c9 3c d3 12 81 3e 83 73 54 3e
       0.117995426 0.024549784 0.25209674 0.20747189
000090 7d a0 95 3d d2 a4 03 3e 20 40 1c 3e 7c 86 d8 bd
       0.07306001 0.12855843 0.15258837 -0.10572526
0000a0 5a 9a 41 bd 94 bd a0 bb f3 be b3 bd 09 70 34 3e
       -0.04726634 -0.004905412 -0.08776655 0.17620863
0000b0 1c 9e 75 bd d2 60 dd 3d 12 68 86 bd 66 b0 bf bc
       -0.059965238 0.10809483 -0.065628186 -0.023399543
0000c0 35 a2 47 be 55 9d bc bd 8c 3f 44 bd 5f b5 ca bd
       -0.19495471 -0.09209696 -0.047912166 -0.09897875
0000d0 d0 43 34 3c cd c4 88 bd 6c 63 85 3d a0 49 9b 3e
       0.011002496 -0.06678162 0.06513104 0.3032961
0000e0 47 87 ba 3e a7 4e 0a bd 81 31 4f be 83 42 c5 bd
       0.36431333 -0.033766415 -0.20233728 -0.09631827
0000f0 1f a2 16 bb af 9e b9 3d a1 39 0a 3e 44 a7 1c 3e
       -0.0022984815 0.090634696 0.13498546 0.15298182
000100 78 38 2e 3d 84 0b 04 3d ce 8b 4c 3e 6c 09 a6 3e
       0.04253432 0.032237545 0.19975206 0.32429063
000110 7c 91 72 3d 42 a4 76 3e 34 c1 d9 3a 20 a3 d9 bc
       0.059220776 0.24086097 0.0016613365 -0.026567042
000120 e1 4e b2 3c 70 21 8e bd 8b 44 23 be 51 d2 ad 3d
       0.021766128 -0.069399714 -0.15944116 0.0848738
000130 8f 10 86 3d f0 e2 ba 3e 61 6a d4 bd 03 0e e3 3d
       0.06546127 0.36501265 -0.10371853 0.11086657
000140 a1 98 a9 be f3 e0 d2 3d 13 53 b7 3c 98 ca ce bb
       -0.3312426 0.10296812 0.02237848 -0.006310772

fc3.weight f4 [10, 84]
000000 0e ae b7 3c 2f a6 a5 3d 55 a9 73 3d b3 8a ff bd
       0.022421863 0.08088338 0.05948766 -0.12477627
000010 0f 2f 29 be 4a 45 49 bd 6a f8 ad 3d 8f 76 df be
       -0.16521858 -0.049138345 0.08494647 -0.4364514
000020 42 14 93 3d 67 dd 3e 3c b6 90 b8 bd 86 92 2a bd
       0.07181598 0.011649466 -0.090119764 -0.041643642
000030 0c e8 a9 3b e3 6a 08 3d 25 7b da 3c c4 ac b8 3d
       0.005185133 0.03330506 0.026670048 0.090173274
000040 b6 12 0f bd 02 72 ad 3c 5e 4c be 3d 4a 35 d6 3d
       -0.034929954 0.021172527 0.0929191 0.10459383
000050 fa 57 aa 3d 02 31 81 bd 0a 2e 3d bd b1 b1 7c bc
       0.083175614 -0.063081756 -0.046186484 -0.015423224
000060 e8 63 9b be 89 a3 36 3d 55 79 56 be 46 57 a9 3d
       -0.3034966 0.044589553 -0.20944722 0.08268599
000070 01 89 86 3e 99 96 17 3d ac 74 66 3d 84 36 16 bd
       0.262764 0.037008855 0.05626361 -0.036673084
000080 41 ac 2b bd ec f9 66 3d a2 4c b2 3c d0 71 17 3e
       -0.04191232 0.056390688 0.021765057 0.1478951
000090 64 23 5e 3b 8f 71 9c be 82 37 a3 3d 73 4b 8b bd
       0.0033895606 -0.30555388 0.07969572 -0.068015
0000a0 4c db d6 bd 33 01 8d 3d c5 59 9d bd ec 48 c0 3c
       -0.10491046 0.06884994 -0.07683138 0.023472272
0000b0 04 e2 eb bc 1c f3 02 3d 9a 50 a0 bd 17 f5 ff 3c
       -0.028794296 0.03197013 -0.078278735 0.031244798
0000c0 76 73 73 3c c4 66 d0 3d a3 f9 4c 3d 10 1d 15 3d
       0.014859071 0.10175851 0.05004276 0.03640467
0000d0 15 b2 41 be e1 2b 29 bd 71 53 40 3d 72 d2 fa bd
       -0.18915589 -0.04130161 0.046954576 -0.122471705
0000e0 c5 8b ab 3d fd 02 df 3d 4f 43 54 3d b6 c4 b9 bd
       0.08376268 0.10889242 0.051822003 -0.09070723
0000f0 62 cf 0f bd 56 7e 77 3d cf ec 61 be ac 9d 0f 3e
       -0.035109885 0.060423218 -0.22062992 0.14024991
000100 74 1f 8b 3d 9a 06 9c 3d e9 dd b8 3b 83 43 ad bd
       0.067931086 0.07618447 0.005641688 -0.084601425
000110 e6 36 79 3b dd b4 c6 bd 5f 16 9b 3d e9 89 5e 3d
       0.0038027107 -0.09702466 0.07572626 0.05433074
000120 0f 90 91 bc ed e5 ab 3d d2 e1 da 3d 01 f1 c5 bd
       -0.017768888 0.08393464 0.10687603 -0.096651085
000130 38 dd 85 bd 90 3d 84 3e cc 9a af bc 8f 01 05 bc
       -0.06536335 0.25828218 -0.021436118 -0.008118047
000140 e6 82 df 3d d4 05 f9 3d 81 c5 17 be 7c e9 a7 bd
       0.10913639 0.12159315 -0.14821436 -0.081988305
000150 b8 6a 85 bc 9c f3 1b be 29 bb 71 bc 27 fc 9a bd
       -0.016286239 -0.15229648 -0.014754095 -0.075676255
000160 59 dd a2 3d 23 df e5 3b 3d 09 bd 3d f3 51 a9 3d
       0.07952375 0.0070151254 0.09230278 0.08267584
000170 11 11 38 3b 8c 54 af 3b 57 b1 97 3d aa 26 ca 3b
       0.0028086344 0.005350655 0.07406872 0.00616916
000180 58 b5 b5 3d 2b 29 21 be 2c 70 80 ba 62 30 0b bd
       0.08872479 -0.1573836 -0.0009799055 -0.03398169
000190 fa c2 3a 3d 53 dd 7e bd ea fd 58 be 99 75 c9 bd
       0.0455961 -0.06222279 -0.2119061 -0.09836883
0001a0 a9 a0 54 3d 4c 00 c6 bd 98 8c a6 bd 63 64 9c 3d
       0.05191103 -0.096680254 -0.08132285 0.07636335
0001b0 46 42 ef bc b0 37 6a 3d 19 15 b5 bd 68 d6 3f 3d
       -0.029206406 0.057182014 -0.08841915 0.046835333
0001c0 86 4b 30 bd 5f 29 c3 bd 4d b8 1c bd 53 13 06 bd
       -0.043040775 -0.09529375 -0.0382617 -0.032733273
0001d0 9b 0f 38 3d d1 d9 93 3c 95 32 ff 3d d5 07 59 3e
       0.044936758 0.018048199 0.1246082 0.21194394
0001e0 84 86 24 bd 27 52 e4 3d 88 90 02 3d 46 97 c4 3c
       -0.040167347 0.11148482 0.031876117 0.023997914
0001f0 31 da f3 bc ec e2 d9 3d 3d 66 80 3c 54 93 d1 3d
       -0.029767128 0.10638985 0.015673751 0.10233179
000200 f9 56 2a bb 45 0e f3 3d 3b 6c ad bd 70 a1 cc bd
       -0.002599178 0.11867956 -0.08467909 -0.09991729
000210 3f 50 85 bd ab 19 9b bd ac 9b 0c bd aa d0 73 bd
       -0.06509446 -0.07573255 -0.034328148 -0.05952517
000220 5b 18 be bd f3 6f 50 be f8 a2 ce 3d ee 8a 8b 3d
       -0.09281989 -0.20355205 0.100896776 0.06813608
000230 ed 89 29 3e db 69 8b 3d 07 5c 76 3e 4a ea 51 3c
       0.16556521 0.068073 0.24058543 0.0128122065
000240 5f 74 b2 bd 33 f0 45 bc 1b c8 c9 3d 6a e3 bd 3d
       -0.08713602 -0.012081194 0.0985262 0.092718914
000250 20 a6 f8 3d 34 47 8c bd c9 cd a4 bd 88 81 28 3e
       0.12141061 -0.068495184 -0.08047063 0.16455662
000260 8b a1 4b 3c f8 c3 cc 3d 6c 7c d7 bd 90 fc d0 be
       0.012428652 0.099983156 -0.105217785 -0.4081769
000270 99 8c 4b bd f5 31 44 bd 7f 2e 01 3c 9e b7 4b bb
       -0.04969463 -0.047899205 0.007884621 -0.0031084786
000280 8d 7f f3 bd 55 61 1c 3e c0 ad 37 be 9f d9 b5 3d
       -0.11889563 0.15271504 -0.17937374 0.088793986
000290 83 91 61 be 5a 4a 22 bd ca 0b a6 bd f5 69 c1 bc
       -0.22028165 -0.03962169 -0.08107717 -0.023610095
0002a0 74 a0 db 3c 15 7a 35 bd c1 05 c2 ba 76 05 a0 3d
       0.026809908 -0.04430588 -0.001480274 0.078135416
0002b0 63 e0 a9 be d4 ca b7 3c 0d 3e f7 bd cc c9 b2 3c
       -0.33179006 0.022435583 -0.12072382 0.02182474
0002c0 a0 8e 3c bd 20 10 87 3d 0f c9 92 3d d1 13 93 3d
       -0.046034455 0.065948725 0.07167255 0.07181514
0002d0 38 47 20 3c 96 f0 c0 bb 65 f6 00 be ba 04 2c 3d
       0.009782605 -0.005888055 -0.12593992 0.041996695
0002e0 1a 81 9d 3d 7e 7d 03 3b 96 cb cc bd d8 3c 01 bd
       0.0769064 0.0020063813 -0.099997684 -0.031552166
0002f0 9b 60 e2 3d c3 b3 9a 3d 60 a4 10 bd 31 99 9b 3d
       0.11053582 0.07553818 -0.03531301 0.07597578
000300 90 3a e0 3c 01 99 81 3d 62 65 6d 3d df a3 18 be
       0.027371675 0.06328011 0.057958014 -0.14906262
000310 20 7c b6 bd 96 eb 31 3d 5d 7a 91 bd f7 a5 91 be
       -0.08910394 0.043437563 -0.07103417 -0.28446934
000320 45 35 a3 3d 63 1d 4a 3d 83 9a fe bc 2d 7b 6d be
       0.07969145 0.04934443 -0.031079536 -0.23191519
000330 bc 4e 12 3e 6b 5c 8a 3d 2d 62 a2 3d 01 87 9c 3d
       0.14287847 0.067559086 0.07928882 0.076429375
000340 a6 62 b0 bd 78 38 3f be 35 f8 a5 3b ac 0f c7 3d
       -0.08612566 -0.18673885 0.005064989 0.09719786
000350 a5 85 16 3d f0 cb fc 3c 23 62 a3 bd ed dc 8d bb
       0.036748547 0.030858964 -0.079777025 -0.004329315
000360 ee f5 c1 3d ef 1c 1a 3d 68 a3 e9 3c 28 b7 05 3d
       0.094707355 0.03762525 0.028520301 0.032645375
000370 c3 a3 42 be 51 6a fb 3c 05 3b 91 3d d0 52 ba 3d
       -0.19007783 0.030690344 0.07091335 0.090978265
000380 45 18 05 3e a6 3d 0d 3e d2 7b 85 be 64 7e 81 bd
       0.1299754 0.13793048 -0.2607103 -0.06322935
000390 3c 38 c8 bd 31 1c ef bd d6 07 b0 3d df a6 bd bd
       -0.09776351 -0.11675299 0.085952446 -0.09260344
0003a0 70 0c ba be d7 2c 99 3d e2 7f 14 3d 6d 4d 2c be
       -0.36337614 0.07479256 0.03625477 -0.1682641
0003b0 69 0f c5 3c 36 e4 dc 3d fb a0 a0 3d f8 1e 3b bc
       0.0240552 0.10785715 0.078432046 -0.011420958
0003c0 64 bf ac bd 07 5a b7 bc c0 52 01 bd 7f 0e a5 3d
       -0.08434942 -0.022381796 -0.031573057 0.080594055
0003d0 58 f7 bc bc 1a f0 34 be 34 bc 0d bc 15 0c 15 be
       -0.023067161 -0.17669716 -0.008650828 -0.1455539
0003e0 f5 77 90 3d 64 c7 d9 3d c4 21 66 3d eb a6 b5 bd
       0.0705413 0.10633734 0.056184545 -0.08869728
0003f0 4d 14 9b 3d 6f 19 72 3d da d2 b6 bd f9 bc 0e bd
       0.075722314 0.059106287 -0.089269355 -0.034848187

fc3.bias f4 [10]
000000 6f 67 42 bd 4f 07 29 3e 26 2c ea bd 0c 6a fe bb
       -0.047461923 0.16506694 -0.11434202 -0.0077641066
000010 ca e5 e3 bd fe 44 51 3d 90 ab 2f 3c ae 5b aa 3d
       -0.11127813 0.051091187 0.010722056 0.08318268
000020 72 59 89 be b0 35 11 be
       -0.26826054 -0.14180636
