models/FGSM-0.3-Cutout-7-1 BasicNet.pt (torch, 180551 bytes, 10 tensors)

conv1.weight f4 [6, 1, 5, 5]
-0.008463888 0.005836495 0.0025401404 -0.0075629517 -0.0052697407 -0.0010608488 -0.010050369 -0.018884303
-0.016795307 -0.012216132 -0.014896609 0.048279226 -0.19316609 -0.06480941 -0.025770798 -0.07038914
0.7370663 0.03648121 -0.0047184057 -0.020002129 -0.104296304 0.005792559 0.027494626 0.02202527
-0.0030227408 -0.02269894 -0.02377499 -0.016755132 -0.01984875 -0.012907602 -0.030298913 0.014836068
0.025495432 -0.008819068 -0.003118296 -0.010861242 1.0604537 0.0559749 -0.023766413 -0.0003967159
-0.026037669 0.0049935207 -0.01547838 -0.013582992 -0.00341679 -0.008311469 -0.00696479 0.009336032
-0.00761198 -0.0033174206 -0.000892263 -0.0009263773 -0.00066222274 0.021423284 0.020618264 -0.0066549983
-0.011066859 -0.01398774 0.07692345 0.07802025 -0.026976768 -0.067652404 -0.038096245 0.18361633
0.10596561 -0.03895536 -0.053749852 0.07951491 0.35307539 0.054745816 -0.017071696 0.010874528
0.14617856 0.12548465 0.0018860691 0.008208838 0.0071001225 0.07248856 0.3105647 0.16611041
0.0028516634 -0.016265992 -0.03566344 0.0835106 0.17340173 -0.013752037 -0.057781313 -0.13971007
-0.07699983 0.027089724 -0.012336731 -0.035055313 -0.057484496 -0.03299588 0.007830261 -0.0063928477
-0.010943824 -0.0031132996 0.001151816 0.0013645351 0.020657742 -0.01308941 -0.008099377 -0.031830743
-0.037195638 -0.0091368 -0.06491588 -0.015862498 -0.054301225 -0.036811646 0.0025514928 -0.07970635
0.25249383 0.020114008 -0.003746557 0.010385294 -0.025456395 1.3244709 0.025696829 -0.035199072
0.020177748 -0.104184434 0.00046243824 -0.028247807 -0.0382897 0.0042803604 0.04568829 0.044703223
0.057926707 0.04229411 0.04043742 0.074071236 0.03651094 0.07041077 0.029877769 0.028072419
0.06288827 0.07477062 0.05289061 0.0036101842 0.00456425 0.011703768 0.012367914 -0.00041427644
-0.006420016 -0.002996325 -0.004888723 -0.015434962 -0.0029305262 -0.00065644644
00000000: 1fac 0abc 1240 bf3b 7c78 263b a3d2 f7bb
00000010: caad acbb 2e0c 8bba 4eaa 24bc 41b3 9abc
00000020: 5096 89bc 2c26 48bc e810 74bc 70c0 453d
00000030: 55cd 45be ccba 84bd 481d d3bc 2e28 90bd
00000040: 61b0 3c3f 526d 153d db9c 9abb 81db a3bc
00000050: 4d99 d5bd 82cf bd3b 693c e13c 576e b43c
00000060: 2d19 46bb 21f3 b9bc c5c3 c2bc 0f42 89bc
00000070: d999 a2bc 687a 53bc 6d35 f8bc fb12 733c
00000080: ccdb d03c da7d 10bc 535c 4cbb 5af3 31bc
00000090: f2bc 873f f045 653d c8b1 c2bc 4ffe cfb9
000000a0: f34c d5bc b0a0 a33b 0899 7dbc 338b 5ebc
000000b0: 39ec 5fbb d42c 08bc e538 e4bb 28f6 183c
000000c0: eb6d f9bb 1569 59bb c2e6 69ba 21d8 72ba
000000d0: 0499 2dba e27f af3c a2e7 a83c 2c12 dabb
000000e0: c551 35bc d52c 65bc 0b8a 9d3d 15c9 9f3d
000000f0: 62fe dcbc 588d 8abd cf0a 1cbd eb05 3c3e
00000100: 7f04 d93d a88f 1fbd ce28 5cbd b7d8 a23d
00000110: 4cc6 b43e 263d 603d f1d9 8bbc 142b 323c
00000120: d5af 153e 0c7f 003e fa35 f73a 5d7e 063c
00000130: 25a8 e83b e274 943d 5602 9f3e d918 2a3e
00000140: f9e2 3a3b 4240 85bc d413 12bd 9b07 ab3d
00000150: 3990 313e 3950 61bc 19ac 6cbd 2810 0fbe
00000160: 16b2 9dbd 45eb dd3c 0020 4abc 2996 0fbd
00000170: dd74 6bbd b026 07bd 7f4a 003c 187b d1bb
00000180: ba4d 33bc 8008 4cbb 88f8 963a 33da b23a
00000190: 6d3a a93c f774 56bc 40b3 04bc f460 02bd
000001a0: 745a 18bd 84b2 15bc 9ef2 84bd 12f2 81bc
000001b0: f66a 5ebd cfc7 16bd f236 273b 153d a3bd
000001c0: df46 813e 22c6 a43c cc88 75bb 1527 2a3c
000001d0: ee89 d0bc 4388 a93f 2882 d23c e72c 10bd
000001e0: ce4b a53c a65e d5bd 6973 f239 f267 e7bc
000001f0: a9d5 1cbd 4442 8c3b a523 3b3d ba1a 373d
00000200: 8e44 6d3d 973c 2d3d b5a1 253d a9b2 973d
00000210: 7f8c 153d 8633 903d 39c2 f43c 21f8 e53c
00000220: 91cb 803d 5721 993d d3a3 583d d798 6c3b
00000230: b48f 953b 29c1 3f3c cba2 4a3c 3e33 d9b9
00000240: ff5e d2bb fe5d 44bb 9531 a0bb ece2 7cbc
00000250: 120e 40bb 6015 2cba

conv1.bias f4 [6]
0.08472308 0.16140828 -0.3386117 0.0018257791 0.25522694 0.14358248
00000000: 4b83 ad3d 3648 253e 835e adbe fb4e ef3a
00000010: 1bad 823e 4907 133e

conv2.weight f4 [16, 6, 5, 5]
-0.09450554 0.014862873 0.014796256 -0.07557445 -0.13044153 -0.09362519 0.050550293 0.0520853
-0.107494004 -0.30350375 -0.05881616 0.023868516 0.09631805 0.041790448 -0.026196158 0.07213896
0.02658521 0.10006593 0.13453825 0.06872082 -0.054596838 -0.057431728 -0.052495234 -0.0052670483
-0.027230917 -0.07432697 -0.009288836 -0.016214699 -0.007575208 0.015138905 0.005735193 0.013076415
0.021739239 0.054420747 -0.2846488 -0.0028295366 0.034929756 0.072424576 -0.008008984 -0.22576559
-0.028632151 -0.001251343 0.078408055 0.09144585 0.0057073147 -0.04914088 -0.09780806 0.06327538
0.071085066 0.0304481 -0.02915929 0.012754104 -0.003789798 0.013450577 0.035473503 -0.024739597
0.07880804 0.045803484 -0.26836157 0.11368107 0.01618787 0.15660284 0.04964707 -0.05833669
0.17520459 0.020788716 0.056051627 -0.08324425 -0.11333377 -0.0024050565 0.011707187 -0.040103476
-0.12212858 -0.10085728 -0.03454988 -0.005465612 -0.04311692 -0.11070153 -0.056603808 0.060874633
0.03661401 -0.028961277 -0.04535906 -0.03135359 0.08240717 0.009935915 -0.013413222 -0.03578348
-0.074940026 0.046846133 0.022750514 0.12627985 0.03570198 -0.04268336 0.037246853 0.00027869747
0.07439931 0.10426819 0.053536557 0.06164854 -0.043809105 -0.0024800773 -0.008129446 0.003850372
-0.04823298 -0.02232519 0.038916755 0.09578868 -0.17958724 -0.16096292 -0.00566532 0.06363454
0.08319548 -0.009551282 0.039534435 -0.008976713 0.052687794 0.10286372 0.022363791 0.0041440777
-0.05270864 -0.06532953 -0.004478735 -0.011314973 0.013399983 -0.042808704 -0.037816577 -0.03587676
-0.04824665 -0.04459451 0.007885847 -0.026591277 0.052848455 -0.014922743 -0.053028878 -0.006427404
-0.023503792 0.009454826 -0.004901266 -0.1560628 0.026999958 0.06563594 -0.022802152 -0.00055231515
-0.05321428 0.0023675726 0.08193155 0.14034669 0.1107583 0.10192494 -0.119498774 -0.33293393
-0.2363359 -0.12582782 -0.004940638 -0.25812644 -0.43243814 -0.3508762 0.009050441 -0.008632679
0.030733591 -0.02853494 0.06367997 -0.18721035 0.16114998 0.11988426 0.14959021 0.102033414
0.18455024 -0.024913413 0.17179026 0.2076064 0.23590139 0.2049893 0.16792306 -0.04337133
-0.18725194 -0.012387345 -0.007778816 -0.08139089 -0.32551068 -0.33525065 -0.35345224 -0.053359013
0.01799366 -0.0064216857 -0.12013087 -0.2526166 -0.042455252 0.01934483 0.16767634 0.06532137
-0.016558176 -0.5661638 -0.14422996 0.13152708 0.15387173 0.14043626 0.1060691 0.01471634
-0.12964347 0.08762459 -0.09964701 -0.10733782 -0.02946854 -0.15511815 -0.26536927 -0.022121023
0.1022432 0.06948587 -0.034084816 -0.25657198 -0.1969756 0.16130978 0.09731708 -0.024265615
-0.07036104 -0.18779111 -0.14809446 -0.1228279 0.018285058 0.14723486 0.081332065 0.019480014
0.0132927885 0.030226385 0.043052122 0.075431794 0.030540938 -0.0014412117 -0.03205613 -0.010442885
-0.035864245 -0.07768469 -0.1022304 -0.7300983 -0.37771934 0.040429745 0.03832905 0.034848336
-0.1250325 -0.65758276 0.112946786 0.24887778 0.12835583 0.004303743 0.05055818 -0.15252897
0.010701376 -0.028632062 -0.28972507 -0.11595551 -0.03383923 -0.1929195 0.012786667 -0.25575072
00000000: 1f8c c1bd 6883 733c ff6b 723c c7c6 9abd
00000010: 7792 05be 90be bfbd d30d 4f3d 6557 553d
00000020: d125 dcbd d864 9bbe 37e9 70bd e887 c33c
00000030: 6642 c53d 762c 2b3d 5399 d6bc 97bd 933d
00000040: 3ac9 d93c 5eef cc3d 65c4 093e 80bd 8c3d
00000050: efa0 5fbd 883d 6bbd 3e05 57bd 3497 acbb
00000060: 5f13 dfbc bd38 98bd 3430 18bc b0d4 84bc
00000070: 7339 f8bb 2b09 783c 49ee bb3b 763e 563c
00000080: 7d16 b23c 4ae8 5e3d 7dbd 91be bf6f 39bb
00000090: 8112 0f3d 5653 943d 1d38 03bc 182f 67be
000000a0: f98d eabc 1b04 a4ba 6794 a03d f647 bb3d
000000b0: 6d04 bb3b f347 49bd 984f c8bd 8696 813d
000000c0: 0c95 913d 4b6e f93c 77df eebc 97f6 503c
000000d0: 425e 78bb cf5f 5c3c aa4c 113d b2aa cabc
000000e0: 1c66 a13d 6f9c 3b3d b066 89be 9fd1 e83d
000000f0: 6d9c 843c 7f5c 203e ba5a 4b3d 74f2 6ebd
00000100: d568 333e 194d aa3c 6496 653d f67b aabd
00000110: 891b e8bd 279e 1dbb 80cf 3f3c 8b43 24bd
00000120: 8d1e fabd 438e cebd 2d84 0dbd e018 b3bb
00000130: 5e9b 30bd 7cb7 e2bd 65d9 67bd ae57 793d
00000140: 92f8 153d 3340 edbc 6cca 39bd 9f6c 00bd
00000150: 17c5 a83d 3fca 223c 21c3 5bbc b391 12bd
00000160: 287a 99bd bbe1 3f3d 495f ba3c 814f 013e
00000170: 3d3c 123d bfd4 2ebd 2890 183d 241e 9239
00000180: aa5e 983d 908a d53d 2649 5b3d 2e83 7c3d
00000190: 2d71 33bd cb88 22bb 5e31 05bc 8656 7c3b
000001a0: f28f 45bd 51e3 b6bc 2d67 1f3d db2c c43d
000001b0: b8e5 37be 77d3 24be 26a4 b9bb d352 823d
000001c0: 6462 aa3d fb7c 1cbc dcee 213d 1013 13bc
000001d0: 28cf 573d 37aa d23d 4534 b73c 0bcb 873b
000001e0: 04e5 57bd 7dcb 85bd 5ac2 92bb 7062 39bc
000001f0: 9a8b 5b3c 2e58 2fbd 8ee5 1abd 82f3 12bd
00000200: 479e 45bd bca8 36bd a433 013c f3d5 d9bc
00000210: 9f77 583d 857e 74bc cf34 59bd f99c d2bb
00000220: 068b c0bc 6ae8 1a3c cd9a a0bb edce 1fbe
00000230: 042f dd3c 236c 863d 94cb babc 3ec9 10ba
00000240: 38f7 59bd 4729 1b3b bacb a73d 0bb7 0f3e
00000250: 3fd5 e23d 06be d03d c6bb f4bd 5176 aabe
00000260: 0a02 72be 02d9 00be 13e5 a1bb 2629 84be
00000270: 8868 ddbe 0ca6 b3be 4d48 143c 1470 0dbc
00000280: 03c5 fb3c 1bc2 e9bc a56a 823d 12b4 3fbe
00000290: 8004 253e e185 f53d 2d2e 193e e5f6 d03d
000002a0: bdfa 3c3e 3717 ccbc c9e9 2f3e c696 543e
000002b0: 2290 713e b7e8 513e 06f4 2b3e 23a6 31bd
000002c0: f9be 3fbe 4af4 4abc 70e5 febb 44b0 a6bd
000002d0: 56a9 a6be f9a5 abbe b1f7 b4be fb8e 5abd
000002e0: 7167 933c 016d d2bb 2c07 f6bd f756 81be
000002f0: 8fe5 2dbd 0d79 9e3c 59b3 2b3e 36c7 853d
00000300: 03a5 87bc 1cf0 10bf 05b1 13be 09af 063e
00000310: 8d90 1d3e 86ce 0f3e c23a d93d ce1c 713c
00000320: 42c1 04be 8574 b33d bb13 ccbd eed3 dbbd
00000330: 0268 f1bc 4bd7 1ebe 7bde 87be 2637 b5bc
00000340: e264 d13d 9c4e 8e3d 859c 0bbd 675d 83be
00000350: f9b3 49be 642e 253e 2d4e c73d afc8 c6bc
00000360: 7319 90bd 504c 40be 13a6 17be 328d fbbd
00000370: 8cca 953c bcc4 163e 6d91 a63d 8d94 9f3c
00000380: ffc9 593c 539d f73c 6c57 303d fc7b 9a3d
00000390: fd30 fa3c 0ae7 bcba 4a4d 03bd a218 2bbc
000003a0: 63e6 12bd 2719 9fbd 2c5e d1bd b9e7 3abf
000003b0: 6e64 c1be a999 253d ecfe 1c3d 21bd 0e3d
000003c0: 8508 00be 5857 28bf a550 e73d d1d9 7e3e
000003d0: b66f 033e 6a06 8d3b 1816 4f3d 8e30 1cbe
000003e0: d354 2f3c c98d eabc d856 94be 157a edbd
000003f0: 019b 0abd b08c 45be 2b7f 513c c2f1 82be

conv2.bias f4 [16]
-0.18403766 0.14160445 -0.28158978 0.5104899 0.04839479 0.017123073 -0.20995243 -0.18843521
0.6563571 0.119962625 0.14904559 -0.057157654 -0.039642982 0.5117457 -0.21554415 -0.00088175666
00000000: 5e74 3cbe c200 113e 892c 90be 77af 023f
00000010: 9e39 463d b045 8c3c c5fd 56be 29f5 40be
00000020: 0507 283f f7ae f53d 689f 183e 251e 6abd
00000030: ae60 22bd c401 033f 9bb7 5cbe b025 67ba

fc1.weight f4 [120, 256]
-0.0045488277 -0.110248804 -0.08398847 0.030740619 -0.0417661 0.1663835 0.01267402 0.09662309
0.22200066 0.118349016 -0.042694505 -0.019273767 -0.024332147 -0.05677512 -0.029983897 -0.11413464
0.16403465 0.13245162 -0.071336724 0.051053774 0.1424943 0.033154517 -0.22316583 0.15313618
0.0798175 -0.04489815 0.22244456 0.15690812 -0.13658224 0.028426493 0.061165806 -0.29676467
-0.0036249426 0.14289542 0.06396857 0.072666965 0.084556766 -0.039549284 0.03415741 -0.030251905
0.0037049868 0.027756346 0.096810736 -0.04019773 0.043321628 -0.011717886 -0.092257075 -0.015641108
-0.115539156 0.06287886 0.15698501 -0.029265186 -0.05342943 -0.051445596 -0.080372944 -0.16366702
-0.0037470078 0.23348089 0.06206705 0.2673701 -0.054372627 -0.12984875 0.019638296 0.08201904
0.0026095791 -0.10456013 -0.13737229 0.0735369 -0.07572566 0.06373081 0.15025444 0.07838412
-0.019354744 -0.079738215 -0.09498784 -0.113909066 0.11411078 0.056326207 0.074812025 0.1034621
-0.09419282 0.06769486 0.050204664 0.057958197 0.040105246 -0.13304506 -0.033857364 -0.05646655
-0.3513336 0.00015842913 0.083038844 -0.00029967737 -0.071828686 0.09318816 0.008217731 0.06882301
0.07559322 0.04113759 0.066577904 0.042555638 0.07072359 0.12631683 0.085988626 -0.044909284
-0.15041956 -0.049788125 0.08057259 -0.0472933 -0.052536897 -0.055891015 0.009996166 0.03791664
0.14675105 0.118947215 -0.00068090827 0.06775291 -0.014817221 -0.0021593152 0.09025503 0.17909256
-0.01889572 -0.01873044 -0.0063444097 -0.009210946 0.011001116 0.029452106 0.05271596 0.0055320505
-0.090545796 -0.066610575 0.100380965 0.15993279 0.07286609 -0.071341686 0.09765749 0.05755376
-0.05169223 0.035047572 0.06948905 -0.19198209 -0.29167753 -0.52215385 -0.05769758 0.016359832
0.17791332 -0.18017115 -0.098199055 -0.00669653 -0.22395344 -0.084803574 0.06358251 0.23111476
0.037650414 0.14160433 0.041886307 0.06262085 0.009498428 -0.053019915 0.020080477 0.12134677
-0.1578926 -0.04040941 0.042192336 -0.07965247 0.08226548 0.049233157 -0.030611783 -0.19911402
-0.061053544 -0.09714264 0.0025321972 -0.14486466 -0.11291249 -0.09062069 0.057528157 -0.019357935
-0.022153983 0.039272767 -0.03694065 -0.05509303 0.12463546 0.056563795 -0.16520889 -0.14724287
0.07196388 0.037928116 0.044926092 0.09775321 0.013283299 -0.11134269 -0.23267265 -0.30672666
-0.13831761 -0.15031129 0.03877669 0.062368315 0.06021673 0.040854592 -0.03335212 0.16776752
-0.10755232 -0.102152154 0.005367327 0.09243149 0.12903094 0.0073793074 0.13694103 -0.06790946
-0.033564124 0.027109403 0.037315138 0.051442236 -0.09949377 -0.046826396 0.12297487 0.14666502
-0.15434438 -0.06255651 0.12558718 -0.11824361 -0.18358666 -0.023897702 -0.024488758 0.06280176
-0.02109229 -0.16085036 -0.04331718 -0.00563879 0.024269477 0.009167621 0.13144758 0.11027298
0.1447921 0.08858883 -0.010665161 0.08313827 0.038672984 -0.03059301 -0.1677312 -0.19071937
0.039242774 0.14505428 0.08563048 0.068298064 0.15584435 -0.006680606 -0.14033289 -0.22892238
0.10364847 -0.07377521 -0.09147596 0.093159445 -0.13541129 0.014113156 0.059481267 0.11837552
00000000: 550e 95bb 20ca e1bd 2602 acbd c0d3 fb3c
00000010: ee12 2bbd 7060 2a3e b1a6 4f3c 54e2 c53d
00000020: 2454 633e f860 f23d 6fe0 2ebd 05e4 9dbc
00000030: 3654 c7bc 078d 68bd caa0 f5bc 6cbf e9bd
00000040: b3f8 273e 66a1 073e fd18 92bd c31d 513d
00000050: 07ea 113e 08cd 073d 9585 64be bbcf 1c3e
00000060: 5c77 a33d 1fe7 37bd 82c8 633e 86ac 203e
00000070: 37dc 0bbe adde e83c ff88 7a3d 8af1 97be
00000080: 7290 6dbb 2d53 123e f401 833d 6bd2 943d
00000090: 192c ad3d 6efe 21bd a4e8 0b3d d8d2 f7bc
000000a0: 5dcf 723b 4761 e33c b544 c63d 60a6 24bd
000000b0: 0572 313d 60fc 3fbc 47f1 bcbd c821 80bc
000000c0: cb9f ecbd a2c6 803d aec0 203e 8bbd efbc
000000d0: d1d8 5abd 9eb8 52bd 929a a4bd 5498 27be
000000e0: 5c90 75bb 9d15 6f3e 053a 7e3d bce4 883e
000000f0: d5b5 5ebd 12f7 04be 7ee0 a03c 99f9 a73d
00000100: 7905 2b3b 9f23 d6bd 52ab 0cbe 849a 963d
00000110: 0e16 9bbd 4d85 823d 4ddc 193e da87 a03d
00000120: d78d 9ebc ca4d a3bd fc88 c2bd 2849 e9bd
00000130: eab2 e93d 4fb6 663d 0c37 993d f0e3 d33d
00000140: 2ae8 c0bd 9aa3 8a3d 68a3 4d3d 9365 6d3d
00000150: 6645 243d f73c 08be 05ae 0abd 7849 67bd
00000160: ffe1 b3be ff1f 2639 4510 aa3d 041e 9db9
00000170: eb1a 93bd 6fd9 be3d a9a3 063c 14f3 8c3d
00000180: 9ed0 9a3d e47f 283d ff59 883d d24e 2e3d
00000190: 88d7 903d 3359 013e ce1a b03d ccf2 37bd
000001a0: 9607 1abe a2ee 4bbd 3e03 a53d 9fb6 41bd
000001b0: ee30 57bd faed 64bd f6c6 233c 7b4e 1b3d
000001c0: e845 163e 999a f33d fb7e 32ba 0ac2 8a3d
000001d0: eec3 72bc 4c83 0dbb a1d7 b83d 0a64 373e
000001e0: 32cb 9abc 9470 99bc c4e4 cfbb 82e9 16bc
000001f0: 063e 343c 8b45 f13c b1ec 573d 3446 b53b
00000200: 1370 b9bd 206b 88bd 8994 cd3d 6cc5 233e
00000210: d13a 953d 971b 92bd a600 c83d 7ebd 6b3d
00000220: 3bbb 53bd 0b8e 0f3d 4650 8e3d f496 44be
00000230: c256 95be e0ab 05bf 4c54 6cbd 0e05 863c
00000240: e92e 363e c97e 38be 961c c9bd 916e dbbb
00000250: 0d54 65be 7fad adbd 8c37 823d 59a9 6c3e
00000260: 5237 1a3d ba00 113e fa90 2b3d 5c3f 803d
00000270: 4b9f 1b3c 692b 59bd d07f a43c a884 f83d
00000280: 99ae 21be 5684 25bd dfd1 2c3d d620 a3bd
00000290: ce7a a83d b5a8 493d 90c5 fabc 8ce4 4bbe
000002a0: 4813 7abd b8f2 c6bd 38f3 253b 6757 14be
000002b0: aa3e e7bd 5797 b9bd a5a2 6b3d 8894 9ebc
000002c0: 457c b5bc 7bdc 203d 144f 17bd 3ba9 61bd
000002d0: e040 ff3d 70af 673d 852c 29be d6c6 16be
000002e0: cc61 933d 835a 1b3d 6c04 383d d632 c83d
000002f0: 32a2 593c a307 e4bd bd41 6ebe 470b 9dbe
00000300: 22a3 0dbe 34eb 19be 4ed4 1e3d eb75 7f3d
00000310: d1a5 763d 2557 273d 3c9c 08bd 40cb 2b3e
00000320: 6444 dcbd 2635 d1bd 67e0 af3b b94c bd3d
00000330: b020 043e 1ece f13b 453a 0c3e 1d14 8bbd
00000340: 897a 09bd 8a14 de3c c2d7 183d 18b5 523d
00000350: 64c3 cbbd 09cd 3fbd 40da fb3d 5b2f 163e
00000360: 740c 1ebe a11d 80bd ed99 003e b529 f2bd
00000370: 24fe 3bbe 1dc5 c3bc a69c c8bc 369e 803d
00000380: bdc9 acbc f5b5 24be 5b6d 31bd 99c5 b8bb
00000390: c8d0 c63c ca33 163c 329a 063e cdd6 e13d
000003a0: 6144 143e 0f6e b53d edbc 2ebc 6644 aa3d
000003b0: 9067 1e3d 319e fabc bac1 2bbe f04b 43be
000003c0: 08bd 203d 1c89 143e 085f af3d dbdf 8b3d
000003d0: a995 1f3e fce8 dabb 6db3 0fbe a16a 6abe
000003e0: a645 d43d 7517 97bd c057 bbbd 61ca be3d
000003f0: 42a9 0abe de3a 673c a1a2 733d dd6e f23d

fc1.bias f4 [120]
0.035153765 0.11152055 0.0586317 -0.0050390144 0.0488903 0.111302376 0.05378457 0.058346204
-0.043042406 0.1365014 0.011535295 -0.033552434 0.008195959 0.055495165 -0.048777375 0.0015321107
0.07281913 0.030821303 0.067925185 0.14006962 0.12910357 0.032992065 -0.0133544495 -0.052649632
0.06493942 -0.026122475 -0.062427323 0.02336646 -0.09879876 0.08891559 0.037231088 -0.053067464
-0.07358477 0.11247817 0.010127302 0.02326997 0.02751765 0.021721229 0.0998763 0.09826196
-0.037769873 -0.031238947 -0.036913432 0.015274978 0.013151024 0.18511963 -0.005121638 -0.049195357
-0.02192026 0.15708071 -0.042533934 0.06060843 0.07944072 0.014499145 0.17274319 0.09331042
-0.026640696 -0.011068073 0.043660264 0.19267438 -0.074827574 -0.030647816 -0.04849051 -0.038033057
-0.015673278 -0.040606234 0.094558194 0.008396037 -0.082657866 -0.027301395 0.10772879 -0.044819083
0.0041938135 0.12351831 -0.04638805 -0.007133217 -0.035185643 0.035061717 -0.038849078 -0.08506979
0.019372573 -0.021170191 0.13081111 -0.015040302 0.108843885 0.009530848 0.053171884 -0.084194094
0.034691196 -0.031067068 0.06838166 0.21624807 -0.014819325 0.02703895 -0.035159413 0.011004854
0.17746581 -0.08299 0.023400232 -0.0523856 0.020309804 0.21061414 0.0015417715 0.044351324
-0.057222616 -0.07744239 -0.009519076 -0.013017346 -0.0701313 0.041967347 0.05231951 0.0055354247
-0.104130775 0.09968811 0.031378757 -0.028141499 0.11479861 0.03044394 -0.055888534 0.005333311
00000000: 65fd 0f3d e364 e43d cb27 703d 511e a5bb
00000010: 3241 483d 80f2 e33d 364d 5c3d 6efc 6e3d
00000020: 3c4d 30bd 06c7 0b3e 89fe 3c3c 476e 09bd
00000030: 5848 063c e64e 633d c9ca 47bd 1bd1 c83a
00000040: 3222 953d f57c fc3c 5c1c 8b3d 696e 0f3e
00000050: ba33 043e b022 073d 9fcc 5abc 24a7 57bd
00000060: f5fe 843d cdfe d5bc cbb3 7fbd 056b bf3c
00000070: 0157 cabd 6019 b63d a07f 183d 455d 59bd
00000080: 9db3 96bd f45a e63d fcec 253c aaa0 be3c
00000090: b26c e13c b8f0 b13c f28b cc3d 913d c93d
000000a0: 95b4 1abd d2e8 ffbc 8a32 17bd e743 7a3c
000000b0: 6477 573c 0090 3d3e 6ad3 a7bb 1281 49bd
000000c0: 1e92 b3bc c4d9 203e 1038 2ebd 8c40 783d
000000d0: d1b1 a23d d28d 6d3c 97e3 303e 8919 bf3d
000000e0: 973d dabc dd56 35bc 1bd5 323d 6f4c 453e
000000f0: 333f 99bd 2111 fbbc fc9d 46bd 8dc8 1bbd
00000100: 3f65 80bc b952 26bd baa7 c13d 888f 093c
00000110: 8748 a9bd 2da7 dfbc e9a0 dc3d 3794 37bd
00000120: 426c 893b 2bf7 fc3d 6501 3ebd c3bd e9bb
00000130: d21e 10bd e09c 0f3d 3620 1fbd 1239 aebd
00000140: 3bb3 9e3c 1c6d adbc 59f3 053e 996b 76bc
00000150: 8be9 de3d 4627 1c3c c3ca 593d f46d acbd
00000160: 5b18 0e3d 5d80 febc af0b 8c3d 2270 5d3e
00000170: c1cc 72bc ca80 dd3c 5103 10bd b44d 343c
00000180: 99b9 353e a9f6 a9bd d8b1 bf3c 4892 56bd
00000190: bf60 a63c 3cab 573e 4415 ca3a bca9 353d
000001a0: 4362 6abd 1e9a 9ebd e6f5 1bbc b546 55bc
000001b0: 00a1 8fbd f4e5 2b3d fc4c 563d 8262 b53b
000001c0: 8442 d5bd 4829 cc3d 0387 003d 0089 e6bc
000001d0: 891b eb3d 9265 f93c 60eb 64bd 0ec3 ae3b

fc2.weight f4 [84, 120]
-0.11553117 0.017021049 -0.30513358 0.11803972 -0.12316299 0.108941995 -0.008598192 0.02904064
0.030083578 0.04751284 0.08834719 0.15396005 -0.018430829 -0.106402546 -0.07333111 0.02633526
0.062776186 0.00458227 -0.10764981 0.045385655 0.08854789 -0.044894736 -0.06808735 -0.08040699
0.05688146 0.01675104 0.008779819 -0.0929211 0.01777846 0.019638542 0.023876367 -0.0853075
0.080519944 -0.011024221 -0.067220956 0.033302467 -0.08334896 0.011216839 0.17636865 -0.021026632
-0.0277904 0.15488759 0.03470152 -0.023382831 -0.08922196 0.032694172 -0.07150914 -0.030529257
0.12706855 0.04625737 -0.06706137 0.09542966 0.10715691 -0.031866167 -0.0012594766 0.01813291
0.073083155 0.0043489053 -0.13761806 0.10160407 0.03319401 -0.047725216 -0.058414157 -0.047459647
0.05434451 0.066411816 0.0046952553 -0.043010898 -0.051287908 -0.065729655 -0.25594044 0.025282986
0.02441135 0.054615397 0.015704876 0.017214967 0.061493035 -0.055200852 0.09345247 -0.06474985
0.061715733 0.07339536 -0.04366619 -0.07991449 0.016819365 -0.067939974 -0.0125155905 0.0038422854
-0.096399434 -0.11342502 -0.011727241 0.07437268 -0.2044676 0.15042911 -0.005439642 0.0015120328
-0.025178224 -0.0130161075 0.021117697 0.046996865 0.05307698 -0.00023338718 -0.13983586 -0.02062071
-0.010365132 0.053050525 0.062754296 0.15259258 0.061976507 0.06315915 0.012730185 -0.0045599085
0.041661344 -0.09215949 0.027193097 -0.11922248 0.014631976 -0.06720318 0.04529528 0.086094216
0.13591596 0.16585702 0.14332484 -0.11331904 0.059438005 0.054605555 -0.040198296 -0.021079885
0.02506124 0.0026596072 0.07065334 -0.021459583 0.067252606 0.07644748 0.016374348 0.09284555
-0.13813014 0.012119676 0.014625706 0.121683314 -0.14406134 0.016161298 0.050694335 4.45344e-05
-0.039072353 -0.08727908 -0.052872527 0.19069809 -0.00023327155 0.069894426 -0.1427959 -0.07363434
-0.15524265 0.10361499 0.14272238 0.06931202 -0.10464083 -0.09082784 0.037824687 -0.005713646
0.03261493 -0.030810673 -0.07606899 -0.1368506 -0.025674915 -0.1180584 -0.075298876 0.020110764
0.079825945 -0.046620958 0.041601967 0.06485628 0.0062669283 -0.09364228 0.0135976365 -0.14420955
0.08206732 -0.03394158 -0.0153751895 -0.13659814 0.010355711 0.07499301 0.078674115 0.036479875
-0.041765846 -0.013782381 -0.04950882 0.142426 0.13112043 0.0065852553 0.023171574 0.066830754
0.06303439 -0.09142406 0.034142677 0.048091818 0.082108125 -0.021742607 -0.16822246 -0.079469785
0.079787776 -0.013048927 -0.13366303 0.049219992 0.11479847 0.02420906 0.042399462 -0.00073956663
0.07867987 -0.092971794 -0.045129772 0.16546725 0.026888983 -0.14237414 -0.06169965 0.019619526
-0.007677919 -0.020126706 -0.0027481148 0.031986266 0.049609587 -0.13288999 0.119060084 -0.046966664
0.089276694 0.010157897 0.21214633 0.062849656 -0.06629751 -0.04315582 0.13275741 -0.31308758
0.10113681 0.13732614 0.061126083 -0.045988705 -0.1676428 -0.047650266 -0.0003924757 -0.014952565
-0.07615444 0.05045451 0.061110698 0.0534863 -0.050159365 0.11336007 -0.000109133485 -0.116996944
-0.04950986 0.012037987 0.047589466 -0.016425198 -0.05075841 -0.15147516 -0.08905963 -0.022758592
00000000: 9b9b ecbd ba6f 8b3c 783a 9cbe cfbe f13d
00000010: e13c fcbd fb1c df3d 6edf 0cbc a3e6 ed3c
00000020: d671 f63c d39c 423d 5fef b43d b4a7 1d3e
00000030: 40fc 96bc 94e9 d9bd 9f2e 96bd 0bbd d73c
00000040: cd90 803d de26 963b 8177 dcbd 4fe6 393d
00000050: 9958 b53d 8be3 37bd 6171 8bbd 6cac a4bd
00000060: 89fc 683d 7a39 893c 3bd9 0f3c 6b4d bebd
00000070: 22a4 913c 02e1 a03c 5f98 c33c b3b5 aebd
00000080: a4e7 a43d ef9e 34bc 24ab 89bd 2b68 083d
00000090: dcb2 aabd d5c6 373c fc99 343e 0b40 acbc
000000a0: b1a8 e3bc da9a 1e3e 2e23 0e3d 5a8d bfbc
000000b0: 01ba b6bd 53ea 053d 6273 92bd 7e18 fabc
000000c0: 421e 023e 5e78 3d3d 7957 89bd a070 c33d
000000d0: 1575 db3d 1986 02bd 0615 a5ba 788b 943c
000000e0: 9fac 953d 4381 8e3b c0eb 0cbe cb15 d03d
000000f0: 71f6 073d 847b 43bd af43 6fbd 0c65 42bd
00000100: 5998 5e3d eb02 883d a8da 993b 322c 30bd
00000110: 4513 52bd 459d 86bd a00a 83be 441e cf3c
00000120: 50fa c73c 65b4 5f3d 83a7 803c 6706 8d3c
00000130: 1fe0 7b3d 4a1a 62bd 0264 bf3d 929b 84bd
00000140: a3c9 7c3d 4e50 963d 52db 32bd 35aa a3bd
00000150: c4c8 893c 1d24 8bbd 310e 4dbc dace 7b3b
00000160: 116d c5bd 604b e8bd 9d23 40bc b450 983d
00000170: f45f 51be 170a 1a3e 063f b2bb 672f c63a
00000180: 9042 cebc 8341 55bc 05ff ac3c c97f 403d
00000190: 3f67 593d 65b9 74b9 2231 0fbe c3ec a8bc
000001a0: 84d2 29bc 824b 593d 5385 803d 3b41 1c3e
000001b0: 14db 7d3d 9659 813d 4492 503c 496b 95bb
000001c0: 16a5 2a3d 1dbe bcbd 0fc4 de3c ea2a f4bd
000001d0: f5ba 6f3c d2a1 89bd 8b87 393d 2a52 b03d
000001e0: 8e2d 0b3e 6cd6 293e bfc3 123e d013 e8bd
000001f0: 4475 733d 13aa 5f3d f8a6 24bd b9af acbc
00000200: 3b4d cd3c ce4c 2e3b b3b2 903d 02cc afbc
00000210: bcbb 893d 7f90 9c3d 7f23 863c cf25 be3d
00000220: fd71 0dbe 9b91 463c a8a0 6f3c 1a35 f93d
00000230: d184 13be b364 843c dda4 4f3d 73ca 3a38
00000240: 550a 20bd 60bf b2bd dd90 58bd 5c46 433e
00000250: 5b9a 74b9 cf24 8f3d 1739 12be 9acd 96bd
00000260: eef7 1ebe 1934 d43d d125 123e 76f3 8d3d
00000270: ee4d d6bd f203 babd 0fee 1a3d 8939 bbbb
00000280: 3c97 053d aa66 fcbc 0fca 9bbd 9022 0cbe
00000290: 3354 d2bc 9ac8 f1bd 4c36 9abd 54bf a43c
000002a0: c97b a33d 9ef5 3ebd d366 2a3d 5fd3 843d
000002b0: ce5a cd3b 86c7 bfbd 9fc8 5e3c abab 13be
000002c0: e912 a83d 5406 0bbd 38e8 7bbc 62e0 0bbe
000002d0: 00ab 293c ef95 993d e51f a13d ec6b 153d
000002e0: aa12 2bbd 7fcf 61bc c3c9 4abd 1fd8 113e
000002f0: 6f44 063e 20c9 d73b 50d2 bd3c 90de 883d
00000300: 2d18 813d 8a3c bbbd 31d9 0b3d edfb 443d
00000310: 4e28 a83d 8d1d b2bc 8242 2cbe 0ec1 a2bd
00000320: c667 a33d 2bcb 55bc f6de 08be e79a 493d
00000330: 761b eb3d 1452 c63c 0fab 2d3d 7adf 41ba
00000340: e922 a13d ff67 bebd ffd9 38bd 3f70 293e
00000350: 4946 dc3c 87ca 11be c6b8 7cbd 21b9 a03c
00000360: 0e97 fbbb c3e0 a4bc b719 34bb 0804 033d
00000370: 6c33 4b3d 5014 08be c6d5 f33d 1e60 40bd
00000380: b3d6 b63d 4f6d 263c e33c 593e 52b7 803d
00000390: fdc6 87bd 28c4 30bd 8ff1 073e 044d a0be
000003a0: d120 cf3d 399f 0c3e 585f 7a3d a75e 3cbd
000003b0: 8eaa 2bbe ed2c 43bd 32c5 cdb9 9afb 74bc
000003c0: dcf6 9bbd 63a9 4e3d 364f 7a3d 7314 5b3d
000003d0: e873 4dbd 5329 e83d 98de e4b8 189c efbd
000003e0: daca 4abd fa3a 453c 2ced 423d 238e 86bc
000003f0: 0de8 4fbd 4e1c 1bbe e564 b6bd 3a70 babc

fc2.bias f4 [84]
0.050688956 -0.06577603 0.10287861 -0.08876557 0.08519588 0.1620423 0.16555443 0.06800947
0.045231372 -0.043418493 -0.013687408 0.14905788 0.17122081 -0.038097918 0.13830234 0.11617615
-0.08199807 -0.01169556 0.020273024 0.044473395 0.0136834895 0.024718834 -0.108380936 -0.12554379
0.034950472 0.04680553 0.12570792 0.062288888 -0.015123606 0.10014168 0.018715423 0.00040058172
-0.014645361 0.039107602 0.15608218 0.046709448 0.027846346 0.11299726 0.058581173 0.07040355
-0.14368649 0.08942546 0.07217735 0.003649633 -0.034314062 0.003188213 -0.04973061 0.11869536
0.086689055 -0.08178549 0.0361252 -0.041903626 0.06087896 -0.06958615 -0.007217834 0.12790316
0.10219412 0.029083453 -0.032824017 -0.0634644 0.06407087 0.017838133 0.20052288 -0.013332434
0.014296114 -0.021525431 0.16088203 -0.034909315 0.031912573 0.17519471 0.13522834 0.03727931
0.16760775 -0.033432096 0.096698105 0.1414454 0.100305155 0.06529879 0.08487545 -0.020148842
-0.09212851 0.10064182 0.10537988 0.1888148
00000000: 399f 4f3d 95b5 86bd 05b2 d23d b9ca b5bd
00000010: 2d7b ae3d 6bee 253e 1a87 293e 8d48 8b3d
00000020: 8844 393d 97d7 31bd 2641 60bc a1a2 183e
00000030: 8254 2f3e 900c 1cbd 219f 0d3e c3ed ed3d
00000040: 9bee a7bd bc9e 3fbc 9d13 a63c bc29 363d
00000050: b730 603c 277f ca3c d3f6 ddbd 8d8e 00be
00000060: 3a28 0f3d 28b7 3f3d 94b9 003e a222 7f3d
00000070: 00c9 77bc 1517 cd3d 1651 993c 2b05 d239
00000080: 19f3 6fbc 4b2f 203d 02d4 1f3e 6852 3f3d
00000090: 051e e43c 1c6b e73d d0f2 6f3d bd2f 903d
000000a0: 8d22 13be b224 b73d b8d1 933d ae2e 6f3b
000000b0: e78c 0cbd 57f1 503b 53b2 4bbd 8e16 f33d
000000c0: 088a b13d 277f a7bd 05f8 133d 23a3 2bbd
000000d0: 375c 793d 2f83 8ebd 9483 ecbb 0cf9 023e
000000e0: 274b d13d 6c40 ee3c 7a72 06bd a0f9 81bd
000000f0: 9737 833d 4721 923c df55 4d3e 4870 5abc
00000100: 403a 6a3c 1a56 b0bc 42be 243e 12fd 0ebd
00000110: c2b6 023d 3e66 333e 4c79 0a3e 31b2 183d
00000120: 5ea1 2b3e 18f0 08bd a809 c63d 10d7 103e
00000130: ca6c cd3d 5fbb 853d 2ed3 ad3d 2f0f a5bc
00000140: dfad bcbd 4c1d ce3d 68d1 d73d ab58 413e

fc3.weight f4 [10, 84]
0.06731521 -0.09600378 0.1355812 -0.066889286 -0.2776222 0.090756334 0.10213427 -0.0046544056
-0.07138085 -0.15195872 -0.0492299 0.15331401 0.16986196 -0.06581627 0.05958468 -0.17310548
-0.22161329 0.12763245 -0.10671276 -0.14388743 -0.10449153 0.045574706 -0.07749587 -0.05303783
0.11104786 -0.29340956 -0.11073262 -0.23945041 0.13352118 -0.016675511 -0.05574136 -0.10144536
-0.027915383 -0.077378705 -0.1429313 -0.04042018 -0.05633544 -0.34322023 0.022628628 -0.090409346
-0.066359915 -0.041709844 0.0011837394 0.021809448 0.18552925 -0.0037274612 -0.10021992 0.057803966
-0.058847554 -0.06277806 -0.20985435 -0.015858052 -0.31349024 0.07712339 -0.08530481 0.153237
0.06717357 0.12817985 -0.1420615 0.18183029 0.11839027 -0.06429275 0.04521156 -0.14792234
0.103119425 0.10663115 0.12330163 -0.009424277 0.07119577 -0.16459474 0.051466398 -0.0970036
0.07024199 -0.11536707 0.080611035 -0.3258864 -0.07007466 -0.087457664 0.13036789 -0.15877128
-0.0806336 -0.19875737 -0.19678704 -0.0080506615 -0.15293908 0.06543051 -0.0013498898 0.016490657
0.13603751 0.06443808 0.070787884 0.074130856 -0.01609336 -0.020200673 0.12525055 -0.09758691
0.16196442 -0.10867799 -0.12855238 0.08001639 0.06755762 -0.09930179 -0.11208651 0.026881456
0.015079374 -0.053506326 -0.08176759 -0.072653055 -0.264672 0.047251068 0.10728385 -0.06611973
-0.1503253 -0.18580389 -0.014169162 -0.046037566 -0.03703445 -0.08317687 0.19228654 0.10526609
-0.19075336 -0.10966677 -0.1493302 -0.08465555 -0.025865376 -0.06056332 -0.0040798564 -0.07104662
-0.000984286 -0.20651768 -0.0073162 -0.08170881 -0.16288035 -0.24856791 -0.19199406 -0.025478981
0.14158857 -0.025055854 0.035162494 0.09474085 -0.19302002 -0.029682124 -0.24568968 -0.29823732
-0.024383714 -0.16575094 0.15831281 -0.011573958 -0.1434986 -0.8717683 -0.05587242 -0.07857341
-0.23555633 0.124322936 0.10533558 -0.26138338 0.10034154 0.08660845 0.06986015 0.13116875
0.08926174 -0.4404035 -0.059472483 0.11858999 -0.19834566 -0.04540553 -0.042439815 -0.32542726
0.046628814 -0.0469466 -0.035958476 0.013424965 0.07276094 -0.14606576 -0.15858573 0.1031432
-0.0004222042 -0.30695578 -0.0755151 -0.12202263 0.018200839 0.059333872 -0.16797955 -0.07309426
-0.119651474 0.036878772 0.029175604 -0.012075592 0.08363432 -0.0809015 0.023897147 -0.07605731
0.051526554 0.18259391 0.10023145 -0.051203795 -0.33289728 -0.15340503 -0.06361322 -0.11212474
0.03925321 0.12639053 -0.40321952 0.0764449 0.12185526 -0.1131021 0.08605815 -0.33746165
-0.0742875 0.07966216 -0.05711808 0.06499317 0.025932208 -0.13135007 -0.031026643 0.0854162
-0.34887788 0.016732307 -0.031017916 0.0812541 0.09835742 0.11819038 -0.12524036 0.20019431
-0.07090554 0.11412188 0.2441712 -0.13403115 -0.13319434 -0.096049845 -0.029971605 -0.008135308
-0.086708464 -0.11270991 -0.041501656 -0.01880569 0.046290837 0.088063166 -0.23332518 0.022340555
0.07441892 -0.04178359 0.090219386 0.09353484 -0.128826 -0.18882701 -0.23564425 0.042792477
0.034216594 -0.2653868 0.11305012 -0.2752785 -0.10274644 0.19220439 -0.0648145 -0.068701535
00000000: 8fdc 893d a19d c4bd ccd5 0a3e 40fd 88bd
00000010: 7f24 8ebe 75de b93d c62b d13d fc83 98bb
00000020: 2030 92bd 119b 1bbe 4ba5 49bd 59fe 1c3e
00000030: 4bf0 2d3e aeca 86bd 110f 743d 9042 31be
00000040: 98ee 62be 15b2 023e 388c dabd 3a57 13be
00000050: a8ff d5bd 8bac 3a3d 28b6 9ebd 323e 59bd
00000060: 0f6d e33d c739 96be c9c7 e2bd 7d32 75be
00000070: c7b9 083e 159b 88bc 0d51 64bd 96c2 cfbd
00000080: cdae e4bc ba78 9ebd 955c 12be a18f 25bd
00000090: febf 66bd 90ba afbe ac5f b93c 8928 b9bd
000000a0: b5e7 87bd f1d7 2abd b427 9b3a baa9 b23c
000000b0: 61fb 3d3e 6c48 74bb 1a40 cdbd dac3 6c3d
000000c0: 220a 71bd c991 80bd 0fe4 56be bfe8 81bc
000000d0: cb81 a0be def2 9d3d 4ab4 aebd 29ea 1c3e
000000e0: 4c92 893d 9441 033e 9278 11be b831 3a3e
000000f0: 9976 f23d ebab 83bd c22f 393d f478 17be
00000100: 4730 d33d 6f61 da3d 9185 fc3d 4868 1abc
00000110: 16cf 913d 868b 28be 6ece 523d d3a9 c6bd
00000120: 08db 8f3d 9245 ecbd 6617 a53d 95da a6be
00000130: 4e83 8fbd 011d b3bd 297f 053e f094 22be
00000140: 3b23 a5bd 0d87 4bbe 8b82 49be ece6 03bc
00000150: 109c 1cbe 6e00 863d c9ee b0ba 6a17 873c
00000160: 6b4d 0b3e 1df8 833d 3df9 903d ebd1 973d
00000170: 39d6 83bc e27b a5bc ae41 003e a5db c7bd
00000180: 00da 253e 9192 debd 3ca3 03be a2df a33d
00000190: a65b 8a3d bd5e cbbd 9d8d e5bd 8036 dc3c
000001a0: 7b0f 773c 7329 5bbd c475 a7bd 20cb 94bd
000001b0: 1783 87be 568a 413d a3b7 db3d c869 87bd
000001c0: e0ee 19be 6043 3ebe c625 68bc e391 3cbd
000001d0: 6fb1 17bd a358 aabd c3e6 443e bf95 d73d
000001e0: d954 43be f998 e0bd 04ea 18be e45f adbd
000001f0: a0e3 d3bc 3e11 78bd 51b0 85bb e480 91bd
00000200: 2803 81ba 5f79 53be bcbc efbb f356 a7bd
00000210: 1bca 26be 9688 7ebe 179a 44be 4cb9 d0bc
00000220: 98fc 103e ef41 cdbc 8c06 103d 7e07 c23d
00000230: 0aa7 45be ed27 f3bc 1396 7bbe 90b2 98be
00000240: 5bc0 c7bc 9dba 29be c11c 223e b3a0 3dbc
00000250: 4cf1 12be 352c 5fbf 7bda 64bd 19eb a0bd
00000260: ae35 71be 069d fe3d 2eba d73d 0bd4 85be
00000270: de7f cd3d c55f b13d d712 8f3d 1a51 063e
00000280: dcce b63d 917c e1be 6b99 73bd 4fdf f23d
00000290: 201b 4bbe 26fb 39bd 5fd5 2dbd 679e a6be
000002a0: dbfd 3e3d 144b 40bd 3249 13bd 62f4 5b3c
000002b0: b003 953d 4392 15be 4c64 22be be3c d33d
000002c0: 4a5b ddb9 4f29 9dbe a9a7 9abd 00e7 f9bd
000002d0: ed19 953c 1308 733d d502 2cbe 72b2 95bd
000002e0: d50b f5bd 320e 173d ad01 ef3c b4d8 45bc
000002f0: 7848 ab3d b0af a5bd f3c3 c33c efc3 9bbd
00000300: 820d 533d e6f9 3a3e 2546 cd3d 12bb 51bd
00000310: 8371 aabe 3516 1dbe a647 82bd a8a1 e5bd
00000320: f9c7 203d 856c 013e ca72 cebe 258f 9c3d
00000330: 408f f93d 13a2 e7bd 413f b03d c6c7 acbe
00000340: 0b24 98bd ea25 a33d a6f4 69bd 241b 853d
00000350: c86f d43c a280 06be 962b febc b0ee ae3d
00000360: 1fa0 b2be 3112 893c 4919 febc 8d68 a63d
00000370: 9d6f c93d cc0d f23d 023f 00be bdff 4c3e
00000380: ec36 91bd bbb8 e93d 0408 7a3e 763f 09be
00000390: 1964 08be c8b5 c4bd 0387 f5bc f449 05bc
000003a0: 3594 b1bd 74d4 e6bd a4fd 29bd 640e 9abc
000003b0: 769b 3d3d 765a b43d ccec 6ebe 8a03 b73c
000003c0: f268 983d 4525 2bbd f1c4 b83d 328f bf3d
000003d0: f7ea 03be de5b 41be ba4c 71be 2a47 2f3d
000003e0: b326 0c3d c7e0 87be d286 e73d 4ef1 8cbe
000003f0: ba6c d2bd 3ad1 443e 77bd 84bd 64b3 8cbd

fc3.bias f4 [10]
0.117951244 0.12228997 -0.07198414 -0.052482963 0.005149296 -0.00012846569 -0.11714976 -0.014264082
-0.037903666 -0.044859003
00000000: 6c90 f13d 2a73 fa3d 6c6c 93bd 60f8 56bd
00000010: 6dbb a83b bfb4 06b9 37ec efbd e5b3 69bc
00000020: e040 1bbd 13be 37bd
