models/FGSM-0.4 BasicNet.pt (torch, 180551 bytes, 10 tensors)

conv1.weight f4 [6, 1, 5, 5]
00000000: 652c 01bb fa75 baba c81c 123b f724 653b
00000010: dc48 85bb 1f1e 56bc 51ba 40bc 1e46 09bc
00000020: 2b0a ac3c 7b7c c43b a04d 3fbc f264 953a
00000030: 4452 fb3c 738e 103f 1866 503c 5bba 3cba
00000040: 8055 083d 83d5 d53d ba08 203f af26 143d
00000050: 9223 253b 29c9 ab3c 650c 003d 208f e43c
00000060: eb1f 003b 5671 113b 3276 673b a5a5 2d3b
00000070: d0a0 cebd e6eb d4b9 2368 acba 5ebc b13b
00000080: 6789 463d ce50 bb3c dddd 0b3c 3218 3d3b
00000090: 222d 53bc 6b37 2a3e 63c9 1e3e b51e 353b
000000a0: 777b b43b 0c5f 1abc 2285 88bd 267c 5dbd
000000b0: 0d80 8c3b 1d69 6c3b 120b e73b 5cd4 59bc
000000c0: bb49 7d3b dbcb 543b a4e5 aa3a 421d 2bb9
000000d0: a945 0f3c c1ee 4c3c c1e1 e93b 9da5 e2ba
000000e0: ef55 c939 96be 9038 4b0d a3ba 36d6 f3b9
000000f0: 51c7 3bba 4e1b c6bb d530 cfbb 4e78 a3bb
00000100: 4759 8e3b e65f 8cba 3537 693b f4f7 dfbe
00000110: 86d0 6fbb a5f5 803b 498c f23a 2467 763b
00000120: 6b7e 98bb 7728 92ba bbe2 72b9 c035 eb37
00000130: ebea 6dba 4e0d d4b9 02d7 0abb 3520 48bb
00000140: b468 ca3a 50a4 3d3b a06b 443a 0056 0038
00000150: 6ae5 8dbb 6af9 9e3c ed24 4d3c 32a4 ca3a
00000160: 4eb0 7cbb 4c12 43bb f2f7 a83b 360b 5b3a
00000170: 5f64 953b 0a49 19ba 7d10 17bb 93b9 bfbe
00000180: c7ac a1bc b0aa 44bb 4ca7 bdbb 4819 22bb
00000190: aac3 c33a 98d8 513c f64e 1f3e b5b8 803e
000001a0: 1f8f 9b3d 2c30 183b c7b1 b13b c6ca df3d
000001b0: d513 923d 480b 053d a46d a7bb a32c 5abd
000001c0: a418 81be 781e d8bd 3e86 0239 3194 323b
000001d0: a2d9 1cbb 9790 9bbe d525 17bc 0286 6a3b
000001e0: 6182 e4ba dda5 b63b 630c 163c 3d5e 853b
000001f0: e984 4eb9 12bd 9c3a dcf5 373a 8845 903a
00000200: d2c9 333a e84c e8bb 796c 223a 2174 0bbb
00000210: cbc1 bf3a e1c5 343c 3ea9 a83c 6427 8d3b
00000220: fb15 1ebb aa35 5bbb 4217 d43c 6281 d13f
00000230: 4aa7 053b 368d 52bb 32e2 10bb 8527 313b
00000240: d95f ad3c 9663 c3b9 ac0c 70bb 6268 16bb
00000250: 33b6 e83a e029 55bc
-0.00197103 -0.0014225834 0.0022294987 0.003496466 -0.0040675234 -0.013068705 -0.011763171 -0.008378534
0.021000942 0.0059962845 -0.011676222 0.0011397882 0.030678876 0.5646736 0.012719654 -0.00071994
0.033284664 0.10441115 0.62513316 0.036169704 0.0025198204 0.020969944 0.03126182 0.027900279
0.0019550275 0.0022192798 0.0035318253 0.0026496437 -0.10089266 -0.0004061155 -0.0013153594 0.0054240664
0.04847088 0.02286568 0.008536783 0.0028853533 -0.0128891785 0.16622703 0.1550651 0.002763671
0.005507882 -0.009422075 -0.06666018 -0.054073475 0.004287726 0.0036073395 0.00705088 -0.013295259
0.0038648683 0.003247014 0.0013038409 -0.0001631873 0.008744636 0.012508095 0.0071375077 -0.0017291788
0.00038401733 6.9019545e-05 -0.0012439875 -0.0004650817 -0.00071631843 -0.0060457354 -0.00632296 -0.0049887067
0.004344139 -0.0010709732 0.0035585884 -0.4374386 -0.0036592796 0.003935533 0.0018504943 0.0037598098
-0.004653742 -0.0011150975 -0.00023163382 2.8039212e-05 -0.0009075838 -0.00040445704 -0.0021185284 -0.0030536775
0.0015442581 0.002893705 0.0007492844 3.0597672e-05 -0.004330327 0.01940604 0.012521011 0.0015460311
-0.0038557234 -0.0029765544 0.0051565105 0.00083558576 0.0045590843 -0.00058473705 -0.00230506 -0.3744627
-0.019735707 -0.0030008964 -0.0057877656 -0.0024734307 0.0014935632 0.012807988 0.15557465 0.2514092
0.075956576 0.0023222072 0.005422804 0.10927348 0.07132689 0.03248146 -0.0051095057 -0.053265225
-0.25214112 -0.105526865 0.00012447775 0.0027248973 -0.002393343 -0.3038375 -0.009225328 0.0035785441
-0.0017433875 0.0055739717 0.009158227 0.004070072 -0.00019695204 0.0011958203 0.0007017532 0.001100705
0.00068583817 -0.007089246 0.0006195973 -0.0021278935 0.0014629898 0.011033506 0.020588513 0.0043076742
-0.0024121988 -0.0033448734 0.025889996 1.636761 0.0020393902 -0.0032127625 -0.002210748 0.0027031612
0.021163868 -0.00037267496 -0.0036628647 -0.00229504 0.0017754495 -0.013010472

conv1.bias f4 [6]
00000000: fc2b 533e 09b2 4c3d 7a16 99bd d699 0dbe
00000010: b1d9 a2bc 7ba7 b23c
0.20622247 0.049974475 -0.0747499 -0.13828215 -0.019879194 0.021808377

conv2.weight f4 [16, 6, 5, 5]
00000000: 41c3 afbc bec3 9fbd 9ae9 49bc 6a30 b83c
00000010: 9f41 84bb f34c 5d3d 1fa7 073e 1045 a43d
00000020: 0c70 d4bc 92b7 7839 2b55 0f3e 9bd2 fa3d
00000030: 250b c63d dee6 3ebb 1c9e ce3c 2962 fabd
00000040: cf55 22be e11a f73a 2e76 543c f54f 923b
00000050: 9642 24be 2d92 02be 9d9f 86bd 5244 c6bb
00000060: 5b88 d6bc 8e62 b83a 1675 0f3d 20a1 6c3c
00000070: cfe6 5ebb abc3 8f3c 9086 1bbc 1d3f 6a3b
00000080: 2ab8 3b3d 2955 a43c a16a 9a3c ad3e cd3c
00000090: 188f f33d 3f35 de3d 8583 653c 25b6 f03b
000000a0: 32d7 2c3d f4bd cf3c 6a0f ed3d 3b68 df3d
000000b0: 74e5 103d 0c79 0cbe 2169 1cbd bd52 4c3d
000000c0: 75e1 8c3d abb2 023d 9a0b ba3b 9ac1 e4bc
000000d0: 3030 c1bc 9760 753c 55e5 373b edf8 82bc
000000e0: 92d5 f23b 9a15 f33c ada3 8dbc 69d8 86bc
000000f0: 58d0 1a3d 6cc0 913c a510 cb3c c8dc 48bc
00000100: b406 973c 157a acbd 26a2 d5bd f5cc fcbd
00000110: 2aa6 8abd 466d 01bc 25ca bebb 098e 47bd
00000120: 2214 03be 402d bdbd 2dca 9abc 804d a9bb
00000130: c9b0 1cbd d35b febc 65f4 02bb df1b 603a
00000140: d1bd 19bb 0ef8 9c3c 8bfb 453d 004c 313d
00000150: d42a 05bd 3ac1 a3bb 67dd 66bd 9037 12be
00000160: 02f8 20be af64 d9bd 2d41 a63b 2f86 bebd
00000170: cfe4 d4bd 5c36 23be 4b52 15be 1660 62bb
00000180: c44a 003c ccb8 933b bff2 7dbb eb54 caba
00000190: ecfe a83b 4e90 273d d067 903c effc 083c
000001a0: c0fe 063d 9180 413d 009d 903c 0394 34bc
000001b0: fe72 863d 3da4 1e3d 30c9 0db9 1c7e 4d3d
000001c0: ca78 343d 735f e63d 801f a1bb 1a60 f23d
000001d0: fd8d 243e e9a7 693e ffec 2f3e a2b3 a83c
000001e0: e7e1 583d 2941 9d3d d37a 2a3e f0fd 083e
000001f0: 7f20 c73c 0b68 943c 2a47 83bd a391 0dbc
00000200: f6a6 1e3d 6a7c ae3c d7af 573d d724 d73d
00000210: 6d64 2a3d 963f dabb 9900 c23c 86e6 f23d
00000220: 837a e53d 6c6f 913d 07ff 05bd 95ef 8e3c
00000230: e417 9bbd e6e6 0f3c bbba 823d d3b1 d23c
00000240: 3019 043c 024a 56be 24ef f9bd 147d 963b
00000250: 2469 a23c 187c a13b 8df8 ae3c da56 863c
00000260: e81e 5fb8 84d5 b93d 1564 e83d c39d 5c3c
00000270: eeda 51bd 9567 6bbe 1282 5a3d 3be9 283e
00000280: e655 ac3d c964 31bc ecf8 1dbf 4037 573d
00000290: 2dba f93d 91cf 333e 21ed 673d 45bb 3abf
000002a0: 5692 eebc 90ed 723d 6752 343e 39f3 46be
000002b0: 4353 11be dd09 8d3c a991 2b3d 9b20 f53b
000002c0: 3e5d 013c d4d3 f0bb 58a8 733c 0cc4 213d
000002d0: 0382 db3b 0588 853a 5a87 afbc 55ec f13b
000002e0: 7173 8f3d 9a62 453c 1eda 3ebd 6233 a7bd
000002f0: 8c30 87bd 381d aa3d bfba 0d3d 9e39 4cbc
00000300: d894 39bc f7d2 a53c 8211 3f3d 5852 9e3d
00000310: 5f3b 4c3c 5f8f 4fbc 76f0 553b a9ae 1b3d
00000320: 60c0 863c a94f 0f3d 5ba0 8a3c 77c8 c63c
00000330: be1c ad3c 778a 523c 6add 0b3c 3659 15bd
00000340: e90f 8cbb d22f 993d 3aee 66ba a75a 4fbb
00000350: 17ad 2bbd 7bee e7bb 5a7a 323d 7d52 1c3d
00000360: 4cf0 463d 7533 c0ba 6216 42bd 39ab 043d
00000370: 40b0 a13c 8850 263b f395 d0bb 8525 e1bb
00000380: 8d2a e7bb 3a56 413c 466c 7ebb 66af 86b8
00000390: c632 e6bc bff5 063c 460d 363c 4a77 cfbc
000003a0: b3b3 2f3c f7ae eebc 6d66 17bd cbf2 f43c
000003b0: 6dde 2c3d 2c28 bc3d 158f 7f3d a438 24bd
000003c0: 4d9b 8e3c 170e aa3d 0ebe ac3c cf1d e8bc
000003d0: 24f5 16bc 4fce 753b a91e fa39 4e0f c13b
000003e0: 55e3 d43b 1e48 9a3a 17d9 acbc 7b4c 86bc
000003f0: 84c5 a83c 79e6 cbbb 055c 2fbd 25ac 70bb
-0.021455409 -0.07801007 -0.012323761 0.022484023 -0.004036143 0.054028463 0.13247345 0.08020985
-0.025932334 0.00023719508 0.13997333 0.12247201 0.096700944 -0.0029129307 0.025221877 -0.12225754
-0.15853046 0.0018852615 0.012967629 0.004465098 -0.16041026 -0.12751074 -0.065734126 -0.006050625
-0.026188066 0.0014067458 0.03502377 0.014442712 -0.0034012084 0.017549356 -0.009492531 0.0035743185
0.04582993 0.020060139 0.018849673 0.0250543 0.11892527 0.1085 0.0140084075 0.007345932
0.042197414 0.025359131 0.115752056 0.10908552 0.035375074 -0.1371805 -0.038186196 0.049883593
0.0687894 0.031908672 0.0056776525 -0.027924348 -0.023582548 0.014976642 0.0028060277 -0.015987838
0.0074107135 0.029673386 -0.01728996 -0.016460614 0.03779635 0.01779195 0.02478821 -0.01225967
0.018435813 -0.08421723 -0.10431318 -0.1234378 -0.067699745 -0.007899588 -0.0058224373 -0.04871944
-0.12800649 -0.092371464 -0.018895233 -0.0051667094 -0.038254533 -0.031049645 -0.0019982096 0.0008549075
-0.0023459087 0.01916125 0.048335593 0.04328537 -0.032511547 -0.0049973996 -0.05636349 -0.14279008
-0.15719607 -0.10614907 0.0050736875 -0.09302937 -0.10395204 -0.15938705 -0.14582174 -0.0034542135
0.0078303255 0.0045081135 -0.0038749424 -0.0015436684 0.005157342 0.040909104 0.017627627 0.008361085
0.032957792 0.04724175 0.017652988 -0.011021617 0.06564902 0.03873085 -0.00013521756 0.050169095
0.044060506 0.11248674 -0.004917085 0.11834736 0.16069789 0.22817959 0.1718025 0.020593468
0.052949812 0.07678444 0.16648416 0.1337812 0.024307488 0.018116018 -0.06410058 -0.0086406795
0.038733445 0.02129956 0.05265793 0.105050735 0.04159968 -0.006660412 0.023681926 0.11860375
0.11205008 0.0710133 -0.032713916 0.017448226 -0.07572916 0.008783078 0.06383272 0.025719559
0.008062646 -0.20926669 -0.122038156 0.004592547 0.019825526 0.004928123 0.021358753 0.016398836
-5.3196127e-05 0.09073928 0.11347214 0.013465348 -0.05123418 -0.22988732 0.0533467 0.1649522
0.08414821 -0.010827252 -0.6170795 0.052542925 0.12193713 0.17559649 0.056622628 -0.72942
-0.029122513 0.05930859 0.17609559 -0.1942872 -0.14191918 0.017216617 0.04188696 0.0074806935
0.007895766 -0.0073494706 0.014871679 0.039493605 0.006698848 0.0010187632 -0.021426845 0.0073829093
0.070044406 0.012047434 -0.04659473 -0.08164097 -0.066010565 0.08306354 0.034601923 -0.012464909
-0.011326991 0.020242197 0.046647556 0.077305496 0.012465327 -0.01266846 0.0032644547 0.038008366
0.016449153 0.03498808 0.016922167 0.024265511 0.02113187 0.012850395 0.008536676 -0.03646203
-0.0042743576 0.07479824 -0.0008809302 -0.0031639726 -0.04191312 -0.0070779896 0.043573715 0.038164604
0.04856901 -0.0014663773 -0.047384627 0.032389853 0.019737363 0.002537759 -0.0063655316 -0.0068709278
-0.007054633 0.011800343 -0.003882186 -6.4222884e-05 -0.028100383 0.008237301 0.011111563 -0.025325436
0.010723996 -0.029136164 -0.036962915 0.029900929 0.04220431 0.0918735 0.062392313 -0.04009308
0.017408038 0.08303469 0.021086719 -0.028334526 -0.0092137195 0.0037507003 0.0004770656 0.005891717
0.0064968267 0.001177076 -0.02109961 -0.01639389 0.020601995 -0.006222543 -0.042812366 -0.00367237

conv2.bias f4 [16]
00000000: 2d0c 6fbe f84e 953e 0006 29bd 4faf 9fbd
00000010: 4d9a 6f3c 2f84 0f3f 6a23 103d cc58 07be
00000020: daf7 ab3e 62d1 9bbd af7a 48bc ef04 a63e
00000030: 26d7 513e 7459 ec3e c797 20be 6993 003f
-0.23344488 0.2916181 -0.041265488 -0.07797109 0.0146241905 0.5606107 0.035190023 -0.13217467
0.33587533 -0.07608296 -0.012236281 0.3242564 0.20492229 0.46161997 -0.15682898 0.5022493

fc1.weight f4 [120, 256]
00000000: d20a 3ebd d048 4cbd 7dae 9abb c3c6 46bc
00000010: e925 5fbd 607a f4bb d0bb 6fbd 0004 043d
00000020: 820d 82bd 863a 81bd 2a91 13bd d059 cb3c
00000030: 7b7a 0c3d 6a44 30bc 2e29 27bd 18a3 363d
00000040: 7c2d 323d 0839 343c 444f f3bc a45e 8bbc
00000050: 5246 63bd 5c7f 9f3b 4482 c23c 299c 603d
00000060: d0db 88bd 6d2c 14bc 60e7 68bd 5c11 70bd
00000070: c807 f4bc 2971 6abd f400 a0bc 1c3d 4c3d
00000080: e6bf d9bc 28e7 a0bc c267 003d 94e2 d1bc
00000090: be99 55ba c9bf da3c 3457 32bc 7a8b 393d
000000a0: 4b00 a83b 22f5 483c 245e 803c a0b0 37bb
000000b0: 1b64 0b3d 2452 8b3c 6074 8f3c 1889 313d
000000c0: 8c84 433d d07d 833c 5a53 373d 4684 873c
000000d0: 625b 2c3d c8d2 353d 7a37 77bc da7e 40bd
000000e0: e047 4e3b d209 52bd 2c4a 913c 4ceb 533d
000000f0: d994 943c 96e0 18bd 1181 5f3d 4214 24bd
00000100: b812 5abc 97d1 563d 6ee8 2a3d 2aa7 2dbd
00000110: 197e e8ba 7713 3d3d d533 343c 36e4 0fbd
00000120: 262e bfbc 5f6d 433d 3b4b cc3c f96a fbbb
00000130: 1264 2cbd 0704 74bd b840 00bd c6ab 75bd
00000140: f4b8 753c 22cb ad3c adef 043d 64fe 043c
00000150: b537 5ebd aefd 86bd bff2 60bd 3f59 89bd
00000160: 0a32 cbbc 7ddf cc3c 43fb 1e3d b280 0cbd
00000170: 9203 42bd 14a4 373d 9b49 d83c 94c5 7bbd
00000180: 3b6f 34bc 224c 73bd 2d19 533d 460c 82bd
00000190: 99b4 20bd c8a8 e73b cc0e 233b 7633 0fbd
000001a0: 1f81 bf3c 2295 04bd b521 07bd 8ae3 943b
000001b0: ce54 103d 9d12 1fbd 1e7e 26bd c18d 2b3d
000001c0: 0245 4f3d eed7 e7bc a91d 4c3d f219 8cbd
000001d0: d2d0 8bbd aef3 5dbc 6b47 8a3a 9d11 a2bc
000001e0: 7346 4abd b2ad 4f3d 0138 e5bc 7321 47bb
000001f0: 3671 74bd 7605 e5bb 0967 56bd 889b febc
00000200: ea05 88bd 9449 243d 56ed 30bd ce01 3dbd
00000210: a768 89bd 28f7 613d b296 76bd ade6 403d
00000220: b93b 81bd 0cc7 44bd 8bd7 83bc 8268 6fbd
00000230: 1c58 25bd 0d9c 8abd acb3 db3c 3a71 76bd
00000240: 7d65 50bd c48c bf3c 830b 723c a0a4 233d
00000250: 5568 153d 6700 efba e559 1d3d 0a9e 613c
00000260: 5945 50bd 8dad 89bd 75c4 69bd ff64 4ebd
00000270: 8bf0 4b3d b310 29bb e7c7 fb3c 3834 e93c
00000280: 26f7 703c 26db 00bd 697f 2f3d d6e0 813c
00000290: 4532 27bd cc24 0ebd b6ca 3dbd 0f42 42bd
000002a0: f32e 2c3d 80a8 78bb a8da 193d c413 583d
000002b0: 0718 703d 8610 fd3c b285 303d 5307 163d
000002c0: 008f 543d c831 cebc 03da 063d a428 ec3c
000002d0: 9427 79bd 7e59 413d de11 74bd e7c0 183d
000002e0: a9b8 0f3c 0a91 24bd a892 9c3c 86f2 40bc
000002f0: 4f15 453d 4817 9dbc 9c06 f93c a720 56bd
00000300: 1582 5e3d 107d 6fbd 0ffe 06bd c092 753d
00000310: 007a 87ba db4e 59bd 3445 47bc cc73 053d
00000320: a469 ac3c d71e 153c af8d e0bc 47db 6abd
00000330: 594e 803c da24 cc3c 026f 3c3c ac72 8e3c
00000340: 96ed 123d fec2 3cbd ac1e 44bd 6e7e 2dbc
00000350: 2b4c 31bd d43a 79bd aae9 10bd 1de8 8cbb
00000360: e649 a53c fcbe 9e3c 2156 6f3c 0332 9ebc
00000370: a126 37bd dfc0 ee3c ee5e 5a3c 3606 cc39
00000380: a17c 3f3d d449 78bc bf84 753b 7f3e 63bd
00000390: a827 fe3c bfd6 bbbc f5af 573c 4132 44bc
000003a0: b7e3 3abd c7d4 7c3c 268a f33c 1496 7bbd
000003b0: 971f 023d 8cbe 9a3a 7321 14bc d3eb 10bd
000003c0: 193b f83c e781 4cbc f64b bfbc 4bac 14bd
000003d0: 6bbc 66bd b292 03bd c8b9 e83c 900e d63b
000003e0: ed4f 193c 1f63 5dbd 2299 11bb cb60 3a3c
000003f0: b646 093c c862 23bc 2ed3 51bd dae5 523d
-0.046397038 -0.049874127 -0.0047205077 -0.012132349 -0.054479513 -0.0074608773 -0.05852872 0.032230377
-0.06350233 -0.063099906 -0.03602711 0.0248231 0.034296494 -0.010758499 -0.040810756 0.044589132
0.04350041 0.010999925 -0.029700883 -0.017012902 -0.055486985 0.0048674773 0.023743756 0.054836426
-0.06682551 -0.009043795 -0.05686128 -0.058610305 -0.029788867 -0.057236824 -0.019531704 0.049862966
-0.026580762 -0.019641474 0.03134895 -0.025620736 -0.00081482145 0.026702778 -0.010885049 0.04529903
0.005126988 0.0122654755 0.01566989 -0.002802886 0.034031015 0.017006941 0.017511547 0.043343633
0.04773383 0.016051203 0.044757225 0.016542565 0.042079337 0.04439047 -0.01508891 -0.046995975
0.0031475946 -0.051278897 0.017735563 0.05173807 0.018137382 -0.037323557 0.054566447 -0.04005838
-0.013310127 0.052445974 0.04172557 -0.04239575 -0.0017737775 0.04616114 0.010998686 -0.03512975
-0.023337435 0.047711726 0.024938216 -0.0076726642 -0.042087622 -0.059574153 -0.03131172 -0.05997827
0.01499771 0.021215025 0.032455135 0.008117292 -0.054252345 -0.06591354 -0.054919 -0.067064755
-0.024804134 0.025008911 0.03881384 -0.03430242 -0.047366686 0.04483421 0.026402285 -0.061467722
-0.011012848 -0.059398778 0.05153768 -0.06349997 -0.03923473 0.007069681 0.0024880646 -0.034961186
0.023377 -0.032368787 -0.03299113 0.0045437263 0.035237126 -0.03883611 -0.04064762 0.041883234
0.05060292 -0.028301205 0.049832974 -0.06840886 -0.06826939 -0.013546867 0.0010549849 -0.01978379
-0.04938359 0.050702758 -0.027980806 -0.0030384928 -0.05967828 -0.0069891764 -0.052344356 -0.031080022
-0.06641753 0.040109232 -0.04319509 -0.0461443 -0.06709414 0.055167347 -0.060202308 0.04709499
-0.06310219 -0.04804139 -0.01609399 -0.058449276 -0.04036723 -0.067680456 0.026819073 -0.060166575
-0.050878037 0.023382552 0.014773252 0.03995192 0.036476452 -0.0018234373 0.03841581 0.01377059
-0.050847385 -0.06722555 -0.05707212 -0.050389286 0.049789947 -0.0025797307 0.03073497 0.028467283
0.014707362 -0.031458996 0.042846117 0.01585428 -0.040819425 -0.03470306 -0.0463359 -0.04742628
0.04203696 -0.003794223 0.037562042 0.052753225 0.058616664 0.030891668 0.04309625 0.03662808
0.051894188 -0.025170222 0.032922756 0.028827973 -0.06082876 0.047204487 -0.059587352 0.03729334
0.008772054 -0.040177383 0.0191129 -0.011776572 0.048116025 -0.01917614 0.03039866 -0.052277233
0.054323275 -0.05846888 -0.032957133 0.059954405 -0.0010336041 -0.053053718 -0.012162495 0.032581136
0.021046467 0.009101591 -0.02741131 -0.057338025 0.01566236 0.024919916 0.011501076 0.017388664
0.03587111 -0.046084397 -0.047880813 -0.010589225 -0.04328553 -0.06084712 -0.03537909 -0.004300131
0.02017684 0.019378178 0.014607937 -0.019310957 -0.044714574 0.029144702 0.013328297 0.0003891454
0.046749715 -0.015154321 0.0037463156 -0.055479523 0.031024769 -0.022929547 0.01316451 -0.011974872
-0.045627322 0.015431589 0.02972896 -0.061422423 0.031768408 0.0011806055 -0.009041178 -0.03538115
0.030301617 -0.012482143 -0.02335165 -0.036297124 -0.056332033 -0.03212232 0.0284089 0.0065324977
0.009357435 -0.054049607 -0.0022216518 0.011375616 0.008378675 -0.009972282 -0.051226787 0.051488735

fc1.bias f4 [120]
00000000: a094 433d 09ae 153e 76fe 293e 6c63 d33c
00000010: 8026 863d e1b3 9dbd fcd0 f33c f394 3c3e
00000020: d5c8 0dbd f281 2abd bc92 5b3e 1a2d 203e
00000030: da5c 50bd 881b cc3d 7e2d a13c 1802 ed3d
00000040: a594 9c3d 383f 8ebd 9bdd 53bd 1f47 373d
00000050: 338d f93d 6f3d e13d b031 773e cab5 493d
00000060: 1a84 5ebd ec61 453d 31f2 b03c 33cf 1e3e
00000070: ade6 693e a979 cd3c ba15 3b3e c15f 993d
00000080: c9cf c9bc 3dd4 b53d b965 bb3d b0ba 9d3d
00000090: 522e 513e 0493 433e 90b2 823c bc38 ea3c
000000a0: 6584 9cbd 2afd 07bc 7f76 6fbc 080a 9e3d
000000b0: 0ec7 babc e5f4 f1bb dee6 d2bc 1997 393e
000000c0: 9fed f93d ae3a 033d 8dda acbd 26b6 f7bb
000000d0: e4ed bd3d a6df ee3d 0760 2d3e 96e0 f93d
000000e0: 092b b639 0c9c 07bd 4cce 963d 0d3d 0ebd
000000f0: 2a78 5a3d ece6 ea3c 5386 4cbc d88a 0c3e
00000100: 7a07 37bc 003b 04bd cdf1 0cbb a7ba 443c
00000110: c92e 223e 9728 8c3d 49bf 763e d3bd ab3d
00000120: 772b ec3d 28a2 783d 44e8 86bd 7d96 3f3e
00000130: d756 e03d 135f a13c 82c5 a839 052a af3b
00000140: 6cf1 83bc acc4 6fbd a037 cb3d 5411 8f3c
00000150: 0d40 623e 26b3 94bc 534c 5c3d df4a 283e
00000160: a8d0 e8bc 0f6f 013d 08fc fe3d 8c34 083d
00000170: 7c00 b73d 5b6d f73b d14a 03bd d760 fd3d
00000180: 0d3b 4e3d 211c d6bc f053 d33d 170b a93d
00000190: 57a3 fe3c 7c1e 073d 8983 ca3d 6db2 bbba
000001a0: 7db5 6c3e b37b 60bd 5e5b 133e d994 0c3e
000001b0: 27f1 af3d b09e 9b3d b473 f53c b1e0 94bd
000001c0: cff5 5e3d ff1f 21bd e096 cd3d 395f e53d
000001d0: 2e3b b83c 593c 803c d2cd bf3c 10ac 0fbd
0.04774916 0.1461717 0.16600975 0.025804244 0.06550312 -0.07700325 0.029762737 0.18416195
-0.034615356 -0.04162783 0.21442693 0.15642205 -0.0508698 0.09966189 0.019675013 0.11572665
0.07645539 -0.06945652 -0.05172501 0.04474556 0.12185135 0.10998046 0.24140048 0.049245633
-0.0543252 0.04818909 0.02159986 0.15508728 0.22841902 0.025082426 0.18270007 0.07488967
-0.024635212 0.08878372 0.091502614 0.077016234 0.20427826 0.19099051 0.015954286 0.028591506
-0.0764244 -0.008300105 -0.014615654 0.07716757 -0.022799995 -0.00738393 -0.025744852 0.18124045
0.12203526 0.032038383 -0.08440123 -0.0075595556 0.0927389 0.11663751 0.16931163 0.122010395
0.0003474581 -0.033107802 0.07363567 -0.03472619 0.053337254 0.028674565 -0.012483197 0.1372484
-0.011171216 -0.03228283 -0.002150643 0.012007392 0.1583816 0.068436794 0.24096407 0.083858155
0.11531728 0.06070152 -0.0658727 0.1870975 0.109540634 0.019698655 0.00032190612 0.0053455853
-0.01610633 -0.05853717 0.09922719 0.017464317 0.22094746 -0.01815183 0.053783726 0.16434811
-0.028419808 0.031600054 0.12450415 0.033253238 0.08935639 0.007550878 -0.032053772 0.12371986
0.050349284 -0.02613646 0.10318744 0.08254068 0.031083746 0.032988057 0.098883696 -0.0014320143
0.23116107 -0.05480547 0.14390323 0.13728656 0.08590918 0.075986266 0.029962398 -0.07269419
0.05443364 -0.039337154 0.10038543 0.11199803 0.022489157 0.015653776 0.023413572 -0.0350762

fc2.weight f4 [84, 120]
00000000: 9eda 16bd 4205 e73d b313 963c 8e01 f23d
00000010: 26c5 bebb ae68 1d3d 2785 23bd 3711 9cbd
00000020: 33a0 8a3d 3efe adbd 7d79 45bd 8918 dbbd
00000030: 86f3 90bd dfd9 0bbe 6a3c c33c b88d 5939
00000040: d197 bbbd 555e 8cbd 2715 813c 2588 66bc
00000050: 1ba8 2ebd faa4 a9bc 1e1f 8ebd 7cde 243c
00000060: eb6a 683c 2f35 59bd d69e 48bd 31de 033e
00000070: 3dc3 34be 28d6 dabb 6431 953c 4f0b 4dbe
00000080: a55d febc 9c11 6a3d c1a3 11be 1177 0bbc
00000090: 48ab 95bd 4755 5ebd 7461 babd fa7d 9f3d
000000a0: cf5b 363c 2e90 a13d 142f cebc 184b 153d
000000b0: e62b 91bd 6941 78bd 1f7b dabc 6bee 1cbe
000000c0: b4d2 e93d fd3e 5ebd bc5b 94bd 381f 5b3d
000000d0: d099 16be fe2c 03be 88c8 5bbd e492 2ebe
000000e0: 7012 0c3d 423a e83c ccd7 b83d 798e d83d
000000f0: 8e2a 203b da1b 6b3d d7a5 6a3d b7bd 40bd
00000100: e23d b33d 31b3 4fbd 8db1 6bbd c1ef 80bd
00000110: 6484 0abe 8dde 06bd e5a1 fe3c 7a67 96bd
00000120: a623 7bbd 162e 99bd 3fcb d73c 01b2 2fbe
00000130: 5a09 a53d 6d9f 7f3d eba2 84bd 9004 ccbc
00000140: a516 a73d 2765 b13d a511 53bb a031 17bd
00000150: 0ab4 153d 8026 143b 3648 af3d 1b73 55bd
00000160: f716 a23d be40 0fbd 71c1 d2bd 9556 84bd
00000170: 57cf 4d3d 2ca8 763d fb8b f2bc 399c c2bd
00000180: 7fa1 febd ce33 c93c 8689 783c cf88 293c
00000190: e945 ff3c 23da 71bd 6d76 23bd 4891 053d
000001a0: 78e8 9e3c aad8 7fbc c88c 73bc 14b0 f53d
000001b0: 2ce5 09bd 0f28 9b3d 78c7 dfbb fcff 873b
000001c0: 8817 4d3b f1f4 043d 31ab 933d 2563 48bd
000001d0: ac16 03be de80 873c e2f7 4fbd eefc 393c
000001e0: 3eb1 ed3c 62fe 8d3d dd4f bcbd b68e ea3d
000001f0: 8ecb 3bbd 1627 4abd da44 fa3c 09db 3fbe
00000200: d712 ad3d 4c77 32be b754 be3c ff21 d7bd
00000210: 0435 b63c 463b 913d 1cb1 143e 73fa a5be
00000220: 90d4 c4bd 4c5b 623d a668 afbd 4e4e 2d3d
00000230: 8d2c 86be a41a df3d 32b2 41bd f372 20be
00000240: e36d 8f3d eb04 97be 28a3 80bd bb17 87bd
00000250: 4dd5 043d 8c8d 2ebd 31e6 563d c5b2 d43c
00000260: 72e7 f53d 7c61 fdbd 3239 363e 2903 eebd
00000270: 6ba8 cabe c723 9e3c 3e9e a8bd dc36 b2bc
00000280: 9861 2f3c 2edd b9bd 46a0 003e ac01 cfbd
00000290: 18fe a6bd c43e 90bd 59df d2b9 e0c8 083e
000002a0: 53c8 b23d cd4f 133d 2656 be3d b8da d73c
000002b0: 7b61 073d 8217 96bd cd48 fbbd 611b c33d
000002c0: e1e3 393d 1b7f e93d 5b5d 37bd 9687 833d
000002d0: 3b3e a03d 90f7 a13d 67a7 bbbd a9e8 0b3e
000002e0: bbe6 823d cf7e bbbd 64a8 3e3d 0084 20bd
000002f0: 4591 9a3d 0401 ab3d 654c dbbc 49e1 84be
00000300: 8767 dcbd a400 3abe b02f d7bd 53ec 373e
00000310: 08ef 14bd 1c9b 803d e9c3 aebd 3b52 803d
00000320: 85c2 2f3d 6326 033d c29d f03b f2f3 b3bd
00000330: cbc3 96bd f04b 5c3d adae 01be f45f 523d
00000340: a88c 51bd b283 c4bb 6d29 cebd 9463 81be
00000350: 883b ee3c 4400 f5ba 0305 e73d b161 bd3d
00000360: c047 d437 43db 053d 9c2c f33d 0898 dd3d
00000370: 9fb9 78bd 9c67 05be 5a19 9a3d 3f53 2ebc
00000380: 73ff 34be 5c8b 013d a515 e4bd f9ea cfbc
00000390: a103 e8bc 8047 4ebd 6a7a fabd 250c 363d
000003a0: d576 313d 517c e5bc 28c6 2abe 1a6c 8abe
000003b0: 44cd dbbc 3639 2dbd e83c 0f3b 53ab 9c3d
000003c0: 7912 aa3d 01da 7fbd d5c7 82bd 9489 13be
000003d0: 5df3 0ebc 1cf5 5f3c 8a9d fc3d ddff 003e
000003e0: e2e4 89bc bef5 0cbc c937 c53d a837 b5bd
000003f0: ad8f d33c c529 613d c99a 2abe 318f 393e
-0.036829583 0.112803 0.01831994 0.11816703 -0.005821842 0.03842991 -0.039921906 -0.07620471
0.06768837 -0.084957585 -0.048211563 -0.10698039 -0.070776984 -0.1365733 0.023832519 0.00020747527
-0.09159816 -0.0685393 0.015757157 -0.014070545 -0.042640787 -0.02070855 -0.06939529 0.01006281
0.0141856475 -0.053029235 -0.048979603 0.12877728 -0.17652602 -0.0066783614 0.018212028 -0.20023845
-0.031050513 0.0571457 -0.14222623 -0.008512274 -0.0730806 -0.054280546 -0.09100619 0.077877
0.011130287 0.07888828 -0.025168933 0.036448568 -0.07088451 -0.060609255 -0.026670037 -0.15325324
0.114171416 -0.05425929 -0.072440594 0.05349657 -0.14707112 -0.12810132 -0.05365804 -0.17048222
0.03419727 0.028348092 0.09025535 0.105740495 0.0024439427 0.05739961 0.057287063 -0.047055926
0.087520376 -0.050708 -0.057542372 -0.062957294 -0.13527066 -0.032927085 0.031083057 -0.07343955
-0.061313294 -0.07479493 0.026342032 -0.17157747 0.08058424 0.0624079 -0.06476387 -0.02490452
0.08158616 0.086618714 -0.0032206562 -0.03691256 0.03654865 0.0022605956 0.08558695 -0.052111726
0.079145364 -0.034973852 -0.10290802 -0.06461827 0.050246563 0.060218975 -0.029607764 -0.09502453
-0.12433147 0.024560835 0.015169507 0.010347559 0.031161265 -0.059045922 -0.03990786 0.032609254
0.01939796 -0.015615622 -0.014865108 0.11996475 -0.03366582 0.07576 -0.0068291984 0.0041503888
0.0031294543 0.032460157 0.072103865 -0.048922677 -0.12801617 0.01654094 -0.05077351 0.011351807
0.02901518 0.06933285 -0.0919492 0.11453001 -0.04584842 -0.04935368 0.03055041 -0.18735899
0.08450859 -0.1742832 0.023233755 -0.10504531 0.022242077 0.07091384 0.14520687 -0.3241764
-0.096108556 0.05526285 -0.08564882 0.042311005 -0.26205865 0.10893753 -0.04728908 -0.1566885
0.07003381 -0.2949594 -0.062811196 -0.06596323 0.032429982 -0.04261546 0.05246562 0.02596415
0.12007035 -0.12372109 0.17795256 -0.116216965 -0.39581618 0.01930417 -0.08233307 -0.021754675
0.0107044205 -0.0907539 0.1256114 -0.10107741 -0.08153933 -0.070432216 -0.00040220728 0.13357878
0.08729615 0.035964776 0.09293775 0.02634941 0.03305195 -0.073287025 -0.12269745 0.095267065
0.045383338 0.114011966 -0.044766765 0.06422345 0.078243695 0.07908547 -0.09162789 0.13662972
0.063916646 -0.09155046 0.04654731 -0.039188385 0.07547239 0.08349803 -0.026769826 -0.2595313
-0.10761934 -0.18164307 -0.105071425 0.17961244 -0.03636077 0.06279585 -0.08533461 0.06265684
0.042910118 0.03201903 0.007343025 -0.08786763 -0.07361563 0.053783357 -0.1266429 0.05136104
-0.05115953 -0.0059971446 -0.10066495 -0.25271285 0.029081121 -0.0018692096 0.11280253 0.09247149
2.530578e-05 0.032679807 0.11873743 0.10820013 -0.060723897 -0.13027805 0.07524367 -0.010639965
-0.17675571 0.031627044 -0.11136941 -0.025380598 -0.028322043 -0.050361156 -0.1223038 0.044445176
0.043326218 -0.02801338 -0.16677153 -0.270356 -0.026831277 -0.04229089 0.0021856371 0.07649865
0.08304305 -0.062463764 -0.06385771 -0.1440795 -0.0087250145 0.0136692785 0.12334736 0.12597604
-0.016832773 -0.008603511 0.09629781 -0.08848506 0.025825346 0.054971475 -0.16660608 0.1812103

fc2.bias f4 [84]
00000000: fee4 c4bd cd09 f83b 4cf7 6b3d b927 1bbe
00000010: 6fd7 9a3d 7ff7 483d cdf3 13be 2f32 033e
00000020: dc7e fd3d 1765 98bd 6d95 333e 7d95 c4bd
00000030: 31ab d1bd cdd8 823d b820 0b3e 5c2a 323e
00000040: 3e2d 743e 4fa0 0f3e 00b4 89bd caeb 483e
00000050: 1727 c13d 32c9 573d 9c3c 703d 7911 a73d
00000060: 1fd9 8abd ed9e 32bd 73d9 6f3b 1b12 c83d
00000070: cdb5 d53b 3a2d 153d df4d 343e 8c3b 58bc
00000080: 96c2 6c3d 8ece 3dbd 96ea ed3d d81b 233e
00000090: c027 f0bd d314 c53d cad6 91bd 737f 25bd
000000a0: 3ec0 063e c24b 0ebc b2f0 aa3e 3556 963c
000000b0: cf9f 1c3e 7c4a 9e3c 7d45 b93d 998b d3bd
000000c0: 8c3d d63c f810 3e3e 4a54 463d 5ac4 72bd
000000d0: b474 55bd 0779 6dbd 01d5 abbd 2484 7cbd
000000e0: 844d d3bc 49bc 9f3d 8c39 383e a52b 03be
000000f0: dbcf 3abd 13af 5abc a412 e73c 6b06 16be
00000100: 789c 623d 9d67 033e b035 18bd f714 e2bd
00000110: b78d 473c c24c 12bc d4e6 5e3e 09df 8b3d
00000120: b875 593d d4d4 403e ed07 1c3e 3eaf b13c
00000130: e8bb 653d 9f0e 343e 5fb1 a2bd ff8f 87bd
00000140: 628e 68bd 0382 033d d0d6 fbbd ac47 123e
-0.09613989 0.0075695277 0.057608888 -0.15151872 0.07560622 0.049064156 -0.14448471 0.12812112
0.12377712 -0.07441156 0.1753747 -0.09598825 -0.1023773 0.06389008 0.135867 0.17398971
0.23845384 0.14025997 -0.067237854 0.19621196 0.09431284 0.05268211 0.05865155 0.081576295
-0.06779694 -0.043608595 0.0036598116 0.09769078 0.0065219165 0.036420085 0.1760783 -0.013197791
0.05780276 -0.046339564 0.11617009 0.1592859 -0.11726332 0.096231125 -0.07121046 -0.04040475
0.13159272 -0.008685054 0.3338676 0.018351654 0.15295337 0.019322626 0.09046457 -0.103293605
0.026152395 0.1856116 0.048420228 -0.059269287 -0.05211325 -0.05797675 -0.08390237 -0.061649457
-0.025793798 0.077995844 0.17990702 -0.12809618 -0.045608383 -0.013347405 0.02820713 -0.14650886
0.055325 0.12832494 -0.037160575 -0.11039155 0.012179784 -0.008929433 0.21767741 0.0682965
0.05309078 0.18831187 0.15237398 0.021690007 0.056087404 0.17583703 -0.07943987 -0.06619262
-0.05677641 0.03210641 -0.122968316 0.14285153

fc3.weight f4 [10, 84]
00000000: b3ad 74be 228b 1bbe 5ac4 b2bc 719b 38bd
00000010: 2b4a 10bd 3148 a53d 909a 4e3e 0236 0c3e
00000020: d041 1e3e 0896 68bc 6f5d 8ebc 51a1 a1bc
00000030: 6d3b 213d 7bca 2d3d 9d44 dcbb 8944 cebd
00000040: bf9c aebd 6286 82be 93a6 9cbd 5e08 85bd
00000050: 4cb7 75be 97cb c0be 0d04 8dbd 8a83 3fbd
00000060: 9cc2 1f3d d7f9 01be 25f6 9bbd bdbf 3c3d
00000070: dc99 0ebf 2c73 7bbe 4687 28be 697f 0cbd
00000080: f806 6b3d 0a18 a4be bcc6 413d e391 063e
00000090: 9290 28bc 82e7 ea3d 50e6 84bd af0a ed3c
000000a0: ae43 da3c aaac 8d3d 5d3d 143e 7fb8 b9bd
000000b0: 7f0d 8ebd 257a 36bd 2ac5 18be 085e 6cbe
000000c0: 2130 57bd db53 bc3d 5ab8 9fbd 5864 05be
000000d0: d884 bf3d ee06 0a3e 699c afbb c0a1 40bb
000000e0: c14b 2f3d d5e3 c1bc 770e 36be 8eb6 72be
000000f0: 5c77 39bd ff61 c2bd 2d64 063e c8f5 143c
00000100: d85e d53a 112a d03d bad9 3cbc 7ec7 263d
00000110: f1de 563d 5872 aa3d 4df7 27bb a377 16be
00000120: 5afe 21bf 8d51 2e3d 9fdb 123d 8912 613d
00000130: 9a4e 413d cd17 c73d 85ef 5abe d57c 923b
00000140: 978a cd3d 9c37 c0bd f5f1 043d 5143 82be
00000150: 1613 c8bc 52d2 e03d 304e 213e f84d 2e3d
00000160: 21aa b5be 84f4 b33d 6df9 a8be 5b89 3a3e
00000170: ddf9 0e3d ea1c a3bd ce85 f9bd 9ed2 71bd
00000180: 0a5a 18bd eeab 89be 1732 083e 396b 8ebd
00000190: f47a 273e 76c9 cabd a202 14bd f21e 53be
000001a0: c127 2d3d 0ca6 783e 7fd7 803d 6ea4 eb3d
000001b0: bb11 ddbd 384b 90bd 85bd 65bd a544 05be
000001c0: 408e 0cbe 414f b8b8 eb4c 0d3e f807 59ba
000001d0: d421 cabd e88a 59be b9b9 9abd acca 373c
000001e0: 16ed a3be 5ec4 88bd d386 173e 963a 4cbd
000001f0: f7ad 9dbe 9d25 1ebd 7036 bebe be43 ddbc
00000200: dcc6 adbb a507 c03d 9130 ad3d 593f 2cbd
00000210: d80b 99bd fdb1 1c3d 313d 47be e48e 83bd
00000220: 0462 303c 4c08 84be bbc6 30bd 2d28 4dbf
00000230: 2c7c 0fbf 77b0 2fbe 7bde 8b3d a308 61be
00000240: 4723 9a3c 098d a53d 56b2 ad3e f058 823c
00000250: c947 59bd 3ddb 22be 34c7 a33d c9d6 84bd
00000260: 38e2 73be 108e efbe 5903 84be 5aef d6bd
00000270: a286 fbbc 6e02 e8bb 50ef 34be 377f 93bd
00000280: 2747 343e 599c a63d e3a8 6e3c 8da2 353d
00000290: 91dc 4cbe 8c64 15be 3e67 2fbd 8ea0 d0bd
000002a0: be7e e9bd 78b4 1e3b ccd7 fb3c 482c 6f3c
000002b0: a8c6 f8be 427e 8e3d 9714 18be 10a7 2dbe
000002c0: 5e3e f33d 0878 e03c 64d8 ec3b aae5 0f3d
000002d0: 442d df3b 3cb7 da3d 315e 60be 3b09 c6bc
000002e0: 0ac4 08be 26ee 12be 6dbe 803d 6eea 5b3d
000002f0: fda9 4f3c 83f1 e4bd e4b0 febc 97da 103e
00000300: a8c2 973c 6d9c babd 2643 143e 84c9 96bd
00000310: a4d6 1b3c 9d20 923d 84f7 fabd a653 973c
00000320: 04f0 debd 56b2 713e d30f 31bc 9303 d83d
00000330: c4c4 00bd 4019 db3d 1bfc de3d 4325 92bd
00000340: 44a7 903d 74cd 453e 979a 05be b82e 14bd
00000350: 8461 cd3d 70c2 8b3d a1d9 49bd 5e12 d4bd
00000360: 6d1b 42bd f5f8 25be 4f96 09be 0fde 693b
00000370: 2c9d 103e 399a 93bb eb3d bebc f91d 86bd
00000380: 75dc aebd 72f5 07be 0532 c53d 22a4 32be
00000390: 2bc5 2cbd 8737 c93a 5046 bcbb fd52 b6bd
000003a0: 6b36 16bd a200 9c3d daee cc3d 8e32 6abd
000003b0: e0b9 643d bddd ab3d 6a21 343d d38d 8cbb
000003c0: 7747 053d c651 203c fa22 46be b9fa 9cbd
000003d0: b6ac 3abe 2bc6 2bbe 839c a93d bfc1 2d3d
000003e0: 64c8 cabd 50a4 bfbe 7aef 3cbd 15b0 60be
000003f0: a33b a0be c7f5 113c 8e7f c0bd 9d76 8d3c
-0.23894386 -0.15189794 -0.021822143 -0.045070115 -0.035226982 0.0807041 0.20176148 0.13692477
0.15454793 -0.0141959265 -0.017378537 -0.019730242 0.039363313 0.04242943 -0.0067220465 -0.10071666
-0.08525991 -0.2549315 -0.07648959 -0.064957365 -0.23995703 -0.37655327 -0.06885538 -0.046756305
0.039003953 -0.12692963 -0.07615308 0.046081293 -0.5570352 -0.24555653 -0.16457853 -0.034301195
0.057379693 -0.3204959 0.04730867 0.13141589 -0.0102883745 0.11469938 -0.06489241 0.028935758
0.0266436 0.06917699 0.14476533 -0.09068393 -0.06936168 -0.04455008 -0.14918962 -0.23082745
-0.052536134 0.09195682 -0.07798834 -0.1302656 0.0935151 0.13479206 -0.0053592217 -0.0029393286
0.042796854 -0.02366821 -0.17778955 -0.23702452 -0.045279846 -0.094913475 0.13124152 0.009091802
0.0016278876 0.101642735 -0.011526519 0.040717594 0.052458707 0.083225906 -0.002562958 -0.14694075
-0.63278735 0.04255824 0.03585398 0.054949317 0.0471941 0.097213365 -0.21380432 0.0044704475
0.100361995 -0.09385607 0.03245731 -0.25441983 -0.024423163 0.109776154 0.15752482 0.042554826
-0.3548136 0.08786872 -0.33002797 0.1821646 0.034906257 -0.07964499 -0.12183724 -0.05903875
-0.037195243 -0.26888984 0.13300358 -0.06954045 0.16355497 -0.09901707 -0.036135323 -0.20617273
0.04227424 0.24282092 0.062911026 0.11505972 -0.107943974 -0.07045597 -0.056088943 -0.13014467
-0.13726139 -8.788566e-05 0.13798873 -0.00082790805 -0.098697335 -0.21244395 -0.07554955 0.011217754
-0.3201682 -0.06678079 0.14797525 -0.04986056 -0.30796787 -0.03861009 -0.37150908 -0.027009841
-0.005303247 0.09376458 0.08456529 -0.0420526 -0.07472962 0.03825568 -0.19456936 -0.064237386
0.010765556 -0.2578758 -0.043158274 -0.8013943 -0.56048846 -0.1715716 0.06829544 -0.21975951
0.01881565 0.08083541 0.33925122 0.01591155 -0.053046975 -0.15903945 0.07996979 -0.064862795
-0.23816764 -0.46788073 -0.25783804 -0.104948714 -0.030703846 -0.0070803678 -0.17669415 -0.07201999
0.17605267 0.0813529 0.014566633 0.044344474 -0.20006014 -0.14589137 -0.04282307 -0.101868734
-0.11401127 0.0024216454 0.030742548 0.01459796 -0.48589063 0.069576755 -0.14851604 -0.1695826
0.1187713 0.027400985 0.007227944 0.035131134 0.006810816 0.106794804 -0.21910931 -0.024174323
-0.13356033 -0.14348659 0.06286321 0.053690366 0.012674806 -0.11178877 -0.031090207 0.14145885
0.018525437 -0.09111867 0.1447874 -0.07362655 0.0095116235 0.07135127 -0.12254241 0.018472504
-0.10885623 0.23603186 -0.010806995 0.10547557 -0.03143765 0.106981754 0.10887929 -0.07136013
0.070631534 0.19316655 -0.13047253 -0.036177367 0.10028365 0.068241954 -0.049279813 -0.10355066
-0.047389437 -0.16208251 -0.13436244 0.0035685336 0.14122456 -0.0045044688 -0.023222884 -0.065486856
-0.085381426 -0.13277224 0.09628681 -0.17445424 -0.04218022 0.0015351631 -0.0057456866 -0.089025475
-0.03667299 0.07617308 0.10006495 -0.05717712 0.055841327 0.083919026 0.04397718 -0.0042893677
0.032538857 0.009785121 -0.1934928 -0.07665009 -0.18229946 -0.16774814 0.08281805 0.0424211
-0.09901503 -0.37430048 -0.04612682 -0.2194217 -0.312955 0.008908696 -0.09399329 0.017268473

fc3.bias f4 [10]
00000000: 48ea 43bd 4eb0 0a3d 0c26 6d3d 6d27 a2bd
00000010: 8733 79bb a170 0f3e e679 e83c aead 0a3e
00000020: af83 053e df99 f23c
-0.04783085 0.033859544 0.057897612 -0.07917676 -0.0038025097 0.14007808 0.028378438 0.13542816
0.13038515 0.029614387
