models/FGSM-0.2 BasicNet.pt (torch, 180551 bytes, 10 tensors)

conv1.weight f4 [6, 1, 5, 5]
000000 22 7c 81 ba 86 6a 05 bb fc 1a 05 bc 28 4e d3 bc
       -0.0009878913 -0.0020357682 -0.008124109 -0.025794104
000010 9e 1d af 3b 7a bf 38 3b 61 80 03 3c 1d 62 b2 bd
       0.005344107 0.00281903 0.008026213 -0.0871012
000020 f4 1e 8f bd b5 fe d7 3c 1c a3 d8 b9 96 99 a3 bb
       -0.06988326 0.026366571 -0.00041320256 -0.004992674
000030 b6 94 a7 bc 1e 5f a6 3e a7 43 1f 3e 4b 73 24 3a
       -0.020456653 0.32494444 0.15553151 0.00062732835
000040 63 76 3b 3c a5 c0 84 3e e2 26 2d 3f 15 36 87 3d
       0.0114418 0.25928226 0.67637455 0.06602112
000050 51 ff 3c 3b 02 85 c8 3c c7 06 03 bc d2 12 d1 bd
       0.0028838704 0.024477486 -0.007997221 -0.10208668
000060 50 c6 1a be 6c d5 a9 bc 84 2e 27 b8 f4 c0 d9 b9
       -0.15114713 -0.02073165 -3.9859224e-05 -0.00041533227
000070 a8 5f 98 bc df 7f 4b bc cd 52 af bd 3c e2 81 3d
       -0.0186003 -0.012420624 -0.08560715 0.06341979
000080 de 3f 4f 3e 97 a3 8c bd 78 7f 11 be d5 9e d9 bd
       0.20239207 -0.0686714 -0.14208782 -0.10625998
000090 a2 68 4c 3e cf 1a 8e 3e 39 a2 63 be 1c ca 33 be
       0.19961789 0.27754828 -0.22229852 -0.17557567
0000a0 ba b0 87 bc d7 12 77 3e fc 49 91 3d 0c fe 5e be
       -0.016563762 0.2412828 0.070941895 -0.21776599
0000b0 a1 3e 96 bd c5 cf 12 3c 6e 9e 60 3d 4e 72 c2 bc
       -0.07336164 0.008960669 0.05483859 -0.023736145
0000c0 d4 73 54 bd c8 8f a0 3a 89 f6 2f ba ee e0 75 bc
       -0.051868275 0.0012249881 -0.0006712457 -0.015007241
0000d0 34 b9 72 bd 13 42 e5 3b 6f d1 7c 3b b4 58 10 bb
       -0.059258655 0.006996402 0.003857698 -0.0022025527
0000e0 0a 32 48 be 06 7e 2c 3c 2b 0a 23 3e fe d0 b0 bc
       -0.19550338 0.010528093 0.15921848 -0.02158403
0000f0 1c b3 4b bb 66 2c e7 bd 1d a8 15 3f f0 24 0a 3f
       -0.00310821 -0.11287765 0.58459646 0.5396261
000100 fc 66 f6 bd f8 8a 6b 3a 01 fb dd bc 6c ff 47 3d
       -0.120313615 0.00089852465 -0.027097227 0.048827574
000110 9b 7d 8c bd 06 91 be bd 33 0f 8b 3b 69 2e 8e bc
       -0.06859895 -0.09305005 0.0042437552 -0.017356114
000120 f8 84 a1 bc 4a 18 85 bc 3c 49 b8 3b dc 32 bb 3d
       -0.019716725 -0.016246933 0.0056239646 0.0914056
000130 00 b0 84 3c bd 3c e5 bd ee 0d 98 bd 67 f3 cf bc
       0.016197205 -0.111932255 -0.07424532 -0.025384618
000140 7a 48 4b 3e 0c 1e 0c 3e d9 c3 8a be 3d cf 13 be
       0.19851866 0.13683337 -0.27102545 -0.14434524
000150 44 7c fe bc ac 41 9e 3e ad 26 27 3f e2 83 bc 3d
       -0.031065114 0.3090948 0.6529339 0.09204842
000160 a1 3e 6c bd e7 9e d0 bb f3 fd c4 bd 4d c2 81 3e
       -0.057676915 -0.006366599 -0.096187495 0.25343552
000170 85 1b 37 3e dd 42 87 3b 85 d1 86 ba 00 0d 20 be
       0.17881592 0.004127844 -0.001028583 -0.15629959
000180 a1 65 25 bd 90 3c b6 3c 26 51 83 3a 21 cf d0 3a
       -0.040380124 0.022245675 0.0010018691 0.001593087
000190 fb 5d 00 bb f5 72 9d b9 59 c3 9d b9 c2 35 89 ba
       -0.0019587267 -0.00030031023 -0.0003009092 -0.0010468292
0001a0 1f 56 1b bc 29 d9 e6 bb b3 2d 58 3b b6 48 1c 3d
       -0.009480982 -0.0070449305 0.0032986223 0.03815528
0001b0 39 4c 1f 3a b9 98 a8 bc 96 dc 85 b8 58 e8 97 3d
       0.0006076727 -0.020580636 -6.3830215e-05 0.07417363
0001c0 7a df bb 3d ea ec 87 bd 57 53 9b bc 4b 2f 12 3b
       0.09173484 -0.06636985 -0.018960638 0.002230602
0001d0 23 7b d1 3e cc 8a 16 3f dc be 4a 3c 6b 28 0d bc
       0.40914258 0.5880554 0.012374606 -0.008615593
0001e0 d0 5b 64 bc df e0 84 3e 8f 6b f2 3e 20 e4 30 3d
       -0.013937905 0.25952813 0.47347686 0.043186307
0001f0 32 62 85 bc 92 a4 2c 3b 9a bd 4d 39 20 3a 73 3a
       -0.016282175 0.0026343209 0.00019620956 0.00092783757
000200 6d 27 42 3a a1 e6 8a 3a 31 c6 70 3b d0 03 1a ba
       0.00074063876 0.0010597297 0.0036739225 -0.0005875202
000210 19 b5 41 bb 25 e3 98 bb cb c0 26 3b 82 31 51 3b
       -0.0029557406 -0.0046657496 0.0025444503 0.0031920378
000220 f6 ab d4 bd 72 ae a9 be ff f2 35 be 4b 15 14 bc
       -0.103843614 -0.33140904 -0.17768477 -0.00903828
000230 48 75 94 bb e5 51 b7 bd 01 f1 93 bd 54 a4 b5 ba
       -0.0045305826 -0.08951167 -0.07223702 -0.0013858178
000240 ad 1f b5 bb 09 44 bc 3b 86 b1 b0 3e 6e b7 cc 3e
       -0.0055274577 0.005745415 0.3451044 0.39983696
000250 a0 05 dd 3c 84 ac 13 bb
       0.026980221 -0.0022533247

conv1.bias f4 [6]
000000 0a b1 81 ba 9d 40 91 bd 80 be 69 3e 57 61 c1 be
       -0.0009894681 -0.07092402 0.22826576 -0.37769577
000010 8c 5f 82 3e 22 a8 a2 bc
       0.2546352 -0.019855563

conv2.weight f4 [16, 6, 5, 5]
000000 b6 30 f5 bc 28 6b 72 bd e4 8e a8 bd ca f9 3b bd
       -0.029930454 -0.059184223 -0.08230379 -0.045892514
000010 1c e7 06 be f5 d8 20 3d a8 71 1c bc 4b 96 b5 bd
       -0.13174099 0.039269406 -0.009548582 -0.08866557
000020 f3 9f b1 3c 5e bb 5b bd 75 5a ea bc ba ea 4a be
       0.021682715 -0.053645484 -0.028607586 -0.19816104
000030 f0 4c e9 3c 6d b5 a5 3d 60 a1 ac bd aa d1 02 bd
       0.02847907 0.08091245 -0.08429217 -0.031938232
000040 91 13 36 3e ee 2d 4c 3e 69 01 80 3d 25 c8 b1 be
       0.17780901 0.19939396 0.06250269 -0.3472301
000050 9d 36 43 3e f1 3c 3e 3e 8a 88 57 3d 89 cd d6 bd
       0.19063802 0.18577935 0.05262045 -0.104884215
000060 88 1c 11 be 59 95 62 3c ad 39 e8 bb 78 89 fd 3b
       -0.1417104 0.013829553 -0.0070869536 0.007737335
000070 0d 91 d2 3b ec 43 0f 3c ae d5 4e 3d f7 37 57 3d
       0.006425983 0.008744221 0.05049675 0.052543607
000080 29 12 5c 3b 36 ee 39 3d 7e 2c 2a 3d 73 37 74 3d
       0.003358016 0.04539319 0.041546337 0.059623193
000090 3d c1 04 3e b5 a0 df 3d e8 e6 12 3e 9c bf 12 3d
       0.1296434 0.10919324 0.14345896 0.035827264
0000a0 b6 c2 8e 3c 27 dd e9 3d c2 81 be 3d 69 99 22 3e
       0.01742683 0.114191346 0.09302093 0.15878834
0000b0 94 dc 96 3d d8 36 1b be f0 86 6d b9 12 6a a6 3d
       0.07366291 -0.1515764 -0.0002265235 0.081257
0000c0 89 63 e0 3c 99 cd e9 bb c3 14 e2 ba 3a 9b 11 bd
       0.027391212 -0.007135105 -0.0017248619 -0.035548426
0000d0 13 bc d1 3c 19 eb 91 3a 8d 9b 50 bd 82 be 42 bc
       0.025602376 0.0011132687 -0.050929595 -0.011886241
0000e0 1b 2e da bc af 39 39 bc 64 e8 86 3d 93 16 ad 3d
       -0.026633313 -0.011305257 0.06587294 0.08451571
0000f0 5d e4 12 3d 2d 36 54 bd c0 35 5b bd 38 fa 1f 3e
       0.035862315 -0.05180948 -0.053518057 0.15622795
000100 79 f0 bb 3d de e1 c3 bc 43 0e 76 3d 2b 85 76 3e
       0.09176726 -0.023911413 0.060072195 0.24074237
000110 6f 91 51 3e 20 30 9e bd bd d8 80 3d 3d 67 5e 3e
       0.20465635 -0.07724023 0.062913395 0.2171907
000120 90 e9 11 3e 98 a3 2c bc 25 69 3e bd d6 d7 1e 3d
       0.14249253 -0.010537051 -0.046486992 0.038780056
000130 c1 d4 c0 3c 24 a4 42 3d a2 be 47 3d 3c a4 79 bd
       0.023538949 0.047519818 0.048765786 -0.06094764
000140 f1 62 96 bc bc d4 0a 3d e3 6a c8 3d b8 68 68 3e
       -0.018357726 0.033894286 0.09786012 0.22696197
000150 bc bf a7 3d 55 e3 cb 3a a6 bc 45 bc 80 e0 ee bc
       0.08190867 0.0015555421 -0.012068903 -0.029159784
000160 6b f9 fb 3c 9a fa da 3d 03 96 64 3d 89 1c cd bd
       0.03075858 0.1069233 0.055807125 -0.10015208
000170 4e 43 be bd 49 90 de bd c4 de 03 3d 58 7d 31 3d
       -0.09290181 -0.10867364 0.032194868 0.043332428
000180 a9 a1 21 be 85 b0 30 be 4b 53 20 be d6 3f e1 bb
       -0.15784325 -0.17254837 -0.15656774 -0.006874065
000190 ed 0b 0c bd 18 2f 98 bd 3c 85 37 bd d8 a9 11 bc
       -0.03419106 -0.074308574 -0.044804797 -0.008890592
0001a0 1e 28 88 bd 11 e5 13 bd de 93 97 bc e5 fc c1 bd
       -0.06648277 -0.036107127 -0.018503126 -0.09472064
0001b0 dc 88 24 3d d7 6c 38 3c 8b 1d 74 bd 5e c5 00 be
       0.04016958 0.011256418 -0.059598487 -0.1257529
0001c0 c6 03 bf bd 5b 8d 09 bb b5 c3 1b 3c 98 cb 72 bd
       -0.093268916 -0.0020988795 0.009507109 -0.059276193
0001d0 e2 2b 98 3d 83 ab 53 3d b1 fe 6d bb b8 35 8c bd
       0.07430245 0.05167724 -0.0036315138 -0.068461835
0001e0 51 3e c0 3d e2 f9 59 3d 02 5d 1c bd b2 35 a2 bd
       0.09386886 0.053216822 -0.038174637 -0.07920398
0001f0 6d e9 a2 bd 0a 71 7f 3a 77 80 97 3c 09 73 aa 3c
       -0.07954679 0.0009744322 0.018493874 0.020806806
000200 6f 91 96 3c 0c ab e9 3c 4d 30 ab 3b ff 89 82 3d
       0.018379895 0.028523944 0.0052242638 0.06373977
000210 2e 44 a8 3c 8f 5d 34 bd d6 94 4e bd fa 50 d4 3c
       0.020540323 -0.044034537 -0.05043491 0.025917519
000220 4a 04 1b 3d 61 19 ee 3d 07 d0 9d bd b2 3a e7 bd
       0.037845887 0.116259344 -0.07705694 -0.11290492
000230 b4 c1 b7 3d 4f 20 0e 3e 72 67 9c 3c 0d e3 58 be
       0.08972493 0.13879512 0.019092295 -0.21180363
000240 2b a5 83 be 57 4b 4c 3e 74 a3 db bb e0 96 3a be
       -0.2571195 0.19950615 -0.0067028347 -0.18221617
000250 f6 69 2a bd c1 8d a1 bd 32 e7 4b bc 0f d1 06 3d
       -0.04160496 -0.078883655 -0.012445258 0.032914218
000260 ff 40 87 3d 5a 6f 38 3d df 07 51 bd a6 18 0b 3d
       0.06604194 0.045028068 -0.051032897 0.033959053
000270 52 d6 b9 bd ca 11 f2 bc 06 bc 0e 3c f2 20 61 bd
       -0.090740815 -0.029549498 0.0087118205 -0.05496306
000280 9f aa 89 bd 40 10 c4 be 25 3f 6f bd c2 62 80 3b
       -0.067219965 -0.38293648 -0.05840983 0.003918023
000290 52 96 9e bd 06 8f 86 3d 89 8e e4 bc e2 67 94 3b
       -0.07743515 0.06570248 -0.027899997 0.0045289854
0002a0 71 70 60 3c e9 a7 16 be 75 7c 3a bc 99 4c 68 bc
       0.013698683 -0.1471249 -0.011382212 -0.014178419
0002b0 8e e5 44 bc 7d 26 92 bb 8f 8a b6 bd e5 f3 4c 3d
       -0.012017621 -0.0044601546 -0.08913147 0.050037283
0002c0 3f 09 8a bc 95 e4 f7 bd d6 74 38 be 2a 25 55 bc
       -0.016850112 -0.121041454 -0.1801332 -0.013009349
0002d0 8e 4e 85 3d 13 d7 1d 3e 66 81 aa 3b 0e 19 91 bd
       0.06509124 0.15414076 0.005203414 -0.07084857
0002e0 fb db d5 3d 77 51 0b bc 1e 40 7a b9 ac 2d 0f be
       0.104423486 -0.008503309 -0.00023865743 -0.13982266
0002f0 6c 54 ee bc f3 b9 33 3e 5d f2 c9 bd 8a 3a 68 bd
       -0.02909299 0.17551403 -0.0986068 -0.056696452
000300 42 fd 9e be 1f 26 05 3d 64 f1 05 3e 91 c9 8e bc
       -0.31052595 0.03250706 0.13080364 -0.017430099
000310 2c 25 c3 bd 6a 45 17 be 04 70 6d 3d aa 69 0c 3e
       -0.09528574 -0.14772573 0.057968155 0.13712183
000320 c9 b9 91 3b a1 95 94 bc 9e 97 aa ba 40 c9 36 3d
       0.004447196 -0.018137755 -0.0013015156 0.04462552
000330 6a a0 0f bd 58 98 e9 bc 6d 5e 73 bd ac 08 0c 3c
       -0.035065092 -0.028515026 -0.059416223 0.008546989
000340 41 42 82 3d 24 83 09 bd 06 f8 dd bd 04 07 6a be
       0.06360293 -0.03357233 -0.10838322 -0.22854239
000350 b1 22 03 be 5d cb e7 3d d7 e3 03 3d bb a9 84 bd
       -0.12806202 0.11318085 0.032199707 -0.06477686
000360 b2 62 36 be 1a 54 f1 bc 79 aa 02 3d ea 6b 63 3d
       -0.17811087 -0.029459048 0.031900857 0.055522837
000370 b2 18 3b bd fa 7b c0 bc 9b 8a 29 3a b4 9e 21 3d
       -0.04567785 -0.023496617 0.0006467492 0.03945799
000380 b2 2d 1f 3d 3b a8 92 bd 8f 60 c3 bd 07 33 36 3d
       0.038861938 -0.07160994 -0.095399015 0.044482257
000390 aa 00 15 3e 93 a7 2d 3e d0 38 2f bc 62 9d 97 3c
       0.14551035 0.16958456 -0.0106946975 0.018507663
0003a0 15 aa 72 bd 81 3f 13 3e be 17 79 3e 72 7f ac bc
       -0.059244234 0.14379694 0.24325463 -0.021056864
0003b0 8c 44 68 3d 72 cb eb bd 68 15 a4 3b e4 5b 58 3e
       0.056705996 -0.115134135 0.0050074346 0.21128803
0003c0 aa ef ed b9 7a a8 8b 3c 77 b2 e3 bd 21 65 0d 3c
       -0.00045382726 0.01704811 -0.11118024 0.008630068
0003d0 57 cc 17 3e 93 77 ad bd 62 85 b5 bd fa a5 8c bd
       0.14824043 -0.084700726 -0.088633314 -0.06867595
0003e0 6e ac c2 bc 64 68 96 3d a1 a9 57 bd 62 50 f4 3c
       -0.023763862 0.0734413 -0.052652005 0.029823486
0003f0 9d b3 68 3d ff 75 cc 3d 24 0c b9 3d fe e4 93 bc
       0.056811918 0.099834435 0.09035519 -0.018053528

conv2.bias f4 [16]
000000 98 4a 22 be 73 f3 10 be f5 b5 9a bd 6c 09 06 3e
       -0.15848768 -0.14155369 -0.07554237 0.13089532
000010 ad 63 af 3d 79 8b 64 3c f6 5c 88 3c 38 70 4f bd
       0.085639335 0.0139492685 0.01664589 -0.05064413
000020 73 25 80 be 72 7a ce 3d 86 54 24 be 02 de 92 bc
       -0.2502857 0.10081948 -0.16047868 -0.017928127
000030 04 53 1a be 21 8f 9f bd 3d 6c 2c 3e 36 ba 07 3e
       -0.1507073 -0.077909715 0.16838165 0.13254628

fc1.weight f4 [120, 256]
000000 6d 2e a3 3c e7 d5 27 bd 95 d4 6d 3c f4 c6 d2 3d
       0.019919598 -0.040975478 0.014516016 0.102918535
000010 04 04 48 bd c6 c1 75 3c b9 ad 44 3d 59 08 3b bd
       -0.048831955 0.0149998125 0.048017237 -0.045662258
000020 81 22 f2 3d 3e 01 33 bb f9 b4 e7 bd a4 89 fb bb
       0.11822987 -0.0027313973 -0.11313815 -0.00767632
000030 bd a4 16 be fe 2d c4 bd 4a 92 98 3c 52 14 20 3e
       -0.1471128 -0.09579085 0.018624444 0.15632752
000040 74 21 16 bd 41 69 25 bd dc 46 2a 3d 4d e2 f0 bd
       -0.036652997 -0.04038358 0.041571483 -0.117619134
000050 dd e4 85 bd 38 94 a5 bc 6e 58 14 be 1a de 1d be
       -0.06537793 -0.020212278 -0.14486858 -0.15416756
000060 0c 55 c3 3d b0 47 ec 3d c8 d4 50 be 02 c3 3b 3d
       0.09537706 0.11537111 -0.2039367 0.04584027
000070 5b e6 8b bd 5a 60 8c 3c ca 22 0b 3d 9d fc e6 3d
       -0.06831046 0.017135788 0.033968724 0.11278651
000080 43 a6 36 bc 41 b2 5a bd bb 81 f8 3b 19 a5 55 bd
       -0.011148038 -0.053392652 0.0075838245 -0.052159403
000090 5d 9e 4c 3d 28 56 cf 3d 33 a3 0c 3e e3 c4 3f 3d
       0.049955714 0.10123855 0.1373413 0.046818625
0000a0 74 57 20 bd f2 5f 51 3c 54 b2 b0 3d 8f ee a9 3d
       -0.0391459 0.012779223 0.086277634 0.082974546
0000b0 26 e9 8f bd 13 76 a3 bd be 2d cc 3d 62 58 e0 3d
       -0.070268914 -0.07981505 0.09969662 0.10954358
0000c0 40 14 d6 bd 35 3a 35 3e 96 7f 15 3e d7 09 e0 3c
       -0.10453081 0.17697985 0.14599451 0.027348442
0000d0 fb ed 08 bd 47 c5 d1 3c 18 85 06 bd 03 81 1c bd
       -0.03343008 0.025606764 -0.03284177 -0.038208973
0000e0 0b b4 4e bd fd 20 4a be f7 56 8f bd d6 90 0a 3e
       -0.05046467 -0.19739147 -0.06999009 0.13531813
0000f0 97 ff a7 bc 19 5c 8d bd d1 ca 17 be 5f 74 af bd
       -0.020507617 -0.06902332 -0.14823462 -0.08567118
000100 d5 0b a4 bd c9 2e 0a 3d da be fa 3d 8e e0 3c 3e
       -0.08010069 0.033736024 0.12243433 0.18445036
000110 11 9c 4a bc 06 dc d1 bd 8d b9 87 3d 86 fc c8 3b
       -0.012366311 -0.10247044 0.06627188 0.0061336188
000120 6b 43 5c 3d 81 34 63 bd 58 60 ff 3c dd fd 51 3b
       0.053775232 -0.055469994 0.03117387 0.0032042183
000130 72 c4 7c 3d 32 66 09 3e d7 30 78 3d 02 56 10 be
       0.061710782 0.1341789 0.060593452 -0.1409531
000140 38 63 16 be 05 e4 1f be 02 80 44 bc af 34 a7 3c
       -0.14686286 -0.15614326 -0.01199341 0.020410864
000150 93 42 ab bd a5 30 68 be 5d 7e 8c be e8 56 20 bd
       -0.083623074 -0.22674806 -0.27440158 -0.03914538
000160 26 17 8b 3c bd af 51 be 91 1e 36 bc 78 e9 d1 3c
       0.016978811 -0.20477195 -0.011115686 0.025624022
000170 bc 0c 07 be 66 b6 9d bd 60 c3 01 3e cc 49 32 3e
       -0.13188452 -0.07700805 0.12672186 0.17410964
000180 12 dc ca 3d d7 bf 92 3d 32 35 59 bd cc 67 a5 bc
       0.09905256 0.07165497 -0.053029247 -0.020191096
000190 58 e4 02 bd 3b 87 7d bc d8 69 4a 3e 00 3b 9f bd
       -0.031956047 -0.015474136 0.19766939 -0.07774925
0001a0 d2 ef 18 bd e6 18 86 bc a8 42 cd 3d 07 45 fc bb
       -0.037338085 -0.016369294 0.10022479 -0.0076986584
0001b0 4d 22 b3 3d 2a d5 32 bc d3 37 5c bb 93 5f bc 3a
       0.08746777 -0.01091508 -0.003360261 0.0014371745
0001c0 e8 d6 18 bd 8d 25 da 3c f5 b0 06 3e b1 08 04 3e
       -0.037314326 0.026629234 0.13153441 0.1289394
0001d0 64 af 97 3d 4b ea 6c 3c 3e 37 26 bd d0 33 39 3c
       0.074065 0.014460157 -0.040580027 0.011303857
0001e0 49 dc 98 bd 9c 31 80 3d cd 5a 82 3d a0 1c 22 3c
       -0.07463891 0.06259462 0.06364975 0.00989452
0001f0 5a b9 ca 3d ad 0c 07 3e 0a 4e 50 bc f9 6b 90 be
       0.09898634 0.13188429 -0.012713918 -0.28207377
000200 14 36 30 be e8 39 53 3d 2f 8e fe 3d cb c6 ba 3d
       -0.17208129 0.051568896 0.12429463 0.09119948
000210 f2 48 1c bd 60 d2 21 3d 5d 00 86 bd b6 80 03 3e
       -0.038155504 0.03950727 -0.06543038 0.12842068
000220 18 f2 7b bb e1 48 69 bd e4 9f 1e 3c c2 bf 74 bb
       -0.003844386 -0.05695427 0.009681676 -0.0037345742
000230 b2 f5 14 3d b7 0b 17 3d 39 f2 1b bc 46 14 e9 bd
       0.036367126 0.036876407 -0.0095182 -0.1138082
000240 ea 03 78 bd a2 85 d9 3d 77 30 9f bb 77 b3 51 bc
       -0.060550608 0.106211916 -0.0048580724 -0.012799135
000250 51 90 b7 3d b0 1e 9c bd 78 81 98 bd f8 16 a2 3c
       0.08963073 -0.07623041 -0.07446569 0.019786343
000260 e5 b5 ac bd 16 61 90 3d 64 4b e6 3d dd dc 23 bd
       -0.08433131 0.07049768 0.11244848 -0.040005554
000270 87 e3 13 3d f8 0b c6 3d 2f a1 08 bc 62 0e f9 3c
       0.03610566 0.096702516 -0.00833921 0.030402366
000280 7c b0 13 3e 5d 7e cd 3d c7 9d c9 bb b1 91 c8 bc
       0.14422792 0.100338675 -0.0061528417 -0.024483534
000290 6c e9 ff bd b7 1d 36 bd 2d c7 b1 3d 88 ee 50 3d
       -0.124956936 -0.044461932 0.08680568 0.05100873
0002a0 5e 2e 05 3d 69 f0 aa 3d de 9e 6b bd a4 df 7e 3c
       0.032514922 0.08346636 -0.057524554 0.01555625
0002b0 93 90 ec bc e9 6d ea bd a1 ff 9a 3d 7a 4c d3 3d
       -0.028877532 -0.11446745 0.075682886 0.10317321
0002c0 c4 42 0d 3e f3 dc fd 3d 6b cd f2 3d b6 2a f2 bc
       0.13795 0.12395658 0.118555866 -0.029561382
0002d0 9f 58 e3 3d 36 78 8f bd 5d 98 24 3e 8e 33 31 bd
       0.111008875 -0.0700535 0.16073747 -0.043262057
0002e0 71 93 76 bd f9 13 1a ba f2 54 ed 3c 0e 53 1d 3d
       -0.060199205 -0.000587761 0.02897117 0.038409285
0002f0 6d 09 8d bd 4b b1 eb 3c c3 d9 25 bc c6 b3 0b bd
       -0.068865635 0.028771063 -0.010122719 -0.034106992
000300 17 20 5e bd 02 40 54 3d 39 e4 00 3e 23 4c 67 3d
       -0.054229822 0.051818855 0.1258706 0.056469094
000310 4b 57 8d 3d 1e 7c c9 bd 41 b0 0d bd c0 ad 39 3d
       0.069014154 -0.098381266 -0.034591917 0.045331717
000320 a4 e6 dd bd 9d 9d 25 3d 90 2e b3 3d 8a d8 5e bd
       -0.10835007 0.040433515 0.087491155 -0.054405726
000330 54 88 82 3d 79 67 7e 3d 73 ca 6f bd 4b fc 06 bd
       0.06373659 0.062110398 -0.05854268 -0.03295545
000340 60 f6 2f bd f3 45 cd bd f4 40 0a 3d 3c e1 31 bb
       -0.04295957 -0.100231074 0.03375335 -0.0027142307
000350 83 7b 58 3d cf fe 13 bc 40 64 27 3e 82 18 31 bd
       0.052852165 -0.009032919 0.16346836 -0.043236263
000360 91 85 10 bd eb 8d 0b be 87 b3 04 bd 35 62 f4 bc
       -0.03528363 -0.13628356 -0.032397773 -0.029831985
000370 37 bc 15 be 75 5a 2e be 34 09 c2 3c da 7b 87 3e
       -0.1462258 -0.17026694 0.023686029 0.2646168
000380 4e 99 96 3d ac 0f ac 3d 04 82 80 3c 10 90 86 bd
       0.07353459 0.08401427 0.015686996 -0.065704465
000390 1d 43 0b bb 0d 40 7f 3d 5f 39 41 bd 38 cd 53 bc
       -0.002124972 0.062316943 -0.047173854 -0.012927346
0003a0 31 c2 89 3d 8c d4 45 3a 7c 58 a0 be 3b 2c c6 bc
       0.06726492 0.00075466256 -0.31317508 -0.024191013
0003b0 32 ab bc bc 92 53 c5 bd b2 84 2a 3d ec 04 48 3e
       -0.023030851 -0.096350804 0.041630454 0.19533128
0003c0 f2 0c 45 bd b5 f8 27 bd c8 f8 91 3c e3 bb 10 3e
       -0.04810805 -0.04100867 0.017818823 0.14134173
0003d0 71 29 8e bd 54 52 e9 bd f4 3e ec bd 0d 8c e0 3d
       -0.06941498 -0.11392656 -0.11535445 0.109642126
0003e0 bd 61 5c bd 5f d2 87 bc 17 be b2 bd 67 56 a4 bd
       -0.053804148 -0.016579805 -0.08727663 -0.080242924
0003f0 62 0e 13 bd e7 e1 95 bc cc e6 f5 3c ab 6c 4a be
       -0.03590239 -0.018296195 0.03001728 -0.19768016

fc1.bias f4 [120]
000000 26 20 0e 3e 54 90 03 bc 1b c9 fa 3d 20 ca 99 3d
       0.13879451 -0.008030016 0.12245389 0.075092554
000010 ee c3 7a 3c a1 5d 0c 3d f4 d2 d8 3d fc 35 f4 3b
       0.015305502 0.03426898 0.10587111 0.0074527245
000020 b8 f8 d6 bc 56 87 84 bd 66 47 1a ba 44 2a 4a 3d
       -0.026241645 -0.06471126 -0.0005885273 0.049356714
000030 22 3a 8c bc 66 69 e6 bc a4 e8 b4 3b 96 c9 c9 bc
       -0.017117564 -0.02812643 0.005520897 -0.024632256
000040 29 6c 03 3d 78 c3 b6 3d 1a f0 90 3c 94 7b b3 bd
       0.03208557 0.089240015 0.017692614 -0.08763805
000050 eb ee 4a 3d 86 46 cf bd a5 f3 ad bc 8b 20 14 3e
       0.049544256 -0.10120873 -0.021234343 0.14465539
000060 a2 20 da 3c 9f 0c 71 bd 4b 7e ee bd 61 ff 0d bd
       0.026626889 -0.058849927 -0.11645182 -0.034667376
000070 d2 b3 81 bc 25 14 d9 3c ff cd ec 3d 67 f1 3e bb
       -0.015832815 0.026498863 0.11562728 -0.0029135586
000080 62 77 9f bd de 84 03 bd 1d fe 80 3d fe 92 03 3d
       -0.07786442 -0.032109134 0.06298468 0.032122605
000090 8b 47 e8 3d 3a 59 52 bd 1b 51 6e 3d 0c 8a d8 bb
       0.11341771 -0.051354624 0.058182817 -0.0066082533
0000a0 ab 71 d2 3d 28 ed 0e 3e 42 1f 9c bd a9 15 83 3d
       0.10275587 0.13957655 -0.076231495 0.06400616
0000b0 69 ea 1f 3d 53 b7 9d bd cc c0 ec 3c d9 78 e8 bd
       0.03904191 -0.07700982 0.028900526 -0.11351175
0000c0 b4 78 c5 bb 3b d7 78 bc ce bc 19 3e d4 28 43 bd
       -0.006026352 -0.015188034 0.1501343 -0.04764636
0000d0 78 68 c2 bb 40 5f 97 bd f2 5b a6 3b 20 6b 18 3c
       -0.005932864 -0.07391214 0.0050768787 0.009302884
0000e0 32 a7 d9 bd e7 f6 9a ba b0 92 1d 3d 8d 19 58 bd
       -0.10627593 -0.001182285 0.03846997 -0.052758742
0000f0 23 af 16 3a 28 b4 cf bc 6f 3c c2 bc 3a 98 2b bd
       0.00057481433 -0.02535446 -0.023710458 -0.04189322
000100 df df 9a 3b e9 b4 c7 bb d0 fe 54 bc 20 59 a7 bd
       0.0047263945 -0.006094564 -0.013000205 -0.08171296
000110 2c 5f c1 bd 5a 2f 0b 3c 7f 94 38 bc 9c 07 54 bd
       -0.09441981 0.008495176 -0.011265873 -0.05176507
000120 0b b9 be bc b3 d3 81 3d ff 8c ca 3d 1f 6a 1c 3d
       -0.023281595 0.063392065 0.09890174 0.038187142
000130 4b 5a 09 3e 36 f8 c2 bb 86 ce a2 bd cd d5 4d 3d
       0.1341335 -0.005949999 -0.079495475 0.050252724
000140 e7 2c cc bc a2 61 81 bd b4 9e 14 bd fa b8 30 3e
       -0.024923755 -0.0631745 -0.036284164 0.17258063
000150 1c b9 08 3d 2d 47 05 bd 94 20 dc bc 36 a4 46 3d
       0.03337966 -0.03253858 -0.026871003 0.048496448
000160 6a ab dc 3c b2 28 8a ba 4e b7 b2 3c 52 29 33 3d
       0.026937205 -0.0010540693 0.021815922 0.043740578
000170 31 df ee 3d 4e 62 0e 3d b7 cf 7a 3c a9 fb 98 bd
       0.11663664 0.03476172 0.015308312 -0.07469875
000180 07 b5 92 bd 3a 4e 77 bd c2 06 26 3c 31 a6 45 bc
       -0.071634345 -0.060377337 0.010133447 -0.012063549
000190 5c 2a 86 bd 8b 0f 8f 3c c5 88 e9 bb be a3 2e 3d
       -0.06551048 0.017463466 -0.0071269 0.042636625
0001a0 cd 7b 5b 3b 30 72 a9 bd d6 41 56 bb 65 6b 1f bc
       0.003349054 -0.08273733 -0.003269305 -0.009730195
0001b0 b3 eb 94 3c a4 4e ab bc 1e 09 f9 3c 33 5b cf 3c
       0.018178796 -0.020911522 0.030399855 0.025312042
0001c0 01 70 3f bd 2c 3c b2 3d ba 3b 88 3c 88 d0 9e 3a
       -0.046737675 0.08702883 0.016630042 0.001211659
0001d0 31 41 e2 bc 8e f6 27 bd 74 01 8f 3d 82 94 3f bd
       -0.027618976 -0.041006617 0.06982699 -0.046772487

fc2.weight f4 [84, 120]
000000 76 52 38 3c dc 49 9e bc ca b7 23 3d 4c 06 86 3d
       0.011250129 -0.019322328 0.039970197 0.0654417
000010 70 0b 5b be d2 7c 16 3e f5 97 25 3e f1 51 1b bd
       -0.21391082 0.14696053 0.16171248 -0.037919942
000020 5d 95 0c bd b1 42 34 bd c2 28 8a bc 31 23 69 3c
       -0.03432213 -0.044008914 -0.016865138 0.014229582
000030 9a 0f 3a 3a 02 aa 93 3d 3a ab ac bd fe ca a5 bd
       0.0007097662 0.07210161 -0.084310964 -0.08095358
000040 60 dd 32 be 58 69 78 bc d5 0c c2 bd f3 0c e8 bc
       -0.1746726 -0.015161835 -0.09475104 -0.028326487
000050 c9 c8 08 3c 08 39 0d 3e 89 9c 1e 3d 83 83 75 3c
       0.008348652 0.13791287 0.038723502 0.014984968
000060 02 6b ba bc bf 15 8e bd 80 c0 ca 3d 43 70 68 3d
       -0.022756103 -0.069377415 0.09899998 0.056747686
000070 58 37 d9 bc d1 1f bb b9 a3 20 0d 3e 79 3d 0b 3d
       -0.026515648 -0.00035691125 0.13781981 0.03399417
000080 fc d7 9e 3c df f2 b1 bd 37 02 80 bd af 8b 87 bd
       0.019390099 -0.08688902 -0.062504224 -0.066184394
000090 a4 aa 10 be b5 28 81 bc 21 d8 55 3c de f6 8b 3d
       -0.14127594 -0.015766481 0.013052017 0.068341956
0000a0 42 00 97 3d 5f 23 1b 3e 8e 16 2c 3d 51 c2 65 3d
       0.07373096 0.15150212 0.042013697 0.056093518
0000b0 b5 15 45 bd ef 5c d2 ba bb b1 76 3d 4b 75 47 bd
       -0.048116405 -0.0016049425 0.06022809 -0.048695844
0000c0 b6 95 58 bd 28 63 57 3d 26 97 66 bd 2e c7 db be
       -0.05287715 0.052584797 -0.05629649 -0.429254
0000d0 ce 54 94 3c 5c e9 79 3d 78 ed 8f bd 93 a9 34 3d
       0.018106844 0.061013564 -0.070277154 0.04410703
0000e0 b2 ed b6 3d 29 dc 1e be e4 19 1a be 6f fb ad bd
       0.089320555 -0.15513672 -0.15048939 -0.08495223
0000f0 f0 41 88 bd a2 14 8e bd 3b 67 39 3e 26 26 4d 3d
       -0.066532016 -0.06937529 0.18105786 0.05008521
000100 a9 f6 f7 bd 64 ed 01 3d 28 e0 38 bc a8 39 ca bc
       -0.121075936 0.031720534 -0.011283912 -0.024685696
000110 78 08 15 3d 45 ec aa 3d e3 e3 5e 3d 84 fe 3e bd
       0.03638503 0.08345846 0.05441655 -0.046629444
000120 9b 39 5a bd e7 f3 de bd 6f cb 63 3e 3b 46 0b 3e
       -0.053277593 -0.108863644 0.22245573 0.1360101
000130 b4 df e1 3d 18 18 94 3d 82 bf 98 3d 15 59 07 3d
       0.11028996 0.07231158 0.07458402 0.03304394
000140 fa 30 f7 3c 89 df ab 3d 33 f2 0f 3e 94 b2 dd 3d
       0.030174721 0.08392245 0.14057235 0.10825077
000150 49 a5 97 bc 56 f8 b9 bd 4c fe bd bd ce 74 0a 3e
       -0.018511431 -0.090805694 -0.09277019 0.1352112
000160 f8 43 88 3d 7a 51 21 3d 72 76 4f 3c 79 e8 30 be
       0.06653589 0.039384343 0.012662517 -0.17276181
000170 5c 1a 15 bb 01 ea a4 3d 4b 9a 14 3d 4c db ef 3c
       -0.0022751307 0.08052445 0.036279958 0.029279374
000180 ae 54 cb bb ec e5 dd 3b 55 5a 0b bd ce d4 8e 3d
       -0.006205163 0.0067717936 -0.034021694 0.06974183
000190 1f 5c 4e bd dd ae 99 bc d0 d2 12 3c 5c 3f 00 be
       -0.050380822 -0.01876014 0.008961394 -0.1252417
0001a0 91 ab 96 bc 59 cc 98 3c 11 6b 27 3d c5 52 a7 bc
       -0.018392356 0.018652128 0.04087359 -0.02042521
0001b0 2a 4f 15 3c 87 ab 40 3d 94 3c 18 3d 61 da 8c bd
       0.009113112 0.04703858 0.037167147 -0.0687759
0001c0 80 fe eb 3d 8b 5b 45 37 3a 62 fe 3c 12 73 08 bc
       0.115231514 1.1763429e-05 0.031052697 -0.008328216
0001d0 8a 28 be 3c 74 37 fa 3d c6 d5 70 3d 36 d0 d4 bc
       0.02321269 0.12217608 0.05879762 -0.025978189
0001e0 72 d9 84 3d aa dd 96 3d 0f 58 7c bc 83 e3 89 3d
       0.06486787 0.07366498 -0.015401854 0.067328475
0001f0 59 a8 0e 3e c6 8d ab bd 4f e1 06 bd 2d 43 87 3d
       0.13931407 -0.083766505 -0.032929715 0.0660461
000200 c8 f8 8a bd 2b 80 2d be ca 6d 9a 3d 64 54 35 be
       -0.067857325 -0.16943423 0.07540472 -0.17707974
000210 67 31 d8 3d b3 3a dc 3d 5f 50 df 3d e4 3d 7c 3c
       0.10556298 0.107533835 0.109040014 0.015395615
000220 20 aa b7 3d 7b a7 9f bd 44 09 41 3d 5c c7 96 3c
       0.08967996 -0.07795616 0.047127977 0.018405609
000230 70 ee 3c 3e 7e dc 5c be b8 32 4f bd 5c 87 a4 3d
       0.18450332 -0.21568486 -0.05058548 0.0803363
000240 b0 fa 2d bd b8 d4 f2 3a db ca bb 3c b7 85 07 bd
       -0.042475402 0.001852653 0.022923877 -0.033086505
000250 40 5c f5 bc a9 52 ba bd 33 df fe 3d bf 6e b6 bc
       -0.029951215 -0.090977974 0.124449156 -0.022269605
000260 51 5a e8 bb 89 84 ee bd 3f 88 f4 3d 65 65 07 bd
       -0.0070908447 -0.11646373 0.119400494 -0.03305568
000270 da 8e 22 3c cb 3c 6e bd 7b bd 6e bd a7 48 34 3d
       0.009921754 -0.058163445 -0.05828617 0.0440146
000280 a7 06 8c bd 68 6b 78 3d 65 04 e5 bc e0 e9 b4 be
       -0.06837206 0.060649306 -0.027956197 -0.35334682
000290 5c 64 35 bd 4a 46 eb 3d 30 95 ea 3d 76 3a 04 3d
       -0.044285163 0.11488016 0.114542365 0.032282315
0002a0 17 dc 22 3b 72 e0 49 bd 5a e2 95 3c 76 3d ee 3d
       0.0024850422 -0.049286313 0.01829641 0.116328165
0002b0 ff 37 f1 3d 6a 26 b2 3c 07 c4 04 3e b9 0b 0c bd
       0.117782585 0.021746833 0.12965403 -0.034190867
0002c0 9d 66 39 be 70 37 65 bd 6a fc 49 bd f9 93 6c 3c
       -0.1810555 -0.055961072 -0.049312986 0.014439576
0002d0 c3 29 c4 3d d9 aa 04 bd b0 1e 01 3b 6a c5 51 3e
       0.09578278 -0.032389496 0.001970213 0.20485464
0002e0 38 86 12 3d 11 a6 c7 bc c0 6f b5 3d d7 fb dc 3c
       0.035772532 -0.024371179 0.08859205 0.026975555
0002f0 3c e6 c5 3d 55 db 9a 3d 0d 21 9c 3d 1b b0 86 bc
       0.09663054 0.075613655 0.076234914 -0.016441396
000300 35 27 1b 3e dd e9 f4 3b d0 e1 1f be 68 22 a5 be
       0.15151675 0.0074741677 -0.15613484 -0.32252812
000310 02 19 08 be 28 0a dd bd ed 87 96 bd 71 78 fc 3d
       -0.1329079 -0.10792953 -0.073501445 0.1232766
000320 3e be 83 bd 64 ee 28 3d f1 78 82 bd 05 35 9a be
       -0.0643277 0.041242972 -0.06370724 -0.30118576
000330 b6 d1 e8 3d ce 6c ab 3b 0a bf 82 bd a5 27 ad 3d
       0.11368124 0.0052314764 -0.06384094 0.08454827
000340 bf 0f 49 bd 7e 3d c4 3d 42 e3 da 3d de 7b ac 3d
       -0.049087282 0.09582041 0.10687877 0.08422063
000350 a8 23 e4 bc f0 41 84 bd 25 b1 3b ba ef 56 41 be
       -0.027849033 -0.06457889 -0.00071598805 -0.18880819
000360 88 f9 93 3d a5 10 82 bd b6 d5 54 3c 4e e7 ec bc
       0.07225329 -0.06350831 0.012990406 -0.028918888
000370 8e c4 59 3c 95 5e cc 3b 4d d7 a3 3c eb 94 d3 3d
       0.013291491 0.006236861 0.020000124 0.10331138
000380 09 e8 84 bb 2a 9a 3a 3d 2f 85 c1 3c 78 75 55 bd
       -0.004055981 0.04555718 0.023623077 -0.05211398
000390 a3 0a 41 bd 83 60 4a bd 78 cc 70 3d 6e 69 b3 bd
       -0.047129285 -0.049408447 0.058788747 -0.087603435
0003a0 34 1e 3e bd 04 73 b7 3d 59 66 a4 3d 9f 15 07 3c
       -0.046415523 0.08957484 0.08027334 0.008244901
0003b0 a7 a1 ce 3d ed 20 10 be 46 16 79 3d 82 16 a7 bd
       0.100894265 -0.1407506 0.060812257 -0.0815859
0003c0 aa 87 f9 3d ec 7f 2f bd 45 69 b4 3d 6e 0d 54 be
       0.12184079 -0.042846605 0.08809141 -0.20708248
0003d0 24 34 96 bd e8 64 b1 bc 05 04 4c 3d a0 a6 3c 3e
       -0.07334164 -0.021654561 0.04980852 0.18422937
0003e0 02 3e 6f 3d 56 55 97 3d c9 2c 99 bd 4d 3a df bc
       0.058408745 0.073893234 -0.07479245 -0.02724948
0003f0 bc 4c a2 bc 96 db 08 3d fe 34 fe bd 6a 02 12 bd
       -0.01981198 0.03341254 -0.12412451 -0.035646833

fc2.bias f4 [84]
000000 74 c0 8e 3d a3 28 ac 3c 01 30 60 bd 96 d8 51 3d
       0.06970301 0.02101547 -0.05473328 0.051231943
000010 1c f1 93 3d 0f f2 3c 3e 00 2a 8b bd fa 44 87 bd
       0.07223722 0.18451713 -0.0679512 -0.06604953
000020 43 c9 09 be 41 bc c2 3c 6f 3a d0 3d 68 7a 75 bd
       -0.13455682 0.023771407 0.10167395 -0.05993119
000030 c6 57 83 3d 79 22 01 3d 43 a9 bf 3d d5 fe 54 3d
       0.06413226 0.031527016 0.09358456 0.05200084
000040 ca 0c 92 39 be 4f ce bd 9c 21 12 3e 5c 5a bc bd
       0.0002785682 -0.10073803 0.14270633 -0.09196922
000050 1b 12 20 3d 1e f7 bb bd 8e fe 0d be a4 f7 f3 3c
       0.039079767 -0.09177993 -0.13866636 0.02978117
000060 48 23 9d 3c 79 a5 b4 bd f6 32 21 3e 6b 7e 18 3e
       0.019181862 -0.08820624 0.15742096 0.14891975
000070 57 d8 1a 3e ef 34 ac 3c db 70 d3 bb 35 a1 0b be
       0.1512159 0.021021334 -0.0064526624 -0.13635714
000080 c7 ba 10 3e 28 38 9c 3d ac a6 43 bc c0 7b cc bc
       0.1413375 0.076278985 -0.011941593 -0.024961352
000090 ee e4 e7 3d 82 ef 78 3d bd 09 d3 3c 74 0a be bd
       0.11322962 0.060775287 0.02576148 -0.092793375
0000a0 93 6f 2d 3c 91 d5 36 bd 4d 73 75 3d bd 9e 12 3e
       0.010585683 -0.044637267 0.059924413 0.14318366
0000b0 b8 5e 65 3d 0f b0 0c bd c2 f1 84 bd 0d 4f bb bd
       0.055998534 -0.03434759 -0.06491424 -0.09145937
0000c0 de c1 c2 3d 19 c1 b6 bc 2f ef 6c bd 9a 5f dc 3b
       0.095096335 -0.022308873 -0.05784529 0.006725264
0000d0 a3 f6 32 3d e2 5c 19 bc f4 de 0c 3e e8 dd 98 3c
       0.043692242 -0.009360524 0.13756925 0.0186605
0000e0 37 a9 9f bc 51 4c a7 bd 85 b7 fb 3b e7 8f 13 3d
       -0.019489868 -0.08168853 0.0076817893 0.036025908
0000f0 04 ad 2a 3b 6b 3e c8 3d a5 c6 a9 3d 43 c3 4a 3d
       0.0026043067 0.0977753 0.082898416 0.049502622
000100 17 f5 05 3d 77 76 59 bb 0e f4 b4 bd bf 77 3a bd
       0.03270444 -0.0033182183 -0.08835612 -0.045524355
000110 28 3d 07 bc 8f 7e 49 bd dd e8 be bd 6e 84 56 bd
       -0.008254327 -0.04919296 -0.09321759 -0.05237239
000120 1d 03 fa 3d a6 8c c7 3c 4f 74 10 3c 56 62 a4 bd
       0.12207625 0.024359059 0.008816793 -0.080265686
000130 d7 ad e4 3d 9e 29 da bc 0a b2 ac bd 4e 7f 86 3d
       0.1116597 -0.026631173 -0.08432396 0.0656725
000140 f4 6a 5f 3d de 39 c2 3a b2 f1 a1 bc f1 b3 bd bc
       0.054545358 0.0014818271 -0.01976857 -0.023157092

fc3.weight f4 [10, 84]
000000 2b 2a ba 3d 64 58 d8 be c5 a0 bb bd b8 a5 2b be
       0.09090074 -0.42254937 -0.09161524 -0.16762435
000010 a5 34 56 3c 34 33 96 bd fd f6 58 be 57 fd e0 bd
       0.013074075 -0.07333985 -0.21187969 -0.10985821
000020 f2 dc df 3c 10 92 43 3e 80 c3 dc bd e2 52 85 be
       0.027327035 0.19098687 -0.10779476 -0.26039797
000030 42 5e ef 3d a6 79 b7 bd d3 6e cf 3d 14 5e 90 be
       0.116879 -0.089587495 0.1012856 -0.28196776
000040 68 e1 cb bd 94 90 4d bd 80 ed e6 3b dc ea 3f 3e
       -0.09955102 -0.05018671 0.007047355 0.18741935
000050 a9 7f a5 3d cb 93 05 3e e2 3a ce bd d0 c3 b9 3b
       0.0808099 0.1304466 -0.10069825 0.0056690946
000060 42 d0 0d 3d 87 74 87 bd 65 e2 54 bc 17 76 b0 3d
       0.03462244 -0.06614023 -0.01299343 0.08616274
000070 2c 87 c2 bd e5 99 ba bd b0 94 8b be f5 3d 2b 3e
       -0.09498438 -0.09111384 -0.27261877 0.16722853
000080 91 64 1d bd 5a cc 8f 3d 2b bc a1 bd 42 74 bb bd
       -0.038425986 0.07021399 -0.07897218 -0.09153034
000090 49 79 ca 3c 78 1d 54 3c 90 a3 66 3d bd c4 ce bc
       0.024716036 0.012946479 0.05630833 -0.025240296
0000a0 34 eb 77 be a3 7d 68 be 66 02 93 bd 23 e7 e2 3d
       -0.24210817 -0.22704177 -0.07178192 0.11079242
0000b0 24 5e a7 3d 8b e6 2f bd 8d 3e b5 bc 59 cb 6b bd
       0.08172253 -0.042944472 -0.022124553 -0.057566974
0000c0 1f 79 cf 3d 00 76 bb 3d 8b 35 9e 3d d6 c1 6b ba
       0.10130524 0.09153366 0.07725056 -0.00089934224
0000d0 ac 24 be 3d ab 78 57 be 18 ed ee 3c 86 5c 9c 3c
       0.09284338 -0.21042125 0.02916579 0.019087087
0000e0 61 f5 81 3d 0e 65 79 bc 08 22 0f 3e b7 bb b6 3d
       0.063456304 -0.015221847 0.13977826 0.089225225
0000f0 52 e9 1e 3e cc 2f e8 bd 21 ec 92 bd df 80 a3 3d
       0.15518692 -0.113372415 -0.07173944 0.079835646
000100 39 e1 ee bd 1a 49 93 bd 31 3a b5 bc f5 0a 1d be
       -0.116640516 -0.071916774 -0.022122474 -0.15336211
000110 fa dc d3 be ea a0 96 be 66 3e 6b 3d 4d 1d 72 be
       -0.4137953 -0.29419643 0.057432555 -0.2364399
000120 d1 71 9c 3d 13 1c 8b 3d 83 bc 86 3d 3c 8a 5d bd
       0.07638896 0.06792464 0.065789245 -0.05408691
000130 4c 33 a0 be d9 1a 60 bd 16 e6 02 3e 1a e5 21 3d
       -0.31289136 -0.054713104 0.12783083 0.03952513
000140 a2 73 e0 bc f1 68 f6 bb 69 06 18 3e 83 d6 ef bd
       -0.027398888 -0.007519834 0.14846195 -0.11710837
000150 73 12 70 bd 41 cc 0f bd 3d df 6a 3d 3e 58 ac bd
       -0.058611345 -0.0351069 0.057341803 -0.08415268
000160 6b 00 d0 bd fe 5c 15 3e 35 87 9e be f2 4b 0f be
       -0.1015633 0.14586255 -0.3096253 -0.13993815
000170 81 12 9e 3d 5f a4 df be 2b 91 c2 3c a8 fd 4f 3d
       0.07718373 -0.43680093 0.023750862 0.050779015
000180 2e ec 18 3c 25 39 35 bd a7 bc 0b be 61 dc e3 3d
       0.009333653 -0.04424395 -0.13646184 0.11126018
000190 7a ee 2b be 4f e5 38 3d 5d be 41 3d 3f c8 43 bd
       -0.1679019 0.04514056 0.047300685 -0.04779839
0001a0 d4 1f 12 be 19 fa 2d bc 22 a7 ec bd 7a d9 09 3e
       -0.14269954 -0.01061871 -0.115553156 0.13461867
0001b0 26 24 88 be 72 a5 bb 3c 83 03 49 3e 68 cb 10 3e
       -0.2659008 0.022906039 0.19630246 0.14140093
0001c0 12 af 28 be 96 90 8d bd 13 11 82 bc b0 39 1d be
       -0.16473034 -0.06912343 -0.015877282 -0.15354037
0001d0 74 72 55 be 45 3f 83 bd 63 c6 3f bd 76 f6 2c be
       -0.20844442 -0.06408552 -0.046820056 -0.16890892
0001e0 29 4d 08 be 09 ac 23 be c6 fa 34 be 0a ce 68 be
       -0.13310684 -0.15983595 -0.17673787 -0.22734848
0001f0 83 91 8a bd 0f b9 e1 3d f3 9f 11 3e 49 de d0 3d
       -0.067660354 0.11021625 0.14221172 0.101986475
000200 da 23 f8 3c 99 85 7e bc bb 77 bb bd 04 cd af bd
       0.030290533 -0.015534782 -0.09153696 -0.085840255
000210 9b f3 91 3d 09 1b 12 be 85 5b 0e 3c aa 73 d1 bd
       0.07126542 -0.14268126 0.008688812 -0.10227139
000220 62 dc 26 be 85 26 d4 bd 8b 66 d4 bd f5 8c 36 3e
       -0.16295007 -0.103589095 -0.10371121 0.17827208
000230 ff cc 52 be 29 9b bf 3b 64 2a 07 3e 43 e9 85 bd
       -0.20586012 0.005847354 0.13199764 -0.06538632
000240 6c ab 03 3d b6 3c 2a 3e 90 1e 29 3e a6 03 13 be
       0.032145903 0.16624722 0.16515565 -0.1435686
000250 15 19 9a bd 04 c3 ce 3d 6d d7 ea 3c 24 8a de bd
       -0.07524315 0.1009579 0.028667176 -0.10866192
000260 c6 2b 52 be 2a 36 16 3e 11 ae 53 bc e3 49 01 3d
       -0.2052451 0.146691 -0.012919919 0.031564604
000270 d0 3d 89 3c c7 d1 a7 bc f7 20 45 bd 12 00 89 bd
       0.016753107 -0.020485772 -0.04812714 -0.066894665
000280 99 d9 8f 3c 39 56 af 3c e0 60 0e be fc 2b 91 bd
       0.017559813 0.021403419 -0.13904142 -0.070884675
000290 02 85 36 bd 19 5a a4 bc d6 e6 56 be 33 c6 00 be
       -0.04456044 -0.020062493 -0.20986494 -0.12575607
0002a0 5a c5 81 bc cf b2 94 3d 31 b5 bb bd 7a c7 25 be
       -0.015841175 0.072606675 -0.09165419 -0.16189376
0002b0 d2 dc 04 3d 91 33 62 3d 32 b9 5a be ef 09 96 bd
       0.032437153 0.05522496 -0.21359709 -0.073261134
0002c0 92 3a 03 3d 54 2c 30 be e9 e6 22 be 23 17 84 3d
       0.03203828 -0.1720441 -0.15908398 0.064497255
0002d0 9e be 05 3e cf 62 53 bd 6c 2a 8f bc b0 8e 0a 3e
       0.13060996 -0.051607903 -0.017476283 0.13530993
0002e0 7a 04 81 bc 12 e5 cd 3c 6e 1f 18 3d 7f 5c d4 3b
       -0.015749205 0.025133643 0.03713935 0.006480753
0002f0 33 06 c1 ba e9 a9 a8 3d ce 5e 93 bd 74 15 eb 3c
       -0.0014726579 0.08235533 -0.07195817 0.028696753
000300 22 c6 ab 3d 99 c0 a8 bd 6a 80 2c be 93 3b b3 bd
       0.083874 -0.0823986 -0.16845861 -0.08751597
000310 f4 99 5b bd db df df 3c df ec 93 3c dd a7 60 be
       -0.053613618 0.027328422 0.018057285 -0.21939035
000320 b5 7a 8b 3d 02 0d e6 bd 06 93 4d bd 15 8a b2 3d
       0.06810514 -0.1123295 -0.05018904 0.08717743
000330 0f a2 92 be 83 f1 d9 3d 2f 43 09 bd 95 33 04 bd
       -0.28639266 0.10641768 -0.033511337 -0.032275755
000340 1a 39 57 bc 9b e8 27 be bc 28 5f bd 64 7f d3 bd
       -0.013136173 -0.16397326 -0.054482207 -0.10327032
000350 84 2d bb bb 5c 6a b3 3c 84 72 8f 3d 20 57 80 bd
       -0.005712213 0.021901302 0.07004264 -0.06266618
000360 cc 1d 13 3e 5c 1b 88 3d 7e bb 1b bb 58 5b d3 bd
       0.14366835 0.066458434 -0.0023762877 -0.10320157
000370 b7 eb 10 3e f0 bf ce 3b 53 08 b5 bd 11 c4 28 3e
       0.14152418 0.006309502 -0.08839478 0.16481043
000380 73 ea 4d bd fe 95 96 bd 90 09 7a be f2 a4 09 3d
       -0.050272416 -0.073528275 -0.2441771 0.03360457
000390 db 0d 15 3e 85 cf 61 be 4b 92 d4 3b fb 6f 5c be
       0.14556067 -0.22051819 0.006487166 -0.21527092
0003a0 1e 7c 2c 3e 81 fb 03 3d 36 a1 7c 3b 68 8c c8 3c
       0.16844222 0.032222275 0.0038548238 0.024481013
0003b0 52 66 01 bd e9 f2 f2 3c de cb 85 bc 5a dc 37 3e
       -0.03159172 0.029656844 -0.016332563 0.17955151
0003c0 11 0c 64 be 0b 0f 89 3d 49 9a 53 3d d5 b1 8d bc
       -0.22270228 0.06692322 0.05166081 -0.017296711
0003d0 08 7c 15 be 2e 02 ff 3d 0b 89 e9 3d 0a ab 8b be
       -0.14598095 0.124515876 0.11403092 -0.2727893
0003e0 c5 e5 1d 3d 25 40 cc bd 1e a7 0e be 91 bd a3 3c
       0.038549203 -0.09973172 -0.13930938 0.019987853
0003f0 2f e0 0b 3e f3 4f 0d bd f6 f4 bf 3d e3 8c 59 be
       0.13659738 -0.034500074 0.093728945 -0.2124515

fc3.bias f4 [10]
000000 37 d0 6b bd ee cb 20 bd 08 f8 b2 bd 37 84 3d bd
       -0.057571616 -0.039256983 -0.087387145 -0.046268668
000010 05 ef f9 3d 24 da 17 3d fb 97 cd bd ce 83 ba 3d
       0.122037925 0.03707327 -0.100387536 0.09107171
000020 c6 cc fc bc b5 dc a1 3d
       -0.030859362 0.07903425
