models/FGSM-0.5 BasicNet.pt (torch, 180551 bytes, 10 tensors)

conv1.weight f4 [6, 1, 5, 5]
00000000: c7bb c13a f5a9 a3bb 52bb 13b9 bb25 983b
00000010: fd18 913a 19b2 8dba 00ff ddbb 6e49 83bb
00000020: 4db3 6f3b 8ca9 4e3a d2d2 aabb 6f94 3fbc
00000030: 108d 5f3f f47a fd3a 578e 633a fc4b f7ba
00000040: 1091 88bb a5d1 93ba ff9d 8e3a 0381 1e3b
00000050: d481 5c3a a421 f9b9 d96f e4ba 354e 983b
00000060: 76cd 5f3b 9ead 2dba 59f6 29ba 0fad 10bb
00000070: 5193 1ebb c93e e739 c808 24bb 2cb0 42bb
00000080: 9831 95ba 502f 16ba e1f3 cb3a 0cc4 00bb
00000090: f230 9c3b fe87 d43b 3540 303f 82c9 573b
000000a0: 79a0 48bb 1587 413b 30a1 d0bb 31b8 07bb
000000b0: 4f40 523b 3462 3abb c3a4 0bbb f84f 98ba
000000c0: df7a 98bb 3e52 f638 fb6d 383b 088b ae3a
000000d0: ead2 ee39 9aaa f239 4965 17ba ff54 94b9
000000e0: 24de 8bb9 de62 3eba 2671 4e3a 2203 8dba
000000f0: 4fea c0ba 426d 8fb9 fd86 d93a a872 4b3b
00000100: 7e21 3f3b fb44 53bb b1a9 f6b9 11c8 d1ba
00000110: 392f b73f c0c9 7f3b 6410 45bb 0ee8 9aba
00000120: efdb 85bb 27b1 68bb 7d9f 063b d368 49ba
00000130: 2a5f 503a 2583 823b 652b ad3a 0a65 f43a
00000140: 89c6 013b 93bb 823a 2458 933a 6764 0a3b
00000150: aa8d 253b 3030 9a3a 690f 81bb 6823 c6ba
00000160: 7bd7 d33d 3a92 1339 6823 f338 b9d6 5bbb
00000170: f029 4d3b 5839 ee3a dfd0 8b3a 56d5 443a
00000180: 4cd3 c0b9 007d c23a 0249 d83a 0209 18ba
00000190: 944d 013b 87eb c5bb f31b d53a c83c 743b
000001a0: a2ef 6b3b bad5 e43a b5a2 91bb 6ff2 103f
000001b0: 7472 2e3c 1a6f 94b8 bcb9 16bb f1c5 68bc
000001c0: c8d2 70bb e2f7 97b9 d3f9 82bb f9d9 3f3a
000001d0: 5d61 94bb bd65 ecbb 094f 473a 8a2f a63b
000001e0: fce0 00bb 7063 8ebb 3e11 47bb 38ff d83a
000001f0: 877b a13b 7192 89ba 667f e2ba 0476 cbba
00000200: 6596 8cb9 f21a 34bb 44af 15b9 92bf 66ba
00000210: 89a6 083b d2b2 9ab9 99fe 783a 8cf9 09ba
00000220: caec cb38 f205 1b3b f431 13bb 3b81 47bb
00000230: 380a aa38 7ac2 93b9 18da 573a 0e3d b7bb
00000240: 0839 9a3f 160a 4cba 64b1 13bb 631b 7f3a
00000250: 8699 fbba 103d a0b9
0.0014780693 -0.0049946257 -0.00014088795 0.0046431697 0.0011070069 -0.0010810524 -0.006774783 -0.0040065562
0.0036575377 0.0007883541 -0.00521312 -0.011693104 0.8732462 0.0019339011 0.0008680573 -0.001886725
-0.0041676834 -0.0011277689 0.0010880827 0.0024185784 0.000841168 -0.00047518045 -0.0017428353 0.004647995
0.0034149564 -0.0006625297 -0.0006483547 -0.0022075807 -0.0024196694 0.00044106532 -0.0025029648 -0.0029707057
-0.0011382578 -0.0005729096 0.0015560352 -0.0019648103 0.004766577 0.006485938 0.6884797 0.0032926505
-0.0030613227 0.0029529978 -0.0063668713 -0.0020709152 0.0032081788 -0.0028439881 -0.0021307922 -0.0011620512
-0.0046533193 0.00011745513 0.0028141725 0.0013316581 0.0004555204 0.00046284945 -0.00057752855 -0.00028292087
-0.00026677654 -0.0007262657 0.0007875137 -0.001075838 -0.0014718267 -0.0002735649 0.0016596016 0.0031043682
0.002916425 -0.003223716 -0.00047047206 -0.0016005059 1.4311286 0.0039030164 -0.0030069584 -0.0011818425
-0.004085056 -0.0035505982 0.002054184 -0.00076831615 0.0007948751 0.003982919 0.0013211785 0.0018645835
0.0019802174 0.0009974114 0.0011241478 0.0021116973 0.002526144 0.0011763629 -0.0039386046 -0.0015116753
0.10343834 0.00014073486 0.00011593738 -0.0033544733 0.0031305514 0.0018175049 0.0010667107 0.0007508596
-0.00036778522 0.0014838278 0.001650125 -0.0005799682 0.0019730078 -0.00604004 0.001625894 0.0037267674
0.0036000987 0.0017458715 -0.004444445 0.56619924 0.010647405 -7.077884e-05 -0.002299889 -0.014207349
-0.003674673 -0.0002898565 -0.0039970665 0.0007318552 -0.004528208 -0.0072142766 0.0007603025 0.005071585
-0.001966535 -0.00434535 -0.0030375267 0.0016555553 0.0049280557 -0.0010495913 -0.0017280399 -0.0015522842
-0.00026814934 -0.002748188 -0.00014275039 -0.000880235 0.0020851216 -0.000295064 0.0009498387 -0.00052633206
9.7239e-05 0.0023654667 -0.0022460194 -0.0030442018 8.108135e-05 -0.0002818292 0.00082340976 -0.005591995
1.2048655 -0.00077834853 -0.0022536153 0.0009731559 -0.0019195534 -0.00030563073

conv1.bias f4 [6]
00000000: 970a 4ebd 0f2f 4ebd fc1e e7bd 90e6 263d
00000010: cb84 68bc f0c1 d7bd
-0.050303068 -0.050337847 -0.11285207 0.040747225 -0.014191817 -0.105350375

conv2.weight f4 [16, 6, 5, 5]
00000000: e204 103d 6bc8 ba3c 4ec5 4d3d 0766 603d
00000010: 4d6d 863d 9523 633d 3bd8 b33d 05a4 883d
00000020: 5073 833d 9e8b 813d 3b7f 003d 5283 a63d
00000030: 956d 093e 7aac 31be a598 6fbe 5f64 aebd
00000040: 4bec 5b3d f654 36bf e605 593d 2b9a ab3d
00000050: eb43 adbe 3354 dbbe 50d4 813b 2a0e f83c
00000060: ecc2 9f3c 5880 09bd 2a1d 38bc 0067 3e3d
00000070: 805f a13d 29d0 673d 42d4 433d 27fe 463d
00000080: 55d0 973c cc1e 823d ddd8 513d 2c98 423c
00000090: e18e 5e3c 3676 6a3d 5ad8 24bf 47ca 90bd
000000a0: 588b 9bbd 0014 65bd 9120 23bf e338 a33d
000000b0: 1389 413d 6544 0dbf a930 3bbd 2ed3 1c3d
000000c0: f878 e939 d57e d93c 8457 073d 3ca5 8f3d
000000d0: f11b 923d 447f be3d 7afd 353d 44c0 7f3c
000000e0: ae1b 933d ea00 1b3e 6d0c 20bd e725 35bd
000000f0: 2d25 153d 34e2 1f3e be65 ecbe 56f7 febd
00000100: ecf3 203d 27ca edbe b62c 6fbf 0466 203d
00000110: 6af7 3a3d 70db 743b cd0b 5dbe 469d dd3a
00000120: c5b5 43bc 0507 fa3a 4cd5 8ab9 0659 823d
00000130: 6969 823d e7c3 cb3d fb53 8e3d 2874 8d3d
00000140: e11c db3d b1ce 013e 2e47 8e3d f940 c23c
00000150: b953 8abb fb1c 983d 12c7 d93d 654b 253d
00000160: 6705 bdbd 24a2 26bc 127d 683d fdce 023d
00000170: fca5 313c 8012 563d 84ee bebb 0fb8 87bd
00000180: ea98 9d3c 2064 9cbb d347 00bc 7525 373c
00000190: 7cf2 09be 18ce 82bc 717a 023d b8a0 cb3d
000001a0: be57 263d 3e70 2f3d 4b7d 3d3d 351e b83c
000001b0: 1dbc f83c b63d e53d f352 ac3d 7c9c a53b
000001c0: 8d80 9ebb 3e6d 453d 33b3 6dbd e8d4 473d
000001d0: 71f9 d93d 8969 293d 4f0f e3be 31f4 98bb
000001e0: ce05 7ebe 9ec6 b4be b602 1dbf 29c9 ec3c
000001f0: 403b 3a3d 77d0 063d 6a88 a33d 531f 6e3d
00000200: 6487 49bb 53e5 053e 84f0 223d 71cc e93d
00000210: e1af bb3d 8869 1dbe cba0 c63c e3ee 053d
00000220: 7327 613d e1af 4ebf ea25 a1bc 90b6 ddba
00000230: 34ea 18bf 243c e0be fe23 4f3d 2bd0 0fbc
00000240: 6805 ba3c a158 83bd f7a9 17bc 91b8 b6bc
00000250: cdad 0d3c 879c 00bd c272 4abd 0e5e ceba
00000260: 850b be3b 2b60 a23c 544d 5aba 23af d2bc
00000270: fde2 3b3c 5bd7 8b3b e0c5 45be 3fc5 12be
00000280: 69c2 0d3d a32a ad3a 46f4 31be c0a5 c7bc
00000290: c697 063d 0468 8c3d d6f4 cf3d fd36 103e
000002a0: 0931 ef3d 56c4 963d ac4b fc3a 38cf 3c3c
000002b0: 8087 913d 5634 863d 3ab0 9f3b f842 773b
000002c0: 0ece f1bb 9201 cbbc 6c9d bcbc 8874 4ebc
000002d0: b267 883b bbee 6bba 3596 86bd 26cf 8abe
000002e0: 7375 c4bd 6351 473d 5b4b aebd 8b1c 4bbe
000002f0: 48a9 5c3c 4d00 953c 471d 143d 1f26 e23d
00000300: 5150 153e e490 9a3d de07 843d 5134 6dbc
00000310: 8ccb 273d 26d6 603d 1acf a53c 6a0b 9c3a
00000320: d68a 1dbd 5f62 6f3c 5d33 e13c 4b5d 073b
00000330: 943a 96bc 5f70 cebb 344c c0bd 6a94 55bf
00000340: de47 2ebe 5063 1bbd 925e b4b9 7998 02bc
00000350: 81fe b23d 4677 af3d 8d65 873b bb70 a3ba
00000360: 2cf2 b23d c8ac fe3d 8c4d ac3d dd05 5b3c
00000370: daa0 9abc 8aba 57bb 59ca 9a3d ad62 063c
00000380: 9a83 ab3c 7ee5 9a3c 272f b53c 1d23 723c
00000390: 20ca f13c bf74 983b 8183 01bd 9645 00bd
000003a0: 99f3 973c d1fe 8abc d92c a73c 35f4 22bd
000003b0: a3c9 17bd 089c a23c 0e7e a13d 301f 663d
000003c0: 391b 813d cd99 493d 6b86 8d3d e139 bc3c
000003d0: 633a 573d 7989 193c c037 3b3d a9f4 833d
000003e0: 91dd 393d 528d b43c 14a3 61bc d8c1 883d
000003f0: 5206 763d 6035 0e3d 697f a2bc bb41 b9bd
0.035160907 0.022800645 0.050236993 0.0547848 0.06563816 0.055453856 0.08781477 0.06671909
0.064184785 0.06325458 0.031371336 0.08130516 0.13420708 -0.17350951 -0.23398073 -0.08515238
0.053692143 -0.7122339 0.05298414 0.083790146 -0.3384088 -0.42837676 0.003962077 0.030280191
0.019502126 -0.033569664 -0.011237422 0.046484947 0.07879543 0.056595 0.047809847 0.048582222
0.018531958 0.0635353 0.051232208 0.011877101 0.01358387 0.05724164 -0.64392626 -0.07069831
-0.07594937 -0.055927277 -0.6372157 0.07969835 0.047249865 -0.55182487 -0.045700703 0.038287334
0.00044531352 0.026549736 0.033042446 0.07013938 0.07134236 0.09301618 0.044431187 0.015609805
0.07183014 0.15137067 -0.03907435 -0.0442256 0.036412407 0.15613633 -0.46171373 -0.12449519
0.039295122 -0.46443292 -0.934276 0.03915979 0.04564611 0.003736224 -0.21586533 0.0016907833
-0.011945193 0.0019075578 -0.0002648033 0.06364636 0.06367762 0.09949475 0.06949612 0.06906921
0.106988676 0.12676503 0.0694717 0.023712622 -0.0042214063 0.074274026 0.10633673 0.040355105
-0.09229546 -0.010170493 0.0567599 0.03193568 0.010842796 0.052263737 -0.005826773 -0.06626903
0.019237954 -0.004772678 -0.007829624 0.011178364 -0.13471407 -0.015967414 0.03185505 0.09942764
0.04061102 0.042831652 0.046262067 0.022475341 0.030363137 0.11193411 0.08414259 0.005054055
-0.004837102 0.048199885 -0.058032226 0.048787028 0.1064328 0.04136041 -0.44347617 -0.0046677818
-0.24806902 -0.35307783 -0.6133226 0.028904514 0.04546666 0.03291365 0.07985003 0.05813534
-0.0030750865 0.13075761 0.039780155 0.11415947 0.091644056 -0.15372288 0.024246594 0.032698523
0.054969262 -0.8073712 -0.0196714 -0.001691537 -0.59732366 -0.43795884 0.050571434 -0.008777658
0.022707656 -0.06413389 -0.009256831 -0.022304805 0.008647394 -0.031399276 -0.049425848 -0.0015744583
0.005799713 0.019821247 -0.0008327563 -0.025718277 0.011467692 0.0042676157 -0.19313765 -0.14333056
0.034609232 0.0013211559 -0.17378339 -0.024371028 0.032859586 0.06855777 0.101541206 0.14083476
0.116792746 0.07361667 0.0019248626 0.011524014 0.07105923 0.06552951 0.0048733028 0.0037729125
-0.0073793 -0.024781022 -0.023024283 -0.012601025 0.004162752 -0.0009000112 -0.065716185 -0.27111167
-0.09592714 0.0486616 -0.08510467 -0.19835107 0.013468094 0.01818862 0.036160734 0.11042427
0.1458142 0.07547167 0.06446813 -0.014477805 0.0409656 0.054891728 0.020240355 0.0011905257
-0.038462482 0.014610856 0.027490312 0.0020654972 -0.01833848 -0.006300017 -0.093895346 -0.83429587
-0.17019603 -0.03793651 -0.00034402736 -0.007970923 0.08739949 0.085676715 0.004131979 -0.0012469509
0.08737597 0.12435299 0.084132284 0.013368097 -0.018875528 -0.0032917582 0.07558126 0.008202237
0.020936776 0.018908259 0.02211721 0.0147788795 0.029515326 0.004652589 -0.031619553 -0.031316362
0.018548774 -0.016967209 0.020407127 -0.039783675 -0.03705753 0.019849792 0.07885371 0.056182086
0.063040204 0.04921894 0.06910404 0.022976818 0.052545916 0.009371155 0.045707464 0.064431496
0.045377318 0.022040043 -0.013771791 0.06677598 0.06006462 0.03471887 -0.019836145 -0.0904574

conv2.bias f4 [16]
00000000: f02a d03e a595 7f3d ac66 25be 6bae b03e
00000010: f48e 603e a886 b1be b18a da3d c4dd e23e
00000020: 6299 4b3f 6d77 81be 128d 1c3f ca70 26be
00000030: 4b4f 763e 9c14 c43e 0955 24be f4c7 c83e
0.4065776 0.06239857 -0.16152447 0.3450807 0.21929532 -0.34673047 0.106709845 0.4430982
0.7953092 -0.25286427 0.61152756 -0.16253963 0.24053685 0.38296974 -0.16048063 0.39215052

fc1.weight f4 [120, 256]
00000000: e27c 5cbd a4d3 89bd 9cbd ea3a b3b5 1fbd
00000010: fb8e d93c f09a d3bb 8b31 b73b 7dbd 99bc
00000020: 68aa b5ba 20ee 133d d25f 8cba bc18 2dbd
00000030: 3471 c9bc ac7b 53bc 2480 31bd c7cf a2bc
00000040: 2e82 e2bb 03ec 093d 28fe 5fbd 296f 53bd
00000050: e80e f7bc 57d4 eabc 57af 933c f85c 91bd
00000060: cd16 8ebd 7fc6 2dbd 3882 92bd f1ba bdbc
00000070: cc88 813c 3abe 73bd 004e 68bd c9ea 50bd
00000080: a73e 8cbd 86a8 263d e1d5 7fbd 5bc2 a0bd
00000090: 771b a73b 1302 f5bc e5f9 aabc f141 953c
000000a0: 5ee2 ed3c 175e 7b3c c80e 89bd 413f 80bd
000000b0: 6d8e 28bc a7fa 3fbc 3e47 2bbd 2f72 00bd
000000c0: 7e35 17bc 5c00 903d d417 403d 0c1c 92bb
000000d0: ab16 9c3c 5301 0d3d e1d4 a5ba 2acd 1dbd
000000e0: 681d 55bd 1b23 c4bb 08a6 d43c 72bc 61bc
000000f0: e03b b43c 3ac1 7a3d 73b3 12bd 0b90 0dbd
00000100: cebf 93bd 5fb7 463d 0773 ffbc c24e 71bd
00000110: 15ce 2e3d c4c4 6cbd ac07 39bc c91e 2e3d
00000120: fe9a 993b 3adf 563d c23b 17bd 1191 933b
00000130: 860c 3abd 8fb3 073d 246c 613b 03e4 5b3d
00000140: 1115 16bd bda6 25bc 6d5e d13c 38fb c53c
00000150: 760e b1bc 0c11 c2bd b019 103c a147 42bd
00000160: ddf6 8cbc 8504 8ebd 9b7a 99bc 1cf9 94bd
00000170: 9652 92bd 7d18 1ebd b0a1 57bd 9bdd 82bd
00000180: 474f 80bc 9d34 8abd a991 95bc f2e3 51bd
00000190: cebb b93c 818a 50bd ccc8 73bc b4f5 023d
000001a0: 57e9 803d 8f15 43bd 20cf a3bc f618 4cbd
000001b0: 5641 993c f63d 1cbd b180 8e3c 1595 553b
000001c0: 6d2b e83c 39ca b63c d840 37bb a66c 10bd
000001d0: b721 543d ebd4 1c3a 2200 18bd 47b2 bcbc
000001e0: fb21 7dbd a77e 5cbd 5996 273d 6ed6 41bb
000001f0: 1dfc ebba 5960 a83b 99f7 033d e8c7 13bb
00000200: 3fb0 d2bc bdaa e1bb 3133 63bd 2e8f 0b3d
00000210: 70de a93c 6f72 ec3c 7082 013c 1c08 0e3d
00000220: d8b6 553d 0858 4b3b c4cc 47bd cbaa 69bd
00000230: 2c6a 913c 7b76 04bc d62c 07bd 5633 653c
00000240: 3c23 2dbd c1d7 73bc 8cc6 95b9 9cb0 9fba
00000250: 14bf 82bd bff9 8abc eb46 2c3d fb47 2f3d
00000260: 1b93 293d aa7a 3bbd 9f58 443c f574 463d
00000270: 240d 87bd 05e3 343d e104 0abd 7751 30bd
00000280: 79b1 3d3d 9cb6 21bd fef2 1fbd 3cd7 2dbd
00000290: f8f4 77bd 919f bfbb 5ee0 53bb 1b26 1bbd
000002a0: f957 64bb 4231 d23c fe9c 393b 85ba 433d
000002b0: 23c6 7abd 84f1 98bb 98ac 22bd 8fd1 e43c
000002c0: 78a2 22bd 333b 8e3c 6162 153c 5e10 363c
000002d0: ff85 82bd 1781 69bd 0b95 123c 57bb 763c
000002e0: 3f33 fc3c 1dd7 443c e77a a6bc 2d4e 0ebc
000002f0: 7eb8 e33a d4e4 c5bc db87 a7bd e1e9 283b
00000300: b84a 9d3a 8a9e 523d 6be0 3a3d 18fc 0dbc
00000310: 12aa 87bd febb d53c 7b79 88bd 203a 2cbd
00000320: c783 853c 5088 213d d609 4c3c 21fc 753d
00000330: 538d c03b 255e 0f3c 1046 553c 5d61 263d
00000340: 7eb5 65bd efc0 78bb 5123 213d 1dd0 2bbd
00000350: 844c ebbc 23f5 623d 5d45 0c3d a4a1 46bd
00000360: 8f8e d0bc 93d3 1e3d 12b5 213d 971a 273d
00000370: 4613 983c bfe6 2ebd 0993 593d 039e 9fbc
00000380: 668a 70bd b005 a4bd b057 c1bd 8d0d b8bd
00000390: 72b8 1b3d 118c 86bd d518 c03c eaf6 bdbc
000003a0: e211 a13c 087f 723c 9313 cdbc a37c 0a3c
000003b0: 5fbe 48bd 3f48 92bc 3561 6abd 31b3 8bbd
000003c0: b33c 773c fd62 5dbc 5ac6 87bd f587 d73b
000003d0: a560 8dbd 33ac 013c b336 0f3d 6a27 1c3d
000003e0: 07c4 e2bb 08d3 75bc e406 8bbd ab04 2dbd
000003f0: 2a67 5abd 7a5e 3f3d 8131 db3c c63b 333c
-0.053830035 -0.0672982 0.0017909291 -0.03899164 0.026557436 -0.006457679 0.005590623 -0.018767113
-0.0013859989 0.036115766 -0.0010709709 -0.042259917 -0.024590112 -0.012907904 -0.043335095 -0.019874467
-0.0069124913 0.033672344 -0.05468574 -0.051619682 -0.030158475 -0.028665705 0.018027944 -0.070978105
-0.06937943 -0.04242563 -0.071537435 -0.02316043 0.0158123 -0.059507586 -0.05671501 -0.05100516
-0.068478875 0.04068806 -0.06245983 -0.0784957 0.0050997096 -0.029908216 -0.020871112 0.01821992
0.029038604 0.015342257 -0.066922724 -0.06262065 -0.010287863 -0.011717475 -0.04181599 -0.031358894
-0.009229062 0.070313185 0.046897724 -0.00445891 0.019053778 0.03442509 -0.0012651944 -0.038525738
-0.052029997 -0.00598563 0.025958076 -0.013777839 0.022001207 0.06121943 -0.035815667 -0.0345612
-0.07214318 0.04851472 -0.031182779 -0.058913 0.042677004 -0.057804838 -0.011293333 0.042509828
0.004687666 0.05245898 -0.036922224 0.0045033772 -0.0454221 0.033130225 0.0034396732 0.053684246
-0.036641184 -0.010110554 0.025557721 0.024167642 -0.02161334 -0.09475908 0.008795187 -0.047431592
-0.017207557 -0.06934456 -0.01873522 -0.07274076 -0.07144658 -0.038597573 -0.05264443 -0.06389924
-0.015662802 -0.067483164 -0.018257933 -0.051242776 0.02267256 -0.050913338 -0.014879417 0.031972602
0.06294506 -0.04762798 -0.019996226 -0.049828492 0.018707912 -0.038145028 0.01739535 0.003259008
0.02834102 0.022313224 -0.0027962234 -0.035259865 0.051789965 0.0005982655 -0.0371095 -0.023034228
-0.061799984 -0.053831723 0.040914867 -0.0029577273 -0.0018004213 0.0051384387 0.03221855 -0.0022549573
-0.025718806 -0.0068868087 -0.05546874 0.034072094 0.02073595 0.02886316 0.007904634 0.034675702
0.052176327 0.0031027813 -0.048779264 -0.057047646 0.017750822 -0.008084889 -0.033001743 0.01398929
-0.04226993 -0.014882983 -0.00028567424 -0.0012183371 -0.063841015 -0.016964791 0.04205982 0.042793255
0.041400056 -0.04577128 0.01198402 0.048451383 -0.06594303 0.044161815 -0.03369606 -0.04304644
0.04631183 -0.03948079 -0.039050095 -0.04244159 -0.060536355 -0.005847879 -0.0032329778 -0.037878137
-0.0034842475 0.025658254 0.0028322334 0.0477853 -0.061224114 -0.004667463 -0.03971538 0.027931957
-0.039705724 0.017362213 0.009117694 0.011112301 -0.06373214 -0.057007875 0.008946667 0.015059314
0.030786155 0.012014178 -0.020322276 -0.008685631 0.0017373709 -0.024156965 -0.08180209 0.0025774168
0.0012000417 0.051420726 0.045624178 -0.008666061 -0.06624235 0.026090618 -0.066637956 -0.04204762
0.016298188 0.03943664 0.012453517 0.060054902 0.005876222 0.008750473 0.0130171925 0.040620197
-0.056081288 -0.0037956794 0.03934032 -0.04194652 -0.028723009 0.05540956 0.034245837 -0.048493996
-0.025458602 0.03877599 0.039479323 0.040796842 0.018563878 -0.042700525 0.05311874 -0.019484526
-0.058725737 -0.08008897 -0.09440553 -0.089869596 0.038017698 -0.06569684 0.02344934 -0.023189027
0.019661848 0.014800794 -0.025033748 0.008452567 -0.049009677 -0.017856715 -0.05722161 -0.068212874
0.015090155 -0.01351237 -0.066296294 0.0065774866 -0.06903199 0.007914591 0.034964275 0.038123526
-0.006920341 -0.015003927 -0.06788424 -0.04224078 -0.05332104 0.04672096 0.026757004 0.010939544

fc1.bias f4 [120]
00000000: c8d4 8a3c f7ae a83c 263a d23d 08a9 883b
00000010: 3c8d 643d 76b1 a13c fee6 d4bc 0a38 73bc
00000020: 781c 17be 56b1 a5bd 4d85 fe3d 4837 a03e
00000030: 0061 26bd 027b 98bb e7cf 583e 786e ea3d
00000040: a2d1 8dbc 4bb2 3d3e fc6c 823d 4d94 153c
00000050: 4c48 843d d768 373c 4866 d0bd 70f1 593e
00000060: 076a 25bd 3724 04bc f36a b93c 9387 ab3d
00000070: 93df a63c c105 f73c a1bb c73c 3540 b4bd
00000080: 3f68 213e d349 f1bb 5c93 c1bd 7dae 6cbd
00000090: db6f 273e 1359 70bd 8540 02bd bb96 163e
000000a0: 2e6b 0f3e c2ef a0bd 6c94 743e 9b3e 07bd
000000b0: 591d 8fbd e852 4abd 18a2 173d 9e53 d7bc
000000c0: e8ff 78bd 2260 073e e3c3 94bc 2059 953c
000000d0: 6d3e 393e 9963 6b3d 7810 e3bc adb5 513d
000000e0: cbcd 0e3d b01a 6d3d 36b2 34bc 1d02 423e
000000f0: 6b1b e23d 0c25 ee3c d524 103d 904b ce3c
00000100: bfa8 1f3d f732 a13e 4e95 393e 9c07 8c3e
00000110: 3a21 923b fb98 b5bc 05ca ab3c 9bd8 15bc
00000120: 4304 babc 3301 5a3e b72c 403c 819e bfbc
00000130: bf4f 513e d521 8fbd 2e95 003e f534 0c3d
00000140: 17ac d73c 73af 49bd 6d93 443d 9fe2 023d
00000150: cfbf 0f3c d775 c13d 2f9f 0d3e d9da bdbc
00000160: 2d70 c63d 0de0 373d 02b1 78bd 4c2d 98bd
00000170: 454c f63b a05c 413c 3e9b 0abe 3282 303e
00000180: 34a4 323c ef72 7dbd 3dab c23b c0e2 efbc
00000190: 757c f63d fc31 bd3c e881 c43d da4b bc3d
000001a0: 5f34 ee3d ea23 ca3c 2ede ea3b ea67 663d
000001b0: a0d1 68bb 3874 013e a6e5 ff3c b031 9b3d
000001c0: 187d 823c 0bcb 3e3e 7ffe 083c 4cb0 dbbc
000001d0: 60e2 babc ca52 823e 4d06 a73c d2b6 573d
0.016947165 0.020591242 0.10264997 0.0041705407 0.055798754 0.01973794 -0.025989052 -0.014844904
-0.14756954 -0.08090465 0.12427769 0.31292176 -0.04061985 -0.0046533355 0.21173058 0.114468515
-0.017311875 0.18525045 0.06368443 0.009129596 0.06459102 0.011194429 -0.101757586 0.21283507
-0.04038432 -0.008065275 0.022634005 0.08375468 0.02037028 0.03015411 0.02438146 -0.08801309
0.15762423 -0.007363537 -0.09451935 -0.057783592 0.16351263 -0.058678698 -0.031799812 0.14705937
0.1400573 -0.0785823 0.23884743 -0.03301869 -0.069880195 -0.04939547 0.03701982 -0.026284989
-0.060790926 0.13220266 -0.018159812 0.018230975 0.1809022 0.05746803 -0.027717814 0.05119865
0.03486423 0.05788678 -0.011028817 0.18946119 0.11040386 0.0290704 0.035191376 0.025182515
0.03897929 0.31484196 0.18123361 0.27349555 0.0044595273 -0.022167673 0.020970354 -0.009145881
-0.02270711 0.2128952 0.011729411 -0.02339101 0.20440577 -0.06988875 0.12556908 0.03423019
0.026327176 -0.049239587 0.04799216 0.031954404 0.008773758 0.09446304 0.13830255 -0.023175644
0.096893646 0.044891406 -0.060715683 -0.07430515 0.0075164163 0.011801869 -0.13535783 0.17237166
0.010903407 -0.061877187 0.0059408234 -0.029282928 0.12035457 0.023095123 0.0959509 0.09194155
0.11631083 0.024675328 0.007167599 0.056251444 -0.0035525337 0.1264199 0.031237435 0.075778365
0.01592879 0.18632142 0.008361458 -0.026817463 -0.022813022 0.25453788 0.020388747 0.052664585

fc2.weight f4 [84, 120]
00000000: f963 2d3d 02ef 3f3d 7420 ca3b 1ddb 8cbd
00000010: ea71 9c3d aa0a e33c 15b0 8dbc 50e9 8bbd
00000020: 412d e3bd cd90 903d cf89 c2bd 9c54 21be
00000030: a212 5abd 146e f23b 1435 67bd 3842 79bd
00000040: e32e 28bc ca12 c8bd 7d3e 913d 296f 15bd
00000050: 36e0 d5bc 8d67 ff3d 55cb 783d c648 9dbd
00000060: e47a b6bb 2634 69bd 9145 92bd 0864 143e
00000070: cf58 e23c 34b7 af3d 71eb 463d 332e 66bd
00000080: fc24 13bd 0578 23bc 801d e6bc faea 923d
00000090: c8c6 cb3c 9ae3 343d 5d7c 79bd 2a1c 54bb
000000a0: 9364 0f3d debe 6439 6497 1bbd 4db6 43bd
000000b0: 218f acbb 3787 aa3c 89f1 22bd 9a52 d3bc
000000c0: cb8f 3c3d 85be 90bd 8f6b 663d 2715 13bd
000000d0: abb8 74bd 4ab9 953d f049 8abd ee92 39bd
000000e0: 3781 b3bd 4a92 f7bd 7c5b 6cbd ee70 a0bd
000000f0: 8e15 b9bd 59a0 663d 5426 68bd a86b 673d
00000100: 4576 ea3c 384a 03be e24f 5cbd 7742 b1bc
00000110: 1ad0 37bd 1edc b4bd 5507 a93d 9383 08bd
00000120: dbbf 0dbe 7d55 b0bd e697 0fbc 8447 b9bd
00000130: 576a 723d f1f1 573d 8e5d ddbd a38e 17bd
00000140: fd6a b5bd 3fe5 a53c d3eb a6bd 9f22 263d
00000150: 80b8 a33d 8b3b c53c d000 bdbd 3da2 9b3c
00000160: 6230 76bd 0c70 183d 78ec 2c3e 1caf eb3b
00000170: 4040 89bd 94a0 003c 18d5 9ebd 98ed ef3c
00000180: 5f40 a1bd 9b43 3d3d d210 fbbc 1808 b6bc
00000190: 5c50 16be 1fbf 26bc 2631 99bd 8b3d 343d
000001a0: 73c1 4fbc 92d4 0fbd 69df 5fbc 59cb ebbd
000001b0: 8cfc 03be 9243 b43d 6cf9 1b3c 909c 8abd
000001c0: 7d6e 09bd 2048 1e3c 7424 603d 1716 1bbd
000001d0: 52b6 10be ff8a bdbd ab17 eabd 22d3 12bd
000001e0: 1a19 3abc e8e7 f93c 70d3 253e 3d61 7e3e
000001f0: 6aa0 8ebd 7bb1 46bd 51ff ce3b fd2c cb3d
00000200: f859 9dbd fca6 5abd 8934 4d3c 0484 10be
00000210: 0185 64bd 32d3 85bd 72cb a13d bf39 bc3d
00000220: b4eb b1bd 72b9 18bd 0ec8 963c 9ca7 7b3d
00000230: b447 c8bd a9d4 473e c7f0 a33d 4a32 723e
00000240: 6b13 29bc 440e 823d ef27 bb3c 147b 12be
00000250: 84e2 a73d c405 553d 1edf 4b3d 68d8 ba3d
00000260: 978d d93c 889d 07bd bc57 cbbc 747e 633d
00000270: 644b d1bd 6274 6dbb f9a3 3cbc 14b7 e73d
00000280: 1ddb eebc cb8a 8abd c35f f93d 3b12 ab3d
00000290: 1939 833d d72a 3b3e 7c7b 66bd b87a 8cbd
000002a0: 50f4 b6bd 7c54 54be 536f 313e 2fe3 b43c
000002b0: 2486 2b3e d381 96bc ef05 b3bd 3b9b fa3c
000002c0: ee96 1bbd a8a3 ef3d 8b4a a8bd a033 21bc
000002d0: 477e 453d 3fa5 cdbc ff36 9bbb 9394 57be
000002e0: 8a7e 803d 42f6 c8bd 20d0 b2bd a2d2 b6bd
000002f0: 6df1 dd3d 330a a2b9 9b47 213c b11b 89bd
00000300: 0049 babd fa07 453d 4e91 7bbd 9c3b 83bc
00000310: b804 4b3c a7c8 883d 8cb0 0ebe 441e 633c
00000320: 2ea0 ca3a 2c7f e43c dd81 613e 418a 383b
00000330: 8fa4 2c3c 1326 1abe bbe4 333d 55e7 dc3d
00000340: 0231 c33d af16 23bc 763a 01bc 77bd 90bd
00000350: efc5 6a3d 3b2d 28bd 1488 703b e334 42be
00000360: 0eaa bfbe d4df bf3d 83a3 cabd a6b3 07be
00000370: 3d7d b1bc 821f 8d3d cecb 61bd 544e eabd
00000380: 3180 afbd fd75 e4bc b7e4 a1ba e1e1 98bd
00000390: 8e28 693e 7c80 b5bd 13a6 843c ab23 06bd
000003a0: aee7 f7bc e679 febd 44b5 67bc 12c7 523d
000003b0: da3c 4a3e a6c2 913d 99ec 2d3c 6399 e73c
000003c0: ba3d 81bc b79b e2ba 4d8d eabd 6463 3abd
000003d0: c483 93bd d619 583d 1d51 afbd 1c08 9f3d
000003e0: 6526 ee3c e770 cb3b 5af2 133e 12c0 7a3d
000003f0: b452 eebd 1532 e13c 28af 26be c989 69bc
0.04233167 0.046858795 0.0061684195 -0.0687773 0.07638915 0.027715046 -0.017295877 -0.0683161
-0.11092616 0.070588686 -0.09498941 -0.15754932 -0.053240426 0.0073983762 -0.056447104 -0.060854167
-0.010265085 -0.09769209 0.07091997 -0.036482964 -0.026107889 0.124709226 0.060740788 -0.07679896
-0.005568849 -0.0569345 -0.07142175 0.14491284 0.027630238 0.08579865 0.04856438 -0.056196403
-0.035923943 -0.009977345 -0.028090239 0.071737245 0.02487506 0.04416237 -0.060909618 -0.003236542
0.035008024 0.00021814878 -0.037986174 -0.047781277 -0.0052660857 0.020816429 -0.039781127 -0.025796223
0.04603557 -0.07067589 0.05625492 -0.035908844 -0.059746426 0.07310732 -0.06752384 -0.04530614
-0.0876488 -0.12088449 -0.057704434 -0.0783404 -0.09037314 0.056305263 -0.056677178 0.056499153
0.028620848 -0.12821281 -0.05378712 -0.021638138 -0.044876195 -0.088310465 0.082533516 -0.033328604
-0.13842718 -0.086100556 -0.008764243 -0.09046844 0.059183445 0.052720968 -0.1080886 -0.037001263
-0.08858297 0.020250915 -0.08150449 0.04056036 0.07994175 0.024076244 -0.092286706 0.01899826
-0.060104735 0.03721623 0.1688708 0.0071925055 -0.06701708 0.007850785 -0.07755488 0.029288098
-0.07873606 0.04620705 -0.030647669 -0.022220656 -0.14679092 -0.010177403 -0.074800774 0.044004004
-0.012680399 -0.035114832 -0.013664105 -0.11513395 -0.12889308 0.088019505 0.009519916 -0.06768143
-0.033552635 0.009660751 0.054722264 -0.037862863 -0.1413205 -0.09255027 -0.114302956 -0.035845883
-0.011358524 0.03050609 0.16193938 0.24841781 -0.0696419 -0.048509102 0.006317057 0.0992069
-0.07683176 -0.053381905 0.012524732 -0.1411286 -0.055790905 -0.06534423 0.07900132 0.09190702
-0.08687535 -0.03728623 0.01840594 0.06143914 -0.09779301 0.19514717 0.08004909 0.23651996
-0.010319571 0.06350377 0.02284619 -0.14304763 0.08197501 0.05200745 0.049773328 0.091233075
0.026556773 -0.033109218 -0.024822108 0.055540517 -0.10219458 -0.00362327 -0.0115137035 0.11314216
-0.029157216 -0.06764754 0.12176468 0.083530866 0.06407375 0.18278061 -0.056270108 -0.06859344
-0.08933318 -0.20735353 0.17327623 0.022080986 0.1675039 -0.018372452 -0.08741366 0.030591598
-0.037985735 0.11701137 -0.08217343 -0.0098389685 0.04821613 -0.02510321 -0.0047367807 -0.2105277
0.062741354 -0.09812595 -0.08731103 -0.08926894 0.10837064 -0.00030906647 0.009843732 -0.06694735
-0.09095955 0.04810331 -0.06141787 -0.016019635 0.012391262 0.066788964 -0.13934535 0.013862196
0.0015459114 0.027892672 0.22022195 0.0028158578 0.010537281 -0.15053587 0.043919306 0.107863106
0.09530832 -0.009954139 -0.007887473 -0.070673876 0.05731767 -0.04105876 0.0036702203 -0.18965487
-0.3743443 0.09368864 -0.09894469 -0.13252124 -0.021666164 0.06890775 -0.055126004 -0.11440721
-0.085693724 -0.027888292 -0.0012351488 -0.07464958 0.22769377 -0.08862397 0.016192472 -0.03274886
-0.03026184 -0.12425594 -0.014142338 0.05145938 0.19749776 0.07117204 0.010615491 0.028271383
-0.015776504 -0.0017288838 -0.11452732 -0.045504943 -0.07202867 0.052759014 -0.08560393 0.077652186
0.029071042 0.0062085274 0.14447919 0.06121833 -0.11636868 0.027489701 -0.16277754 -0.014254042

fc2.bias f4 [84]
00000000: f06b c9bd f9a9 0f3e 9ede 013e 67af 4e3e
00000010: 077e 49bd 23d9 a3bd 160b 913c 5f84 cabd
00000020: 4e55 db3d c2c0 243e d1a7 153e b646 f0bc
00000030: e0e3 a3bd d567 5ebd 3755 43bd de74 29bd
00000040: f4bd d7bd 8dd2 943d ab2d d7bd 6ec0 71bc
00000050: 2011 6b3e c4d1 aebd 9959 10bd f69e 0abd
00000060: 37ec 67bd 365a 52bd caae 2fbd 7d68 503d
00000070: 1939 833d 2d8b 383d dd9e 55bd 9dd5 5bbc
00000080: c629 9abd bf37 71bd 6d2e 613c 5c12 593e
00000090: 23e5 473e b6b1 8b3e c217 b53c 7221 82bd
000000a0: cb01 cabd 2687 413c c549 a3bd 44d2 c6bd
000000b0: 0afd 0cbb 21ba 9bbd a19c a9bb e443 593e
000000c0: d057 333e c9f9 0dbd 7843 1b3d 1bc1 833d
000000d0: 731d 24bc 2e4b 8d3e 89b6 413d f14e 013e
000000e0: 089f bd3d 1842 03bd b03a 66bd 227d da3d
000000f0: 8e3f 5a3d 2940 84bd 91f1 923b bce0 09bd
00000100: 1389 b9bc 4f41 d03d 3bab 25bd 4ddd 893e
00000110: e9b2 183e 5e44 6abd 4180 593e 2a6a 1b3c
00000120: 43a8 183e 2eb0 713c 4409 bfbd 8f78 d0bd
00000130: 2098 453d 909e 4abd 6f38 8a3e f442 82bd
00000140: 24d7 4e3c ea2b 823e a7bf 203e 1795 133d
-0.098350406 0.14029683 0.12682578 0.20184098 -0.049192455 -0.080004 0.017705481 -0.09888529
0.1070963 0.16089156 0.14614798 -0.029330593 -0.08002448 -0.05429824 -0.04768869 -0.04137122
-0.105342776 0.07266722 -0.10506757 -0.0147553515 0.22955751 -0.08536103 -0.035241697 -0.033843003
-0.056621756 -0.051355563 -0.0428913 0.050880898 0.06407375 0.045054603 -0.052153457 -0.013417629
-0.07527499 -0.058891054 0.013743979 0.2119841 0.19521002 0.2728402 0.022106055 -0.063540354
-0.09863623 0.011812007 -0.07973055 -0.09708074 -0.0021513128 -0.07603861 -0.0051761423 0.21217304
0.17513967 -0.03466204 0.03790614 0.06433316 -0.010016787 0.2759642 0.04729322 0.1262777
0.092588484 -0.032045454 -0.056208313 0.106683984 0.053283267 -0.0645755 0.0044843634 -0.03366159
-0.02264837 0.101687066 -0.0404465 0.26926652 0.14911999 -0.057194106 0.21240331 0.009485761
0.14907937 0.014751477 -0.09327939 -0.10179245 0.04824078 -0.049467623 0.2699618 -0.063604265
0.012624536 0.2542413 0.1569811 0.036030855

fc3.weight f4 [10, 84]
00000000: 967a c13d 0226 61be 3be8 c1bd ae94 8a3d
00000010: 4fd7 86bd ea8c b3bd 2830 64be e262 36be
00000020: adac b8be 8071 263b 3f57 e13d 8bc3 eebd
00000030: 1f10 0cbe 676f fbbc fd4c 643d 90ad 2abe
00000040: 6db7 1b3c 8ae1 88bc b35b 61bd ce42 a73b
00000050: 30e2 a0be 93e2 55bd 255f 173d ef01 bcbd
00000060: ff8d 8abd 762d 3fbd 0593 4bbe f39a 29bc
00000070: 84ed 51be 4279 47bd 99e7 b53d 2a16 bdbc
00000080: 995e 43be 90ab 1d3d 9a0a 85bd 1655 10bb
00000090: 946d c6bd 7e31 cbbd 296a 1bbe 8f9c 8abe
000000a0: 0828 29bd c540 113d dd4a 873d 6d90 5bbd
000000b0: 9954 9a3d 9e96 84bd a5ee ebbc 0edf 023e
000000c0: ffde 84be 57de 7bbe 6069 1d3d 8724 103e
000000d0: 4cab 89bd 17eb d03d 4cb9 993c 595d 51be
000000e0: a031 6c3e 80ef 81be 8273 b2bc 591a abbd
000000f0: 0c64 f93d 0dbb 8f3d 231c 17be ff2f 1abd
00000100: d0eb babd cbbe 0a3e 5e1d 363d 1b61 c63c
00000110: 2c9f 8e3d 0d79 27bd 4c33 6f3d 9c63 94bc
00000120: e653 e43d fdd2 24be 0748 be3d 18c4 34bc
00000130: 4642 00bb 00f0 5e3d bc2b 93be aeb8 b83c
00000140: 64e2 a5bc 815c 73bd f3f7 393e 13be b23d
00000150: 1759 bbbe 1cdf 85bd 9190 2cbe 6041 493e
00000160: 6b12 ac3d e810 573d 3a09 7dbe 1f28 d1be
00000170: e1ae 7e3d 30a1 57be 76d6 ae3c 2e6f 6ebd
00000180: 0166 b2bc ef2f d9bd d652 843c 1350 20bf
00000190: 06fe a9bb c553 40bd d912 83bd a835 3f3c
000001a0: 4410 acbc 7ab4 303b e8f3 b9bd 34e4 48be
000001b0: decf c7bd 3f7e 9fbd cedf 42be 4944 b4bd
000001c0: c58e 73bd c762 8f3d b452 a73d 938c b7bb
000001d0: a97d 10bd af96 3bbe 3113 eabd f924 0e3e
000001e0: ec5b a5bc 9c3c 97bb dabd d0bd dc3a b13d
000001f0: 611e ab3d a1db 0ebc 2a1f 9cbd 106c aebe
00000200: bdca b9bd 39ad d73d 15d3 75bd a301 e53d
00000210: c78a 343d 268c d6bd 3fa9 aabd dbb6 41be
00000220: 130f c8bd 229a 973e 290e b6bd adb8 fe3d
00000230: 2d3d 45bf 800e 293e 460b d0bc 92ee 87bc
00000240: d8fe 19be 9fb3 3ebe 00b7 7cbe b6ae 423c
00000250: f857 1cbc 20cb a03d bbb8 83bd 2f40 64bd
00000260: 1459 033d 8329 b1bd c942 8e3d 6509 cdbc
00000270: 1709 4dbe e55f e7bd 2f7a 92bc a46e 22bd
00000280: 5c8c 2bbd 155b 8fbe d9e4 efbd dfa3 78bd
00000290: 18e8 dbbd f452 b93d b456 473c b4c5 f1ba
000002a0: edc4 28be 1f34 90be 8d45 09bd 51b2 0b3e
000002b0: 1e9a 933c e89e fa3b d77c bfbd 572c 9cbc
000002c0: 3268 1a3d cc85 a73c d4c0 803d ae38 b3bd
000002d0: 8e74 f4bd 2955 b3bd 4663 36bd ee0c 02be
000002e0: 4e49 37bd cf11 debc 6b1c 95bd 544d 313d
000002f0: 46de 29be 6ca1 49bd 7c27 dcbd b8b4 0b3e
00000300: ecf1 ebba 64e3 cfbc 6151 073e fc96 c4bc
00000310: 0a5d b7bc 618b 613d 3636 4a3d a074 fd3b
00000320: b8dc 91be ec68 f9bd 7b14 b8bd ad67 e2bd
00000330: a8a1 cabd f9c8 633e 9fbe f43d bcd7 26be
00000340: ad00 55bd c720 0fbe e097 01be be71 d7be
00000350: 2606 93bb b5c4 7cbd d31d 5bbd bbc6 90bd
00000360: 622a 9cbc 6310 3f3e 64be 023e 9ac4 11be
00000370: d52b 563d 5b88 55bd aea4 2b3d 0a3a 92bd
00000380: 5178 90be 6475 a33c 039f bebd 97e6 22be
00000390: b45c 5db8 2e0d 54bc 9e66 ee3c 223e d7bc
000003a0: dd85 2cbc e072 4a3c aa3b 37bd 6e00 0abe
000003b0: 35ed 193e beda 0bbe 33d3 8bbd 2fbd c03d
000003c0: 7f4e b83d 238b 48bc 8734 a4bd efb7 8f3d
000003d0: 7c01 5cbd 2d37 10be 4ede a4be 425c 443c
000003e0: b99d ccbd 57a9 bd3d c4fc 4dbd 44da a8bd
000003f0: c6e3 debd 31a2 e53d 3c9c f8bd 0718 12be
0.094472095 -0.21987155 -0.094681226 0.0676664 -0.065840356 -0.087671116 -0.22283995 -0.17811158
-0.3606924 0.002539724 0.11002969 -0.116583906 -0.13678025 -0.03069277 0.055737484 -0.16667771
0.009504181 -0.016709108 -0.05501909 0.0051043993 -0.31422567 -0.05221803 0.03695597 -0.09180056
-0.06765365 -0.046674214 -0.19880302 -0.010351884 -0.20500761 -0.048699625 0.08882064 -0.023081858
-0.19079055 0.038493693 -0.06496163 -0.0022023371 -0.09688869 -0.09921549 -0.15177216 -0.2707257
-0.041297942 0.03546216 0.06606076 -0.053604532 0.07535667 -0.064740404 -0.028800318 0.12780401
-0.25951383 -0.24596535 0.03843057 0.14076434 -0.067221254 0.1020109 0.018765114 -0.20445766
0.23065805 -0.25378036 -0.021783594 -0.08354635 0.121772856 0.07018099 -0.14756827 -0.03764343
-0.09127009 0.13549344 0.0444616 0.024216225 0.069639534 -0.040886927 0.05839853 -0.018113904
0.11148815 -0.1609611 0.09291082 -0.0110330805 -0.0019570752 0.0544281 -0.28744304 0.022549
-0.020249553 -0.05941439 0.18160991 0.0872766 -0.36591408 -0.06536695 -0.16852023 0.19653845
0.084019504 0.052506357 -0.24710551 -0.40850922 0.062178496 -0.21057582 0.021342497 -0.058211498
-0.021777155 -0.10604846 0.01615278 -0.62622184 -0.0051877527 -0.04695489 -0.06400079 0.0116705075
-0.02100385 0.002696304 -0.090797246 -0.19618303 -0.097564444 -0.077877514 -0.19030687 -0.08802087
-0.059462328 0.07001262 0.08170071 -0.0056014745 -0.03527609 -0.183192 -0.11429442 0.13881291
-0.020185433 -0.0046153795 -0.10192461 0.08653805 0.08355404 -0.008719356 -0.076231316 -0.3406682
-0.090718724 0.105310865 -0.060015757 0.11181953 0.04407766 -0.1047595 -0.083330624 -0.1891741
-0.097685 0.29609782 -0.088894196 0.12437568 -0.7704647 0.16509438 -0.025396 -0.016593251
-0.15038621 -0.18623208 -0.24679184 0.011882475 -0.009542458 0.07851243 -0.06431719 -0.055725273
0.032067373 -0.08650496 0.06946332 -0.025028894 -0.20022999 -0.11297587 -0.017880527 -0.039656296
-0.041881904 -0.27999178 -0.11713571 -0.060703155 -0.10737628 0.09049025 0.012166668 -0.0018445761
-0.16481371 -0.28164765 -0.033513594 0.13642241 0.018017825 0.0076483376 -0.09349983 -0.019064112
0.037697025 0.020449542 0.06286779 -0.08751045 -0.119362935 -0.087564774 -0.04452827 -0.12700245
-0.044747643 -0.027108101 -0.07280811 0.043286636 -0.16588697 -0.04922621 -0.107497185 0.13643157
-0.0018001175 -0.025376983 0.13214637 -0.023997776 -0.022383232 0.055064563 0.049368106 0.00773485
-0.28488708 -0.121782154 -0.08988281 -0.11054931 -0.09894115 0.22244634 0.119504206 -0.16293234
-0.052002598 -0.13977347 -0.12655592 -0.42078966 -0.004486817 -0.061711032 -0.05349524 -0.07069155
-0.019063178 0.18658595 0.12767941 -0.14235154 0.052287895 -0.05213199 0.041905098 -0.07139976
-0.28216794 0.019953437 -0.09307673 -0.15908276 -5.2776842e-05 -0.012942595 0.029101666 -0.026274744
-0.010529962 0.01235649 -0.044734634 -0.13476726 0.15031894 -0.13657662 -0.068273924 0.09411084
0.08999347 -0.012240204 -0.08017831 0.070175044 -0.053712353 -0.14083548 -0.32200855 0.011984887
-0.09991021 0.09260815 -0.050289884 -0.08244756 -0.10883288 0.11212576 -0.12139174 -0.14266978

fc3.bias f4 [10]
00000000: e119 a3bc 1f60 613d e6d0 2bbc 3934 26bd
00000010: 4f7c 94bd 9b8a 883d 75ae f3bd b07d a1bd
00000020: a80b 763d 3ab4 c1bd
-0.019909801 0.05502331 -0.010486817 -0.040577147 -0.072502725 0.06667062 -0.118985094 -0.07885301
0.06006971 -0.094582036
