models/L_inf-PGD-0.3-40 BasicNet.pt (torch, 180615 bytes, 10 tensors)

conv1.weight f4 [6, 1, 5, 5]
0	0xbb1320b6	-0.0022449917
1	0xbb602ecc	-0.003420758
2	0x3a6e9a41	0.0009101965
3	0x3a9d5316	0.0012002911
4	0x3a63b2be	0.00086859975
5	0xbc6afa85	-0.014341955
6	0xba70c5b9	-0.00091847364
7	0xb89d32d5	-7.4958116e-05
8	0xba5066d3	-0.00079498923
9	0xbac4ce99	-0.0015015184
10	0xbd772a78	-0.060343236
11	0x3f702a7d	0.9381483
12	0x3c292ad0	0.010325149
13	0xbb6b2caf	-0.0035884788
14	0xbb22e7cf	-0.0024857407
15	0x3a3c2ef3	0.0007178627
16	0x3caeefa3	0.021354502
17	0xba6cd08d	-0.0009033762
18	0xbaeea3af	-0.001820674
19	0xba33089b	-0.00068295904
20	0xbb518884	-0.0031972239
21	0xbb085446	-0.0020802184
22	0xbbdf1726	-0.0068081794
23	0xbaee86a5	-0.0018198086
24	0x3a745694	0.00093207625
25	0x3b5739dd	0.0032840886
26	0x3b402ad1	0.0029322396
27	0x3ac2bc4c	0.0014857142
28	0x3a934255	0.0011234978
29	0xba7f8362	-0.00097470556
30	0x3aecf406	0.0018078096
31	0x3a91745e	0.0011097302
32	0x3c3d99b1	0.011572287
33	0x3c484c9a	0.0122252945
34	0x3a80db7d	0.0009831038
35	0xba2f4e02	-0.0006687344
36	0x381c2fa7	3.7237678e-05
37	0x3eaf79c5	0.3427259
38	0x3ed2edf1	0.4119716
39	0x3c0dd6eb	0.0086571975
40	0xbb36bf2e	-0.0027884948
41	0xbb2f80ad	-0.0026779578
42	0x3bbc93ae	0.0057549095
43	0x3bacf045	0.005277666
44	0x3ae28852	0.0017283058
45	0xbb73e31f	-0.0037214232
46	0xbb7b688e	-0.003836188
47	0xbb01c4d7	-0.0019801164
48	0xbb42ebee	-0.0029742676
49	0xbb78d351	-0.0037967751
50	0x3d113ca7	0.035458233
51	0x3e8593ac	0.26089227
52	0x3e5e68c2	0.2171965
53	0x3d0a0a4d	0.03370123
54	0x3b949b50	0.0045351163
55	0xbb90411b	-0.0044022924
56	0xbc7d6f3a	-0.015468413
57	0x3c03693a	0.008020693
58	0x3c02a313	0.00797345
59	0x3b1e8f82	0.0024194424
60	0xbc87f869	-0.016597943
61	0xbe16a40c	-0.14711016
62	0xbd04ae6f	-0.032392915
63	0xba80c92f	-0.0009825582
64	0x383d1062	4.507637e-05
65	0xbc612460	-0.013741583
66	0xbcb30809	-0.021854417
67	0xbbe1838f	-0.006882138
68	0xba044a7f	-0.0005046501
69	0xbabdb7f6	-0.001447438
70	0xbb8d99d2	-0.0043213153
71	0xbb8140c7	-0.0039444896
72	0xbb5e7f6a	-0.0033950456
73	0xbb57d846	-0.0032935305
74	0xbb32aa12	-0.0027262014
75	0x3a50c4b5	0.0007963882
76	0x3a100442	0.00054937985
77	0x3aabc23d	0.0013104152
78	0x3b51de9a	0.003202355
79	0x3bb6d6e6	0.005579817
80	0x3a859c5b	0.0010193692
81	0x3b04c2d6	0.0020257733
82	0x3a58871e	0.000825988
83	0x3bf8ffb2	0.0075988406
84	0x3f9d0c2b	1.2269338
85	0x3b13ab68	0.0022532586
86	0x3ae5e7bc	0.0017540376
87	0xbb2992ba	-0.002587481
88	0xbb3e2a7f	-0.002901703
89	0x3b892dbd	0.0041863606
90	0x3a8ba296	0.0010653313
91	0x3886202c	6.3956104e-05
92	0xbb471b6b	-0.0030381333
93	0xbba2cafd	-0.0049680457
94	0xbc16b342	-0.009198012
95	0x3a4c4376	0.0007792035
96	0xbadea8a3	-0.0016987514
97	0xbb1a5e16	-0.0023554615
98	0xbbaba416	-0.0052380664
99	0xbbc43b61	-0.005988524
100	0x3d47701d	0.048690904
101	0x3d0b63d0	0.034030735
102	0x3bbba72f	0.005726717
103	0x3a84f0b2	0.0010142534
104	0x3af80708	0.0018922994
105	0x3e1f6b8e	0.15568373
106	0xbace74ed	-0.0015751399
107	0xbca0569d	-0.01957255
108	0xbb3cf371	-0.0028831626
109	0xb9c5e121	-0.00037742502
110	0x3e7ced15	0.24699815
111	0xbdbb3b66	-0.09142189
112	0xbd26d881	-0.040733818
113	0xbaff7314	-0.0019489252
114	0x3a8136e6	0.000985828
115	0x3e1a47d7	0.15066467
116	0xbc2b497d	-0.010454533
117	0xbc47dd7f	-0.012198805
118	0x3a1015e6	0.0005496427
119	0x3b7214d0	0.0036938675
120	0x3d24cb35	0.040232856
121	0x3befe355	0.0073208013
122	0x3b855bce	0.004069782
123	0x3ba30e90	0.004976101
124	0x3ba69bea	0.0050845044
125	0x3af61d8d	0.0018777117
126	0x3a412b22	0.0007368793
127	0x3a8cf39f	0.0010753757
128	0xbaab71e8	-0.0013080211
129	0xba81cb8d	-0.0009902582
130	0x3b052d48	0.002032118
131	0xb93a97ba	-0.00017794865
132	0xbaed029b	-0.0018082442
133	0x38dedf86	0.000106274194
134	0x3b2a6a89	0.0026003441
135	0x3b501fc3	0.0031757213
136	0x399fccec	0.00030479522
137	0x3bf7fb36	0.0075677885
138	0x3cca08cf	0.024662403
139	0x3cb2cad6	0.021825235
140	0x3b4bbd73	0.0031088262
141	0x3aa87b64	0.0012854156
142	0x3cd2d565	0.02573652
143	0x3f26bed8	0.65134954
144	0x3cedda7f	0.029034851
145	0x3a509cf7	0.000795796
146	0x3a350786	0.0006905723
147	0x3bd55c2b	0.0065112314
148	0x3d3d6934	0.046242908
149	0x3c0c7c39	0.008574539

conv1.bias f4 [6]
0	0x3d54f2b3	0.05198927
1	0x3d96bbc3	0.073600315
2	0xbeb94477	-0.36185047
3	0x3e09c786	0.13455018
4	0xbf0e0880	-0.5548172
5	0xbd079342	-0.03309942

conv2.weight f4 [16, 6, 5, 5]
0	0x3bcde3fd	0.006283282
1	0x3da4d5a3	0.080485605
2	0x3d958587	0.07300859
3	0x3d36c6f2	0.044623323
4	0x3d10e9cf	0.035379227
5	0xbd0c3122	-0.034226544
6	0x3dbf1f64	0.09332159
7	0x3d5d6097	0.054047193
8	0xbd8260f7	-0.06366151
9	0xbdff40a3	-0.124635
10	0x3d85bbf2	0.06529988
11	0x3dab8e5c	0.08376762
12	0x3c82d7de	0.015972074
13	0xbf0124ce	-0.50446784
14	0xbc02d0ef	-0.007984384
15	0x3db25e7f	0.0870943
16	0x3d44e3df	0.048068877
17	0xbe751ac3	-0.2393599
18	0xbeb12103	-0.34595498
19	0x3dd6cdce	0.10488473
20	0x3d63f2f9	0.05565164
21	0xbd9503c4	-0.07276109
22	0xbf487213	-0.78299063
23	0xbeb57785	-0.3544275
24	0xbd1bf7e8	-0.03807822
25	0x3cf9b7e7	0.0304832
26	0x3d4b4d67	0.049634364
27	0x3d809f8c	0.06280431
28	0x3dc49b9e	0.09599994
29	0x3d7e6da7	0.06211629
30	0x3d9b1cfb	0.07573887
31	0x3ce24ceb	0.027624568
32	0x3c66d519	0.014088892
33	0xbdd6c11d	-0.10486052
34	0x3d2b7845	0.041862745
35	0x3d7ff616	0.062490545
36	0x3ce7cb3f	0.028295157
37	0xbe65d20f	-0.22443412
38	0xbe5cce20	-0.21563005
39	0x3e348ca3	0.17631774
40	0x3dadc60e	0.084850416
41	0xbc98ba48	-0.018643513
42	0xbef9e520	-0.4880762
43	0x3d0f8b59	0.035045
44	0x3e0f474f	0.13992046
45	0xbd04cb24	-0.032420292
46	0xbe9fda8a	-0.3122142
47	0xbe8bf648	-0.27336335
48	0xbd62c3a6	-0.055362366
49	0xbb54bcf7	-0.0032461265
50	0xbd75b533	-0.05998726
51	0x3d85fa9e	0.06541942
52	0x3d14ff50	0.036376297
53	0x3d54982f	0.051902946
54	0x3d8aea7a	0.06783004
55	0xbd05530d	-0.032549907
56	0xbd416b7e	-0.047221653
57	0xbaea7769	-0.001788837
58	0x3d1528eb	0.036415976
59	0x3d59b9c4	0.053155676
60	0xbd5bf872	-0.053703733
61	0xbd423aaf	-0.047419246
62	0xbbdb1da8	-0.006686885
63	0xbd41c235	-0.04730435
64	0xbd7ac815	-0.06122597
65	0xbc4b47ef	-0.012407287
66	0xbd64f5a3	-0.05589832
67	0xbd8a2347	-0.0674501
68	0xbe50a59b	-0.20375673
69	0xbda8cddc	-0.082423896
70	0x3bd4bee3	0.006492482
71	0x3bf33f40	0.0074233115
72	0xbd118213	-0.03552444
73	0xbc82dbc2	-0.01597393
74	0x3cc91ee8	0.02455087
75	0x3d38a51b	0.04507933
76	0x3dcd08de	0.10011457
77	0x3db708b7	0.08937209
78	0x3dadcffc	0.084869355
79	0x3d7d946c	0.061909124
80	0x3d9c1d45	0.0762277
81	0x3dab04fa	0.083505586
82	0x3cbd55d7	0.02311222
83	0x3b7b8b5a	0.003838262
84	0x3d04f662	0.03246153
85	0x3d88691a	0.066606715
86	0xbd14293b	-0.036172133
87	0xbee3ba06	-0.44477862
88	0x3cc8aa1d	0.024495179
89	0x3d6ed88e	0.05831199
90	0x3d954126	0.07287817
91	0xbed6ceca	-0.41954643
92	0xbe7beb77	-0.24601541
93	0x3e07b982	0.1325436
94	0x3c114aba	0.008867914
95	0xbda639fe	-0.0811653
96	0xbf70101d	-0.93774587
97	0xbd56cdf8	-0.05244252
98	0x3d1f2256	0.038851105
99	0xbc75f420	-0.015011817
100	0x3dc4b73c	0.09605262
101	0x3d4ec505	0.05048086
102	0x3b8bc0c5	0.0042649233
103	0xbd57712d	-0.052598167
104	0xbc35a1bc	-0.011085924
105	0xbc235bee	-0.009970648
106	0x3d1ad239	0.03779814
107	0x3d1861a8	0.037202507
108	0x3aa6cf3b	0.0012726554
109	0xbbc78c91	-0.006089755
110	0xbd253893	-0.040337157
111	0x3d9eb1b4	0.07748738
112	0x3d517a2e	0.05114191
113	0x3c1a8e80	0.009433389
114	0xbdf762ba	-0.120793775
115	0x3d74c958	0.05976233
116	0x3d7651bd	0.060136545
117	0xbcc76cfb	-0.024343958
118	0xbd6cdb88	-0.05782655
119	0x3eaa96c7	0.3331816
120	0xbd0c4998	-0.034249872
121	0xbd0b1597	-0.033956137
122	0xbe3c1321	-0.18366672
123	0xbe638a41	-0.22220708
124	0xbdc97d17	-0.09838312
125	0x3d748451	0.0596965
126	0x3d835bbf	0.064139836
127	0x3d5c7453	0.053821873
128	0x3c523493	0.0128299175
129	0x3d6fc565	0.05853786
130	0x3daa6ddd	0.08321736
131	0x3d0d96e4	0.03456773
132	0xbe267bf5	-0.16258223
133	0xbdc92249	-0.098209925
134	0x3e18715d	0.14886995
135	0x3e257284	0.16156965
136	0xbd96472c	-0.07337794
137	0xbed49275	-0.41517988
138	0x3d47169d	0.04860555
139	0x3e2095c5	0.15682133
140	0xbc652274	-0.013985265
141	0xbe8e07e8	-0.27740407
142	0xbbce046f	-0.0062871496
143	0x3d41abec	0.047283098
144	0x3d1289c6	0.035775922
145	0xbe132d59	-0.14372768
146	0xbf22e7ed	-0.6363514
147	0xbeb8244a	-0.35965186
148	0xbdb01080	-0.08596897
149	0x3d066fb5	0.032821376
150	0xbc72b4a4	-0.014813576
151	0xba2d6aa6	-0.0006615318
152	0x3cffb921	0.031216206
153	0xbbb4f161	-0.0055219387
154	0xbd34355b	-0.043996196
155	0x3c1675db	0.009183372
156	0xbdd9f1c4	-0.10641816
157	0xbe1bd6c9	-0.15218653
158	0x3a9070fd	0.0011020001
159	0x3c50aa52	0.01273592
160	0xbcbb0fb5	-0.022834638
161	0xbe99b9ec	-0.3002466
162	0x3dac8823	0.084244035
163	0x3d37cf5c	0.044875488
164	0x3d2d81e3	0.042360198
165	0x3dc66809	0.09687812
166	0x3e2c0bef	0.16801427
167	0x3e00443f	0.12526034
168	0x3a6d66e1	0.00090561627
169	0x3c580c4a	0.013186524
170	0x3cd8234d	0.02638402
171	0x3e13ef82	0.14446834
172	0x3d224ff6	0.039627038
173	0xbbb0cf35	-0.0053957948
174	0x3b8c94df	0.0042902078
175	0x3d3b4c25	0.045726914
176	0x3c2c366b	0.010511021
177	0xbd39d8eb	-0.045372885
178	0xbd5b9245	-0.05360629
179	0xbd62dae8	-0.055384547
180	0xbd6fb973	-0.058526468
181	0xbd9fd782	-0.07804777
182	0xbd0eafdc	-0.03483568
183	0x3c2af24f	0.010433747
184	0x3c6505bd	0.013978419
185	0xbe9cb287	-0.30604956
186	0xbcaea80a	-0.021320362
187	0x3d60bd03	0.054867756
188	0x3d1455e7	0.036214735
189	0xba8c8da0	-0.001072336
190	0x3d7465b4	0.059667304
191	0x3d9c808b	0.07641705
192	0x3cd20516	0.02563719
193	0x3cd45327	0.025918556
194	0x3bd36a36	0.0064518703
195	0x3e0eb86e	0.13937542
196	0x3d9a6883	0.07539465
197	0xbcca68cf	-0.02470818
198	0x3d28db8d	0.041225005
199	0x3c114464	0.008866403
200	0x3b1bd8b3	0.0023780286
201	0x3d15a2cd	0.036532212
202	0x3d08d4c6	0.03340604
203	0x3d353fb5	0.04425021
204	0xbce3d5f7	-0.027811987
205	0xbcfbfcb7	-0.030760152
206	0x3d844bdc	0.064597815
207	0x3da10cc7	0.07863765
208	0x3d81f370	0.0634526
209	0x3c9b371f	0.018947182
210	0xbbbcd600	-0.0057628155
211	0x3da6b4d0	0.08139956
212	0xbd2b188e	-0.041771464
213	0xbc73c903	-0.014879468
214	0xbd150d39	-0.036389563
215	0xbd21f951	-0.039544407
216	0xbe34ebb3	-0.17668037
217	0x3bd3924b	0.0064566485
218	0x3c03e5d9	0.008050405
219	0xbd5f1687	-0.054464843
220	0x3d613212	0.05497939
221	0xbac75cb5	-0.0015210124
222	0xbcafc419	-0.021455811
223	0xbc49f2a3	-0.0123259155
224	0xbb71af1f	-0.0036878062
225	0x3d8f3d14	0.069940716
226	0x3c2ed033	0.010669756
227	0xbd5e787f	-0.054314133
228	0xbd9ee477	-0.0775842
229	0xbd62ac4c	-0.055340096
230	0x3d5cc4cc	0.053898618
231	0xbac22723	-0.0014812689
232	0xbc049a93	-0.008093494
233	0xbae80388	-0.0017701248
234	0xbc09b174	-0.0084041245
235	0xbeb781de	-0.35841268
236	0x3d8cc6c7	0.06873851
237	0x3d5c1beb	0.053737562
238	0x3d4c2d7c	0.049848065
239	0x3b8c9b07	0.0042909416
240	0x3de14d04	0.11001018
241	0x3e0e7554	0.13911945
242	0x3d31216a	0.043244757
243	0x3d616ccc	0.055035397
244	0x3d004bf3	0.03132243
245	0x3e2cae76	0.16863427
246	0x3d4488e1	0.0479821
247	0x3c94786f	0.018123833
248	0x3d22a443	0.039707433
249	0xbc8b504e	-0.017006066
250	0xbe00352c	-0.12520283
251	0x3cf9fc60	0.03051585
252	0x3d9598f9	0.07304568
253	0x3cc9c831	0.024631592
254	0xbc72c026	-0.01481632
255	0x3d335ead	0.04379146

conv2.bias f4 [16]
0	0x3ec313a8	0.38100934
1	0xbe2306fe	-0.15920636
2	0x3ee0f448	0.43936372
3	0xbd7be6e9	-0.06149951
4	0x3e195df6	0.1497725
5	0x3ec2fa49	0.38081577
6	0x3f1e757f	0.61898035
7	0xbdc7d755	-0.09757868
8	0x3dbb4e46	0.09145789
9	0x3e1d8ecb	0.15386502
10	0xbdcd679a	-0.10029526
11	0x3e245960	0.16049719
12	0xbe339068	-0.17535555
13	0xbd89ddb1	-0.067317374
14	0x3de908e4	0.11378649
15	0x3f2288a4	0.6348975

fc1.weight f4 [120, 256]
0	0x3d334525	0.043767113
1	0xbc8ddc1d	-0.017316872
2	0x3d9a01a9	0.07519848
3	0x3da5ef07	0.081022315
4	0xbdc16998	-0.094439685
5	0xbca6b1a9	-0.020348387
6	0xbc0fc4e8	-0.008774973
7	0xbd1edf54	-0.0387872
8	0xbe18270b	-0.14858644
9	0x3d16f010	0.036850035
10	0xbe0d12c8	-0.13776696
11	0xbcea2d0c	-0.028585933
12	0x3e0197d5	0.12655576
13	0x3e811768	0.2521317
14	0x3e24408c	0.16040248
15	0xbcd79344	-0.026315339
16	0xbe14c86c	-0.1452958
17	0x3c0a96a6	0.008458769
18	0x3d9412c9	0.072301455
19	0xbd22ffb9	-0.039794657
20	0xbc6d1b6b	-0.014471869
21	0x3c1686a0	0.009187371
22	0x3d974478	0.07386106
23	0x3dc21e09	0.09478385
24	0x3bb93265	0.0056517594
25	0xbda08e0d	-0.07839594
26	0xbcca7db3	-0.024718141
27	0xbe0448f3	-0.12918453
28	0xbdb93755	-0.09043757
29	0xbd804183	-0.06262495
30	0xbe0511d5	-0.12995084
31	0xbeb5a13e	-0.3547458
32	0xbe15ed3e	-0.14641282
33	0xbe5e93ce	-0.2173607
34	0x3c4e0bbe	0.012576042
35	0x3e2565c4	0.16152102
36	0xbd3619ab	-0.044458073
37	0x3c94194e	0.018078472
38	0x3d856d54	0.06514993
39	0xbe28f07c	-0.16497988
40	0xbccb7bc6	-0.024839293
41	0x3e323103	0.17401509
42	0xbcdc29b8	-0.026875362
43	0xbe1aaae4	-0.15104252
44	0xbe29f043	-0.16595559
45	0x3e2511d9	0.1612009
46	0xbe42d71c	-0.1902737
47	0x3c7ea67b	0.015542622
48	0xbd1ef8b0	-0.038811386
49	0x3c9e2785	0.019305954
50	0x3cdfd130	0.027321428
51	0xbc977d6f	-0.018492429
52	0xbca95ee3	-0.020675128
53	0x3c834061	0.01602191
54	0x3dd02d25	0.10164861
55	0x3baa7baa	0.00520273
56	0xbcf250a3	-0.029579466
57	0x3cbb4f7d	0.022865051
58	0xbd8c7535	-0.06858293
59	0x3d32a635	0.04361554
60	0xba87666f	-0.001033021
61	0x3e1015ef	0.14070867
62	0xbc234db6	-0.009967258
63	0x3dd97b29	0.10619194
64	0xbd655ffd	-0.055999745
65	0x3cf639a5	0.030056784
66	0xbe038a10	-0.12845635
67	0x3bd5cfc2	0.006525011
68	0xbdec4147	-0.11535888
69	0xbb6f6d6f	-0.0036533733
70	0xbdc665d9	-0.09687395
71	0x3d1a5d1a	0.037686445
72	0xbd18ea3b	-0.037332755
73	0xbe030de6	-0.1279827
74	0x3c6b57a8	0.014364161
75	0x3d11cbea	0.03559486
76	0x3a3e1116	0.0007250471
77	0xbb497e59	-0.0030745475
78	0xbd1cb7ad	-0.038261104
79	0xbdf6c251	-0.12048782
80	0xbd5677e7	-0.05236044
81	0xbd843210	-0.06454861
82	0xbe5e6b46	-0.21720609
83	0x3c4cd525	0.0125019895
84	0x3d97607e	0.07391451
85	0x3da550e0	0.08072066
86	0xbd7a461c	-0.061102018
87	0x3e079483	0.13240246
88	0xbd1eaf39	-0.038741324
89	0x3dcfc7a6	0.10145502
90	0xbda94a45	-0.08266119
91	0x3de61af8	0.11235613
92	0xbd6aeaef	-0.057352956
93	0x3def3cae	0.116814956
94	0xbda7f061	-0.082001455
95	0xbe31d61f	-0.17366837
96	0xbc94c76c	-0.018161498
97	0x3d5ce911	0.053933207
98	0x3d57f3ef	0.052722868
99	0xbe4ba906	-0.19888696
100	0x3e584224	0.2111898
101	0x3e9091f2	0.28236347
102	0x3e56cd73	0.2097681
103	0x3bc40263	0.00598173
104	0xbc7450e9	-0.014911869
105	0x3e46f301	0.19428636
106	0xbca36239	-0.019944297
107	0xbdc59ac1	-0.096486576
108	0x3e049213	0.12946348
109	0x3d6b0e85	0.057386894
110	0xbefd690f	-0.49494216
111	0xbea6b4fe	-0.3255996
112	0xbdd3011c	-0.10302946
113	0x3cdb0b9b	0.026738932
114	0xbd9a8481	-0.07544804
115	0xbd7ecdb4	-0.062207893
116	0xbd928c1d	-0.07155631
117	0x3cf44862	0.029819671
118	0x3d3d2dbd	0.046186198
119	0xbcb404a5	-0.021974871
120	0x3e09aad8	0.13444078
121	0x3c79742b	0.0152254505
122	0xbd8c7d57	-0.06859844
123	0x3d2c112a	0.042008556
124	0xbe10d7c4	-0.14144808
125	0xbe3ba9ff	-0.18326567
126	0xbb9b14f3	-0.004732722
127	0x3e1048c5	0.1409026
128	0x3db8bf9f	0.09020924
129	0xbb065552	-0.0020497632
130	0x3df8673e	0.12129067
131	0x3d2e89cf	0.042611893
132	0x3c21d953	0.009878474
133	0x3df8e28f	0.121525876
134	0x3d0cd12e	0.034379177
135	0x38a97d5c	8.081898e-05
136	0xbe5cda41	-0.21567632
137	0x3dfd949a	0.12381859
138	0x3de997c7	0.11405902
139	0xbec7d7c1	-0.39031795
140	0x3dbe9e11	0.093074925
141	0x3d360f08	0.04444793
142	0xbd10dd1f	-0.035367128
143	0x3dece262	0.115666166
144	0x3d506f7c	0.05088757
145	0x3e1c478b	0.15261666
146	0x3c3e3b00	0.011610746
147	0x3d4b700a	0.049667396
148	0x3d310808	0.04322055
149	0x3e4e0ed2	0.20122841
150	0xbde37612	-0.111065045
151	0xbeb48824	-0.35260117
152	0x3cd96e36	0.02654181
153	0xbe3c5578	-0.18391979
154	0xbeb87d38	-0.36033034
155	0xbd360f09	-0.044447932
156	0x3c009d5b	0.0078500165
157	0xbd08a6be	-0.033362143
158	0xbda6aa50	-0.08137953
159	0x3dd82d70	0.105555415
160	0xbdd248ad	-0.10267768
161	0xbca9ad3c	-0.020712487
162	0x3d76e17d	0.060273636
163	0x3e161366	0.14655837
164	0x3d8a66d9	0.06757898
165	0xbdf6403d	-0.12023971
166	0x3dc26eb3	0.094937705
167	0x3c291363	0.010319564
168	0xbe05c2f5	-0.13062651
169	0xbd015ede	-0.031584613
170	0x3e0918e7	0.13388406
171	0xbdfdff77	-0.12402242
172	0xbd7e34ef	-0.0620622
173	0x3e5f8f0e	0.21831915
174	0x3dd980d4	0.10620275
175	0xbc6ca344	-0.014443222
176	0x3e0564a1	0.13026668
177	0xbd5afa9a	-0.05346165
178	0x3cbb7054	0.02288071
179	0x3dc1ee67	0.094693
180	0x3e04479a	0.12917939
181	0x3e126286	0.14295396
182	0x3e4445ac	0.19167203
183	0xbd4cfd50	-0.050046265
184	0x3c7972bc	0.015225109
185	0x3e98b2f8	0.29824042
186	0xbd264184	-0.040589824
187	0xbcc1d7e4	-0.023662515
188	0xbc88bee8	-0.016692594
189	0x3c2de174	0.010612834
190	0xbdd437fa	-0.10362239
191	0xbe232749	-0.15932955
192	0x3b4b1c6b	0.003099228
193	0xbd2d6362	-0.042331107
194	0xbb968f02	-0.0045946846
195	0xbd400324	-0.046877995
196	0x3b98d952	0.0046645785
197	0xbccfdaae	-0.02537283
198	0xbd1eb111	-0.038743082
199	0x3ced7452	0.02898613
200	0x3d8d67b4	0.069045454
201	0x3dd3ac14	0.10335556
202	0x3cf97833	0.030452823
203	0x3cd45c7b	0.025923004
204	0x3d26c5ae	0.040715866
205	0xbdbce554	-0.09223428
206	0xbd3203d9	-0.0434607
207	0xbd080b7c	-0.033214077
208	0x3c6a5d6b	0.014304499
209	0x3cf4c2a6	0.029877972
210	0x3de807e3	0.11329629
211	0xbe223ee1	-0.15844299
212	0xbdc722a5	-0.09723405
213	0xbb061319	-0.002045816
214	0x3cfa51c6	0.03055657
215	0xbd8e8c64	-0.06960371
216	0x3ca75628	0.020426825
217	0x3d83c939	0.064348646
218	0xbe2e1173	-0.16998844
219	0xbbf98937	-0.0076152342
220	0x3ba1a76b	0.004933288
221	0x3c29dead	0.010368031
222	0x3d898b17	0.067159824
223	0x3dfb3bbb	0.12267252
224	0xbc5d06f3	-0.013490426
225	0x3df3084f	0.11866819
226	0xbc9e3b72	-0.019315455
227	0x3c60a871	0.013712035
228	0xbdd61417	-0.104530506
229	0xbe07ecde	-0.13273951
230	0x3dbda962	0.09260823
231	0x3e232730	0.15932918
232	0xbd9b0bc8	-0.075706065
233	0xbdfc06e4	-0.12306002
234	0x3d24d2f0	0.04024023
235	0x3c9111f5	0.017708758
236	0xbde44716	-0.11146371
237	0x3d8061ab	0.06268629
238	0x3d85c088	0.06530863
239	0xbeb8ffad	-0.36132565
240	0x3bd2b79e	0.0064305803
241	0x3d3d69ef	0.046243604
242	0xbc9b58e6	-0.018963289
243	0xbd5a40d3	-0.053284477
244	0x3cd1eeb8	0.025626525
245	0x3d2e7e65	0.042601008
246	0x3dd28713	0.102796696
247	0x3cfb5ea4	0.030684777
248	0xbe29c68b	-0.16579644
249	0xbcd4dc0b	-0.02598383
250	0xbe09b14b	-0.13446538
251	0x3cdeed1e	0.027212676
252	0x3cda4132	0.026642416
253	0x3d4da608	0.050207168
254	0xbe6f328d	-0.23359127
255	0xbcf6f291	-0.030144962

fc1.bias f4 [120]
0	0x3d4b51bf	0.049638506
1	0xbdb6e1e6	-0.089298055
2	0x3d8f5dc8	0.07000309
3	0x3b9f681e	0.0048647067
4	0xbd4acdc4	-0.04951264
5	0x3d40f45c	0.04710804
6	0xbd491e9b	-0.049101453
7	0x3cb6e6f9	0.022326933
8	0x3d211671	0.039328042
9	0x3e39fedd	0.18163629
10	0xbcb58095	-0.02215604
11	0xbd37bcff	-0.044857975
12	0x3d7acfc4	0.061233297
13	0x3d4135f5	0.047170598
14	0x3886c94c	6.4271124e-05
15	0xbd51af12	-0.05119235
16	0x3d824003	0.063598655
17	0x39869b41	0.00025674145
18	0xbcfe50af	-0.031044332
19	0xbda2c3d7	-0.0794751
20	0xbcdf7015	-0.027275125
21	0xbd6583e9	-0.056034002
22	0x3c80bd7a	0.01571535
23	0x3e2f67c2	0.17129424
24	0x3df1c7f1	0.11805714
25	0xbcb5d2ef	-0.022195308
26	0xbc11f33e	-0.008908091
27	0xbda83cea	-0.082147434
28	0x3d194037	0.037414756
29	0x3e137d6d	0.14403315
30	0xbcae17a9	-0.021251516
31	0xbcce0e08	-0.025153175
32	0xbd295869	-0.04134408
33	0xbbaa7a84	-0.0052025933
34	0xbd425d5f	-0.047452327
35	0x3d190469	0.03735772
36	0xbd3b5291	-0.04573304
37	0x3dc1154b	0.094278894
38	0xbd60e9c8	-0.05491045
39	0x3e05ef2a	0.13079515
40	0x3dec1887	0.11528116
41	0xbd173e97	-0.036924925
42	0x3e0c5669	0.13704838
43	0x3b0da08f	0.0021610593
44	0xbd96019e	-0.07324527
45	0x3c95a7ff	0.018268583
46	0x3b49e864	0.0030808682
47	0xbd25ed78	-0.04050967
48	0x3d4d5aae	0.050135307
49	0xbcab1008	-0.020881668
50	0xbc07618b	-0.008263002
51	0x3db8b86c	0.09019551
52	0xbc8bdc05	-0.017072687
53	0x3de9ea40	0.11421633
54	0x3a9b394c	0.0011842637
55	0xbce5b23e	-0.028039094
56	0xbd8344c7	-0.064096026
57	0x3dc6a313	0.09699073
58	0xbd576839	-0.05258963
59	0x3c3933df	0.011303871
60	0x3d87252e	0.06598888
61	0x3c4a99c5	0.012365763
62	0xbb8b613f	-0.004253536
63	0x3c38b511	0.011273638
64	0xbd6c1d42	-0.05764509
65	0xbb597949	-0.0033183864
66	0x3df61bc8	0.120170176
67	0xba3e8fa2	-0.0007269328
68	0xbd86ec29	-0.06588013
69	0x3ba3b0fe	0.0049954643
70	0x3c2c378d	0.010511291
71	0x3d14d5f1	0.036336843
72	0xbe2d7cf5	-0.16942199
73	0xbc0183e9	-0.007904985
74	0x3d2f603f	0.042816397
75	0xbd6c9037	-0.05775472
76	0x3d29a9af	0.04142159
77	0x3e0ebc7f	0.13939093
78	0xbd44bebc	-0.04803346
79	0xbca6ef15	-0.020377675
80	0x3da43cdd	0.08019421
81	0xbd46b2a7	-0.04851022
82	0x3bd024a3	0.0063520237
83	0xba1254b2	-0.00055820786
84	0xbc2c724e	-0.010525299
85	0xbd2e0821	-0.04248822
86	0x3dd2c158	0.10290784
87	0x3d994849	0.074844904
88	0x3e38e6a9	0.1805674
89	0x3e4cb0a3	0.19989257
90	0xbd04dc9c	-0.032436952
91	0xbc5f5394	-0.013630766
92	0x3be4db0f	0.0069841216
93	0xbd4df4d6	-0.050282322
94	0x3c075e23	0.00826219
95	0x3e280031	0.16406323
96	0xbcc4124f	-0.023934511
97	0xbd5c0492	-0.053715296
98	0xbd1a4a57	-0.037668552
99	0x3d00e4bf	0.03146815
100	0xbd77283a	-0.060341097
101	0xbc51a32c	-0.012795251
102	0x3c601bae	0.013678474
103	0xbc64d483	-0.013966682
104	0xbcb8d380	-0.022561789
105	0x3da05f20	0.07830644
106	0x3d34279c	0.043983087
107	0x3d4d1d66	0.050076865
108	0x3b125c9c	0.0022333032
109	0xbd1c1aa8	-0.03811136
110	0x3d8a8756	0.067640945
111	0x3de18a75	0.11012737
112	0xbd4f9538	-0.050679415
113	0xbd3f7d85	-0.046750564
114	0x3ddbcd92	0.10732569
115	0x3d479cf3	0.048733663
116	0x3c31017e	0.010803578
117	0xbcec0ea8	-0.028815582
118	0x3cb81b14	0.02247385
119	0x3dfb46e3	0.1226938

fc2.weight f4 [84, 120]
0	0xbd56764f	-0.05235892
1	0x3da3ba95	0.07994572
2	0x3de49c11	0.1116258
3	0x3d9e78c5	0.07737879
4	0x3bf45cdd	0.007457359
5	0x3d4d34da	0.05009923
6	0xbb548a1d	-0.0032430955
7	0xbdafeec2	-0.08590461
8	0xbd1cdb8e	-0.03829532
9	0x3d000597	0.03125533
10	0xbd88170e	-0.06645022
11	0xbdb239a0	-0.08702397
12	0x3d44a1b9	0.048005793
13	0x3d3613df	0.044452544
14	0xbd59f11f	-0.053208467
15	0x3d1bc53d	0.038029898
16	0xbd58cc3d	-0.05292915
17	0xbd7e36ac	-0.062063858
18	0xbd9a12f5	-0.07523147
19	0x3d9b176e	0.07572828
20	0x3d0c4d48	0.03425339
21	0x3d920618	0.071300685
22	0xbd8c54b1	-0.06852091
23	0x3c8122ea	0.015763719
24	0xbd8d4d86	-0.06899552
25	0x3da64a37	0.08119624
26	0x3c9e3c57	0.019315882
27	0xbcf85e13	-0.030318296
28	0x3da09254	0.0784041
29	0xbd360d7e	-0.04444646
30	0x3d147ecc	0.036253735
31	0xbda7be78	-0.08190626
32	0x3d4129c6	0.04715898
33	0xbda38f0f	-0.07986271
34	0xbda00570	-0.07813537
35	0xbd9b1a07	-0.07573324
36	0x3da000c1	0.07812644
37	0xbce13570	-0.027491301
38	0x3d0d9c58	0.03457293
39	0xbc1ca9f9	-0.009562009
40	0xbd8feb0f	-0.07027256
41	0x3d484395	0.048892576
42	0xbe3ad08a	-0.18243614
43	0xbd86158c	-0.065470785
44	0x3da79bec	0.081840366
45	0x3d9fc1bc	0.07800624
46	0x3d0b95fb	0.03407858
47	0x3da5af52	0.0809008
48	0x3da52df3	0.08065405
49	0x3ef54447	0.47903654
50	0x3d6e6be8	0.058208376
51	0xbe1ed3b0	-0.1551044
52	0xbbbf3838	-0.005835559
53	0x3b460661	0.0030216204
54	0x3d4009ef	0.046884473
55	0x3d1d3c2c	0.038387462
56	0xbd4658b1	-0.048424426
57	0xbe003f30	-0.12524104
58	0xbd0a79d0	-0.033807576
59	0x3d3651db	0.044511657
60	0xbdbc7d2a	-0.09203561
61	0x3d8094a5	0.06278352
62	0xbd78c564	-0.06073512
63	0xbd0fba4a	-0.03508977
64	0xbc62b984	-0.013838176
65	0x3dfcf62a	0.123516396
66	0x3d8c39fc	0.06846997
67	0x3dc1987d	0.09452913
68	0x3c97a256	0.018510025
69	0xbdb84ee3	-0.089994214
70	0x3e07c591	0.1325896
71	0x3d5b806b	0.053589266
72	0x3c4e9b23	0.01261023
73	0x3c584882	0.013200881
74	0xbd8a94f3	-0.06766691
75	0x3d95e3e1	0.07318855
76	0xbd46e9d3	-0.048562836
77	0x3ca5bc66	0.020231437
78	0x3d50269b	0.050818067
79	0xbd648afa	-0.0557966
80	0x3ba53e1c	0.0050428044
81	0xbd4a7f9a	-0.049438097
82	0xbd7a06af	-0.06104153
83	0xbbcc7725	-0.006239789
84	0xbdcae181	-0.09906293
85	0x3c944eec	0.01810404
86	0xbd662787	-0.05619004
87	0xbdd8079b	-0.10548326
88	0x3ba4ccdc	0.005029304
89	0xbd8cb68f	-0.06870758
90	0x3d82f7b8	0.06394905
91	0x3d30f6ed	0.043204237
92	0x3d493e45	0.04913165
93	0xbe082cc4	-0.13298327
94	0x3da204c4	0.07911065
95	0xbdce03ef	-0.10059344
96	0xbcddb35a	-0.02706306
97	0x3d439d25	0.047757287
98	0xbd449768	-0.047995955
99	0xbe08ddab	-0.1336581
100	0xbd9a82c5	-0.075444736
101	0xbe50212c	-0.20325154
102	0x3db4f0f1	0.088350184
103	0xbde67d84	-0.11254409
104	0xbd59b21f	-0.053148385
105	0x3ccdf8f1	0.025143119
106	0xbcdf9de4	-0.027296968
107	0xbe29cc06	-0.16581735
108	0xbd006a9b	-0.031351667
109	0xbca8a77a	-0.020587672
110	0xbc5a527e	-0.013325332
111	0x3cbd3986	0.023098718
112	0x3cdebf2b	0.027190765
113	0x3daf311d	0.085542895
114	0xbdc8dfd9	-0.098083206
115	0xba4cdc55	-0.00078148145
116	0x3d791bb9	0.060817454
117	0x3c562db7	0.013072423
118	0xbe251f2a	-0.1612517
119	0xbd7688b9	-0.060188983
120	0x3d273f26	0.040831707
121	0xbd93e7f9	-0.0722198
122	0xbd7fcf77	-0.062453713
123	0xbe2a5ed8	-0.16637743
124	0xbd4fea40	-0.050760508
125	0xbc99a5f7	-0.018755896
126	0xbd85caa4	-0.06532791
127	0xbd879a5b	-0.06621238
128	0xbd857b05	-0.06517605
129	0xbdeb914d	-0.11502323
130	0xbd054122	-0.03253282
131	0xbdbf4485	-0.09339241
132	0x3d7ee29d	0.062227834
133	0x3e047e75	0.12938865
134	0xbd8ce587	-0.06879716
135	0x3d91c4bc	0.07117602
136	0xbc76e522	-0.015069278
137	0x3b1cb38a	0.0023910725
138	0xbd5fa0af	-0.0545966
139	0xbd12e880	-0.03586626
140	0x3de7da05	0.11320881
141	0x3c6ed44c	0.014576983
142	0xbe6c2da7	-0.2306429
143	0x3df8a846	0.121414706
144	0xbd52140c	-0.05128865
145	0x3d05f6de	0.032706134
146	0xbc8f4120	-0.017487109
147	0x3bdd53b1	0.0067543616
148	0x3d7c3552	0.061574288
149	0x3db61cb1	0.08892191
150	0x3d82e7e0	0.06391883
151	0x3d259764	0.04042758
152	0xbd67b494	-0.056568697
153	0x3bf2cadd	0.007409437
154	0x3d68fefe	0.056883805
155	0xbc1236c2	-0.008924188
156	0xbd229c92	-0.0397001
157	0xbd40884a	-0.047004975
158	0x3d8e69fa	0.06953807
159	0x3d06c011	0.032898013
160	0x3e0cd83d	0.13754363
161	0xbd9264d2	-0.07148136
162	0x3cebc422	0.028780047
163	0xbddc3e09	-0.1075402
164	0x3d58308c	0.052780673
165	0x3ea723bf	0.3264446
166	0xbda204d0	-0.07911074
167	0x3baa3a2c	0.005194923
168	0xbd83bc11	-0.06432355
169	0xbd016a2d	-0.031595398
170	0x3cfc81f2	0.030823682
171	0x3d4cc624	0.04999365
172	0x3e0070b1	0.12542988
173	0xbd1b630a	-0.037936248
174	0x3b8ea8b3	0.0043536066
175	0xbd244905	-0.0401087
176	0x3bb6a6a2	0.0055740634
177	0x3e23ddc5	0.16002567
178	0x3db4252c	0.087961525
179	0xbe1d930a	-0.15388122
180	0xbc2337a8	-0.009962
181	0xbd9f629a	-0.07782479
182	0x3cca3031	0.024681183
183	0xbcdaa017	-0.026687665
184	0xbc37b44f	-0.0112124225
185	0xbd6ae65a	-0.057348587
186	0xbce1f7bd	-0.027583951
187	0x3cd1e635	0.025622467
188	0xbc898301	-0.0167861
189	0xbd57caf6	-0.052683793
190	0xbba2cedb	-0.0049685067
191	0x3cdb63f9	0.02678107
192	0x3dc78988	0.09743029
193	0xbd753000	-0.05986023
194	0xbcbd6acb	-0.023122212
195	0xbcb46dbd	-0.022024984
196	0xbae178ff	-0.0017202197
197	0xbbaad183	-0.005212964
198	0xbc5db100	-0.01353097
199	0x3da15e4d	0.078793146
200	0x3d9b5668	0.0758484
201	0x3d8f0dee	0.06985079
202	0x3d2eea85	0.042704124
203	0x3dec768c	0.115460485
204	0x3dc7df02	0.09759332
205	0xbd88e6d4	-0.06684652
206	0x3d7b34cc	0.061329648
207	0xbda62aba	-0.08113618
208	0x3db6e4a5	0.08930329
209	0xbcb3cb02	-0.021947388
210	0xbda8d214	-0.08243194
211	0x3d496dd8	0.04917702
212	0xbd86d3ff	-0.06583404
213	0xbd8d615f	-0.06903338
214	0xbc676763	-0.01412377
215	0xbd60f1dc	-0.054918155
216	0xbda2cdc0	-0.079494
217	0xbd3ee7be	-0.046607725
218	0x3d05b2c8	0.032641202
219	0xbce35072	-0.02774832
220	0xbd571f32	-0.052519985
221	0xbcbc8097	-0.023010535
222	0x3d21cda5	0.03950276
223	0xbd5fd41b	-0.05464564
224	0x3c420cf6	0.01184391
225	0x3dff66c4	0.12470773
226	0x3d321589	0.04347757
227	0x3e86e0f2	0.26343495
228	0x3e7413cf	0.23835681
229	0xbc8ef9d7	-0.017453117
230	0x3e002634	0.12514573
231	0x3d5b5ba2	0.053554185
232	0x3b88a617	0.00417019
233	0x3c764a1e	0.015032319
234	0x3cedc448	0.029024258
235	0xbd9e89f6	-0.07741158
236	0xbd191849	-0.037376676
237	0xba9113f2	-0.0011068566
238	0x3df8d59a	0.12150116
239	0xbd7f6376	-0.062350713
240	0x3d6b0b35	0.057383735
241	0x3d5a0279	0.053225014
242	0x3da509b7	0.080584936
243	0xbe97f1e7	-0.29676744
244	0xbcc80ffa	-0.02442168
245	0x3d8a0672	0.067395106
246	0xbdd92f75	-0.10604755
247	0x3d5d690f	0.05405527
248	0x3d23adc2	0.03996063
249	0xbdc86c74	-0.09786311
250	0xbd4e5b9d	-0.050380338
251	0xbdc69df4	-0.09698096
252	0xbd413507	-0.04716971
253	0x3ded628c	0.11591062
254	0x3c20ff59	0.009826505
255	0x3c819b7f	0.015821217

fc2.bias f4 [84]
0	0xbdfe301f	-0.12411522
1	0x3ca2393d	0.019802684
2	0xbd06c2c3	-0.032900583
3	0x3bb26a9b	0.0054448373
4	0xbda6b956	-0.08140819
5	0x3c8f4055	0.01748673
6	0x3d94b006	0.07260136
7	0x3ce516a0	0.02796489
8	0xbd34363a	-0.043997027
9	0x3c15a94d	0.009134603
10	0xbc6e98c1	-0.014562787
11	0xbcd693ad	-0.026193464
12	0x3c7fc806	0.015611654
13	0x3df5964a	0.11991556
14	0xbe02201a	-0.12707558
15	0x3cfcf822	0.030880038
16	0xbd865986	-0.06560044
17	0xbd8faed5	-0.070157684
18	0x3d4239ea	0.047418512
19	0x3c559548	0.01303608
20	0x3e190a9c	0.14945453
21	0xbdf24f05	-0.11831478
22	0x3cae4dd7	0.021277351
23	0x3e041cf5	0.12901671
24	0xbd9e7a72	-0.07738198
25	0xbd35d5f2	-0.044393487
26	0xbd2bccf4	-0.041943505
27	0xbde10f3b	-0.10989233
28	0x3e0e85d1	0.13918234
29	0xbc8b59b6	-0.017010551
30	0x3e33c2d8	0.17554796
31	0xbdafc083	-0.085816406
32	0x3def449b	0.11683007
33	0x3db80a38	0.08986324
34	0x3e1479d4	0.14499599
35	0x3c8f742f	0.017511455
36	0x3e125c03	0.14292912
37	0xbe04cdd7	-0.12969147
38	0x3de283fb	0.110603295
39	0x3d0da844	0.0345843
40	0xbd3031eb	-0.043016355
41	0xbdd6ae64	-0.10482481
42	0x3da1c997	0.07899778
43	0x3daa35e4	0.0831106
44	0x3d8f66dc	0.07002041
45	0x3b4b9f7b	0.00310704
46	0xbbe086fd	-0.0068520294
47	0x3c99a717	0.018756432
48	0x3d356b58	0.044291824
49	0x3d06d3a2	0.032916673
50	0xbdc9f14c	-0.09860477
51	0x3e0df22e	0.13861915
52	0xbdc6f760	-0.09715152
53	0xbdf887ca	-0.12135275
54	0x3e0aa30b	0.13538758
55	0x3d8dd861	0.069260366
56	0x3d815105	0.063142814
57	0x3e416f5e	0.1889014
58	0x3bc4ca4c	0.006005561
59	0xbdcb7819	-0.09935016
60	0x3d3e8502	0.046513565
61	0x3dbfe55d	0.093699194
62	0x3d82bd2b	0.06383737
63	0xbe1430ae	-0.14471695
64	0x3dde760b	0.10862359
65	0xbe04e15f	-0.12976597
66	0x3e1f4dc3	0.15557007
67	0x3df67d48	0.12035614
68	0xbdd8a99d	-0.10579226
69	0x3cf08b91	0.029363425
70	0x3beddda3	0.007259087
71	0xbca8bda6	-0.020598244
72	0xbd971160	-0.07376361
73	0x3d32b9a9	0.04363409
74	0xbd91781a	-0.07102986
75	0xbdb4786f	-0.088120334
76	0x3e05931e	0.13044402
77	0x3e1f96d7	0.15584885
78	0x3d14f067	0.036362078
79	0xbcb572f3	-0.022149539
80	0x3db40c69	0.087914295
81	0x3dbb3a2c	0.09141955
82	0x3d312bbc	0.0432546
83	0x3c1ded10	0.00963904

fc3.weight f4 [10, 84]
0	0xbce75fe5	-0.028243968
1	0xbd87dfb6	-0.06634466
2	0x3e659dd9	0.22423495
3	0xbc95dead	-0.018294657
4	0xbc60fcf6	-0.013732186
5	0xbd80e32c	-0.062933296
6	0x3e55b66a	0.20870367
7	0x3c957815	0.018245736
8	0x3da6e072	0.08148278
9	0xbdd9adfc	-0.10628888
10	0xbd919966	-0.071093366
11	0xbdbeb728	-0.09312278
12	0xbe9473d9	-0.28994635
13	0xbe0ed8ae	-0.13949844
14	0xbd38b61e	-0.045095555
15	0xbe07b29e	-0.13251731
16	0xbdcae16f	-0.09906279
17	0x3cb6cd7e	0.022314783
18	0xbc8ae456	-0.016954582
19	0xbcf1e4f4	-0.029528119
20	0xbe035c90	-0.12828279
21	0xbe4892ea	-0.19587293
22	0xbcd5e55d	-0.026110345
23	0xbe75f24f	-0.24018215
24	0xbdad2ef2	-0.0845622
25	0xbe35cfaa	-0.17754999
26	0xbd8bac18	-0.06819934
27	0xbe3a0547	-0.18166076
28	0xbca61dda	-0.020277906
29	0xbdab8a78	-0.0837602
30	0xbe24ce74	-0.1609438
31	0xbe1c8bb8	-0.15287673
32	0xbe06d26a	-0.13166204
33	0xbed8f8c0	-0.4237728
34	0xbdd55e28	-0.104183495
35	0x3cff346b	0.031152925
36	0x3c9e5079	0.019325482
37	0x3d844215	0.06457917
38	0xbde87b77	-0.11351674
39	0x3d8dce22	0.06924082
40	0x3e158c51	0.14604308
41	0xbbd4c9de	-0.006493791
42	0xbdd2cd1c	-0.10293028
43	0xbd06edeb	-0.03294174
44	0xbd83eaf5	-0.06441299
45	0xbe1a4125	-0.15063913
46	0xbd116fa3	-0.035506856
47	0xbda06894	-0.07832447
48	0xbd2e992e	-0.042626552
49	0xbe722148	-0.23645508
50	0xbd14606c	-0.036224768
51	0x3da530dd	0.080659606
52	0x3d43eaad	0.047831226
53	0xbc6b461e	-0.014359979
54	0x3dcb5ee0	0.09930205
55	0x3c1933c8	0.0093507245
56	0xbd9eb1de	-0.07748769
57	0x3e7e0c1d	0.24809308
58	0xbdea3a23	-0.1143687
59	0x3d4d8853	0.050178837
60	0xbd13bfa6	-0.036071442
61	0x3c804bd7	0.015661163
62	0xbd86751f	-0.06565308
63	0xba1b23ef	-0.0005918135
64	0x3dc96d6d	0.098353244
65	0xbdd41d24	-0.10357121
66	0x3e1d7f4a	0.15380588
67	0x3d40132e	0.04689329
68	0x3c860ab8	0.016362533
69	0xbd275666	-0.04085388
70	0x3e209638	0.15682304
71	0x3cb07e88	0.02154471
72	0xbdb6c819	-0.08924884
73	0x3e081854	0.1329053
74	0xbbef2539	-0.0072981385
75	0xbe71f788	-0.23629582
76	0xbead6c5d	-0.33871737
77	0xbc2fa773	-0.010721075
78	0x3bb99c78	0.0056644045
79	0xbd4b8443	-0.04968668
80	0x3d4c1855	0.049827892
81	0x3dccb2ad	0.09995017
82	0x3e0cb9f1	0.13742806
83	0x3d5b4f8f	0.05354267
84	0xbe58df4b	-0.2117893
85	0xbc8d9f57	-0.017287893
86	0xbe4ea49a	-0.20179978
87	0xbdc3b5bf	-0.0955615
88	0x3d8ad29e	0.06778453
89	0xbd4e3a9c	-0.050348863
90	0x3e1983e5	0.1499172
91	0x3d50e595	0.051000196
92	0xbdca480a	-0.098770216
93	0x3c781083	0.015140655
94	0x3e20dc30	0.15708995
95	0x3cf5d660	0.030009449
96	0xbe3d0dcb	-0.18462293
97	0x3cc44971	0.0239608
98	0xbac254f3	-0.0014826342
99	0x3d90c074	0.070679575
100	0xbd4b852e	-0.049687557
101	0x3db471b0	0.08810747
102	0xbdceda76	-0.10100262
103	0x3c40630b	0.011742364
104	0x3ccfad43	0.025351172
105	0xbe7b4fa0	-0.24542093
106	0xbdef4934	-0.11683884
107	0xbd2e8850	-0.042610466
108	0xbe0372b5	-0.12836726
109	0xbe1f1c5a	-0.15538159
110	0xbd6dc0bd	-0.058045138
111	0xbeceb516	-0.40372533
112	0xbe542b96	-0.20719752
113	0xbd165dfa	-0.036710717
114	0xbdfdc136	-0.12390368
115	0x3d906bd1	0.07051814
116	0xbe0886f4	-0.1333273
117	0x3d9ab1dc	0.07553455
118	0x3ceca0cf	0.028885273
119	0xbe62b23b	-0.22138302
120	0x3e18a127	0.14905225
121	0x3c171232	0.009220647
122	0x3da3ab63	0.07991674
123	0x3bef0748	0.007294569
124	0xbd3000c1	-0.04296947
125	0xbd7d5882	-0.061851986
126	0x3d8c4467	0.06848984
127	0x3d393d2d	0.045224357
128	0xbcd68b4d	-0.02618947
129	0x3e30eade	0.17277095
130	0xbd1f3f24	-0.038878575
131	0xbc14ebe2	-0.009089442
132	0x3c3b5030	0.011432692
133	0xbd4fbe04	-0.050718322
134	0xbdd5260b	-0.10407647
135	0xbe85a035	-0.2609879
136	0xbd66468b	-0.05621962
137	0xbe1e302e	-0.15448067
138	0xbce3cc22	-0.027807299
139	0xbe2d7078	-0.16937435
140	0xbe327c1d	-0.17430158
141	0xbdae1246	-0.08499579
142	0xbd9798de	-0.07402204
143	0xbe1888cd	-0.14895935
144	0x3dd3a02e	0.10333286
145	0xbe03d6ac	-0.1287486
146	0x3de791b4	0.113070875
147	0xbe344d20	-0.17607546
148	0x3d8561b3	0.06512775
149	0xbcb0bb80	-0.021573782
150	0xbda4ceb9	-0.08047242
151	0xbde2469b	-0.11048623
152	0xbd0f88f9	-0.035042737
153	0x3d99902d	0.074982025
154	0xbe619d4e	-0.22032663
155	0x3cbfc49e	0.023409184
156	0xbdc64b6e	-0.09682356
157	0xbd15736b	-0.036487024
158	0x3db82905	0.08992199
159	0x3dce41b3	0.10071125
160	0x3e071fc8	0.13195717
161	0xbe831fac	-0.256101
162	0xbd9cba6e	-0.07652746
163	0xbe3a36ed	-0.18185015
164	0x3ded3cc8	0.11583859
165	0x3d5f49fd	0.05451392
166	0x3db10668	0.086438
167	0x3c453878	0.012037389
168	0xbd81ad88	-0.063319266
169	0x3dae012d	0.08496318
170	0x3e6ee70a	0.23330322
171	0x3d529023	0.05140699
172	0xbd245908	-0.04012397
173	0xbb714191	-0.0036812762
174	0xbe689eb6	-0.22716793
175	0xbd141c21	-0.03615964
176	0x3d3e8612	0.04651458
177	0x3ccd0d7a	0.02503084
178	0x3d23cffb	0.039993268
179	0xbda5ea69	-0.08101351
180	0xbe8a8f2b	-0.27062353
181	0xbd6d77dd	-0.05797564
182	0x3c85e30e	0.01634362
183	0xbc7ade40	-0.015311778
184	0x3e21c281	0.15796854
185	0x3c5a1e97	0.013312957
186	0xbe36c964	-0.17850262
187	0xbd5c92d2	-0.053850956
188	0x3d3f65f0	0.046728075
189	0xbe244c6e	-0.1604478
190	0xbd473944	-0.048638597
191	0xbe902a9e	-0.28157514
192	0xbd0fdb9b	-0.03512154
193	0xbce1d937	-0.027569396
194	0xbe0bf1ba	-0.1366643
195	0xbe8a662e	-0.27031082
196	0xbdcfc355	-0.101446785
197	0xbd95fafa	-0.073232606
198	0xbe2b702f	-0.16742013
199	0x3dc18ed9	0.09451074
200	0xbe338520	-0.17531252
201	0xbdeb2bdd	-0.11482976
202	0x3c54629e	0.012962965
203	0xbe02fc6e	-0.12791607
204	0xbe2ed29d	-0.1707253
205	0xbc4e88e0	-0.012605876
206	0x3e0a1a93	0.134867
207	0x3cd57f56	0.026061695
208	0xbd11bc16	-0.035579763
209	0x3b6fdc4d	0.0036599815
210	0x3d81f2c1	0.0634513
211	0xbe17002d	-0.14746161
212	0xbd7e93bf	-0.06215262
213	0x3e311cc0	0.17296124
214	0x3c8d9330	0.017282099
215	0xbda5d73a	-0.08097692
216	0x3e4c0d8e	0.19927046
217	0xbe19923a	-0.14997187
218	0x3d90002a	0.07031281
219	0xbd1937bf	-0.03740668
220	0xbd0a77c3	-0.03380562
221	0x3d8f8333	0.07007446
222	0x3cd4756b	0.025934896
223	0x3d5d3c6f	0.054012712
224	0x3debf2a6	0.11520891
225	0xbe2f6d9d	-0.17131658
226	0xbdc3b680	-0.095562935
227	0xbd588ac1	-0.0528667
228	0x3af753ed	0.0018869616
229	0xbde6b8ad	-0.11265693
230	0xbe6563b0	-0.22401309
231	0x3d22519b	0.039628606
232	0x3d2bdd3c	0.041959032
233	0xbc5dde2c	-0.013541739
234	0xbe35719f	-0.17719124
235	0xbcf1ddc2	-0.029524688
236	0xbdb86599	-0.09003753
237	0xbdd174ab	-0.10227331
238	0x3d8e9d42	0.06963588
239	0x3b91688e	0.0044375127
240	0xbd12c210	-0.035829604
241	0x3e37d86e	0.17953655
242	0x3ba7c848	0.005120311
243	0xbcc16c56	-0.023611229
244	0xbe5f0d37	-0.21782385
245	0x3cf9c3ce	0.030488875
246	0x3b9bc962	0.0047542313
247	0x3e29d448	0.16584885
248	0x3df9bb92	0.12193979
249	0xbe8cccd7	-0.2750003
250	0xbc4df076	-0.012569537
251	0xbd70449c	-0.05865918
252	0xbdad7865	-0.08470229
253	0x3d9c64db	0.07636424
254	0xbde2aed2	-0.110685006
255	0x3cb98d53	0.022650396

fc3.bias f4 [10]
0	0x3d93b710	0.07212651
1	0xbdb4ebdf	-0.08834051
2	0x3d0b7a14	0.03405197
3	0x3c2499f9	0.010046476
4	0xbd09aa6f	-0.033609804
5	0x3cf4701a	0.02983861
6	0xbd95cf2a	-0.07314904
7	0x3d99f92c	0.07518229
8	0x3d853ac5	0.0650535
9	0xbdca161a	-0.09867497
