models/L_inf-PGD-0.3-30 BasicNet.pt (torch, 180615 bytes, 10 tensors)

conv1.weight f4 [6, 1, 5, 5]
00000000: 732b dd39 8180 cbb8 6b89 d43a 5db2 ae3c
00000010: 57ac b53c 553f 9fb9 ca15 00ba 46f9 933b
00000020: 7eaa a43e c710 493e 7b20 82bb 0dbe 89ba
00000030: 8a2d 623b 4186 c73b 6161 543d 3938 9cbb
00000040: 9d59 5ebb 8bd8 a739 dd91 f13b ec04 d83b
00000050: 6df8 bdba 1ec1 09bb 2543 17ba 700b 24b9
00000060: 219d 5db9 a991 f2ba 57e0 053a 63ce d739
00000070: a83e 0eba 5525 86ba 1332 30bb 1112 793f
00000080: 7b0e 6cbc f025 58bb 950f 53bb b1ed a5b8
00000090: ceaa 90bb fdde 25bc 4d84 4dbb 25f1 76ba
000000a0: 57cb f9ba 5542 83bb b12c 5eba 6f14 44ba
000000b0: 3eed b93a 6898 5dbb ffa6 3dbb 4415 91ba
000000c0: 2d9e 15ba 8e9d f039 998c 3b3b 916e 403b
000000d0: 13b7 ab3a f2f0 903a 4798 243b 1ee6 8b3a
000000e0: 395c 1037 b41e 02bb 8e37 d93a 1ff9 3a3b
000000f0: 0dc9 02ba 9baa 20bb 2dfa 15bb cb1f 98bb
00000100: 7fd6 b33b bb14 9db9 4889 46ba de52 33b9
00000110: 148b 94bb e355 853f 57d9 de38 16ef 78b9
00000120: c782 cc39 5df3 043b b176 b43b 3a18 29bb
00000130: 715f 08bb afbe 5ebb a862 26bb 9aeb 2f3a
00000140: 0df2 b43b 3c1f 993a b90e 60bb 5516 7fbb
00000150: ba12 e4b9 ab20 223f 154b e73e 4b9b 79ba
00000160: 5d31 e4ba 8f78 9b39 a62b bf3b d1f5 893a
00000170: 7eff abb9 8522 db3a 7307 463a 4632 35b9
00000180: e830 dab9 9820 b5ba 6977 9e3a 2164 893a
00000190: 2ef8 623b 06be 053c 346e 113e 9f33 0cbc
000001a0: 045e 96ba 7c93 783b 1139 f2bb c003 043f
000001b0: a537 b33b 1545 5b3b 8b85 db3a 75b3 e6bb
000001c0: 6c01 80bc 0fee e33b bd7e b53b 3ad5 ddb9
000001d0: 951b 33bc 887a 88bc a6fb 8a3a 5744 253b
000001e0: 7f07 eaba 5296 83bb 16f1 d8bb e833 d8b9
000001f0: 274c 1a3b ce37 bcba d8eb 66bb 8761 26bb
00000200: da26 bdba 5e73 baba 92be f4ba 247c 83bb
00000210: c45d abbb 4eeb e238 989c c2bb bf40 16ba
00000220: a19b 263a 4646 c7bc 6d78 963f 0665 943a
00000230: 6029 073b 7448 9a3a ec22 18bb fea1 b83b
00000240: 2592 1abb 65a8 0f3b b6d6 df3a d5f7 6c3b
00000250: b553 75ba ce23 c3ba
0.00042184777 -9.70373e-05 0.001621527 0.021325285 0.022176905 -0.0003037403 -0.00048860593 0.0045157997
0.32161325 0.19635306 -0.003971157 -0.001050891 0.0034512007 0.0060890024 0.05185068 -0.0047674445
-0.0033927925 0.0003201406 0.0073721246 0.0065923836 -0.0014493592 -0.0021019648 -0.0005770198 -0.0001564452
-0.00021134737 -0.0018506545 0.00051069766 0.00041161766 -0.00054262066 -0.0010234514 -0.0026885315 0.9729319
-0.014407749 -0.0032981597 -0.0032205333 -7.9120866e-05 -0.0044148928 -0.010123965 -0.0031359375 -0.00094200886
-0.0019057792 -0.00400571 -0.00084752875 -0.00074798515 0.0014185084 -0.0033812765 -0.0028938649 -0.001106896
-0.0005707469 0.00045893755 0.0028617738 0.0029362778 0.0013100825 0.0011058135 0.0025115178 0.0010673439
8.604541e-06 -0.0019854726 0.0016572343 0.0028529835 -0.00049890653 -0.0024515751 -0.0022884712 -0.004642462
0.0054882164 -0.0002996082 -0.0007573557 -0.0001710164 -0.004533181 1.0416836 0.000106262676 -0.0002374019
0.0003900735 0.0020286657 0.005507313 -0.0025801794 -0.002080884 -0.0033988168 -0.0025388394 0.00067108276
0.0055220188 0.0011682282 -0.0034188463 -0.0038923223 -0.000435015 0.633311 0.4517447 -0.00095217366
-0.0017409731 0.00029653727 0.0058340607 0.001052553 -0.00032806018 0.0016718662 0.00075542106 -0.00017280233
-0.00041616638 -0.0013818918 0.001209003 0.0010482111 0.003463279 0.008162981 0.14202195 -0.008557229
-0.0011472111 0.0037929704 -0.0073920568 0.5156822 0.00546928 0.0033457924 0.0016748173 -0.007040436
-0.015625678 0.006955869 0.00553879 -0.0004231127 -0.010931869 -0.01665999 0.0010603562 0.0025217736
-0.0017855017 -0.0040157223 -0.0066205366 -0.00041237404 0.0023543925 -0.0014359893 -0.0035235789 -0.002538772
-0.0014431134 -0.0014225056 -0.0018672517 -0.0040126015 -0.0052296836 0.00010820349 -0.0059390776 -0.0005731694
0.0006355588 -0.024325501 1.1755501 0.0011321611 0.0020624027 0.001177086 -0.0023214174 0.0056345453
-0.0023585644 0.002192044 0.0017077539 0.0036158462 -0.00093584816 -0.001488799

conv1.bias f4 [6]
00000000: 9fcd b5bd d83d c53d 5b65 d33d 8cb0 f13d
00000010: 0c08 52be 20b9 f63d
-0.0887711 0.096309364 0.103220664 0.11801252 -0.20510882 0.120470285

conv2.weight f4 [16, 6, 5, 5]
00000000: 6918 d7bd bc6e 92bd fda6 0f3e e18c aa3d
00000010: 86b3 0a3e e917 4e3d 51c5 29be 4ab9 89be
00000020: d8ac 5c3d 4d8e f43d 5607 223e 39fa 1a3e
00000030: 9a1b bebd 2494 a5bd d07a 8a3e 4828 943c
00000040: 6161 023e 96a0 15bc 4509 8dbe 6668 1d3b
00000050: 5b2e dbba f793 a13c a3ba 1f3c 0b1d 05bd
00000060: 7e54 47bc a7ec 1d3c 55cf dfb9 da98 9cbd
00000070: 70c0 003d c5aa 9b3d 53a1 f53d 6ade 383d
00000080: 37eb 4fbe f11f 15bf d99c dcbd d47e 5d3d
00000090: 6fbd 1a3d 1ce1 963d 78b7 f9bc f7d9 23bf
000000a0: 48c2 6ebd 5b78 f83c 49ef 143d a0e4 013e
000000b0: 2a33 18bf 68c4 6a3c 036f 063b c306 bc3c
000000c0: 3212 ac3d fc72 2fbd bedf 00be 3435 0fbf
000000d0: 87d8 22be b046 c43d 0209 ae3d 7098 c93d
000000e0: 6a13 933d 9b65 19bf e033 d73d 1e28 103e
000000f0: 454f 083e 9f34 723e 582f 8fbd 816a a1be
00000100: 73c6 5a3d 95f5 d13d 2497 513e 1b84 b93c
00000110: 587a d6bd 414e 053d 9295 2d3d ccad 1b3e
00000120: deff e63c 6b1b 2b3d 789b d63d 37de ee3d
00000130: 8de3 f13c 251c 0ebe 26d7 33be 396c 3c3b
00000140: 579f 0c3e eac6 5b3d b43a 833c e09b 00be
00000150: ede2 b6be 4899 36bd 45db 083d 4297 c13d
00000160: 4095 313e bbae 6bbe 08a7 c5bd c271 23bc
00000170: cb72 3d3d e20e f53d c01d 56bd 2747 983c
00000180: bdc5 26bd c9dd ea3b 0f1b 063d 1e16 653c
00000190: a771 e03c 88c2 afbc 87ea de3c 2584 b83d
000001a0: b5d4 053d 5bcd 083e 807f 953c 49b1 45be
000001b0: a1ce acbd 1366 abbc fff7 f83d d5b1 7a3d
000001c0: 9aeb febb b3dc 07bf 9a41 943d 2106 a1bd
000001d0: dcf4 a3bc 4e18 0b3d 095a 73bc 1507 82be
000001e0: fa7c 953b c2ff 6cbd 0d37 9fbc feeb 6c3d
000001f0: 1f89 24be baef 11bd 9262 81be 8fa4 2fbe
00000200: 7750 b4bb 1238 e63d 6928 383d 1a7c cdbd
00000210: 95f0 42bf 43fd dcbd 4fbd 863e 97f0 b33d
00000220: 5966 093e d3ae 7c3d 35aa 61bf 8158 743d
00000230: 2f86 5d3d 9a1c f43d 14ff 033e a886 a0be
00000240: 5a50 02be 8cf9 cf3c 12f2 543d d476 a73d
00000250: 50c9 f5bc 6001 cdbb 1e86 753d cdef fb3d
00000260: 435d 793c 2df2 57bd 770c dfbd 1a5a 1abd
00000270: b3c8 863c f034 eabb b463 a1be a327 bfbd
00000280: dbe6 9d3b 9c61 b83d 040c 96bd f773 a8bd
00000290: a8ff 8e3d f841 8f3d a8b3 f73c 510b e9bd
000002a0: 12c4 cf3c d215 993d 3cdf 893d aba4 4a3d
000002b0: 1975 e2bc ec56 653d 3077 7fbc 10ac a2bd
000002c0: ba56 053d cd16 f03d f474 533d efdd b6bd
000002d0: f53f ddbd 662e bebc 4028 ae3d 607c 7f3c
000002e0: 8857 a2be 751d c1be d2cf ef3c c654 ce3d
000002f0: 21fd 53bd 47fe a5be aa35 81bf 6c43 71bd
00000300: 9c1d 7b3d 2216 59bd d34b 20bd a781 0cbe
00000310: 5a03 87bd 4df3 823d 78a5 f73c 9495 513d
00000320: 870f f73d b498 aa3d d3fb 0cbd b174 cfbe
00000330: be69 bf39 3051 003e fb86 ea3d a34a c6be
00000340: db43 1d3d 7a2a 953d 289c 053e f00b 2d3d
00000350: 78e1 b3be 1866 ed3d 6ef0 10bd 362f 5c3d
00000360: 6542 ad3c c15d 05bd 2708 c93d 397c 58bd
00000370: c56e 403d 5aae 003d 8059 a33c 39eb a23c
00000380: cd1a 5bbd 29b2 fbbd 5336 1f3b 680c 5b3d
00000390: 49e1 283d ce3b c2bd ed47 39be cd9a c6bd
000003a0: 27d8 db3d 9e05 5d3d e966 00be b8a7 e6be
000003b0: 6fcf b6bd 1226 113e 1036 153c 6520 70be
000003c0: 2ce1 b3be 1b09 9abd a79d d83d b3cf 243d
000003d0: f9d4 67bc 4506 0ebd 9c60 e8bc 4229 423d
000003e0: 0591 e33c e335 b33c 397d c5bd ffa9 ed3c
000003f0: ce66 b13d 4f58 40bc 343c e6bd b417 0cbe
-0.10502703 -0.07150027 0.14028545 0.08327652 0.13545045 0.05031577 -0.16579176 -0.26899177
0.053875774 0.11941204 0.15823111 0.15134515 -0.09282608 -0.08084896 0.27046824 0.018085614
0.1273246 -0.009132525 -0.27546135 0.0024018525 -0.0016722189 0.019723875 0.0097490875 -0.0324984
-0.012166141 0.009638942 -0.0004268835 -0.076463416 0.031433523 0.07600931 0.11993661 0.045133986
-0.20304571 -0.58251864 -0.10772104 0.05407603 0.037778314 0.07367155 -0.030482993 -0.6400446
-0.05829075 0.030330827 0.036361013 0.1268487 -0.5945307 0.014329053 0.0020512945 0.022952443
0.08401908 -0.042834267 -0.12585351 -0.55940557 -0.15902911 0.09583795 0.08497812 0.09843528
0.07181437 -0.5992066 0.10507941 0.14077803 0.13311489 0.23652886 -0.06991452 -0.3152657
0.053411912 0.10251919 0.20467812 0.022646 -0.10472554 0.032545332 0.04237897 0.15203017
0.028198179 0.041774195 0.10478872 0.11663478 0.02952745 -0.13877924 -0.17562541 0.002875103
0.13732658 0.053656496 0.016019203 -0.12559462 -0.35720006 -0.044579774 0.033412237 0.09452678
0.1734209 -0.23015873 -0.09650999 -0.009975852 0.046252053 0.11965729 -0.052274466 0.018588616
-0.04071592 0.007167552 0.03274065 0.013982324 0.027397944 -0.021455064 0.02721144 0.090095796
0.032673556 0.13359587 0.018249273 -0.1930591 -0.08437849 -0.020922696 0.121566765 0.06120475
-0.0077795507 -0.53071135 0.07239075 -0.07862497 -0.020014219 0.033958726 -0.014853009 -0.25396028
0.0045620175 -0.057861097 -0.01943543 0.057842247 -0.16067933 -0.03562901 -0.25270516 -0.17152618
-0.005502756 0.11241163 0.044960413 -0.10033436 -0.7614835 -0.10790493 0.26316306 0.08786123
0.13417949 0.061690163 -0.8815034 0.059654716 0.054083046 0.11919518 0.12890273 -0.31352735
-0.12725964 0.025387548 0.05198867 0.081769615 -0.03000322 -0.0062562674 0.059942357 0.12301598
0.015219989 -0.05272119 -0.10891049 -0.037683584 0.016453123 -0.007147424 -0.3152138 -0.09333732
0.00481878 0.090029925 -0.073265105 -0.082252435 0.06982356 0.069950044 0.030237034 -0.113791116
0.025362048 0.07474865 0.06732032 0.049473446 -0.027643727 0.0559911 -0.015592381 -0.079429746
0.032553412 0.11723099 0.051625207 -0.08929049 -0.108032145 -0.023215484 0.08503771 0.015593618
-0.31707406 -0.37717786 0.029273901 0.10074763 -0.051755074 -0.3242056 -1.0094502 -0.05890219
0.061307535 -0.052999623 -0.03913481 -0.13721333 -0.06592436 0.06394062 0.030230269 0.05116804
0.120635085 0.08329907 -0.034419846 -0.40518716 0.00036509143 0.1253097 0.11451527 -0.38728818
0.03839479 0.072834924 0.1304785 0.042247713 -0.35132957 0.115917385 -0.03538554 0.05375596
0.021149823 -0.032560114 0.09816008 -0.052852843 0.046980638 0.031416275 0.019940138 0.019887554
-0.053492356 -0.12289841 0.0024293854 0.05347863 0.041230474 -0.09484063 -0.18093844 -0.09697495
0.10734587 0.053960435 -0.12539257 -0.45049834 -0.089262836 0.14174679 0.009107128 -0.23449858
-0.3513273 -0.07521268 0.10576945 0.04023714 -0.014149898 -0.034673948 -0.02836638 0.047402628
0.027779112 0.021876281 -0.09643025 0.029011725 0.086621866 -0.011739804 -0.112419516 -0.13680917

conv2.bias f4 [16]
00000000: 7ccc a43e 6235 953e 0d13 373d 8643 efbc
00000010: b1b6 8b3e b747 98bd 114f 473e 757d 9b3e
00000020: c299 b73e 6e02 1a3f 45de 6b3e 7e9e 1bbd
00000030: 0c86 90bd 6b91 fa3d 9c09 253d 20d1 b23e
0.3218726 0.2914229 0.044695903 -0.029207002 0.2728782 -0.074355535 0.19463755 0.30369154
0.35859495 0.6015996 0.23034008 -0.037992947 -0.070568174 0.122347675 0.040292367 0.34925175

fc1.weight f4 [120, 256]
00000000: 98f0 a3bd 06b9 5ebd 95c4 07bd 47c4 d2bc
00000010: da35 d53c 71f2 803d f0c0 93bd 3e7d bf3c
00000020: a0b3 23bd f773 87bb 9f42 09bd 469d bcbd
00000030: 47f4 84bd b3bc 0e3d f461 e0bd 824a 673c
00000040: 5cb9 223d ae76 acbc f900 edbb 541a 373d
00000050: 8366 9bbd 09f8 b33c 77a1 abbb 0cdd ea3b
00000060: a133 32bd 5a94 8b3c 8813 25bc 6808 3ebc
00000070: 0ff4 8d3c 83b7 c83c 5a25 73bc 2a8b 23bd
00000080: f31a ffbc 86eb 82bd b068 4cbd f0d8 debc
00000090: 3ee4 26bd 50ab 883b e78f 21bd 3573 acbc
000000a0: cd29 38bd aeb3 c33b e83c 16bd b598 84bd
000000b0: 1ec7 9cbd 2e02 82bd 03af 813d 88cd 1bbd
000000c0: d108 efbc f7f7 4dbd d813 74bd 5348 e93c
000000d0: dd05 2abd 643e 0c3d 0a90 51bd 3a86 003d
000000e0: a37b 0abc 0041 6fbd 9e51 8abd bce1 03bd
000000f0: 970a dfbc d56a 01bd 0f11 e03b afe7 043d
00000100: 60cb a33b 0fca 69bd b2f0 64bc 9cdc dcbb
00000110: 5fac e8bc a5d3 26bc 0cc1 57bd f1c3 d53c
00000120: b247 a83a e2fe 8fbd 1644 0e3b 0ec6 cabc
00000130: 22b5 54bd 74bb a9bd 3c9e b93c e073 71bc
00000140: 3fc7 493c cf60 a53c 60be c63c 06ba 24bd
00000150: 436b 6fbd d06d 16bd 8c85 9a3c df2a db3b
00000160: c5a3 553d cfa5 8dbd e728 9abd aa33 e13c
00000170: 84c0 97bd 075a e7bd 8ff2 4abc 3061 d6bd
00000180: d969 a1bb 18c7 7ebd 64cf 1bbd 8187 a1bc
00000190: a84c f5bc 6680 29bc 98e7 77bd 7a55 a2ba
000001a0: e377 afbd 77f0 58bd 38d4 cdbd d808 5dbd
000001b0: a137 89bd 39ff 31bd 0803 9bbd e536 5e3d
000001c0: 80b5 cc3d af16 d83d 96f0 a03d cd91 19bd
000001d0: ce98 1dbd 82df 20bd 749d dd3c a554 80bd
000001e0: f738 14bc 6418 5cbc 4f29 b8bc c55a 903c
000001f0: 02d5 8cbd 5080 8bbc cce7 3cbd 4fff b8bc
00000200: 0493 38bd 5ddc 73bd 391a 513c 8212 493c
00000210: 7b6a 8b3d 7b9e 9ebd 30d5 cfbc 2e06 b73c
00000220: 7921 b6bc 73db 05bd 8cb9 e5bd 079d 09bd
00000230: 2282 8cbd 8537 6bbd c5f1 b0bc 92c6 ff3c
00000240: 7a3c 873d f2ed 89bd ae6e 113d d5fd bebd
00000250: 5fc7 22bd a196 b03c 3f84 93bc a27a 65bc
00000260: 1aca 893c a3ae d4bc 8764 96bc 2b77 c63c
00000270: eab7 553c 576b a43b d51a 8fbd 274a c3bb
00000280: 51bc 093e a769 8f3d e16b ed3c b5f3 763d
00000290: 7e6e 11bd d298 2ebc 0a63 823d 38f3 9fbb
000002a0: 8e56 933d 7ebc 90bd bf39 09bb 4beb 27bd
000002b0: 1b38 9abd 5f5e aabd 540c a9bd 5e4d 7dbd
000002c0: fba5 163c 17d6 9abd 7b20 afbd 7e14 053d
000002d0: 61df 043d a744 3abb 4b79 9e3d a0e2 5fbd
000002e0: e64f 8fbc 8f8f b13a afde 3abc 0e7f fa3c
000002f0: a8cc a33c 8ad6 5b3c a0a1 24bd 9e05 da3c
00000300: 9e38 c8bc f804 eabc ed2d 113d b398 74bc
00000310: ae69 1fbd 02e9 b9bd eb1c 99b9 99e6 cebc
00000320: cc83 703b 6c80 aebd 204c babd df90 59bd
00000330: cb7c 813a bf7a 813a e1ff 4abd 54c0 babd
00000340: 8c49 8f3b f1f0 e93d 45ca 17bd 6b0a 233b
00000350: 8a31 b63c 03f6 153d 1994 4ebc af6f 33bd
00000360: ebbf a0bd 0e55 9f3c 7131 1cbd 7022 003d
00000370: a6d9 c93c d6e5 893d 4329 a6bd 34ad 0e3d
00000380: 2822 05bb 2bf5 8abd e2fa a0bd 7d04 c7bc
00000390: f89d 6e3c 64ce 78bd 1156 ecbc 719a 89bd
000003a0: d439 30bd 135e 7abc 4c85 e93c e458 d4bc
000003b0: 0f21 2d3c 7d4c 97bd 1577 c4bd 1967 80bd
000003c0: fe9e b53b 0516 0d3b 9111 d3bb 3549 d3bc
000003d0: b503 95bc 52e1 f4bb 836b 6a3a a20e 80bc
000003e0: 909d 37bd 15f6 87bb 5d28 42bc 3f41 d63c
000003f0: 2185 a43c 2e32 8abd fcd9 1e3c 98f3 0abd
-0.08004874 -0.05437567 -0.03314646 -0.025728358 0.026026655 0.06296242 -0.07214534 0.02337515
-0.039966226 -0.004133697 -0.0335108 -0.09209685 -0.06491905 0.034847926 -0.10956183 0.014116885
0.039727554 -0.021052685 -0.007232782 0.044702843 -0.07587912 0.021968858 -0.005237754 0.007167464
-0.04350627 0.017038513 -0.010075457 -0.011598684 0.01732829 0.024501568 -0.014840448 -0.03992764
-0.03114078 -0.06392579 -0.049904525 -0.027203053 -0.040745012 0.0041708127 -0.039443877 -0.021051029
-0.04496174 0.005972347 -0.03667918 -0.06474439 -0.07655166 -0.06348072 0.06332209 -0.038037807
-0.029179009 -0.050285306 -0.059589237 0.02847687 -0.041509498 0.034239188 -0.051162757 0.03137801
-0.008452329 -0.0584116 -0.067538485 -0.0321977 -0.02722673 -0.031596024 0.006837971 0.032447513
0.0049986094 -0.057077464 -0.013973402 -0.006740166 -0.028402505 -0.010182296 -0.05267434 0.026094409
0.001283875 -0.07031037 0.0021708063 -0.024752643 -0.051930554 -0.08287707 0.02265846 -0.014737099
0.01231557 0.020187763 0.0242607 -0.04021647 -0.058451902 -0.03672582 0.018862508 0.0066884602
0.052158136 -0.06916391 -0.07527333 0.027490456 -0.07409766 -0.11296468 -0.012386932 -0.10467756
-0.004925948 -0.06220159 -0.03803958 -0.019717934 -0.02994378 -0.010345554 -0.0605236 -0.0012385093
-0.085677885 -0.0529637 -0.10050243 -0.053963512 -0.067000635 -0.04345629 -0.075689375 0.05425157
0.09995556 0.105512016 0.07858388 -0.037492562 -0.038475804 -0.039275654 0.027052619 -0.06266145
-0.009046785 -0.01343355 -0.022480635 0.017621407 -0.068765655 -0.017028958 -0.046119496 -0.022582678
-0.04506208 -0.059536327 0.0127626 0.012272479 0.06807419 -0.077450715 -0.02537021 0.022341814
-0.022232758 -0.032679986 -0.11217031 -0.03359702 -0.06860758 -0.057425994 -0.02159966 0.031222615
0.06603332 -0.067348376 0.035505943 -0.09325758 -0.039740916 0.0215562 -0.018007396 -0.014006289
0.016820002 -0.02596218 -0.018358482 0.024226746 0.013044337 0.0050176787 -0.0698754 -0.0059597674
0.13450743 0.070025735 0.028982105 0.06029101 -0.035505764 -0.010656552 0.063665465 -0.004881289
0.07194243 -0.07067202 -0.002093896 -0.040995877 -0.075302325 -0.08318781 -0.082543045 -0.06184136
0.009194846 -0.07560366 -0.08551117 0.032490246 0.032439593 -0.0028422268 0.077379785 -0.054659486
-0.017494153 0.0013546812 -0.011405631 0.030578163 0.019995049 0.013417849 -0.0401932 0.026614007
-0.02444106 -0.028566822 0.03544419 -0.014928984 -0.038919143 -0.09077646 -0.0002920398 -0.025256442
0.003669965 -0.08520588 -0.09096551 -0.053116675 0.000987911 0.00098785 -0.04956043 -0.09118715
0.004372781 0.11422909 -0.037058134 0.0024878036 0.022240419 0.03661157 -0.012608551 -0.04380768
-0.078491054 0.019449737 -0.03813309 0.031282842 0.024639916 0.06733291 -0.08113339 0.034833148
-0.0020314548 -0.06785043 -0.07860352 -0.024294132 0.01456403 -0.060743704 -0.028849633 -0.067189105
-0.0430239 -0.015281218 0.028505944 -0.025921293 0.010566964 -0.07387636 -0.095930256 -0.06269664
0.005542635 0.0021528017 -0.006441303 -0.025791744 -0.018190244 -0.0074731493 0.0008942412 -0.015631977
-0.044827998 -0.0041492083 -0.011850444 0.026154159 0.020083012 -0.06747852 0.009695526 -0.033923715

fc1.bias f4 [120]
00000000: dbd6 39bd 0c3d 95bd 7534 94b9 19b9 9cbc
00000010: ca26 443d 1b8a 353b 853e 5fbc 696f 44bd
00000020: 2941 82bd 1111 ed3d 6c3e a2bd 6ac7 d03d
00000030: 42c9 86bd dbff 6bbd 1999 453d 1225 9e3d
00000040: 04b6 10bd 800a ad3c 7ea8 4dbd 5dd1 a6bd
00000050: 8acc 013e f921 8dbd b211 ee3c bc18 1e3c
00000060: da58 a9bd 83a6 d63d a3bc 353d 4375 8dbb
00000070: 1490 0dbd 13e8 df3c 8dc7 943d 8e68 ac3d
00000080: 3943 be3d a34b 423e 7dba 80bd 3d3d 20bd
00000090: 3923 f73c 1906 2fbd e65f 03bd d4bc db39
000000a0: f332 c4bc 6b0b 23bd f7d5 19bc 296b d9bc
000000b0: 23c5 debc 603d 9bbd 3bde e8bc f814 03bd
000000c0: 23d4 c2bb ee2e 893a 388b c63d 8f65 9b3c
000000d0: c194 3dbd 0790 2c3c c365 5b3a a8bf abbc
000000e0: c663 d23c ab0e 063d adf1 e8bc 0ef5 97bd
000000f0: e8ee 103e 9252 10bc d868 7bbd 4b1a 2e3e
00000100: 92c2 a93c 100c 48bb fcdd 173e 2d86 dcbc
00000110: 6a1f 363c b748 9bbd 5856 0d3d c388 113d
00000120: 5cbe 903c 40db 463b 1a0e 0bbc 3903 7dbd
00000130: ef03 193c c075 48bd 01cc ae3b e3e3 2bbd
00000140: 8abb 97bb c7af 1dbd 4b91 06bc 9704 8dbc
00000150: eec8 92bc 07f5 dd3d 73d5 94bc 5c43 0fbd
00000160: 0b89 fbba eb06 3d3b 35fe 493d 7b6c f3bc
00000170: ec57 78bd 9e83 303e ff12 3abc 962b 86bd
00000180: 77a8 d63c 65d5 49bc 4fd1 db3c 465f 623e
00000190: 15f2 013e 57f3 a3bd 9b2a 283e 49fa 0a3d
000001a0: f33d 863d 78e6 00bd 5902 29bc 95f0 85bd
000001b0: 4cc8 e73c 711d 3c3d a328 923c 1ea6 34bd
000001c0: 386d bd3b 58e8 e0bd c46e 883c 534c 723c
000001d0: d2e8 d73c 34f2 243d 571b 7abc d0dc 58bd
-0.045370918 -0.072870344 -0.00028267843 -0.01913123 0.047888555 0.0027700725 -0.013625746 -0.04795781
-0.063600846 0.11575521 -0.07922062 0.10194285 -0.06581356 -0.05761705 0.04824171 0.07721914
-0.035329834 0.02112317 -0.050209515 -0.081454016 0.12675682 -0.068912454 0.029061172 0.009649452
-0.082689 0.10480978 0.04436935 -0.004316957 -0.03456123 0.027332341 0.07264624 0.0841838
0.092901655 0.18974166 -0.0628557 -0.0391209 0.030168163 -0.042730425 -0.032073878 0.00041911623
-0.023950076 -0.03980581 -0.009389392 -0.026540356 -0.027193611 -0.07580066 -0.02842628 -0.03200242
-0.005945699 0.0010466257 0.096945226 0.018969325 -0.04628444 0.010532386 0.00083693507 -0.020965412
0.025682341 0.032728832 -0.028435552 -0.07419787 0.14153636 -0.008808749 -0.061379284 0.17002217
0.020722661 -0.0030524768 0.14830774 -0.026919449 0.011115888 -0.07582229 0.034506172 0.035530817
0.017668895 0.0030343086 -0.008487249 -0.06177065 0.009339317 -0.04894042 0.0053343778 -0.041965377
-0.0046305107 -0.038497712 -0.0082133515 -0.017214103 -0.017918076 0.10837751 -0.018168187 -0.03497635
-0.0019190622 0.0028843235 0.049314696 -0.029714813 -0.060630724 0.17237708 -0.011357068 -0.06551282
0.026203377 -0.012318944 0.026833205 0.22106656 0.12690003 -0.08005398 0.16422503 0.033930097
0.065547846 -0.031469792 -0.010315501 -0.06540028 0.028293751 0.045926515 0.017841643 -0.044103734
0.005780842 -0.10981816 0.01665438 0.014788705 0.026356135 0.040270045 -0.015265307 -0.05294496

fc2.weight f4 [84, 120]
00000000: 0705 993d f423 fa3c 258d 4fbd 5bb9 003d
00000010: 6a02 4ebd 1329 bbbd fc1b 193d 75a5 943d
00000020: faeb cc3d a37a bfbd f90b 223e 70c7 a03d
00000030: 864b 93bd 21c3 953b 77a7 7cbc 6d22 9cbd
00000040: e3cd 31bd c83a 8e3d 7ce7 fbbc cad7 14bd
00000050: ada7 153d 1387 d8bb 5c62 8fbd 6f14 79bd
00000060: c3c4 c13d 81fc a63d 1a17 303d 4e3f ab3d
00000070: 8c50 fb3d 0c56 d5bd 5fb8 d63d 23c4 07be
00000080: 1fcb d1bd e7c0 00bd bc64 97bd 93b9 77bc
00000090: c756 0ebd f39d 003d fe80 a4bd d371 943d
000000a0: 625c 8bbd 9ce9 3c3d c23c e23c 9496 28bd
000000b0: 573e 843d 746e 75bc e1ae cabd be56 ffbb
000000c0: 6e9d 7a3d ee1d 883d 9734 ebbd 4204 893d
000000d0: 2fd5 27bd f530 1e3d 1479 b6bc 736e 413d
000000e0: c67f 85bb 9782 a43c 9f2c 1dbd fb3b 193d
000000f0: 4cd9 c3bd f82e b5bd b466 5abd e368 b23d
00000100: f32c 633c 849e 453d 5063 543d 4e4b 5d3d
00000110: 2886 6b3d 9801 8d3d ce4e 5c3d b57e cfbd
00000120: a714 48bd 1517 2f3c d0e0 aa3d bc56 bbbd
00000130: bfa5 183d 141e 2c3d 3583 713c 953a f73c
00000140: 67a8 203d 953c 033c 405f b23b bd84 563c
00000150: 8735 1d3d fa66 2cbc fb0a 2f3e 323d 683c
00000160: 7d15 51bc d443 203d a2f9 873d a0bd b53b
00000170: 0b1f 56bd b575 d73d f61a 0b3a 26f5 febd
00000180: bca7 413d 9a86 c53c a048 4e3d 7764 5b3e
00000190: df6e d63d ac29 97bd 6519 273e 7373 713d
000001a0: 931b 3e3e f318 56be 0ed1 113d 4acb 4a3d
000001b0: e740 2fbd aaf0 1f3e d5ab 8ebd 1036 52be
000001c0: 2a33 4abe 1d2f 773a 8c72 73bc a179 823d
000001d0: 2b32 0c3d 1099 46bd 5704 80bd 912b e83c
000001e0: db66 adbd 9e6d 48bd 9543 adba e224 e5bc
000001f0: 0051 8b3d 2f7f 973d 7dc4 b8bc d471 b0bc
00000200: de50 6c3d 98c7 233e dcfa 6bbd afe9 85bd
00000210: a722 d6bc ad5f afbb 23f3 36bd aa3d 753d
00000220: b1c8 c43d c308 b03c 8e4d 9fbc 3427 a43b
00000230: 5a07 873d 72f4 883c 3784 883c cb9f a63d
00000240: cfa2 0cbd 4982 323d b070 063c f0b8 dfbc
00000250: 0ee8 73bd 8063 03be d42c ffbc 53d4 ae3d
00000260: 0fce 183e 19fb c03b 093c 09bc 4ec5 e03d
00000270: cf1f a73d dc27 ae3c 99cf 92bd df11 a5bd
00000280: aa73 723e 3976 a93b 3bcd a9bd 76ae 97bb
00000290: e1bd d3bd 364f ae3d 5e95 963c a51c 4bbc
000002a0: ff9e 9abd cad8 b1bc 39bf c33d d878 78bd
000002b0: 45bb fa3c adf5 023e 902b a63d 6fbe 91bd
000002c0: 0919 9b3d 0604 21bd 505f 5b3d cc36 3f3d
000002d0: 3a14 0a3d 5b7f b63d 2443 e63c aebe 32be
000002e0: 818f a6bd 6438 063e d650 fe3c f5ed 4d3d
000002f0: a5de 263d 08a1 68bd 1507 583d 5280 0b3c
00000300: fa5b 59bc b99a c93d a3e1 4ebd d9f5 11be
00000310: aaab 83bd cb16 d7bd 97a7 513d 0659 8fbd
00000320: f5a1 843d 4174 2a3b a292 b63d 3676 86bc
00000330: f6fc 4ebd eec1 97bd 50bf f53c cec2 aabb
00000340: 7646 e8bc 575f 3cbd 42c1 8abd c943 5ebd
00000350: 7d92 de3c af85 04be 4a18 c0bd 1664 c73d
00000360: 5cb2 fb3b 5b35 f73c 0710 5dbd 5cf1 bc3c
00000370: 6f3e 4a3d 3f4e 04bd 2c0e 05bd f18b b4bb
00000380: d02b b03d eaa2 273d cdd5 68bd 8bed b0bd
00000390: f9b3 57bd c2d7 3bbd 1b48 46bd 67b1 e33d
000003a0: 3653 00be 47dd 86bc af15 8f3d 479b 07bc
000003b0: 82fd 8cbd 45ba bc3d 9821 ecbc 7909 563d
000003c0: 6c1b 1fbd 0a06 6e3d f546 8abd 971e 41bd
000003d0: d8c7 e8bc 72e3 7e3d 6309 463c 0824 3dbe
000003e0: c4d5 443d 5b02 a8bb 5f81 9cbd d33e b03d
000003f0: 2c52 f43d 0437 a1bd f191 69bd 0eb3 073e
0.07471662 0.030534722 -0.050671715 0.03142677 -0.05029527 -0.09138694 0.037380204 0.07258121
0.100059465 -0.09349563 0.1582488 0.0785054 -0.07192139 0.0045703803 -0.015420786 -0.07623754
-0.04340924 0.069448054 -0.030750029 -0.036338605 0.03653686 -0.006607899 -0.070011824 -0.060810503
0.094613574 0.0815363 0.04299078 0.08361684 0.122712225 -0.10416803 0.10484385 -0.13258414
-0.102438204 -0.031433966 -0.073922604 -0.015119928 -0.034750726 0.031400632 -0.08032416 0.07248273
-0.0680473 0.046121225 0.027616862 -0.041159227 0.06457203 -0.014979947 -0.09896637 -0.007792323
0.061185293 0.06646334 -0.1148464 0.06690265 -0.040974792 0.038620908 -0.022274531 0.047224473
-0.0040740697 0.020081801 -0.038372632 0.037410717 -0.095629305 -0.08846849 -0.0533206 0.08711412
0.013865697 0.048246875 0.051852524 0.054026894 0.05750099 0.068850696 0.05378609 -0.10131589
-0.04884782 0.0106866555 0.08343661 -0.09147403 0.037267443 0.042020872 0.014740755 0.030179301
0.0392231 0.008010049 0.0054434836 0.013093171 0.038381126 -0.010522598 0.17094032 0.014174746
-0.012761471 0.039127186 0.066394106 0.0055462867 -0.0522757 0.10520498 0.00053064467 -0.12449102
0.047279105 0.024112035 0.05036223 0.21425043 0.10470366 -0.07380995 0.16318281 0.05894799
0.18565206 -0.20907955 0.03559976 0.049510278 -0.042786505 0.1561915 -0.06966368 -0.20528436
-0.1974608 0.00094293227 -0.014858853 0.06370855 0.03422753 -0.048485816 -0.06250828 0.028341087
-0.08466884 -0.048932664 -0.0013218994 -0.027971689 0.06802559 0.07397305 -0.02255463 -0.021538652
0.05769431 0.15994108 -0.057612285 -0.06538712 -0.02613957 -0.0053519816 -0.044665467 0.05987326
0.09608591 0.021488553 -0.01944616 0.005009556 0.06593199 0.016718123 0.016664607 0.08135947
-0.034334954 0.04358128 0.008205578 -0.027309865 -0.059547476 -0.12830925 -0.031149305 0.085365914
0.14922355 0.005889308 -0.00837613 0.10975133 0.08160364 0.02125924 -0.07168502 -0.08060049
0.23676935 0.005171564 -0.08291098 -0.0046289517 -0.10338951 0.08511202 0.01838177 -0.012396966
-0.07549857 -0.021709818 0.09557957 -0.06066212 0.030606875 0.1278903 0.08113778 -0.071164005
0.075731345 -0.039310478 0.053557694 0.046683118 0.033710696 0.0891101 0.028108187 -0.17455551
-0.0813284 0.13107449 0.031044405 0.05027576 0.040739674 -0.056794196 0.05274113 0.008514481
-0.013266558 0.09843964 -0.050508153 -0.1425394 -0.06429227 -0.10502394 0.051185217 -0.06999402
0.06476203 0.0026009234 0.08914687 -0.01641379 -0.05053421 -0.07410036 0.029998451 -0.005211211
-0.02835391 -0.04598936 -0.06775142 -0.054263864 0.02716946 -0.12941621 -0.09379633 0.09735887
0.007681174 0.030176809 -0.053970363 0.023064308 0.049375948 -0.032301184 -0.03248422 -0.0055098464
0.086021066 0.04092685 -0.05684452 -0.08639058 -0.05266187 -0.04586006 -0.04840861 0.11117821
-0.12531742 -0.016462935 0.06986558 -0.008276767 -0.0688429 0.092152156 -0.028824612 0.052255128
-0.03884451 0.058111228 -0.06751815 -0.047148313 -0.028415605 0.062228628 0.012087199 -0.18470776
0.048055425 -0.005127234 -0.07641863 0.08605733 0.119297355 -0.078718215 -0.057023946 0.13251898

fc2.bias f4 [84]
00000000: 6541 b13d f1d4 84bd 2403 603e 703e 5b3d
00000010: 90f9 d43b 0943 23bd 2706 b73d becf 0bbd
00000020: 2990 b0bd a2e3 02bc 4114 b73d fbb8 2d3d
00000030: 64c0 e3bc c59e da3d 05bb 9c3d 520d 1bbe
00000040: 0148 d8bc 6651 45bd 7cc0 2ebc 3751 2c3e
00000050: d9af b63d bf55 553c 11a7 b0bd 1f6b 2c3e
00000060: aec6 e2bd 6ccc aabd 909d 9fbc a03c 243d
00000070: 5fac 313d e224 3cbd cca3 c4bc b1a1 0fbc
00000080: b1d5 953d c2d0 813c b988 3abc e3b1 6d3d
00000090: 7284 a83d da66 203e 6674 e7bd d8cd 133c
000000a0: 69a5 dbbd 7bc0 94bd 900f c83d b606 3e3c
000000b0: 2ab2 2a3d 5f10 89bd 552f c83d 22c8 cd3d
000000c0: 39c9 51bd 82d2 a6bc 8ed1 8dbb 2715 263c
000000d0: a0f3 1f3e d371 99bd 668c 833c 42c4 783d
000000e0: a1b8 393e 7992 34bd 5e6e fa3d a2a0 c7bd
000000f0: b0b6 05bd 857b 1e3d d9af 523e af9b 1c3d
00000100: d6c8 82ba 432e 1bbd 6d58 0d3b 5ad3 b1bd
00000110: ee19 b83d 80d5 c9bc 2a09 923c af68 c7bd
00000120: 402d e33c c475 7dbc 91c8 b53d cb2d 3d3c
00000130: 5997 913d 4769 de3d 15cb 93bd 7c36 4e3d
00000140: 5c7e d53d a9f1 b7bd aac2 63bc 316d 473d
0.08655051 -0.06485928 0.21876198 0.053526342 0.0064994767 -0.03985885 0.0893672 -0.034133665
-0.08621246 -0.007988842 0.0893941 0.04241274 -0.0278017 0.10674814 0.07652859 -0.151418
-0.026401522 -0.04817333 -0.010666009 0.16827856 0.08920259 0.013020932 -0.086256154 0.16837738
-0.110730514 -0.08339772 -0.019484311 0.04009688 0.043377277 -0.04593361 -0.024003886 -0.008766578
0.07316149 0.015846614 -0.011385136 0.058030974 0.08228387 0.15664235 -0.11301498 0.009021245
-0.10724909 -0.07263275 0.09768593 0.01159828 0.041673817 -0.06692576 0.09774653 0.10047938
-0.05121729 -0.02036405 -0.0043279594 0.010136879 0.1562028 -0.07492413 0.016058158 0.06073404
0.18136837 -0.044085 0.12228082 -0.09747435 -0.032644928 0.038692016 0.20574893 0.03823441
-0.0009978067 -0.037885915 0.0021567598 -0.0868289 0.08989321 -0.024637938 0.017826635 -0.09736764
0.027731538 -0.015469972 0.08876146 0.011546562 0.071089454 0.10859924 -0.07216469 0.05034493
0.10424492 -0.0898164 -0.013901392 0.048688117

fc3.weight f4 [10, 84]
00000000: 2d4c 1f3e aba6 06bd b8eb 473d 1973 a6bc
00000010: a1db cb3d 9901 a8bc 64c7 54be 6893 8f3c
00000020: f46e d6bd 5b52 843c 7de7 283e f057 233d
00000030: 7d17 c43d ff8a cabd 7711 fa3d a5a9 babc
00000040: a84a 903d 5f5d 3fbd 000b 31bd 53de 093e
00000050: d0d4 45bd a333 c83c 11ea 8dbd 17ee 92bd
00000060: a34d 123d ff7c febb 2655 883d 5d8d 733c
00000070: 621a a7bd 9f49 15bd 119c 05bb 7866 453d
00000080: bd40 38bd 46be 1fbe 55bb eabb ab43 08bd
00000090: 6ed4 a53d d822 053c 6419 7fbd 6ea7 62bd
000000a0: a6f1 07bd faa3 2d3b 9cfc d1be 2a6c 453e
000000b0: 692f 903d 8b6a 7b3d 30f5 063e 160c 6c3d
000000c0: bfa5 443d da4c acbd 483c 88be 89b1 e03c
000000d0: a65e b03a 2b07 9ebe 9f8a ddbd 5b92 f43d
000000e0: c3a2 9abd a3d9 bfbd eda1 35bd d461 033d
000000f0: 9c8a c5bd 24b4 6cbd 62a2 9abc a7fc 853d
00000100: 5977 283d 5fbf 1a3e 0568 72bb 89ea 313d
00000110: ae83 6bbe be2e 9fbe e640 f2bd 37ec bd3c
00000120: 626b dd3c 09d6 44be 0283 16be 5cae 903c
00000130: a939 193e 9eb7 943d 7762 33be d74c b4bd
00000140: a3e0 8f3d a755 523d 30f8 42bd 2c34 39be
00000150: d3db 1d3d 00d7 083e 39ff 073e cbdd 9cbd
00000160: c0b7 3c3d 1a83 2fbd a40d d23e c887 79bd
00000170: 3282 43be 26ef 123d 682d 3dbe dd01 fbbe
00000180: ce31 95bd bc42 e13d d372 a5be f30d 243e
00000190: 8ea6 82bd b8bf 523d f4c5 84be e2d6 4cbd
000001a0: c355 38bd 691a 543d 9cc6 cb3c 82a1 333e
000001b0: 8848 afbd 69c5 94bc 7e6e 0f3c 386d 3fbb
000001c0: 6acb 28be ec93 33bc e18b aabd 256b a0be
000001d0: 80c2 fb3c 30af dabd 79e7 623b 20ad 62bd
000001e0: 3fba cdbd fd86 4ebe 9ffe b6bc 3337 143d
000001f0: 5bd3 b6bc ae5b 03bc cb4e a23b 986d 7b3d
00000200: 975b 1ebd c989 70bd 3ab5 5abe d5fa eb3c
00000210: b5d5 cabe a3fc 9dbd bcd8 c43c 9e98 26be
00000220: dd89 3fbe e7c7 b83d b78d 29be d051 693e
00000230: 18c6 923c 9afa d03d 73a0 4dbe 9748 02bd
00000240: 367c 1cbe 05e4 dbbc c58b 003d 1bcd 45bd
00000250: cc65 0a3d 5ae0 7ebd 3117 febd 5182 7e3a
00000260: d27b 9bbc 4867 b2bc f68e 8dbd 5926 b7bd
00000270: f105 41bd 12c3 003e cfd3 f93d e62a 00be
00000280: 551f 7b3c 76cc 22bd 45d0 f6bd d996 89bb
00000290: 6eda 933d 7a5d eebd 5675 1fbd 3fc2 ba3d
000002a0: 1b19 12be 759a c53c 2b79 99be 878b 8a3c
000002b0: 918b cc3d 27b3 3abe edd5 cabe 0878 133d
000002c0: fd75 0cbd 2439 0a3d d2ec 1d3e 4133 fdbd
000002d0: fdf5 993d 41c8 a0bd 18c1 833d ee91 7e3d
000002e0: a220 b93d 5fec 8fbd eaa1 063e 0e21 94bd
000002f0: 5929 a03d 11ee bf3d f815 81bd a64d 31bd
00000300: b183 b3bd 51df 433b 05fd 763d bb76 06be
00000310: 2ce3 bdbe 393c 75bd a886 833d 9c99 a7bc
00000320: 97ef d13d 57ba 8fbd 2153 cdbc 4d07 6f3d
00000330: 110f d13d 1571 b6bd 1205 7c3c 563a c43c
00000340: b916 8c3d 8d46 683d abb3 8abe 2726 043e
00000350: ed18 8a3d b2df 823d c2a7 ab3d 21ad 623d
00000360: bd08 31be afaf 1cbe f7f8 d73d 7a35 85bd
00000370: 4519 2dbd e089 eb3c 05f1 0ebe ab71 04be
00000380: c1ab 89bd fa9a 02be 9c47 10bd 94c5 c2bd
00000390: 2a21 413e cf14 aabd 28b1 1cbd c78a 5f3d
000003a0: f9fd 953c f6da 97bc 4510 013d e0db 9c3d
000003b0: db96 dbbc 6106 bbbd d281 8fbd bce6 acbd
000003c0: 85fe 6ebd d92e 0e3d 4dc8 16be 9c57 c53d
000003d0: 8f86 b4bd 7fa3 90be 17ec 0d3d 5ec5 3cbe
000003e0: 2135 923c a2f9 533d 3595 373d 1442 993d
000003f0: b57d 33be f60a 31be 45f4 14be 9aaf 813d
0.15556403 -0.03287379 0.048808783 -0.020318555 0.09954 -0.020508574 -0.20779186 0.017526343
-0.104703814 0.016152551 0.16494556 0.039878786 0.095747925 -0.09889793 0.122103624 -0.022785971
0.070454895 -0.046719905 -0.04322338 0.13463716 -0.048298657 0.024438685 -0.0692941 -0.07174318
0.03571857 -0.0077663655 0.06656866 0.014865247 -0.08159329 -0.036447164 -0.0020387212 0.048193425
-0.044983614 -0.15599927 -0.007163445 -0.03326766 0.08097158 0.008125983 -0.062280074 -0.055335455
-0.03318944 0.0026495443 -0.41013038 0.19279543 0.07040293 0.061380904 0.13179469 0.057628714
0.04800963 -0.08413096 -0.2660849 0.027428405 0.0013455942 -0.30864844 -0.108174555 0.119419776
-0.075505756 -0.09367683 -0.044343878 0.032075718 -0.09645578 -0.057788983 -0.018876258 0.0654233
0.041129444 0.15112065 -0.003698827 0.04343656 -0.2299945 -0.3109035 -0.11828785 0.023183925
0.027028743 -0.19222273 -0.14698413 0.017661266 0.14963402 0.07261585 -0.1751803 -0.088037185
0.07025268 0.051351216 -0.04759997 -0.18086308 0.03853972 0.13363266 0.13280953 -0.07659491
0.046073675 -0.042849638 0.41026032 -0.060920507 -0.19092634 0.0358726 -0.18474352 -0.4902486
-0.0728489 0.10999057 -0.32314166 0.16020946 -0.06379424 0.05145237 -0.25932276 -0.050009616
-0.045003664 0.051783 0.024874978 0.17542079 -0.08558756 -0.018160539 0.008754371 -0.0029209387
-0.16483846 -0.01096056 -0.08327461 -0.31331745 0.030732393 -0.106779456 0.0034622832 -0.055340886
-0.10045289 -0.20168681 -0.02233821 0.036185455 -0.022317579 -0.008017464 0.0049532405 0.061383814
-0.038661566 -0.058725152 -0.21358195 0.02880613 -0.3961617 -0.07714202 0.024029128 -0.16269156
-0.18704934 0.09022503 -0.16557966 0.22785115 0.017916724 0.102040485 -0.20080738 -0.03180751
-0.15281758 -0.026842127 0.031383295 -0.048291307 0.033788487 -0.062225677 -0.12406767 0.000970875
-0.01897994 -0.021777764 -0.06912033 -0.08942861 -0.047124807 0.12574413 0.121986024 -0.12516364
0.015327294 -0.03974577 -0.12051443 -0.0041988906 0.072193965 -0.11638923 -0.03893026 0.09119081
-0.1426739 0.024121502 -0.29975256 0.016912235 0.09987558 -0.18232404 -0.39616337 0.036003143
-0.03429221 0.0337459 0.15422371 -0.123632915 0.07517622 -0.078506954 0.06433314 0.06215089
0.09039427 -0.07027506 0.13147703 -0.07232867 0.078203864 0.093715794 -0.06303018 -0.043286942
-0.087653525 0.0029887746 0.060299892 -0.1313123 -0.3708738 -0.059871886 0.06422168 -0.020458989
0.10250776 -0.070179634 -0.025064053 0.058356572 0.10207952 -0.089082874 0.015382068 0.023953598
0.068402715 0.056707907 -0.270902 0.12905179 0.067430355 0.06390323 0.08381607 0.05534089
-0.1728849 -0.15301393 0.10545533 -0.065043405 -0.042260427 0.028752267 -0.13959129 -0.12933986
-0.067222126 -0.12754431 -0.035224542 -0.09510341 0.18860307 -0.0830475 -0.038254887 0.054575708
0.01830958 -0.018537026 0.031509656 0.07659125 -0.026805332 -0.09132076 -0.07007183 -0.084424466
-0.058348197 0.034712646 -0.14724846 0.09635851 -0.088147275 -0.28249738 0.03464898 -0.18434665
0.0178476 0.05175174 0.04482003 0.074833065 -0.17528422 -0.17289338 -0.14546306 0.063323215

fc3.bias f4 [10]
00000000: 6bad b7bd 4d85 70bc 36fc 09be 209e 07be
00000010: 1d2c 42bd d491 85bc 9f78 0abe 8a1a b4bc
00000020: 4514 053e 5144 f63c
-0.08968624 -0.014680219 -0.13475117 -0.13243914 -0.04740535 -0.016304888 -0.13522576 -0.021985311
0.12996013 0.030061873
