models/Mixup-1-L_inf-PGD-0.3-40 BasicNet.pt (torch, 180551 bytes, 10 tensors)

conv1.weight f4 [6, 1, 5, 5]
0	0x3b0bcf40	0.0021333247
1	0xb99ed7b5	-0.00030296823
2	0xbae895f8	-0.001774489
3	0xbb2104f1	-0.0024569596
4	0xbac0369a	-0.001466471
5	0x3f04d672	0.5188972
6	0x3b84b6a8	0.0040500946
7	0xba66f8d1	-0.000881088
8	0xbac9df15	-0.0015401567
9	0xba2de004	-0.0006632807
10	0x3af3b222	0.0018592516
11	0x3992025d	0.0002784905
12	0xba772f99	-0.0009429395
13	0xb9f0b037	-0.00045907657
14	0x37da3c61	2.6015741e-05
15	0x37e1fc98	2.6939713e-05
16	0xba5baf48	-0.0008380306
17	0xba0784c6	-0.0005169626
18	0x38f91c62	0.00011878532
19	0x3a48010f	0.0007629552
20	0xb9362fd8	-0.00017374696
21	0xb8ce6385	-9.8413824e-05
22	0x395dae37	0.00021141102
23	0x39310caa	0.00016884753
24	0x39ac318a	0.00032843306
25	0xb916191b	-0.00014314467
26	0x38894958	6.5463304e-05
27	0xb8db86dd	-0.00010467854
28	0x39870ced	0.00025758837
29	0x3a7d77e2	0.0009669048
30	0x39250d35	0.00015740546
31	0x36da3a52	6.5036957e-06
32	0xba6592c8	-0.0008757529
33	0x3908b188	0.00013036106
34	0xb8764ed5	-5.872439e-05
35	0x3b159e3e	0.0022829915
36	0xba6508f2	-0.00087369897
37	0xbb45b656	-0.0030168495
38	0xba1e839d	-0.00060468336
39	0x36970f7e	4.501954e-06
40	0x3bfb9dd9	0.007678729
41	0x3b0dc7cd	0.0021633983
42	0xbc0c6dfa	-0.008571142
43	0xba0a0e3d	-0.0005266404
44	0x3a95d13f	0.0011430158
45	0x3bae747d	0.005323945
46	0x3e6991bd	0.22809501
47	0x3cde176d	0.02711078
48	0x3ba2d906	0.004969719
49	0x3acc105a	0.0015568838
50	0x39e8919d	0.0004435898
51	0xba546b3e	-0.00081031385
52	0xbab9fa54	-0.0014188983
53	0xba554e59	-0.000813698
54	0xba741b97	-0.00093119725
55	0xba8f47a9	-0.001093139
56	0xba75813e	-0.0009365267
57	0x3b1c85c9	0.0023883453
58	0x39ce47a1	0.0003934475
59	0xbad67c0b	-0.0016363872
60	0xbaa74d42	-0.0012764113
61	0x3a0b965d	0.0005324835
62	0x3eb9fffd	0.36328116
63	0x3adaae66	0.0016684055
64	0xbab30715	-0.0013658727
65	0xba6804b8	-0.0008850801
66	0xba7a8498	-0.0009556501
67	0x3aa56519	0.001261863
68	0xb9bf7d9b	-0.00036523942
69	0xbb08c130	-0.0020867102
70	0xbab37c4b	-0.0013693658
71	0xba375c8b	-0.0006994686
72	0xbab41b54	-0.0013741055
73	0xba9dcb84	-0.0012038802
74	0xba88cc1f	-0.0010436809
75	0x3978b0c5	0.00023716975
76	0xbab95109	-0.001413853
77	0xbb35c166	-0.0027733683
78	0xbb200c4f	-0.00244214
79	0xba0a4ef4	-0.0005276047
80	0xbaf9e09d	-0.0019064132
81	0xbba29c78	-0.0049625
82	0xbc48db0e	-0.012259258
83	0xbbdd9a7c	-0.0067628007
84	0xb9346203	-0.0001720265
85	0xba2422b5	-0.0006261275
86	0xbbc28d56	-0.0059372587
87	0xbcec9cd7	-0.02888338
88	0xbabea606	-0.0014545328
89	0x3b515cb7	0.0031946131
90	0x3a8846bd	0.0010397058
91	0x3cb45ba1	0.022016348
92	0x3e7ea7b2	0.24868658
93	0x3c3be8ea	0.011469105
94	0x39930d5c	0.00028047978
95	0x399e35ca	0.00030176184
96	0xbc02f8c6	-0.0079938825
97	0xbd2e6725	-0.042578835
98	0xbc17b596	-0.009259602
99	0xbb2ffddd	-0.0026854195
100	0xb9d8edfc	-0.00041376043
101	0xb951572f	-0.00019964272
102	0x3a4b4296	0.00077537575
103	0x39606de3	0.0002140324
104	0x3a333817	0.0006836666
105	0x3a35b04b	0.0006930872
106	0x3a7340a8	0.0009279349
107	0xba18cfcf	-0.0005829306
108	0x3864a9c6	5.451755e-05
109	0x3a10d0f2	0.00055242993
110	0x3a891b9d	0.00104605
111	0x3976e641	0.00023546164
112	0x381aa295	3.6867877e-05
113	0x3a927648	0.0011174167
114	0x3b115451	0.00221755
115	0x38edddc2	0.00011342346
116	0xba7ee891	-0.0009723986
117	0xba042261	-0.0005040523
118	0x3c407f03	0.011749032
119	0x3ed1fa2a	0.41011173
120	0xba2a9f81	-0.0006508753
121	0xbab56c24	-0.0013841433
122	0xba8dd160	-0.0010819845
123	0xba9cb63e	-0.0011956168
124	0x3917dd1d	0.00014482853
125	0xba31dfcb	-0.0006785362
126	0xba415b9b	-0.0007376016
127	0xba151f01	-0.0005688519
128	0xb9d3cd4e	-0.0004039802
129	0xb8cfa029	-9.900361e-05
130	0xba8938e8	-0.001046923
131	0x3b06217c	0.0020466736
132	0xb96da4c7	-0.00022663466
133	0xba8e6b99	-0.0010865807
134	0xbac7d374	-0.0015245513
135	0x3a026334	0.0004973889
136	0x3f2e36e0	0.6805248
137	0x390f85da	0.00013687406
138	0xba8d44e7	-0.0010777981
139	0xbacc261c	-0.0015575322
140	0xb9999a98	-0.00029297615
141	0x3b84d571	0.0040537645
142	0x38ed0fbb	0.00011303971
143	0xba0304cc	-0.0004997968
144	0xb8ecc26e	-0.00011289572
145	0xba051fb8	-0.0005078274
146	0x394d8c0e	0.00019602498
147	0x3914146c	0.00014121988
148	0xb8f91411	-0.00011876983
149	0x399b3ecb	0.00029610688

conv1.bias f4 [6]
0	0x3d60362c	0.054739162
1	0xbe3be7fc	-0.18350214
2	0x3d1b44f1	0.037907545
3	0xbe8e21cb	-0.27760157
4	0x3d46b161	0.048509005
5	0x3da2e87a	0.07954498

conv2.weight f4 [16, 6, 5, 5]
0	0x3d2f0737	0.04273149
1	0xbcc1a205	-0.023636827
2	0xbdea2045	-0.11431936
3	0xbd2f06b7	-0.042731013
4	0x3d87b063	0.0662544
5	0x3d636846	0.055519365
6	0x3d7ac701	0.06122494
7	0xbe190ef4	-0.1494711
8	0x3a0182e9	0.00049404666
9	0x3deacd48	0.114649355
10	0x3d5e91fa	0.054338433
11	0x3e3bb0a2	0.18329099
12	0xbe95f0fb	-0.29285416
13	0x3e1e78d7	0.15475784
14	0x3d4b4ece	0.0496357
15	0x3d770e25	0.060316224
16	0x3df621a0	0.12018132
17	0xbe5c92f9	-0.2154044
18	0x3d101223	0.035173547
19	0xbb881af8	-0.0041536056
20	0x3d443499	0.047901724
21	0x3d48bf13	0.049010348
22	0xbd15493e	-0.036446802
23	0xbbdcb2d2	-0.006735184
24	0xbb3d0123	-0.002883979
25	0x3cc6e36f	0.02427837
26	0xbc873dc4	-0.016508944
27	0xbe801c4f	-0.25021598
28	0xbc15ec38	-0.009150557
29	0xbd3f07a4	-0.046638146
30	0x3d5ae98e	0.05344539
31	0xbd2f7811	-0.042839114
32	0xbd2fca9c	-0.042917833
33	0x3bea7a0d	0.007155663
34	0xbc7d768e	-0.01547016
35	0x3c8365e8	0.016039804
36	0xbd2dc3f9	-0.042423222
37	0x3cb9b5ec	0.022669755
38	0x3d0466cd	0.0323246
39	0x3cd57eea	0.026061494
40	0x3cefc525	0.02926881
41	0x3ca975ab	0.020685991
42	0x3d07c78a	0.03314928
43	0x3cf9a51b	0.030474236
44	0x3ca65d80	0.020308256
45	0x3dcd2fb8	0.10018867
46	0x3d0abce8	0.03387156
47	0x3c3b8b5a	0.011446798
48	0x3c49c94a	0.012316057
49	0xbc89efba	-0.016837943
50	0xbb196e7a	-0.0023411796
51	0xbd8a537d	-0.067542054
52	0xbd6f35b7	-0.058400836
53	0x3dd684bb	0.10474535
54	0x3aaaddd5	0.0013036082
55	0x3d9e0756	0.07716243
56	0xbe26184c	-0.16220206
57	0xbc8bb9a6	-0.017056298
58	0x3dc8bac5	0.098012485
59	0xb8863b5c	-6.4006745e-05
60	0x3db1f5b9	0.08689446
61	0xbe8f418f	-0.27979705
62	0x3b8c4a1b	0.004281295
63	0x3cac7373	0.021051144
64	0xbcb91b5d	-0.022596056
65	0x3d1d7f32	0.03845138
66	0xbdd7abd9	-0.10530824
67	0xbb25a2e7	-0.00252741
68	0xba1a2690	-0.000588038
69	0x3c9c3e33	0.019072628
70	0x3c906f72	0.017631266
71	0xbc97f7e3	-0.018550819
72	0xbb45cc62	-0.0030181636
73	0x3bb6085f	0.005555197
74	0x3c197eb7	0.00936859
75	0x3ce2003e	0.027588006
76	0xbd08422d	-0.033266235
77	0xbe0086d2	-0.1255143
78	0xbd58feca	-0.05297736
79	0x3c5a0976	0.01330792
80	0xbc364bcc	-0.01112647
81	0xbe4d7dc0	-0.20067501
82	0xbd82a11b	-0.06378385
83	0xbde1a1b3	-0.1101717
84	0xbc9531c9	-0.018212216
85	0xbc36e825	-0.011163746
86	0xbd7738ae	-0.06035679
87	0xbb284e1e	-0.0025681327
88	0xbd38d002	-0.045120247
89	0x3c0d4e10	0.008624569
90	0xbc8d4e55	-0.017249266
91	0x3d6881b4	0.05676432
92	0x3ca0c991	0.019627364
93	0x3b50d399	0.0031864403
94	0x3c699431	0.014256523
95	0x3d504a97	0.050852384
96	0x3d26693b	0.0406277
97	0x3ca8d4c0	0.02060926
98	0x3cba9c14	0.022779502
99	0x3c5c46a2	0.013444575
100	0xbdc9c881	-0.09852696
101	0xbe0c351c	-0.13692135
102	0x3dd3a720	0.10334611
103	0x3c0ae13e	0.0084765535
104	0xbc8b7550	-0.017023712
105	0xbdc0e5eb	-0.09418853
106	0xbdf1a84b	-0.117996775
107	0x3dcf73dc	0.1012952
108	0xbcc231f7	-0.023705466
109	0xbbe0739b	-0.0068497187
110	0xbdaf3963	-0.085558675
111	0xbd13f433	-0.03612156
112	0x3d376318	0.044772238
113	0xba23f372	-0.0006254233
114	0x3910cbad	0.00013808785
115	0xbd4b40f0	-0.049622476
116	0xbad4e9c7	-0.0016243987
117	0x3cc37194	0.02385787
118	0x3cc34d6c	0.023840629
119	0xbc426eea	-0.011867264
120	0xbc53d26e	-0.012928588
121	0xbbc2f57a	-0.0059496732
122	0xbbd85c9a	-0.006602836
123	0xbce8ea04	-0.0284319
124	0xbd8f2606	-0.06989674
125	0x3cc7826c	0.024354182
126	0xbd5097be	-0.050925963
127	0xbe3ad5a8	-0.18245566
128	0x3e0ae96e	0.13565609
129	0x3dbe8f03	0.09304621
130	0x3dc53334	0.09628907
131	0x3cc92daa	0.024557907
132	0xbf09716c	-0.53688693
133	0x3e27635f	0.16346501
134	0x3d9aac9c	0.07552454
135	0x3db56b55	0.088583626
136	0xbc9e3ead	-0.019316996
137	0xbe4672aa	-0.19379678
138	0x3d814a9f	0.06313061
139	0xbc1100da	-0.008850301
140	0x3db6086f	0.08888327
141	0xbd0f02bc	-0.034914717
142	0xbd770138	-0.060303897
143	0x3c7f75ed	0.015592081
144	0x3a901683	0.0010993037
145	0x3d5e6c51	0.054302517
146	0xbc5fc77a	-0.013658399
147	0xbcb41cea	-0.021986444
148	0xbb7a878f	-0.0038227772
149	0x3b277ecc	0.0025557755
150	0x3d5ea3fd	0.05435561
151	0x3d5b63f3	0.053562116
152	0x3d4d3334	0.05009766
153	0x3cd9fc67	0.026609613
154	0x3c04d3f3	0.008107173
155	0xbd7b7e03	-0.06139947
156	0x3d25a1ce	0.040437512
157	0x3d9757ad	0.0738977
158	0x3dab3523	0.083597444
159	0x3d1efda8	0.038816124
160	0xbe70e938	-0.23526466
161	0x3d6b380e	0.057426505
162	0x3e19dbfe	0.15025327
163	0x3e0858f7	0.13315187
164	0xbd06e419	-0.032932375
165	0xbf3588bd	-0.7091177
166	0xbf4cff83	-0.8007738
167	0xbf84244b	-1.0323576
168	0xbf8a3f88	-1.0800638
169	0xbedb338f	-0.42812774
170	0xbe22de37	-0.1590508
171	0xbdefd334	-0.11710206
172	0x3d845c5c	0.06462929
173	0x3d69bc54	0.05706437
174	0x3d5d0e16	0.05396851
175	0xbd4b81a6	-0.04968419
176	0xbc8a40df	-0.016876636
177	0x3c2e2eb5	0.010631253
178	0x3d09e5af	0.03366631
179	0x3d2f9498	0.04286632
180	0xbe23c53e	-0.1599321
181	0x3e8528cc	0.26007688
182	0x3ed3c3fc	0.41360462
183	0x3d60cfe6	0.054885767
184	0xbde8bc95	-0.11364094
185	0xbe3c8d24	-0.18413216
186	0xbe5d3349	-0.21601595
187	0x3d3719ac	0.044702217
188	0x3d2f0932	0.04273338
189	0xbc44c836	-0.012010625
190	0xbd87a4d7	-0.066232376
191	0x3abeef85	0.0014567232
192	0x3b496df6	0.0030735708
193	0xbc8e179b	-0.01734524
194	0xbcaaabb4	-0.020833828
195	0x3e212c67	0.15739594
196	0x3dcdfb8f	0.100577466
197	0x3e1133bc	0.14179891
198	0x3ddee392	0.10883249
199	0x3d8a177f	0.06742763
200	0x3cdf05c9	0.027224438
201	0x39dce687	0.00042133426
202	0x3b45fd8d	0.0030210942
203	0x3a845410	0.0010095853
204	0x3cd44569	0.025912004
205	0x3d0353db	0.032062393
206	0x3cd07a16	0.02544884
207	0x3d92c71a	0.07166882
208	0x3df7ec6a	0.12105639
209	0x3d828f67	0.06375008
210	0xbbba3725	-0.0056828433
211	0x3cc04db6	0.023474555
212	0x3d3410b9	0.04396126
213	0xbe21c25b	-0.15796797
214	0xbde92e3a	-0.1138577
215	0xbea8d0d9	-0.32971838
216	0xbeb77188	-0.35828805
217	0xbdd6082b	-0.10450777
218	0x3cbe1836	0.023204904
219	0x3d6f6fc1	0.058456186
220	0x3cfc15cb	0.03077211
221	0x3d2b4f90	0.041823924
222	0x3d8e3c99	0.06945152
223	0x3d495e6e	0.04916232
224	0x3d2d999a	0.042382814
225	0xbce5c185	-0.028046379
226	0xbd015254	-0.031572655
227	0xbd35176b	-0.044211786
228	0xbca379d8	-0.01995556
229	0x3d6f9489	0.058491264
230	0xbd0c9426	-0.034320973
231	0x3b19ed6b	0.002348746
232	0x3d6c979d	0.057761777
233	0x3e14d497	0.14534222
234	0x3d590e45	0.052992124
235	0xbe11d668	-0.14241946
236	0x3e8c935f	0.27456185
237	0x3e7f210d	0.24914952
238	0x3df13347	0.117773585
239	0x3da6ff14	0.08154121
240	0x3d7e59b6	0.062097274
241	0x3e4b0671	0.19826676
242	0x3dc39b4c	0.09551105
243	0x3d20f819	0.039299104
244	0x3be890f4	0.007097358
245	0x3d7c71fe	0.06163215
246	0xbcc17665	-0.023616025
247	0xbc5705fa	-0.0131239835
248	0xbc4347be	-0.01191896
249	0xbc317d42	-0.010833086
250	0xbb70be1b	-0.0036734405
251	0x3cd466d0	0.025927931
252	0x3d696bbb	0.056987505
253	0x3d76fff9	0.06030271
254	0x3d5f037c	0.054446682
255	0x3d0c9c3c	0.034328684

conv2.bias f4 [16]
0	0x3ed7f17c	0.42176425
1	0x3e629768	0.2212807
2	0x3efe12a7	0.49623606
3	0x3bde622a	0.0067866044
4	0x3f628970	0.88490963
5	0xbee3309c	-0.44373024
6	0x3dd38b9c	0.10329363
7	0x3e43f47d	0.19136234
8	0xbb8ee4cc	-0.004360771
9	0x3f0d26fc	0.5513761
10	0x3ec2699f	0.37971207
11	0xbeab5e84	-0.33470547
12	0x3f6e75cf	0.9314851
13	0x38688002	5.5432327e-05
14	0x3f3b9fc1	0.7329064
15	0xbd5f2399	-0.054477308

fc1.weight f4 [120, 256]
0	0x3e33be2e	0.17553017
1	0x3df01863	0.117234014
2	0x3e050c34	0.12992936
3	0xbc1fca23	-0.009752783
4	0x3cfb9ced	0.030714476
5	0x3beb19c1	0.007174701
6	0xbdc10341	-0.09424449
7	0x3cdba76c	0.026813231
8	0x3d3ccc56	0.046093307
9	0x3e2d19a5	0.16904314
10	0x3c9ba1f8	0.018998131
11	0x3e240920	0.16019106
12	0x3dfcfb2b	0.12352594
13	0x3d21b454	0.039478615
14	0xbd0dc69a	-0.03461323
15	0x3d485597	0.04890975
16	0xbda4b73b	-0.08042761
17	0xbe2a13d7	-0.16609131
18	0xbe2316cc	-0.15926665
19	0x3d27946a	0.040913023
20	0xbe9003da	-0.28127939
21	0xbe0b2107	-0.13586818
22	0xbd6eaf58	-0.05827269
23	0x3d218980	0.03943777
24	0xbe3479b4	-0.17624551
25	0xbe9cbb2f	-0.3061156
26	0xbd939454	-0.07206026
27	0x3d68610f	0.056733187
28	0x3d48cdc7	0.04902437
29	0xbe3fd8a6	-0.18734989
30	0xbc4ddcc1	-0.012564839
31	0xbd029d8e	-0.031888537
32	0x3e1fd9d8	0.15610445
33	0x3e5dcfdf	0.21661328
34	0x3e4e25eb	0.20131652
35	0x3d4c15e1	0.049825553
36	0xbbcf9ea2	-0.006336049
37	0x3dea1b55	0.114309944
38	0xbca8921b	-0.020577481
39	0xbe12c5c1	-0.1433325
40	0xbcb458db	-0.022015026
41	0x3e3f23d4	0.18666011
42	0x3e02e90c	0.12784213
43	0xbd571d69	-0.052518282
44	0xbd1a2272	-0.037630506
45	0xbca6d6aa	-0.020366032
46	0x3d6ae8c0	0.057350874
47	0xbbc45a67	-0.005992222
48	0xbb9e1c08	-0.004825119
49	0x3d9756b8	0.07389587
50	0xbe484b24	-0.19559914
51	0x3df3f3fb	0.1191177
52	0xbe151d86	-0.14562044
53	0x3cf76a77	0.030202134
54	0x3da2e16f	0.07953154
55	0x3e371e07	0.17882548
56	0x3c906059	0.017624067
57	0xbc00ab2b	-0.00785331
58	0xbe3d6f96	-0.18499598
59	0xbe182c39	-0.1486062
60	0x3df24dad	0.11831222
61	0x3e1a8344	0.15089136
62	0x3d8b7959	0.068102546
63	0xbd108f2b	-0.035292786
64	0x3e07461c	0.13210338
65	0x3e3f9aed	0.18711443
66	0x3e43ea09	0.19132246
67	0x3e7a93bd	0.2447042
68	0x3d7315d0	0.059346974
69	0x3e869492	0.26285225
70	0xbd955315	-0.07291237
71	0xbdb43c6a	-0.088005856
72	0x3d745af6	0.05965706
73	0x3dc236cd	0.09483109
74	0xbdac91ff	-0.08426284
75	0xbe24efc5	-0.1610709
76	0x3d9539a7	0.07286387
77	0xbe91b349	-0.28457096
78	0x3d8f3adc	0.069936484
79	0x3deb2d49	0.11483247
80	0xbdc1b70d	-0.09458742
81	0xbcf9ae4a	-0.030478615
82	0xbdf316fb	-0.118696176
83	0xbdbd1f4e	-0.092344865
84	0xbd870d41	-0.06594325
85	0xbd3acbfb	-0.045604687
86	0x3cd5a348	0.026078835
87	0x3d282538	0.04105112
88	0xbe0ed88e	-0.13949797
89	0x3e0a837e	0.13526723
90	0x3cf24a72	0.029576514
91	0x3c2edafb	0.010672326
92	0xbdb4a3fe	-0.088203415
93	0xbd3981bb	-0.045289736
94	0xbc880c39	-0.01660739
95	0xbc072894	-0.008249421
96	0xbde1d99c	-0.11027834
97	0xbe3b8a02	-0.18314365
98	0xbde93fa6	-0.11389093
99	0x3e16244a	0.1466228
100	0xbe852cdd	-0.2601079
101	0xbd3e51ba	-0.04646466
102	0x3d74af35	0.059737403
103	0x3dabe49c	0.08393213
104	0xbeb80989	-0.35944775
105	0xbdbca8c9	-0.09211881
106	0xbd57e2e0	-0.0527066
107	0xbe0dae8e	-0.13836119
108	0xbed87369	-0.4227555
109	0xbe5a2916	-0.21304736
110	0x3d112003	0.03543092
111	0xbd6ee5f2	-0.05832476
112	0xbec68f5f	-0.38781258
113	0xbc3c245c	-0.011483278
114	0xbdabf408	-0.08396155
115	0x3a911d3c	0.0011071335
116	0xbdbc2d71	-0.09188355
117	0xbd5b6350	-0.05356151
118	0xbcb1ec0a	-0.021718998
119	0xbdecf738	-0.11570591
120	0xbe9e573c	-0.3092593
121	0x39543007	0.00020235787
122	0x3e291e11	0.16515376
123	0xbe665c78	-0.22496212
124	0xbda4aef4	-0.08041182
125	0xbdf3a13d	-0.11895988
126	0x3d56181f	0.052269097
127	0x3bbd7a3b	0.0057823933
128	0xbe399ec8	-0.18126976
129	0x3bca647e	0.0061765304
130	0xbddf6821	-0.10908533
131	0x3d144972	0.036202855
132	0xbd782238	-0.06057951
133	0xba99c210	-0.0011730809
134	0x3b90188a	0.0043974565
135	0x3c527673	0.012845623
136	0xbc627cbc	-0.013823684
137	0xbb988459	-0.004654449
138	0x3c1053a7	0.008809007
139	0x3d4223c7	0.0473974
140	0xbd4e7de0	-0.050413013
141	0x3d58dbce	0.052943997
142	0xbe710b82	-0.23539546
143	0x3c38f83a	0.011289651
144	0xbdb49ea7	-0.08819323
145	0xbd987929	-0.074449845
146	0x3dbb62d8	0.09149712
147	0x3e3f3980	0.18674278
148	0xbe88c855	-0.2671534
149	0xbe223de6	-0.15843925
150	0x3d17942d	0.037006546
151	0x3cbbb474	0.022913195
152	0xbe71d42f	-0.23616098
153	0xbe04976e	-0.12948391
154	0x3ccdce71	0.025122853
155	0xbe042f0c	-0.12908572
156	0x3d00c4ef	0.03143781
157	0xbd1ab807	-0.03777316
158	0xbc93748a	-0.017999906
159	0xbdba130e	-0.09085666
160	0xbdf8bc70	-0.121453166
161	0xbd74eec3	-0.059798013
162	0xbdfab2de	-0.122411475
163	0xbd28e9be	-0.04123854
164	0xbe295077	-0.16534601
165	0xbd7f6d42	-0.062360056
166	0xbcb8b1bf	-0.022545693
167	0xbdee23ce	-0.11627923
168	0x3d656647	0.056005742
169	0xbe0464af	-0.12929033
170	0xbdb645cd	-0.08900032
171	0xbd4f4be0	-0.05060947
172	0x3d1308eb	0.035897177
173	0x3dc2f890	0.09520066
174	0x3e0c2a1d	0.1368794
175	0x3c9b65b8	0.018969402
176	0xbe0ec4dd	-0.13942285
177	0xbd5bf88e	-0.053703837
178	0xbd46d3ef	-0.04854196
179	0xbde3172e	-0.110884055
180	0x3d6f2875	0.058388192
181	0x3d85fe9c	0.065427035
182	0x3cb9034c	0.02258458
183	0x3d0d6eb8	0.034529418
184	0x3daa24e1	0.08307815
185	0x3cc06cc8	0.023489371
186	0xbcde0747	-0.02710308
187	0xbc62bdac	-0.013839167
188	0x3c22ff13	0.00994851
189	0xbaabce41	-0.0013107733
190	0x3cb41ab2	0.021985386
191	0xbe385735	-0.18002017
192	0x3d41ca12	0.04731185
193	0x3db7e793	0.08979716
194	0x3e0d897a	0.13821974
195	0x3e86938a	0.26284438
196	0xbd1dde6e	-0.038542204
197	0xbd2fe047	-0.042938497
198	0x3dab8286	0.08374505
199	0xbe0d5e56	-0.13805518
200	0xbe247199	-0.16058959
201	0x3cad0b1a	0.021123458
202	0x3ddb59ea	0.10710509
203	0xbe057f07	-0.13036738
204	0xbe3a5877	-0.18197809
205	0xbe893a73	-0.26802406
206	0xbd929111	-0.071565755
207	0x3e0548ec	0.13016099
208	0xbb9cd157	-0.0047856974
209	0xbe0001db	-0.12500708
210	0x3cb7b54a	0.022425313
211	0x3ddaed49	0.1068979
212	0xbdcc9d10	-0.09990895
213	0xbe1722a2	-0.14759305
214	0xbc11c9e9	-0.008898237
215	0xbdecccf8	-0.11562532
216	0x3c3e4c26	0.011614835
217	0x3cece79f	0.02891904
218	0x3d886a37	0.06660884
219	0x3de57e90	0.112057805
220	0x3dbcef7f	0.09225368
221	0x3b198d7f	0.0023430286
222	0xbd0ab558	-0.03386435
223	0x3b9976b2	0.004683339
224	0x3de57196	0.112033054
225	0xbe7de816	-0.24795565
226	0xbdf59c51	-0.119927056
227	0x3e514067	0.20434724
228	0xbcb8b870	-0.022548884
229	0xbda83169	-0.08212549
230	0x3d6c4248	0.0576804
231	0x3e87ef43	0.2654973
232	0x3e0a841c	0.13526958
233	0x3e2ef6b0	0.17086291
234	0xbd0d5f21	-0.03451455
235	0x3d14c180	0.03631735
236	0x3e1bc64d	0.15212364
237	0x3eb38483	0.35062036
238	0xbd680cc1	-0.056652788
239	0x3ce678d1	0.028133782
240	0x3c05d821	0.008169205
241	0x3e3c0411	0.18360926
242	0x3dd33035	0.10311929
243	0xbdd167a4	-0.10224846
244	0x3da66a40	0.08125734
245	0x3d601641	0.054708723
246	0xbda50553	-0.08057656
247	0xbe01c512	-0.12672833
248	0xbd98795d	-0.07445023
249	0x3cec98ec	0.028881513
250	0xbd4ba059	-0.049713466
251	0x3e5d9404	0.21638495
252	0x3ccbb9a6	0.024868798
253	0x3e2b60b4	0.16736108
254	0xbd98b76e	-0.074568614
255	0xbcb2bf35	-0.02181969

fc1.bias f4 [120]
0	0x3ecc2469	0.3987153
1	0x3d322c17	0.04349908
2	0xbd3188fe	-0.043343537
3	0x3f01a26d	0.5063847
4	0xbc8ddcbe	-0.017317172
5	0x3cfcec46	0.030874383
6	0x3e153f09	0.14574827
7	0x3e63ea94	0.22257453
8	0x3d17e816	0.03708657
9	0x3de44798	0.11146468
10	0x3db84f78	0.089995325
11	0x3c2584a8	0.0101024285
12	0xbbab49b1	-0.0052272906
13	0x3e28906f	0.16461347
14	0x3da5aefe	0.08090018
15	0xbd775c44	-0.060390726
16	0xbcf729b4	-0.030171253
17	0xbddfa7a3	-0.10920646
18	0x3ebd3bad	0.36959592
19	0xbd28e571	-0.041234437
20	0x3e1d85cb	0.15383069
21	0x3c0350c2	0.00801486
22	0x3c1883ae	0.009308739
23	0x3e9b30c0	0.3031063
24	0x3ce0e38b	0.027452251
25	0xbd7c249c	-0.06155835
26	0x3c925436	0.01786242
27	0x3e858d35	0.26084295
28	0xbd497e62	-0.049192794
29	0x3ca59f4d	0.020217562
30	0xbdbc4828	-0.0919345
31	0x3e50697b	0.20352738
32	0x3badcb72	0.0053037936
33	0x3d11f772	0.035636373
34	0x3ea02ba4	0.31283295
35	0x3e431ab5	0.19053157
36	0xbe840c36	-0.25790566
37	0x3e6fe0dd	0.23425622
38	0xbcb665ce	-0.022265341
39	0xbdeee3e9	-0.11664564
40	0xbe5a8f27	-0.21343671
41	0xbd7b05a1	-0.061284665
42	0x3e95ef38	0.29284072
43	0xbcd04320	-0.025422633
44	0x3e2d2020	0.16906786
45	0xbcb7c68f	-0.022433547
46	0x3c3abe7e	0.011397956
47	0xbcb7c278	-0.022431597
48	0x3d2cf77b	0.042228203
49	0x3b0000d5	0.0019531746
50	0xbd40adb1	-0.047040645
51	0x3e88b556	0.26700848
52	0x3d1ccda7	0.038282063
53	0x3e16539f	0.14680336
54	0x3eb61fd8	0.3557117
55	0x3ca7c4da	0.020479608
56	0xbe1b3287	-0.15155993
57	0x3db76dff	0.08956527
58	0x3d510050	0.05102569
59	0x3d9528a9	0.07283146
60	0xbd00264e	-0.03128653
61	0xbd34e86a	-0.04416696
62	0xbd0a6462	-0.03378714
63	0xbd3f9dc8	-0.04678133
64	0xbd25ddc8	-0.04049471
65	0xbc3d8191	-0.011566536
66	0x3d2f29e7	0.04276457
67	0xbe0f8ff7	-0.14019762
68	0xbbea99a4	-0.0071594287
69	0x3ea40899	0.3203781
70	0xbcef3adc	-0.029202871
71	0xbdc429ea	-0.09578307
72	0xbcc707c9	-0.024295704
73	0xbcd6011d	-0.026123578
74	0xbca7458a	-0.020418901
75	0x3e37ef7a	0.17962447
76	0x3ec20b3e	0.37899202
77	0x3bdf9706	0.0068234233
78	0xbe129c46	-0.14317426
79	0x3e831982	0.25605398
80	0xbe9bb58e	-0.30411953
81	0xbdf0416e	-0.1173123
82	0x3cb014aa	0.021494228
83	0xbd8e91a4	-0.069613725
84	0x3eed1282	0.46303183
85	0xbd7c42d7	-0.06158718
86	0xbe242b9f	-0.16032265
87	0xbd974c03	-0.07387545
88	0xbc1781f9	-0.0092472965
89	0x3e4c7ba0	0.19969034
90	0x3e1d6860	0.15371847
91	0xbdc09e33	-0.09405174
92	0x3d9e6be2	0.07735421
93	0x3eb56a27	0.3543255
94	0xbd915074	-0.07095423
95	0x3d0074cb	0.031361382
96	0x3e8a5c95	0.2702376
97	0xbd865a86	-0.06560235
98	0x3e30447a	0.17213622
99	0x3e378450	0.17921567
100	0xbd63366a	-0.055471815
101	0x3cf18038	0.029480085
102	0xbd2d4685	-0.04230358
103	0x3d08ca30	0.033395946
104	0x3c5ec182	0.013595941
105	0xbd014134	-0.031556323
106	0x3cd9569a	0.026530553
107	0x3e0a617c	0.1351375
108	0x3eccbfae	0.3998999
109	0xbd63a0da	-0.055573322
110	0xbc41020a	-0.011780271
111	0x3d31264a	0.043249406
112	0xbda11792	-0.07865824
113	0x3d55fbfa	0.052242257
114	0xbc90b31b	-0.01766353
115	0xbd14c265	-0.0363182
116	0xbd840e84	-0.06448081
117	0xbca65c85	-0.020307789
118	0xbd7e70a3	-0.062119137
119	0x3de51032	0.1118473

fc2.weight f4 [84, 120]
0	0x3c1822b8	0.009285621
1	0x3cb2fe47	0.021849765
2	0xbc520eb5	-0.012820889
3	0xbcb42b16	-0.021993201
4	0xbc6a1037	-0.0142860925
5	0xbd7d6c98	-0.06187114
6	0x3d1b55c4	0.03792359
7	0xbe5e1947	-0.2168933
8	0x3cc7cc18	0.024389312
9	0x3cf41891	0.02979687
10	0xbd459504	-0.048237815
11	0x3d35c931	0.044381324
12	0x3d77972c	0.060446903
13	0x3cc5ce24	0.024146147
14	0x3d2f313f	0.042771574
15	0xbd9a85d9	-0.07545061
16	0x3b10312c	0.0022001965
17	0xbe258271	-0.1616304
18	0xbdafbbe1	-0.08580757
19	0xba3bfc99	-0.0007171124
20	0xbd4a006f	-0.04931682
21	0xbc3fabb3	-0.011698651
22	0xbd8b46e9	-0.068006344
23	0xbd829c2d	-0.063774444
24	0x3d37e486	0.04489567
25	0xbd9a33c5	-0.075294055
26	0x3d81d599	0.06339569
27	0x3d8c05c1	0.06837035
28	0x3dc51c97	0.09624594
29	0xbd90d529	-0.07071907
30	0xbdba5ed0	-0.09100115
31	0x3d7348c6	0.059395574
32	0xbd07da23	-0.033167016
33	0x3d266778	0.04062602
34	0x3dbc0600	0.09180832
35	0x3d8d21da	0.06891222
36	0x3db973b7	0.09055274
37	0x3d1ee299	0.03879032
38	0xbd93aec4	-0.07211068
39	0xbc1492e0	-0.009068221
40	0x3dee87c3	0.11646988
41	0xbda4214e	-0.08014165
42	0xbdf94cba	-0.121728376
43	0x3db94d78	0.09047979
44	0xbcbeae64	-0.023276515
45	0x3d1ae547	0.037816312
46	0x3d18fc64	0.037350073
47	0xbd8c7c72	-0.068596736
48	0xbd9f18b9	-0.07768387
49	0x3d1dea4f	0.038553532
50	0xbbfa7c4d	-0.0076442123
51	0x3e133a7d	0.1437778
52	0x3cce3d04	0.025175579
53	0x3c5b7d45	0.013396566
54	0xbd745ad2	-0.059656925
55	0x3d8cef2a	0.068815544
56	0xbde52f9c	-0.111907214
57	0x3dc47e12	0.095943585
58	0xbdccd35f	-0.10001253
59	0xbd7688d1	-0.060189072
60	0x3d9ea405	0.07746128
61	0x3d4bd2d4	0.04976161
62	0xbb4f83de	-0.0031664292
63	0xbca3fa63	-0.020016855
64	0xbd165d5c	-0.03671013
65	0xbd735430	-0.05940646
66	0x3d8bb8ee	0.06822382
67	0xbd017786	-0.031608127
68	0xbd9264ae	-0.071481094
69	0x3d319ebe	0.04336428
70	0xbc6c129f	-0.0144087365
71	0xbd8d369d	-0.06895182
72	0xbc6ac1ab	-0.014328401
73	0xbc073b5c	-0.0082538985
74	0xbd667fb4	-0.05627413
75	0x3d816ed5	0.06319968
76	0x3e1ca769	0.15298237
77	0x3c0ab1fa	0.0084652845
78	0x3d2f76c4	0.042837873
79	0xbcb2cae3	-0.02182526
80	0x3cae1001	0.021247866
81	0x3cb571e1	0.022149028
82	0xbd565eee	-0.052336626
83	0x3d93cb7a	0.072165444
84	0x3e2ae5b6	0.1668919
85	0x3d9cac3c	0.076500386
86	0x3c84bd17	0.016203446
87	0x37a1ed74	1.9303268e-05
88	0x3d849773	0.06474199
89	0xbda1fd1d	-0.07909606
90	0x3d2a637e	0.04159879
91	0x3e0e2db7	0.13884626
92	0x3d5d1574	0.053975537
93	0x3db3e5b7	0.08784049
94	0x3db9a350	0.090643525
95	0xbd4b011a	-0.049561597
96	0xbdf575ca	-0.11985357
97	0xbd54be5c	-0.051939353
98	0x3de40b2d	0.11134944
99	0x3d94b71e	0.07261489
100	0xbd5606bb	-0.052252512
101	0x3db997c0	0.09062147
102	0x3dbb97be	0.09159802
103	0xbd5f66dd	-0.054541457
104	0xbd3465c7	-0.044042375
105	0x3d1363ea	0.035983957
106	0xbce0635d	-0.02739113
107	0xbd913058	-0.07089299
108	0x3ce7ad2d	0.028280819
109	0xbd328014	-0.043579176
110	0x3d2f25d7	0.042760696
111	0x3b741b3c	0.0037247678
112	0x3d51e691	0.051245276
113	0xbd1c88d2	-0.03821642
114	0x3d150dda	0.036390163
115	0xbcef4a49	-0.029210227
116	0x3b7acd99	0.0038269518
117	0xbb9ce502	-0.004788042
118	0xbc3ebfe1	-0.011642427
119	0xbc50e640	-0.012750208
120	0x3d59e751	0.053199116
121	0x3c594404	0.013260845
122	0xbd6c7db3	-0.057737064
123	0xbd586d6c	-0.052838728
124	0x3c9b8368	0.018983558
125	0x3d5e2fc2	0.054244764
126	0x3c0b7f75	0.008514275
127	0x3ba608f0	0.0050669834
128	0x3d6052fc	0.05476664
129	0xbc717d08	-0.014739282
130	0xbd515f4e	-0.05111628
131	0x3d6b7063	0.057480227
132	0xbd879989	-0.066210814
133	0x3d11a92c	0.035561725
134	0xbc8a6c98	-0.016897485
135	0xbcdac00d	-0.026702905
136	0xbcad89a2	-0.021183793
137	0x3bb856c1	0.0056255762
138	0x3d862ee0	0.065519094
139	0xbc5b96d3	-0.0134026585
140	0xbced42e5	-0.028962562
141	0x3d4414d1	0.047871415
142	0xbda0bcbe	-0.078485
143	0x3d06e77c	0.032935604
144	0xbd077f61	-0.033080462
145	0x3d4a7c70	0.04943508
146	0x3c3e4cdf	0.011615007
147	0xbdc5ffd3	-0.09667935
148	0x3da17cf8	0.07885164
149	0xb8f5e265	-0.0001172468
150	0xbd854a68	-0.065083325
151	0x3d7d5ebb	0.06185792
152	0xbdb4623a	-0.08807798
153	0x3d464aba	0.04841111
154	0x3d26bddf	0.04070842
155	0xbcb6cdcf	-0.022314934
156	0xbd398c4f	-0.045299824
157	0xbdd3100e	-0.103057966
158	0x3d203c87	0.039120223
159	0xbcf87b92	-0.03033236
160	0xbd4a2b55	-0.04935773
161	0xbd168d0b	-0.036755603
162	0xbd1631da	-0.036668636
163	0x3d5756bc	0.05257295
164	0xbdbc5aa9	-0.091969796
165	0xbd757477	-0.059925523
166	0x3cbb9fc4	0.02290333
167	0x3d18f99e	0.03734743
168	0xbceab878	-0.028652415
169	0x3d9692be	0.073522076
170	0x3d2d87e8	0.04236594
171	0xbdcb457a	-0.09925361
172	0xbdc44638	-0.09583706
173	0xbd2200a6	-0.0395514
174	0xbd3fae2b	-0.04679696
175	0xbd43e510	-0.047825873
176	0xbd9570d4	-0.07296911
177	0xbd9a0cf3	-0.07522001
178	0x3d36cfeb	0.04463188
179	0x3da6a972	0.08137788
180	0xbd794fc3	-0.060867082
181	0x3d88cabb	0.06679293
182	0xbd22421e	-0.039613836
183	0x3c6b259f	0.014352231
184	0x3c846af6	0.016164284
185	0x3c09dbf1	0.0084142545
186	0x3ce5e68c	0.028064035
187	0xbd977f75	-0.073973574
188	0x3d900b41	0.070333965
189	0xbbaf7ce6	-0.005355465
190	0x3db60248	0.08887154
191	0xbd503dc6	-0.05084016
192	0x3d01e90d	0.031716395
193	0x3ca0cea4	0.019629784
194	0x3d940179	0.072268434
195	0x3d6b207a	0.05740402
196	0xbbd72605	-0.0065658116
197	0x3da520dd	0.08062909
198	0xbcb197d2	-0.021678839
199	0xbdd77d5e	-0.10521959
200	0xbd7a1097	-0.061050978
201	0xba65757a	-0.0008753162
202	0x3d0b5c95	0.03402384
203	0x3d826f52	0.06368889
204	0x3cd6b4b2	0.02620921
205	0xbd4e8866	-0.05042305
206	0xbd5e85e4	-0.054326907
207	0xbcc95e0f	-0.024580983
208	0xbdab8cc4	-0.08376458
209	0x3d44f3b5	0.04808398
210	0xbc6736c1	-0.014112175
211	0xbcc77c5a	-0.024351288
212	0x3cfc86d8	0.030826017
213	0xbd672606	-0.056432746
214	0x3d924bfb	0.071433984
215	0xbd267e29	-0.04064766
216	0xbd9785b9	-0.073985524
217	0x3d84a275	0.06476299
218	0x3c744d47	0.0149110025
219	0x3d1ad7a2	0.0378033
220	0xbd152288	-0.036409885
221	0xbd8e72f0	-0.06955516
222	0xbd4f1bf9	-0.050563786
223	0xbd19f4e0	-0.037587047
224	0xbd05f287	-0.032701995
225	0x3d7db143	0.061936628
226	0xbcf630f1	-0.030052634
227	0xbcfde133	-0.030991172
228	0xbd2bd76c	-0.04195349
229	0x3d209bbd	0.039211024
230	0xbdaf3df0	-0.085567355
231	0x3b126ca4	0.0022342587
232	0x3c56f42d	0.0131197395
233	0x3d076203	0.033052456
234	0x3d1324ed	0.035923887
235	0x3d47767b	0.048696976
236	0xbd85627d	-0.06512926
237	0x3d8575a9	0.065165825
238	0xbbf3265b	-0.007420344
239	0xbce84ba6	-0.028356384
240	0xbc73f5c8	-0.014890142
241	0x3d265c0f	0.040615138
242	0xbd3a692d	-0.04551046
243	0xbe17ec46	-0.14836225
244	0x3ce2cab6	0.02768455
245	0x3a6c556e	0.00090154156
246	0xbdc42cbf	-0.09578847
247	0x3d2e3e90	0.042540133
248	0xbd4ca710	-0.04996401
249	0x3b6ccef3	0.0036134094
250	0xbc17a2ab	-0.009255092
251	0x3dc13e76	0.094357416
252	0xbd79ccaf	-0.060986217
253	0xbccb5151	-0.024819048
254	0x3c6a4f74	0.01430117
255	0xbbdf32b1	-0.006811463

fc2.bias f4 [84]
0	0x3d683169	0.056687746
1	0x3d94d660	0.07267451
2	0x3cd4c742	0.02597392
3	0x3ce8bc69	0.028410153
4	0x3bee9412	0.007280835
5	0xbdd8a211	-0.10577787
6	0x3e78de4c	0.2430355
7	0xbdf80fc6	-0.121123835
8	0x3e39da4d	0.18149681
9	0x3ee4136e	0.44546074
10	0x3d1143a6	0.035464905
11	0x3ecaaae6	0.3958351
12	0xbe671946	-0.22568235
13	0xbdf0e9c3	-0.117633365
14	0x3a982437	0.0011607473
15	0xbdef64f3	-0.116891764
16	0x3e23caf2	0.15995386
17	0xbc4ab721	-0.012372763
18	0x3d30cda6	0.04316487
19	0x3e355a9e	0.17710349
20	0x3e4ce5b7	0.20009504
21	0xbc56aa43	-0.013102117
22	0x3dc1ed70	0.09469116
23	0x3d1f3e0a	0.038877524
24	0xbdcc3f5a	-0.09973021
25	0x3e582b32	0.21110228
26	0x3cd6ef79	0.026237236
27	0x3cfac2c1	0.030610444
28	0x3e5c8c25	0.21537836
29	0x3d75d6c5	0.060019273
30	0xbd74675b	-0.05966888
31	0x3cf9715e	0.030449566
32	0xbd3cb1e3	-0.046068083
33	0xbb04b4e3	-0.0020249418
34	0x3e77cb0a	0.24198547
35	0xbc4adb08	-0.012381323
36	0xbe02fafe	-0.12791058
37	0xbaa2c0ec	-0.0012417114
38	0x3ed2c82c	0.41168344
39	0xbe28578a	-0.16439644
40	0xbd4e5168	-0.050370604
41	0xbc927273	-0.01787684
42	0xbcf8dc67	-0.030378534
43	0xbcb9745b	-0.02263849
44	0x3c9781f2	0.01849458
45	0x3ddb774c	0.107161134
46	0x3ebbe637	0.36699077
47	0xbc06abf1	-0.008219705
48	0xbdbe04d5	-0.092782654
49	0x3d912f60	0.07089114
50	0xbdd55b8f	-0.10417854
51	0x3e8b7602	0.2723847
52	0xbd2540e6	-0.040345095
53	0x3ea6cbc4	0.32577336
54	0x3ee113ce	0.43960422
55	0xbdde60fc	-0.10858342
56	0xbcc3a2cd	-0.02388134
57	0xbd08a55e	-0.03336083
58	0x3d29c58b	0.041448157
59	0x3ec60396	0.3867461
60	0xbda76726	-0.08173971
61	0x3e836932	0.25666195
62	0xbbd600b2	-0.0065308446
63	0xbcd002b8	-0.025391921
64	0x3e165101	0.14679338
65	0x3bd1587e	0.006388723
66	0x3e2596c1	0.1617079
67	0x3eb381da	0.35060006
68	0xbcc881b0	-0.024475902
69	0x3dbf4aa9	0.09340412
70	0xbdc064a3	-0.09394195
71	0x3d2551ad	0.040361095
72	0x3e09c69d	0.13454671
73	0x3ed2d400	0.41177368
74	0xbdf0d1bc	-0.11758754
75	0xbc92eb83	-0.017934566
76	0x3ea7e7d4	0.32794058
77	0x3ce664ea	0.028124291
78	0xbd6a2a7c	-0.057169423
79	0x3e11b460	0.14228964
80	0x3de53481	0.11191655
81	0x3cc00e96	0.023444455
82	0x3e144098	0.14477766
83	0x3e39b172	0.18134096

fc3.weight f4 [10, 84]
0	0x3c503681	0.012708307
1	0xbdab6004	-0.08367923
2	0xbd35bf6c	-0.044372007
3	0xbd8c2483	-0.068429016
4	0x3df89fd1	0.121398576
5	0x3d769689	0.060202155
6	0xbe0bde13	-0.13658933
7	0x3cff1514	0.03113798
8	0x3c8db9f7	0.017300589
9	0x3dc7b6e7	0.09751683
10	0xbd687c1d	-0.05675899
11	0x3dc91a91	0.0981952
12	0xbd661eb2	-0.056181617
13	0x3c7b59c3	0.015341225
14	0xbe0637f5	-0.13107283
15	0x3d5c5a4b	0.053797048
16	0x3db25b09	0.0870877
17	0xbcec5db0	-0.028853267
18	0xbda1997f	-0.07890605
19	0xbd9bfc9c	-0.07616541
20	0x3cba6c5c	0.022756748
21	0x3cb62946	0.022236478
22	0x3b88e39d	0.0041775242
23	0x3d68fe15	0.056882937
24	0xbd873e14	-0.06603637
25	0xbd11591c	-0.035485372
26	0xbdd0f026	-0.10202055
27	0x3d194cd0	0.03742677
28	0xbe555eaa	-0.20836893
29	0x3d2e7098	0.042587847
30	0xbdb26a5b	-0.08711692
31	0x3e1c5f11	0.1527064
32	0x3d375f24	0.044768468
33	0xbd223523	-0.039601456
34	0xbc2a0bc1	-0.010378779
35	0x3dfc8839	0.1233067
36	0x3c3ed4e4	0.011647437
37	0x3e273dae	0.16332123
38	0x3d89479a	0.0670311
39	0xbe01bc03	-0.12669377
40	0x3dc6448d	0.09681044
41	0x3ca35b6f	0.01994106
42	0x3cc42263	0.023942178
43	0x3d7b34fc	0.061329827
44	0xbd915d69	-0.07097895
45	0xbceec124	-0.029144831
46	0xbd8040cb	-0.06262358
47	0xbc0c2e74	-0.008555997
48	0x3db994dc	0.09061596
49	0x3da1c5c7	0.07899051
50	0xbd15c743	-0.036566984
51	0x3db3ed51	0.08785499
52	0xbcedaa26	-0.029011797
53	0xbe080f23	-0.13287024
54	0xbda8f046	-0.082489535
55	0x3d1e6993	0.038674902
56	0x3d929403	0.07157137
57	0xbd876373	-0.06610765
58	0xbd00224a	-0.0312827
59	0xbeaf11a2	-0.3419314
60	0xbd18e25a	-0.03732524
61	0x3e057ea6	0.13036594
62	0x3db991df	0.09061026
63	0x3cbbdbf0	0.022932023
64	0x3db19d71	0.08672608
65	0x3d49c97a	0.04926441
66	0x3d8df5f2	0.06931676
67	0x3d4f4330	0.050601184
68	0xbdafd5cb	-0.085857
69	0xbe5c55c7	-0.21517096
70	0xbc1ac3d7	-0.009446106
71	0x3caebb4b	0.021329543
72	0x3d80745b	0.06272193
73	0x3d92e41e	0.07172416
74	0xbbdde548	-0.006771717
75	0xbd8d52bc	-0.06900546
76	0x3d87732b	0.066137634
77	0xbd35e813	-0.044410776
78	0x3da56616	0.08076112
79	0xbc802487	-0.015642418
80	0x3cf7767d	0.030207867
81	0xbd9d8eca	-0.076932505
82	0x3d018bcb	0.031627458
83	0xbe58e239	-0.21180047
84	0x3ccea087	0.02522303
85	0x3d6389af	0.055551227
86	0xbdbb5839	-0.091476865
87	0x3bc6ad46	0.0060631363
88	0x3cab02d2	0.020875368
89	0x3d814c39	0.063133664
90	0xbe037e6f	-0.128412
91	0x3c4ac68d	0.01237644
92	0xbe30bb02	-0.17258838
93	0x3dcac401	0.09900666
94	0xbd850929	-0.06495888
95	0x3e33905c	0.17535537
96	0xbe463391	-0.19355609
97	0xbd8121da	-0.06305285
98	0xbd8efbeb	-0.06981643
99	0xbdae0dcd	-0.08498726
100	0xbda0cddf	-0.07851767
101	0x3d87e470	0.06635368
102	0x3cffabae	0.031209793
103	0x3dca94b6	0.098916456
104	0xbddee61e	-0.10883735
105	0xbdaede79	-0.08538527
106	0x3e018830	0.12649608
107	0xbde4eb42	-0.11177684
108	0xbd564f70	-0.05232185
109	0xbce0554e	-0.027384426
110	0xbe2d570e	-0.1692774
111	0x3d0d208b	0.034454864
112	0x3bbb4297	0.0057147252
113	0xbd2e5f7d	-0.042571533
114	0xbd16cc9d	-0.03681623
115	0x3c9bbc6c	0.019010745
116	0xbd5f1f31	-0.054473106
117	0x3d01a68b	0.03165297
118	0xbdff45e0	-0.124644995
119	0xbd1383ba	-0.036014296
120	0x3ce12bda	0.02748673
121	0x3dfd76f2	0.12376203
122	0x3d4a5462	0.04939688
123	0xbd8e15a1	-0.06937719
124	0xbe2873b5	-0.16450389
125	0x3c897163	0.0167777
126	0x3bdd2ffe	0.006750106
127	0x3cd2a6ac	0.025714241
128	0xbd5c7cdb	-0.05383001
129	0x3bd99b7e	0.0066408506
130	0x3d4bbf30	0.049742877
131	0xbdb24364	-0.0870426
132	0xbd967a10	-0.073475
133	0x3d651c0f	0.055934962
134	0xbdcdb19d	-0.10043643
135	0x3e1f4980	0.15555382
136	0x3cb90fd3	0.022590553
137	0x3d841278	0.06448835
138	0x3c699151	0.014255838
139	0xbe16939d	-0.14704747
140	0x3ca536a7	0.020167662
141	0xbc1c0911	-0.009523646
142	0xbd8c80f9	-0.06860537
143	0x3e2f7289	0.17133535
144	0xbcbbea3d	-0.022938842
145	0x3c701f22	0.01465586
146	0x3db90fa5	0.09036187
147	0x3cce37ff	0.025173185
148	0x3cc3459f	0.023836909
149	0x3c99ec7f	0.018789528
150	0x3dc00c51	0.09377349
151	0xbdfe1997	-0.124072246
152	0x3c528416	0.012848875
153	0xbcecdcd6	-0.028913897
154	0xbd6c6da0	-0.057721734
155	0x3c164e04	0.009173874
156	0x3e4707e1	0.194366
157	0x3e147b92	0.14500263
158	0xbc3ba07b	-0.011451836
159	0x3d40a266	0.047029875
160	0xbe193751	-0.14962508
161	0xbb1cfa84	-0.002395303
162	0xba98e8f4	-0.0011666105
163	0x3d24e940	0.040261507
164	0xbd0593eb	-0.03261177
165	0xbda06290	-0.07831299
166	0x3d4818dc	0.048851833
167	0xbd9a51c2	-0.07535125
168	0xbb8e30c4	-0.0043393094
169	0xbd89bc5c	-0.0672538
170	0x3d98fcb6	0.07470076
171	0xbd1f8ab0	-0.038950622
172	0xbd8e2e0c	-0.069423765
173	0xbdb3ede3	-0.08785608
174	0xbdb7680c	-0.08955392
175	0xbd296128	-0.04135242
176	0xbd1968e1	-0.037453536
177	0xbdbbedf4	-0.09176245
178	0xbd8b2f25	-0.067961015
179	0xbbbeb7a9	-0.005820234
180	0x3b444762	0.0029949774
181	0xbd8d937c	-0.06912896
182	0x3d1f9210	0.038957655
183	0xbda58e1b	-0.08083745
184	0xbc2a547c	-0.010396119
185	0xbe445093	-0.19171362
186	0xbda243c0	-0.079230785
187	0xbc025efc	-0.007957216
188	0x3cdccbb0	0.026952595
189	0xbd98316a	-0.074313
190	0x3d9a9d3e	0.07549523
191	0xbde0f386	-0.109839484
192	0xbae1aa61	-0.0017216915
193	0x3d6bdb71	0.057582323
194	0x3ca78039	0.020446884
195	0xbd8cc8b7	-0.06874221
196	0x3cb1eefc	0.021720402
197	0xbdc7442a	-0.09729798
198	0x3d3ceebc	0.046126112
199	0xbd0eced1	-0.034865204
200	0x3d495cb1	0.049160663
201	0xbbf5ac18	-0.007497322
202	0xbdcf5e43	-0.10125401
203	0x3dac1ae7	0.08403569
204	0xbc8262b0	-0.015916198
205	0xbde30d2c	-0.11086497
206	0x3de71834	0.11283913
207	0x3b94f38d	0.004545635
208	0xbd83ea94	-0.064412266
209	0xb925da3c	-0.00015816925
210	0xbdea7f81	-0.11450101
211	0x3c3746ed	0.011186344
212	0x3d64fe2f	0.05590647
213	0x3d072f58	0.033004135
214	0xbd481038	-0.048843592
215	0xbdb9e543	-0.09076931
216	0xbdd844dc	-0.10560009
217	0xbe06ed1a	-0.13176385
218	0xbd9f1122	-0.0776694
219	0xbcc89e60	-0.024489582
220	0x3df1cee1	0.11807037
221	0x3e38cf54	0.1804784
222	0xbdb6b492	-0.0892116
223	0xbd347811	-0.044059817
224	0xbd0378ae	-0.03209751
225	0x3d7239b1	0.05913705
226	0x3cf5069b	0.029910376
227	0xbdc30ca2	-0.09523894
228	0x3e0212c5	0.12702473
229	0xbe3d0fa4	-0.18462998
230	0xbc4aa768	-0.012369014
231	0xbcae6ae7	-0.02129121
232	0xbe0e7e17	-0.13915287
233	0xbd85e4fc	-0.06537816
234	0x3d8886fc	0.06666371
235	0x3e295d83	0.16539578
236	0xbc84b991	-0.016201766
237	0x3e11b6b7	0.14229856
238	0xbdd75651	-0.105145104
239	0x3d6d4412	0.057926245
240	0xba25c44a	-0.00063235
241	0x3dc04907	0.09388929
242	0xbe09c0e4	-0.13452488
243	0xbe03e954	-0.12881976
244	0x3ca92378	0.020646796
245	0x3d9a169c	0.07523844
246	0xbd1d4d25	-0.03840365
247	0xbcfa6df1	-0.030570002
248	0x3d817531	0.063211806
249	0xbc8a9130	-0.016914934
250	0x3c7d081e	0.01544383
251	0xbe67b1e3	-0.22626452
252	0x3d6f3b70	0.058406293
253	0x3af3e947	0.0018608951
254	0xbddfbb58	-0.10924405
255	0xbbcd17f8	-0.006258961

fc3.bias f4 [10]
0	0x3e147ac5	0.14499958
1	0x3e8fd24c	0.2809013
2	0xbd089a36	-0.033350192
3	0x3cea5e7a	0.028609503
4	0x3cfc3b0a	0.03078987
5	0x3dac7b7d	0.08421991
6	0xbdd9b9af	-0.106311195
7	0x3d82bca7	0.06383639
8	0xbe23fd42	-0.16014579
9	0xbe0846c4	-0.13308245
