models/Mixup-2 BasicNet.pt (torch, 180615 bytes, 10 tensors)

conv1.weight f4 [6, 1, 5, 5]
0	0x3ce2f883	0.02770639
1	0xbcb2a6d6	-0.02180807
2	0xbb1fa793	-0.0024361357
3	0xbe89f3d6	-0.26943845
4	0xbdf38988	-0.118914664
5	0x3e29c796	0.16580042
6	0x3e5159a2	0.20444348
7	0x3ed5a7d2	0.417296
8	0x3e170673	0.14748554
9	0xbbef4ab8	-0.0073026083
10	0xbe19bcea	-0.15013471
11	0xbe506863	-0.2035232
12	0x3e1aabd3	0.15104608
13	0x3ea28527	0.31742212
14	0xbd000f28	-0.031264454
15	0x3dd41f4b	0.10357531
16	0xbe91a8e6	-0.28449172
17	0xbe262696	-0.16225657
18	0x3d28155a	0.041035987
19	0x3e8973ae	0.2684607
20	0x3e4e5a31	0.20151593
21	0x3d116886	0.035500072
22	0xbc2d9ad6	-0.010595998
23	0xbd138c5f	-0.03602254
24	0x3ddb0487	0.10694223
25	0xbdbf3623	-0.09336498
26	0x3da39975	0.07988254
27	0xbdb7026d	-0.089360096
28	0xbe2e7726	-0.17037639
29	0x3b53b6da	0.0032305033
30	0x3dee5aa2	0.116383806
31	0x3e0aa415	0.13539155
32	0xbe31cd02	-0.1736336
33	0xbecbe5e0	-0.39823818
34	0x3e575dac	0.21031827
35	0x3ea6cef1	0.3257976
36	0x3e5c1440	0.214921
37	0xbe7a6179	-0.24451245
38	0xbe80e304	-0.251732
39	0x3c9ada90	0.018903047
40	0x3e62d31f	0.22150849
41	0x3e69f78d	0.2284834
42	0x3d20cf3f	0.039260145
43	0xbeaaa257	-0.3332698
44	0x3d630e2b	0.055433434
45	0xbd77d18d	-0.060502578
46	0x3e436848	0.19082749
47	0x3e27bfd2	0.16381767
48	0xbe12f65c	-0.14351791
49	0xbb63691e	-0.0034700106
50	0x3e09a590	0.13442063
51	0x3e84ea9d	0.25960246
52	0x3e1ae0eb	0.15124862
53	0xbddf0471	-0.10889519
54	0x3e18ab25	0.14909036
55	0xbe561a17	-0.2090839
56	0x3e29efda	0.16595402
57	0x3e91a9bb	0.28449807
58	0x3bd75cd8	0.006572347
59	0xbe066e11	-0.13127925
60	0xbe826fc1	-0.25475886
61	0xbd13a172	-0.036042638
62	0x3e7b1299	0.24518813
63	0xbcad2436	-0.02113543
64	0xbd90fa94	-0.07079044
65	0xbe2a6b81	-0.16642572
66	0xbf274be9	-0.65350205
67	0xbe40d64c	-0.18831748
68	0x3e74b5f5	0.23897536
69	0x3c252ca1	0.010081441
70	0x3e69e00c	0.22839373
71	0xbcea3b97	-0.028592868
72	0xbde999ae	-0.11406265
73	0x3c9481e3	0.018128341
74	0x3dd9793f	0.10618829
75	0xbb5bcd8a	-0.003353926
76	0x3d3b302d	0.04570024
77	0x3cbcce99	0.023047732
78	0xbe49b4bc	-0.19697851
79	0xbd2db2ff	-0.042407032
80	0x3c9aa69a	0.01887827
81	0xbe87674a	-0.2644599
82	0xbeb805bf	-0.35941884
83	0x3dd79ca7	0.10527926
84	0x3e063f13	0.13109998
85	0xbe19e49e	-0.15028617
86	0x3c8df4ae	0.017328586
87	0x3ef5ab51	0.47982267
88	0x3eff793d	0.49897185
89	0x3e200344	0.15626246
90	0x3db69c2c	0.08916506
91	0x3e982863	0.29718313
92	0x3e413f4c	0.18871802
93	0xbe7ce1ce	-0.24695513
94	0xbeae2206	-0.34010333
95	0x3c956a49	0.018239157
96	0xbdeda0fa	-0.116029695
97	0xbe627f43	-0.22118859
98	0xbe49d082	-0.19708446
99	0x3d6857dc	0.056724414
100	0x3e74504e	0.23858759
101	0xbec6e195	-0.3884398
102	0xbe8f2a69	-0.27962044
103	0x3da1eea5	0.07906846
104	0x3d624f4a	0.055251397
105	0xbe85c31b	-0.26125416
106	0xbe98662b	-0.29765448
107	0x3dbfb2c7	0.09360271
108	0x3da6f3d0	0.08151972
109	0x3e2a9b52	0.16660812
110	0xbebbebf8	-0.36703467
111	0xbd24f10c	-0.040268943
112	0x3e2e5cf2	0.17027643
113	0x3e1e3354	0.15449268
114	0x3ddaafdf	0.10678076
115	0xbe70dd57	-0.23521934
116	0xbd7981ae	-0.060914688
117	0x3dfbf120	0.1230185
118	0x3e15cebf	0.14629649
119	0x3e3f125c	0.18659347
120	0xbe45f1d1	-0.19330527
121	0xbc6651fa	-0.014057631
122	0x3c677546	0.014127081
123	0x3dc1e502	0.09467508
124	0x3e13943f	0.1441202
125	0x3df5b6f7	0.119977884
126	0xbe27a824	-0.16372734
127	0x3d84d0e6	0.06485157
128	0xbd5ae1c9	-0.05343798
129	0x3b0c3bb6	0.0021397895
130	0xbe04f8c8	-0.12985528
131	0xba75ed2f	-0.00093813514
132	0x3e0459dd	0.12924905
133	0x3e66ab7c	0.22526354
134	0x3d6ab4fa	0.0573015
135	0xbdcb7367	-0.099341206
136	0xbdd6bfd0	-0.10485804
137	0x3e0c83c4	0.1372214
138	0x3e0e3e44	0.1389094
139	0x3e75a694	0.23989326
140	0xbf226320	-0.634325
141	0xbf3726a6	-0.7154335
142	0xbf009c1a	-0.5023819
143	0xbea33da8	-0.31882977
144	0xbe0aefba	-0.13568011
145	0xbe1c398c	-0.15256327
146	0xbef1885a	-0.4717434
147	0xbf241d75	-0.6410745
148	0xbe37cd08	-0.17949307
149	0xbdf0d1b0	-0.11758745

conv1.bias f4 [6]
0	0xbe2459ef	-0.16049932
1	0x3dbc27d5	0.09187285
2	0x3d16645c	0.036716804
3	0xbb6b06e4	-0.0035862261
4	0x3e205791	0.15658404
5	0xbbf3847b	-0.0074315644

conv2.weight f4 [16, 6, 5, 5]
0	0xbcf5cc09	-0.030004518
1	0x3ca037a4	0.019557782
2	0x3d0be331	0.034152213
3	0xbd28599a	-0.041101076
4	0x3d964aff	0.07338523
5	0xbc938329	-0.018006878
6	0xbbc3dabb	-0.0059770024
7	0x3e64caa4	0.22342926
8	0x3d1ad819	0.037803743
9	0x3e4d48c8	0.20047295
10	0x3cb2defb	0.021834841
11	0x3e2394d3	0.1597474
12	0x3e8a91ed	0.27064458
13	0x3de47dee	0.11156832
14	0x3e3f0eb3	0.18657951
15	0xbd5e2636	-0.05423566
16	0x3ce641d0	0.028107554
17	0x3e39e36d	0.18153162
18	0x3e842191	0.2580686
19	0x3e7084bf	0.23488139
20	0xbd6e3d36	-0.058163844
21	0xbe0d94be	-0.13826272
22	0xbe1fa11c	-0.15588802
23	0xbd067d18	-0.032834142
24	0xbd1019bf	-0.035180803
25	0xbd143d6c	-0.03619139
26	0x3e025d94	0.1273101
27	0x3d9d9fa6	0.07696466
28	0xbd8a5d27	-0.06756049
29	0xbe071762	-0.13192514
30	0xbdc897e5	-0.097945966
31	0x3ba2420f	0.0049517225
32	0x3daea2dc	0.08527157
33	0x3db7365a	0.089459136
34	0x3b05a020	0.0020389631
35	0xbe16d04f	-0.14727901
36	0xbe8b946a	-0.27261668
37	0x3bcc7475	0.0062394687
38	0x3e963373	0.29336128
39	0x3e4db0d2	0.20086983
40	0xbedeee1f	-0.43541047
41	0xbe959985	-0.2921869
42	0xbe1d8f64	-0.1538673
43	0x3e530803	0.20608525
44	0x3dc3f326	0.09567861
45	0xbd7d3b09	-0.06182388
46	0x3df5af1e	0.119962916
47	0x3d8033ef	0.062599055
48	0xbce6f054	-0.02819077
49	0xbe25a097	-0.16174541
50	0xbd87e417	-0.066353016
51	0x3d080891	0.033211295
52	0xbc5feb76	-0.013666978
53	0x3cade272	0.021226142
54	0xbe89b761	-0.2689772
55	0xbdd1e0cb	-0.10247954
56	0xbd22807c	-0.039673313
57	0x3d91038f	0.07080757
58	0xbcfeae52	-0.031088982
59	0xbf0a5c77	-0.5404734
60	0xbdad2f52	-0.08456291
61	0xbe0f7777	-0.14010416
62	0xbcc2137b	-0.02369093
63	0x3dff82a8	0.124760926
64	0xbdd81634	-0.1055111
65	0xbdf4e33d	-0.11957405
66	0xbe0dcabc	-0.13846868
67	0xbbcc5342	-0.006235511
68	0x3e23e90b	0.16006868
69	0x3e3d49d2	0.18485191
70	0xbda342ff	-0.07971763
71	0x3d398779	0.045295212
72	0x3cc43065	0.023948858
73	0x3c684bb1	0.0141782025
74	0x3d1e28d2	0.038613148
75	0xbabd2d7f	-0.0014433115
76	0xbd40dcfa	-0.04708574
77	0xbe1375c3	-0.14400391
78	0xbdb1eb60	-0.08687472
79	0xba965407	-0.0011469134
80	0x3d449316	0.047991835
81	0xbce6d0e5	-0.02817578
82	0xbe97e4d5	-0.29666772
83	0xbd106852	-0.035255738
84	0x3d4729db	0.0486239
85	0x3e1ae53c	0.15126508
86	0x3e0ddff7	0.13854967
87	0x3e6a0e35	0.22856982
88	0x3ee7139b	0.45132145
89	0x3d48a96f	0.04898971
90	0x3dba19fd	0.09086988
91	0x3c1bdc5c	0.009512987
92	0x3b5b4106	0.0033455505
93	0xbe1484f8	-0.14503849
94	0xbe148a2b	-0.14505832
95	0xbd8fdb23	-0.07024219
96	0xbe06c539	-0.13161172
97	0xbe0821e8	-0.13294184
98	0xbd8e6b20	-0.06954026
99	0xbca7ad73	-0.02046845
100	0xbd83b5fc	-0.06431195
101	0x3c0d80eb	0.0086366935
102	0xbd1e8311	-0.038699213
103	0xbacbf411	-0.0015560408
104	0xbdd5568c	-0.10416898
105	0xbccf43c5	-0.02530087
106	0xbd5e29fd	-0.054239262
107	0xbcac31d2	-0.02101985
108	0xbc559405	-0.013035779
109	0xbdfdbaea	-0.12389167
110	0x3ce86b1f	0.028371392
111	0x3d1dd0fc	0.03852938
112	0x3d84c64e	0.06483136
113	0x3dcf60dd	0.10125897
114	0xbd146c31	-0.036235992
115	0xbbc1c0c1	-0.0059128706
116	0xbb16fe27	-0.002303967
117	0x3d823b26	0.06358938
118	0x3d5bf0e6	0.053696536
119	0xbe6bc37c	-0.2302379
120	0xbdbe8f23	-0.09304645
121	0xbd6c40e9	-0.05767909
122	0xbd2691c0	-0.04066634
123	0xbe5c5bde	-0.2151942
124	0xbe8a1edc	-0.2697667
125	0x3d2cb4a5	0.042164464
126	0xbccdc8b2	-0.025120113
127	0xbd8e5691	-0.06950105
128	0xbe562ff1	-0.20916726
129	0xbe939249	-0.28822544
130	0xbd7c3a71	-0.06157917
131	0x3aac68e2	0.0013153816
132	0xbdbf05e3	-0.09327295
133	0x3cdaf6d2	0.026729021
134	0xbf00437d	-0.5010298
135	0xbd2af0f9	-0.041733716
136	0xbdb00907	-0.08595472
137	0x3c495de3	0.012290451
138	0x3e0a7145	0.13519771
139	0xbcbd3dfd	-0.023100847
140	0xbe37f777	-0.17965494
141	0xbe15ae22	-0.14617208
142	0xbdb7b10f	-0.08969318
143	0xbe1a9b50	-0.1509831
144	0xbdf47903	-0.11937144
145	0xbdd13274	-0.10214701
146	0xbd705cc2	-0.05868221
147	0xbd497f03	-0.049193393
148	0xbdcc11bb	-0.09964319
149	0xbd6fe43a	-0.058567263
150	0x3aeb2641	0.0017940478
151	0x3d71c61e	0.05902683
152	0x3dcb5cca	0.099298075
153	0x3d00118c	0.031266734
154	0x3d274f74	0.040847257
155	0xbb7c696f	-0.0038514992
156	0x3c34a345	0.011025255
157	0xbcd6d973	-0.026226735
158	0xbc558d3c	-0.013034161
159	0xbd9f3c07	-0.07775121
160	0x3e19bf94	0.15014488
161	0x3dcd5f30	0.10027921
162	0xbda60deb	-0.081081234
163	0xbe043e82	-0.1291447
164	0xbe55e99b	-0.20889895
165	0x3b1328b1	0.0022454674
166	0xbca76a23	-0.020436352
167	0xbe329a10	-0.17441583
168	0xbe208144	-0.15674311
169	0xbe801df7	-0.2502286
170	0xbd33af64	-0.043868437
171	0xbdc8ebce	-0.09810601
172	0xbdd737a4	-0.105086595
173	0xbd123856	-0.035698257
174	0xbcddbea2	-0.02706844
175	0x3de426b3	0.11140194
176	0x3dd00349	0.101568766
177	0x3d0c36ab	0.034231823
178	0xbd6f9e34	-0.058500484
179	0x3d418436	0.047245227
180	0x3d9e21b4	0.07721272
181	0x3d8c0a69	0.06837923
182	0x3de1290e	0.10994159
183	0x3db7bc5e	0.08971475
184	0xbd55932f	-0.05214232
185	0xbda3099b	-0.079608165
186	0x3d1f2c8f	0.038860854
187	0x3e3b0226	0.18262538
188	0xbdac529a	-0.084141925
189	0xbe0c55ad	-0.13704558
190	0xbe0b7804	-0.13620001
191	0xbe27fd50	-0.16405225
192	0xbec045b9	-0.37553194
193	0xbee2cbd6	-0.4429614
194	0xbeb7158b	-0.35758623
195	0xbd6b39fd	-0.05742835
196	0xbe50acb7	-0.20378385
197	0xbe327229	-0.17426361
198	0xbe345606	-0.1761094
199	0x3e379bfe	0.179306
200	0x3ab3183d	0.001366384
201	0xbd0bb45d	-0.034107555
202	0xbc8bcf96	-0.017066758
203	0xbda34744	-0.07972577
204	0xbdcf0895	-0.10109059
205	0xbe5bd2df	-0.2146716
206	0xbc9081d1	-0.017640026
207	0xbd0c1ede	-0.034209125
208	0xbe787280	-0.24262428
209	0xbbd42260	-0.0064738244
210	0x3cea06ea	0.02856775
211	0xbd9a83d4	-0.075446755
212	0xbe6ee301	-0.23328783
213	0xbda6f1c8	-0.08151585
214	0x39852257	0.00025393322
215	0x3d973770	0.07383621
216	0x3cc95b84	0.02457977
217	0x3e701cf2	0.23448542
218	0x3e33bb5a	0.17551938
219	0xbe1be7d1	-0.1522515
220	0xbdc66a8e	-0.096882924
221	0xbce245c1	-0.027621152
222	0x3d6e97cf	0.058250245
223	0xbe8ec48c	-0.27884328
224	0xbe845f38	-0.25853896
225	0xbc068653	-0.008210736
226	0x3ca3848c	0.019960664
227	0xbcb0326f	-0.021508424
228	0x3dbafd70	0.091303706
229	0x3de87bbe	0.11351727
230	0x3df9a57f	0.12189769
231	0x3d18ce4e	0.037306122
232	0xbd0614ec	-0.032734796
233	0x3cf18205	0.029480943
234	0x3d4d1c90	0.050076067
235	0xbda18311	-0.07886327
236	0xbd2f7254	-0.04283364
237	0x3e2603ee	0.16212437
238	0x3dd42741	0.103590496
239	0xbe0e1d48	-0.13878357
240	0xbe48cf5d	-0.19610353
241	0x3ccc72a8	0.024957016
242	0x3e9ec0fc	0.3100661
243	0x3dfbdfe7	0.12298565
244	0xbba27dc2	-0.004958839
245	0x3d54bc2c	0.051937267
246	0x3caec8f7	0.021336062
247	0x3eadfb81	0.33980945
248	0x3e9e4265	0.3091003
249	0xbdb59b72	-0.088675395
250	0x3d8f25db	0.06989642
251	0x3e0687c4	0.13137728
252	0x3dd69222	0.10477091
253	0x3da0cbb1	0.07851351
254	0xbdb82ab7	-0.08992522
255	0xbbf68f8c	-0.0075244363

conv2.bias f4 [16]
0	0xbe7fcef6	-0.24981293
1	0x3e19b759	0.15011348
2	0x3dd254b6	0.102700636
3	0x3d08aeb5	0.03336974
4	0xbe281436	-0.1641396
5	0x3de706a2	0.11280562
6	0x3e1b7d93	0.15184622
7	0x3df34cee	0.118799075
8	0x3e19e174	0.1502741
9	0xbc07e50d	-0.008294356
10	0xbdfaebc1	-0.12251998
11	0xbd732a48	-0.059366494
12	0xbb5baf86	-0.0033521368
13	0x3deaee06	0.114711806
14	0xbe84ef58	-0.25963855
15	0xbdf3d6b3	-0.11906185

fc1.weight f4 [120, 256]
0	0x3d8aaf8a	0.06771763
1	0xbe565b28	-0.20933211
2	0xbe27d813	-0.1639102
3	0xbc630b33	-0.013857651
4	0xbdae0963	-0.08497884
5	0xbdcc979a	-0.09989853
6	0x3e02cee8	0.12774241
7	0x3d8508f5	0.06495849
8	0xbdd37c30	-0.10326421
9	0x3db2f39b	0.0873787
10	0x3db40586	0.08790116
11	0x3d71f39d	0.05907022
12	0xbd7e481c	-0.062080488
13	0x3c2752ef	0.010212644
14	0x3d66b36a	0.056323446
15	0x3cfa33b3	0.03054223
16	0x3dc3a2b2	0.09552516
17	0x3e14203d	0.14465423
18	0x3d83cb00	0.064352036
19	0x3e5e040d	0.21681233
20	0x3e828331	0.25490716
21	0x3de4dd7f	0.111750595
22	0xbd95f566	-0.07322197
23	0x3d2565c6	0.04038026
24	0x3d18f441	0.037342314
25	0xbdbfa72d	-0.09358058
26	0x3cb0e5b3	0.021593904
27	0x3d6739f4	0.056451753
28	0xbd047289	-0.03233579
29	0xbb1c7a0a	-0.0023876452
30	0x3dab1342	0.083532825
31	0x3d499834	0.049217418
32	0xbdc32969	-0.09529383
33	0xbd70e5c8	-0.058812886
34	0xbdf65f77	-0.12029927
35	0xbd30cc0f	-0.043163355
36	0x3dd14463	0.10218122
37	0x3e2f4563	0.17116313
38	0xbd85192c	-0.06498942
39	0xbdac6252	-0.084171906
40	0xbe0dff4a	-0.13866916
41	0x3c6e7c4f	0.014556005
42	0xbd19800c	-0.03747563
43	0x3d71b6ae	0.059012108
44	0xbd14e65c	-0.0363525
45	0x3d93c166	0.07214622
46	0xbd5ff87e	-0.05468034
47	0x3d83c70e	0.06434451
48	0x3d6f1d8b	0.058377784
49	0x3d833155	0.06405894
50	0x3c947ea0	0.018126786
51	0xbe9aa3a2	-0.30202967
52	0xbd8c0eaa	-0.068387344
53	0x3d10638e	0.035251193
54	0xbda110ea	-0.07864554
55	0xbd04b89d	-0.032402623
56	0xbe14b03d	-0.14520355
57	0x3dd0d8ac	0.10197577
58	0x3d130cf2	0.035901017
59	0xbe624686	-0.22097215
60	0xbdeb8a0a	-0.11500938
61	0x3d90a13a	0.070620015
62	0x3cc2c8a9	0.023777323
63	0xbd511d88	-0.051053554
64	0x3ddc09d8	0.10744065
65	0xbdeab54a	-0.114603594
66	0xbe1050d6	-0.14093336
67	0xbda4661b	-0.080272876
68	0x3df83d21	0.121210344
69	0xbd007821	-0.031364564
70	0xbdc05b18	-0.09392375
71	0x3e2e2fb6	0.17010388
72	0x3d12049e	0.035648935
73	0x3dd08577	0.101817064
74	0x3d2a25f8	0.041540116
75	0xbd94f026	-0.07272367
76	0x3dd1058b	0.10206135
77	0x3d3b74b3	0.04576559
78	0xbd20b84f	-0.03923827
79	0x3c384455	0.01124676
80	0xbda48795	-0.08033673
81	0xbd125db4	-0.035733894
82	0xbc060c20	-0.008181602
83	0x3d13e7c7	0.036109712
84	0xbd9f52c1	-0.07779456
85	0xbdd61723	-0.10453632
86	0xbd92f9be	-0.07176541
87	0x3df5d004	0.120025665
88	0xbcd4a0e9	-0.025955634
89	0xbdc926fa	-0.09821887
90	0x3d463638	0.04839155
91	0x3c0c0123	0.008545193
92	0xbded916d	-0.116000034
93	0xbe695de5	-0.22789724
94	0xbdcf5541	-0.10123683
95	0xbe14a898	-0.14517438
96	0xbd41e676	-0.047338925
97	0x3da96f59	0.08273191
98	0x3e4674a9	0.1938044
99	0x3e8a1936	0.2697236
100	0xbde52fef	-0.11190783
101	0x3db3df97	0.08782881
102	0x3d08e190	0.03341824
103	0xbd81c28f	-0.06335937
104	0x3d98c870	0.074601054
105	0x3cc1cca3	0.023657149
106	0xbe7f17e8	-0.24911463
107	0xbe9488d3	-0.2901064
108	0xbc77584b	-0.015096734
109	0xbda0cf4c	-0.07852039
110	0xbe6004e5	-0.21876867
111	0xbcb31ab1	-0.021863313
112	0x3e04a3f2	0.12953165
113	0x3d009d2d	0.031399895
114	0x3c1ce83e	0.009576855
115	0x3d783d59	0.06060538
116	0x3e1cdb1a	0.15317956
117	0x3d656c17	0.056011286
118	0x3d552353	0.05203564
119	0xbc78fc3c	-0.015196856
120	0x3dc7a7bd	0.097487904
121	0xbd1f1866	-0.038841628
122	0xbcffbda6	-0.031218361
123	0xbdafc1df	-0.085819
124	0x3d1c70bf	0.03819346
125	0x3d3feff3	0.046859693
126	0xbcb08cf1	-0.021551581
127	0xbd25d41c	-0.040485486
128	0xbe7f9ad0	-0.249614
129	0x3cf5de52	0.030013237
130	0x3cf78b9c	0.030217938
131	0x3b82dfd2	0.0039939666
132	0x3e355bb9	0.1771077
133	0x3b917c9c	0.0044399034
134	0xbdc95f5c	-0.098326415
135	0xbe0d94c0	-0.13826275
136	0xbd8c4af2	-0.06850232
137	0xbdaa04e8	-0.08301717
138	0xbdf3e8db	-0.11909648
139	0x3d248dd3	0.040174317
140	0xbd1d572e	-0.03841322
141	0x3d0177ef	0.03160852
142	0x3d7085f5	0.0587215
143	0x3ca3a0e9	0.019974189
144	0x3e6225f1	0.22084786
145	0xbcb6c59d	-0.022311026
146	0x3e0aed0d	0.1356699
147	0x3e2642d4	0.1623643
148	0xbe7314cf	-0.23738407
149	0xbdfa6b48	-0.122274935
150	0x3d9ea1d4	0.0774571
151	0x3cbff6d6	0.02343313
152	0xbda9db6d	-0.08293805
153	0xbdc9c3a8	-0.098517716
154	0x3d26c6ee	0.040717058
155	0xbd8ad372	-0.06778611
156	0xbd81e19a	-0.06341858
157	0xbe18059b	-0.14845888
158	0x3d417e2f	0.04723948
159	0x3cdbf0a4	0.026848145
160	0xbb916398	-0.0044369213
161	0x3d81a38e	0.06330024
162	0xbd6cf8ea	-0.05785457
163	0xbe144ad8	-0.14481676
164	0x3bc834f7	0.0061098295
165	0xbd124101	-0.035706524
166	0x3d425041	0.047439817
167	0x3da432bb	0.080174886
168	0x3dd29aeb	0.102834545
169	0x3db198ae	0.086716995
170	0xbc0dc098	-0.008651875
171	0xbe00eef5	-0.12591155
172	0x3db56bb6	0.08858435
173	0x3d5a3856	0.053276382
174	0xbd81df79	-0.06341452
175	0xbc176265	-0.009239768
176	0x3e2c748e	0.16841337
177	0x3e324524	0.17409188
178	0x3e459e3a	0.1929864
179	0x3d0d3482	0.034473903
180	0x3e83fbff	0.25778195
181	0x3dc78164	0.09741476
182	0x3c3a9360	0.011387676
183	0xbd438ef7	-0.047743764
184	0x3d1485b4	0.03626032
185	0xba4bfc02	-0.00077813875
186	0xbdb0c460	-0.086312056
187	0xbe265eff	-0.16247176
188	0xbcc97d98	-0.02459602
189	0xbbb9ab25	-0.005666154
190	0xbdbcc1b0	-0.092166305
191	0x3c853142	0.01625884
192	0x3d400e01	0.046888355
193	0xbbff5f39	-0.007793334
194	0xbd736eac	-0.059431717
195	0xbd8ce7e0	-0.06880164
196	0xbd9aaa89	-0.07552058
197	0x3cff2aa1	0.031148257
198	0x3d2b9558	0.041890472
199	0x3c91730e	0.017755058
200	0xbd209e6b	-0.03921358
201	0x3cd5df9f	0.026107607
202	0xbd554989	-0.05207208
203	0x3dccbf3d	0.09997413
204	0xbddb4586	-0.1070662
205	0x3d783dfa	0.06060598
206	0x3dd16112	0.10223593
207	0x3ddd9233	0.10818901
208	0x3e100118	0.14062917
209	0x3d3026b6	0.043005668
210	0x3e03af2b	0.1285979
211	0x3e680f8f	0.22662185
212	0x3d2b527c	0.04182671
213	0x3d946fda	0.072478965
214	0xbcdc790b	-0.026913187
215	0xbd15a5d6	-0.036535107
216	0xbd31e7a4	-0.0434338
217	0x3d5b66e4	0.05356492
218	0xbe0276e7	-0.1274067
219	0xbe04038f	-0.12891982
220	0xbdaa9995	-0.08330075
221	0x3dae9976	0.08525364
222	0xbe0aa853	-0.13540773
223	0xbd707b50	-0.05871135
224	0xbda1953e	-0.07889794
225	0xbe2e1484	-0.17000014
226	0xbd374173	-0.04474015
227	0xbd3b5242	-0.045732744
228	0xbd48de05	-0.04903986
229	0x3c8b770f	0.017024545
230	0xbbc67182	-0.0060560117
231	0x3e438288	0.19092762
232	0x3ccf427c	0.025300257
233	0x3d3afc02	0.04565049
234	0x3debdbed	0.11516557
235	0x3c71b1b8	0.014751844
236	0x3da5ba30	0.08092153
237	0x3db56a88	0.0885821
238	0xbcac29d1	-0.021016033
239	0xbd76453b	-0.060124617
240	0xbe13ca19	-0.14432563
241	0xbd4139bb	-0.047174197
242	0xbd876690	-0.06611359
243	0xbba6af6f	-0.0050868313
244	0xbc2da899	-0.010599279
245	0xbd2e564d	-0.04256277
246	0xba129b0c	-0.0005592562
247	0x3e00a652	0.12563446
248	0x3e105db9	0.14098252
249	0x3c993822	0.018703524
250	0xbd46995c	-0.0484861
251	0x3d50599f	0.05086672
252	0x3de79fd2	0.1130978
253	0x3e058449	0.13038744
254	0x3b4b5187	0.0031023936
255	0xbd193cbd	-0.03741144

fc1.bias f4 [120]
0	0xbd9d9ed8	-0.07696313
1	0xbdd7c4c6	-0.105355784
2	0x3d0864ca	0.033299245
3	0x3ced7fa3	0.028991526
4	0x3d1b1ac0	0.037867308
5	0x3e30e3a2	0.17274335
6	0xbdc4db64	-0.09612158
7	0xbd64487d	-0.055733193
8	0x3d850511	0.06495107
9	0x3d286079	0.04110763
10	0xbcb229b9	-0.02174841
11	0x3de1270c	0.10993776
12	0xbcd7a5a3	-0.026324099
13	0x3d25f5e7	0.040517714
14	0x3d867044	0.06564382
15	0xbce3bd8a	-0.02780034
16	0x3df983a4	0.121833116
17	0x3d7729c0	0.06034255
18	0xbd8f8026	-0.07006864
19	0x3e2857e2	0.16439775
20	0x3e01b5f8	0.12667072
21	0x3d0bd303	0.034136783
22	0x3d8cc8fd	0.06874273
23	0x3d0b8931	0.034066383
24	0x3d38b099	0.04509029
25	0x3db73aec	0.08946785
26	0x3e19376f	0.14962552
27	0xbd37148b	-0.044697326
28	0x3e172f2e	0.14764091
29	0x3d9a9b63	0.07549169
30	0x3694867d	4.4264e-06
31	0x3dbb26aa	0.09138234
32	0x3e11ee74	0.14251119
33	0x3e32bc26	0.17454585
34	0x3e671c4f	0.22569393
35	0x3e118a73	0.1421297
36	0x3e368239	0.17823114
37	0xbcd1b366	-0.02559824
38	0x3e696411	0.22792079
39	0x3e114d79	0.1418971
40	0x3de4e235	0.11175958
41	0x3d567a8d	0.052362967
42	0xbd916691	-0.07099641
43	0x3d95732f	0.0729736
44	0x3d81db61	0.06340671
45	0x3cc6931d	0.024240071
46	0xbc437117	-0.011928818
47	0x3b608b03	0.0034262545
48	0xbd1ce999	-0.038308714
49	0xbcf5b5dd	-0.029993946
50	0xbd8fd238	-0.07022518
51	0x3ca83a40	0.020535588
52	0x3c334563	0.010941836
53	0x3d9c622f	0.076359145
54	0x3e2fc961	0.17166664
55	0xbd8f7e2c	-0.07006487
56	0xbc062f14	-0.008189935
57	0x3e07270a	0.13198486
58	0x3d155ac6	0.03646352
59	0xbd04bbaa	-0.032405533
60	0x3d5f0125	0.05444445
61	0x3db8d41a	0.0902483
62	0x3e22d56b	0.15901725
63	0xbd5fb9af	-0.05462044
64	0x3c8baa13	0.017048871
65	0x3dd4175c	0.10356018
66	0x3da2798f	0.07933342
67	0x3d8c281c	0.06843588
68	0x3bc35b67	0.0059618237
69	0xbd65d52e	-0.056111507
70	0xbd87aa1e	-0.06624244
71	0xbdac220b	-0.08404931
72	0xbc6078f4	-0.0137007125
73	0xbc9e3f8f	-0.019317416
74	0x3d541ac4	0.05178334
75	0xbe34b60e	-0.17647573
76	0x3c325edf	0.010886877
77	0x3e549a57	0.20762001
78	0x3ca5d024	0.02024085
79	0x3c1f038d	0.009705436
80	0x3cb06b31	0.021535488
81	0xbe29c997	-0.16580807
82	0xbd4e0ed0	-0.050307095
83	0xbd5a258d	-0.053258467
84	0x3c2fb156	0.0107234325
85	0x3d7f8e2d	0.06239145
86	0xbcbf8019	-0.023376511
87	0x3b5b5a7f	0.0033470688
88	0x3e9c7dcc	0.30564725
89	0x3e0d20ac	0.13781995
90	0x3d88ab03	0.06673243
91	0x3dbf4220	0.09338784
92	0xbd0e107b	-0.034683686
93	0xbd74f4c6	-0.059803747
94	0x3d1a1f31	0.037627403
95	0x3cd3770f	0.025813607
96	0xbd97a9d4	-0.07405439
97	0x3c1d5207	0.009602076
98	0x3e9b8182	0.30372244
99	0x3cac044f	0.020998148
100	0xbbc7a8c8	-0.0060931183
101	0x3e2cc636	0.16872486
102	0xbd8b68d6	-0.06807105
103	0x3e33dff8	0.17565906
104	0x3e12108c	0.14264125
105	0xbd2b9954	-0.041894272
106	0x3e6b1c0b	0.22959916
107	0x3e6c8358	0.23096979
108	0x3dde9b4c	0.10869464
109	0x3da9c1b6	0.082889006
110	0x3e125567	0.14290391
111	0xbc7a46ea	-0.015275696
112	0xbd25f6aa	-0.04051844
113	0xbd4e56de	-0.05037581
114	0x3d872165	0.065981664
115	0x3e6a11d2	0.2285836
116	0xbca9907f	-0.020698784
117	0xbd3ef398	-0.046619028
118	0x3e026b70	0.12736297
119	0x3d8c6bfd	0.06856535

fc2.weight f4 [84, 120]
0	0xbe4911a9	-0.19635643
1	0x3d12b788	0.03581956
2	0x3d192f0c	0.037398383
3	0x3d8cd570	0.068766475
4	0x3d522080	0.051300526
5	0x3c5b6201	0.013390065
6	0x3de9d364	0.11417273
7	0xbd3c9625	-0.046041626
8	0x3bf792fc	0.0075553637
9	0xbdd185c4	-0.10230592
10	0x3e170d52	0.14751175
11	0x3d1e1f9e	0.03860437
12	0x3d997a9e	0.074940905
13	0x3ddd7e01	0.10815049
14	0xbce7dedc	-0.02830451
15	0xbac26976	-0.0014832455
16	0x3d07127d	0.032976616
17	0xbcdebfdc	-0.027191095
18	0x3ce1493e	0.027500745
19	0xbcc99a6c	-0.024609767
20	0xbd1baef5	-0.03800865
21	0xbcb1239a	-0.021623421
22	0xbdba657e	-0.09101389
23	0xbe3f87e1	-0.18704177
24	0x3db073e9	0.08615858
25	0x3ddc5614	0.107586056
26	0xbd8ddf99	-0.069274135
27	0x3d00df79	0.03146312
28	0xbcec64d1	-0.028856667
29	0x3c4a18e0	0.012335032
30	0x3d118e03	0.035535824
31	0xbdf56ef7	-0.119840555
32	0x3d8af300	0.0678463
33	0x3d7bfe68	0.061521918
34	0x3ceffa44	0.02929414
35	0x3d1b335e	0.037890784
36	0x3dcebc7a	0.10094543
37	0xbe851e14	-0.2599951
38	0x3daaa45c	0.0833213
39	0x3ca4f309	0.02013542
40	0x3e0b6b0d	0.13615055
41	0xbda0f1d8	-0.07858628
42	0x3d094d26	0.03352084
43	0x3dad2f89	0.08456332
44	0xbcba8b45	-0.022771487
45	0xbddb9aa6	-0.10722856
46	0xbb60e324	-0.0034315074
47	0xbd8dafca	-0.06918295
48	0xbda89ef3	-0.08233442
49	0x3bb36ee5	0.005475866
50	0x3d80fe8d	0.06298552
51	0x3d6099fb	0.054834347
52	0x3d2e0c10	0.042491972
53	0xbd548e2c	-0.0518934
54	0x3a378aec	0.0007001597
55	0xbd7e2d44	-0.062054887
56	0xbbda20a2	-0.006656722
57	0xbcbcc0bb	-0.02304112
58	0x3da42712	0.080152646
59	0x3d88122e	0.066440925
60	0xbd73099d	-0.05933534
61	0x3d797468	0.06090203
62	0xbd3007ec	-0.042976305
63	0x3d0be8e6	0.034157656
64	0xbb6a281e	-0.0035729478
65	0xbd499379	-0.049212907
66	0xbd5b7591	-0.053578917
67	0x3e0a4ca9	0.13505806
68	0x3deebe69	0.116574116
69	0xbd232188	-0.0398269
70	0x3d6ead3e	0.058270685
71	0xbdacf159	-0.08444471
72	0x3d5ba65e	0.053625457
73	0xbd780e48	-0.060560495
74	0xbd8ce6c4	-0.068799525
75	0xbde04a10	-0.10951626
76	0xbe2277ab	-0.15865962
77	0xbcea90a7	-0.028633429
78	0xbc6c9881	-0.014440657
79	0xbd287695	-0.041128714
80	0x3cc1a808	0.023639694
81	0xbd89ca78	-0.06728071
82	0xbb29d99c	-0.0025917059
83	0xbcdecb8c	-0.027196668
84	0xbd14efa1	-0.03636134
85	0x3d281a83	0.04104091
86	0xbd72ecbd	-0.059307802
87	0x3cb25027	0.021766735
88	0x3e18f3a0	0.14936686
89	0xba72fa38	-0.0009268853
90	0x3db8303b	0.08993574
91	0x3de5cc5d	0.1122062
92	0xbd85d00f	-0.06533825
93	0xbcb475f8	-0.022028908
94	0xbcbda74f	-0.023151068
95	0xbdbf2235	-0.09332696
96	0xbda55196	-0.08072202
97	0xbd3687b0	-0.044562995
98	0x3e088ca7	0.13334905
99	0x3d9169e0	0.07100272
100	0xbd1ea867	-0.03873482
101	0x3e024993	0.12723379
102	0x3e36f3c4	0.17866427
103	0x3df009b3	0.117206
104	0x3e01041d	0.12599225
105	0xbd3a12ab	-0.04542796
106	0x3d1414ef	0.036152776
107	0x3dd2b4b3	0.10288372
108	0xbd2026ce	-0.039099507
109	0x3dc82552	0.09772743
110	0xbccc4579	-0.02493547
111	0xbd2b0ab2	-0.041758247
112	0xbbb70013	-0.0055847256
113	0x3d86bec5	0.06579355
114	0xbdce6e45	-0.10079626
115	0x3c85eea7	0.01634915
116	0x3de2b256	0.11069171
117	0xbdd6121f	-0.10452675
118	0x3da30804	0.07960513
119	0x3e1d30c7	0.15350638
120	0x3da4b9d5	0.08043257
121	0xbe417264	-0.18891293
122	0x3d22fbb1	0.039790813
123	0xbdab3423	-0.08359554
124	0xbd94e98c	-0.07271108
125	0x3da5d3dd	0.0809705
126	0x3cee7fbd	0.029113645
127	0xbcb2c133	-0.02182064
128	0xbd9541bc	-0.072879285
129	0x3d963189	0.07333667
130	0xbe2e99ad	-0.1705081
131	0xbd2c484c	-0.042061135
132	0xbdd794ff	-0.105264656
133	0xbd512939	-0.051064704
134	0xbd4c2106	-0.04983618
135	0xbd0b511d	-0.034012903
136	0x3e18a8a5	0.14908083
137	0x3dfa9eb4	0.122373015
138	0x3c68d82d	0.014211697
139	0xbc3c3ad6	-0.011488637
140	0xbc2e3e9d	-0.010635045
141	0x3d5fff1a	0.054686643
142	0x3e0d182e	0.13778755
143	0x3d9b54a9	0.07584507
144	0xbd3d8756	-0.046271645
145	0xbb2c9214	-0.0026332187
146	0x3df920fb	0.12164494
147	0x3d9a8ea2	0.07546736
148	0x3dae0080	0.08496189
149	0xbdb74252	-0.089481965
150	0x3d826b41	0.06368113
151	0x3d252a1d	0.040323365
152	0xbccac2cf	-0.024751095
153	0x3dbd749c	0.09250757
154	0x3e38b3c1	0.1803732
155	0x3dd2c316	0.10291116
156	0xbe492e8a	-0.1964666
157	0x3da6bf59	0.081419654
158	0x3d98600c	0.074401945
159	0x3cc594a3	0.024118727
160	0x3cc3f751	0.02392164
161	0xbad87020	-0.0016512908
162	0x3dcb9d5b	0.099421225
163	0x3ad41a16	0.0016182091
164	0x3dc5b849	0.0965429
165	0x3d5a19d4	0.053247288
166	0xbda5dcc6	-0.0809875
167	0xbdb21542	-0.08695461
168	0xbd779e97	-0.060453977
169	0xbd662a0d	-0.056192447
170	0xbd516b12	-0.0511275
171	0xbb5faba4	-0.0034129405
172	0xbddc121a	-0.1074564
173	0x3be5e835	0.0070162066
174	0x3e1b6e2e	0.15178749
175	0xbd66ecbe	-0.05637812
176	0xbd5b8b2c	-0.05359952
177	0x3db951ab	0.0904878
178	0xbcd9446a	-0.02652188
179	0x3cfbea1c	0.03075128
180	0xbd3b4c55	-0.045727093
181	0x3dda4172	0.10657014
182	0xbe1adfe6	-0.15124473
183	0x3d1137b3	0.03545351
184	0x3d9657c6	0.0734096
185	0x3d2b47fe	0.041816704
186	0xbd3d6f57	-0.04624876
187	0x3d1e5f23	0.03866495
188	0x3dd21642	0.102581516
189	0xbc30a69c	-0.01078191
190	0x3d44acb5	0.04801627
191	0x3c29b028	0.01035694
192	0xbd170b41	-0.036875967
193	0x3d50baf6	0.05095955
194	0xbded1e89	-0.1157809
195	0xbdc1b1d7	-0.094577484
196	0x3d610fef	0.054946836
197	0xbd16e7ef	-0.036842283
198	0xbbd61995	-0.0065338113
199	0x3cca501e	0.024696406
200	0xbdfcd98a	-0.1234618
201	0xbc9fa8e7	-0.019489719
202	0xbc1f2271	-0.009712801
203	0x3c8b786c	0.017025195
204	0x3dbd6d24	0.092493325
205	0x3da80688	0.08204371
206	0xbd38c5d4	-0.04511054
207	0x3a81111b	0.0009847017
208	0x3d5c0e0d	0.053724337
209	0xbe0cc6bf	-0.1374769
210	0x3c380d6b	0.011233668
211	0x3e139f1a	0.14416161
212	0x3deb0dc4	0.11477235
213	0x3e111f83	0.14172177
214	0xbd9c426d	-0.07629857
215	0xbe4ed4e6	-0.20198402
216	0x3d9e9268	0.077427685
217	0xbd02bc21	-0.031917695
218	0x3d9cd393	0.07657542
219	0xbd779a2b	-0.06044976
220	0x3b1692f5	0.0022975777
221	0x3dce759d	0.10081027
222	0xbd618169	-0.055055056
223	0xbe30e3f9	-0.17274465
224	0xbe18ba7d	-0.1491489
225	0x3dbb11c0	0.09134245
226	0x3e146fce	0.14495775
227	0xbe7b1375	-0.24519141
228	0x3c9ab44e	0.018884804
229	0x3cab8118	0.02093558
230	0x3e19bd3e	0.15013596
231	0xbcc0a54e	-0.023516323
232	0xbcf743ea	-0.030183751
233	0x3d5fb7ce	0.05461865
234	0x3d66b184	0.056321636
235	0xbc025d0c	-0.007956754
236	0x3ae2e9e0	0.0017312132
237	0xbdf858b5	-0.121262945
238	0x3c31d9f0	0.010855183
239	0x3cec50d8	0.028847143
240	0xbe3555ae	-0.17708465
241	0x3e4661f7	0.19373308
242	0xbcb8f189	-0.02257611
243	0x3d5a07a2	0.053229935
244	0x3d3d61ea	0.046235956
245	0xbcbb46ff	-0.022861002
246	0x3ddfce18	0.10927981
247	0x3da9b24c	0.082859606
248	0xbe0a1783	-0.13485532
249	0xbdd253a4	-0.102698594
250	0x3ce12660	0.027484119
251	0xbd406e8b	-0.046980422
252	0xb9e6e2ce	-0.00044038
253	0xbdee1045	-0.11624197
254	0x3d804c69	0.06264574
255	0xbb71ef5e	-0.0036916356

fc2.bias f4 [84]
0	0x3c81edab	0.0158604
1	0x3df398f4	0.11894408
2	0x3dcae2f9	0.09906573
3	0xbd2e5847	-0.042564657
4	0xbc928cd4	-0.017889418
5	0x3e37b079	0.17938413
6	0x3e03c165	0.12866743
7	0xbe1b3101	-0.15155412
8	0x3e2c3a82	0.16819194
9	0x3db19ab3	0.08672085
10	0x3d493834	0.049125865
11	0x3bfbe277	0.007686909
12	0x3dce377b	0.10069176
13	0x3d0b55b6	0.034017287
14	0x3e46cbb7	0.19413649
15	0xbc462875	-0.012094607
16	0xbcf309bc	-0.029667728
17	0xbdff8991	-0.124774106
18	0x3e44ad89	0.19206823
19	0x3da7b508	0.08188826
20	0x3bbb3c05	0.005713942
21	0x3d1b1a9f	0.037867185
22	0x3d9d0838	0.07667583
23	0x3c25a032	0.010108994
24	0xbd5dd480	-0.054157734
25	0x3df787cb	0.12086447
26	0x3e443ba0	0.1916337
27	0xbdd09fb1	-0.10186709
28	0x3dccc756	0.09998958
29	0xbda81039	-0.08206219
30	0x3e069ff3	0.13146953
31	0x3e081817	0.1329044
32	0x3be55226	0.0069983182
33	0xbd8a9dd6	-0.06768386
34	0x3d4f513b	0.050614577
35	0xbd5c9e46	-0.05386188
36	0x3e24af92	0.160826
37	0x3df5eb76	0.12007801
38	0xbb508d44	-0.0031822482
39	0xbcaefd38	-0.021360978
40	0x3e4e3c46	0.2014018
41	0x3e354525	0.17702158
42	0x3e2e8900	0.17044449
43	0x3db966cd	0.09052811
44	0x3c878ddf	0.016547142
45	0x3c971d6e	0.01844665
46	0xbda3b7da	-0.07994051
47	0x3e2d3760	0.16915655
48	0x3e12eea0	0.1434884
49	0x3e0e827f	0.13916968
50	0x3ace06b7	0.0015718554
51	0x3dee7259	0.11642904
52	0x3de9ee48	0.11422402
53	0xbda2622f	-0.07928883
54	0xbd7634f3	-0.06010909
55	0x3deea30e	0.11652194
56	0x3e1c069b	0.15236895
57	0x3d16f629	0.03685585
58	0xbc3e72af	-0.011624022
59	0x3d9e94d8	0.077432334
60	0xbdf7c31a	-0.120977595
61	0x3e225639	0.15853204
62	0x3e65cf84	0.22442442
63	0x3b518933	0.0031972646
64	0x3cf6fef3	0.030150866
65	0x3d7125e1	0.058874015
66	0x3e348f5b	0.17632811
67	0x3d217464	0.03941764
68	0xbd6a6a4a	-0.05723027
69	0x3e600b3b	0.21879284
70	0x3d146bdf	0.036235686
71	0x3e365531	0.17805935
72	0x3e27d0fb	0.16388313
73	0x3e404a29	0.1877829
74	0x3db42435	0.087959684
75	0x3e500b5f	0.20316838
76	0x3e744c4d	0.23857231
77	0x3cf2d250	0.0296413
78	0x3d654f20	0.055983663
79	0xbd2827e2	-0.04105366
80	0xbe0193e9	-0.1265408
81	0x3cfbea12	0.030751262
82	0x3e4ffd6f	0.20311521
83	0xbaccc5ee	-0.0015622952

fc3.weight f4 [10, 84]
0	0x3da48780	0.08033657
1	0x3d566830	0.052345455
2	0x3d85bb53	0.0652987
3	0xbd258210	-0.04040724
4	0x3b74794c	0.0037303744
5	0xbf1de3a7	-0.61675495
6	0x3db23224	0.0870097
7	0x3dda014f	0.10644781
8	0x3dc3f93a	0.095690206
9	0xbda82353	-0.082098626
10	0x3d617e15	0.05505188
11	0xbdee1b40	-0.11626291
12	0x3e21062b	0.15725009
13	0x3d9b6544	0.07587674
14	0xbee4f5a6	-0.44718665
15	0x3de0dc15	0.10979477
16	0xbe0e2c09	-0.13883986
17	0x3c9e9437	0.019357784
18	0xbb70d626	-0.0036748736
19	0x3d33ce33	0.04389782
20	0x3d6a0ec9	0.057143006
21	0xbd8d9016	-0.06912248
22	0x3d15271e	0.03641426
23	0xbdec4a47	-0.11537605
24	0x3d98cda5	0.074610986
25	0xbe0cec21	-0.13761951
26	0x3ca870ba	0.020561565
27	0xbcebef2c	-0.02880057
28	0xbdc3e8a8	-0.0956586
29	0xbd047eca	-0.032347478
30	0x3dc631d9	0.096774764
31	0x3dcb9ab9	0.099416204
32	0x3da1ce24	0.07900646
33	0x3d0ed8b6	0.03487464
34	0x3dc1258c	0.094309896
35	0x3bbfecf8	0.0058571063
36	0x3c9dd6a8	0.019267395
37	0x3c62c2e4	0.013840411
38	0xbd41cb95	-0.04731329
39	0xbda77701	-0.08176995
40	0xbd324cc7	-0.04353025
41	0xbeeb7d6b	-0.45994124
42	0x3daddb92	0.08489145
43	0x3dc26b6d	0.09493146
44	0x3cfdd2cb	0.030984303
45	0x3dec8076	0.115479395
46	0xbd2e303f	-0.04252648
47	0xbd15b006	-0.036544822
48	0xbe9d06e0	-0.30669308
49	0x3d8f7c25	0.070061006
50	0x3c95eeb6	0.018302303
51	0x3c0d60e8	0.008629061
52	0x3dcbbae7	0.09947758
53	0xbd4f6ad0	-0.050638974
54	0xbcea79f2	-0.028622601
55	0xbec6ff32	-0.38866574
56	0xbeb40376	-0.3515889
57	0x3cc3abba	0.023885597
58	0x3d0dcc31	0.03461856
59	0x3d81f193	0.06344905
60	0xbd1ba3c6	-0.037997983
61	0xbd87453b	-0.066050015
62	0x3df1d9ea	0.11809142
63	0x3c0cf9c5	0.008604472
64	0x3d8cab76	0.06868641
65	0x3d57b5fe	0.052663796
66	0xbec804db	-0.39066204
67	0xbc7591b8	-0.014988355
68	0x3d8cb232	0.068699256
69	0x3cd215b7	0.02564512
70	0xbe0945c6	-0.13405523
71	0x3d8b3d35	0.06798784
72	0x3d67449a	0.056461908
73	0x3dbef425	0.093239106
74	0xbd6d76f8	-0.057974786
75	0xbedecec2	-0.4351712
76	0xbea3d4fc	-0.31998432
77	0xbd8c5071	-0.068512805
78	0xbe077cdc	-0.13231224
79	0x3d9bcea2	0.076077715
80	0x3da25456	0.07926242
81	0x3d061848	0.032738
82	0x3da15683	0.07877829
83	0xbdc48999	-0.09596557
84	0x3c72b334	0.014813233
85	0x3d5a6252	0.05331642
86	0xbcbbb519	-0.022913503
87	0x3db352cb	0.08756026
88	0xbe320d0f	-0.17387794
89	0x3bc48efd	0.005998491
90	0xbedc267c	-0.4299811
91	0x3d256de4	0.040388003
92	0x3d7f9228	0.062395245
93	0x3d701861	0.058617
94	0xbdd6c11f	-0.10486054
95	0xbdc0c3a2	-0.09412314
96	0x3df439eb	0.119251095
97	0x3cc9dc62	0.02464122
98	0x3d51d00c	0.0512238
99	0xbde32468	-0.11090928
100	0xbe2105cb	-0.15724866
101	0xbdbe0444	-0.09278157
102	0x3e1165c4	0.14198977
103	0xbe0229fa	-0.12711325
104	0xbe493697	-0.1964973
105	0xbdad01d6	-0.08447616
106	0xbd843a8e	-0.06456481
107	0xbe163a95	-0.14670785
108	0xbe26e392	-0.16297749
109	0x3e3d9b5a	0.18516293
110	0x3d727311	0.059191767
111	0xbe1e055e	-0.15431735
112	0xbd605aba	-0.054774024
113	0x3b2d5811	0.0026450197
114	0xbd31ae1c	-0.043378934
115	0x3da48a64	0.080342084
116	0x3d87c564	0.06629446
117	0x3d689c6a	0.056789793
118	0x3dea36ef	0.11436259
119	0xbd0a66da	-0.033789493
120	0x3d2f17c3	0.04274727
121	0xbf146717	-0.579698
122	0x3dc01f69	0.09380991
123	0x3d865ee1	0.065610655
124	0x3d6a572f	0.05721205
125	0x3e0d1cd4	0.13780528
126	0x3e0e3881	0.13888742
127	0xbee31654	-0.44352973
128	0xbbcbfe74	-0.0062254015
129	0x3e637506	0.2221261
130	0x3da05a3e	0.07829712
131	0xbd3c00b0	-0.045899093
132	0x3d47632a	0.048678555
133	0x3d8f8e2e	0.070095405
134	0xbeb0263c	-0.3440417
135	0xbe20a940	-0.15689564
136	0x3db0b58d	0.08628378
137	0xbd049c69	-0.032375727
138	0x3c6d5a58	0.014486872
139	0xbdb873b3	-0.09006443
140	0x3d50dc23	0.05099119
141	0x3db44878	0.08802885
142	0xbe2a5bb9	-0.16636552
143	0x3da18fec	0.07888779
144	0x3ce84b30	0.028356165
145	0x3b6f7d2b	0.0036543112
146	0x3ccd5b4e	0.025067952
147	0xbc77c24e	-0.015122009
148	0xbd574db3	-0.052564334
149	0x3e0802c2	0.13282302
150	0x3df33e9b	0.118771754
151	0x3df725e6	0.120677754
152	0x3e9e80f6	0.30957764
153	0xbd9d41f3	-0.076785944
154	0xbe1bcb21	-0.15214206
155	0xbd131065	-0.035904307
156	0x3e03eee9	0.12884106
157	0x3cbfb42e	0.023401346
158	0xbe165bc2	-0.1468344
159	0x3d5c0763	0.053717982
160	0x3ded085e	0.115738615
161	0x3c93f5e9	0.018061595
162	0xbd69c397	-0.057071295
163	0x3d51c1a2	0.051210053
164	0xbdc0eebe	-0.094205365
165	0x3c1444cf	0.009049608
166	0x3df27eae	0.118405685
167	0x3d7fd240	0.06245637
168	0xbe7d860e	-0.24758169
169	0xbd2dd418	-0.042438596
170	0x3dac12c0	0.08402014
171	0x3d83d938	0.064379156
172	0xbdbbc9c8	-0.09169346
173	0x3d8c11ab	0.068393074
174	0x3cc93edd	0.024566108
175	0xbe0b54ea	-0.13606611
176	0x3cb1b625	0.021693299
177	0x3d6c886e	0.057747297
178	0x3d27ef53	0.04099972
179	0x3d8e8667	0.06959229
180	0x3d87d3b4	0.06632176
181	0xbd18734a	-0.037219323
182	0xbd35f0ce	-0.044419102
183	0x3dbe5bda	0.09294863
184	0xbd558279	-0.05212638
185	0xbcc7b180	-0.02437663
186	0xbe322cf8	-0.17399967
187	0x3df96883	0.12178137
188	0x3d1ed0b2	0.038773246
189	0x3c5d2eb5	0.013499905
190	0x3dbdc5ac	0.092662185
191	0x3e1ee93b	0.15518658
192	0xbd47a774	-0.04874368
193	0xbdb4b0d3	-0.08822789
194	0xbe9e24d9	-0.30887488
195	0xbda5d517	-0.08097284
196	0x3d95d3ac	0.07315764
197	0x3d6deb9d	0.058086026
198	0xbd454d6f	-0.04816955
199	0xbf18d1be	-0.5969504
200	0x3d5a5acc	0.053309247
201	0xbc648bda	-0.013949359
202	0xbc3d1709	-0.011541137
203	0xbba52bd9	-0.0050406274
204	0xbeaa1260	-0.33217144
205	0xbc528268	-0.012848474
206	0x3d923f8e	0.07141028
207	0x3d76a11e	0.060212247
208	0x3a3533f9	0.00069123466
209	0xbe51e447	-0.20497237
210	0x3b580b62	0.003296577
211	0xbe90f0d3	-0.28308734
212	0xbd00c269	-0.031435404
213	0x3d27c07f	0.040955063
214	0xbda36b14	-0.07979408
215	0x3cc2ffbd	0.023803586
216	0x3cd138fa	0.025539864
217	0x3e21ca71	0.15799882
218	0x3dca08dc	0.09864971
219	0xbd9b63ef	-0.0758742
220	0x3d78691f	0.060647126
221	0xbd2fdf0c	-0.042937323
222	0xbdaff8f2	-0.085924044
223	0xbd386980	-0.045022488
224	0x3d4f2043	0.050567877
225	0x3e332c68	0.17497408
226	0x3d2dcfe2	0.04243458
227	0xbbef8817	-0.0073099243
228	0x3cc34b92	0.023839746
229	0xbd8df085	-0.06930641
230	0x3d885c9b	0.06658288
231	0xbd0315f8	-0.032003373
232	0x3d329b47	0.043605115
233	0x3dfc50db	0.123201095
234	0x3d97a8f1	0.0740527
235	0x3d00a157	0.031403866
236	0x3d92ba8b	0.071644865
237	0xbd0d9811	-0.03456885
238	0xbd536827	-0.051613
239	0x3d6ca0ab	0.057770412
240	0x3d09968f	0.03359085
241	0x3cdb5751	0.026775034
242	0xbb1f5fce	-0.0024318579
243	0xbecc6664	-0.39921868
244	0xbe8d20e8	-0.27564168
245	0x3e45b41a	0.19306985
246	0xbe152495	-0.14564736
247	0xbb6cf16f	-0.0036154648
248	0x3d384b91	0.04499394
249	0xbd94bf56	-0.07263057
250	0x3e17e7bf	0.14834498
251	0x3ce4583f	0.02787411
252	0xbc9bfee8	-0.019042447
253	0x3e0e8d73	0.13921146
254	0x3d1aa5b0	0.03775567
255	0xbce7cf39	-0.028297054

fc3.bias f4 [10]
0	0xbd29c740	-0.041449785
1	0x3ce31c2a	0.02772339
2	0xbd17f20e	-0.037096076
3	0xbd8588b8	-0.06520218
4	0xbd9a294b	-0.07527407
5	0x3e160e4b	0.1465389
6	0xbd6be3c4	-0.05759026
7	0xbc849aac	-0.016187035
8	0xbe0448ae	-0.1291835
9	0xbdfc3e0e	-0.123165235
