models/Mixup-4 BasicNet.pt (torch, 180615 bytes, 10 tensors)

conv1.weight f4 [6, 1, 5, 5]
00000000: 03b4 fabc 5a42 b53c c15b 483e 658c 72bc
00000010: 6802 8bbe 300d 10be b22b 843e d672 333a
00000020: 5508 143d e511 8abe 5770 483d 12fc cd3e
00000030: 2592 fe3c 1a23 ecbd 2846 0cbe 02b1 883d
00000040: 5d7d a23e 77fa ccbd 2cb1 43bd 68fe 0cbe
00000050: c720 593c c9e1 fe3d ea6b 2dbd af7a 31be
00000060: e609 d2bc a29e c93d 6066 e5bd ff56 5cbe
00000070: 74a0 03bd 6c28 003d c61b 8abe 4f67 30be
00000080: 681d 313e ffe2 b13e a2c0 233e ed78 233e
00000090: b6ac ec3e 5835 c43e 7a5f b5bd 8d67 d0bd
000000a0: aa5d c63d b750 95bb c31e 97be 74d7 83be
000000b0: bc9f 93bd 3502 4bbc 4cf1 43be b037 d2bc
000000c0: f15d 803d c1fc 353d cb54 61bc 4336 1abb
000000d0: 4802 643d 1726 843d 45c9 75be 3dfc 573c
000000e0: 5470 f7bd d8dc de3c 44fb fe3e 46ea 993e
000000f0: e541 173d 81e3 adbd d5c1 03bf 8d38 1bbe
00000100: 5f02 843d dd8f 903d 568f 5c3e 371a 3cbe
00000110: 66b0 92be f520 e13d deb5 98bd 0ca4 1e3e
00000120: 8129 1a3e 9c55 71bd 2e1b 8dbd 4eae 0a3e
00000130: 9fe8 4bbe e924 0e3d 016b 05bc 4a9e b13d
00000140: edf5 fbbc 789c 043e db32 593e 7b19 7e3d
00000150: f2b8 7dbc 404c 10be 479b f9be 245e 42bf
00000160: 9afb 9abe e6c4 333d 1fd6 66bf cbb1 60bf
00000170: aab8 60bf e5f4 e2be c5a2 24be fa12 3f3e
00000180: cbf1 03be 69d9 d3ba 972b 913e 425d 5b3d
00000190: 19d5 30bd 19ac 37bd b045 483d 2d79 a53d
000001a0: 7b38 253e 0a7b 84bc 04d6 a0bb bacb 1bbd
000001b0: 6bf8 0f3d 18ea 283e 8e32 60bd 2aac 833c
000001c0: 9773 c9be d14f e03c b9c2 ed3d b611 b93d
000001d0: 759e 91bd 0f3e b5be 3206 2d3e f7ac b83e
000001e0: 03f0 293e ad84 88be ead9 91be 9b44 f23d
000001f0: 13a8 4c3e 199d 3c3e e72f 943e b994 6a3e
00000200: a141 7f3e eb8f 7abd 1dce bbbd 7fe9 cc3c
00000210: bfca b33c 445e 773d b81c 813e b9bf 26be
00000220: 4510 4b3c 4d23 ba3d 3bf7 0d3d 0f6f 463d
00000230: e163 b0bd 627f f8bd a16d 90bd 78da fabd
00000240: 82e1 83be f20c 14bd 2e9b 97bd a0d7 36be
00000250: 83df 03be 7a82 0e3d
-0.030603414 0.022126365 0.19566251 -0.0148039805 -0.27150273 -0.1406753 0.25814587 0.000684542
0.03614076 -0.26966777 0.04893526 0.40231377 0.031075547 -0.115301326 -0.13698637 0.066743866
0.3173627 -0.1000871 -0.047776386 -0.13768923 0.013252444 0.12445409 -0.042339243 -0.17331956
-0.025639486 0.0984471 -0.11201167 -0.21517561 -0.032135442 0.03128855 -0.26974314 -0.17226909
0.17296374 0.34743497 0.15991452 0.15964098 0.46225518 0.38321948 -0.08856101 -0.10176001
0.09685834 -0.004556741 -0.29515657 -0.25750315 -0.07208201 -0.012390663 -0.19135016 -0.02566132
0.06267918 0.044430498 -0.013753126 -0.0023530878 0.055666238 0.064525776 -0.2400256 0.013182697
-0.12081972 0.027204916 0.49801075 0.3006155 0.036928076 -0.084906586 -0.5146764 -0.15158291
0.06445765 0.0705869 0.21539053 -0.18369375 -0.28650206 0.10992614 -0.074565634 0.15492266
0.15054895 -0.058919534 -0.0688995 0.13543054 -0.19912957 0.03470317 -0.0081431875 0.08672769
-0.030756915 0.12950313 0.21210806 0.06203602 -0.015485989 -0.14091587 -0.4875128 -0.759249
-0.30270082 0.04388895 -0.9017047 -0.8777129 -0.87781775 -0.44327465 -0.16077717 0.18659583
-0.12885205 -0.0016162816 0.2835357 0.053555734 -0.043171976 -0.04484186 0.048894584 0.08079753
0.16134827 -0.01617195 -0.004908325 -0.038036086 0.03514902 0.1649555 -0.054735713 0.016073305
-0.39346 0.02738181 0.11609406 0.09036581 -0.071103014 -0.3539891 0.16896895 0.36069462
0.16595463 -0.26663724 -0.28486568 0.11829492 0.1998599 0.18419303 0.28942797 0.22908296
0.24927379 -0.061172407 -0.09170172 0.025013683 0.021947263 0.060392633 0.25217223 -0.16284074
0.012394016 0.09088764 0.034659605 0.048445757 -0.086128004 -0.12133671 -0.0705216 -0.12248701
-0.25757986 -0.036145158 -0.07402645 -0.17855692 -0.12878232 0.0347924

conv1.bias f4 [6]
00000000: 3de8 043e 9266 fcbb f4b2 66bb 4bdd 90be
00000010: 0f6f ecbd e49d 3f3e
0.12979217 -0.007702657 -0.003520188 -0.28293833 -0.1154462 0.18712574

conv2.weight f4 [16, 6, 5, 5]
00000000: 3014 d4ba 5361 253d 566f c93b 7125 84bd
00000010: 6706 87bd 1407 a83d e8c0 9cbe 3c96 21be
00000020: 7b0d 27bd f8ce 1fbe 78d1 81bc dd23 64be
00000030: 604c 633c a304 c7bc 97ff 0bbd 2744 c5be
00000040: 2481 413e 7080 1dbc 0f24 0abb 44c7 453d
00000050: 9916 3c3e 6729 943e 7baf 00be 17ba e33d
00000060: cb31 8fbd 75af 81bd 8d3f ff3c 45a1 b03d
00000070: cf1c 90bc b1ed 9bbc 8b1d 113e cb7a 8c3d
00000080: ca06 4bbd da10 b93d 0599 913d a7a9 883e
00000090: caa6 753d 65af 4e3e 75cf b93d 5988 8d3d
000000a0: c454 07be f205 823e 536c 273e ff87 f0bc
000000b0: b016 5ebd c7a2 c2bd d40a 1bbc 68cc 703d
000000c0: 3a84 adbb e31f 50bd 170e 463e a052 123e
000000d0: 0923 3c3e d2ef 9e3d f213 703d dbe8 023e
000000e0: a4d1 21bd 1d8a 903d e333 a83d 4c2c 81bb
000000f0: f708 ce3d b3a6 3bbd f3b7 233c 3145 dd3d
00000100: 5321 df3d 70b4 56be c97a 92bd 21bd 03bd
00000110: 07b8 353d 6e5e 863d 485d 603c e074 f63d
00000120: 208b bbbc bc7c 2f3d 11af 9d3d 6b1a 3abc
00000130: f4fb 283c 5c39 343c 0e22 d33a a9f1 933c
00000140: 097f 163d 763d 713d 2c5e 82bb 7767 9bbc
00000150: 4747 bcbd c6ef df3d b9dd 123d dbf5 ddbe
00000160: d040 9cbd fc1f e6bd a474 efbc 42c1 bbbe
00000170: 877b 5abd b425 08bd 71d9 aabd c3c3 7fbe
00000180: d1ce 4bbe 091f 223e f528 51bd b287 a8bd
00000190: c995 3abd 2528 e6bb 312c 4abd a753 23be
000001a0: e926 c7bd 49d5 c4bd c9f7 c53d 38d0 dbbd
000001b0: 5d49 dfbc 6744 1bbd 73a2 1a3e 3e21 cbbd
000001c0: 5ca3 e2bd abdd 18bd b432 bdbc 5abd e53d
000001d0: 896c 05be ff9a 093e f81d 0b3d d2ec 15bd
000001e0: 1dbe 263d 1ead f03d 5ac6 d33d f075 583b
000001f0: 1316 11bd 8564 1b3d e33f b53c c235 0e3d
00000200: fd3c f0bb cffe b53c 571f 753d b2ad 9dbd
00000210: 42e3 20bd c823 2c3d c53a 473d e667 bfbc
00000220: 2acc 323d f572 7dbd 0c9b 7d3d e57b e33d
00000230: 3b3c bebd d44c 09bd 298e a6bd 39c5 303e
00000240: aba6 153d cbf4 3fbe 2dbd 38be f65b 6b3d
00000250: 0616 093e bc86 933d dd32 473c efe7 503d
00000260: 5116 8d3d 976c e33d c345 843d 03c3 fe3c
00000270: 9d91 173d 4a28 45bc 140b 923d c645 cf3c
00000280: dfef e6bd 9cc2 043e ce83 2abe 33a2 813d
00000290: 0be1 af3c 65f8 53be 2c00 bd3d 2795 9abd
000002a0: 7f9b 413e 4800 983c 5277 39be f863 c7bc
000002b0: 096c 203c 7e18 6f3d 5d4c 823d e8c8 163b
000002c0: 299e d3bd e1d8 a4bd f490 313d a290 853d
000002d0: 50fc 843d 0ce2 ecbc c545 0a3e 55e1 1e3e
000002e0: 4bf4 3f3e c908 5b3d e52e a7bd 9fa8 4d3d
000002f0: 9ede 7b3d bf6d 163e a7d6 07be 5442 80be
00000300: 749e 42bd b3d4 d53c a7ce 073e 3343 1ebe
00000310: dab2 58be af10 853d a9c0 d03d 0075 663e
00000320: 4dfb 9bbc 8546 b4bd ae66 90bd 3e0c 34bd
00000330: 86cf d6bd 5863 e8bd 65c4 9abd 54e4 1cbe
00000340: 3e19 2c3c 438b f6bd 22a0 57be 3e68 53bc
00000350: 0f1c 84bd 77d7 463d 1213 91bd cac5 02bd
00000360: 422d 963d 91e6 de3d 601a 85bb dab3 35bd
00000370: fc8b 2b3a 26fc 0e3e 77e9 003e 1bc8 77bd
00000380: f9f3 d3bd dd09 05be 403e 56be e7ad c2bd
00000390: c98f c33a b84b 103e 5901 b0bd 6c1d 6bbd
000003a0: 24fe 01bd 9941 32bd d4d7 9f3d f519 3c3e
000003b0: d22c e0be ecbd cfb9 1054 c03d cfde 3d3e
000003c0: e287 373e e05b 28bf a6db d73b fa2a ef3d
000003d0: 2c83 df3d 190d 903d 604f 43be 0230 b2bd
000003e0: bcaa 963c ecf9 5dbc 69a1 4c3c 0706 aa3c
000003f0: a078 a43d 3d7c e43c 02df 273d e4a6 2e3e
-0.0016180333 0.04037602 0.0061473055 -0.06452454 -0.06593018 0.08204475 -0.30615926 -0.15779966
-0.04078434 -0.15606296 -0.015846953 -0.22279306 0.01387319 -0.024294203 -0.034179296 -0.3852856
0.1889692 -0.009613141 -0.0021078622 0.048285738 0.18367995 0.28937837 -0.1256694 0.11119478
-0.06991919 -0.06332294 0.031158233 0.0862451 -0.017591862 -0.019034239 0.14171426 0.068593584
-0.04956702 0.09036417 0.07109264 0.26691934 0.059973516 0.20184095 0.090727724 0.06910772
-0.1321593 0.2539516 0.16349916 -0.029361723 -0.054220855 -0.095037036 -0.009463031 0.058788687
-0.0052953037 -0.05081166 0.19341312 0.14289331 0.1837274 0.07760586 0.05861277 0.1278414
-0.03950657 0.07057593 0.082130216 -0.003942048 0.10060304 -0.045813274 0.009992587 0.10804213
0.10895028 -0.20967269 -0.07152326 -0.03216279 0.044364955 0.0656098 0.013694115 0.12034011
-0.022893488 0.042843565 0.07699407 -0.011358838 0.010313977 0.011000004 0.0016108172 0.018059568
0.036742244 0.058896504 -0.0039785113 -0.018970234 -0.091932826 0.10934405 0.035855982 -0.43351635
-0.076295495 -0.11236569 -0.029230423 -0.36670882 -0.05334046 -0.03323908 -0.08342255 -0.24977021
-0.19903113 0.15832151 -0.05106445 -0.08229007 -0.045553003 -0.0070238286 -0.04935855 -0.1594988
-0.097242184 -0.096109934 0.09666402 -0.10733074 -0.027256662 -0.03790703 0.15101032 -0.0991845
-0.110663146 -0.037320774 -0.023095466 0.112177566 -0.13029684 0.13438033 0.033964127 -0.036602803
0.04070865 0.117517695 0.10340567 0.003302928 -0.035421442 0.03793766 0.02212519 0.034719236
-0.007331489 0.022216229 0.05984434 -0.076991454 -0.03927923 0.04202631 0.04864003 -0.023364972
0.043651737 -0.06187721 0.061915442 0.111076154 -0.09288832 -0.033520535 -0.08132584 0.17262734
0.0365359 -0.18745725 -0.18040915 0.057460748 0.13387308 0.07203433 0.012158123 0.05100244
0.06889022 0.11104696 0.064586185 0.031098848 0.037004102 -0.012033531 0.07131019 0.025301825
-0.112762205 0.12964863 -0.16651842 0.06329765 0.021469614 -0.20700224 0.092285484 -0.0754798
0.18906973 0.018554822 -0.18111923 -0.024339661 0.009791383 0.058372967 0.063622214 0.0023007933
-0.10332901 -0.08049179 0.04335113 0.06521727 0.06493437 -0.028916381 0.13503177 0.15515645
0.18745534 0.053475175 -0.08163241 0.050209638 0.0614916 0.14690302 -0.13265477 -0.25050604
-0.047514394 0.0261024 0.13262425 -0.15455322 -0.21161976 0.06497323 0.10192997 0.2250557
-0.019040728 -0.08802513 -0.070508346 -0.043956988 -0.10488801 -0.11347073 -0.075569905 -0.15321475
0.010504065 -0.12038281 -0.2105718 -0.012903271 -0.06450664 0.048545327 -0.070837155 -0.031926908
0.07332851 0.10883821 -0.004061982 -0.044360973 0.00065439916 0.13963374 0.1258906 -0.06049357
-0.103492685 -0.12992044 -0.20922184 -0.095058255 0.0014920171 0.14091384 -0.08594007 -0.057401106
-0.031736508 -0.04351959 0.07804838 0.18369277 -0.43784195 -0.0003962362 0.09391034 0.18542026
0.17922929 -0.6576519 0.0065874634 0.11678119 0.10913691 0.07033748 -0.19073248 -0.08700563
0.01839196 -0.013548356 0.012489655 0.020754827 0.0803082 0.027891273 0.04098416 0.17055851

conv2.bias f4 [16]
00000000: ea7c 3dbd 2e2b 4cbd a64d 5f3d 7365 a1bd
00000010: 8d40 24bd b6b8 b93d a0b5 63bc 527e 15be
00000020: e03b d33d 901f 373e 0612 afbd 2fb0 c43d
00000030: 1838 20be 3ff9 a13d fd3d 1e3e 3224 e6bd
-0.046261705 -0.049845867 0.05451741 -0.07880678 -0.040100623 0.09068434 -0.013898283 -0.14598969
0.103141546 0.17883134 -0.085483596 0.09603917 -0.15646398 0.07908868 0.15453334 -0.112373725

fc1.weight f4 [120, 256]
00000000: a58c 17bd 10e9 8abd 7df7 aa3c e088 a1bd
00000010: b8b1 d9bc a063 f4bc d6f9 923c 569a 503c
00000020: 3d5f 90bd 8c5e 3a3b 297d bbbc 7fb4 1ebd
00000030: 34d1 c1bc 6ca8 df3c 7017 053c 24f8 edbc
00000040: 491f 863b f602 bdbc 3505 a93c 2a3c f43c
00000050: 898e a3bd bdfa 5abc e8fe 9ebc 346a a6bd
00000060: f03f 90bd 8b03 78bd 630a 13bb 0294 52bc
00000070: 23e4 573d 1794 333d adbe 8ebc 61b3 403c
00000080: 11b9 9dbd ebbb 5fbb 6693 0ebd dcdd 803b
00000090: deb7 d53c b5cd 9abb 4cf2 28bd 747e 903b
000000a0: a2d3 2bbb fa8e d93c 1eb4 83bd 03fc a0bc
000000b0: c6e2 92bd 88be c2bd 780b 6bbc 1550 60bd
000000c0: 2f07 64bc fae5 de3c 4b40 83bc 39e3 ed3c
000000d0: 5024 983c 53f0 78bb c277 2cbd f48c b73c
000000e0: dc26 f43c 95f2 34bd c908 7abd b998 bbbd
000000f0: 5b8d eabb ada4 8fbd d1ce 07bd 577d 7abd
00000100: 745e dd3c ccef 8abc 9b13 94bd 5736 703b
00000110: 634c 49ba e5db 80bd 1f52 90bd aa1a 213c
00000120: d08c 823c 4eb3 02bd b241 1e3d b195 8cbd
00000130: 565c 373c b4a6 ff3c fdc7 ecb9 a891 0bbd
00000140: b788 bfba 8ed3 8ebd 10ed a33b a3c8 35bd
00000150: 6a04 e2bc d42d 67bd aa83 703b 0634 05bd
00000160: ecac c7bc 4d17 9b3c 688a 90bd e37b a7bc
00000170: 1885 87bd 311c 20bc f686 cebd 9339 26bd
00000180: 5a5d 8bbd 908f e63c e912 55bd 0397 a3bc
00000190: 9857 8fbd f02c d0bc 82f0 13bd d674 963c
000001a0: c45b a2bc c199 ec3c 612d c4bc e447 b2bd
000001b0: a017 67bd b6d2 9cbd 3652 b9bc d696 49bd
000001c0: 00a0 b03c 25e7 87bd 46a7 84bd b2d7 b83c
000001d0: 2fcd 34bd 1705 153d b933 f33c a822 c1bc
000001e0: dc3d 46bd 65e1 5ebd 1bd8 97bc c703 eebc
000001f0: 5795 0b3d 8d44 43bd 771c dabc 4775 d5bc
00000200: 1661 c6ba cbde 983c 49ca febc 1402 a4bd
00000210: 304f c63b a697 a73b 49c4 3dbc 40ae 6fbc
00000220: 2f4f 3abd 0023 91bc 587e 5ebd 61cd 1ebc
00000230: 8c42 6abd 3b87 9fbc 69d8 a4bd bce1 3dbc
00000240: 2c91 e9bc 036a 58bd 688d 30bb ed56 c8bc
00000250: 9ab3 bfbd f9d2 f8bc 15b9 a4bd 3ad0 51bd
00000260: 8e80 d33c 454b a6bd 38ef b7bd 2aad 90bd
00000270: db4d dcbc 0b95 19bd 25e3 7abd b351 c9bc
00000280: 4f35 6dbd ad04 6fbb cbe2 133c b2ad f73b
00000290: 3147 e83c bec0 92bd 249a a2bd e5ce 8dbd
000002a0: 39c1 1bbd 95fe 33bd 215e 44bd 3a83 47bd
000002b0: 4a13 383d 58a9 af3c f10f 59ba 38ba 53bd
000002c0: 717c b3bd d8eb 80ba 1801 aabc 13fc e4bb
000002d0: aeb5 74bc 0e0d acbd 436c bcbc 8ea0 82bd
000002e0: ad7c 16bd 2e48 1cbd bf28 aabd 9f06 693c
000002f0: 6498 ec3c a1d4 a7bd a1e3 8a3c 5952 3dbd
00000300: 0bd3 e33c f808 9bbc 954e 93bd ed4c 82bd
00000310: 2b55 623b 1a5f 4fbc 7619 90bd 6e0b 963c
00000320: 7f0c 85bd 395b ad3c 444e 14bc 6a26 a7bc
00000330: a380 60bd 8820 36bb b220 7ebc 3da0 f43b
00000340: 0438 3b3c 5dee 963b 464a 8abd c436 16bd
00000350: 608b 9bbc 2239 bb3c 2d8a 35bd 4614 a93c
00000360: 71d9 27bd 81f5 813c 2661 b4bb 2d39 55bd
00000370: 5e37 50bc 1bf8 2dbd d545 a4bc 059b 12bc
00000380: 5092 38bd 9615 98bd 6ab3 51bd 3872 6cbb
00000390: a98d db3b 97ef 09bd 822a d83c 6975 1bbd
000003a0: a8af 32bd be4b 32bd 82e6 7abd 2c60 5cbd
000003b0: 8bc2 2b3d 0cc5 97bd a473 233c ea3f 18bd
000003c0: ac55 febb 7cca c0bb 4813 87bd ec45 87bc
000003d0: befa b6bd 066e 34bc f57c a8bd 6857 c73c
000003e0: 6ef9 50bd 1e2b 92bc 8972 a3bd 3444 2ebd
000003f0: 7cd7 02bb 7b44 163c 20ad 69bd 632f 333d
-0.036999363 -0.067827344 0.020869965 -0.07887435 -0.026574 -0.029832661 0.017941397 0.012732109
-0.07049415 0.0028437702 -0.02288683 -0.038746353 -0.023659326 0.02730199 0.008123264 -0.029048987
0.004093085 -0.023072701 0.020632366 0.029813845 -0.07986171 -0.013365445 -0.019408658 -0.081257254
-0.07043445 -0.060550254 -0.002243661 -0.012852671 0.052707803 0.0438424 -0.017424906 0.011761517
-0.07701314 -0.0034139107 -0.03480854 0.0039326977 0.026088651 -0.004724229 -0.041246697 0.0044096056
-0.0026218672 0.026557434 -0.06430839 -0.019651419 -0.0717216 -0.09508997 -0.014345996 -0.054763872
-0.013917728 0.02720927 -0.016021868 0.029039012 0.018572003 -0.0037985041 -0.042106397 0.022406079
0.029803686 -0.044176657 -0.061043534 -0.09159989 -0.007157964 -0.07013831 -0.03315622 -0.06115469
0.027022578 -0.016960047 -0.07230302 0.0036653483 -0.0007678924 -0.062919416 -0.07046913 0.009833017
0.015936285 -0.03190928 0.03863687 -0.06864489 0.011191448 0.03120742 -0.0004516243 -0.034074455
-0.0014612888 -0.069739446 0.0050026253 -0.044380795 -0.027589995 -0.05644019 0.0036699572 -0.032520317
-0.024374448 0.01893201 -0.07057649 -0.020444816 -0.066171825 -0.009772346 -0.100843355 -0.04058225
-0.06804915 0.028144628 -0.052019987 -0.019969469 -0.06999129 -0.025412053 -0.036118038 0.018366259
-0.019819148 0.02888191 -0.02394742 -0.08705118 -0.056419015 -0.076573774 -0.022622209 -0.049216114
0.021560669 -0.06635884 -0.064772174 0.022563789 -0.04414099 0.036381807 0.02968775 -0.023576096
-0.048398837 -0.05441417 -0.018535664 -0.029054536 0.03407797 -0.047672797 -0.026624901 -0.026056899
-0.0015135135 0.018660923 -0.031102316 -0.08008209 0.0060519204 0.0051145134 -0.011582443 -0.014628947
-0.04548567 -0.017716885 -0.05431971 -0.009692521 -0.05719237 -0.019473663 -0.080490895 -0.011589464
-0.028511606 -0.052835476 -0.0026939753 -0.024455512 -0.09360428 -0.030374037 -0.08043114 -0.05122397
0.025818136 -0.08119825 -0.08981174 -0.070642784 -0.026892593 -0.037495654 -0.06125178 -0.02457509
-0.057912167 -0.0036471293 0.00902624 0.007558548 0.02835426 -0.07165669 -0.07939556 -0.069242276
-0.03802607 -0.04394396 -0.04794133 -0.04870913 0.04494027 0.021443054 -0.00082802685 -0.051691264
-0.0876397 -0.0009835912 -0.020752475 -0.0069880574 -0.014935894 -0.084009275 -0.023000842 -0.063782796
-0.036739994 -0.038154773 -0.08308553 0.01422277 0.02888126 -0.081948526 0.016954245 -0.04622111
0.027810594 -0.018925175 -0.07192723 -0.06362329 0.0034535627 -0.012656951 -0.07036106 0.018315997
-0.06496524 0.021161662 -0.009051863 -0.02040406 -0.054810178 -0.0027790386 -0.015510725 0.007465391
0.011426929 0.004606052 -0.06752448 -0.036673322 -0.018987358 0.022854391 -0.044321228 0.02063955
-0.040978853 0.015864136 -0.005504745 -0.05205648 -0.012708513 -0.04247294 -0.02005283 -0.008948092
-0.04506141 -0.07425992 -0.051196493 -0.0036078822 0.006700237 -0.033675756 0.026387457 -0.037953768
-0.04362455 -0.043529265 -0.061254986 -0.053802654 0.041933578 -0.074106306 0.009976301 -0.03717033
-0.0077616777 -0.005883513 -0.065954745 -0.016512834 -0.08934544 -0.01101256 -0.08226959 0.02433367
-0.051019125 -0.017842826 -0.0798083 -0.042545512 -0.0019964864 0.0091716 -0.05704987 0.043746363

fc1.bias f4 [120]
00000000: 88a6 94bc d18f 12bd 7ea8 71bd 7b52 aabd
00000010: cf9b 0b3c c1e8 77bc a903 203d b6c4 fd3c
00000020: bb3b 163d a25a de3d 54eb f03c 1507 f3bb
00000030: 4415 60bb 9e1e f63c af12 f73d edf3 243d
00000040: cb79 543c c407 9dbc f00b 033c ffd8 f23c
00000050: 0582 cfbc f68b a2bc 4658 e33a 094d 96bd
00000060: 4be1 0cbe 4c7e 033e 38e1 0dbd fb86 1dbc
00000070: 4fe3 7f3c 57cf 91bd c39f 09bd 3e6c 87bd
00000080: 9c42 ef3d ddf1 80bd 6f54 c5bd 620f 80bc
00000090: 7824 733b 4d52 0e3e d46f 593d 94f9 9a3c
000000a0: b110 d83c 04be 173e 68d2 2dbd db7d 45bd
000000b0: 3f37 b23d da02 4d3c fddf 333d 2773 a2bc
000000c0: ae57 b43d a5af bc3d eb55 053d 1eff 0a3c
000000d0: 0207 493d 78b3 d23b e21c c5bc 5c05 8cbd
000000e0: 1e72 3a3b 50a7 993d 3a88 b43c 2477 75bd
000000f0: 4eb5 e93d 8977 8ebd 2f65 fd3d ca3d 97bd
00000100: ced8 47bd 5423 ecbc 7c7f efbd 098e 1dbd
00000110: 99da d8bc e156 5a3c cf26 dd3a eeca 8a3c
00000120: 1703 4d3d 07e5 23bd 4476 0dbd 4efa c33c
00000130: 1fd4 8d3c 26cf ebba 8598 94bc 0f45 99bc
00000140: 269a 843c 9de2 fb3d a8b5 1cbd b9c9 463e
00000150: 50a0 f33c 931c 5abd a126 553d a120 533d
00000160: bb6c 34bc 2287 fcbc c975 d7bc 5501 06bd
00000170: cbbb 86bd 00f0 2abd be0f 83bc 8cc1 42bd
00000180: c092 a93d 62d7 023e 2e11 b73d d2fc 10bd
00000190: 1541 ef3c 0a60 e23d 13cd 863d 6fd6 d83d
000001a0: a17c bc3c 7be3 e33d b003 78bd f419 7b3d
000001b0: 421c 36bc c620 92bd 7551 db3c 643b 68bd
000001c0: 0108 04bd 5d53 103e bbf6 a6bd 825d 713e
000001d0: 2990 aab9 4fe0 b23d c468 1b3b 4c80 8d3d
-0.018145815 -0.035781685 -0.058998577 -0.08316513 0.008521034 -0.015131176 0.03906599 0.030977588
0.036678057 0.108571306 0.029409088 -0.0074166157 -0.0034192363 0.030043896 0.120641105 0.04027169
0.012968491 -0.019168742 0.007998452 0.029644487 -0.025330553 -0.01984213 0.0017345033 -0.07338912
-0.13757817 0.12841147 -0.034638613 -0.009614701 0.015618159 -0.07119625 -0.033599626 -0.066124424
0.116826266 -0.06296132 -0.09635245 -0.015632335 0.0037100594 0.13898583 0.053085163 0.018917836
0.026375147 0.14818579 -0.042436987 -0.04821573 0.087019436 0.012512887 0.043914784 -0.0198303
0.08805786 0.09213189 0.03255264 0.008483676 0.04907895 0.0064300857 -0.024061624 -0.0683696
0.0028449367 0.075026155 0.022037614 -0.059928074 0.11411534 -0.06956393 0.12372815 -0.07384832
-0.048790745 -0.02882544 -0.116942376 -0.038465533 -0.026471423 0.013326378 0.0016872528 0.016942468
0.050051775 -0.04001334 -0.034536615 0.023923066 0.017313061 -0.0017990812 -0.018139133 -0.018709688
0.016186785 0.122990824 -0.03825918 0.19412889 0.029739529 -0.053249907 0.052038793 0.05154479
-0.0110122515 -0.030826155 -0.026301282 -0.032716114 -0.065787874 -0.041732788 -0.015998717 -0.047547862
0.082799435 0.12777475 0.08938824 -0.03539736 0.029205838 0.11053474 0.065820836 0.10587775
0.023008646 0.11127373 -0.06055039 0.061304048 -0.011115136 -0.07135157 0.02677224 -0.056697264
-0.032234196 0.140943 -0.08152529 0.23570827 -0.00032532334 0.0873419 0.0023713568 0.06909236

fc2.weight f4 [84, 120]
00000000: 70fe 063d e301 513d 2186 a23c 98c6 933d
00000010: 86bd e5bd 2875 38be cb4c d83d cb9e 04be
00000020: 08ab 463e 3b65 043e d90e 093e 5894 2cbd
00000030: 9265 0e3d 458c 58bd 83ca d6bd c8dc 90bd
00000040: 8b48 9ebc 888b 5fbe fc7f ba3d cfe9 2cbe
00000050: ba36 15be 1712 74bc d526 f23d acf8 da3d
00000060: eecc 0abe dd3b e93b dbc3 673d 5e68 8c3d
00000070: 6712 b33d b5a1 98bd 7aab 9cbb b78f 05bd
00000080: 0e96 36bd afeb 57bc cb83 9a3d 36ea 863b
00000090: c841 e2bc ea5b b33d 9e22 a6bd af40 77bd
000000a0: 7b89 ebbd 9152 01be 5810 fdbb af5f 453d
000000b0: 7e45 823e b305 f43c c022 823c 712a 00be
000000c0: e685 cbbd 331e 1abe e3f5 223d 35dd 383d
000000d0: b6d5 4e3e 07fd 82bc a3b1 163e 8fbe 333e
000000e0: bcee fd3c 12e9 05bc 939e ffba 6a0b 4e3d
000000f0: 0657 c93d 5be2 223e 9cf1 12bd a07f 67bd
00000100: 2e31 383d f296 b7bd 4576 3cbd 6797 c03b
00000110: dbe2 063d f5b4 a73b d5d4 24bc 446b 6fbd
00000120: 6ee9 b53c 5420 7fbd aeb7 3b3e 4d3c 153c
00000130: be49 21bd 244f 843d 1690 893d 2c31 afbd
00000140: f2a3 82bd 9d1d 963d ff4f 5cbe 2a1a 64bc
00000150: ba77 3f3e 0a46 683e 9d60 d43c 69a1 9e3e
00000160: 5f79 e8bd 2ca2 56bd b0e3 0c3e 25b4 103e
00000170: df67 cc3c ae14 f93d 3e3d 0fbe 3ed2 3e3e
00000180: 455e d8be e889 9d3c 0536 20be 3c1b ca3d
00000190: 5e78 b53d bedc 823d ec30 95bd e1f2 e2bd
000001a0: 980d d9be 02bc 11bc 577d dfba 2f91 293e
000001b0: 9d77 b73c c236 cb3d a720 993c 80fd 3fbd
000001c0: 50b2 443d fff6 413e 1fb2 22bd 15a5 903d
000001d0: b89c 383e 67c8 8a3d cb41 75bd 7b20 39be
000001e0: 64e7 4dbd 2bea 133d 4eb1 8c3d 1641 983d
000001f0: cb59 9d3d 86d8 1fbc f1ce 0ebd b5c4 e3bd
00000200: 5a06 b0bd 6942 233d 01d4 163e 03ce 703e
00000210: f977 3ebc 4f17 eabb 29be 853d 5d9b 8bbe
00000220: c5fe 293e baba 423e 4786 e7bc f375 1cbe
00000230: 1699 40bd f210 dabb 2991 87bd 8b0f 0d3e
00000240: d135 fcbd a5ce 43be 1fae 9fbc 90f7 5e3d
00000250: 5754 1ebe d980 02be 9aff 89bd 25d4 ad3d
00000260: 98ea 17be e3a2 36bd 3228 c3bd b345 cbbc
00000270: 1d22 59bd d65e 0abe cdb3 0c3e 40ba 5bbc
00000280: 2a23 f1bd 940e fa3c 1bf1 01bd 4f1f e33d
00000290: 4adc 12be dedc c1bc 7a0f 27be cb90 a2be
000002a0: 2322 25be b320 05be 037a 1d3c 4824 15bd
000002b0: 5aff 2a3d 729e 493d 4798 d33d d1f5 0abd
000002c0: 3c90 823d 5c36 bebc 84cc 3a3c bd7d 3b3d
000002d0: e527 453e 247d 073d 5816 f6bc ec24 8c3c
000002e0: cca8 83bd 5bc8 20bd a0df cc3c dcfd 953d
000002f0: a2b0 afbc 969d dd3c a247 b93d 9ab5 3c3d
00000300: 7f0c 4b3e 98bf debc 2536 c9bc f0dc f23d
00000310: 8b22 c3bd 59db 8e3d e077 6dbd 1483 07bc
00000320: 2101 05bc 4025 72be 0a03 73bd 19eb 353e
00000330: bf0f 4f3e 0737 22be 5287 853d 67bb ffbd
00000340: 3ed9 053e 441d 26bd 1eea 1c3e 97be b43d
00000350: 5a63 263d 417b e9bd 30fa efbd 2f7c 6f3d
00000360: 8405 03be 9878 4fbc 8348 0d3e 993b 1cbe
00000370: 9162 8fbc 7e7b 043e bd28 40be 8fe2 d1bd
00000380: f38c 043e 4f83 c53d bd69 403d 6eb6 193d
00000390: ba58 0c3b 7070 113e 920f 423d 8e00 293d
000003a0: 6f2c 883c cac8 2b3c cb7b 453c 47f5 dfbd
000003b0: 4495 a43d 0647 923e a8ee a8bd 8917 e1bd
000003c0: bc1f 5e3d 4e26 2e3d 17a9 8ebd f8a8 273d
000003d0: 6f52 06bd 2077 4bbe d7aa f3bb 2f7e b0bd
000003e0: bc1c a73d 555c c33d 3eae 433e a072 c8bd
000003f0: dd76 db3c 9137 06bd e0f0 013d 08d7 2d3e
0.032957494 0.05102719 0.019839348 0.07215613 -0.11217789 -0.18013442 0.10561522 -0.129512
0.1940118 0.12929241 0.1338457 -0.04213366 0.034764834 -0.052868146 -0.10487845 -0.07073361
-0.0193217 -0.2183057 0.09106442 -0.16886066 -0.14571658 -0.014896891 0.11823813 0.10691962
-0.13554737 0.007117732 0.056583267 0.06855844 0.08743744 -0.07452718 -0.004781184 -0.03260776
-0.044576697 -0.01317875 0.07544669 0.0041172756 -0.027619258 0.087577656 -0.081120715 -0.06036442
-0.11500832 -0.12629153 -0.0077228956 0.048186954 0.25443643 0.029787874 0.01588571 -0.1251619
-0.099376485 -0.15050583 0.039785277 0.045132834 0.20198712 -0.015989793 0.147162 0.17553161
0.030997626 -0.008173244 -0.0019502215 0.050303854 0.098310515 0.1590666 -0.035874948 -0.056518197
0.044968776 -0.089643374 -0.046011228 0.0058774236 0.03293119 0.0051180073 -0.010060509 -0.058451906
0.022206035 -0.06228669 0.18331787 0.009108615 -0.039376967 0.064604074 0.06716935 -0.08554301
-0.06378926 0.07329867 -0.21514891 -0.013922254 0.18698016 0.22682968 0.025924975 0.3098252
-0.11351275 -0.052400753 0.13758731 0.1413122 0.024951873 0.121621475 -0.13988206 0.18634889
-0.42259422 0.019230798 -0.15645607 0.09868476 0.08860849 0.063897595 -0.07284722 -0.11081482
-0.42393184 -0.008894922 -0.0017050904 0.1655929 0.022395903 0.099225536 0.018692328 -0.046872616
0.048021615 0.18941878 -0.03972065 0.07062737 0.18028533 0.06776505 -0.0598772 -0.18078797
-0.0502695 0.03611199 0.06869756 0.07434289 0.07683142 -0.009756213 -0.034865323 -0.11121503
-0.085949615 0.039858256 0.1472931 0.23516087 -0.011625283 -0.007143892 0.06530411 -0.2726697
0.16601093 0.19016543 -0.02826227 -0.15279369 -0.047020994 -0.006654852 -0.06619484 0.1377546
-0.12314952 -0.19121797 -0.019492207 0.054435313 -0.1546186 -0.12744464 -0.06738205 0.08487729
-0.14835584 -0.044588935 -0.09529151 -0.024813509 -0.05301105 -0.1351274 0.13740464 -0.013411105
-0.11774285 0.03052453 -0.031724077 0.11089956 -0.14341846 -0.023664888 -0.16314498 -0.31751093
-0.16126303 -0.13000755 0.009611609 -0.036411554 0.04174743 0.04922337 0.10331779 -0.033925835
0.06375167 -0.02321928 0.011401299 0.04577421 0.192535 0.033078328 -0.030039951 0.01710745
-0.0642868 -0.039253574 0.025008976 0.073238105 -0.02144653 0.027052682 0.09046866 0.046071626
0.19828986 -0.027190968 -0.024561951 0.11858547 -0.09528073 0.06975431 -0.05797565 -0.008270998
-0.008117945 -0.23647022 -0.05932907 0.17765464 0.2022085 -0.15841304 0.06519951 -0.12486916
0.13071153 -0.040555254 0.15323684 0.08825415 0.040622093 -0.11400462 -0.11717641 0.05846804
-0.12795073 -0.012663029 0.13797192 -0.1525711 -0.017503055 0.12937734 -0.1876554 -0.10248291
0.12944393 0.09644186 0.04697584 0.037527494 0.002141519 0.14203048 0.04737813 0.041260295
0.01662275 0.010484884 0.01205344 -0.10935455 0.08036283 0.28569812 -0.08248645 -0.10990817
0.054229483 0.042517 -0.06965845 0.040932626 -0.03279346 -0.19869661 -0.007436137 -0.086178176
0.081597775 0.09539095 0.19109437 -0.09787488 0.026790077 -0.032767836 0.031723857 0.16976559

fc2.bias f4 [84]
00000000: e958 043e 5959 833d 6ee6 5d3e 4b0f c5bd
00000010: 8236 72bd 6dc4 9c3d c53b 163d f114 013e
00000020: 7f7f c5bd baad 1b3e 063c 8f3c 5500 073d
00000030: 287d 76bd 97aa 283d 0976 993d 5105 a5bd
00000040: cb39 2b3e 09c9 443e 6be4 c43d 497e 77bd
00000050: 624d f7bd c789 3e3d e2b1 f43d e239 e63c
00000060: fcf8 04be a4ae 0c3e c7e2 213e e890 b13d
00000070: 6363 4bbb 47ac d7bd 2069 503d 8298 473e
00000080: 8e98 f43d c397 ff3c d2b4 cc3d e69b 883d
00000090: 8292 803e 9ad9 1d3d 0080 9c3d 252f 863d
000000a0: 99bf 6c3e 39ea c03d c008 2e3d 5c1c 383e
000000b0: 8187 293e e558 19bd 96ce 973b 935c 323e
000000c0: cef3 fcbc 2266 153e f08d 10be 0490 d4bc
000000d0: e711 043e 9a87 933c 49df 4a3e 51a6 593d
000000e0: ee83 2e3d 408b b6bd 794b 623d 84f6 553c
000000f0: a42f 8ebd a5ab 373d a9ea 343d 1c29 ca3b
00000100: 9923 853d 0de9 013e d933 233e ac9a 053e
00000110: 611d d03d 7caf db3d bbf7 0e3d 41eb fe3d
00000120: 11af 24bd 6593 b8bd 204a 2cbd 51e0 233d
00000130: 9c8c f23d f68f 033e c8a0 bd3d f15c 073d
00000140: 1560 90bd a9e6 3c3d 79d9 e73d 4eb8 013c
0.12924542 0.06413526 0.21669933 -0.096220575 -0.059134014 0.07654653 0.036678094 0.12605645
-0.096434586 0.1520299 0.017484676 0.0329593 -0.060177952 0.041178312 0.074932165 -0.08057655
0.16721265 0.19217314 0.0961388 -0.06042317 -0.120753065 0.046518113 0.11947991 0.028103773
-0.12985605 0.13738495 0.15809165 0.08670217 -0.003103458 -0.10530906 0.050881505 0.19491771
0.1194316 0.031200295 0.09995426 0.0667036 0.25111777 0.0385376 0.076416016 0.06551961
0.23119964 0.094196744 0.042488813 0.17979568 0.16555597 -0.037438292 0.0046327813 0.17418127
-0.030877974 0.14589742 -0.14116645 -0.025947578 0.12897454 0.018008996 0.19811739 0.053137127
0.042606287 -0.089132786 0.055247758 0.013059262 -0.069426805 0.044841427 0.044169102 0.0061694514
0.0650093 0.12686558 0.15937747 0.13047284 0.101618536 0.1072683 0.034904223 0.12447215
-0.04020602 -0.09012488 -0.04206288 0.040008847 0.11843225 0.12847885 0.09259182 0.03304762
-0.07049576 0.046118412 0.113207765 0.007917477

fc3.weight f4 [10, 84]
00000000: 54b6 8d3d d97d 1a3e d85d 123d e95d 31bc
00000010: b47a 05be 3af3 883b 8f3e 3a3d 2b66 32bf
00000020: 5412 593d 523d c0bc b40b 0e3c 5042 0c3c
00000030: 1557 9e3d 8373 6a3d 014f 043d 0b93 593d
00000040: 4245 db3d affc 07bf 3dd3 a1bd 142a 843e
00000050: 9e9b c5bd e4c7 0f3e 86fe 50bb eb79 62bd
00000060: 905b a23d ac05 be3d 2c57 803d 842a 49bc
00000070: 0925 c23c cf2f 05bd 69dc 9a3d 78cf b03d
00000080: 9883 043e 50d6 d83d 0b58 313c adea 91bd
00000090: 4fcb 81bc 1616 123c 7fb3 8138 6109 b93d
000000a0: 9a2a 36be 75e4 cc3d 9a55 57bd 94ce 2ebd
000000b0: 218d f53c ee26 cdbe 8e46 be3d c78f d03d
000000c0: f9f3 1abd 32e8 163d a82e bebd bec1 5cbd
000000d0: bd64 31bf 2e5e 7a3d 4bfe aabe b0a8 26be
000000e0: 7ce9 d83d cb86 11be 799f c8bd cd6f e03c
000000f0: d5d2 05ba 7c48 b83d 16b4 c1bd 87a8 1dbe
00000100: 3dfb 083e 05f4 a3bc eb7f 763d b11d 923d
00000110: 5d9f 5dbe 8747 703d 82ee a93d 7452 a43d
00000120: b60b 8bba 73fb 76bd 3e26 d7bc 98eb 10bc
00000130: ef32 603d 4dfc 18bd ac1d 3fbe 9237 df3d
00000140: 77d8 863c 7d86 d9bd ce61 153d 7fdb d33d
00000150: c40e 123e f9ed 0a3e f4e7 083e 71f5 9bba
00000160: 4b42 ea3d 00bd 483d 177c 22bd e10a 983d
00000170: 9c8d 3bbd bfcc 33bd c4ca a63d d234 ca3d
00000180: deab aabd ca53 b53d 97be d63d 77fc 1e3d
00000190: 049d 30bd 9a79 353d 9596 263d b27b 223d
000001a0: 38c0 22bd ae05 00bf b7d0 1d3c 8f29 edbd
000001b0: daf7 64bd 36f4 06bd 4b5f c73d 3f40 a73d
000001c0: cd2e 943d 7ed0 18bc 43ae c7bd 0a79 01be
000001d0: 409e fe3c da39 c63d 0177 a1be f46e 7e3d
000001e0: c4f8 803d ffe5 063d 72e5 ba3d a0d0 093d
000001f0: c36f b5bc f7c5 10be 198e 6bbc 14ab ab3d
00000200: f608 543c 289b dd3d 7241 a83d fbf9 57bf
00000210: 6187 593b 8e98 683c cb78 a93d e336 b7bd
00000220: 7e33 fbbc ad3e 98be b69d 053d c25e 3ebc
00000230: b6ea cc3d d4e5 97bd dc2f 503d 959a 9bbc
00000240: 6723 98bd cc54 023d 1105 aabd 4570 d73c
00000250: ed42 f9bb 827f f03d ba11 1c3d ab51 9cbc
00000260: 477f 423d 8ff5 d4ba 3fb8 0dbe c3d8 7cbe
00000270: 4172 a4bd 07d7 013b 5e60 30bd d5d1 4bbe
00000280: b6dd 113e 111d 4cbd eb41 913c 3737 8f3d
00000290: 17f9 9d3d c610 86bb ba41 edbc 46b1 d1ba
000002a0: 0484 2bbf 349e f63d 501f 8ebe f710 12bd
000002b0: 399e 603d 66df debe 75cd 343d bc1e a7bd
000002c0: 4cb3 20be f473 2d3d 595a f2bd ec00 bbbd
000002d0: 900d 1b3d ef72 d63d a89b 6e3d 8d06 543d
000002e0: 99a8 78bd 62ca ea3d 3582 fc3d 040a 81be
000002f0: a47d ffbd fd33 6dbe 9ecd 88be 9e50 8ebd
00000300: 36f5 afbd 192c 813d 94d6 813d 9a3c 3abe
00000310: ea15 3f3c cee7 1abd 9506 9cbd 92e3 d0be
00000320: 65a0 8e3d 3b84 903d 5150 efbb 1fae ac3d
00000330: ec8d 3ebd a7b0 083e 34b9 b1ba 08d4 bebe
00000340: 2770 733c ca5b 7c3d 8d9b 343d 9b3f d03d
00000350: 1f9e 2d3d 3c63 e33c b70d 0cbe cf73 973d
00000360: 91f7 92bd 39b1 e03d b0d2 de3c acbc 623d
00000370: 1b39 613d d8dc 5e3d 73a8 13be bcf3 a2bd
00000380: 26fb 9f3d fc41 c7bd cef4 903d 1041 84be
00000390: 106f 49bd 0a5b 81bb a42d 74bd 1814 843d
000003a0: 6562 93be 69b1 b03d 2ea6 44bc f9a3 91ba
000003b0: ba84 bf3d 40b6 ab3d 08a9 c03d 4be2 203e
000003c0: 934d 94bd 7e65 5cbd 01c3 62be eae6 68bd
000003d0: 243f d5be 5311 27be fe38 be3d 26b9 6a3d
000003e0: 9079 113d eb48 b4bc 2481 cf3d d746 b63d
000003f0: e5e8 0a3d 87ce ccbe 135d 3c3e a79d 2abc
0.06919542 0.1508707 0.035734028 -0.010825613 -0.13035089 0.0041793855 0.045469817 -0.69687146
0.052995995 -0.02346674 0.008669782 0.008560732 0.07731453 0.057239067 0.032301906 0.053118747
0.10706569 -0.5311994 -0.07901619 0.25813353 -0.09648822 0.14041096 -0.003188999 -0.05529205
0.079276204 0.092784256 0.06266627 -0.012278203 0.0236993 -0.032516297 0.07561571 0.086333215
0.12940824 0.10587752 0.010824214 -0.07124839 -0.015844015 0.0089163985 6.184633e-05 0.09034992
-0.17789689 0.10004512 -0.05257187 -0.042677477 0.029974522 -0.40068763 0.09290801 0.10183673
-0.037830327 0.036842532 -0.09286243 -0.053895704 -0.6929434 0.061124973 -0.33397135 -0.16275287
0.105914086 -0.14211576 -0.09796042 0.02739706 -0.0005104964 0.089982 -0.09458177 -0.1539632
0.1337709 -0.020013819 0.060180586 0.071345694 -0.21642824 0.058661964 0.08297445 0.08023539
-0.0010608349 -0.060298394 -0.026263352 -0.008845232 0.054736074 -0.037349988 -0.18663663 0.10899271
0.01646064 -0.10621355 0.036470227 0.103446 0.14263445 0.13567342 0.13369733 -0.0011898709
0.11438426 0.04900837 -0.039669123 0.0742395 -0.045789346 -0.043896433 0.08144143 0.09873356
-0.08333562 0.08853872 0.10485571 0.038814988 -0.04311849 0.04430542 0.04067095 0.039668746
-0.039734095 -0.50008667 0.009632281 -0.11580192 -0.055900432 -0.03294774 0.097349726 0.08166551
0.07235489 -0.009327052 -0.09750035 -0.12643829 0.031081319 0.09679003 -0.31536105 0.062117532
0.06297448 0.032934185 0.091257945 0.033646226 -0.022148019 -0.14138018 -0.01437714 0.0838224
0.01294159 0.10820609 0.08215608 -0.84365815 0.0033192264 0.014196528 0.082749926 -0.08946016
-0.030664202 -0.29735318 0.032621108 -0.011619272 0.10005705 -0.07416883 0.050826892 -0.018994609
-0.074286275 0.03181915 -0.083017476 0.026298651 -0.007606855 0.1174307 0.038102843 -0.019081911
0.047484662 -0.0016247499 -0.13839816 -0.24692063 -0.08029605 0.0019812004 -0.043060653 -0.19904263
0.14244732 -0.049832407 0.017731627 0.06992953 0.07713526 -0.004091355 -0.028962005 -0.0015998266
-0.66998315 0.120418936 -0.27758265 -0.03566071 0.054838393 -0.43529814 0.04414125 -0.08160159
-0.15693396 0.04234691 -0.11833639 -0.09131035 0.03785473 0.104711406 0.058253914 0.05176406
-0.060707662 0.11464383 0.123295225 -0.25202954 -0.12475136 -0.23164363 -0.26719373 -0.0694897
-0.08591692 0.06307239 0.06339756 -0.1818718 0.01166294 -0.037818722 -0.07618443 -0.40798622
0.069641866 0.07056471 -0.0073032756 0.084316485 -0.046522066 0.13348638 -0.0013559223 -0.37271142
0.014858282 0.061610974 0.044093657 0.10168382 0.042387124 0.02775728 -0.13677107 0.073951356
-0.07176126 0.109713025 0.027200073 0.055355713 0.0549861 0.05440983 -0.14419727 -0.07956645
0.07811575 -0.097293824 0.07077943 -0.2583089 -0.049178183 -0.0039476203 -0.05961384 0.06449145
-0.28786007 0.08627588 -0.012002511 -0.001111149 0.093514875 0.08384371 0.0940724 0.15711324
-0.072413586 -0.053807728 -0.221447 -0.05686084 -0.41649735 -0.16315202 0.09288214 0.057305478
0.03551632 -0.022007426 0.101320535 0.089002304 0.03391351 -0.40001318 0.1839488 -0.010413564

fc3.bias f4 [10]
00000000: 6437 1a3d e5c2 9a3d 4b79 0b3c f288 e7bc
00000010: 041e cc3d a256 9fbc 06c9 0bbd 5887 a53d
00000020: ea8c f0bd 7631 e6bc
0.03765048 0.075567044 0.008512805 -0.028263543 0.099666625 -0.01945049 -0.034127258 0.080824554
-0.11745627 -0.028099757
