models/Mixup-1 BasicNet.pt (torch, 180615 bytes, 10 tensors)

conv1.weight f4 [6, 1, 5, 5]
00000000: 4b73 30be 2c49 13bf 9bd8 36bf 8cbb 3dbe
00000010: de7d 623e 185e 09bf e0a1 87bf 884d 94bf
00000020: 4d79 28bf 8e24 89be 8083 16bd d274 39be
00000030: 045f b5bc a481 ee3d 9bfa 2cbd 62f7 74bd
00000040: 0609 423e fb48 8f3d bf82 a83d 935d bbbd
00000050: b9c6 5e3d a4e3 04be 8ddf cb3d c3b5 ff3c
00000060: b247 ac3d c2ce 313d c91d 46bc 9528 893b
00000070: 36d6 74be 7127 0e3d e2e2 2abe 88e5 88be
00000080: 91c4 8b3c ee0f cd3e 1005 473e 6625 053e
00000090: b0f7 e43e 64d9 c03e 43d1 a33c 8921 96bd
000000a0: 0242 073e d9bb 843d 2b94 01be bec5 7cbe
000000b0: f92a 3cbe 5442 1dbe 880a 8fbe 4f47 5dbe
000000c0: e9f3 18bd d35e a43d 457a a2bb f8ea 83bd
000000d0: c136 903c c3a6 ca3d d08a 10be 5003 813c
000000e0: 3a05 82bc 8379 e43d 755e bebd d9fb e4bd
000000f0: ec3a 953b 21e8 8d3e bb7e d13d 66ef ccbe
00000100: c191 1b3d 6b7a 8d3e fd96 a93d 195e ebbd
00000110: 037c acbe bfeb 1d3e 5b9a 623e af95 2e3e
00000120: 6a55 90be deef 1cbe 7f51 883d 3212 983d
00000130: 46f5 ce3d ffef aebd a3ad c93d dd90 0d3e
00000140: 6f53 bd3c 4bcc 783b 0f2c 5e3d f82b 5abe
00000150: 364a b13c 8817 b73c ba63 253d a57f 183e
00000160: b92e dcbb c8cc 99be ec9e 4bbd daa4 ce3c
00000170: 5a87 213e 6882 d33e 8729 723e 728a 003d
00000180: 55b0 e3bd 5aa9 1fbe df56 f0bd 8e27 603e
00000190: e2ca cb3c 5ce8 b0bd 6915 553d 4af6 be3d
000001a0: f743 3fbe 2708 513e 7c97 86be 1866 de3c
000001b0: 1049 813e 09f3 f2be 5dd5 a83c e7ef adbd
000001c0: 7121 b9bd 6127 013f 5598 613d ef2b 033d
000001d0: 554d b1bb 5c1f b3bd d75c 3b3e 5103 ef3d
000001e0: fa25 fbbc b2fd d4bd 50e0 00be 7480 57be
000001f0: 51e2 6fbc 77a4 863d f9f4 2fbd be24 ff3c
00000200: 9a65 84bd a9e4 003d 1355 143c 1d6e 6abe
00000210: 21bb 75bd 12a1 76bd e701 283d c607 cfbd
00000220: 9854 d5bd 49ad 613d dca2 033e e25d 2f3e
00000230: 20e1 f5bd 1bd7 2a3d 4223 2bbe 96d4 ab3e
00000240: 424f 493e d680 72be bbc2 40bc e186 42bd
00000250: 795f ac3e 6ec0 30bd
-0.17231481 -0.57533526 -0.71424264 -0.18528575 0.22118327 -0.536592 -1.0596275 -1.1586161
-0.6581009 -0.26785702 -0.036746502 -0.1811097 -0.022140034 0.11645821 -0.042231183 -0.059806235
0.18948755 0.06996342 0.08228063 -0.09148707 0.054388735 -0.12977463 0.09954748 0.0312146
0.08412112 0.04341007 -0.012092062 0.004185746 -0.2390984 0.034705583 -0.16688111 -0.26737618
0.017061504 0.40051216 0.19435525 0.13002548 0.4472022 0.37665856 0.019997245 -0.07330615
0.13208774 0.064811416 -0.12654178 -0.24684808 -0.18375768 -0.15357333 -0.27937722 -0.21609233
-0.037341986 0.08025899 -0.0049584233 -0.06441301 0.017604234 0.098950885 -0.14115453 0.01574865
-0.015871633 0.11155989 -0.0929536 -0.11180849 0.004554143 0.27716163 0.1022925 -0.40026397
0.0379808 0.2763246 0.08280752 -0.11492557 -0.33688363 0.15421961 0.22129194 0.17049287
-0.28190166 -0.15325877 0.06656169 0.074253455 0.10105376 -0.08541869 0.09847572 0.13824792
0.023111073 0.0037963565 0.054241236 -0.21305835 0.021641832 0.022350088 0.04037831 0.14892443
-0.006719437 -0.30039048 -0.049712107 0.025225092 0.15774289 0.4131043 0.23648654 0.03138203
-0.11117617 -0.15591946 -0.11735319 0.21890089 0.024877016 -0.08638069 0.05202237 0.0932432
-0.1867827 0.20413266 -0.26287448 0.027148291 0.25251055 -0.47451046 0.020609552 -0.08493023
-0.090395816 0.5045071 0.055076916 0.03202432 -0.00541083 -0.08746216 0.18297134 0.116705544
-0.030657757 -0.10399951 -0.12585568 -0.21045095 -0.01464136 0.06574338 -0.042958234 0.03114545
-0.064646915 0.031468067 0.009053486 -0.22893567 -0.059992913 -0.060212202 0.04101744 -0.101089045
-0.104165256 0.0550969 0.12855095 0.17125657 -0.1200583 0.041709047 -0.16712669 0.33560628
0.1965914 -0.2368196 -0.011765177 -0.04749191 0.3366659 -0.043152265

conv1.bias f4 [6]
00000000: 3ed4 e6be 8961 57bc d2ee b43d f1c1 53be
00000010: 2ca1 593d 635b 173c
-0.45083803 -0.013145813 0.08834614 -0.20679452 0.05313222 0.009238097

conv2.weight f4 [16, 6, 5, 5]
00000000: 0b6f 0a3d d503 cc3d bd17 2e3e 86fa b33d
00000010: 579a d63d f3ed 14be a394 28be 61a6 83be
00000020: 456f bbbd 1cfc 483d 39d8 0bbe 2cfc b5bd
00000030: 5cb6 33be d5c2 633c 080b cdbd 7da3 b9bd
00000040: cc19 02be 9fd5 cfbd d2ab 64bd 6242 afbc
00000050: 58a7 c2bd ada8 5b3e 6f79 053e f271 26be
00000060: dbc1 cbbe c949 cc3c fce3 2b3d a360 013c
00000070: 3264 6bbd caaf 9abc 9896 19be 666b 44bd
00000080: 7a6c eb3c beda 523d dd62 a73b 24b8 09bd
00000090: b4c3 1a3c 1107 ed3b 613c 783d ac9b 1e3e
000000a0: aa76 6fbc 859f 7f3d 0506 a1bc 0fbf e6bc
000000b0: 7017 ee3c 3a11 17be 1981 1bbe f8aa 86be
000000c0: 354a 33be b30e 65bd 520a 26bc daa1 01bc
000000d0: c33c 36bd 0c3e 103c 4ea7 873d 689b c33d
000000e0: e5d2 993d 72d4 e6bc f379 1b3e 7b02 783d
000000f0: 075e 313b 602a 973d 044e 83be 67e4 ab3d
00000100: afc2 5d3d 78a0 bb3c 56c0 813e 9330 2ebe
00000110: 4833 833d b2af e3bd ce9b f93c 3aaf 7c3e
00000120: a8db bb3c efa6 09be ab57 40be 694d 0ebd
00000130: ef7f 18bd 8c88 733c e1f9 f63c 0eba 973c
00000140: 2b79 26bc ff77 1f3b 0a26 1d3d b8de c83d
00000150: e476 33bc d097 86bd 23c8 e0bc e12f ca3d
00000160: fd98 b13d 0f19 d43d 24c6 e8bd 0548 16be
00000170: d8ed 9ebc 9c15 783d d015 e33d 831c c1bd
00000180: 5a42 22be 8138 80bd 64f8 17be d00f 4f3d
00000190: 13e7 e6bc 7260 02be c634 d1bd 837a 92bd
000001a0: 3607 94bc 06b7 c43c f4a2 f4bc fafb 18be
000001b0: 404a c73d f30d 333e 1886 203d 8610 003d
000001c0: 3ad2 ab3c 8d57 193e d3e3 ab3d 4505 da3d
000001d0: 091e b33b 05eb 833d c12c 813e e952 843d
000001e0: 0c53 4d3e cece a9bd 147e 863e e307 033e
000001f0: 39f5 163e 34ea 65bc 7575 80bc 9178 673d
00000200: 3234 333e 8bc7 9dbd d06b d53d 3c07 36bd
00000210: 03f9 943d 15be 813e 8927 b9bc bb03 293c
00000220: d9c1 2ebc c01c 053e d4e2 813e 47af dabd
00000230: 819e bcbc e404 8d3c 64fe 4e3d 035a 5dbd
00000240: eca2 9bbe 778d c9bc d7cc a7bd 8fdf 1fbe
00000250: 002e 6abe eaa7 65be f8e1 4dbd 5624 d1bd
00000260: 829f 02bd 89d5 97bc c5a5 44bd 1ac7 a7bc
00000270: b232 8b3d a3fc 5e3e 7571 51be 783e 4fbe
00000280: a4fc d4bd 64a2 1d3e 2e97 edbc 6d10 c1be
00000290: 6f31 043e b8cb 2fbd 5e1c 68bd d6da a4be
000002a0: 6d00 273e 46ec 883c f382 6cbd d891 f8bd
000002b0: a6bb 91bd de8d 99bd 0421 91bd dd25 a4bd
000002c0: e514 263e 5b63 56bd 43f4 d73d 1262 843e
000002d0: b46d 833d 72ee e2bd a915 4a3c 1536 9b3e
000002e0: 460b 9e3d f57f 7f3c 33f2 f7bc eb1a cf3d
000002f0: 5e19 2c3d c271 253e c81f 3bbe 6ed4 9dbd
00000300: 2687 fb3c f115 323e 47d4 a63d d6ac 91be
00000310: 5740 31be 4468 123d 7be6 943c 4748 cc3a
00000320: 8690 2c3c db10 8a3e b202 8d3d 12b2 febd
00000330: cfbb 51bc 8567 113e f9d5 ce3c 3c0a 893d
00000340: 19c6 4c3e 76e0 a3bc ed45 0a3d 6fae d9bd
00000350: a3a6 483e c4b6 2fbd 2723 5a3c d43a 073e
00000360: 32b0 bc3d d881 5a3d cbc9 83bd d917 3f3d
00000370: 0f69 083e 8ce9 633d 16e0 fb3c f18a 393d
00000380: 22d7 433e 4440 44be 168e 1bbe 818d b1bd
00000390: 4c41 95bd bed0 af3d 9096 edbd 53bf 31be
000003a0: ee55 91bd 2143 883d 785d 823c d620 6cbd
000003b0: 310e 7b3c 2d92 f63d 1cad ccba 4863 103d
000003c0: 07e5 8bbd b235 083e 615e 343d 5f05 3e3d
000003d0: 8415 d0ba 749d c3bc c3b7 e93c d7e5 603c
000003e0: d3c9 a0bd 5230 a9bd 0d0e 253e 4ab4 c5bd
000003f0: cf6b 35be 91ae 02bd c3dc 123e e1fe 65bd
0.033797305 0.099616684 0.17001243 0.08788018 0.10478657 -0.14543895 -0.1646295 -0.25712875
-0.09152082 0.049068555 -0.13656701 -0.088859886 -0.17550033 0.013901432 -0.1001187 -0.09064386
-0.12705153 -0.10148167 -0.055827923 -0.021393958 -0.095045745 0.21451063 0.13034604 -0.16254404
-0.39796337 0.024937527 0.04196547 0.007896575 -0.0574686 -0.01888265 -0.14998853 -0.047953986
0.02873825 0.05147814 0.005108221 -0.033622876 0.009446073 0.0072335084 0.060604457 0.15489072
-0.014615694 0.06240799 -0.01965619 -0.028167276 0.02906391 -0.14752665 -0.15185966 -0.26302314
-0.17508776 -0.05592222 -0.0101342965 -0.007912124 -0.04449154 0.008803856 0.06623708 0.09551126
0.07510928 -0.028177474 0.15183239 0.06054924 0.0027064101 0.07381129 -0.2564546 0.08393174
0.054140743 0.022903666 0.25342053 -0.17010717 0.064062655 -0.111174956 0.030469801 0.24676219
0.022931889 -0.13442586 -0.18783443 -0.034741793 -0.037231382 0.014864098 0.030148448 0.018521335
-0.010160725 0.0024332998 0.038366355 0.09808105 -0.010953639 -0.06571925 -0.027439183 0.098724134
0.08671758 0.10356342 -0.11365917 -0.14675911 -0.019400522 0.060567483 0.11088145 -0.09429266
-0.15845624 -0.06260777 -0.14840847 0.05055219 -0.028186357 -0.12732103 -0.10215144 -0.071522735
-0.018069845 0.024013054 -0.029862858 -0.14939871 0.09730959 0.1748579 0.03919038 0.031265758
0.020974267 0.14974804 0.083930634 0.10645536 0.005466227 0.06441311 0.25229457 0.06461126
0.20051211 -0.08291398 0.26268065 0.12795977 0.14741983 -0.014032889 -0.015681008 0.056511465
0.1750038 -0.077040754 0.10420954 -0.044440493 0.07274058 0.25340334 -0.02260186 0.010315831
-0.010666334 0.12999249 0.2536837 -0.10677963 -0.0230248 0.017214246 0.050535575 -0.05404092
-0.30397737 -0.024603589 -0.08193367 -0.15612625 -0.2286911 -0.22427335 -0.05026433 -0.10212009
-0.0318904 -0.018534439 -0.048009653 -0.020480681 0.06796779 0.21776061 -0.20453437 -0.20238674
-0.1039975 0.15393978 -0.029002752 -0.37707844 0.12909482 -0.04291889 -0.056667678 -0.3219821
0.16308756 0.016714226 -0.05774207 -0.121371925 -0.07115869 -0.07497762 -0.07086375 -0.08015034
0.16218908 -0.052340847 0.10544636 0.25856072 0.064174086 -0.11080636 0.012334266 0.303147
0.07716994 0.015594472 -0.030266857 0.10112556 0.04201638 0.16156676 -0.18273842 -0.07706533
0.030704092 0.17391182 0.081459574 -0.28452176 -0.173097 0.035743967 0.018176308 0.0015585505
0.010532504 0.26965985 0.0688528 -0.12436308 -0.012801125 0.14199646 0.025248514 0.06691405
0.19997443 -0.020004492 0.033758093 -0.10628974 0.19594817 -0.04289891 0.013314045 0.13206035
0.09213294 0.053346485 -0.06434973 0.046653602 0.13321327 0.05564265 0.030746501 0.04529852
0.19125035 -0.1916514 -0.1519092 -0.08669568 -0.07287845 0.08584736 -0.11600983 -0.1735814
-0.07096468 0.06653429 0.01591371 -0.057648502 0.015323208 0.120395996 -0.0015615555 0.035250932
-0.06830793 0.13301733 0.04403532 0.04639184 -0.0015875553 -0.02387879 0.028530007 0.013726673
-0.07850995 -0.082611695 0.16118641 -0.09653528 -0.17716907 -0.03190476 0.14342026 -0.056151275

conv2.bias f4 [16]
00000000: 868f 31be a4ee 42bd 8145 e2bd df56 7fbb
00000010: 365f c3bb 4a79 343d 650f b13c 39ca 52be
00000020: 9ed7 a83d d30b ba3d 9b3f fabd f516 3a3e
00000030: 69d8 16be d8b6 2b3d b6d7 7b3d 92e7 e9bb
-0.17339906 -0.047590867 -0.11048413 -0.0038961691 -0.0059622778 0.044060983 0.021613786 -0.20584954
0.08244251 0.090842865 -0.12219163 0.1817282 -0.14730991 0.04192242 0.061485015 -0.007138201

fc1.weight f4 [120, 256]
00000000: f1fc debd 547a 163e 996a 11be df9e dcbb
00000010: aa05 49bd 4c79 60be a172 4dbe 4d96 3fbd
00000020: 903a 0cbd bde1 e73d 8c23 84bd 4ecb e1bb
00000030: 54bf 3fbd 1d0d 1b3e f5b6 40bd 5228 28be
00000040: ff6e 9fbe 8619 b03c fb68 7d3d 6ba2 d3bd
00000050: fb7e 11be 33df b3bd aec5 debd bbd3 ee3d
00000060: dd14 0dbe 297b 62bd 4117 73bd 9406 6b3d
00000070: 8222 4dbe 5d15 9bbd 9b5a b2bd 7547 15be
00000080: 2905 49be a77b 88bd 5f48 9dbc a494 0dbe
00000090: b3da 653d a73d cdbc b118 5cbc ba86 a4bc
000000a0: ca5f 26be 6304 b03c b757 47bc 772e 77bd
000000b0: ca69 43bd 1646 883d 6174 c33c 174b 13be
000000c0: 1123 97be 41af 163d 5c11 b5bd cf31 11bd
000000d0: e9e5 0dbc a8dc ab3d 2b51 363c 2e2b a6bd
000000e0: 71ae 4f3d e577 ad3c b675 0fbd 1b03 8cbe
000000f0: 51b6 43be a7f8 a6bd 4871 f53c 6ab3 97bd
00000100: c1f4 623d aedd d03d 7e66 973d 1ba6 2dbd
00000110: 2b0f 41bd f135 003e a40c 49be 2689 0c3e
00000120: e96a 22bd 5b3e e23d 0273 883c e29b 623d
00000130: bfc7 47bd b538 93bd ec08 33be cba8 3cbe
00000140: 9e12 25bd b893 a7bd e560 acbd a123 8e3d
00000150: 3205 523e ac82 983e 1bf2 d2bd 6e2f 18be
00000160: c4a7 f23c 9907 373e 37f7 643d 0ce4 bcbc
00000170: b019 cc3d 2a97 0b3e f4a9 613e 39d0 6c3c
00000180: b879 663d 1514 003e e9a4 1a3e 7114 c4bd
00000190: aa70 83bd afe8 9ebc fd1c b33d 2dab 2bbd
000001a0: c3f8 b53c 05e9 163e be01 133e 6898 01bd
000001b0: 3473 4ebc b827 cebd 6a53 3cbc 6ec4 5c3d
000001c0: 9b1b 1d3e 1430 573e 6477 7abd 3066 23be
000001d0: f75f 103e f9c2 223e 675e a9bd e342 75bd
000001e0: 2e77 30be 9870 8dbc e355 e1bd d33a 49bd
000001f0: b2d5 c43c 91ab 3c3e 6ad5 9e3d 8e43 d53d
00000200: 60be 933d db0e 8e3d f46d 893d 9984 27be
00000210: b1ee 5b3d 1c68 213e 9502 d8bd 3d6f e0be
00000220: 2b3f d33d 0e66 83bd 7e62 43bc b93a d63d
00000230: df98 673e 7f34 283d fa60 80bd bf98 aebd
00000240: 2b77 6b3e f389 8c3d 9752 a9bd ab32 b5bd
00000250: 5759 613e 10bb 243e ba61 a03d 49db 02bd
00000260: 6fbd 533c a437 963e d601 803d c688 223d
00000270: 994e 6d3e c8e3 173e 7ec9 423b 5a1c 88bb
00000280: 5fae 6ebe 227c ab3b 569b 13be 966a a7bd
00000290: 9a2b 87be 7272 b2bd 9b64 25be b256 29be
000002a0: c3df 53be 0dc6 3cbd 88cd 1b3d 4c5b a73d
000002b0: 8ad5 10be ab32 ca3a c545 0e3d e0b5 11be
000002c0: a40d 5f3d f4bb 233d 1020 a3bd 8f1c 05be
000002d0: b65b 8cbe 112a 7fbc c52c 38bd ee55 cb3d
000002e0: 9c19 18be dcd8 40bd 66d1 11be 7251 2c3d
000002f0: fe02 75bd ff40 02bd 3580 6abb a9a8 bebc
00000300: 2783 b1be 29bb 543d b1a3 e8bb b78b 813d
00000310: c9dd ecbc c2b9 c5bd f088 70bd f9c9 953c
00000320: cb6a e7bd 5dd4 65bc 70ad ffbd b470 c5bd
00000330: 1b88 1ebe 4331 8dbd 460a b1bd 9dd9 b0bd
00000340: 80c3 aebe a1ee da3d 1a67 0b3c a17a b13d
00000350: ecb6 96be 9640 253e fea0 3e3d 5435 c03d
00000360: 113f f6bd 9a3f a03d 268f 2f3d b0e1 53bd
00000370: 2f2d 5abd 2136 02be ef5f 1dbe 00bf 623d
00000380: 6949 04bd 04a9 bc3c 4ab9 17bc 4e55 0cbe
00000390: 2f10 d13c 3246 d83c 6171 393d de67 b3bc
000003a0: 67a5 313e 6504 5d3c 1afb 2e3d 27d8 9f3c
000003b0: efd9 343e 38c4 9d3c c835 533c 37fa 03bd
000003c0: d160 35be 2638 eabd cae7 3b3d 012e 843d
000003d0: 480d d4bd 9d57 223e 0805 163e 24b3 0ebc
000003e0: 6962 5cbd 2328 11be 08a1 6bbd 6aa1 2ebe
000003f0: a649 383d 8c5e 103e a97f cb3d 0125 d33d
-0.108880885 0.14695102 -0.1420082 -0.006732806 -0.049077667 -0.21921271 -0.20063259 -0.046774197
-0.034235537 0.11322353 -0.064520925 -0.006890691 -0.046813324 0.15141721 -0.04704948 -0.16421631
-0.3113937 0.021496546 0.061867695 -0.10333713 -0.14208595 -0.08782806 -0.10877548 0.11661478
-0.1377749 -0.055293236 -0.05934835 0.05737932 -0.20032695 -0.07572434 -0.08708688 -0.1457804
-0.19630875 -0.0666421 -0.019199548 -0.13826233 0.05611677 -0.025053812 -0.013433621 -0.020083774
-0.16247478 0.021486467 -0.012166909 -0.060347047 -0.04770831 0.06653993 0.023859205 -0.14384113
-0.2951894 0.03678823 -0.08841202 -0.03544789 -0.008660772 0.08391696 0.01112775 -0.081137046
0.05070347 0.021175334 -0.035024367 -0.2734612 -0.19112517 -0.081528954 0.029961243 -0.074072674
0.055409197 0.10198532 0.07392596 -0.04239474 -0.047133606 0.12520577 -0.19633728 0.13724193
-0.03965274 0.110470496 0.016656402 0.055324443 -0.048774477 -0.071885504 -0.17483872 -0.18423764
-0.040300958 -0.08182472 -0.08416919 0.069403894 0.20509794 0.29787195 -0.10300084 -0.14861843
0.029621013 0.17873992 0.055899825 -0.02305796 0.09965837 0.13631883 0.22037488 0.014453941
0.056268424 0.1250766 0.1510197 -0.095742114 -0.06417973 -0.019398062 0.087457635 -0.041911293
0.022213345 0.14737327 0.14356133 -0.031639487 -0.012600709 -0.100661695 -0.011494497 0.053898267
0.15342562 0.21014434 -0.061149016 -0.1595695 0.14099108 0.15894689 -0.08269959 -0.05987824
-0.17232963 -0.017265603 -0.1100271 -0.049128365 0.02402768 0.18424822 0.07755549 0.10413276
0.072140455 0.06936427 0.06710425 -0.16359176 0.05369443 0.15762371 -0.105473675 -0.43834868
0.10314783 -0.0641595 -0.011925338 0.10460419 0.2261691 0.04106569 -0.06268497 -0.08525228
0.22994678 0.06862249 -0.08267706 -0.08847555 0.22006737 0.16086984 0.0783114 -0.031947408
0.012923582 0.29339325 0.0625035 0.03968122 0.23174514 0.14832985 0.002972215 -0.0041537704
-0.23308705 0.0052333036 -0.14414725 -0.081746265 -0.26400453 -0.08713235 -0.16151659 -0.16536978
-0.20690827 -0.046087313 0.038037807 0.0817171 -0.14143959 0.0015426477 0.034734506 -0.14229536
0.054456368 0.039974168 -0.079651 -0.12999175 -0.2741372 -0.015573994 -0.04496457 0.09928499
-0.14853519 -0.047081813 -0.14240035 0.04206986 -0.059817307 -0.031800266 -0.0035781984 -0.023273783
-0.34670374 0.051936302 -0.0070995917 0.063254766 -0.02891435 -0.09654571 -0.058724344 0.018284785
-0.11299666 -0.014027682 -0.124842525 -0.09640637 -0.15481608 -0.068941616 -0.08644538 -0.086352564
-0.3413353 0.10690046 0.008508468 0.08665968 -0.29436433 0.16137919 0.046540253 0.093851715
-0.12023748 0.07824631 0.042861126 -0.051728904 -0.053265747 -0.12715961 -0.15368627 0.055357933
-0.032296572 0.023029812 -0.009260485 -0.13704416 0.025520412 0.02640066 0.045274142 -0.021900114
0.17348252 0.013489817 0.042719938 0.01951225 0.1766126 0.019258603 0.01289124 -0.032221045
-0.17712714 -0.11436491 0.04587535 0.06454087 -0.10354096 0.15853734 0.14650357 -0.008709703
-0.05380479 -0.14175467 -0.05752662 -0.17053762 0.04499211 0.14098567 0.099364586 0.10309792

fc1.bias f4 [120]
00000000: 8205 b6bb 6c15 f93c 2a50 6f3c 120e dfbb
00000010: a04b cdbd 481f 9fbd dfb6 003c f8e4 873d
00000020: 0264 ea3d 3aa4 a33d 981b 953d fc77 4fbd
00000030: c9cc 123d 830e c63c fca4 8d3b c873 3fbd
00000040: 217b 5dbd 0a95 903d 1868 cdbc ea62 e03d
00000050: f674 7dbd 57ee c13d 1b3d 303d d4df e33d
00000060: 5dd9 38bc ebf7 313d ebe8 893d 60ee 363d
00000070: c1cc a83d bdb0 b53c ddc0 fd3d 1fcc 143d
00000080: 6057 ce3d d3cd 81bd 980a c5bb ef8e 623d
00000090: 0a31 853d a456 bf3c cbe8 663d cd93 843d
000000a0: 2736 033e d56a 013d 9c6f cabb d7a3 11bd
000000b0: 459b 0f3d ba1a 903d 3ecf 343d 0eab 503d
000000c0: 1b21 e5bc 94e9 113d 72f3 b03d 5e81 c53d
000000d0: 5d13 2f3d d5bb 003e ed47 57bc dba1 6bbd
000000e0: 6659 bd3c 9393 abbb 5fe3 4a3c f6cf 493d
000000f0: 9a89 e8bc 1096 9ebd d2f9 52bc 2e76 003e
00000100: f33d 253c fe2e 65bc 67a4 20bd bf66 23bd
00000110: 82d7 a33d 9ea2 de3d a3b6 ca3d b15b babc
00000120: 296b 323d 0f27 bdbc 097f 2b3b b1c2 de3d
00000130: 9896 193d 3abb a13c 7028 d43d 52c5 c53d
00000140: d595 bf3d f63b 76bc f3fc e03d 61a2 ed3d
00000150: 380c 1ebc 93ae 9b3c a301 083c c60a bd3d
00000160: 3157 5fbd ef49 9c3d 186e 123d 2202 f83c
00000170: 54af 823d f805 b2bb 6d5f 4d3a 8278 333e
00000180: 36e4 533d d5b6 023e 86aa 8dbd 33e5 68bb
00000190: 4c28 16bd 0535 9e3d 2eee bd3d 3a5b 043e
000001a0: 5a42 a7bd c1fc 003d 63c7 c63d 07a1 adbd
000001b0: 10ec 833d 2282 be3c 7e4e 493d af03 4c3d
000001c0: 5be8 75bd a95f 213d a0dd f83d 58b9 043d
000001d0: d62b 2ebd b165 703d 91ea d638 0546 25bd
-0.005554856 0.030405723 0.014606515 -0.0068070972 -0.1002419 -0.07769638 0.0078561 0.06635469
0.11444856 0.07990308 0.07280654 -0.050651535 0.03583983 0.024176842 0.004322646 -0.046741277
-0.054072503 0.07059677 -0.02507405 0.10956366 -0.06187912 0.09469288 0.043027025 0.11126676
-0.011282292 0.043449324 0.06733879 0.044660926 0.08242179 0.022179002 0.123903014 0.036327478
0.10075259 -0.06338086 -0.0060132258 0.055312093 0.06503494 0.023356743 0.056374352 0.06473503
0.12813626 0.031596024 -0.0061778557 -0.03555664 0.035060186 0.07036348 0.044142954 0.05094438
-0.027969887 0.035623148 0.086401835 0.096438155 0.042743076 0.12571652 -0.013139707 -0.057527404
0.023113918 -0.005236098 0.012383311 0.049270593 -0.028385926 -0.07743466 -0.012876945 0.12545082
0.010085571 -0.013988255 -0.039219286 -0.03989291 0.08000089 0.108708605 0.098981164 -0.0227488
0.043559227 -0.023089914 0.0026168248 0.10876978 0.037497133 0.019742597 0.10359275 0.096567765
0.0935475 -0.015028944 0.10985746 0.11603237 -0.009646468 0.019004142 0.0083011715 0.092305705
-0.05452651 0.07631289 0.035749525 0.030274455 0.063810974 -0.0054328404 0.0007834349 0.17526439
0.05173131 0.12765057 -0.069172904 -0.0035537004 -0.036659524 0.077249564 0.09273945 0.12925425
-0.081669524 0.031491045 0.09705999 -0.08477979 0.0644151 0.023255412 0.04914712 0.0498082
-0.060036045 0.03939787 0.121516466 0.03240332 -0.042522274 0.05869073 0.000102480066 -0.04034998

fc2.weight f4 [84, 120]
00000000: d414 423d 2958 8e3d 1495 413d e7ec 2ebd
00000010: c62a 563d 7fa2 bc3d 11a2 263e 94c6 06be
00000020: 159f 523e 2d13 16be 17b6 04be fce8 bbbc
00000030: c42e d0bc a861 05be 51ef 8a3d 4137 8dbd
00000040: 7db0 ffbc b6e3 8e3d db1d 6f3d 9e73 33be
00000050: 87b0 b83d c84d 393e 9dc1 853d 8bc2 c2bd
00000060: 2c6f 5abc dea8 6d3c cdb1 a83d eda9 ba3d
00000070: 6bdc a63d e28b b53b 4be7 0dbd ed73 523d
00000080: 6407 53be a7d4 c5bd e16e 86bc f4a1 5abe
00000090: f22e 393d 640b 223d c66a 393d a970 8d3e
000000a0: 24ba f93d bdc0 a93d ba65 52bb f4cd d23c
000000b0: 3235 0a3e a7e1 883d 0482 333e 920f 5a3e
000000c0: 4a7c 6a3c 7b78 b83d 86b3 bd3d 0f0e 1ebe
000000d0: fa5d 163d a198 8dbd 0a00 953d 909d babc
000000e0: 86fc 49bc dd1c 24bd 8c88 aa3d 9bea e23c
000000f0: f991 5cbd 66ff 3e3c 7e6a 5a3c e4ac 83bd
00000100: 629f 943d 0659 a5bd 4b31 21bd ee65 33be
00000110: 01af 2e3c 3da0 61bd 5c2c 103e 70af fbbd
00000120: 1c92 af3d e622 963c 8407 a5bc cfcf 53be
00000130: 4f8e f3bc fdce cabd 0fe4 723e a51d e9bd
00000140: 0b0a 22be e77e 993e ea79 423e 4ac5 45bd
00000150: 274b 3f3e 359f bc3c 5671 25be d8cd 303b
00000160: 522e 0a3e be3f 86bd c935 e7bc 2cea 13bd
00000170: d17f 1fbd abfd 81bd 296d 2ebe e75d ebbd
00000180: 5f1e 1d3d bc66 553d 800a b93d dbb3 393d
00000190: 6b39 b43c 8be5 8bbc 44cc fcbd ab16 913d
000001a0: 7d29 b8bc 713f 0dbe e343 b5bc 7b79 83be
000001b0: e01e 9dbd 8d08 93bd 8f3d 043e 04f6 28bd
000001c0: 1268 69bc bbca 9fbd 7924 5c3e c8e9 d4bc
000001d0: f27c 21bc 7883 cbbd bb6b 37be 2fd7 8abc
000001e0: 5164 d73d ead7 e83c 20f1 debd de28 63bd
000001f0: 79d3 febc fab4 03bd 62ec 063e 5018 143d
00000200: 24ed e03d 5387 7e3d 9af7 3dbe 6c33 61be
00000210: 6310 ea3d 669d 233d 8391 89bb cf14 aa3d
00000220: b9df 99bd d8e5 f23d 2ddc 093d 2c3b bcbd
00000230: 322d 833d e113 ec3d 4cb6 af3d de6c dabc
00000240: 8fc5 593d 657b e7bd 1018 d3bd addd 0cbe
00000250: 1585 4bbd 1349 eeba e118 debc 4fa3 0d3e
00000260: f633 263d 758f 17bd 04ea 503c d098 ab3d
00000270: faa6 753e 471b 5b3d 58d7 fbbd dfbd 053c
00000280: 4e85 803d f335 9e3d 9b2c 963c 87e2 833c
00000290: c66c a6bc 2ad6 b53b e7cb 08be 2fcf ac3e
000002a0: ea1d f13c dd97 dabc 2589 aa3d 616c 2dbe
000002b0: 8e1a 8abd a5c1 a0bd 2ab1 cf3c 5a18 f03c
000002c0: c126 a5be de93 f0bc 2fe1 b1bd 2c9e 87be
000002d0: a52b 983d d423 403d 7cef 9fbd 98d4 18bd
000002e0: 33d7 153e c54f a43c 2488 033e 0245 d3be
000002f0: 33b0 ae3d 0c6f acbe 94d9 bb3d d491 1abe
00000300: f1ce d9bd 2bc0 4d3e dd93 6b3d dbac f93c
00000310: b1c4 abbd 0bcf 01bd 8359 54be 6aaa 0ebd
00000320: 46b3 713d cd26 323d 9489 4fbd c525 0fbe
00000330: daa0 a1bc 409f 38bc 4c71 a4be 71ee 87bd
00000340: c477 e33d e296 4abd aa25 853d a333 02be
00000350: 6956 7e3d 0278 4cbd 9aa6 bf3d 8e1b e7bd
00000360: 0cd6 f83b 0f4c 9fbd 2b9f 45bd 0721 ffbd
00000370: d749 d0bd 9459 073e 2024 4abd 7a38 26be
00000380: 1631 d23c aa9d a4bd b762 08bc bf50 2bbe
00000390: f253 7a3d 3347 8dbd dd46 e23c af08 02bd
000003a0: 0f8d babd 3d3f c53d 3cc9 cd3c 863d f9bd
000003b0: 65a6 37be 549b a73c 902b 6e3c 2151 a53d
000003c0: 7630 05be 099c 173d 56da 39bd 495e b83c
000003d0: 746d 05bd 0c5f f4bc 5dfe f1bd 1e38 27be
000003e0: 9b96 7e3b db98 823e 3aeb ff3d 8566 a13d
000003f0: 4000 10be d185 b8bc 04af b1bb c937 3ebc
0.047383144 0.06950409 0.047261313 -0.042706396 0.052286886 0.09210681 0.16272761 -0.13161689
0.20568497 -0.14655752 -0.12960087 -0.022938244 -0.025412925 -0.13025534 0.06783927 -0.068953045
-0.031212086 0.06977026 0.05837808 -0.17524573 0.09018045 0.18096077 0.065310694 -0.095097624
-0.0133321695 0.014505593 0.08237038 0.09114442 0.0814751 0.005540357 -0.034644406 0.051380087
-0.20608288 -0.09659701 -0.016410293 -0.21350843 0.045210786 0.039561644 0.045267843 0.27625015
0.12193707 0.08288715 -0.003210409 0.025732972 0.13496855 0.06683665 0.17530066 0.21295002
0.014311859 0.09007355 0.09262757 -0.1543505 0.036710717 -0.06913877 0.07275398 -0.02278021
-0.012328273 -0.04006659 0.083268255 0.02769976 -0.053850148 0.011657571 0.013331054 -0.06429461
0.07256962 -0.080736205 -0.03935365 -0.17519352 0.010661841 -0.055084456 0.14079422 -0.122893214
0.0857279 0.018327188 -0.020145185 -0.20684741 -0.029730944 -0.09902761 0.2371981 -0.11382607
-0.15824144 0.2997963 0.18991819 -0.048283853 0.18681012 0.023025135 -0.16156515 0.0026978161
0.13494232 -0.065551266 -0.028223889 -0.036111996 -0.038940255 -0.063472115 -0.17033829 -0.1149252
0.038359042 0.05209993 0.09035206 0.04533754 0.022000035 -0.017077228 -0.12343648 0.07084402
-0.02248072 -0.13793732 -0.022127097 -0.2567862 -0.076719046 -0.07179365 0.12914108 -0.041250244
-0.014246004 -0.0780234 0.21498288 -0.025990382 -0.009856449 -0.09937185 -0.1791219 -0.01694831
0.10517181 0.028423268 -0.10885835 -0.055458896 -0.031106697 -0.032155015 0.1317611 0.036156
0.10982731 0.062140774 -0.18551484 -0.21992272 0.11428907 0.03994503 -0.0041982546 0.0830475
-0.07513375 0.118602455 0.03365724 -0.09190974 0.06405105 0.11527229 0.08579692 -0.02666324
0.053166922 -0.113028325 -0.10307324 -0.13756438 -0.049687464 -0.0018179737 -0.027111473 0.13831829
0.040576898 -0.037002046 0.012751106 0.08378756 0.23989478 0.05349281 -0.12296933 0.008162945
0.06275426 0.07725134 0.018331816 0.016099228 -0.02031554 0.005549212 -0.13359033 0.3375182
0.02943321 -0.026683742 0.083269395 -0.16935875 -0.06743346 -0.07849435 0.025353033 0.029308487
-0.3225613 -0.029367384 -0.086855285 -0.26487863 0.074301995 0.04690917 -0.0780935 -0.03731212
0.14632873 0.020057568 0.12844902 -0.41263586 0.08529701 -0.33678472 0.09172359 -0.15094692
-0.10635174 0.20092838 0.05751406 0.030477932 -0.08387125 -0.031691592 -0.20737271 -0.03483049
0.05900886 0.043494035 -0.050668314 -0.13979252 -0.01973002 -0.011268437 -0.3211769 -0.06637276
0.11106828 -0.0494603 0.065013245 -0.1271501 0.062094126 -0.049919136 0.093579486 -0.112845525
0.0075938758 -0.07778179 -0.048247498 -0.12457471 -0.10170334 0.13217765 -0.049350858 -0.16232482
0.025658172 -0.080378845 -0.008324317 -0.16730021 0.061115213 -0.06898346 0.02762168 -0.031746563
-0.09108936 0.09631202 0.02512037 -0.12169938 -0.17934568 0.020459808 0.014536753 0.08072115
-0.13006768 0.03701404 -0.045374237 0.022505896 -0.032575086 -0.029830478 -0.11816094 -0.16330001
0.0038847092 0.25507244 0.12496038 0.07880882 -0.14062595 -0.022524746 -0.005422475 -0.01160998

fc2.bias f4 [84]
00000000: e51d 8a3d 72b9 2cbd b421 fa3d 39d9 b93d
00000010: 9327 023d c8a7 183d c0e0 e53d fd16 723d
00000020: 69b3 1dba 0622 eabc ca0b 9b3d 6eff 313e
00000030: 006c 973d 0c07 03bc 57ae edbc 1ad1 8abd
00000040: 3d20 ca3d 2f0d d13d 58e0 d5bd 3137 c13c
00000050: 06fa 013c bbf5 283e 2584 e5bd a80b 5ebd
00000060: c6e7 ea3d e199 223e 6016 cd3d b114 0f3e
00000070: 73ee 90bb 2557 d53d 59a5 fa3d 2e0b 093e
00000080: 2112 18bd b11d d2bd 0e42 e13d b19c b8bd
00000090: 5504 0c3d 6df6 65bd 189e d5bc b42b efbb
000000a0: 68a7 02be fcc2 733d a700 6a3d eeda fc3d
000000b0: de79 7bbd a103 ecbd bf9e 523d f895 31bd
000000c0: 38e4 3e3c 6f2e 5a3e d60a afbd 44ea d4bd
000000d0: 60a0 5d3d 9fc6 0ebe e236 093e 1893 30bd
000000e0: 9280 9dbd 5e43 533d 07c5 db3d 6455 073e
000000f0: 5e1c cb3d d975 2b3e aa2c 143d afb7 00be
00000100: c532 0c3e 4777 263e 145a f3bd 2617 18bd
00000110: a22d e8bd 5377 5bbd d65c fe3d bfa4 853d
00000120: ed13 373e b296 a1bd 750a 7f3d 4799 0fbe
00000130: 3060 573e 0b87 a9bd c7db 923c aded 233e
00000140: 66f5 613d 20fb e93b 4bf6 b6bc 9bf9 ff3d
0.06743983 -0.042169042 0.122134596 0.09074635 0.031776022 0.037269384 0.11224508 0.059103955
-0.0006015809 -0.028580677 0.07570608 0.17382595 0.07393646 -0.007997286 -0.029013796 -0.06778164
0.0986943 0.10207593 -0.10443181 0.023585888 0.007933145 0.16499989 -0.11206845 -0.054210335
0.114699885 0.15879013 0.10014033 0.13972737 -0.0044229566 0.10417012 0.12238569 0.13383171
-0.037126664 -0.102595694 0.10998927 -0.090142615 0.03418382 -0.056143213 -0.026076362 -0.007298911
-0.12759173 0.059512123 0.05712953 0.12346445 -0.06139552 -0.1152413 0.051420923 -0.043355912
0.011651091 0.21306776 -0.08546989 -0.10396245 0.054108024 -0.13942955 0.13399842 -0.04310903
-0.076905385 0.05157792 0.10730939 0.13216168 0.0991752 0.16744174 0.036175407 -0.1257007
0.13691242 0.16256438 -0.118824154 -0.03713145 -0.11336829 -0.053580593 0.12420051 0.065255634
0.17878695 -0.07890071 0.062265832 -0.14023314 0.21032786 -0.082777105 0.017927064 0.16008635
0.05516567 0.007140532 -0.022334239 0.1249878

fc3.weight f4 [10, 84]
00000000: 6653 6fbe faef 6e3d cb51 bebc 2284 b53c
00000010: e5e8 0bbf 4f6a e23d ae5e 69be f553 0c3d
00000020: bcfb 1ebe f68c b03d fc18 ff3c 1e49 873d
00000030: 8704 f93d fb38 3c3e c6ef e6bb 122b e3bd
00000040: 4c61 0e3e 7040 b13c f2fc b0ba e02a 81bd
00000050: 8b1d 383d caad 993d e290 febc aab2 36bb
00000060: e3b2 123e 0c85 9abe 9659 f83c e07d 233c
00000070: acc4 6d3d c545 c93d d3a5 92bd 5b82 6bbd
00000080: c4ba 98bd e299 3ebc 6ec3 023e f365 3d3d
00000090: 385b 1fbe 430e 1a3b 9827 11bf 51d5 d23d
000000a0: e24f 103d ae98 f73c 0b09 eebd 2c56 ccbe
000000b0: 9cc9 d93d e0c6 8e3c 448f c7be 20fa 193c
000000c0: abe9 bd3d 7536 f73d f13a 0dbd 9a55 04be
000000d0: 8937 2a3e b9c7 a0bd 9c42 df3d 091c 72bd
000000e0: ec62 42bd 802c 8a3d 5bc3 7fbd 794f 053a
000000f0: c1eb 043e af6b 1ebd 163f d4be 0c9c 1dbd
00000100: 0141 553d a99e a03d 5c55 8dbb 0a79 343d
00000110: fff5 ec3c 904f 0cbd 87df 833c 7e88 fabd
00000120: b445 8f3d b2d3 4c3d 8a39 46bd 3033 d03d
00000130: 3aba 91bb ad6a a1be ea54 f5bd 47d8 0abb
00000140: 7dab 863d 119d 8bbb 5261 b9be 8b6e 58bc
00000150: 24ec 9d3d d59d 61bd a5d4 a33d b596 e6be
00000160: a1c5 ea3d a66f 063e a090 9d3d eb3d c93d
00000170: 9b0e 463c 97b9 a3bd bb93 80bd 36a0 fdbe
00000180: f867 05be 201b 8b3d c357 bdbd f0ed a7bc
00000190: e531 e23d b031 2b3e fa73 9d3a a7fc 8c3d
000001a0: 2d43 59be aa51 3abd 170b 03bd ce6d 93bd
000001b0: af15 a73d e362 23bc 031c 9d3c 93b4 ec3c
000001c0: 3456 c53d c44b bc3d c9d9 33be 1976 76bd
000001d0: e152 e73b a229 6cbc 544f 77bb 7715 783d
000001e0: 3e6a 53be 22dd 8d3c 7b0f 7f3d 3d06 ec3c
000001f0: 4660 65bd 7f41 2d3d 6869 6f3d 588f 093e
00000200: 1c40 8cbd 5338 d93c 3e07 aebc c898 0e3d
00000210: ca4b 293c 56cd bb3d 3da0 503d 8582 fc3b
00000220: 3ee3 aebc 3d6a eabc 4b5a 243e 30c2 d1bc
00000230: 1f89 cfbc de99 7cbe 28a3 5bbd de53 10bd
00000240: 9cc1 b53d 8a64 b53d 876b 733c 45af c6bd
00000250: ad53 5fbd 2c2c f5be d7eb 13be 2ec9 0ebe
00000260: 718b 39bc 1d95 58bd 193e e83d 09de 1a3d
00000270: 0156 343d ac42 cebd 5fb7 8ebe e4f6 293d
00000280: cf0e 133b 90bd 143e dadb 673d b2f9 d8bd
00000290: 9c4d bc3d 5450 573d a6fd a73d f798 1cbd
000002a0: 99fa 003e 9922 31be 52b7 8abe 1656 b83d
000002b0: 90dd a63d 83de f03d 0548 4f3d 292d d53d
000002c0: 6691 9b3c e683 313d a998 333d 78d4 2f3d
000002d0: f248 3dbe a97e ee3d 7d47 3d3c 9507 30bd
000002e0: 2ba3 4a3d fe4b 83be 714d 39bb f345 b6be
000002f0: 3370 963c 37cc ef3d 96d5 23be 5496 a7bd
00000300: 3ad0 343d 54de d53d 747c c23c 37ca 0fbd
00000310: ca1e b8be f89f 013e 5ee8 acbd 0e1e a33d
00000320: 58a6 7a3c 56e0 ad3d b087 02bf 4df9 5abd
00000330: a0d9 e5bc 3bd4 febd 1785 cabd 25b5 973d
00000340: b38d 003d a2a1 de3c cb72 a23d af97 7b3c
00000350: 595f ba3d 9822 21bd 7fbb 86be d29f fdbd
00000360: 9c70 a8be 7690 9dbb 0f2f 9cbc 304b c5bd
00000370: d2f6 b3be 112b b13d caec dc3c b9b0 e83b
00000380: 85ab 743d 1347 043d 68f0 7dbe 26a1 153e
00000390: 271f d03d 67b7 a6bb 91e2 f33c 00ef 44bc
000003a0: 08d6 1fbb b533 aeba d9c7 c3bc 1f60 99bd
000003b0: 763a d3bd 7344 a0bd a2a9 7d3d c884 f83c
000003c0: 8bf4 053d 9acc 0c3c d60d 46bc c851 96bd
000003d0: 3e97 023e d6d8 d4be 8d6f a73d 8c58 cdbd
000003e0: 3bec 823e 750b d4bd da0b 69be abe5 ac3d
000003f0: e45f 84be 53a7 23be 14b8 973c 50f9 ec3b
-0.23371658 0.05833433 -0.023232361 0.022157732 -0.54652244 0.11055433 -0.22790024 0.034259755
-0.15525717 0.08620636 0.031139843 0.06605743 0.12159067 0.18381111 -0.007047626 -0.110921994
0.13904303 0.021637172 -0.0013503118 -0.06307006 0.04495005 0.07503851 -0.031074945 -0.0027877488
0.14326052 -0.30179632 0.030316155 0.009978741 0.05804889 0.098277606 -0.07160535 -0.057497364
-0.07457498 -0.011633368 0.12769863 0.046239804 -0.15562141 0.0023507036 -0.5670104 0.10294593
0.035232432 0.03022417 -0.116228186 -0.39909494 0.10634157 0.017428815 -0.3897649 0.009398013
0.09273084 0.12070934 -0.03448004 -0.1292328 0.16622747 -0.07850594 0.109013766 -0.059108768
-0.04745762 0.06746769 -0.062442165 0.000508539 0.12980558 -0.038676914 -0.4145438 -0.038478896
0.052063946 0.07842762 -0.004313154 0.044060744 0.028925894 -0.034255564 0.016097797 -0.12233065
0.06995717 0.050006576 -0.048394717 0.10166013 -0.0044472488 -0.315267 -0.11979087 -0.002118604
0.065756775 -0.004260667 -0.36207062 -0.013209949 0.07711056 -0.05508216 0.07999543 -0.45036855
0.11463476 0.13128528 0.07693601 0.09826263 0.012088443 -0.07994383 -0.06278177 -0.49536294
-0.13027942 0.06792283 -0.09245255 -0.0204992 0.11044673 0.16718173 0.0012012713 0.06884127
-0.21217032 -0.045488037 -0.031992998 -0.07198678 0.08158433 -0.009972307 0.019178396 0.028894698
0.096355826 0.09194139 -0.17563547 -0.06017122 0.0070594405 -0.014414223 -0.0037736492 0.060567345
-0.20645997 0.017317358 0.062270623 0.028811568 -0.056000017 0.04229879 0.058450133 0.13433588
-0.068481654 0.026516115 -0.021243688 0.034813672 0.010333011 0.09170024 0.050934065 0.007705989
-0.021348592 -0.028615111 0.16050069 -0.025605291 -0.02533394 -0.2466807 -0.053622395 -0.035236232
0.08874819 0.08857067 0.0148571795 -0.09701399 -0.05452316 -0.47885263 -0.14445435 -0.13943931
-0.011324749 -0.05287658 0.11339969 0.037809405 0.044027332 -0.100713104 -0.27874276 0.04149522
0.0022439247 0.14525437 0.05660615 -0.105945006 0.0919449 0.05256684 0.082026765 -0.038231816
0.12595595 -0.17298354 -0.27092987 0.090007946 0.081477284 0.11761191 0.050605793 0.10409004
0.01899023 0.04333868 0.04384676 0.042927235 -0.18484858 0.11645252 0.011552689 -0.04297598
0.049472015 -0.25643915 -0.0028274918 -0.35600242 0.018364048 0.11708873 -0.15999445 -0.0818297
0.044143893 0.10442796 0.023740984 -0.035104956 -0.3596099 0.1265868 -0.08442758 0.07964717
0.0152984485 0.08490054 -0.5098829 -0.053460408 -0.028057873 -0.124428235 -0.09888666 0.074075975
0.031385135 0.027176682 0.07932051 0.015355988 0.09100217 -0.03933963 -0.26314923 -0.12383999
-0.32898414 -0.004808481 -0.019065408 -0.096334815 -0.35149246 0.086507924 0.026968379 0.007101145
0.059733886 0.032294344 -0.24798739 0.14612255 0.10162192 -0.005087781 0.029771121 -0.012019873
-0.0024389047 -0.0013290556 -0.023899006 -0.07489037 -0.10313885 -0.07825556 0.061929353 0.030336753
0.032703917 0.008593703 -0.01208826 -0.07339817 0.12753007 -0.41571683 0.081755735 -0.100266546
0.25570855 -0.10353748 -0.22758427 0.08442243 -0.2585441 -0.15981798 0.018520392 0.007231869

fc3.bias f4 [10]
00000000: 263e 8fbc 47fe 493c 81c5 e03d 91fe 523d
00000010: c02a 173d da2c 213e 79ce 45bd c09a 5b3d
00000020: a112 0e3c 4a26 4fbd
-0.01748569 0.012328691 0.10975171 0.051512305 0.036906004 0.15739766 -0.04829261 0.053614378
0.008671434 -0.050573625
